basic-last.pt (torch, 156386 bytes, 33 tensors)

weight f4 [256, 7]
000000 f6 72 98 37 8e b1 62 b6 51 d6 b0 b4 f2 26 19 2e
       1.8173345e-05 -3.3779975e-06 -3.293849e-07 3.4822763e-11
000010 4f cc a3 b2 dd 32 08 b7 39 d6 fd 36 61 21 74 2e
       -1.9068606e-08 -8.118074e-06 7.5649264e-06 5.5508823e-11
000020 71 74 0a af ec c9 85 a9 8a 2e 4c 30 a3 eb 35 ae
       -1.2592395e-10 -5.9414144e-14 7.4280904e-10 -4.1363923e-11
000030 ef 1a 09 28 16 42 22 28 a0 79 e1 34 ea 59 c8 34
       7.610868e-15 9.007137e-15 4.199801e-07 3.7318324e-07
000040 28 86 81 34 6c cc 70 ac 85 4f 3c 30 99 f0 7a b2
       2.4125734e-07 -3.4219528e-12 6.8507006e-10 -1.4606621e-08
000050 4c fa f6 35 d2 46 98 37 67 98 33 b6 a1 22 b8 b5
       1.8401274e-06 1.815279e-05 -2.6761788e-06 -1.3719147e-06
000060 ed b3 5c 2f 4e f2 4a 37 fc 8a ca b1 1e fc 08 b0
       2.0072806e-10 1.2096554e-05 -5.8947744e-09 -4.983479e-10
000070 4d be 53 36 86 84 a9 b5 87 ee 9a b3 2c fc 08 2d
       3.155222e-06 -1.2630051e-06 -7.214572e-08 7.786698e-12
000080 9c d5 00 b0 90 d2 5a b6 87 f7 45 2f 40 1c 5c 30
       -4.6869686e-10 -3.2607095e-06 1.8004985e-10 8.007568e-10
000090 c0 0a a0 af a7 e0 32 2c f6 48 1a b5 ed d4 b5 ab
       -2.911147e-10 2.5420028e-12 -5.747564e-07 -1.2919922e-12
0000a0 21 29 7c b6 eb 47 42 aa 5e 82 1a b8 a0 1d a7 37
       -3.7574866e-06 -1.7255613e-13 -3.6837875e-05 1.9921747e-05
0000b0 fc 11 ad b5 d7 89 39 b0 ba 76 ab b1 50 59 ee b2
       -1.2894739e-06 -6.749849e-10 -4.9902527e-09 -2.7747461e-08
0000c0 4a c0 a2 34 40 5e e0 b3 69 20 44 b4 b5 5c a0 30
       3.031476e-07 -1.0447957e-07 -1.8265713e-07 1.1667881e-09
0000d0 62 51 80 33 5e 3a d3 b1 b7 be 51 2d 06 5c fd 2d
       5.975268e-08 -6.147544e-09 1.1922622e-11 2.8803637e-11
0000e0 e2 36 97 b6 ef ca d6 b5 ee 77 df b3 3b 0e 46 2e
       -4.50654e-06 -1.6003304e-06 -1.0406062e-07 4.5032627e-11
0000f0 f6 f8 bc 33 f3 ae 49 b3 1f a0 4a af 00 ae 89 ae
       8.799718e-08 -4.6958075e-08 -1.842868e-10 -6.260947e-11
000100 79 de 90 ae dd a5 22 ac d2 df dd b8 05 b7 6a 33
       -6.587881e-11 -2.3113657e-12 -0.00010579791 5.4648826e-08
000110 1d 64 68 a7 7e ee 68 26 0e a0 1d b0 a5 c1 d7 b0
       -3.225074e-15 8.0814386e-16 -5.734372e-10 -1.5698346e-09
000120 d9 8e 94 2c ea 06 8d 26 0a c6 9c 2b d4 e0 73 2a
       4.2222723e-12 9.785714e-16 1.1139434e-12 2.1660739e-13
000130 76 75 f3 34 25 9e a3 ba f1 92 1b bb b5 3c 4c 38
       4.534774e-07 -0.0012483044 -0.0023738707 4.8693928e-05
000140 b9 4e 06 b2 04 b1 83 b6 42 a3 2d 35 86 bc 94 b4
       -7.817726e-09 -3.9247116e-06 6.4685094e-07 -2.7704317e-07
000150 45 7a 5d 36 25 42 87 b5 2c 0f 75 35 e5 b8 1a 37
       3.3002736e-06 -1.0077534e-06 9.129169e-07 9.222164e-06
000160 59 37 38 b6 5a 7f 72 31 1a fe b0 b5 6d 4a 76 2e
       -2.7450353e-06 3.5288026e-09 -1.3186975e-06 5.6000028e-11
000170 e9 75 d6 ad 6c fa 02 aa 0f d2 62 25 8b ea ce a9
       -2.4381346e-11 -1.1633202e-13 1.9673546e-16 -9.1889244e-14
000180 f7 20 9f a9 d9 e2 b2 35 69 9d 66 2f 16 cc 3f b0
       -7.066737e-14 1.3328055e-06 2.0974301e-10 -6.977542e-10
000190 1d bd f6 ab 63 17 9b 25 d6 00 97 35 57 99 5d 34
       -1.7531841e-12 2.6904061e-16 1.125062e-06 2.0638014e-07
0001a0 9c 23 b8 a7 41 24 86 35 e6 f1 37 b6 38 ea fb b0
       -5.1108867e-15 9.994329e-07 -2.7409928e-06 -1.8329223e-09
0001b0 67 4a 3d b5 18 85 c9 af 88 2a 46 36 79 c9 62 af
       -7.0516256e-07 -3.6656256e-10 2.9529056e-06 -2.0626158e-10
0001c0 02 16 3a 32 94 01 8b b1 0d f0 ae 2e df 64 3f 28
       1.0831629e-08 -4.045612e-09 7.9552455e-11 1.0624503e-14
0001d0 06 85 80 31 54 6a 98 35 03 9e af ae 7f ec 3f b1
       3.7404133e-09 1.1355828e-06 -7.986147e-11 -2.792859e-09
0001e0 bd 9d e3 b1 17 4c f1 2f 4a 7e 44 aa 3c 2a a4 af
       -6.6245023e-09 4.389171e-10 -1.7452112e-13 -2.9861436e-10
0001f0 62 b4 dc ab e4 5e 6a 2c 27 2e 3d 39 6c 49 46 b8
       -1.5682006e-12 3.3306075e-12 0.00018041638 -4.7275258e-05
000200 c4 f2 e8 b4 07 a6 54 ae a8 6f 39 37 d5 04 e2 34
       -4.3390003e-07 -4.835068e-11 1.1052856e-05 4.2099296e-07
000210 86 5a 9f b0 db cc 27 3b e1 49 71 ba 9e 8f 5a b9
       -1.1594501e-09 0.002560428 -0.0009204429 -0.00020843602
000220 76 2a 09 b3 b0 37 23 b7 33 a3 79 b6 03 b1 cb b5
       -3.1936416e-08 -9.728523e-06 -3.7198886e-06 -1.5176196e-06
000230 ba 0f 81 3b fd fc ed 3a f2 54 4e b9 8b b3 d1 33
       0.0039386423 0.0018157061 -0.00019677336 9.7649796e-08
000240 86 28 61 b4 6e 7b e4 37 dd b9 80 b4 a9 49 6c b4
       -2.09695e-07 2.7237194e-05 -2.397709e-07 -2.200601e-07
000250 f5 89 d2 b5 60 89 c1 b2 f9 f5 ea aa 33 27 87 30
       -1.568637e-06 -2.2530628e-08 -4.1737428e-13 9.833684e-10
000260 7e 4b 63 b3 1a 3a e9 2e 9a 2f ac 31 fa 16 5b b1
       -5.2921216e-08 1.0605934e-10 5.0112705e-09 -3.1881755e-09
000270 19 83 c1 2f e8 54 a2 a9 78 fe 62 34 35 bc 10 39
       3.5199646e-10 -7.208974e-14 2.1140465e-07 0.00013803023
000280 f0 3e fc 35 d7 6a 9d 2f 39 21 a9 b0 ed a9 87 2c
       1.879378e-06 2.8634048e-10 -1.2305811e-09 3.8557963e-12
000290 6a 97 9c 32 62 6f bd b1 16 9d 28 b6 ac 3b 14 35
       1.8229645e-08 -5.5132867e-09 -2.5125387e-06 5.522113e-07
0002a0 cd b0 9d af f5 c3 12 af ae 38 5b ac d8 aa e3 29
       -2.8683758e-10 -1.334824e-10 -3.1153235e-12 1.0110462e-13
0002b0 e5 02 ed aa a3 48 63 b5 aa 9e 35 a9 56 a8 12 31
       -4.2101666e-13 -8.466979e-07 -4.0327693e-14 2.1341484e-09
0002c0 60 c3 b5 b0 9c 0e a2 2d b6 41 78 27 75 c2 50 2c
       -1.3225012e-09 1.8423756e-11 3.4452536e-15 2.9666523e-12
0002d0 6b 8f b5 36 65 91 07 33 47 1c 30 38 5e fd 18 38
       5.4109164e-06 3.1564372e-08 4.1988005e-05 3.647559e-05
0002e0 b5 1a 51 b4 2e f8 1e b1 45 03 cc b6 87 99 5d 37
       -1.9474358e-07 -2.31331e-09 -6.0800544e-06 1.3208372e-05
0002f0 cd 2b 09 b2 f4 8f dc b1 e8 21 c7 b1 a5 7e cd ae
       -7.984409e-09 -6.4192083e-09 -5.795517e-09 -9.344817e-11
000300 01 25 c9 a7 5d 2e f4 b7 67 bc 2a ab 3d 26 1a ac
       -5.5828827e-15 -2.9108656e-05 -6.0657593e-13 -2.1905943e-12
000310 62 35 48 33 11 3c 50 b5 70 74 eb af da 8e b2 b8
       4.661468e-08 -7.7573446e-07 -4.2828985e-10 -8.5143096e-05
000320 9a b7 dd 31 b6 7a a0 ae 05 d9 8b ae 1b 5b 00 b1
       6.4528196e-09 -7.2977555e-11 -6.3595386e-11 -1.867824e-09
000330 e5 7e ff b0 78 b4 0c 2e 91 e3 88 ad de 5b 3b 2c
       -1.8589758e-09 3.1992603e-11 -1.556247e-11 2.6625295e-12
000340 fe bc 4f 32 c2 1b 3e b8 3a 5b f5 b5 d9 75 f1 b7
       1.2091958e-08 -4.532538e-05 -1.8280473e-06 -2.8784316e-05
000350 b7 6a 5d b3 7c b5 1c b1 41 49 ac 34 87 4c aa 34
       -5.155263e-08 -2.280415e-09 3.2090796e-07 3.1720649e-07
000360 bc d0 c2 31 f4 d5 f5 36 20 83 98 b8 8a 01 4b b4
       5.6698735e-09 7.3264764e-06 -7.272349e-05 -1.8906408e-07
000370 bb 82 2b b3 d8 b0 29 32 92 64 28 32 f6 a0 09 34
       -3.993294e-08 9.877304e-09 9.801754e-09 1.2817677e-07
000380 57 44 65 32 4a 78 4b 31 b4 82 06 2f e9 88 a0 37
       1.3345093e-08 2.9608764e-09 1.2233664e-10 1.913724e-05
000390 e3 78 ef 34 db 5e c8 b6 c7 d0 99 b5 a3 0c 7a b9
       4.4605176e-07 -5.971507e-06 -1.146015e-06 -0.00023846565
0003a0 85 0a aa b9 5b af 0d b6 e9 11 e5 2f 07 73 30 34
       -0.00032432764 -2.1112708e-06 4.1667583e-10 1.6433124e-07
0003b0 fd c7 80 35 81 e4 1f b3 7e d6 0c 2f 37 38 62 32
       9.594947e-07 -3.7227895e-08 1.2809129e-10 1.3167713e-08
0003c0 75 8a f5 30 9f 1f 51 2a c2 a5 63 36 2d 11 83 2f
       1.7865448e-09 1.85739e-13 3.392212e-06 2.3840965e-10
0003d0 4c 78 8a af 10 b0 91 33 fb ac 41 31 2f 0b ad 30
       -2.518753e-10 6.784114e-08 2.8183524e-09 1.2590585e-09
0003e0 ff 53 05 33 22 4c 4b 37 9d 84 1c 2e 08 ef f3 b1
       3.104287e-08 1.2117469e-05 3.5588078e-11 -7.0994055e-09
0003f0 6c a8 0d 31 46 e2 09 b0 22 b1 be 2d b3 82 46 36
       2.0613937e-09 -5.0161864e-10 2.1679162e-11 2.9580376e-06

bias f4 [256]
000000 d1 98 0a b3 71 a3 1e aa d5 f0 fd 31 89 44 1c 37
       -3.2269615e-08 -1.4089924e-13 7.3906485e-09 9.314282e-06
000010 f8 62 3f b2 b4 d4 9d 2c be d1 49 b7 61 3b 88 33
       -1.1140166e-08 4.485823e-12 -1.2029368e-05 6.3437945e-08
000020 1c 35 48 37 3f 9f 07 b1 14 a2 c6 aa 54 e9 4d 38
       1.1933294e-05 -1.9735606e-09 -3.528433e-13 4.9093112e-05
000030 18 d1 52 b0 9d 73 0a ab b8 92 e5 aa 94 e9 c0 af
       -7.6694695e-10 -4.9187894e-13 -4.0780378e-13 -3.5090564e-10
000040 f0 2c 50 af 07 cc c3 ad 45 49 63 33 06 c8 89 b7
       -1.8933455e-10 -2.225954e-11 5.2919194e-08 -1.6424816e-05
000050 33 95 4c b9 1f e6 20 30 34 19 b5 af 8b fc 8c a8
       -0.00019510537 5.853468e-10 -3.2941616e-10 -1.5652645e-14
000060 6f 7b 15 ab 42 55 a7 37 e1 1d 32 b8 23 cc d3 ac
       -5.310673e-13 1.9947653e-05 -4.2466334e-05 -6.0196444e-12
000070 c0 df 7e 31 9a 74 aa ae a3 44 d1 b5 dd ad 89 33
       3.7089052e-09 -7.7514176e-11 -1.5591689e-06 6.411185e-08
000080 cb bf 26 ab 3e 94 af 36 70 b6 b1 30 e6 f6 32 2e
       -5.9241213e-13 5.232664e-06 1.2930297e-09 4.0691804e-11
000090 3c a7 f8 2b 74 55 fa ab 1d 75 87 a9 0f cb 9f 29
       1.7667877e-12 -1.7787286e-12 -6.01552e-14 7.0962435e-14
0000a0 9f c4 dc aa b4 32 bd 37 ca 76 81 34 b2 fa a3 30
       -3.9216284e-13 2.2554166e-05 2.4114553e-07 1.1931063e-09
0000b0 93 3d 33 2a 08 f4 65 b0 4b f1 29 b5 7a c6 07 b2
       1.5919757e-13 -8.3656504e-10 -6.3308534e-07 -7.903163e-09
0000c0 98 0d 3b b9 bf f1 a2 37 35 64 a8 34 3a df 3d b3
       -0.00017838774 1.9424477e-05 3.136535e-07 -4.4208015e-08
0000d0 9c 1f de b3 f9 7d ed a9 61 39 74 37 c6 79 7d b2
       -1.034343e-07 -1.0546767e-13 1.4556893e-05 -1.4754226e-08
0000e0 76 1b a4 2a 87 48 09 37 84 0b 3d b2 a2 a3 12 af
       2.9151307e-13 8.182723e-06 -1.1003866e-08 -1.3336757e-10
0000f0 cb 18 42 b1 42 10 7d 35 4b 11 21 36 f8 68 cc 2e
       -2.8244809e-09 9.42735e-07 2.4000935e-06 9.295492e-11
000100 44 bd 02 b2 c7 18 db 2e 39 a4 3c b5 ec 73 61 2d
       -7.61003e-09 9.963368e-11 -7.0274433e-07 1.2815509e-11
000110 ca 4d a8 98 82 34 e8 27 5e 78 d9 34 18 a1 b0 22
       -4.350553e-24 6.4449865e-15 4.0506978e-07 4.787546e-18
000120 30 3e 12 b4 77 48 79 ad 66 fe 53 32 87 3b 65 32
       -1.3619933e-07 -1.4170102e-11 1.233966e-08 1.3343089e-08
000130 d4 29 e9 2c 41 e8 40 33 6d 56 c1 30 87 1b 38 37
       6.626902e-12 4.4914717e-08 1.4067162e-09 1.0973664e-05
000140 c9 18 5e 39 d2 2f a3 38 a3 8b 06 30 99 54 19 b4
       0.00021180803 7.781353e-05 4.894735e-10 -1.4280012e-07
000150 ac 20 61 35 25 ce 20 30 58 91 06 36 58 f4 fa 37
       8.3866576e-07 5.850061e-10 2.0052157e-06 2.9916104e-05
000160 1a 8f b7 2c f2 3c d3 b4 e6 8a ab 30 41 9f 6a 2b
       5.2170603e-12 -3.9346156e-07 1.2481365e-09 8.335451e-13
000170 99 71 29 b8 37 38 4b 2d 40 41 a2 b9 ff ba 30 33
       -4.0398536e-05 1.1551696e-11 -0.00030947663 4.1148265e-08
000180 74 23 04 ab bc 42 1d 34 0d 75 67 b3 11 6a 77 aa
       -4.694502e-13 1.4646042e-07 -5.3890336e-08 -2.1974806e-13
000190 d1 78 70 b2 43 2d 99 2c be 62 de b0 46 80 9d 2f
       -1.3997309e-08 4.3535466e-12 -1.618069e-09 2.8649277e-10
0001a0 5d f5 b2 2d ab 11 96 36 0d 3e 11 38 3c ef cd b5
       2.034522e-11 4.472405e-06 3.4628483e-05 -1.5343317e-06
0001b0 2a d9 62 36 f2 7e 20 b1 dd 84 04 36 8b af a8 34
       3.380303e-06 -2.3355224e-09 1.974687e-06 3.1420163e-07
0001c0 75 41 9c 37 00 76 03 af 26 c4 fe b3 18 a1 f4 b7
       1.862713e-05 -1.1956303e-10 -1.1863476e-07 -2.9162082e-05
0001d0 75 7f 3d b3 8e 4d 09 b5 a9 ad 12 37 7a e2 3e 2f
       -4.4120913e-08 -5.1149334e-07 8.7427115e-06 1.736086e-10
0001e0 d8 92 c8 ae 95 77 ae 29 ff ef 8d 2e af d0 30 b1
       -9.121032e-11 7.7478964e-14 6.4545695e-11 -2.5729994e-09
0001f0 0c a7 42 36 52 06 f2 30 2d 27 4b b4 99 5a bb 2e
       2.9005487e-06 1.7609614e-09 -1.89201e-07 8.519869e-11
000200 3b bc 58 35 b6 f8 98 ad 7e aa ed b6 af 81 36 21
       8.074018e-07 -1.739085e-11 -7.0829983e-06 6.1835633e-19
000210 82 66 70 ae 99 6c 42 23 c7 d3 6d b2 23 3e 3b 32
       -5.4660727e-11 1.05397575e-17 -1.3843368e-08 1.0898961e-08
000220 1b 41 51 36 0c 46 b3 37 f1 39 8d 2a 93 e6 11 33
       3.1181323e-06 2.1371081e-05 2.5086836e-13 3.397015e-08
000230 a4 e5 f9 34 b3 32 f7 33 98 92 40 2a ff 15 ad b3
       4.654695e-07 1.1511056e-07 1.7103886e-13 -8.059941e-08
000240 15 bc c1 37 80 e1 7b 29 7a b3 02 b3 d7 22 05 2b
       2.3094975e-05 5.5928786e-14 -3.0431217e-08 4.729944e-13
000250 1e b6 a2 aa 2f ca 97 37 7b fc 5a b5 63 84 30 b3
       -2.890335e-13 1.8094752e-05 -8.1578736e-07 -4.10986e-08
000260 84 a5 68 2f 44 39 71 b0 ab a9 bd 31 3a e8 ce b5
       2.115908e-10 -8.775667e-10 5.519913e-09 -1.5415783e-06
000270 73 ea 37 32 ed c0 02 ab 8c f6 09 34 5d 67 c7 b5
       1.07053095e-08 -4.6453016e-13 1.2848813e-07 -1.4856738e-06
000280 b4 97 98 34 3e 36 82 b7 7d ee 0a 39 92 e6 f9 2d
       2.8422585e-07 -1.5522466e-05 0.0001324955 2.8410416e-11
000290 ba 44 ea 2c 7c 0d fe ac 24 ef 82 2c 7c ae 0b 2b
       6.65831e-12 -7.2206113e-12 3.721372e-12 4.9624866e-13
0002a0 f9 c5 b9 2d 6c a7 4a b5 79 21 0d 2b e6 04 ef 31
       2.1119982e-11 -7.5494495e-07 5.0139716e-13 6.9563724e-09
0002b0 c6 cf 1c b4 99 38 bf 27 59 11 74 b1 a1 77 63 29
       -1.460422e-07 5.3074513e-15 -3.5516534e-09 5.0507887e-14
0002c0 6a 4d 80 33 74 95 6b b0 aa 5d 8b a9 23 40 20 b0
       5.974546e-08 -8.570489e-10 -6.189088e-14 -5.8298805e-10
0002d0 d4 8c 20 35 4c e2 ac 24 91 57 2e 38 f1 8c 4d 30
       5.9809577e-07 7.497647e-17 4.1566385e-05 7.4778855e-10
0002e0 5f ea d4 af 3f 2e 0b 30 2a 13 8c 31 ba c5 e7 b1
       -3.8729106e-10 5.0633625e-10 4.076715e-09 -6.7454637e-09
0002f0 7b e7 74 b1 ab 09 b0 b5 15 23 79 b9 8e 9f 0a 34
       -3.5638255e-09 -1.3115836e-06 -0.0002375956 1.2910297e-07
000300 7a 5c 83 b4 69 68 59 2e 8e 3e 05 38 10 8c d8 ae
       -2.4467937e-07 4.9432822e-11 3.176793e-05 -9.847423e-11
000310 bc 05 ea 34 63 59 98 b8 c5 23 05 30 8d 0a 57 2d
       4.359007e-07 -7.2645744e-05 4.843595e-10 1.2223678e-11
000320 28 d9 d0 2a a7 cf c0 31 60 9c dc 2e f6 61 cf 30
       3.7098905e-13 5.611543e-09 1.00322195e-10 1.5089074e-09
000330 14 e3 0e b7 77 51 e9 2f c5 b7 a6 31 86 d6 00 2d
       -8.51673e-06 4.2440337e-10 4.852128e-09 7.323591e-12
000340 8f b7 9e b0 e8 68 9f b9 84 ac 04 39 2c f5 c8 29
       -1.1548184e-09 -0.00030405005 0.00012652768 8.924315e-14
000350 a6 ea 50 b4 71 33 51 2e f2 47 56 b7 64 65 0c b3
       -1.9456874e-07 4.7566787e-11 -1.2772145e-05 -3.2688504e-08
000360 fa b4 a1 b5 fe ac db 34 52 26 10 28 65 c9 fc 36
       -1.2048106e-06 4.0917797e-07 8.001915e-15 7.5336307e-06
000370 da 92 11 35 74 c3 fe b5 0c ae 33 2b db c9 98 af
       5.4230406e-07 -1.8981359e-06 6.3835113e-13 -2.7792066e-10
000380 6b 33 88 36 02 9b 77 b5 3f 32 2a 2e f0 53 ee 2b
       4.0591017e-06 -9.2240236e-07 3.8698152e-11 1.6934214e-12
000390 84 fe 98 2f f3 b3 6a 31 61 52 b3 b1 19 81 3e b6
       2.7829483e-10 3.415377e-09 -5.218951e-09 -2.838735e-06
0003a0 bf 8f 90 b1 6a 91 30 b6 19 34 a6 2e ab 41 28 34
       -4.2072936e-09 -2.6310686e-06 7.5580604e-11 1.5670109e-07
0003b0 58 e6 85 34 1a ca 94 33 71 f2 63 34 5b 29 99 ac
       2.4940778e-07 6.928549e-08 2.1229222e-07 -4.353113e-12
0003c0 2d 7f 97 b5 e6 d1 44 34 88 25 83 b8 b8 dc 22 39
       -1.128739e-06 1.8330283e-07 -6.2535575e-05 0.00015531748
0003d0 a6 85 97 35 f8 d8 31 ad 41 05 5c b0 9e 39 b5 37
       1.1289274e-06 -1.0109462e-11 -8.0043e-10 2.1603712e-05
0003e0 40 97 ff b2 80 15 cb 37 2a d1 17 37 1d 58 9c 27
       -2.9754688e-08 2.4209497e-05 9.049001e-06 4.339423e-15
0003f0 25 39 07 30 93 9a c9 b0 4b 95 55 b3 e8 dd d7 b2
       4.919392e-10 -1.4668607e-09 -4.972871e-08 -2.5130205e-08

weight f4 [32, 256]
000000 ce 1e 32 36 91 59 52 2c 35 f5 1b b7 56 8f e2 b7
       2.6541998e-06 2.9892514e-12 -9.295812e-06 -2.7008045e-05
000010 8f ab bc 32 0b 5e 82 ad c6 bc 20 b7 5d 39 1e 2f
       2.1964096e-08 -1.4821052e-11 -9.580695e-06 1.4390396e-10
000020 24 73 b1 b4 8d fb 12 2a d8 be 1a 2f 28 5a 2b 3a
       -3.3052595e-07 1.3054679e-13 1.407402e-10 0.00065365667
000030 33 88 55 34 0f e8 b0 29 8c 9f 49 ac 19 5c 4a 35
       1.988672e-07 7.856226e-14 -2.8652384e-12 7.5384884e-07
000040 b5 95 52 af 7b 7c c0 2f 0a 3a 68 36 b7 09 15 ba
       -1.9152575e-10 3.5013045e-10 3.4604477e-06 -0.00056853466
000050 dc 67 3f ba 31 4f 1d 36 e8 82 91 af 84 02 60 ad
       -0.0007301548 2.3440919e-06 -2.646836e-10 -1.2733484e-11
000060 dc 45 15 ad 6b ee b1 2b 85 b3 9c b8 1c 56 14 30
       -8.485181e-12 1.2642781e-12 -7.472098e-05 5.3964455e-10
000070 63 76 2f 30 48 26 14 ae 1b a6 96 b7 19 2d 85 b5
       6.3832867e-10 -3.3685305e-11 -1.7958742e-05 -9.922397e-07
000080 83 69 71 30 4c ac 2b 37 ad 62 04 b0 25 d6 da 30
       8.782523e-10 1.023251e-05 -4.8161547e-10 1.5922451e-09
000090 f5 f6 85 ad 98 d4 65 ad 0c 01 17 2d cb 5b c0 2e
       -1.523002e-11 -1.3064348e-11 8.583589e-12 8.747455e-11
0000a0 ce 45 10 ae c9 8d 93 b3 25 a1 47 32 3c c6 1f 32
       -3.280381e-11 -6.8710115e-08 1.16199645e-08 9.300091e-09
0000b0 1d f1 2d 2d 10 71 b2 33 2c cb 3d b7 84 2f 7c b5
       9.887449e-12 8.309337e-08 -1.13125825e-05 -9.394646e-07
0000c0 50 89 ad 3a 3b ce 50 37 ca 3c 17 34 96 ed c1 2e
       0.0013239775 1.2445783e-05 1.4085086e-07 8.8188276e-11
0000d0 3f 8f 1a 35 d2 67 81 2b f9 bd 43 af 57 6f 47 38
       5.757792e-07 9.194817e-13 -1.7802639e-10 4.754899e-05
0000e0 c4 16 b8 2d 81 f2 fa b7 26 b2 6a ae 66 ac f5 ad
       2.0928488e-11 -2.9915247e-05 -5.3363668e-11 -2.7929836e-11
0000f0 cd 5e 09 32 f4 44 2d b9 66 88 a4 b9 4e 86 00 b1
       7.996005e-09 -0.00016524253 -0.00031382142 -1.8702795e-09
000100 58 fd 2b b7 36 b4 58 b0 17 27 b9 2c 59 df fa 2f
       -1.025138e-05 -7.883644e-10 5.262356e-12 4.5633433e-10
000110 7a 89 7e 9b d1 65 d5 aa ce 53 cc 36 93 bb 57 a5
       -2.1054809e-22 -3.790705e-13 6.08943e-06 -1.871183e-16
000120 19 85 af 37 64 c6 97 af 92 09 cf 34 4b aa 15 ad
       2.0923604e-05 -2.7607705e-10 3.8563718e-07 -8.507482e-12
000130 64 3f d5 2f 72 96 30 34 cc 9a 80 31 24 ca 29 b6
       3.8789516e-10 1.6446009e-07 3.7428887e-09 -2.5300624e-06
000140 89 27 a2 2f 32 a6 5f 2f d0 1e 0b b2 8d 3a 86 b5
       2.949572e-10 2.0340776e-10 -8.097871e-09 -1.0000819e-06
000150 79 89 3b ab c9 4f 6f 34 5e ad 70 34 55 8c 5c 39
       -6.662653e-13 2.2287635e-07 2.2414812e-07 0.00021033113
000160 c0 cd 92 30 dc b5 b0 b7 3f d3 4d 33 26 b4 22 ad
       1.0681376e-09 -2.106552e-05 4.792241e-08 -9.248635e-12
000170 fc 1f 0b ac 40 1b 1d 30 1c 1d ed b9 10 6a 41 37
       -1.9770843e-12 5.715499e-10 -0.0004522585 1.1528391e-05
000180 71 71 61 2d 6a c5 0b b5 cf 3e 94 35 de e7 86 30
       1.2814958e-11 -5.206881e-07 1.1045139e-06 9.815684e-10
000190 86 80 1c 37 c2 69 0c ad df 57 6f 33 eb 0f c0 af
       9.328249e-06 -7.981562e-12 5.5726442e-08 -3.4935907e-10
0001a0 e6 69 85 2f de 38 85 37 34 36 69 ae 77 08 2d 38
       2.4267804e-10 1.5881316e-05 -5.302621e-11 4.1254298e-05
0001b0 86 21 68 b8 a6 df 47 af e6 38 53 b6 96 10 56 36
       -5.534433e-05 -1.81784e-10 -3.147457e-06 3.189814e-06
0001c0 38 68 bd 31 1c 60 62 b0 4e 7b 1e ac 79 78 f1 39
       5.5124723e-09 -8.23549e-10 -2.2521598e-12 0.0004605686
0001d0 17 c0 67 39 66 99 59 37 9d dd c3 36 3c 81 48 33
       0.00022101436 1.2969924e-05 5.837252e-06 4.6683667e-08
0001e0 64 ba af 2f 09 e2 09 aa 31 36 ad af 29 81 aa b4
       3.1964753e-10 -1.2246466e-13 -3.1507022e-10 -3.1758944e-07
0001f0 81 f5 05 b8 1e 33 8a 2e c7 ec 78 b6 70 6f d6 30
       -3.1938314e-05 6.284594e-11 -3.7092702e-06 1.5602222e-09
000200 97 76 ed 36 b7 db 82 2d 04 4a 4a 39 01 8b a6 a4
       7.076956e-06 1.4876862e-11 0.00019291794 -7.2226506e-17
000210 df ad 5c ae 85 86 69 27 b6 62 4d b5 18 68 8a ad
       -5.0176637e-11 3.2408169e-15 -7.6512094e-07 -1.573501e-11
000220 4a b5 8f 31 b2 46 bc 35 ae ca b9 2f 0c b8 c2 b6
       4.182458e-09 1.4027667e-06 3.3795317e-10 -5.8030764e-06
000230 12 0e 01 30 ec 3f cf 35 ea 19 f9 ab 70 13 84 33
       4.694992e-10 1.5441306e-06 -1.7699707e-12 6.150265e-08
000240 0c 83 1f b9 6c 30 0e 2d 82 79 e9 b8 7d 02 29 ae
       -0.0001521224 8.082517e-12 -0.000111329384 -3.842836e-11
000250 8a 0d 1b ad c7 7e 68 b8 f5 06 49 b7 9c 63 a3 32
       -8.813736e-12 -5.543118e-05 -1.1982153e-05 1.9020995e-08
000260 d7 b5 e6 2f 55 0f 76 b3 48 6c 84 30 22 53 64 b9
       4.196596e-10 -5.7290283e-08 9.635039e-10 -0.00021774744
000270 ac ee 4d 36 da 2d db ad a4 94 67 34 3d f8 2b 37
       3.0686306e-06 -2.491778e-11 2.1567627e-07 1.0250192e-05
000280 21 f8 03 bb 65 1b 61 b9 5f e4 19 31 c3 99 a6 30
       -0.002013691 -0.00021467877 2.2394244e-09 1.2121791e-09
000290 73 67 22 2e f4 4b 75 2d de d7 05 2e 53 39 99 ad
       3.6926417e-11 1.3943503e-11 3.0432427e-11 -1.7419543e-11
0002a0 00 fe 2a 31 72 67 98 b0 5d 6c 14 2f 96 15 95 b5
       2.4882638e-09 -1.1088856e-09 1.349902e-10 -1.1107647e-06
0002b0 c0 fb 3f 33 bd ee 09 29 79 af 7c 32 6b 88 17 a8
       4.469962e-08 3.0627183e-14 1.4708228e-08 -8.411765e-15
0002c0 19 73 92 37 30 6b 1b b4 13 d4 30 af d9 9a 20 b0
       1.7458153e-05 -1.4474494e-07 -1.608245e-10 -5.842771e-10
0002d0 9f fb d2 b4 bd 6a 76 a7 87 31 da 38 7f a9 6e b3
       -3.9298627e-07 -3.419722e-15 0.00010404275 -5.556785e-08
0002e0 ae f7 81 b0 2f ee e2 33 60 7e 27 b4 38 8c 17 b2
       -9.45638e-10 1.05672704e-07 -1.5599062e-07 -8.821239e-09
0002f0 4e 56 f8 b6 39 5e 45 37 e8 39 5c bb d5 ae 32 2d
       -7.401023e-06 1.1764053e-05 -0.003360385 1.0156949e-11
000300 e1 2b 7e 37 54 8b 55 ad b9 ca 1d b8 4e 2f 88 32
       1.5149796e-05 -1.2138585e-11 -3.7620517e-05 1.5853995e-08
000310 36 32 08 30 f2 51 95 3a b0 90 35 30 fb 78 e4 2c
       4.9547866e-10 0.001139222 6.605303e-10 6.4935813e-12
000320 5a 3b 12 2e 0d f1 54 2d aa a6 40 2d 6d 51 2b 34
       3.324927e-11 1.2104329e-11 1.0950943e-11 1.5955239e-07
000330 0d 66 b0 34 53 3f 70 2f 76 61 77 36 06 04 01 31
       3.2856806e-07 2.185037e-10 3.6862598e-06 1.8774258e-09
000340 ac b7 13 31 42 7d 5d ba e0 30 a1 3a 04 1f 9f 2b
       2.149572e-09 -0.0008449146 0.0012297891 1.1306238e-12
000350 6e 3a 43 36 46 c9 12 ae ac 1f ad 34 ee d2 e3 34
       2.9091275e-06 -3.3375323e-11 3.2246805e-07 4.2435516e-07
000360 9f 49 cc b9 bc 64 d0 b9 87 e5 18 2d 0b 44 d1 34
       -0.00038964764 -0.00039747905 8.691165e-12 3.897879e-07
000370 79 10 ed 37 d3 8a 97 ab a0 ee e9 ae 6c 66 05 a8
       2.8260272e-05 -1.0767727e-12 -1.06380016e-10 -7.405192e-15
000380 f9 22 4d 31 35 9c 85 b9 d7 94 40 b1 42 fc f0 ad
       2.9851306e-09 -0.0002548412 -2.8024283e-09 -2.7396866e-11
000390 1e 21 88 31 b7 76 a7 34 18 eb 30 36 5b 7f 90 38
       3.961886e-09 3.119255e-07 2.6362886e-06 6.890177e-05
0003a0 13 19 14 2f 28 53 2d 2f 90 e4 06 b2 ec f7 12 b5
       1.346943e-10 1.5763801e-10 -7.851796e-09 -5.475001e-07
0003b0 80 2b f8 ae e1 40 e8 b7 32 fc 5d b4 19 4a 5c af
       -1.12854615e-10 -2.7686767e-05 -2.0673977e-07 -2.0035208e-10
0003c0 18 67 3e 38 92 78 3f 31 bd 03 25 3a bb e3 29 b2
       4.5395544e-05 2.7862694e-09 0.00062948075 -9.888875e-09
0003d0 3b a8 cb b5 13 8c 05 b0 cb 94 c4 b3 93 de f3 ae
       -1.517364e-06 -4.8584176e-10 -9.1540265e-08 -1.1089898e-10
0003e0 8a aa 46 b4 d7 98 75 b9 96 0b 36 38 a8 6c 0c ab
       -1.8502229e-07 -0.00023421958 4.340297e-05 -4.988878e-13
0003f0 19 df 2d 32 56 df 16 32 c5 3a 60 b4 9a d6 1d b0
       1.0120652e-08 8.78193e-09 -2.0883006e-07 -5.7421234e-10

bias f4 [32]
000000 10 a7 1f 38 17 47 08 b3 0c 0d 36 34 c6 e7 4e 34
       3.8064143e-05 -3.1729623e-08 1.6954817e-07 1.9269564e-07
000010 81 20 0e b0 72 e5 84 b5 16 e4 75 b1 7a c8 55 34
       -5.170549e-10 -9.901544e-07 -3.5781844e-09 1.9910104e-07
000020 f0 23 a1 b2 e5 3c 0e 31 7e ce 18 b0 b0 d3 94 b4
       -1.875921e-08 2.0698334e-09 -5.559072e-10 -2.772117e-07
000030 0b 4c 18 bb 6b 22 17 31 d7 29 0f 37 c1 2b 81 36
       -0.0023238685 2.1992956e-09 8.533206e-06 3.849593e-06
000040 c0 e5 85 b4 93 0e 14 b4 64 e8 16 b9 10 87 f5 ad
       -2.4940346e-07 -1.3788876e-07 -0.00014391687 -2.7913255e-11
000050 d3 1b a5 36 c1 46 b1 36 a1 b9 60 37 2a e0 1d b2
       4.9206224e-06 5.283248e-06 1.33946605e-05 -9.189572e-09
000060 05 e4 16 b8 dd 8d 8f b1 18 3b a1 34 d9 77 ca 2e
       -3.5975147e-05 -4.1779757e-09 3.0031583e-07 9.207186e-11
000070 8f 62 e2 b5 5e 78 2d 35 ae 93 88 33 01 88 5d b5
       -1.6866996e-06 6.462268e-07 6.359856e-08 -8.252683e-07

weight f4 [10, 32]
000000 83 c8 7f ba 80 25 c4 b7 da c2 f1 b5 b2 79 eb b7
       -0.00097573566 -2.3382483e-05 -1.8012609e-06 -2.8070852e-05
000010 7b fe d1 b3 9c 9b 42 b7 8a 2f 90 b4 34 d5 00 b8
       -9.7786106e-08 -1.1599532e-05 -2.685668e-07 -3.071614e-05
000020 a6 30 78 b6 b4 5b 54 b4 0b 25 c3 b2 b5 e4 bc b7
       -3.6983197e-06 -1.97774e-07 -2.2717833e-08 -2.2517846e-05
000030 10 3b ca 3b 27 5f 4a b4 82 17 8d b8 5e f3 94 b7
       0.0061715916 -1.8847332e-07 -6.7277826e-05 -1.7756302e-05
000040 26 c8 01 b8 cf c5 5c b6 c7 cc 1b 3a 74 9c db b1
       -3.09424e-05 -3.2897694e-06 0.0005943295 -6.3915255e-09
000050 29 7b 92 ba 56 48 f2 b9 68 05 b7 b9 9d 4f b4 b4
       -0.0011175621 -0.0004621173 -0.00034908508 -3.358554e-07
000060 e1 1e cf ba 5c cf b9 32 ca b3 c6 b7 6e ac be b3
       -0.0015802049 2.163113e-08 -2.368716e-05 -8.878929e-08
000070 4a eb 18 b9 1a a4 a5 ba 3b 53 52 b9 cb c5 d6 b7
       -0.00014583502 -0.0012637407 -0.00020058166 -2.5602892e-05
000080 ae 36 ee 36 da ba 09 34 2d 0b 8f b1 27 1a ab b3
       7.0993183e-06 1.2827095e-07 -4.1631183e-09 -7.967565e-08
000090 ed aa 1d 31 62 0d d2 32 b9 04 bb b0 04 de da 33
       2.2943667e-09 2.4453303e-08 -1.3607383e-09 1.01918005e-07
0000a0 07 f9 92 32 fc 77 98 b0 f5 3a 64 af aa 89 32 33
       1.7109882e-08 -1.1093557e-09 -2.0757425e-10 4.156906e-08
0000b0 77 b6 19 b8 a4 7d 07 b1 ef 94 e1 33 2a 62 48 b5
       -3.6647976e-05 -1.9716504e-09 1.050447e-07 -7.4648653e-07
0000c0 35 06 c9 b3 db b4 04 b2 5c 2a 62 38 5e 31 17 ae
       -9.360921e-08 -7.724533e-09 5.392205e-05 -3.4377272e-11
0000d0 de ff f5 b4 b0 24 32 b6 cc 77 1a b5 d3 91 7c 2f
       -4.5820974e-07 -2.6545422e-06 -5.75438e-07 2.2971074e-10
0000e0 42 e6 04 b7 80 0d 63 2f 89 4b 19 34 87 ab 53 b0
       -7.921424e-06 2.0650326e-10 1.4276715e-07 -7.700511e-10
0000f0 bc 9a fa 32 f2 a1 1d 38 de 38 51 b3 eb ce 74 34
       2.9174196e-08 3.758254e-05 -4.8713325e-08 2.2799547e-07
000100 ca ef ff 38 cb cb 36 36 e1 1e 13 34 6f c1 81 35
       0.00012204012 2.7238736e-06 1.3701676e-07 9.667546e-07
000110 96 9c 2e 32 2c f1 fb 34 19 98 85 32 b0 34 80 36
       1.01637365e-08 4.692787e-07 1.5552404e-08 3.820831e-06
000120 14 d2 88 35 61 8e cc 32 6c 95 3b 31 51 c0 47 36
       1.019393e-06 2.3813472e-08 2.7297018e-09 2.9765254e-06
000130 12 f6 2e ba 99 49 52 32 0e 8c 9f 36 06 6a 10 b7
       -0.00066742406 1.2240343e-08 4.7548738e-06 -8.607754e-06
000140 6b df 2c 36 40 9f 66 34 9d 29 15 37 d3 39 ac 2f
       2.5760044e-06 2.1478354e-07 8.890781e-06 3.1327704e-10
000150 c4 5b e6 38 03 07 85 38 81 e9 53 38 81 c5 26 b1
       0.00010984347 6.34324e-05 5.0523788e-05 -2.4268447e-09
000160 ea 5a 19 39 60 d2 94 31 38 fa de 36 8c 2d 9c 32
       0.00014625085 4.3312838e-09 6.645245e-06 1.8181503e-08
000170 6a ac 00 37 e2 bd ca 39 74 3d 9e 37 d1 1d 92 36
       7.669538e-06 0.00038669916 1.8863684e-05 4.35461e-06
000180 ae fb 14 39 76 19 eb b6 0f b0 6c b6 de c0 31 36
       0.00014208138 -7.00651e-06 -3.526922e-06 2.6487319e-06
000190 6c 92 5f b2 2c 60 26 b8 70 9b c8 33 e7 8f 20 b8
       -1.3013601e-08 -3.966705e-05 9.3415e-08 -3.8280992e-05
0001a0 a4 07 69 37 a0 88 13 32 da 44 84 b1 00 61 00 37
       1.3889661e-05 8.587591e-09 -3.849533e-09 7.651979e-06
0001b0 56 d5 a8 bd be 6f 1c 34 2b dc 4f b8 c1 88 5e b9
       -0.082438156 1.4569284e-07 -4.9557693e-05 -0.00021222515
0001c0 dd 86 04 b7 e5 7d a9 35 e8 bc 72 3b bd 58 26 30
       -7.899213e-06 1.2628121e-06 0.0037038866 6.0516553e-10
0001d0 b0 e5 d6 ba 11 7f e6 39 26 4b e1 b8 8b ad 82 b3
       -0.0016395357 0.0004396369 -0.000107428335 -6.085164e-08
0001e0 3d f5 4f 3a 81 e6 4d b3 f5 79 e1 b8 e9 5f ea b3
       0.00079329667 -4.7939924e-08 -0.00010751552 -1.091392e-07
0001f0 58 3b 40 38 0a 83 82 39 5e fd 52 b9 1e 86 70 37
       4.5831635e-05 0.00024893164 -0.00020121547 1.4336341e-05
000200 b9 88 92 b9 b2 f6 3c b7 c1 e3 84 b5 d4 06 37 b7
       -0.00027949156 -1.1263111e-05 -9.901051e-07 -1.090924e-05
000210 a3 31 76 b3 db 11 c0 b5 f6 32 5f b4 72 a6 5d b7
       -5.7321483e-08 -1.4310311e-06 -2.0787033e-07 -1.321138e-05
000220 d4 dd ac b6 ca 37 c7 b3 87 43 f0 b2 f9 94 d6 b5
       -5.1518236e-06 -9.2768076e-08 -2.7970385e-08 -1.5987599e-06
000230 fc 43 17 3b aa ca bc b3 fd 23 cf b7 d5 31 86 b8
       0.0023081293 -8.7912966e-08 -2.4693081e-05 -6.3989e-05
000240 b5 bf f2 b7 ad 84 f7 b5 d7 d7 78 ba df 42 7f b0
       -2.8937919e-05 -1.8441548e-06 -0.0009492612 -9.286349e-10
000250 f6 e5 11 ba 4d e4 b2 b9 39 23 32 b9 5f e5 e6 b4
       -0.0005565578 -0.00034120903 -0.00016988524 -4.3007728e-07
000260 85 7d 28 ba 5a bc 70 b3 ff e1 34 b8 c1 10 3e b3
       -0.0006427395 -5.605066e-08 -4.312582e-05 -4.425306e-08
000270 65 23 c1 b8 4f 77 1f ba db a9 77 b8 24 4c e5 b7
       -9.20955e-05 -0.0006083147 -5.904758e-05 -2.7334383e-05
000280 55 8e f8 34 ba 9d 20 32 9f 3f 28 30 76 75 56 30
       4.629716e-07 9.349089e-09 6.1208455e-10 7.801967e-10
000290 8e 02 bf 2d 4b 00 a1 2f 09 27 72 2e 6c ac 86 31
       2.171532e-11 2.9285938e-10 5.50591e-11 3.9195154e-09
0002a0 4e e8 9a 30 41 9e 83 2e 12 6c ad 2c f8 d0 50 32
       1.1271e-09 5.985302e-11 4.928954e-12 1.21547075e-08
0002b0 cb 89 2a b6 6c df 1a 2e c6 f5 e6 31 a4 3b ef 32
       -2.541218e-06 3.5213985e-11 6.721822e-09 2.7850383e-08
0002c0 c3 f8 28 31 cc 1d a4 30 19 1c 82 35 f5 60 a1 2b
       2.4588622e-09 1.1941039e-09 9.693932e-07 1.1466649e-12
0002d0 1a 95 bf 34 66 b3 16 34 a6 dd 0e 34 9f b5 06 2f
       3.5685008e-07 1.4035103e-07 1.3305416e-07 1.2251754e-10
0002e0 a7 50 85 34 a2 23 74 ae f2 a9 90 31 50 2b 81 2e
       2.4831863e-07 -5.5510825e-11 4.210272e-09 5.873935e-11
0002f0 26 63 3f 33 33 5f e4 35 80 a9 01 33 7e 43 11 31
       4.4560828e-08 1.701503e-06 3.0189312e-08 2.1138642e-09
000300 aa 11 a0 34 53 ec dd 32 6e 3a 5e 30 c1 19 28 31
       2.9815175e-07 2.5835254e-08 8.0846163e-10 2.4461857e-09
000310 5a df f0 ad 67 80 0d b2 a7 a7 8f ac 4d 31 37 b2
       -2.7384029e-11 -8.2364755e-09 -4.0829176e-12 -1.0663212e-08
000320 be 85 11 b1 3b 43 c4 ae 73 0d d2 2d a6 86 04 33
       -2.11763e-09 -8.9249906e-11 2.3880209e-11 3.0856107e-08
000330 97 50 95 b6 09 9d 95 2d b5 76 93 b3 ea 05 17 b4
       -4.449928e-06 1.7009076e-11 -6.8668136e-08 -1.4065122e-07
000340 ae 40 16 b3 cb 2b f0 b0 55 15 a6 35 19 59 b2 ab
       -3.4983422e-08 -1.7474745e-09 1.2374172e-06 -1.267239e-12
000350 7c 4b 43 b4 6f 9b 63 b4 df 08 ce 34 ef 8e 87 2f
       -1.8188251e-07 -2.1197569e-07 3.8376945e-07 2.4657917e-10
000360 2f d5 12 b3 4b c2 c4 ae 74 05 97 32 d1 a7 0e 2f
       -3.4187163e-08 -8.9475614e-11 1.7581193e-08 1.2974445e-10
000370 6d be a1 b2 9d 20 c4 35 72 fc c7 32 78 90 84 b2
       -1.8829462e-08 1.461263e-06 2.3281448e-08 -1.543252e-08
000380 71 5f 86 35 2d d4 3d b2 61 d1 cc b1 1c e1 1b b3
       1.0011555e-06 -1.1049491e-08 -5.960985e-09 -3.6293486e-08
000390 07 85 25 b0 6c 4d 7e b3 90 2e 61 b1 69 d0 16 b4
       -6.0215694e-10 -5.92094e-08 -3.2768277e-09 -1.4045658e-07
0003a0 9d a3 49 b3 b4 7f 50 b0 dd 91 aa 2b 02 b5 20 b4
       -4.6947765e-08 -7.5851436e-10 1.2119712e-12 -1.4967011e-07
0003b0 60 fb 69 37 16 2d 09 b0 e6 7c ca b4 8d 2b 30 32
       1.394641e-05 -4.990438e-10 -3.7716308e-07 1.0254451e-08
0003c0 5f a4 b2 34 a0 4f d2 b2 26 55 89 b5 6f ad 16 ae
       3.327468e-07 -2.4483427e-08 -1.0232077e-06 -3.426009e-11
0003d0 40 3d 23 b6 27 56 71 b5 4f c0 12 36 d4 2a 56 b1
       -2.4324545e-06 -8.9904864e-07 2.1867634e-06 -3.1165444e-09
0003e0 ca 07 af b6 0d 79 05 2f b1 cb 6f b4 79 cb 9d ae
       -5.216313e-06 1.2139285e-10 -2.2332712e-07 -7.1756774e-11
0003f0 b4 91 bc b4 67 03 5a b7 89 22 b7 b4 aa ed 41 b3
       -3.5123742e-07 -1.2994605e-05 -3.4111534e-07 -4.515247e-08

bias f4 [10]
000000 f6 b3 e2 38 76 2c b7 b7 8b d6 ae b8 9c c1 10 3a
       0.0001081004 -2.1836004e-05 -8.336928e-05 0.0005522014
000010 5f 4f 7e 39 84 6d fd b4 6c 01 1a b5 09 6e a4 35
       0.00024252896 -4.7204605e-07 -5.737154e-07 1.2250977e-06
000020 e2 c9 b3 37 0c 92 83 b9
       2.1432472e-05 -0.0002509508

weight f4 [256]
000000 00 00 80 3f 00 00 80 3f 00 00 80 3f 00 00 80 3f
       1.0 1.0 1.0 1.0
000010 00 00 80 3f 00 00 80 3f 00 00 80 3f 00 00 80 3f
       1.0 1.0 1.0 1.0
000020 00 00 80 3f 00 00 80 3f 00 00 80 3f 00 00 80 3f
       1.0 1.0 1.0 1.0
000030 00 00 80 3f 00 00 80 3f 00 00 80 3f 00 00 80 3f
       1.0 1.0 1.0 1.0
000040 00 00 80 3f 00 00 80 3f 00 00 80 3f 00 00 80 3f
       1.0 1.0 1.0 1.0
000050 00 00 80 3f 00 00 80 3f 00 00 80 3f 00 00 80 3f
       1.0 1.0 1.0 1.0
000060 00 00 80 3f 00 00 80 3f 00 00 80 3f 00 00 80 3f
       1.0 1.0 1.0 1.0
000070 00 00 80 3f 00 00 80 3f 00 00 80 3f 00 00 80 3f
       1.0 1.0 1.0 1.0
000080 00 00 80 3f 00 00 80 3f 00 00 80 3f 00 00 80 3f
       1.0 1.0 1.0 1.0
000090 00 00 80 3f 00 00 80 3f 00 00 80 3f 00 00 80 3f
       1.0 1.0 1.0 1.0
0000a0 00 00 80 3f 00 00 80 3f 00 00 80 3f 00 00 80 3f
       1.0 1.0 1.0 1.0
0000b0 00 00 80 3f 00 00 80 3f 00 00 80 3f 00 00 80 3f
       1.0 1.0 1.0 1.0
0000c0 00 00 80 3f 00 00 80 3f 00 00 80 3f 00 00 80 3f
       1.0 1.0 1.0 1.0
0000d0 00 00 80 3f 00 00 80 3f 00 00 80 3f 00 00 80 3f
       1.0 1.0 1.0 1.0
0000e0 00 00 80 3f 00 00 80 3f 00 00 80 3f 00 00 80 3f
       1.0 1.0 1.0 1.0
0000f0 00 00 80 3f 00 00 80 3f 00 00 80 3f 00 00 80 3f
       1.0 1.0 1.0 1.0
000100 00 00 80 3f 00 00 80 3f 00 00 80 3f 00 00 80 3f
       1.0 1.0 1.0 1.0
000110 00 00 80 3f 00 00 80 3f 00 00 80 3f 00 00 80 3f
       1.0 1.0 1.0 1.0
000120 00 00 80 3f 00 00 80 3f 00 00 80 3f 00 00 80 3f
       1.0 1.0 1.0 1.0
000130 00 00 80 3f 00 00 80 3f 00 00 80 3f 00 00 80 3f
       1.0 1.0 1.0 1.0
000140 00 00 80 3f 00 00 80 3f 00 00 80 3f 00 00 80 3f
       1.0 1.0 1.0 1.0
000150 00 00 80 3f 00 00 80 3f 00 00 80 3f 00 00 80 3f
       1.0 1.0 1.0 1.0
000160 00 00 80 3f 00 00 80 3f 00 00 80 3f 00 00 80 3f
       1.0 1.0 1.0 1.0
000170 00 00 80 3f 00 00 80 3f 00 00 80 3f 00 00 80 3f
       1.0 1.0 1.0 1.0
000180 00 00 80 3f 00 00 80 3f 00 00 80 3f 00 00 80 3f
       1.0 1.0 1.0 1.0
000190 00 00 80 3f 00 00 80 3f 00 00 80 3f 00 00 80 3f
       1.0 1.0 1.0 1.0
0001a0 00 00 80 3f 00 00 80 3f 00 00 80 3f 00 00 80 3f
       1.0 1.0 1.0 1.0
0001b0 00 00 80 3f 00 00 80 3f 00 00 80 3f 00 00 80 3f
       1.0 1.0 1.0 1.0
0001c0 00 00 80 3f 00 00 80 3f 00 00 80 3f 00 00 80 3f
       1.0 1.0 1.0 1.0
0001d0 00 00 80 3f 00 00 80 3f 00 00 80 3f 00 00 80 3f
       1.0 1.0 1.0 1.0
0001e0 00 00 80 3f 00 00 80 3f 00 00 80 3f 00 00 80 3f
       1.0 1.0 1.0 1.0
0001f0 00 00 80 3f 00 00 80 3f 00 00 80 3f 00 00 80 3f
       1.0 1.0 1.0 1.0
000200 00 00 80 3f 00 00 80 3f 00 00 80 3f 00 00 80 3f
       1.0 1.0 1.0 1.0
000210 00 00 80 3f 00 00 80 3f 00 00 80 3f 00 00 80 3f
       1.0 1.0 1.0 1.0
000220 00 00 80 3f 00 00 80 3f 00 00 80 3f 00 00 80 3f
       1.0 1.0 1.0 1.0
000230 00 00 80 3f 00 00 80 3f 00 00 80 3f 00 00 80 3f
       1.0 1.0 1.0 1.0
000240 00 00 80 3f 00 00 80 3f 00 00 80 3f 00 00 80 3f
       1.0 1.0 1.0 1.0
000250 00 00 80 3f 00 00 80 3f 00 00 80 3f 00 00 80 3f
       1.0 1.0 1.0 1.0
000260 00 00 80 3f 00 00 80 3f 00 00 80 3f 00 00 80 3f
       1.0 1.0 1.0 1.0
000270 00 00 80 3f 00 00 80 3f 00 00 80 3f 00 00 80 3f
       1.0 1.0 1.0 1.0
000280 00 00 80 3f 00 00 80 3f 00 00 80 3f 00 00 80 3f
       1.0 1.0 1.0 1.0
000290 00 00 80 3f 00 00 80 3f 00 00 80 3f 00 00 80 3f
       1.0 1.0 1.0 1.0
0002a0 00 00 80 3f 00 00 80 3f 00 00 80 3f 00 00 80 3f
       1.0 1.0 1.0 1.0
0002b0 00 00 80 3f 00 00 80 3f 00 00 80 3f 00 00 80 3f
       1.0 1.0 1.0 1.0
0002c0 00 00 80 3f 00 00 80 3f 00 00 80 3f 00 00 80 3f
       1.0 1.0 1.0 1.0
0002d0 00 00 80 3f 00 00 80 3f 00 00 80 3f 00 00 80 3f
       1.0 1.0 1.0 1.0
0002e0 00 00 80 3f 00 00 80 3f 00 00 80 3f 00 00 80 3f
       1.0 1.0 1.0 1.0
0002f0 00 00 80 3f 00 00 80 3f 00 00 80 3f 00 00 80 3f
       1.0 1.0 1.0 1.0
000300 00 00 80 3f 00 00 80 3f 00 00 80 3f 00 00 80 3f
       1.0 1.0 1.0 1.0
000310 00 00 80 3f 00 00 80 3f 00 00 80 3f 00 00 80 3f
       1.0 1.0 1.0 1.0
000320 00 00 80 3f 00 00 80 3f 00 00 80 3f 00 00 80 3f
       1.0 1.0 1.0 1.0
000330 00 00 80 3f 00 00 80 3f 00 00 80 3f 00 00 80 3f
       1.0 1.0 1.0 1.0
000340 00 00 80 3f 00 00 80 3f 00 00 80 3f 00 00 80 3f
       1.0 1.0 1.0 1.0
000350 00 00 80 3f 00 00 80 3f 00 00 80 3f 00 00 80 3f
       1.0 1.0 1.0 1.0
000360 00 00 80 3f 00 00 80 3f 00 00 80 3f 00 00 80 3f
       1.0 1.0 1.0 1.0
000370 00 00 80 3f 00 00 80 3f 00 00 80 3f 00 00 80 3f
       1.0 1.0 1.0 1.0
000380 00 00 80 3f 00 00 80 3f 00 00 80 3f 00 00 80 3f
       1.0 1.0 1.0 1.0
000390 00 00 80 3f 00 00 80 3f 00 00 80 3f 00 00 80 3f
       1.0 1.0 1.0 1.0
0003a0 00 00 80 3f 00 00 80 3f 00 00 80 3f 00 00 80 3f
       1.0 1.0 1.0 1.0
0003b0 00 00 80 3f 00 00 80 3f 00 00 80 3f 00 00 80 3f
       1.0 1.0 1.0 1.0
0003c0 00 00 80 3f 00 00 80 3f 00 00 80 3f 00 00 80 3f
       1.0 1.0 1.0 1.0
0003d0 00 00 80 3f 00 00 80 3f 00 00 80 3f 00 00 80 3f
       1.0 1.0 1.0 1.0
0003e0 00 00 80 3f 00 00 80 3f 00 00 80 3f 00 00 80 3f
       1.0 1.0 1.0 1.0
0003f0 00 00 80 3f 00 00 80 3f 00 00 80 3f 00 00 80 3f
       1.0 1.0 1.0 1.0

bias f4 [256]
000000 00 00 00 00 00 00 00 00 00 00 00 00 00 00 00 00
       0.0 0.0 0.0 0.0
000010 00 00 00 00 00 00 00 00 00 00 00 00 00 00 00 00
       0.0 0.0 0.0 0.0
000020 00 00 00 00 00 00 00 00 00 00 00 00 00 00 00 00
       0.0 0.0 0.0 0.0
000030 00 00 00 00 00 00 00 00 00 00 00 00 00 00 00 00
       0.0 0.0 0.0 0.0
000040 00 00 00 00 00 00 00 00 00 00 00 00 00 00 00 00
       0.0 0.0 0.0 0.0
000050 00 00 00 00 00 00 00 00 00 00 00 00 00 00 00 00
       0.0 0.0 0.0 0.0
000060 00 00 00 00 00 00 00 00 00 00 00 00 00 00 00 00
       0.0 0.0 0.0 0.0
000070 00 00 00 00 00 00 00 00 00 00 00 00 00 00 00 00
       0.0 0.0 0.0 0.0
000080 00 00 00 00 00 00 00 00 00 00 00 00 00 00 00 00
       0.0 0.0 0.0 0.0
000090 00 00 00 00 00 00 00 00 00 00 00 00 00 00 00 00
       0.0 0.0 0.0 0.0
0000a0 00 00 00 00 00 00 00 00 00 00 00 00 00 00 00 00
       0.0 0.0 0.0 0.0
0000b0 00 00 00 00 00 00 00 00 00 00 00 00 00 00 00 00
       0.0 0.0 0.0 0.0
0000c0 00 00 00 00 00 00 00 00 00 00 00 00 00 00 00 00
       0.0 0.0 0.0 0.0
0000d0 00 00 00 00 00 00 00 00 00 00 00 00 00 00 00 00
       0.0 0.0 0.0 0.0
0000e0 00 00 00 00 00 00 00 00 00 00 00 00 00 00 00 00
       0.0 0.0 0.0 0.0
0000f0 00 00 00 00 00 00 00 00 00 00 00 00 00 00 00 00
       0.0 0.0 0.0 0.0
000100 00 00 00 00 00 00 00 00 00 00 00 00 00 00 00 00
       0.0 0.0 0.0 0.0
000110 00 00 00 00 00 00 00 00 00 00 00 00 00 00 00 00
       0.0 0.0 0.0 0.0
000120 00 00 00 00 00 00 00 00 00 00 00 00 00 00 00 00
       0.0 0.0 0.0 0.0
000130 00 00 00 00 00 00 00 00 00 00 00 00 00 00 00 00
       0.0 0.0 0.0 0.0
000140 00 00 00 00 00 00 00 00 00 00 00 00 00 00 00 00
       0.0 0.0 0.0 0.0
000150 00 00 00 00 00 00 00 00 00 00 00 00 00 00 00 00
       0.0 0.0 0.0 0.0
000160 00 00 00 00 00 00 00 00 00 00 00 00 00 00 00 00
       0.0 0.0 0.0 0.0
000170 00 00 00 00 00 00 00 00 00 00 00 00 00 00 00 00
       0.0 0.0 0.0 0.0
000180 00 00 00 00 00 00 00 00 00 00 00 00 00 00 00 00
       0.0 0.0 0.0 0.0
000190 00 00 00 00 00 00 00 00 00 00 00 00 00 00 00 00
       0.0 0.0 0.0 0.0
0001a0 00 00 00 00 00 00 00 00 00 00 00 00 00 00 00 00
       0.0 0.0 0.0 0.0
0001b0 00 00 00 00 00 00 00 00 00 00 00 00 00 00 00 00
       0.0 0.0 0.0 0.0
0001c0 00 00 00 00 00 00 00 00 00 00 00 00 00 00 00 00
       0.0 0.0 0.0 0.0
0001d0 00 00 00 00 00 00 00 00 00 00 00 00 00 00 00 00
       0.0 0.0 0.0 0.0
0001e0 00 00 00 00 00 00 00 00 00 00 00 00 00 00 00 00
       0.0 0.0 0.0 0.0
0001f0 00 00 00 00 00 00 00 00 00 00 00 00 00 00 00 00
       0.0 0.0 0.0 0.0
000200 00 00 00 00 00 00 00 00 00 00 00 00 00 00 00 00
       0.0 0.0 0.0 0.0
000210 00 00 00 00 00 00 00 00 00 00 00 00 00 00 00 00
       0.0 0.0 0.0 0.0
000220 00 00 00 00 00 00 00 00 00 00 00 00 00 00 00 00
       0.0 0.0 0.0 0.0
000230 00 00 00 00 00 00 00 00 00 00 00 00 00 00 00 00
       0.0 0.0 0.0 0.0
000240 00 00 00 00 00 00 00 00 00 00 00 00 00 00 00 00
       0.0 0.0 0.0 0.0
000250 00 00 00 00 00 00 00 00 00 00 00 00 00 00 00 00
       0.0 0.0 0.0 0.0
000260 00 00 00 00 00 00 00 00 00 00 00 00 00 00 00 00
       0.0 0.0 0.0 0.0
000270 00 00 00 00 00 00 00 00 00 00 00 00 00 00 00 00
       0.0 0.0 0.0 0.0
000280 00 00 00 00 00 00 00 00 00 00 00 00 00 00 00 00
       0.0 0.0 0.0 0.0
000290 00 00 00 00 00 00 00 00 00 00 00 00 00 00 00 00
       0.0 0.0 0.0 0.0
0002a0 00 00 00 00 00 00 00 00 00 00 00 00 00 00 00 00
       0.0 0.0 0.0 0.0
0002b0 00 00 00 00 00 00 00 00 00 00 00 00 00 00 00 00
       0.0 0.0 0.0 0.0
0002c0 00 00 00 00 00 00 00 00 00 00 00 00 00 00 00 00
       0.0 0.0 0.0 0.0
0002d0 00 00 00 00 00 00 00 00 00 00 00 00 00 00 00 00
       0.0 0.0 0.0 0.0
0002e0 00 00 00 00 00 00 00 00 00 00 00 00 00 00 00 00
       0.0 0.0 0.0 0.0
0002f0 00 00 00 00 00 00 00 00 00 00 00 00 00 00 00 00
       0.0 0.0 0.0 0.0
000300 00 00 00 00 00 00 00 00 00 00 00 00 00 00 00 00
       0.0 0.0 0.0 0.0
000310 00 00 00 00 00 00 00 00 00 00 00 00 00 00 00 00
       0.0 0.0 0.0 0.0
000320 00 00 00 00 00 00 00 00 00 00 00 00 00 00 00 00
       0.0 0.0 0.0 0.0
000330 00 00 00 00 00 00 00 00 00 00 00 00 00 00 00 00
       0.0 0.0 0.0 0.0
000340 00 00 00 00 00 00 00 00 00 00 00 00 00 00 00 00
       0.0 0.0 0.0 0.0
000350 00 00 00 00 00 00 00 00 00 00 00 00 00 00 00 00
       0.0 0.0 0.0 0.0
000360 00 00 00 00 00 00 00 00 00 00 00 00 00 00 00 00
       0.0 0.0 0.0 0.0
000370 00 00 00 00 00 00 00 00 00 00 00 00 00 00 00 00
       0.0 0.0 0.0 0.0
000380 00 00 00 00 00 00 00 00 00 00 00 00 00 00 00 00
       0.0 0.0 0.0 0.0
000390 00 00 00 00 00 00 00 00 00 00 00 00 00 00 00 00
       0.0 0.0 0.0 0.0
0003a0 00 00 00 00 00 00 00 00 00 00 00 00 00 00 00 00
       0.0 0.0 0.0 0.0
0003b0 00 00 00 00 00 00 00 00 00 00 00 00 00 00 00 00
       0.0 0.0 0.0 0.0
0003c0 00 00 00 00 00 00 00 00 00 00 00 00 00 00 00 00
       0.0 0.0 0.0 0.0
0003d0 00 00 00 00 00 00 00 00 00 00 00 00 00 00 00 00
       0.0 0.0 0.0 0.0
0003e0 00 00 00 00 00 00 00 00 00 00 00 00 00 00 00 00
       0.0 0.0 0.0 0.0
0003f0 00 00 00 00 00 00 00 00 00 00 00 00 00 00 00 00
       0.0 0.0 0.0 0.0

running_mean f4 [256]
000000 00 00 00 00 00 00 00 00 00 00 00 00 00 00 00 00
       0.0 0.0 0.0 0.0
000010 00 00 00 00 00 00 00 00 00 00 00 00 00 00 00 00
       0.0 0.0 0.0 0.0
000020 00 00 00 00 00 00 00 00 00 00 00 00 00 00 00 00
       0.0 0.0 0.0 0.0
000030 00 00 00 00 00 00 00 00 00 00 00 00 00 00 00 00
       0.0 0.0 0.0 0.0
000040 00 00 00 00 00 00 00 00 00 00 00 00 00 00 00 00
       0.0 0.0 0.0 0.0
000050 00 00 00 00 00 00 00 00 00 00 00 00 00 00 00 00
       0.0 0.0 0.0 0.0
000060 00 00 00 00 00 00 00 00 00 00 00 00 00 00 00 00
       0.0 0.0 0.0 0.0
000070 00 00 00 00 00 00 00 00 00 00 00 00 00 00 00 00
       0.0 0.0 0.0 0.0
000080 00 00 00 00 00 00 00 00 00 00 00 00 00 00 00 00
       0.0 0.0 0.0 0.0
000090 00 00 00 00 00 00 00 00 00 00 00 00 00 00 00 00
       0.0 0.0 0.0 0.0
0000a0 00 00 00 00 00 00 00 00 00 00 00 00 00 00 00 00
       0.0 0.0 0.0 0.0
0000b0 00 00 00 00 00 00 00 00 00 00 00 00 00 00 00 00
       0.0 0.0 0.0 0.0
0000c0 00 00 00 00 00 00 00 00 00 00 00 00 00 00 00 00
       0.0 0.0 0.0 0.0
0000d0 00 00 00 00 00 00 00 00 00 00 00 00 00 00 00 00
       0.0 0.0 0.0 0.0
0000e0 00 00 00 00 00 00 00 00 00 00 00 00 00 00 00 00
       0.0 0.0 0.0 0.0
0000f0 00 00 00 00 00 00 00 00 00 00 00 00 00 00 00 00
       0.0 0.0 0.0 0.0
000100 00 00 00 00 00 00 00 00 00 00 00 00 00 00 00 00
       0.0 0.0 0.0 0.0
000110 00 00 00 00 00 00 00 00 00 00 00 00 00 00 00 00
       0.0 0.0 0.0 0.0
000120 00 00 00 00 00 00 00 00 00 00 00 00 00 00 00 00
       0.0 0.0 0.0 0.0
000130 00 00 00 00 00 00 00 00 00 00 00 00 00 00 00 00
       0.0 0.0 0.0 0.0
000140 00 00 00 00 00 00 00 00 00 00 00 00 00 00 00 00
       0.0 0.0 0.0 0.0
000150 00 00 00 00 00 00 00 00 00 00 00 00 00 00 00 00
       0.0 0.0 0.0 0.0
000160 00 00 00 00 00 00 00 00 00 00 00 00 00 00 00 00
       0.0 0.0 0.0 0.0
000170 00 00 00 00 00 00 00 00 00 00 00 00 00 00 00 00
       0.0 0.0 0.0 0.0
000180 00 00 00 00 00 00 00 00 00 00 00 00 00 00 00 00
       0.0 0.0 0.0 0.0
000190 00 00 00 00 00 00 00 00 00 00 00 00 00 00 00 00
       0.0 0.0 0.0 0.0
0001a0 00 00 00 00 00 00 00 00 00 00 00 00 00 00 00 00
       0.0 0.0 0.0 0.0
0001b0 00 00 00 00 00 00 00 00 00 00 00 00 00 00 00 00
       0.0 0.0 0.0 0.0
0001c0 00 00 00 00 00 00 00 00 00 00 00 00 00 00 00 00
       0.0 0.0 0.0 0.0
0001d0 00 00 00 00 00 00 00 00 00 00 00 00 00 00 00 00
       0.0 0.0 0.0 0.0
0001e0 00 00 00 00 00 00 00 00 00 00 00 00 00 00 00 00
       0.0 0.0 0.0 0.0
0001f0 00 00 00 00 00 00 00 00 00 00 00 00 00 00 00 00
       0.0 0.0 0.0 0.0
000200 00 00 00 00 00 00 00 00 00 00 00 00 00 00 00 00
       0.0 0.0 0.0 0.0
000210 00 00 00 00 00 00 00 00 00 00 00 00 00 00 00 00
       0.0 0.0 0.0 0.0
000220 00 00 00 00 00 00 00 00 00 00 00 00 00 00 00 00
       0.0 0.0 0.0 0.0
000230 00 00 00 00 00 00 00 00 00 00 00 00 00 00 00 00
       0.0 0.0 0.0 0.0
000240 00 00 00 00 00 00 00 00 00 00 00 00 00 00 00 00
       0.0 0.0 0.0 0.0
000250 00 00 00 00 00 00 00 00 00 00 00 00 00 00 00 00
       0.0 0.0 0.0 0.0
000260 00 00 00 00 00 00 00 00 00 00 00 00 00 00 00 00
       0.0 0.0 0.0 0.0
000270 00 00 00 00 00 00 00 00 00 00 00 00 00 00 00 00
       0.0 0.0 0.0 0.0
000280 00 00 00 00 00 00 00 00 00 00 00 00 00 00 00 00
       0.0 0.0 0.0 0.0
000290 00 00 00 00 00 00 00 00 00 00 00 00 00 00 00 00
       0.0 0.0 0.0 0.0
0002a0 00 00 00 00 00 00 00 00 00 00 00 00 00 00 00 00
       0.0 0.0 0.0 0.0
0002b0 00 00 00 00 00 00 00 00 00 00 00 00 00 00 00 00
       0.0 0.0 0.0 0.0
0002c0 00 00 00 00 00 00 00 00 00 00 00 00 00 00 00 00
       0.0 0.0 0.0 0.0
0002d0 00 00 00 00 00 00 00 00 00 00 00 00 00 00 00 00
       0.0 0.0 0.0 0.0
0002e0 00 00 00 00 00 00 00 00 00 00 00 00 00 00 00 00
       0.0 0.0 0.0 0.0
0002f0 00 00 00 00 00 00 00 00 00 00 00 00 00 00 00 00
       0.0 0.0 0.0 0.0
000300 00 00 00 00 00 00 00 00 00 00 00 00 00 00 00 00
       0.0 0.0 0.0 0.0
000310 00 00 00 00 00 00 00 00 00 00 00 00 00 00 00 00
       0.0 0.0 0.0 0.0
000320 00 00 00 00 00 00 00 00 00 00 00 00 00 00 00 00
       0.0 0.0 0.0 0.0
000330 00 00 00 00 00 00 00 00 00 00 00 00 00 00 00 00
       0.0 0.0 0.0 0.0
000340 00 00 00 00 00 00 00 00 00 00 00 00 00 00 00 00
       0.0 0.0 0.0 0.0
000350 00 00 00 00 00 00 00 00 00 00 00 00 00 00 00 00
       0.0 0.0 0.0 0.0
000360 00 00 00 00 00 00 00 00 00 00 00 00 00 00 00 00
       0.0 0.0 0.0 0.0
000370 00 00 00 00 00 00 00 00 00 00 00 00 00 00 00 00
       0.0 0.0 0.0 0.0
000380 00 00 00 00 00 00 00 00 00 00 00 00 00 00 00 00
       0.0 0.0 0.0 0.0
000390 00 00 00 00 00 00 00 00 00 00 00 00 00 00 00 00
       0.0 0.0 0.0 0.0
0003a0 00 00 00 00 00 00 00 00 00 00 00 00 00 00 00 00
       0.0 0.0 0.0 0.0
0003b0 00 00 00 00 00 00 00 00 00 00 00 00 00 00 00 00
       0.0 0.0 0.0 0.0
0003c0 00 00 00 00 00 00 00 00 00 00 00 00 00 00 00 00
       0.0 0.0 0.0 0.0
0003d0 00 00 00 00 00 00 00 00 00 00 00 00 00 00 00 00
       0.0 0.0 0.0 0.0
0003e0 00 00 00 00 00 00 00 00 00 00 00 00 00 00 00 00
       0.0 0.0 0.0 0.0
0003f0 00 00 00 00 00 00 00 00 00 00 00 00 00 00 00 00
       0.0 0.0 0.0 0.0
