basic-best.pt (torch, 156386 bytes, 33 tensors)

weight f4 [256, 7]
0.00014494477 0.11508195 -0.21622884 -0.18411356 -0.05918916 0.022975074 3.2518252e-05 0.20507188
0.0006222554 0.022005271 -0.032783862 -0.006232884 -0.2653117 -0.15714133 -0.06829413 -8.1164735e-06
0.06259192 0.13452917 -0.16285793 -0.07623346 0.051955108 0.21894348 -0.01310845 0.18866263
-0.0012658878 -0.00018587778 0.24677531 -0.25501996 -0.14522211 -0.018959545 -0.06073852 0.23138997
-0.15200216 -0.0848391 -0.17043011 -0.25834018 -0.1288371 0.22975864 0.07994276 0.09335043
-6.550951e-05 -0.10323667 0.002079658 -0.25739032 -0.17920212 -0.104246154 0.14573193 0.12958212
-0.079001665 -6.7382e-05 0.14912677 0.27975035 0.06311123 -0.00033217584 0.1601351 -0.13047707
0.004507244 -0.1987077 -0.16839655 -0.10461993 0.08210868 0.064887494 -0.13175823 0.033353545
0.12435823 0.00046171164 2.983279e-05 0.013604955 0.14189887 0.2671145 -0.19687358 -0.053016324
0.061812386 0.21826443 0.23369038 0.23819554 0.006678348 -0.23345007 0.000102483245 -0.14379582
-0.2566121 0.24047166 0.19309667 -0.28101504 0.0046506673 -0.0020053557 -0.0016084784 -0.08394316
0.058990046 -0.13174056 0.05305833 0.10075763 0.17677036 0.05546382 -0.27811223 -0.15219052
0.09850726 0.008670749 -0.2003679 -0.12583238 0.25988188 0.16135153 -0.076426886 -0.018567422
-0.26428843 5.2887015e-05 -0.19040169 -0.19714768 9.9782206e-05 0.00036121628 -0.06737841 0.13212839
-0.13764085 0.25077268 0.16554809 -0.22371621 -0.01784459 6.5343e-05 0.000102759106 0.017466124
0.084495366 -0.00011215571 -0.094494976 0.08932464 -0.26676285 -0.13188608 -0.018269198 -0.09443374
-0.04761694 -0.21496296 -0.009372725 0.009590661 -0.15319881 1.531142e-05 0.17758553 0.00011083803
1.1263326e-05 -0.00018916784 0.0073093376 0.14751302 0.26232535 0.14760542 0.26310393 -8.082779e-05
-0.24411923 -0.0896355 0.16394116 1.4541441e-05 -0.09769915 -0.19528879 -0.25806096 -0.22398488
-0.0073962924 0.11596113 0.11316304 -0.26884037 0.14313406 -0.20125905 -0.009102121 -0.0660055
-0.005539289 -0.006157981 -0.243701 -0.23118122 -0.0008396595 -1.5807e-05 -0.082733825 0.056384306
-0.24476467 6.037606e-05 0.23710604 -0.06682365 0.24585725 0.051608227 -0.24565583 0.14715783
-0.014974562 -0.08000752 0.20758553 -0.21070327 -0.00022214692 -0.008684404 0.17610173 0.02642462
0.09188759 0.048689004 -0.015725685 -0.008875196 -0.21661207 0.11360994 0.20548476 0.16515477
-0.17289826 7.050423e-05 -0.17273559 -0.11670472 -0.12843156 0.04938575 -0.13304412 1.270106e-05
7.790414e-05 0.15070759 -0.1914623 -0.16597565 -0.12747839 0.17090365 -0.050732713 0.22379246
0.051430196 -0.00046032364 -8.345242e-06 -0.007213464 -0.00046458264 -0.012818637 1.1161871e-05 -0.00045442028
-0.20114693 -0.10727736 0.21057673 -0.21197866 -7.1117785e-05 0.27792734 0.051309474 -4.0879165e-08
-0.23236634 0.09733652 -0.17542852 -0.027395884 -0.04304957 -0.00022966872 1.4695857e-05 0.2167625
0.002634501 0.24314354 0.1387588 -0.14619558 0.08073354 -0.17345458 -0.072640985 0.035535928
0.04137221 0.18936758 -0.038791016 6.9279906e-07 0.10399555 -0.26963413 0.18154821 -0.2176626
-2.066069e-05 -0.0022246686 -0.10820552 -0.00039642316 0.21767725 -0.030032026 -0.13224263 -0.054123502
00000000: 51fc 1739 16b0 eb3d 186b 5dbe 4488 3cbe
00000010: 5570 72bd 3936 bc3c 3564 0838 5dfe 513e
00000020: da1e 233a 6644 b43c 5f48 06bd 383d ccbb
00000030: efd6 87be a8e9 20be cbdd 8bbd fd2b 08b7
00000040: 3130 803d 04c2 093e 3bc4 26be 4a20 9cbd
00000050: e1ce 543d b832 603e d3c4 56bc c730 413e
00000060: 25ec a5ba 30e8 42b9 abb2 7c3e fa91 82be
00000070: 1bb5 14be 0c51 9bbc f4c8 78bd 7ef1 6c3e
00000080: 74a6 1bbe 1fc0 adbd 3b85 2ebe 2a45 84be
00000090: dfed 03be d945 6b3e 08b9 a33d 832e bf3d
000000a0: 2662 89b8 bf6d d3bd df4a 083b aac8 83be
000000b0: c380 37be 027f d5bd c03a 153e 2db1 043e
000000c0: a0cb a1bd 704f 8db8 b0b4 183e 703b 8f3e
000000d0: 7640 813d e327 aeb9 75fa 233e c89b 05be
000000e0: 81b1 933b 087a 4bbe 2570 2cbe f942 d6bd
000000f0: 9828 a83d bce3 843d a1eb 06be ba9d 083d
00000100: 87af fe3d e311 f239 6e41 fa37 51e7 5e3c
00000110: f04d 113e 3bc3 883e 3a99 49be a527 59bd
00000120: fc2e 7d3d b680 5f3e 884c 6f3e 88e9 733e
00000130: 0bd6 da3b 890d 6fbe 46ec d638 363f 13be
00000140: a962 83be 343e 763e 22bb 453e 34e1 8fbe
00000150: a064 983b 496c 03bb 94d3 d2ba 64ea abbd
00000160: 8c9f 713d ffe6 06be b153 593d 045a ce3d
00000170: 4a03 353e 082e 633d ba64 8ebe d5d7 1bbe
00000180: 2dbe c93d c20f 0e3c 3e2d 4dbe 34da 00be
00000190: 3d0f 853e 5639 253e b385 9cbd b51a 98bc
000001a0: d050 87be 00d3 5d38 a9f8 42be 15e1 49be
000001b0: 2a42 d138 a161 bd39 b1fd 89bd aa4c 073e
000001c0: b9f1 0cbe 4765 803e 7085 293e dd15 65be
000001d0: d12e 92bc c208 8938 6080 d738 1e15 8f3c
000001e0: e80b ad3d 2335 ebb8 9586 c1bd d6ef b63d
000001f0: 2495 88be 250d 07be 49a9 95bc 7a66 c1bd
00000200: fb09 43bd 401f 5cbe 0f90 19bc 2622 1d3c
00000210: 26e0 1cbe 0671 8037 fbd8 353e b771 e838
00000220: 9ef7 3c37 5b5b 46b9 2b83 ef3b a70d 173e
00000230: 824f 863e e025 173e 8fb5 863e 1782 a9b8
00000240: 64fa 79be d192 b7bd 31e0 273e 03f7 7337
00000250: 7e16 c8bd c9f9 47be 9120 84be 4b5c 65be
00000260: 995c f2bb 077d ed3d 06c2 e73d 72a5 89be
00000270: bc91 123e da16 4ebe 1021 15bc e42d 87bd
00000280: ed82 b5bb e4c8 c9bb c18c 79be c5ba 6cbe
00000290: 981c 5cba 4699 84b7 5a70 a9bd 3bf3 663d
000002a0: 97a3 7abe 4d3c 7d38 edcb 723e d6da 88bd
000002b0: 01c2 7b3e 2663 533d 348d 7bbe 8bb0 163e
000002c0: de57 75bc fcda a3bd 4d91 543e 99c2 57be
000002d0: 1cf0 68b9 0849 0ebc 0354 343e 7278 d83c
000002e0: 902f bc3d 1f6e 473d 27d3 80bc 4569 11bc
000002f0: 8ecf 5dbe 54ac e83d 996a 523e 551e 293e
00000300: 3e0c 31be acdb 9338 99e1 30be e202 efbd
00000310: 9083 03be b648 4a3d b83c 08be a316 5537
00000320: 7760 a338 1753 1a3e b10e 44be 85f5 29be
00000330: b289 02be 5e01 2f3e 1bcd 4fbd da29 653e
00000340: 78a8 523d 9857 f1b9 8b02 0cb7 ec5e ecbb
00000350: 3a93 f3b9 4305 52bc df43 3b37 423f eeb9
00000360: 76f9 4dbe 3cb4 dbbd 6da1 573e ef10 59be
00000370: 1225 95b8 7e4c 8e3e e229 523d 1e93 2fb3
00000380: 71f1 6dbe 5f58 c73d 89a3 33be 556d e0bc
00000390: bf54 30bd 3ad3 70b9 3a8e 7637 fdf6 5d3e
000003a0: 98a7 2c3b 9ffa 783e c916 0e3e 4bb4 15be
000003b0: a057 a53d 149e 31be ccc4 94bd 1f8e 113d
000003c0: e875 293d 93e9 413e 54e3 1ebd caf8 3935
000003d0: 9efb d43d 7c0d 8abe c6e7 393e f2e2 5ebe
000003e0: 7e50 adb7 bfcb 11bb db9a ddbd 04d7 cfb9
000003f0: c9e6 5e3e b905 f6bc 9d6a 07be 9bb0 5dbd

bias f4 [256]
0.20613743 0.10752256 0.06422505 -0.020631254 0.109786004 0.092014715 0.04644323 1.2238864e-05
0.0003102723 1.0625929e-06 -0.1803619 0.013707668 -0.1838218 0.09353624 -0.13300668 -0.040263932
-0.089697056 0.20376827 -0.17247339 0.10250317 0.09928964 0.17351998 0.018274589 0.114796095
0.20420694 0.0063068224 0.044476774 -0.20104687 -0.022995 0.00014484212 -0.00045550743 -0.04873493
-0.27870908 -0.020776602 0.058419734 0.230304 -0.24586692 0.09081109 -0.2629032 -0.2656664
-0.14402777 0.00039801592 0.026089763 -0.19315249 0.19680978 0.24634016 -0.00010265211 0.21287917
-0.0821926 -0.06267899 0.00044149326 -0.00026806945 -0.17004398 -0.20798579 0.062490694 0.028685689
0.2738422 -0.06676304 0.04868301 -0.065352365 0.09650896 0.00010270402 0.18608692 0.11852597
0.21966949 0.10366635 1.7605604e-05 0.23056409 -0.12996471 0.26078796 0.27343944 0.26528162
-0.08720459 -0.10933948 -8.3159626e-05 0.035558242 0.099323824 0.06642132 0.22675484 -0.018270964
-0.040708713 0.042949658 0.025911849 -0.12850296 3.3958535e-05 -0.19268806 -0.030159483 -0.06163261
0.23605426 -0.24480657 -0.13106254 -0.27397662 0.018702613 -0.19653295 0.039295264 -0.16895464
-0.14923702 -0.10259593 0.00035614707 0.2517539 0.25838086 -0.0001356509 -0.27429947 -0.041429956
-0.057845347 -0.0093686385 0.058169845 0.09989202 0.07896014 0.027915595 -0.06578767 -7.000002e-06
-0.0004566458 -0.10256573 -0.00016061123 0.00046571 -0.26139274 0.1628512 6.875519e-05 -0.23156
0.20445542 -0.1122688 0.048974983 0.27884874 5.0145205e-05 0.02850471 0.06326124 0.19141476
-0.034170363 -0.12109039 -0.0001701711 0.20109008 0.0001907643 0.16902804 4.765141e-06 0.034169566
-3.672818e-05 2.4062601e-05 -0.26392436 -0.23518312 0.0001974989 0.096961565 0.16059749 7.791141e-05
0.07145649 0.07033655 -0.23111248 -0.23692569 -0.19861786 1.9083116e-05 -0.14623277 -0.038202006
-0.00032614992 0.060859427 0.013641467 0.255022 0.24548133 -0.1482826 3.192412e-06 0.0016696359
0.2347251 -0.03510901 -0.061809815 -0.14664689 0.18445243 -0.027235998 -0.055666376 0.16228376
0.25223032 -7.814294e-05 -0.17272526 0.21317515 -0.04510945 -0.08501033 -0.1720356 -0.09203838
-0.20150109 -0.12630096 -0.2488111 -0.0071521285 0.06485877 -0.19264221 5.609184e-07 -0.05376984
0.09300824 0.23217577 0.00038907168 -0.09991485 -0.19604489 -0.13001515 0.02880093 0.013074094
0.112431414 -0.00026075027 0.10364438 -0.24137343 0.023157282 0.2710594 -0.2780986 -0.10552309
0.14908722 -0.0008286981 -0.11047442 0.138162 -2.1715869e-05 4.7742466e-05 -0.033240028 0.19054933
0.118213646 0.003421442 0.00053435663 0.10480084 0.142854 -0.06760586 0.00027478804 0.07745889
-0.09331746 0.2577628 -0.16543795 0.085226946 -0.17764103 0.038527858 0.17036286 -0.0004512366
4.737645e-05 0.14753999 -0.17754136 -0.16166134 -0.22705382 -0.14014873 4.023496e-05 -0.08244605
0.011551483 -5.009881e-05 0.21963596 -0.075595856 -0.024475437 0.15681739 -0.018871719 0.2660731
-0.06321126 -1.4934839e-05 -0.014856662 0.08700431 0.05852827 -0.11029082 0.1559231 7.9509104e-05
-0.018877743 3.349739e-05 0.16944326 0.2748373 0.094024464 0.002850882 0.15362456 -0.07031294
00000000: b115 533e ca34 dc3d 6c88 833d e002 a9bc
00000010: 7cd7 e03d 3672 bc3d 423b 3e3d 8555 4d37
00000020: 0bac a239 6a9e 8e35 cab0 38be 2096 603c
00000030: c83b 3cbe ee8f bf3d e732 08be cbeb 24bd
00000040: 17b3 b7bd a1a8 503e dd9c 30be 2fed d13d
00000050: 5e58 cb3d 39af 313e 97b4 953c 371a eb3d
00000060: a01b 513e 76a9 ce3b 472d 363d 3bdf 4dbe
00000070: 0360 bcbc c3e0 1739 2cd1 eeb9 479e 47bd
00000080: f5b2 8ebe b133 aabc 8849 6f3d d0d4 6b3e
00000090: 8ac4 7bbe 2afb b93d 409b 86be 6d05 88be
000000a0: 047c 13be cbac d039 33ba d53c c4c9 45be
000000b0: 8188 493e 9840 7c3e ef46 d7b8 fffc 593e
000000c0: 9854 a8bd d85d 80bd 3978 e739 ac8b 8cb9
000000d0: 0220 2ebe 3afa 54be 3ef6 7f3d 40fe ea3c
000000e0: 0b35 8c3e 10bb 88bd d667 473d 76d7 85bd
000000f0: 7da6 c53d cd62 d738 928d 3e3e bebd f23d
00000100: 0af1 603e 064f d43d bfaf 9337 fe18 6c3e
00000110: 7815 05be 0086 853e 4100 8c3e fed2 873e
00000120: 5298 b2bd 61ed dfbd fc65 aeb8 85a5 113d
00000130: 4a6a cb3d e707 883d 6c32 683e fdac 95bc
00000140: 2ebe 26bd fbeb 2f3d 1645 d43c 4896 03be
00000150: b36e 0e38 0550 45be 0511 f7bc 7a72 7cbd
00000160: 35b8 713e 93ae 7abe 4235 06be aa46 8cbe
00000170: 3936 993c ef3f 49be 12f4 203d 7202 2dbe
00000180: 97d1 18be d11d d2bd 40b9 ba39 e3e5 803e
00000190: 7f4a 843e 833d 0eb9 fb70 8cbe 75b2 29bd
000001a0: 3eef 6cbd eb7e 19bc 8143 6e3d 3094 cc3d
000001b0: dbb5 a13d 3faf e43c b0bb 86bd 8fe1 eab6
000001c0: f669 efb9 fb0d d2bd c069 28b9 8a2a f439
000001d0: 45d5 85be 77c2 263e a930 9038 111e 6dbe
000001e0: c35c 513e 2fed e5bd fe99 483d 43c5 8e3e
000001f0: 0153 5238 b682 e93c 1c8f 813d 3b02 443e
00000200: 39f6 0bbd 3dfe f7bd f56f 32b9 8fea 4d3e
00000210: e707 4839 b015 2d3e 40e4 9f36 63f5 0b3d
00000220: 950c 1ab8 0bda c937 1821 87be d8d3 70be
00000230: b517 4f39 c993 c63d ab73 243e 5f64 a338
00000240: c857 923d 9c0c 903d c0a8 6cbe a69c 72be
00000250: 7b62 4bbe ae14 a037 0bbe 15be b579 1cbd
00000260: 1aff aab9 bc47 793d 7680 5f3c 3e92 823e
00000270: 755f 7b3e 65d7 17be 383d 5636 afd7 da3a
00000280: c75b 703e 77ce 0fbd 4a2c 7dbd 9a2a 16be
00000290: 19e1 3c3e 071e dfbc 6d02 64bd b72d 263e
000002a0: 5524 813e ace0 a3b8 e4de 30be 964a 5a3e
000002b0: b0c4 38bd e519 aebd 1a2a 30be 9e7e bcbd
000002c0: 4d56 4ebe 0a55 01be 56c8 7ebe 675c eabb
000002d0: add4 843d 0044 45be 0592 1635 c43d 5cbd
000002e0: 1b7b be3d 7cbf 6d3e 51fc cb39 28a0 ccbd
000002f0: febf 48be b122 05be eeef eb3c ba34 563c
00000300: 7142 e63d 4fb5 88b9 8143 d43d 992a 77be
00000310: 57b4 bd3c 4cc8 8a3e f162 8ebe 7d1c d8bd
00000320: 52aa 183e fd3c 59ba 6a40 e2bd 577a 0d3e
00000330: 792a b6b7 153f 4838 b226 08bd 5d1f 433e
00000340: ff19 f23d 453a 603b 1114 0c3a d3a1 d63d
00000350: 5248 123e f174 8abd 6d11 9039 c4a2 9e3d
00000360: 391d bfbd 7cf9 833e 9168 29be 778b ae3d
00000370: 88e7 35be 63cf 1d3d 9a73 2e3e f493 ecb9
00000380: 13b6 4638 b914 173e 67cd 35be 8d8a 25be
00000390: cc80 68be 2683 0fbe f6c1 2838 7ad9 a8bd
000003a0: 6e42 3d3c 3021 52b8 40e8 603e 00d2 9abd
000003b0: b680 c8bc bd94 203e dd98 9abc bc3a 883e
000003c0: e874 81bd a590 7ab7 5b69 73bc 512f b23d
000003d0: 57bb 6f3d 27e0 e1bd 4eaa 1f3e 20be a638
000003e0: 7fa5 9abc 8c7f 0c38 8982 2d3e 79b7 8c3e
000003f0: e68f c03d ddd5 3a3b c24f 1d3e 3b00 90bd

weight f4 [32, 256]
0.0013258316 -0.0004959942 0.00020718866 -9.8714714e-05 8.601717e-05 0.0004238009 0.00017147497 0.0015319868
-0.000293708 0.005067024 0.00033012475 -3.318698e-05 -5.3390046e-05 0.0016049176 -0.00022979856 0.00025548437
0.001171665 0.0043964763 -0.0012057633 0.0016353588 -0.0008584505 -0.000111377994 0.00033990515 -0.00021209287
0.00042060154 -0.00017413471 0.001815856 0.00054388284 -0.000515271 -0.00012646108 -7.8658304e-05 0.0012738296
0.0004907873 0.0008600253 0.00050239067 0.0033432331 4.7802783e-05 -0.0003503207 0.00013665025 -0.000490798
-7.083389e-05 5.971756e-05 0.00024938106 4.698906e-05 0.00028993434 0.00035135806 4.7345653e-05 0.00051322667
0.0016462673 9.927553e-05 -0.001434386 9.154728e-05 -0.009164052 -0.0003419207 0.0013722348 0.00182761
-0.0004649328 0.0064454675 0.0015310448 0.00039426953 -0.00060301437 -0.00020722965 -0.00025918044 -3.3691904e-05
6.9916336e-05 0.0010358855 -0.00020515735 0.0007359236 0.00032679498 -0.00020294197 -0.00038036073 0.0016760629
9.317731e-05 -3.3420798e-05 0.00035573775 0.0015666725 0.0005259204 0.0002249453 -0.00038027935 -0.0001347901
-0.00064015744 -0.0037943176 0.0017458028 0.00041710495 -0.0046414575 0.00030141158 -0.0009038172 5.4081294e-05
0.00021273637 -2.361511e-05 0.0015011994 0.00034122227 -0.0010825867 0.008841037 0.00021355432 0.0005783592
0.00043201933 0.0017185749 0.00023591422 -0.00021619153 -0.0007403352 8.1077895e-05 -0.00035421737 -0.0005059426
0.00025356014 -0.00031947187 5.4218133e-05 0.00018274886 0.0016408956 -0.003007846 0.00017116693 0.0022308244
-0.0005609857 0.0015105777 -0.00011255266 0.00082070864 3.5651956e-05 0.0022848346 5.701654e-05 5.1117728e-05
0.0015267468 2.345527e-05 0.00021581822 0.0008516744 0.0018121462 0.0012088838 0.0019153114 0.0002279754
-4.0365474e-05 0.0018834863 0.0011714863 0.00018544511 0.0003025815 0.00050618674 -4.2975247e-05 -4.050348e-05
-0.0001003207 -0.0006328915 -0.00025880072 -0.00017382066 0.0003935739 -0.00016718738 -0.00040988496 3.6867732e-05
-9.4465715e-05 0.001118155 0.0003988568 0.0009711534 0.000120013596 0.0010861977 -0.00018988276 -0.00031938642
0.00021281243 0.0010153056 0.0004808319 0.001258027 -0.0010923244 -0.0004539508 -0.0019996199 1.4929306e-05
3.6815592e-05 0.00030236787 -0.00019556703 -0.000110884444 -0.0006229061 0.00025773386 0.0062116752 -6.738123e-05
9.394388e-05 0.0004424346 0.00091687514 0.00106407 -0.00038781148 0.0005366742 -0.00011457007 -0.00027452267
-0.00018325004 -7.48313e-05 -0.00050880597 0.0009561758 0.0013519607 0.0012773351 -4.723077e-05 0.0001990734
0.0002366745 -0.0004339025 -0.0075085633 0.0060778633 0.0013196219 0.00023275997 0.0011147955 -0.00054959505
0.00012436461 -0.005076309 0.00011487074 0.0005912499 -0.00013222576 0.004427471 8.924153e-05 0.0016831614
-0.00034828857 0.0009055359 -0.00067348144 0.00097462506 -0.00063647295 -0.0004859548 0.00014743117 0.0014353229
0.00015205114 0.00020493397 -0.00036187674 0.0066787098 0.001553839 0.0004965385 0.0005818845 -0.00022921133
0.00012739224 -0.0017925092 -0.00022505561 -7.166856e-05 -0.0002689934 -7.917882e-05 0.0003019084 0.00024672228
0.00037586113 0.00081997854 0.00018871782 0.0010810718 -8.620688e-05 -2.1107166e-05 -0.00015565992 0.00028182546
0.001464921 0.001554069 -3.354617e-05 -7.7731296e-05 0.00027404798 0.00017945954 -0.005637963 0.00013236134
0.0009965494 -0.0003278861 0.00081999635 0.0003922853 0.00097143685 0.0015409742 5.8574664e-05 -5.297854e-05
-0.00015365274 -2.33559e-05 0.003834539 -0.000965763 8.128125e-05 -0.00035087473 0.0013981737 -8.700498e-05
00000000: 87c7 ad3a 9b05 02ba c840 5939 0f05 cfb8
00000010: 1e64 b438 9831 de39 f6cd 3339 f2cc c83a
00000020: d2fc 99b9 4709 a63b 9814 ad39 4032 0bb8
00000030: 20ef 5fb8 195c d23a 15f6 70b9 88f2 8539
00000040: 8e92 993a 5110 903b b40a 9eba 8959 d63a
00000050: a309 61ba 9b93 e9b8 4c35 b239 3f65 5eb9
00000060: 2f84 dc39 ee97 36b9 0402 ee3a 5c93 0e3a
00000070: 4013 07ba a39a 04b9 5bf5 a4b8 a1f6 a63a
00000080: 2ea8 003a 5273 613a deb2 033a 251a 5b3b
00000090: d97f 4838 40ab b7b9 c649 0f39 e5a8 00ba
000000a0: a88c 94b8 3e79 7a38 5cbf 8239 1e16 4538
000000b0: 5402 9839 7b36 b839 0295 4638 0f8a 063a
000000c0: 90c7 d73a 2532 d038 0202 bcba 12fd bf38
000000d0: d224 16bc d243 b3b9 8fdc b33a 6a8c ef3a
000000e0: 39c2 f3b9 8034 d33b 57ad c83a f6b5 ce39
000000f0: 9c13 1eba c94b 59b9 9ce2 87b9 6850 0db8
00000100: 0ca0 9238 8dc6 873a 821f 57b9 ffea 403a
00000110: ae55 ab39 d2cc 54b9 276b c7b9 57af db3a
00000120: 3068 c338 4f2d 0cb8 5082 ba39 ce58 cd3a
00000130: ecdd 093a 4bdf 6b39 3b60 c7b9 7156 0db9
00000140: 3dd0 27ba 16aa 78bb 6cd3 e43a e1ae da39
00000150: 5e17 98bb c706 9e39 25ee 6cba 59d5 6238
00000160: fc11 5f39 1019 c6b7 e5c3 c43a 14e6 b239
00000170: 95e5 8dba ffd9 103c 8ded 5f39 079d 173a
00000180: a780 e239 ce41 e13a be5f 7739 79b1 62b9
00000190: 0e13 42ba 5d08 aa38 40b6 b9b9 3ca1 04ba
000001a0: 44f0 8439 ca7e a7b9 4768 6338 46a0 3f39
000001b0: 5213 d73a 481f 45bb 467b 3339 0633 123b
000001c0: 1d0f 13ba 94fe c53a 400a ecb8 d324 573a
000001d0: ff88 1538 2abd 153b 0b25 6f38 3e67 5638
000001e0: 1f1d c83a cfc1 c437 434d 6239 e742 5f3a
000001f0: 8985 ed3a 6973 9e3a 300b fb3a ae0c 6f39
00000200: 194e 29b8 50df f63a 8f8c 993a 0b74 4239
00000210: cda3 9e39 9eb1 043a 5240 34b8 48e2 29b8
00000220: 4463 d2b8 a1e8 25ba a5af 87b9 a143 36b9
00000230: 9858 ce39 054f 2fb9 d4e5 d6b9 6da2 1a38
00000240: e51b c6b8 0e8f 923a a71d d139 0095 7e3a
00000250: cfaf fb38 bf5e 8e3a 441b 47b9 5273 a7b9
00000260: 6726 5f39 0114 853a 2a18 fc39 62e4 a43a
00000270: 532c 8fba 3f00 eeb9 0e0c 03bb e278 7a37
00000280: 716a 1a38 2187 9e39 2011 4db9 a28a e8b8
00000290: 854a 23ba 7420 8739 4f8b cb3b 064f 8db8
000002a0: bd03 c538 91f6 e739 735a 703a 4478 8b3a
000002b0: 2d53 cbb9 99af 0c3a 5745 f0b8 cfed 8fb9
000002c0: cf26 40b9 c0ee 9cb8 6461 05ba dfa7 7a3a
000002d0: 4634 b13a 416c a73a a719 46b8 5cbe 5039
000002e0: d42b 7839 687d e3b9 650a f6bb d028 c73b
000002f0: 2af7 ac3a 0711 7439 541e 923a b312 10ba
00000300: df67 0239 2b57 a6bb c2e6 f038 1cfe 1a3a
00000310: 15a6 0ab9 5214 913b 2e27 bb38 869d dc3a
00000320: 809a b6b9 7c61 6d3a 938c 30ba fb7d 7f3a
00000330: fad8 26ba c0c7 feb9 c197 1a39 7221 bc3a
00000340: eb6f 1f39 8be3 5639 46ba bdb9 14d9 da3b
00000350: 2faa cb3a 222a 023a 9c89 183a 7358 70b9
00000360: 9894 0539 a1f2 eaba e8fc 6bb9 c44c 96b8
00000370: af07 8db9 ce0c a6b8 7649 9e39 815a 8139
00000380: 3a0f c539 d4f3 563a 8ee2 4539 c0b2 8d3a
00000390: f7c9 b4b8 4b0f b1b7 a438 23b9 f9c1 9339
000003a0: 9802 c03a e7b1 cb3a edb3 0cb8 ac03 a3b8
000003b0: 19ae 8f39 4e2d 3c39 a9be b8bb 7aca 0a39
000003c0: a69e 823a 21e8 abb9 06f5 563a a4ab cd39
000003d0: 06a8 7e3a 84fa c93a 11ae 7538 4635 5eb8
000003e0: d81d 21b9 6aec c3b7 e44c 7b3b 422b 7dba
000003f0: 8a75 aa38 9cf5 b7b9 ed42 b73a 7176 b6b8

bias f4 [32]
-0.00034988165 5.996935e-06 0.00029017552 4.3213775e-05 -6.125451e-05 0.00014477698 0.0004552865 0.00017239187
-7.2644325e-05 0.00015663389 -0.00037618622 -0.00045509398 0.00015262378 1.7086304e-05 -7.728469e-05 7.410821e-05
-0.00019695569 -8.6225674e-07 -3.753415e-05 0.00011671433 -4.1791718e-05 -3.0365109e-06 -0.00011719523 -0.00017412049
3.936545e-05 0.00042656713 1.0310621e-05 -5.8769336e-05 4.5479286e-08 2.6038862e-05 -0.00018603046 1.604407e-05
00000000: 5270 b7b9 4839 c936 b322 9839 7040 3538
00000010: c475 80b8 46cf 1739 85b3 ee39 17c4 3439
00000020: a058 98b8 173e 2439 dc3a c5b9 ae99 eeb9
00000030: a209 2039 8f54 8f37 e713 a2b8 8b6a 9b38
00000040: e485 4eb9 d575 67b5 fd6d 1db8 87c4 f438
00000050: 8449 2fb8 dcc6 4bb6 b6c6 f5b8 1d94 36b9
00000060: 551c 2538 dfa4 df39 c8fb 2c37 187f 76b8
00000070: 0155 4333 086e da37 2c11 43b9 6196 8637

weight f4 [10, 32]
-0.0019305208 0.023709662 0.0019694131 -0.0045877486 0.056238245 0.005002353 0.019419013 -0.009153015
-0.07451664 -0.0882524 -0.001534091 0.057477076 0.039027356 -0.0005719577 -0.0010417831 -0.040023673
-0.0013667668 -0.0013595832 -0.06947716 -0.07871623 -0.04986047 0.00012114227 0.0037811664 0.006353672
0.029323861 -0.04342528 -0.031611014 -0.00027576278 0.05821243 -0.002641495 -0.06654748 0.041494556
-0.023946349 0.057549752 0.0021686326 -0.0031340702 0.06131611 0.0038639824 -0.084998816 0.007756898
0.09103586 -0.022669785 0.04554616 0.071240105 -0.0016659128 -0.0007500306 0.0010005151 0.06988334
0.0074844477 0.043090317 -0.070699856 -0.009936041 -0.04859508 -3.563683e-05 -0.027767275 -0.0004491481
0.018086769 -0.0014258457 0.0012673227 -0.04578538 -0.008737303 0.001639187 0.04359673 0.0051202094
0.0038225478 0.027142016 0.053320725 -0.012739235 0.09371053 -0.03890864 0.004404856 -0.001066847
0.061075024 -0.097303465 0.013370856 -0.09894251 -0.02265223 7.815596e-05 -0.005920436 -0.0358226
-0.05835152 -0.06733131 -0.00787538 0.081756 0.0009719381 -0.03864654 -0.029642303 -0.09315152
0.0013786036 0.07964323 -0.08526081 0.019928843 0.06987625 0.047031533 -0.035308618 -0.00025805557
0.022828849 -0.07428454 0.053545088 0.0050568487 -0.0823603 0.0034013824 -0.0017348304 -0.02312676
-0.01887927 0.006364773 0.0009549014 0.039093416 -0.10749089 0.0003365246 -0.00048176045 0.07108353
0.014754148 0.037864357 0.009058692 -0.0033263878 -0.022150742 -0.009389714 0.025775623 -0.0004170863
0.07444876 -0.05821265 0.041246265 0.031736992 0.07142657 0.053726967 -0.02747723 0.023503138
-0.0871679 -0.040525097 -0.002840703 0.08648116 -0.004455037 -0.059826758 -0.0698729 0.004789483
-0.0034762195 -0.0043893303 0.000107240005 0.022160377 0.0041662995 0.00084869127 0.035845958 -0.0731497
-0.020463154 0.0008058249 -0.014785771 0.004860948 -0.005622776 0.035359126 0.11308298 0.084492356
0.00060871727 -0.06772017 -0.013789493 -0.0092415195 -0.008232026 -0.015203058 0.03016231 -0.07938247
-3.2560743e-05 0.047994517 -0.0556527 -0.0120671475 0.03727627 -0.005307595 -0.011064972 0.031088617
-0.05245502 0.088080406 0.07085797 -0.009187476 -0.00037547754 -0.015051031 0.0015876074 -0.062436484
0.00063271716 0.055913374 0.010082885 0.0684934 0.035190307 0.08166472 0.0030979945 -0.06556842
-0.0719404 0.052017655 0.060955994 0.08500787 -0.0666263 0.074101485 -0.0055667185 -0.00040102596
0.039225154 -0.053331938 -0.08078864 0.05853968 -0.07781609 0.01694516 0.02337862 0.04690274
0.0046391548 0.0033039087 0.00030544758 0.004897076 -0.08283831 -0.0005145987 -0.025950855 0.05037353
-0.011655471 -0.00031370742 -0.05426015 0.079994425 0.023657994 0.06760715 0.046346422 -0.040202755
0.07837711 -0.0021542595 0.07471665 0.00046354585 0.052494124 -0.0061880006 0.008192664 -0.00011306114
-0.057156716 0.06516735 -0.026025262 -0.076811545 0.0816379 -0.08209483 0.0053315065 0.07800629
-0.013742434 -0.09775291 -0.05746487 -0.011071036 -0.009281255 0.04057516 0.06521768 -0.06171155
0.0004926942 -0.05350939 0.0069145323 0.08042333 -0.0025207514 -0.0009004398 -0.009301669 -0.1031265
0.08449768 0.006735192 0.08563371 -0.066327624 -0.033462223 0.0013559866 0.0052206344 0.0005445057
00000000: 8709 fdba c43a c23c 4511 013b d354 96bb
00000010: 135a 663d c7ea a33b 9f14 9f3c 87f6 15bc
00000020: 2e9c 98bd adbd b4bd 8d13 c9ba 156d 6b3d
00000030: 26db 1f3d 6eef 15ba 718c 88ba ddef 23bd
00000040: 1525 b3ba 0b34 b2ba 0b4a 8ebd fa35 a1bd
00000050: 7e3a 4cbd c30d fe38 72cd 773b 7732 d03b
00000060: 9838 f03c b5de 31bd 8d7a 01bd 4194 90b9
00000070: 2870 6e3d ef1c 2dbb 0c4a 88bd 32f6 293d
00000080: 222b c4bc 4ab9 6b3d 9e1f 0e3b f964 4dbb
00000090: 9a26 7b3d de3a 7d3b dc13 aebd 942d fe3b
000000a0: 0271 ba3d fcb5 b9bc 9c8e 3a3d 55e6 913d
000000b0: c25a daba b49d 44ba b723 833a ff1e 8f3d
000000c0: 1940 f53b 797f 303d 16cb 90bd c7ca 22bc
000000d0: a20b 47bd c178 15b8 3278 e3bc a37b ebb9
000000e0: b42a 943c 71e3 baba 4b1c a63a 7389 3bbd
000000f0: e826 0fbc fdd9 d63a 7c92 323d 6ec7 a73b
00000100: b683 7a3b ef58 de3c d566 5a3d 39b8 50bc
00000110: 4eeb bf3d ab5e 1fbd 9c56 903b 72d5 8bba
00000120: ce29 7a3d 0a47 c7bd 6f11 5b3c 5fa2 cabd
00000130: 2b91 b9bc a9e7 a338 3700 c2bb b8ba 12bd
00000140: 0102 6fbd ffe4 89bd bd07 01bc b16f a73d
00000150: a9c9 7e3a d64b 1ebd 6ad4 f2bc 39c6 bebd
00000160: 43b2 b43a fd1b a33d 389d aebd d041 a33c
00000170: 481b 8f3d 23a4 403d c59f 10bd a24b 87b9
00000180: 9103 bb3c 7e22 98bd 1852 5b3d ecb3 a53b
00000190: 84ac a8bd bae9 5e3b 4063 e3ba 5574 bdbc
000001a0: b3a8 9abc 968f d03b 5952 7a3a 6b20 203d
000001b0: 2f24 dcbd 916f b039 cb94 fcb9 3e94 913d
000001c0: 62bb 713c a817 1b3d e86a 143c 87ff 59bb
000001d0: 7975 b5bc 51d7 19bc 6627 d33c 60ac dab9
000001e0: 9778 983d 6370 6ebd d8f1 283d a6fe 013d
000001f0: 1848 923d cf10 5c3d ee17 e1bc a789 c03c
00000200: 1585 b2bd a5fd 25bd 162b 3abb 091d b13d
00000210: 8ffb 91bb e70c 75bd 8619 8fbd 18f1 9c3b
00000220: 49d1 63bb 5fd4 8fbb 0ae6 e038 ae89 b53c
00000230: 7485 883b b57a 5e3a 36d3 123d 83cf 95bd
00000240: 58a2 a7bc fe3d 533a 0540 72bc 9648 9f3b
00000250: 443f b8bb bbd4 103d 0d98 e73d 540a ad3d
00000260: 5392 1f3a dfb0 8abd 53ed 61bc be69 17bc
00000270: 9fdf 06bc 3f16 79bc f316 f73c 4793 a2bd
00000280: d591 08b8 e695 443d 16f4 63bd 49b5 45bc
00000290: 01af 183d 55eb adbb db49 35bc 8ead fe3c
000002a0: 13db 56bd 8063 b43d fc1d 913d 1187 16bc
000002b0: bedb c4b9 9998 76bc 4417 d03a 66bd 7fbd
000002c0: eedc 253a 6c05 653d af32 253c 4546 8c3d
000002d0: b623 103d d53f a73d b907 4b3b bc48 86bd
000002e0: 7d55 93bd 7710 553d feac 793d 9b18 ae3d
000002f0: 5f73 88bd 85c2 973d 0569 b6bb cb40 d2b9
00000300: 8eaa 203d 9772 5abd 8474 a5bd 4ec7 6f3d
00000310: 0b5e 9fbd 94d0 8a3c 8584 bf3c 161d 403d
00000320: 0d04 983b 6486 583b 7b24 a039 a777 a03b
00000330: 22a7 a9bd 22e6 06ba e396 d4bc 7954 4e3d
00000340: 97f6 3ebc 1979 a4b9 e43f 5ebd 1ed4 a33d
00000350: 69ce c13c 9e75 8a3d bfd5 3d3d a5ab 24bd
00000360: 2e84 a03d 7a2e 0dbb 0b05 993d 1208 f339
00000370: 1404 573d b6c4 cabb 863a 063c 3d1b edb8
00000380: 291d 6abd 7676 853d ee32 d5bc 5f4f 9dbd
00000390: c531 a73d 5621 a8bd ebb3 ae3b c3c1 9f3d
000003a0: f227 61bc ad32 c8bd 4960 6bbd 4a63 35bc
000003b0: 6810 18bc 2432 263d d990 853d 40c5 7cbd
000003c0: 2628 013a aa2c 5bbd 4d93 e23b fdb4 a43d
000003d0: 3133 25bb 7e0b 6cba 0766 18bc fd33 d3bd
000003e0: 1f0d ad3d e3b2 dc3b ba60 af3d c7d6 87bd
000003f0: af0f 09bd 5cbb b13a db11 ab3b 29bd 0e3a

bias f4 [10]
-0.05893996 -0.0054215975 -0.06942911 0.014857008 8.4558174e-05 -0.0042085955 0.06632156 -9.569771e-05
-0.00010928059 -0.021464309
00000000: 076b 71bd a8a7 b1bb d930 8ebd cf6a 733c
00000010: d354 b138 42e8 89bb 99d3 873d 51b1 c8b8
00000020: 922d e5b8 ebd5 afbc

weight f4 [256]
1.0 1.0 1.0 1.0 1.0 1.0 1.0 1.0
1.0 1.0 1.0 1.0 1.0 1.0 1.0 1.0
1.0 1.0 1.0 1.0 1.0 1.0 1.0 1.0
1.0 1.0 1.0 1.0 1.0 1.0 1.0 1.0
1.0 1.0 1.0 1.0 1.0 1.0 1.0 1.0
1.0 1.0 1.0 1.0 1.0 1.0 1.0 1.0
1.0 1.0 1.0 1.0 1.0 1.0 1.0 1.0
1.0 1.0 1.0 1.0 1.0 1.0 1.0 1.0
1.0 1.0 1.0 1.0 1.0 1.0 1.0 1.0
1.0 1.0 1.0 1.0 1.0 1.0 1.0 1.0
1.0 1.0 1.0 1.0 1.0 1.0 1.0 1.0
1.0 1.0 1.0 1.0 1.0 1.0 1.0 1.0
1.0 1.0 1.0 1.0 1.0 1.0 1.0 1.0
1.0 1.0 1.0 1.0 1.0 1.0 1.0 1.0
1.0 1.0 1.0 1.0 1.0 1.0 1.0 1.0
1.0 1.0 1.0 1.0 1.0 1.0 1.0 1.0
1.0 1.0 1.0 1.0 1.0 1.0 1.0 1.0
1.0 1.0 1.0 1.0 1.0 1.0 1.0 1.0
1.0 1.0 1.0 1.0 1.0 1.0 1.0 1.0
1.0 1.0 1.0 1.0 1.0 1.0 1.0 1.0
1.0 1.0 1.0 1.0 1.0 1.0 1.0 1.0
1.0 1.0 1.0 1.0 1.0 1.0 1.0 1.0
1.0 1.0 1.0 1.0 1.0 1.0 1.0 1.0
1.0 1.0 1.0 1.0 1.0 1.0 1.0 1.0
1.0 1.0 1.0 1.0 1.0 1.0 1.0 1.0
1.0 1.0 1.0 1.0 1.0 1.0 1.0 1.0
1.0 1.0 1.0 1.0 1.0 1.0 1.0 1.0
1.0 1.0 1.0 1.0 1.0 1.0 1.0 1.0
1.0 1.0 1.0 1.0 1.0 1.0 1.0 1.0
1.0 1.0 1.0 1.0 1.0 1.0 1.0 1.0
1.0 1.0 1.0 1.0 1.0 1.0 1.0 1.0
1.0 1.0 1.0 1.0 1.0 1.0 1.0 1.0
00000000: 0000 803f 0000 803f 0000 803f 0000 803f
00000010: 0000 803f 0000 803f 0000 803f 0000 803f
00000020: 0000 803f 0000 803f 0000 803f 0000 803f
00000030: 0000 803f 0000 803f 0000 803f 0000 803f
00000040: 0000 803f 0000 803f 0000 803f 0000 803f
00000050: 0000 803f 0000 803f 0000 803f 0000 803f
00000060: 0000 803f 0000 803f 0000 803f 0000 803f
00000070: 0000 803f 0000 803f 0000 803f 0000 803f
00000080: 0000 803f 0000 803f 0000 803f 0000 803f
00000090: 0000 803f 0000 803f 0000 803f 0000 803f
000000a0: 0000 803f 0000 803f 0000 803f 0000 803f
000000b0: 0000 803f 0000 803f 0000 803f 0000 803f
000000c0: 0000 803f 0000 803f 0000 803f 0000 803f
000000d0: 0000 803f 0000 803f 0000 803f 0000 803f
000000e0: 0000 803f 0000 803f 0000 803f 0000 803f
000000f0: 0000 803f 0000 803f 0000 803f 0000 803f
00000100: 0000 803f 0000 803f 0000 803f 0000 803f
00000110: 0000 803f 0000 803f 0000 803f 0000 803f
00000120: 0000 803f 0000 803f 0000 803f 0000 803f
00000130: 0000 803f 0000 803f 0000 803f 0000 803f
00000140: 0000 803f 0000 803f 0000 803f 0000 803f
00000150: 0000 803f 0000 803f 0000 803f 0000 803f
00000160: 0000 803f 0000 803f 0000 803f 0000 803f
00000170: 0000 803f 0000 803f 0000 803f 0000 803f
00000180: 0000 803f 0000 803f 0000 803f 0000 803f
00000190: 0000 803f 0000 803f 0000 803f 0000 803f
000001a0: 0000 803f 0000 803f 0000 803f 0000 803f
000001b0: 0000 803f 0000 803f 0000 803f 0000 803f
000001c0: 0000 803f 0000 803f 0000 803f 0000 803f
000001d0: 0000 803f 0000 803f 0000 803f 0000 803f
000001e0: 0000 803f 0000 803f 0000 803f 0000 803f
000001f0: 0000 803f 0000 803f 0000 803f 0000 803f
00000200: 0000 803f 0000 803f 0000 803f 0000 803f
00000210: 0000 803f 0000 803f 0000 803f 0000 803f
00000220: 0000 803f 0000 803f 0000 803f 0000 803f
00000230: 0000 803f 0000 803f 0000 803f 0000 803f
00000240: 0000 803f 0000 803f 0000 803f 0000 803f
00000250: 0000 803f 0000 803f 0000 803f 0000 803f
00000260: 0000 803f 0000 803f 0000 803f 0000 803f
00000270: 0000 803f 0000 803f 0000 803f 0000 803f
00000280: 0000 803f 0000 803f 0000 803f 0000 803f
00000290: 0000 803f 0000 803f 0000 803f 0000 803f
000002a0: 0000 803f 0000 803f 0000 803f 0000 803f
000002b0: 0000 803f 0000 803f 0000 803f 0000 803f
000002c0: 0000 803f 0000 803f 0000 803f 0000 803f
000002d0: 0000 803f 0000 803f 0000 803f 0000 803f
000002e0: 0000 803f 0000 803f 0000 803f 0000 803f
000002f0: 0000 803f 0000 803f 0000 803f 0000 803f
00000300: 0000 803f 0000 803f 0000 803f 0000 803f
00000310: 0000 803f 0000 803f 0000 803f 0000 803f
00000320: 0000 803f 0000 803f 0000 803f 0000 803f
00000330: 0000 803f 0000 803f 0000 803f 0000 803f
00000340: 0000 803f 0000 803f 0000 803f 0000 803f
00000350: 0000 803f 0000 803f 0000 803f 0000 803f
00000360: 0000 803f 0000 803f 0000 803f 0000 803f
00000370: 0000 803f 0000 803f 0000 803f 0000 803f
00000380: 0000 803f 0000 803f 0000 803f 0000 803f
00000390: 0000 803f 0000 803f 0000 803f 0000 803f
000003a0: 0000 803f 0000 803f 0000 803f 0000 803f
000003b0: 0000 803f 0000 803f 0000 803f 0000 803f
000003c0: 0000 803f 0000 803f 0000 803f 0000 803f
000003d0: 0000 803f 0000 803f 0000 803f 0000 803f
000003e0: 0000 803f 0000 803f 0000 803f 0000 803f
000003f0: 0000 803f 0000 803f 0000 803f 0000 803f

bias f4 [256]
0.0 0.0 0.0 0.0 0.0 0.0 0.0 0.0
0.0 0.0 0.0 0.0 0.0 0.0 0.0 0.0
0.0 0.0 0.0 0.0 0.0 0.0 0.0 0.0
0.0 0.0 0.0 0.0 0.0 0.0 0.0 0.0
0.0 0.0 0.0 0.0 0.0 0.0 0.0 0.0
0.0 0.0 0.0 0.0 0.0 0.0 0.0 0.0
0.0 0.0 0.0 0.0 0.0 0.0 0.0 0.0
0.0 0.0 0.0 0.0 0.0 0.0 0.0 0.0
0.0 0.0 0.0 0.0 0.0 0.0 0.0 0.0
0.0 0.0 0.0 0.0 0.0 0.0 0.0 0.0
0.0 0.0 0.0 0.0 0.0 0.0 0.0 0.0
0.0 0.0 0.0 0.0 0.0 0.0 0.0 0.0
0.0 0.0 0.0 0.0 0.0 0.0 0.0 0.0
0.0 0.0 0.0 0.0 0.0 0.0 0.0 0.0
0.0 0.0 0.0 0.0 0.0 0.0 0.0 0.0
0.0 0.0 0.0 0.0 0.0 0.0 0.0 0.0
0.0 0.0 0.0 0.0 0.0 0.0 0.0 0.0
0.0 0.0 0.0 0.0 0.0 0.0 0.0 0.0
0.0 0.0 0.0 0.0 0.0 0.0 0.0 0.0
0.0 0.0 0.0 0.0 0.0 0.0 0.0 0.0
0.0 0.0 0.0 0.0 0.0 0.0 0.0 0.0
0.0 0.0 0.0 0.0 0.0 0.0 0.0 0.0
0.0 0.0 0.0 0.0 0.0 0.0 0.0 0.0
0.0 0.0 0.0 0.0 0.0 0.0 0.0 0.0
0.0 0.0 0.0 0.0 0.0 0.0 0.0 0.0
0.0 0.0 0.0 0.0 0.0 0.0 0.0 0.0
0.0 0.0 0.0 0.0 0.0 0.0 0.0 0.0
0.0 0.0 0.0 0.0 0.0 0.0 0.0 0.0
0.0 0.0 0.0 0.0 0.0 0.0 0.0 0.0
0.0 0.0 0.0 0.0 0.0 0.0 0.0 0.0
0.0 0.0 0.0 0.0 0.0 0.0 0.0 0.0
0.0 0.0 0.0 0.0 0.0 0.0 0.0 0.0
00000000: 0000 0000 0000 0000 0000 0000 0000 0000
00000010: 0000 0000 0000 0000 0000 0000 0000 0000
00000020: 0000 0000 0000 0000 0000 0000 0000 0000
00000030: 0000 0000 0000 0000 0000 0000 0000 0000
00000040: 0000 0000 0000 0000 0000 0000 0000 0000
00000050: 0000 0000 0000 0000 0000 0000 0000 0000
00000060: 0000 0000 0000 0000 0000 0000 0000 0000
00000070: 0000 0000 0000 0000 0000 0000 0000 0000
00000080: 0000 0000 0000 0000 0000 0000 0000 0000
00000090: 0000 0000 0000 0000 0000 0000 0000 0000
000000a0: 0000 0000 0000 0000 0000 0000 0000 0000
000000b0: 0000 0000 0000 0000 0000 0000 0000 0000
000000c0: 0000 0000 0000 0000 0000 0000 0000 0000
000000d0: 0000 0000 0000 0000 0000 0000 0000 0000
000000e0: 0000 0000 0000 0000 0000 0000 0000 0000
000000f0: 0000 0000 0000 0000 0000 0000 0000 0000
00000100: 0000 0000 0000 0000 0000 0000 0000 0000
00000110: 0000 0000 0000 0000 0000 0000 0000 0000
00000120: 0000 0000 0000 0000 0000 0000 0000 0000
00000130: 0000 0000 0000 0000 0000 0000 0000 0000
00000140: 0000 0000 0000 0000 0000 0000 0000 0000
00000150: 0000 0000 0000 0000 0000 0000 0000 0000
00000160: 0000 0000 0000 0000 0000 0000 0000 0000
00000170: 0000 0000 0000 0000 0000 0000 0000 0000
00000180: 0000 0000 0000 0000 0000 0000 0000 0000
00000190: 0000 0000 0000 0000 0000 0000 0000 0000
000001a0: 0000 0000 0000 0000 0000 0000 0000 0000
000001b0: 0000 0000 0000 0000 0000 0000 0000 0000
000001c0: 0000 0000 0000 0000 0000 0000 0000 0000
000001d0: 0000 0000 0000 0000 0000 0000 0000 0000
000001e0: 0000 0000 0000 0000 0000 0000 0000 0000
000001f0: 0000 0000 0000 0000 0000 0000 0000 0000
00000200: 0000 0000 0000 0000 0000 0000 0000 0000
00000210: 0000 0000 0000 0000 0000 0000 0000 0000
00000220: 0000 0000 0000 0000 0000 0000 0000 0000
00000230: 0000 0000 0000 0000 0000 0000 0000 0000
00000240: 0000 0000 0000 0000 0000 0000 0000 0000
00000250: 0000 0000 0000 0000 0000 0000 0000 0000
00000260: 0000 0000 0000 0000 0000 0000 0000 0000
00000270: 0000 0000 0000 0000 0000 0000 0000 0000
00000280: 0000 0000 0000 0000 0000 0000 0000 0000
00000290: 0000 0000 0000 0000 0000 0000 0000 0000
000002a0: 0000 0000 0000 0000 0000 0000 0000 0000
000002b0: 0000 0000 0000 0000 0000 0000 0000 0000
000002c0: 0000 0000 0000 0000 0000 0000 0000 0000
000002d0: 0000 0000 0000 0000 0000 0000 0000 0000
000002e0: 0000 0000 0000 0000 0000 0000 0000 0000
000002f0: 0000 0000 0000 0000 0000 0000 0000 0000
00000300: 0000 0000 0000 0000 0000 0000 0000 0000
00000310: 0000 0000 0000 0000 0000 0000 0000 0000
00000320: 0000 0000 0000 0000 0000 0000 0000 0000
00000330: 0000 0000 0000 0000 0000 0000 0000 0000
00000340: 0000 0000 0000 0000 0000 0000 0000 0000
00000350: 0000 0000 0000 0000 0000 0000 0000 0000
00000360: 0000 0000 0000 0000 0000 0000 0000 0000
00000370: 0000 0000 0000 0000 0000 0000 0000 0000
00000380: 0000 0000 0000 0000 0000 0000 0000 0000
00000390: 0000 0000 0000 0000 0000 0000 0000 0000
000003a0: 0000 0000 0000 0000 0000 0000 0000 0000
000003b0: 0000 0000 0000 0000 0000 0000 0000 0000
000003c0: 0000 0000 0000 0000 0000 0000 0000 0000
000003d0: 0000 0000 0000 0000 0000 0000 0000 0000
000003e0: 0000 0000 0000 0000 0000 0000 0000 0000
000003f0: 0000 0000 0000 0000 0000 0000 0000 0000

running_mean f4 [256]
0.0 0.0 0.0 0.0 0.0 0.0 0.0 0.0
0.0 0.0 0.0 0.0 0.0 0.0 0.0 0.0
0.0 0.0 0.0 0.0 0.0 0.0 0.0 0.0
0.0 0.0 0.0 0.0 0.0 0.0 0.0 0.0
0.0 0.0 0.0 0.0 0.0 0.0 0.0 0.0
0.0 0.0 0.0 0.0 0.0 0.0 0.0 0.0
0.0 0.0 0.0 0.0 0.0 0.0 0.0 0.0
0.0 0.0 0.0 0.0 0.0 0.0 0.0 0.0
0.0 0.0 0.0 0.0 0.0 0.0 0.0 0.0
0.0 0.0 0.0 0.0 0.0 0.0 0.0 0.0
0.0 0.0 0.0 0.0 0.0 0.0 0.0 0.0
0.0 0.0 0.0 0.0 0.0 0.0 0.0 0.0
0.0 0.0 0.0 0.0 0.0 0.0 0.0 0.0
0.0 0.0 0.0 0.0 0.0 0.0 0.0 0.0
0.0 0.0 0.0 0.0 0.0 0.0 0.0 0.0
0.0 0.0 0.0 0.0 0.0 0.0 0.0 0.0
0.0 0.0 0.0 0.0 0.0 0.0 0.0 0.0
0.0 0.0 0.0 0.0 0.0 0.0 0.0 0.0
0.0 0.0 0.0 0.0 0.0 0.0 0.0 0.0
0.0 0.0 0.0 0.0 0.0 0.0 0.0 0.0
0.0 0.0 0.0 0.0 0.0 0.0 0.0 0.0
0.0 0.0 0.0 0.0 0.0 0.0 0.0 0.0
0.0 0.0 0.0 0.0 0.0 0.0 0.0 0.0
0.0 0.0 0.0 0.0 0.0 0.0 0.0 0.0
0.0 0.0 0.0 0.0 0.0 0.0 0.0 0.0
0.0 0.0 0.0 0.0 0.0 0.0 0.0 0.0
0.0 0.0 0.0 0.0 0.0 0.0 0.0 0.0
0.0 0.0 0.0 0.0 0.0 0.0 0.0 0.0
0.0 0.0 0.0 0.0 0.0 0.0 0.0 0.0
0.0 0.0 0.0 0.0 0.0 0.0 0.0 0.0
0.0 0.0 0.0 0.0 0.0 0.0 0.0 0.0
0.0 0.0 0.0 0.0 0.0 0.0 0.0 0.0
00000000: 0000 0000 0000 0000 0000 0000 0000 0000
00000010: 0000 0000 0000 0000 0000 0000 0000 0000
00000020: 0000 0000 0000 0000 0000 0000 0000 0000
00000030: 0000 0000 0000 0000 0000 0000 0000 0000
00000040: 0000 0000 0000 0000 0000 0000 0000 0000
00000050: 0000 0000 0000 0000 0000 0000 0000 0000
00000060: 0000 0000 0000 0000 0000 0000 0000 0000
00000070: 0000 0000 0000 0000 0000 0000 0000 0000
00000080: 0000 0000 0000 0000 0000 0000 0000 0000
00000090: 0000 0000 0000 0000 0000 0000 0000 0000
000000a0: 0000 0000 0000 0000 0000 0000 0000 0000
000000b0: 0000 0000 0000 0000 0000 0000 0000 0000
000000c0: 0000 0000 0000 0000 0000 0000 0000 0000
000000d0: 0000 0000 0000 0000 0000 0000 0000 0000
000000e0: 0000 0000 0000 0000 0000 0000 0000 0000
000000f0: 0000 0000 0000 0000 0000 0000 0000 0000
00000100: 0000 0000 0000 0000 0000 0000 0000 0000
00000110: 0000 0000 0000 0000 0000 0000 0000 0000
00000120: 0000 0000 0000 0000 0000 0000 0000 0000
00000130: 0000 0000 0000 0000 0000 0000 0000 0000
00000140: 0000 0000 0000 0000 0000 0000 0000 0000
00000150: 0000 0000 0000 0000 0000 0000 0000 0000
00000160: 0000 0000 0000 0000 0000 0000 0000 0000
00000170: 0000 0000 0000 0000 0000 0000 0000 0000
00000180: 0000 0000 0000 0000 0000 0000 0000 0000
00000190: 0000 0000 0000 0000 0000 0000 0000 0000
000001a0: 0000 0000 0000 0000 0000 0000 0000 0000
000001b0: 0000 0000 0000 0000 0000 0000 0000 0000
000001c0: 0000 0000 0000 0000 0000 0000 0000 0000
000001d0: 0000 0000 0000 0000 0000 0000 0000 0000
000001e0: 0000 0000 0000 0000 0000 0000 0000 0000
000001f0: 0000 0000 0000 0000 0000 0000 0000 0000
00000200: 0000 0000 0000 0000 0000 0000 0000 0000
00000210: 0000 0000 0000 0000 0000 0000 0000 0000
00000220: 0000 0000 0000 0000 0000 0000 0000 0000
00000230: 0000 0000 0000 0000 0000 0000 0000 0000
00000240: 0000 0000 0000 0000 0000 0000 0000 0000
00000250: 0000 0000 0000 0000 0000 0000 0000 0000
00000260: 0000 0000 0000 0000 0000 0000 0000 0000
00000270: 0000 0000 0000 0000 0000 0000 0000 0000
00000280: 0000 0000 0000 0000 0000 0000 0000 0000
00000290: 0000 0000 0000 0000 0000 0000 0000 0000
000002a0: 0000 0000 0000 0000 0000 0000 0000 0000
000002b0: 0000 0000 0000 0000 0000 0000 0000 0000
000002c0: 0000 0000 0000 0000 0000 0000 0000 0000
000002d0: 0000 0000 0000 0000 0000 0000 0000 0000
000002e0: 0000 0000 0000 0000 0000 0000 0000 0000
000002f0: 0000 0000 0000 0000 0000 0000 0000 0000
00000300: 0000 0000 0000 0000 0000 0000 0000 0000
00000310: 0000 0000 0000 0000 0000 0000 0000 0000
00000320: 0000 0000 0000 0000 0000 0000 0000 0000
00000330: 0000 0000 0000 0000 0000 0000 0000 0000
00000340: 0000 0000 0000 0000 0000 0000 0000 0000
00000350: 0000 0000 0000 0000 0000 0000 0000 0000
00000360: 0000 0000 0000 0000 0000 0000 0000 0000
00000370: 0000 0000 0000 0000 0000 0000 0000 0000
00000380: 0000 0000 0000 0000 0000 0000 0000 0000
00000390: 0000 0000 0000 0000 0000 0000 0000 0000
000003a0: 0000 0000 0000 0000 0000 0000 0000 0000
000003b0: 0000 0000 0000 0000 0000 0000 0000 0000
000003c0: 0000 0000 0000 0000 0000 0000 0000 0000
000003d0: 0000 0000 0000 0000 0000 0000 0000 0000
000003e0: 0000 0000 0000 0000 0000 0000 0000 0000
000003f0: 0000 0000 0000 0000 0000 0000 0000 0000

running_var f4 [256]
1.0 1.0 1.0 1.0 1.0 1.0 1.0 1.0
1.0 1.0 1.0 1.0 1.0 1.0 1.0 1.0
1.0 1.0 1.0 1.0 1.0 1.0 1.0 1.0
1.0 1.0 1.0 1.0 1.0 1.0 1.0 1.0
1.0 1.0 1.0 1.0 1.0 1.0 1.0 1.0
1.0 1.0 1.0 1.0 1.0 1.0 1.0 1.0
1.0 1.0 1.0 1.0 1.0 1.0 1.0 1.0
1.0 1.0 1.0 1.0 1.0 1.0 1.0 1.0
1.0 1.0 1.0 1.0 1.0 1.0 1.0 1.0
1.0 1.0 1.0 1.0 1.0 1.0 1.0 1.0
1.0 1.0 1.0 1.0 1.0 1.0 1.0 1.0
1.0 1.0 1.0 1.0 1.0 1.0 1.0 1.0
1.0 1.0 1.0 1.0 1.0 1.0 1.0 1.0
1.0 1.0 1.0 1.0 1.0 1.0 1.0 1.0
1.0 1.0 1.0 1.0 1.0 1.0 1.0 1.0
1.0 1.0 1.0 1.0 1.0 1.0 1.0 1.0
1.0 1.0 1.0 1.0 1.0 1.0 1.0 1.0
1.0 1.0 1.0 1.0 1.0 1.0 1.0 1.0
1.0 1.0 1.0 1.0 1.0 1.0 1.0 1.0
1.0 1.0 1.0 1.0 1.0 1.0 1.0 1.0
1.0 1.0 1.0 1.0 1.0 1.0 1.0 1.0
1.0 1.0 1.0 1.0 1.0 1.0 1.0 1.0
1.0 1.0 1.0 1.0 1.0 1.0 1.0 1.0
1.0 1.0 1.0 1.0 1.0 1.0 1.0 1.0
1.0 1.0 1.0 1.0 1.0 1.0 1.0 1.0
1.0 1.0 1.0 1.0 1.0 1.0 1.0 1.0
1.0 1.0 1.0 1.0 1.0 1.0 1.0 1.0
1.0 1.0 1.0 1.0 1.0 1.0 1.0 1.0
1.0 1.0 1.0 1.0 1.0 1.0 1.0 1.0
1.0 1.0 1.0 1.0 1.0 1.0 1.0 1.0
1.0 1.0 1.0 1.0 1.0 1.0 1.0 1.0
1.0 1.0 1.0 1.0 1.0 1.0 1.0 1.0
00000000: 0000 803f 0000 803f 0000 803f 0000 803f
00000010: 0000 803f 0000 803f 0000 803f 0000 803f
00000020: 0000 803f 0000 803f 0000 803f 0000 803f
00000030: 0000 803f 0000 803f 0000 803f 0000 803f
00000040: 0000 803f 0000 803f 0000 803f 0000 803f
00000050: 0000 803f 0000 803f 0000 803f 0000 803f
00000060: 0000 803f 0000 803f 0000 803f 0000 803f
00000070: 0000 803f 0000 803f 0000 803f 0000 803f
00000080: 0000 803f 0000 803f 0000 803f 0000 803f
00000090: 0000 803f 0000 803f 0000 803f 0000 803f
000000a0: 0000 803f 0000 803f 0000 803f 0000 803f
000000b0: 0000 803f 0000 803f 0000 803f 0000 803f
000000c0: 0000 803f 0000 803f 0000 803f 0000 803f
000000d0: 0000 803f 0000 803f 0000 803f 0000 803f
000000e0: 0000 803f 0000 803f 0000 803f 0000 803f
000000f0: 0000 803f 0000 803f 0000 803f 0000 803f
00000100: 0000 803f 0000 803f 0000 803f 0000 803f
00000110: 0000 803f 0000 803f 0000 803f 0000 803f
00000120: 0000 803f 0000 803f 0000 803f 0000 803f
00000130: 0000 803f 0000 803f 0000 803f 0000 803f
00000140: 0000 803f 0000 803f 0000 803f 0000 803f
00000150: 0000 803f 0000 803f 0000 803f 0000 803f
00000160: 0000 803f 0000 803f 0000 803f 0000 803f
00000170: 0000 803f 0000 803f 0000 803f 0000 803f
00000180: 0000 803f 0000 803f 0000 803f 0000 803f
00000190: 0000 803f 0000 803f 0000 803f 0000 803f
000001a0: 0000 803f 0000 803f 0000 803f 0000 803f
000001b0: 0000 803f 0000 803f 0000 803f 0000 803f
000001c0: 0000 803f 0000 803f 0000 803f 0000 803f
000001d0: 0000 803f 0000 803f 0000 803f 0000 803f
000001e0: 0000 803f 0000 803f 0000 803f 0000 803f
000001f0: 0000 803f 0000 803f 0000 803f 0000 803f
00000200: 0000 803f 0000 803f 0000 803f 0000 803f
00000210: 0000 803f 0000 803f 0000 803f 0000 803f
00000220: 0000 803f 0000 803f 0000 803f 0000 803f
00000230: 0000 803f 0000 803f 0000 803f 0000 803f
00000240: 0000 803f 0000 803f 0000 803f 0000 803f
00000250: 0000 803f 0000 803f 0000 803f 0000 803f
00000260: 0000 803f 0000 803f 0000 803f 0000 803f
00000270: 0000 803f 0000 803f 0000 803f 0000 803f
00000280: 0000 803f 0000 803f 0000 803f 0000 803f
00000290: 0000 803f 0000 803f 0000 803f 0000 803f
000002a0: 0000 803f 0000 803f 0000 803f 0000 803f
000002b0: 0000 803f 0000 803f 0000 803f 0000 803f
000002c0: 0000 803f 0000 803f 0000 803f 0000 803f
000002d0: 0000 803f 0000 803f 0000 803f 0000 803f
000002e0: 0000 803f 0000 803f 0000 803f 0000 803f
000002f0: 0000 803f 0000 803f 0000 803f 0000 803f
00000300: 0000 803f 0000 803f 0000 803f 0000 803f
00000310: 0000 803f 0000 803f 0000 803f 0000 803f
00000320: 0000 803f 0000 803f 0000 803f 0000 803f
00000330: 0000 803f 0000 803f 0000 803f 0000 803f
00000340: 0000 803f 0000 803f 0000 803f 0000 803f
00000350: 0000 803f 0000 803f 0000 803f 0000 803f
00000360: 0000 803f 0000 803f 0000 803f 0000 803f
00000370: 0000 803f 0000 803f 0000 803f 0000 803f
00000380: 0000 803f 0000 803f 0000 803f 0000 803f
00000390: 0000 803f 0000 803f 0000 803f 0000 803f
000003a0: 0000 803f 0000 803f 0000 803f 0000 803f
000003b0: 0000 803f 0000 803f 0000 803f 0000 803f
000003c0: 0000 803f 0000 803f 0000 803f 0000 803f
000003d0: 0000 803f 0000 803f 0000 803f 0000 803f
000003e0: 0000 803f 0000 803f 0000 803f 0000 803f
000003f0: 0000 803f 0000 803f 0000 803f 0000 803f

weight f4 [32]
1.0 1.0 1.0 1.0 1.0 1.0 1.0 1.0
1.0 1.0 1.0 1.0 1.0 1.0 1.0 1.0
1.0 1.0 1.0 1.0 1.0 1.0 1.0 1.0
1.0 1.0 1.0 1.0 1.0 1.0 1.0 1.0
00000000: 0000 803f 0000 803f 0000 803f 0000 803f
00000010: 0000 803f 0000 803f 0000 803f 0000 803f
00000020: 0000 803f 0000 803f 0000 803f 0000 803f
00000030: 0000 803f 0000 803f 0000 803f 0000 803f
00000040: 0000 803f 0000 803f 0000 803f 0000 803f
00000050: 0000 803f 0000 803f 0000 803f 0000 803f
00000060: 0000 803f 0000 803f 0000 803f 0000 803f
00000070: 0000 803f 0000 803f 0000 803f 0000 803f

bias f4 [32]
0.0 0.0 0.0 0.0 0.0 0.0 0.0 0.0
0.0 0.0 0.0 0.0 0.0 0.0 0.0 0.0
0.0 0.0 0.0 0.0 0.0 0.0 0.0 0.0
0.0 0.0 0.0 0.0 0.0 0.0 0.0 0.0
00000000: 0000 0000 0000 0000 0000 0000 0000 0000
00000010: 0000 0000 0000 0000 0000 0000 0000 0000
00000020: 0000 0000 0000 0000 0000 0000 0000 0000
00000030: 0000 0000 0000 0000 0000 0000 0000 0000
00000040: 0000 0000 0000 0000 0000 0000 0000 0000
00000050: 0000 0000 0000 0000 0000 0000 0000 0000
00000060: 0000 0000 0000 0000 0000 0000 0000 0000
00000070: 0000 0000 0000 0000 0000 0000 0000 0000

running_mean f4 [32]
0.0 0.0 0.0 0.0 0.0 0.0 0.0 0.0
0.0 0.0 0.0 0.0 0.0 0.0 0.0 0.0
0.0 0.0 0.0 0.0 0.0 0.0 0.0 0.0
0.0 0.0 0.0 0.0 0.0 0.0 0.0 0.0
00000000: 0000 0000 0000 0000 0000 0000 0000 0000
00000010: 0000 0000 0000 0000 0000 0000 0000 0000
00000020: 0000 0000 0000 0000 0000 0000 0000 0000
00000030: 0000 0000 0000 0000 0000 0000 0000 0000
00000040: 0000 0000 0000 0000 0000 0000 0000 0000
00000050: 0000 0000 0000 0000 0000 0000 0000 0000
00000060: 0000 0000 0000 0000 0000 0000 0000 0000
00000070: 0000 0000 0000 0000 0000 0000 0000 0000

running_var f4 [32]
1.0 1.0 1.0 1.0 1.0 1.0 1.0 1.0
1.0 1.0 1.0 1.0 1.0 1.0 1.0 1.0
1.0 1.0 1.0 1.0 1.0 1.0 1.0 1.0
1.0 1.0 1.0 1.0 1.0 1.0 1.0 1.0
00000000: 0000 803f 0000 803f 0000 803f 0000 803f
00000010: 0000 803f 0000 803f 0000 803f 0000 803f
00000020: 0000 803f 0000 803f 0000 803f 0000 803f
00000030: 0000 803f 0000 803f 0000 803f 0000 803f
00000040: 0000 803f 0000 803f 0000 803f 0000 803f
00000050: 0000 803f 0000 803f 0000 803f 0000 803f
00000060: 0000 803f 0000 803f 0000 803f 0000 803f
00000070: 0000 803f 0000 803f 0000 803f 0000 803f

bias f4 [64]
3.5372932e-06 7.6327e-06 5.152378e-06 -6.826139e-06 -2.7405733e-06 -9.603115e-06 -5.8381847e-06 7.317755e-06
1.0701709e-05 -3.5853332e-06 -7.8786e-07 6.2998747e-06 -4.993431e-06 -9.835719e-06 6.0874195e-06 -6.211864e-06
-6.1746905e-06 -6.2122517e-06 1.0183134e-05 9.768839e-06 9.9726185e-06 8.4932735e-06 -2.603708e-06 -6.7186456e-06
1.803779e-06 7.88993e-06 6.55433e-06 -7.336509e-06 -7.067388e-06 2.582123e-06 -5.812778e-06 3.728394e-06
-2.6995988e-06 1.439123e-06 2.5819413e-06 7.0542947e-06 2.8727604e-06 -6.2107165e-06 -9.501379e-06 3.6130996e-07
-9.057793e-06 -6.2448084e-06 5.9141926e-06 -3.0109604e-06 -2.2614006e-07 6.2674926e-06 -9.964605e-07 7.384756e-06
-3.4340357e-07 6.0863176e-06 -8.092853e-06 3.6732933e-06 -8.928826e-06 -5.344575e-06 7.00013e-06 3.4840675e-06
-3.0757199e-06 5.2248447e-06 2.7149506e-06 9.812553e-07 2.661964e-06 7.794614e-06 -2.6723685e-06 -2.3903758e-06
00000000: 3c62 6d36 320e 0037 97e2 ac36 160c e5b6
00000010: b1ea 37b6 111d 21b7 a0e5 c3b6 098b f536
00000020: 7d8b 3337 8e9b 70b6 547d 53b5 8363 d336
00000030: 3f8d a7b6 1704 25b7 8942 cc36 816f d0b6
00000040: 3030 cfb6 d672 d0b6 3ad8 2a37 d8e4 2337
00000050: 1250 2737 557e 0e37 5dbb 2eb6 ba70 e1b6
00000060: 6019 f235 fe5e 0437 44ed db36 222c f6b6
00000070: 6724 edb6 8948 2d36 620b c3b6 5235 7a36
00000080: c12a 35b6 e427 c135 6a45 2d36 eeb3 ec36
00000090: a6c9 4036 a665 d0b6 1d68 1fb7 10fa c134
000000a0: edf6 17b7 7f8a d1b6 8772 c636 e80f 4ab6
000000b0: e8d0 72b4 5a4d d236 1fbe 85b5 92ca f736
000000c0: 075d b8b4 1239 cc36 8ac6 07b7 b382 7636
000000d0: 04cd 15b7 8d55 b3b6 a9e2 ea36 d3cf 6936
000000e0: 7768 4eb6 1351 af36 7f32 3636 adb3 8335
000000f0: 31a4 3236 9dc5 0237 f156 33b6 586a 20b6

weight f4 [64, 1]
0.13728176 0.10533023 0.00045401417 0.054873187 -0.058124125 -0.15422902 0.00046292166 -0.089887075
0.18903361 -0.15400986 0.18939479 0.00030982326 8.2233826e-05 0.17091273 -0.05481564 -0.031479057
0.042119708 -0.0075533413 -8.568698e-05 0.10103854 3.957547e-05 0.11551926 -0.048369147 0.040315818
0.00016545295 -0.1411378 -0.00015755658 0.03638868 -0.09693163 0.16442624 -0.08162658 0.077157825
0.00014226681 -0.0871532 0.13670914 -0.0040032305 0.000465727 -0.013447044 -0.20663959 0.089921996
-0.052269753 0.092343494 0.058243442 0.07628947 0.028265066 0.020429388 -0.16280586 -6.527453e-05
-0.042149 0.13736726 0.03540821 -3.3322794e-05 -0.18119512 -0.1851843 -0.16094975 0.12095783
0.099808514 -0.17538859 -0.1679807 0.15969807 0.03949427 -0.10106241 -0.000109709596 0.097190805
00000000: 9793 0c3e 60b7 d73d c008 ee39 b5c2 603d
00000010: 9013 6ebd 36ee 1dbe 4bb4 f239 b716 b8bd
00000020: 0792 413e c3b4 1dbe b5f0 413e c66f a239
00000030: f374 ac38 bf03 2f3e 5d86 60bd 2ff0 00bd
00000040: b785 2c3d 0582 f7bb d9b2 b3b8 4bed ce3d
00000050: d6fd 2538 5d95 ec3d ba1e 46bd 3322 253d
00000060: 707d 2d39 6d86 10be c635 25b9 4c0c 153d
00000070: 1784 c6bd 5a5f 283e d62b a7bd ec04 9e3d
00000080: 752d 1539 607d b2bd 7bfd 0b3e 882d 83bb
00000090: d22c f439 fe50 5cbc 5499 53be 0629 b83d
000000a0: cf18 56bd 961e bd3d ad90 6e3d a73d 9c3d
000000b0: 248c e73c 885b a73c 94b6 26be ffe3 88b8
000000c0: 6ea4 2cbd 01aa 0c3e 3308 113d 14c4 0bb8
000000d0: 378b 39be f4a0 3dbe 03d0 24be bdb8 f73d
000000e0: 6868 cc3d 1199 33be 2203 2cbe e487 233e
000000f0: bec4 213d cff9 cebd e413 e6b8 f90b c73d
