ckpt/correction-best.pt (torch, 140304 bytes, 17 tensors)

weight f4 [256, 7]
-0.0070311 0.15764476 -0.24369022 -0.210958 -0.081537716 0.040236328 -0.00037235048 0.23348847
-0.032303315 0.038679622 -0.051976677 -0.018041788 -0.29321402 -0.18347938 -0.091334835 -0.00401468
0.08504311 0.16028649 -0.18929659 -0.099615395 0.07349194 0.27613285 -0.07057104 0.21699469
-0.007985389 0.0019998986 0.2745364 -0.28275687 -0.17236704 -0.04575585 -0.08312827 0.25891054
-0.17821755 -0.10870944 -0.19702223 -0.28671286 -0.15643668 0.25723568 0.10354166 0.11762601
0.00048829993 -0.12794791 0.01511464 -0.28533944 -0.20592803 -0.12899753 0.17179734 0.15520446
-0.10254052 -0.016934136 0.19866268 0.30753624 0.08558148 0.0020059764 0.18647088 -0.15617067
0.015550273 -0.2255991 -0.1949442 -0.12938726 0.10583227 0.08751572 -0.15743639 0.07417281
0.16503003 -0.004170494 -0.00020451871 0.028163008 0.16782905 0.29500413 -0.22522879 -0.08175744
0.084066905 0.24561922 0.26121846 0.26579377 0.018244514 -0.26228586 0.00851806 -0.16989249
-0.28441268 0.26807603 0.2200821 -0.30904734 0.012798007 -0.017837765 -0.009049685 -0.10776337
0.081125595 -0.15742207 0.074696034 0.1536329 0.24117178 0.079428256 -0.30610606 -0.1781448
0.12309164 0.021483062 -0.22666803 -0.15026027 0.28777862 0.18775979 -0.09976996 -0.034789212
-0.2921599 0.0045100213 -0.2166543 -0.22413874 -0.00053778006 0.0056885644 -0.09017226 0.15782508
-0.18389784 0.28673753 0.19170363 -0.25115436 -0.03491485 0.00051591283 0.0043676677 0.081564605
0.13663164 0.0056023207 -0.11889649 0.11312039 -0.29478204 -0.1577583 -0.034108963 -0.11875977
-0.06854363 -0.24227321 -0.022257848 0.022715364 -0.17941935 -0.021985732 0.23029618 -0.0064048427
-5.1112784e-06 -0.00092348835 0.018988265 0.17354585 0.3172924 0.22394545 0.2905769 0.0002567291
-0.27232587 -0.11397864 0.1902999 0.0049523124 -0.12137696 -0.22226404 -0.28587428 -0.2513979
-0.019361712 0.14115256 0.14324929 -0.29751134 0.16927877 -0.22837317 -0.021822866 -0.08869194
-0.01635443 -0.01867565 -0.27128583 -0.25864848 -0.0069368337 0.0003369699 -0.106477246 0.07833914
-0.27229595 0.004055554 0.26471728 -0.08958795 0.2735523 0.07312033 -0.27333778 0.18997209
-0.050658673 -0.10442076 0.23478925 -0.23804185 -0.001119028 -0.021521071 0.22509679 0.08933892
0.11785666 0.06993192 -0.030564236 -0.021466535 -0.24390927 0.17538914 0.273641 0.19148132
-0.19956349 -0.0025378736 -0.19949618 -0.14206025 -0.17119172 0.118696235 -0.15853006 0.00015901381
0.0009693872 0.1769035 -0.21840875 -0.19173221 -0.15225264 0.19759569 -0.07214634 0.2512452
0.07293178 0.0012909644 -0.0003631534 -0.021579854 0.0011592349 -0.0272447 0.00046885957 0.0013914955
-0.22826129 -0.15968134 0.26312214 -0.23990972 0.00022686612 0.30580327 0.07268892 0.0005880986
-0.25809312 0.15097378 -0.20177366 -0.04561632 -0.06336709 -0.0049557975 0.00045258919 0.24402687
0.01860756 0.27048862 0.16462003 -0.17242526 0.10433065 -0.20012721 -0.1249379 0.08409045
0.06163854 0.21628925 -0.059251748 0.0003224391 0.1286978 -0.29582298 0.22234572 -0.24472295
-0.00028489484 -0.00992816 -0.13309601 0.0021179693 0.26569948 -0.1076502 -0.15887178 -0.075878136
00000000: 2465 e6bb a16d 213e ee89 79be 6005 58be
00000010: 3ffd a6bd d9ce 243d 0938 c3b9 9a17 6f3e
00000020: 7b50 04bd 866e 1e3d 7fe5 54bd 5fcc 93bc
00000030: 2620 96be 05e2 3bbe c20d bbbd 948d 83bb
00000040: 152b ae3d 2422 243e f7d6 41be 2803 ccbd
00000050: f182 963d 4961 8d3e 8d87 90bd db33 5e3e
00000060: 26d5 02bc bb10 033b 0990 8c3e 82c5 90be
00000070: fc80 30be 7c6a 3bbd 283f aabd ec8f 843e
00000080: a97e 36be 0ea3 debd 32c0 49be 07cc 92be
00000090: f030 20be 65b4 833e a60d d43d e8e5 f03d
000000a0: 4101 003a c704 03be 65a3 773c 0318 92be
000000b0: ccde 52be ee17 04be a4eb 2f3e ebed 1e3e
000000c0: c400 d2bd 75b9 8abc 3b6e 4b3e 6475 9d3e
000000d0: 5845 af3d b376 033b 39f2 3e3e 34eb 1fbe
000000e0: 92c6 7e3c 7303 67be 749f 47be 187e 04be
000000f0: 97be d83d 713b b33d 0137 21be eae7 973d
00000100: a2fd 283e a4a8 88bb 1374 56b9 1cb6 e63c
00000110: 61db 2b3e c80a 973e 60a2 66be 7270 a7bd
00000120: 452b ac3d 9b83 7b3e 6dbe 853e 1f16 883e
00000130: 8575 953c 554a 86be 558f 0b3c 4cf8 2dbe
00000140: 8a9e 91be 4341 893e 345d 613e 743b 9ebe
00000150: bbae 513c 8120 92bc 2145 14bc 0bb3 dcbd
00000160: 2d25 a63d 4033 21be 3cfa 983d f151 1d3e
00000170: bcf5 763e 48ab a23d efb9 9cbe 976b 36be
00000180: 7817 fc3d 3ffd af3c aa1b 68be d4dd 19be
00000190: b857 933e 1a44 403e 3154 ccbd 227f 0ebd
000001a0: fb95 95be cdc8 933b a0da 5dbe a084 65be
000001b0: cff9 0cba 2367 ba3b 3cac b8bd e69c 213e
000001c0: b74f 3cbe 43cf 923e f54d 443e 4e97 80be
000001d0: e002 0fbd 533e 073a a71e 8f3b 580b a73d
000001e0: 2ae9 0b3e ac93 b73b 0180 f3bd aaab e73d
000001f0: aced 96be 648b 21be d7b5 0bbd 5338 f3bd
00000200: 9a60 8cbd 7816 78be 1756 b6bc 9215 ba3c
00000210: b5b9 37be 6c1b b4bc c3d2 6b3e b7df d1bb
00000220: 8c81 abb6 4116 72ba 478d 9b3c 01b6 313e
00000230: 2674 a23e f551 653e 7fc6 943e 9999 8639
00000240: 4c6e 8bbe a26d e9bd fadd 423e 0247 a23b
00000250: 7c94 f8bd 2f99 63be 1d5e 92be 3ab7 80be
00000260: 749c 9ebc 4c8a 103e f1af 123e 6853 98be
00000270: 6a57 2d3e a8da 69be dec5 b2bc 1fa4 b5bd
00000280: baf9 85bc adfd 98bc fae5 8abe 936d 84be
00000290: 614e e3bb 56ab b039 be10 dabd 4570 a03d
000002a0: 606a 8bbe 74e4 843b 0689 873e e379 b7bd
000002b0: 0c0f 8c3e 1dc0 953d eef2 8bbe 0b88 423e
000002c0: 787f 4fbd 8dda d5bd 986c 703e 3ec1 73be
000002d0: 59ac 92ba f54c b0bc c67f 663e 53f7 b63d
000002e0: d55e f13d 7738 8f3d d961 fabc 96da afbc
000002f0: 5ac3 79be 3699 333e ac1a 8c3e ae13 443e
00000300: 5f5a 4cbe 7452 26bb ba48 4cbe 3e78 11be
00000310: e24c 2fbe 0317 f33d b455 22be f2bc 2639
00000320: 791e 7e3a 3126 353e 8ba6 5fbe 7355 44be
00000330: 1ee8 1bbe 8656 4a3e 76c1 93bd 36a3 803e
00000340: 425d 953d 9435 a93a a065 beb9 3cc8 b0bc
00000350: 78f1 973a 4730 dfbc 44d1 f539 d762 b63a
00000360: 54bd 69be 8183 23be f2b7 863e e5aa 75be
00000370: e9e2 6d39 3f92 9c3e eedd 943d a12a 1a3a
00000380: c824 84be df98 1a3e c19d 4ebe 2ed8 3abd
00000390: 9bc6 81bd 3e64 a2bb 7e49 ed39 2ee2 793e
000003a0: e26e 983c 7c7d 8a3e 2792 283e 3f90 30be
000003b0: 4fab d53d 26ee 4cbe 71df ffbd 9d37 ac3d
000003c0: b278 7c3d ee7a 5d3e f6b1 72bd 0b0d a939
000003d0: 5bc9 033e 1c76 97be 99ae 633e a798 7abe
000003e0: f05d 95b9 b9a9 22bc 524a 08be a1cd 0a3b
000003f0: c309 883e b577 dcbd 49af 22be ff65 9bbd

bias f4 [256]
0.2333049 0.13232154 0.0868017 -0.037106 0.13473791 0.116225846 0.067433074 0.00017736183
0.0053879856 0.0006397329 -0.20715606 0.028394535 -0.21066946 0.118150204 -0.15869437 -0.060457893
-0.11406698 0.23055129 -0.19907914 0.1270037 0.12348256 0.20018457 0.03454805 0.13996725
0.23137358 0.017616715 0.06577953 -0.22849368 -0.040163755 -0.0010467429 0.00054123014 -0.07036108
-0.30666253 -0.037980564 0.08039572 0.2578797 -0.27361774 0.11497975 -0.2907408 -0.29354748
-0.17002389 -0.0020938427 0.044006385 -0.22015944 0.22364788 0.27403814 0.00044626574 0.24018268
-0.10613686 -0.08513559 -0.0019745652 -0.000566189 -0.19753633 -0.23518966 0.08497714 0.046768036
0.3018188 -0.08959262 0.06954436 -0.08795425 0.12096571 -0.0005675462 0.2129613 0.14381394
0.24701709 0.12822047 -0.000209393 0.25812212 -0.15564412 0.28860036 0.30122104 0.29329118
-0.11121132 -0.13414237 -0.0004975586 0.054764967 0.12388677 0.0891777 0.2542163 -0.03441886
-0.06099496 0.06330733 0.043551367 -0.1540635 -0.00040667396 -0.21967314 -0.048616312 -0.08397083
0.2636367 -0.272479 -0.15664774 -0.3019332 0.03448951 -0.22348243 0.059578367 -0.1955326
-0.17554806 -0.12724768 0.0056108683 0.27935082 0.28617775 0.00038561574 -0.30234104 -0.061786573
-0.079897106 -0.02384541 0.08025924 0.1244481 0.102083616 0.045786 -0.08844093 5.144114e-05
0.0015089038 -0.12764499 0.0011981865 -0.0030391216 -0.28923696 0.18943839 0.0010774072 -0.2590833
0.23138288 -0.1374606 0.07022134 0.30678052 7.6625e-05 0.046916474 0.08592216 0.218489
-0.053576156 -0.14691475 -0.0012279896 0.22827403 -0.0010319328 0.19557546 -0.0005576548 0.053604446
-0.00011475203 0.00023067732 -0.29179737 -0.26274925 -0.000832795 0.121400334 0.18687505 7.661436e-06
0.094599776 0.093143545 -0.25876218 -0.26486135 -0.22569776 0.0008131984 -0.17230883 -0.05848108
-0.005420213 0.08383592 0.027825518 0.2827203 0.27298132 -0.17440528 0.00016765713 0.009018309
0.26227924 -0.05445347 -0.08422601 -0.1727062 0.21133259 -0.045470152 -0.07835305 0.18873705
0.28018877 -8.150736e-05 -0.19969958 0.24028414 -0.06594385 -0.10865454 -0.19865109 -0.116279036
-0.2286065 -0.15180244 -0.2765311 -0.018835075 0.08753653 -0.21972288 0.00043510835 -0.07516912
0.11731188 0.25973365 -0.0019840433 -0.124643 -0.2230687 -0.1556268 0.047354806 0.027028933
0.13750494 -0.009998316 0.12849604 -0.26885885 0.04050487 0.2988801 -0.30609202 -0.13047455
0.17525521 -0.006808145 -0.13578203 0.16401981 9.853338e-05 -0.00031651597 -0.05240768 0.21735178
0.14347388 0.012545338 0.005632202 0.1294163 0.16874439 -0.09041279 -0.0007137474 0.10088679
-0.11760963 0.28549182 -0.19193865 0.10910358 -0.20435515 0.058610212 0.19697706 0.00050304533
0.0013644381 0.17355618 -0.2042401 -0.1880826 -0.2545275 -0.16606264 -0.0010854576 -0.10612495
0.025190156 -0.0006672105 0.24697322 -0.098928876 -0.04217826 0.18315014 -0.034771007 0.2938942
-0.085661575 -0.00044072093 -0.03008927 0.111022376 0.08075111 -0.13533805 0.18219914 -0.0003263661
-0.035159267 1.8928255e-05 0.19578795 0.30280104 0.11833517 0.011657121 0.17965539 -0.09330035
00000000: 7be7 6e3e 4c7f 073e 17c5 b13d 76fc 17bd
00000010: bcf8 093e d107 ee3d 5a1a 8a3d 34fa 3939
00000020: b38d b03b c0b3 273a b820 54be a89b e83c
00000030: bcb9 57be bcf8 f13d c780 22be b2a2 77bd
00000040: f39b e9bd a315 6c3e 67db 4bbe 420d 023e
00000050: 6de4 fc3d 2ffd 4c3e 4282 0d3d 9353 0f3e
00000060: 32ed 6c3e ee50 903c 6bb7 863d 3ffa 69be
00000070: c082 24bd dd32 89ba 57e1 0d3a 7819 90bd
00000080: df02 9dbe 8291 1bbd 83a6 a43d cf08 843e
00000090: a017 8cbe 817a eb3d fadb 94be db4b 96be
000000a0: be1a 2ebe da38 09bb 0a40 343d 7a71 61be
000000b0: f303 653e ba4e 8c3e c6f8 e939 73f2 753e
000000c0: 485e d9bd 915b aebd b567 01bb 4d6c 14ba
000000d0: f746 4abe 8fd5 70be 7f08 ae3d d78f 3f3d
000000e0: fe87 9a3e 567c b7bd 466d 8e3d 5c21 b4bd
000000f0: dfbc f73d 61c7 14ba 8712 5a3e f643 133e
00000100: 0cf2 7c3e 3a4c 033e 8190 5bb9 9528 843e
00000110: 2c61 1fbe 6dc3 933e a539 9a3e 432a 963e
00000120: c3c2 e3bd 9e5c 09be 986e 02ba 3b51 603d
00000130: 59b8 fd3d cca2 b63d a428 823e cafa 0cbd
00000140: dad5 79bd 46a7 813d eb62 323d d2c2 1dbe
00000150: db36 d5b9 fff1 60be e621 47bd e6f8 abbd
00000160: 64fb 863e 5e82 8bbe 4468 20be fd96 9abe
00000170: df44 0d3d 94d8 64be 7208 743d b339 48be
00000180: dfc2 33be 374d 02be 60db b73b 1207 8f3e
00000190: e485 923e 782c ca39 72cc 9abe eb13 7dbd
000001a0: 18a1 a3bd 7357 c3bc f55e a43d a5de fe3d
000001b0: 3711 d13d 1a8a 3b3d 8520 b5bd 81c2 5738
000001c0: 69c6 c53a 5eb5 02be 780c 9d3a 002c 47bb
000001d0: de16 94be 23fc 413e c937 8d3a 91a6 84be
000001e0: a2ef 6c3e 79c2 0cbe 35d0 8f3d 5612 9d3e
000001f0: bcb1 a038 7d2b 403d f5f7 af3d 95bb 5f3e
00000200: ac72 5bbd d270 16be 7ef4 a0ba abc0 693e
00000210: eb41 87ba ef44 483e 952f 12ba 5690 5b3d
00000220: 07a7 f0b8 f9e1 7139 7766 95be 1287 86be
00000230: ed4f 5aba bda0 f83d 2c5c 3f3e 9e89 0037
00000240: 87bd c13d 0bc2 be3d 7a7c 84be e89b 87be
00000250: 501d 67be d22c 553a ba71 30be db89 6fbd
00000260: 0b9c b1bb 2bb2 ab3d 57f2 e33c b7c0 903e
00000270: 35c4 8b3e 4c97 32be 1ecd 2f39 88c1 133c
00000280: 7749 863e 9a0a 5fbd b07e acbd e5d9 30be
00000290: 9267 583e e93e 3abd 9077 a0bd 4944 413e
000002a0: e774 8f3e eeee aab8 0c7e 4cbe 0c0d 763e
000002b0: 920d 87bd 4586 debd 316b 4bbe b423 eebd
000002c0: d317 6abe 1972 1bbe 7c95 8dbe 044c 9abc
000002d0: 5a46 b33d 09ff 60be 411f e439 45f2 99bd
000002e0: 3641 f03d cffb 843e b906 02bb d444 ffbd
000002f0: 1f6c 64be a25c 1fbe 1df7 413d c86b dd3c
00000300: 18ce 0c3e facf 23bc 7794 033e dea7 89be
00000310: 6fe8 253d d006 993e 18b8 9cbe 1f9b 05be
00000320: 1a76 333e dc16 dfbb 720a 0bbe cff4 273e
00000330: b5a3 ce38 0ef2 a5b9 6fa9 56bd 7791 5e3e
00000340: d1ea 123e f68a 4d3c 568e b83b b585 043e
00000350: 54cb 2c3e 572a b9bd c71a 3bba bc9d ce3d
00000360: 51dd f0bd fc2b 923e 918b 44be b371 df3d
00000370: 7a42 51be 4311 703d 5bb4 493e cdde 033a
00000380: f2d6 b23a b6b8 313e 5124 51be ba98 40be
00000390: 6e51 82be 530c 2abe ea45 8eba 0a58 d9bd
000003a0: 965b ce3c bde7 2eba 8ce6 7c3e 399b cabd
000003b0: 1cc3 2cbd b68b 3b3e 0b6c 0ebd 4d79 963e
000003c0: 566f afbd 9010 e7b9 c67d f6bc b35f e33d
000003d0: d760 a53d 0f96 0abe 6992 3a3e 1e1c abb9
000003e0: 2a03 10bd 1ec8 9e37 a37c 483e bd08 9b3e
000003f0: b659 f23d 82fd 3e3c 95f7 373e 4114 bfbd

weight f4 [32, 256]
-0.011582552 -0.00495186 0.0001103477 0.006389466 -0.0016289362 -0.003749981 -0.0055042584 0.0030898429
0.0014060555 0.037711147 -0.0055254116 -0.00015388895 1.3367065e-06 0.01919829 -0.004161092 -0.0050608334
0.014618921 0.03803244 -0.010724318 -0.010348266 -0.030003354 -0.0016157822 -0.0055011814 -0.004400039
-0.0032275491 0.008309236 0.032784153 -0.020221686 0.009871746 -0.003337491 -3.3321256e-05 -0.009494046
0.009674788 -0.022123262 0.00061646727 0.021419758 0.0013061317 -0.004332169 0.004163027 -0.0024051932
-0.0030460919 -0.0005580204 -0.006028208 -0.006081295 0.008666771 -0.002852397 0.00064200856 -0.0046381815
0.020004792 -0.0019008797 -0.023087457 0.0031513819 -0.045515344 -0.003117015 -0.0023020667 -0.009096039
-0.0027862391 0.039984677 0.008131048 -0.003367087 -0.001655775 -0.0033126846 -0.0029160224 -0.0018905376
-0.0056472933 0.030296866 -0.0047038435 0.0019983212 0.00023242731 -0.0051991115 0.0074442504 0.0036562195
-0.0019320978 -0.0013964609 -0.006851511 0.003109848 -0.004864876 -0.0035480035 0.0014708808 -0.0005591876
-0.0010065888 -0.031727985 -0.010726848 -0.0055701695 -0.037991658 -0.004710249 -0.017064398 -0.0003774452
0.024398636 -0.00817105 0.031222206 -0.004324696 -0.018129094 0.040077515 -0.00059892883 -0.017030653
-0.0018900988 0.0027784945 -0.005501202 -0.008057813 -0.0033250756 -0.0023221353 0.015459112 -0.00013682355
-0.0027635517 0.004010159 0.0013249707 -0.007716801 0.019692652 -0.040174898 -0.0036839321 -0.004302703
-0.0014653478 0.0016241566 -7.5793214e-05 0.010571519 -0.0068580164 -0.010078931 -0.00077508047 -0.005278205
0.0011911555 0.01849687 -0.0059912796 -0.018270137 0.018117148 0.01143171 0.00015284163 -0.0027457555
-0.0023402763 -0.005067914 -0.012809038 0.009901196 -0.0047418997 -0.0056827515 -0.0050095366 -0.00984104
-0.005254404 -0.0013952845 -0.0018006489 -0.001758433 -0.0057079406 -0.0014356691 -0.009180455 2.5355928e-05
-0.0015549725 -0.016984578 0.0116873635 0.013673037 -0.0021237629 -0.0005384378 -0.0023751128 -0.02301206
-0.004700066 -0.012535436 0.0285635 0.018390076 -0.020505425 0.00042752587 -0.016288117 -0.0054812767
-0.005774554 -0.00049948134 -0.0027664397 -0.0014006303 -0.0026161494 -0.0068034907 0.036035445 -0.0031323568
0.013244649 -0.004264201 -0.017336218 -0.011869297 0.0011599159 0.010356094 0.004920053 -0.0032491034
-0.0004706739 -0.011196597 0.00029739895 0.004034575 0.0074097216 -0.017734995 -0.0005604366 0.006185741
-0.004906945 0.0053775543 -0.04387383 0.034667034 0.0070949313 -0.004275635 0.006059472 0.008390788
-0.00021465024 -0.038026806 -0.022696635 -0.024417408 -0.0018103061 0.029951802 -0.0010800383 -0.00013987355
-0.0042128246 0.0059197755 0.0004524866 0.0059224493 0.00012502956 7.72224e-05 -0.005290903 0.010369794
-0.0020600357 -0.00164505 -0.0017062612 0.03690505 0.004216006 -0.023513343 0.026972972 -0.0008871049
-0.004471947 -0.023033265 -0.002433623 -0.0014147743 -0.0021971853 -0.0037144101 0.013849405 -0.0025890549
0.010189646 0.010844959 0.010432 0.019700265 -0.0010080321 0.0011431654 0.0043862155 -0.0052711777
0.018204186 0.00056081056 -0.0031434423 -0.0018732517 -0.005083936 -0.0071207155 -0.03104229 0.011683514
-0.004192099 -0.003663754 0.015386561 0.00948366 0.020102479 0.008858401 7.822209e-05 0.0019295285
-0.0007003069 -0.00049695635 0.031158406 -0.008889281 -0.0014731174 -0.0074133957 -0.015429698 -0.0028013906
00000000: bfc4 3dbc 3643 a2bb 786a e738 ba5e d13b
00000010: 0782 d5ba 3ec2 75bb 115d b4bb f67e 4a3b
00000020: 654b b83a 0177 1a3d 830e b5bb 405d 21b9
00000030: e368 b335 bb45 9d3c c559 88bb 59d5 a5bb
00000040: 3384 6f3c e7c7 1b3d 0db5 2fbc c68b 29bc
00000050: 98c9 f5bc a7c8 d3ba 4143 b4bb 342e 90bb
00000060: 4a85 53bb 7623 083c ad48 063d f3a7 a5bc
00000070: 1bbd 213c cfb9 5abb 6dc2 0bb8 ea8c 1bbc
00000080: 0183 1e3c d83b b5bc 6b9a 213a 7d78 af3c
00000090: 8232 ab3a def4 8dbb 006a 883b 72a0 1dbb
000000a0: f1a0 47bb 1d48 12ba 4688 c5bb 9a45 c7bb
000000b0: 13ff 0d3c 48ef 3abb 774c 283a e3fb 97bb
000000c0: 17e1 a33c f026 f9ba e821 bdbc 6a87 4e3b
000000d0: 4c6e 3abd d546 4cbb 45de 16bb 8e07 15bc
000000e0: 5699 36bb f9c6 233d 1638 053c 59aa 5cbb
000000f0: 9706 d9ba a019 59bb bd1a 3fbb eacb f7ba
00000100: ee0c b9bb 2231 f83c b322 9abb 44f6 023b
00000110: bbb7 7339 4f5d aabb e6ee f33b 2f9d 6f3b
00000120: 723e fdba 7409 b7ba a482 e0bb 97ce 4b3b
00000130: 8a69 9fbb 9f85 68bb 92ca c03a 7296 12ba
00000140: 84ef 83ba 34f5 01bd a9bf 2fbc f885 b6bb
00000150: 249d 1bbd 6f58 9abb a3ca 8bbc d6e3 c5b9
00000160: a6df c73c dedf 05bc b6c5 ff3c 2eb6 8dbb
00000170: 7783 94bc 5228 243d 6f01 1dba de83 8bbc
00000180: 31bd f7ba 6717 363b 6d43 b4bb eb04 04bc
00000190: 83e9 59bb f72e 18bb 3748 7d3c 4b78 0fb9
000001a0: b41c 35bb a767 833b a4aa ad3a 38dd fcbb
000001b0: 7c52 a13c 6f8e 24bd 206e 71bb b0fd 8cbb
000001c0: ea10 c0ba a7e1 d43a 2cf3 9eb8 2a34 2d3c
000001d0: 36b9 e0bb 1a22 25bc c52e 4bba cbf4 acbb
000001e0: 8c20 9c3a bf86 973c 7f52 c4bb 41ab 95bc
000001f0: 6a6a 943c 114c 3b3c 1d44 2039 22f2 33bb
00000200: 525f 19bb be10 a6bb 00dd 51bc a038 223c
00000210: f061 9bbb 6036 babb 0a27 a4bb 503c 21bc
00000220: 232d acbb fbe1 b6ba c003 ecba 387b e6ba
00000230: ad09 bbbb 102d bcba 9e69 16bc 71b3 d437
00000240: 38d0 cbba 3e23 8bbc 5b7c 3f3c e004 603c
00000250: d42e 0bbb f325 0dba c8a7 1bbb ca83 bcbc
00000260: 0303 9abb 6e61 4dbc 00fe e93c c9a6 963c
00000270: fefa a7bc 8d25 e039 a86e 85bc 489c b3bb
00000280: 7838 bdbb a0ef 02ba 284d 35bb 5b95 b7ba
00000290: b473 2bbb d1ef debb e799 133d 3a48 4dbb
000002a0: 1600 593c b6ba 8bbb af04 8ebc 7177 42bc
000002b0: 5208 983a 9bac 293c 6538 a13b e9ee 54bb
000002c0: c8c4 f6b9 ee71 37bc 36ec 9b39 7834 843b
000002d0: 40cd f23b fb48 91bc 43ea 12ba c2b1 ca3b
000002e0: 70ca a0bb 3236 b03b 0cb5 33bd 05ff 0d3d
000002f0: 997c e83b a01a 8cbb 898e c63b 8479 093c
00000300: bc13 61b9 ffc1 1bbd 4bee b9bc 0407 c8bc
00000310: cb47 edba 7b5d f53c 1290 8dba 05ab 12b9
00000320: bc0b 8abb adfa c13b b93b ed39 1b11 c23b
00000330: 5e1a 0339 76f2 a138 505f adbb 12e6 293c
00000340: aa01 07bb b89e d7ba a0a4 dfba c029 173d
00000350: 6c26 8a3b 0e9f c0bc 6cf6 dc3c 9a8c 68ba
00000360: 6989 92bb 42b0 bcbc 6b7d 1fbb f36f b9ba
00000370: a7fe 0fbb 766d 73bb 9de8 623c 22ad 29bb
00000380: 79f2 263c 0eaf 313c fbea 2a3c 7362 a13c
00000390: f21f 84ba 44d6 953a 3eba 8f3b d8b9 acbb
000003a0: f220 953c 5c03 133a 3602 4ebb e687 f5ba
000003b0: 2597 a6bb e454 e9bb 674c febc 366c 3f3c
000003c0: e05d 89bb 981b 70bb ea17 7c3c 5a61 1b3c
000003d0: f4ad a43c d422 113c 2a0b a438 3ce8 fc3a
000003e0: cd94 37ba 2d46 02ba ea3f ff3c 59a4 11bc
000003f0: 9e15 c1ba 12ec f2bb d8cc 7cbc 8997 37bb

bias f4 [32]
0.00073846325 -0.0003333155 -0.0032482375 -0.0011397606 0.011717536 -0.003798069 -0.0004466009 0.00085505005
-0.0036634256 0.0019000559 0.00014511432 -2.0201567e-05 -0.00054459187 0.0002417468 -0.0003706972 -0.006237536
0.0023245295 0.0022606174 0.0068611484 -0.0067979507 0.00029153595 -0.00011631482 -0.005967401 -0.007814355
-0.00040480917 -0.0027862438 0.00051555265 -0.00066854956 -6.383863e-05 0.000305464 0.00030523102 -0.0003334279
00000000: 6e95 413a d9c0 aeb9 62e0 54bb 0564 95ba
00000010: e8fa 3f3c 06e9 78bb c225 eab9 7025 603a
00000020: 1516 70bb 4c0b f93a d429 1839 8976 a9b7
00000030: f1c2 0eba 6a7d 7d39 235a c2b9 3f64 ccbb
00000040: 2257 183b de26 143b 7cd3 e03b 58c1 debb
00000050: 4bd9 9839 0bee f3b8 308a c3bb c807 00bc
00000060: 913c d4b9 6a99 36bb 2726 073a 9a41 2fba
00000070: 1ae1 85b8 af26 a039 6a07 a039 efcf aeb9

weight f4 [10, 32]
-0.034772705 0.07732316 0.014801511 -0.046542797 0.13623112 -0.0017539323 0.06816934 -0.06501537
-0.13754483 -0.14492075 -0.028970696 0.10438277 0.08240755 0.019005707 0.025678478 -0.11269241
-0.031197911 -0.00063864485 -0.14946337 -0.14971484 -0.10413487 0.057009056 -0.01790969 -0.029649768
0.06848476 -0.110204816 -0.105072446 -0.031520654 0.07216216 0.0076772477 -0.10635704 0.07742997
-0.074387096 0.1210643 0.053057868 0.039993435 0.13305324 0.048196275 -0.13270918 0.065966524
0.15368657 -0.078210935 0.0907167 0.1325433 -0.029205535 0.005380419 -0.010523015 0.1445495
0.0519542 0.0707349 -0.16256139 -0.078094974 -0.09686726 0.028043559 -0.07566728 0.043293074
0.06973418 -0.05443729 0.012748148 -0.08499672 -0.007394213 0.020722644 0.092873625 0.047399912
0.019652689 0.08685197 0.079415835 0.010012425 0.16175975 -0.053968668 0.026221331 -0.0067409514
0.11845498 -0.1300118 0.040727105 -0.13357791 -0.05393522 -0.030866502 -0.053988516 -0.07914396
-0.08914457 -0.09138926 -0.032375745 0.13487099 -0.024576586 -0.10793576 -0.044569414 -0.1360527
-0.014246104 0.1354822 -0.16182013 0.05486411 0.09968334 0.06957405 -0.060543936 0.0070703654
0.057746656 -0.12974451 0.07572416 -0.007774657 -0.13978809 -0.017439825 -0.0032396314 -0.05380513
-0.056685686 -0.0038314662 0.026491834 0.07431275 -0.12476116 -0.006033498 0.013660382 0.13876301
0.042066302 0.06120617 0.054144263 -0.008324839 -0.065460585 -0.061406244 0.05965108 -0.030944014
0.10150344 -0.094158255 0.120069176 0.056688674 0.06430335 0.078831844 -0.055834845 0.04823505
-0.11832973 -0.09520279 -0.017930228 0.117967136 -0.040679973 -0.077489205 -0.10395396 0.009844218
0.005582645 0.019844374 -0.01724946 0.04737031 0.025343994 -0.012324831 0.07840443 -0.12750277
-0.05231093 0.013227306 -0.058041584 -0.0076883356 -0.03893218 0.084976144 0.14531578 0.13524386
0.040713824 -0.10830899 -0.06675854 -0.039806604 -0.015832173 -0.033713996 0.06589079 -0.1064715
0.012253821 0.11348837 -0.08950552 -0.02844892 0.08691026 -0.022339562 -0.05957326 0.085350335
-0.12461499 0.15280452 0.111279204 0.003993648 0.03470098 -0.044079185 0.0379327 -0.13685058
-0.027234273 0.08421008 0.044010773 0.11512531 0.09360931 0.15621492 0.03569032 -0.13184467
-0.10695821 0.09719431 0.13439822 0.12906443 -0.08052216 0.11370666 -0.04013621 0.026978776
0.06224682 -0.10745615 -0.111064024 0.07645725 -0.14788708 0.025788708 0.04547537 0.093401454
-0.0042833555 -0.021391135 0.0053551523 -0.024094583 -0.12732008 -0.001019918 -0.054750793 0.10533043
-0.034198068 0.0009822046 -0.12888329 0.12769401 0.0495713 0.12575957 0.078394905 -0.101273514
0.1054234 -0.027838292 0.13685817 -0.0032650833 0.062313545 -0.018314134 0.014897572 4.9141596e-05
-0.091971785 0.116443664 -0.0456455 -0.09759957 0.1249242 -0.09874077 0.041614603 0.121566415
-0.03543749 -0.15256055 -0.08829817 -0.011021651 -0.025214143 0.07390181 0.108865604 -0.110993795
-0.016624963 -0.07565667 0.029292852 0.11016115 -0.028779918 -0.0031065387 -0.021244556 -0.15228397
0.1286366 0.024106191 0.15117384 -0.10294227 -0.039604895 -0.015324864 0.032000735 -0.014507873
00000000: d36d 0ebd 9b5b 9e3d 0982 723c a9a3 3ebd
00000010: 2c80 0b3e 34e4 e5ba 5e9c 8b3d c726 85bd
00000020: 8dd8 0cbe 1b66 14be f453 edbc a2c6 d53d
00000030: 4ac5 a83d dbb1 9b3c ac5b d23c 47cb e6bd
00000040: c392 ffbc bb6a 27ba ed0c 19be d94e 19be
00000050: aa44 d5bd 5482 693d 58b7 92bc 12e4 f2bc
00000060: bd41 8c3d 10b3 e1bd 3930 d7bd cd1b 01bd
00000070: c1c9 933d 6c91 fb3b b8d1 d9bd 9b93 9e3d
00000080: 4358 98bd 8ff0 f73d 3553 593d 28d0 233d
00000090: 1c3f 083e 7569 453d eae4 07be 7519 873d
000000a0: 0360 1d3e 0e2d a0bd adc9 b93d 6eb9 073e
000000b0: 7240 efbc 3a4e b03b b968 2cbc c904 143e
000000c0: edcd 543d 76dd 903d 7e76 26be 42f0 9fbd
000000d0: 5862 c6bd 9bbb e53c 72f7 9abd 1454 313d
000000e0: cbd0 8e3d a3f9 5ebd 9cdd 503c c312 aebd
000000f0: 284b f2bb 89c2 a93c 8734 be3d 6926 423d
00000100: adfe a03c 72df b13d c5a4 a23d 270b 243c
00000110: 59a4 253e 400e 5dbd 1ece d63c 33e3 dcbb
00000120: 8698 f23d d021 05be 77d1 263d a6c8 08be
00000130: 2deb 5cbd bfdb fcbc 1023 5dbd 3a16 a2bd
00000140: 6e91 b6bd 4b2a bbbd 6e9c 04bd 9f1b 0a3e
00000150: d654 c9bc 6c0d ddbd 6b8e 36bd 6651 0bbe
00000160: 7e68 69bc d9bb 0a3e 2db4 25be 30b9 603d
00000170: c726 cc3d d77c 8e3d ebfc 77bd 86ae e73b
00000180: c287 6c3d bfdb 04be 4515 9b3d 8dc2 febb
00000190: 9c24 0fbe f7dd 8ebc ff4f 54bb c562 5cbd
000001a0: 402f 68bd 5619 7bbb 6705 d93c 4831 983d
000001b0: c782 ffbd a6b4 c5bb cbcf 5f3c e417 0e3e
000001c0: b74d 2c3d 52b3 7a3d 60c6 5d3d e864 08bc
000001d0: 3310 86bd 1d85 7bbd b154 743d 4d7e fdbc
000001e0: 09e1 cf3d 0bd6 c0bd d4e6 f53d 6232 683d
000001f0: 7ab1 833d 9772 a13d 14b3 64bd 1e92 453d
00000200: dc56 f2bd aef9 c2bd 6ae2 92bc c198 f13d
00000210: 0ba0 26bd a9b2 9ebd d0e5 d4bd a549 213c
00000220: 9fee b63b ab90 a23c bd4e 8dbc 5f07 423d
00000230: 359e cf3c 17ee 49bc 8092 a03d 1690 02be
00000240: fc43 56bd 58b7 583c 03bd 6dbd 6fee fbbb
00000250: 5977 1fbd f907 ae3d a9cd 143e 5e7d 0a3e
00000260: 8ac3 263d 1bd1 ddbd b4b8 88bd 400c 23bd
00000270: 79b2 81bc b017 0abd c0f1 863d bb0d dabd
00000280: 40c4 483c 976c e83d ac4e b7bd b60d e9bc
00000290: 02fe b13d 7501 b7bc 1703 74bd 28cc ae3d
000002a0: 2536 ffbd ca78 1c3e 5ae6 e33d 26dd 823b
000002b0: 9d22 0e3d 608c 34bd 525f 1b3d 8f22 0cbe
000002c0: 691a dfbc 5676 ac3d a444 343d d2c6 eb3d
000002d0: 3db6 bf3d cef6 1f3e 0330 123d 4a02 07be
000002e0: e80c dbbd cf0d c73d b09f 093e 7729 043e
000002f0: cde8 a4bd 0adf e83d de65 24bd 9802 dd3c
00000300: 86f6 7e3d f811 dcbd 8975 e3bd 9e95 9c3d
00000310: b66f 17be d742 d33c 6244 3a3d 4349 bf3d
00000320: 645b 8cbb 763c afbc 467a af3b 0162 c5bc
00000330: 3260 02be c5ae 85ba 5e42 60bd 7bb7 d73d
00000340: 4613 0cbd 51bd 803a fbf9 03be 38c2 023e
00000350: 470b 4b3d 1ec7 003e 828d a03d 7d68 cfbd
00000360: 39e8 d73d 210d e4bc 8c24 0c3e 02fb 55bb
00000370: 7d3c 7f3d 8607 96bc f214 743c 631d 4e38
00000380: b45b bcbd 047a ee3d c7f6 3abd 49e2 c7bd
00000390: 42d8 ff3d 9a38 cabd 1374 2a3d d0f7 f83d
000003a0: e726 11bd d538 1cbe acd5 b4bd 2894 34bc
000003b0: e48d cebc d559 973d eef4 de3d b750 e3bd
000003c0: 1331 88bc e2f1 9abd 90f7 ef3c 2b9c e13d
000003d0: ddc3 ebbc 1297 4bbb 1009 aebc 54f0 1bbe
000003e0: 50b9 033e 597a c53c 51cd 1a3e 66d3 d2bd
000003f0: be38 22bd 2315 7bbc 3413 033d 6eb2 6dbc

bias f4 [10]
-0.09330335 -0.041975003 -0.095692664 0.041858416 -0.008859995 -0.039553892 0.0908134 0.007973774
0.0022254258 -0.07849086
00000000: d415 bfbd fbed 2bbd 84fa c3bd bb73 2b3d
00000010: 8329 11bc 4303 22bd 60fc b93d 6fa4 023c
00000020: 73d8 113b d1bf a0bd

bias f4 [64]
-0.0021015964 -0.0017627034 0.0010780484 0.0013903481 0.00014566378 0.0011413379 -2.4338107e-05 -0.0005593917
-0.0020651224 -0.0024825383 -0.0009788829 -0.00040869924 0.0012990579 -0.0031194843 -0.0015578463 -0.000693936
0.0019658955 -0.0010623265 0.0023146744 -0.002446917 -0.0014056509 -0.0042393035 0.00012747318 0.0025052158
-0.002057233 0.0012525873 0.0017996471 0.0024773232 0.0010301309 0.0016712628 0.0011077307 0.0024848522
0.0024172782 0.0013336432 -0.0025418226 -0.0005259515 -0.0019353204 0.0004867546 0.0006989497 0.00071613624
0.0005607069 0.0017517093 -0.0021182701 0.00085610355 0.0018420985 0.0024610346 0.0011046312 0.0002668366
0.000513783 0.0023295581 0.0020503162 -0.0005659488 -0.00095653214 -0.00028109978 -0.0007902175 -0.0009589844
-0.00021123132 0.0009949186 -0.001010181 -0.0016629356 -0.0005681398 -0.0008995711 -0.0016821544 0.0023298694
00000000: f0ba 09bb 830a e7ba 4d4d 8d3a 573c b63a
00000010: 53bd 1839 f298 953a b029 ccb7 24a4 12ba
00000020: 0157 07bb 15b2 22bb dc4d 80ba af46 d6b9
00000030: 2645 aa3a 4370 4cbb a630 ccba 42e9 35ba
00000040: 41d6 003b c33d 8bba cbb1 173b 745c 20bb
00000050: d13d b8ba dbe9 8abb 52aa 0539 8c2e 243b
00000060: a4d2 06bb db2d a43a 23e2 eb3a 965a 223b
00000070: 7505 873a 460e db3a 4631 913a e7d8 223b
00000080: 336b 1e3b a4cd ae3a b594 26bb 02e0 09ba
00000090: 94aa fdba 1933 ff39 b839 373a 17bb 3b3a
000000a0: 67fc 123a 9c99 e53a add2 0abb 236c 603a
000000b0: 9272 f13a 4f49 213b 46c9 903a 34e6 8b39
000000c0: 65af 063a 80ab 183b 995e 063b 2e5c 14ba
000000d0: c9bf 7aba 9360 93b9 9926 4fba 5b64 7bba
000000e0: fa7d 5db9 ee67 823a 0d68 84ba dcf6 d9ba
000000f0: 37ef 14ba 32d1 6bba bc7b dcba b9b0 183b

weight f4 [64, 1]
0.16183096 0.13085592 -0.0014115841 0.07878619 -0.08027317 -0.18051814 -0.0013559874 -0.113931604
0.2164402 -0.1802769 0.21533924 -0.0031506757 0.010374415 0.19701262 -0.076772 -0.050502166
0.061930176 -0.019866098 0.0045540603 0.12504691 -0.0019390894 0.1401083 -0.069521375 0.06170022
-0.0020183993 -0.1669969 0.0015508194 0.05775216 -0.12161236 0.1899114 -0.10533797 0.10116789
0.0015057354 -0.11114801 0.16114393 -0.013376481 -0.0014856821 -0.028297393 -0.233879 0.11584029
-0.07401664 0.115749486 0.08229922 0.09909057 0.04696484 0.038484205 -0.1893531 -0.0006967124
-0.06250766 0.16283692 0.0552257 -0.00048533612 -0.20789838 -0.21205327 -0.18727545 0.14731903
0.12470429 -0.20207508 -0.19451186 0.1859516 0.05800336 -0.12566847 0.0006649618 0.12317942
00000000: 04b7 253e 18ff 053e e704 b9ba a75a a13d
00000010: 4266 a4bd bfd9 38be 63bb b1ba f954 e9bd
00000020: 80a2 5d3e 829a 38be e481 5c3e 917b 4ebb
00000030: 73f9 293c adbd 493e a33a 9dbd 5cdb 4ebd
00000040: 7faa 7d3d 3abe a2bc 3a3a 953b 4c0c 003e
00000050: 0b29 feba 8d78 0f3e 3961 8ebd 5fb9 7c3d
00000060: 1f47 04bb 3c01 2bbe dd44 cb3a 878d 6c3d
00000070: e70f f9bd 2278 423e 6fbb d7bd 1c31 cf3d
00000080: 195c c53a 91a1 e3bd ea02 253e 0729 5bbc
00000090: 38bb c2ba efcf e7bc fa7d 6fbe ad3d ed3d
000000a0: 0996 97bd 110e ed3d 7e8c a83d ffef ca3d
000000b0: 345e 403d 9da1 1d3d c7e5 41be 94a3 36ba
000000c0: 0404 80bd b9be 263e 5834 623d b674 feb9
000000d0: 50e3 54be 7e24 59be 23c5 3fbe cdda 163e
000000e0: f664 ff3d c5ec 4ebe 1e2e 47be 196a 3e3e
000000f0: ee94 6d3d 3caf 00be d550 2e3a 7e45 fc3d

bias f4 [64]
-0.0011391612 -0.0034880212 0.00019579486 -0.006675043 0.002166033 -0.0057863295 -0.0017020107 -0.0044470495
-0.0042247046 -0.0025264588 -0.00194058 0.00093705405 0.0005114252 -0.00049621455 0.00015435195 0.0008427973
-0.002469423 0.0015662682 0.00069368805 -7.946811e-05 -0.00014206766 -0.006056724 -0.0032995064 -0.0008551829
-0.0009013717 0.0020577917 -0.0013682648 0.003468521 -0.004319086 0.0007402401 0.0015163545 -0.00050089107
-0.0016822135 0.0014841076 -0.0016717663 0.0012216553 0.0010961175 0.00047627895 7.33818e-05 0.0018819538
0.0011210163 -0.0017582582 0.0035332346 -0.00086307566 0.003663938 0.0006512583 0.0019833646 -0.0003204367
0.00014576215 -0.0002958555 9.014614e-05 -0.00051192957 -0.0007245883 0.0010409865 7.4791087e-06 0.0018118421
-0.001639405 -0.00024259827 0.002077525 -0.0029121728 0.0032702615 -0.0010493979 -0.0010765725 -0.00036424855
00000000: e84f 95ba 4997 64bb 484e 4d39 52ba dabb
00000010: 01f4 0d3b 409b bdbb 0116 dfba 8eb8 91bb
00000020: 646f 8abb f292 25bb 0f5b feba a2a4 753a
00000030: 2a11 063a 6514 02ba 89d9 2139 2bef 5c3a
00000040: 0bd6 21bb 3d4b cd3a 9ed8 353a 1ea8 a6b8
00000050: fff7 14b9 7c77 c6bb 883c 58bb 5a2e 60ba
00000060: 084a 6cba 04dc 063b 5957 b3ba 2050 633b
00000070: 1f87 8dbb ac0c 423a 6ac0 c63a 3b4e 03ba
00000080: b87d dcba 6386 c23a 2b1f dbba f31f a03a
00000090: 9aab 8f3a 14b5 f939 8ee4 9938 e4ab f63a
000000a0: 11ef 923a 5b75 e6ba d78d 673b 0740 62ba
000000b0: ae1e 703b 34b9 2a3a 56fb 013b 4900 a8b9
000000c0: bbd7 1839 0e1d 9bb9 d70c bd38 0333 06ba
000000d0: 4cf2 3dba b671 883a 0ef5 fa36 557b ed3a
000000e0: 4ee1 d6ba fa61 7eb9 1627 083b 27da 3ebb
000000f0: e251 563b f38b 89ba c71b 8dba 9df8 beb9

weight f4 [64, 64]
0.031627774 -0.0008303905 0.14729318 0.00060759124 0.039988063 -0.1441602 0.0008673819 0.00051556085
0.111527756 0.054486506 0.14412129 -0.0002499713 -0.015093775 -0.0013026468 0.00038729142 0.010522092
-0.00088843534 -0.03671203 0.033609044 -0.00038218754 -0.089090325 -0.001133606 -0.08874474 -0.0011262827
0.0070343083 -0.15006939 0.08698678 -0.037504762 0.0010003364 -0.0023870869 0.10302783 -0.07038442
-0.14768402 -0.13317356 0.037753686 -0.019226458 -0.0009948906 0.043491207 0.001221163 0.14926115
0.02775491 -0.14111064 -0.105780825 -0.12875418 -0.08305102 -0.0036218155 -0.022993555 -0.13858148
0.030970886 -0.001063872 0.00023927126 0.0249992 -0.0065636705 0.00048892264 -0.032123502 0.05298778
0.10582687 -0.00074144907 0.1096838 0.015677886 -0.008145392 0.09565637 -0.00025398066 -0.00023550256
-0.00050779904 0.1101154 -0.074138135 -0.022705387 -0.06909361 -0.0783479 0.04946035 -0.035650723
-0.0021177006 0.11614721 0.049575888 0.0003842923 0.11083247 -0.020234114 0.10997347 0.13332257
-0.14452906 0.025080515 0.030901538 0.011389542 0.119830646 0.13320428 -0.004573784 -0.0015492929
-0.014157102 -0.11527786 3.2012736e-05 0.009777334 -0.018852439 0.036532596 -0.1249975 -0.07798585
-0.080327205 0.0014556526 0.0744296 0.05472547 0.10690234 0.13252933 -0.10912086 0.0114462925
-0.05953478 -0.096339054 0.1354227 -0.114770524 -0.124678545 -0.105812386 0.07274725 -0.098651245
0.027997969 -0.10250019 0.004623474 0.032190993 -0.09535449 -2.3465109e-05 -0.08432172 0.12589161
-0.0026017253 -0.09414263 0.00049453194 0.021625062 -0.09653193 0.09628722 -0.0011785089 -0.11349636
0.08032258 0.013509959 0.052548815 0.00021302556 -0.050080158 -0.051645957 0.021077517 0.09133781
0.015153364 -0.046744402 0.1479312 -0.00095319434 -0.07209761 0.057128012 0.05511344 0.00044426348
-0.015933132 -0.068404004 0.06927757 0.14651315 -0.005867044 0.040328525 0.06515294 0.017978676
-0.12420607 0.0775289 0.00038581277 -0.1377278 -0.03144346 0.00084343506 0.07911164 -0.14424896
0.0051874486 -0.10660926 0.088081226 -0.08501701 -0.09453956 -0.017233161 -0.018067585 -0.0055766115
-0.114990614 -0.053099208 -7.773235e-05 0.0463884 0.000853559 0.096996985 -0.03330663 -0.00010411684
0.056245223 -0.0181305 -0.1371151 -0.1334813 -0.07737502 -0.0006863155 -0.12828949 0.00017844274
-0.14945884 -0.013644898 -0.020958556 -0.13480176 0.12134541 0.0053350716 -0.041176807 0.14201717
0.11555091 -0.0018136716 -0.0002291371 0.10181881 0.0006701237 0.0008355459 -0.00044460772 0.012344253
0.055308428 0.12371109 -0.078525715 -3.354083e-05 0.0022608398 0.025390029 0.06827499 0.06944957
-0.14299941 0.017449604 -0.00053434307 -0.002182658 -0.12216717 0.0982349 0.017203037 -0.11996487
0.1152927 0.10440065 -0.1286142 -0.0100562 -0.14430875 -0.0032018484 -0.00020561783 -0.1430597
-0.069944784 0.00020056817 0.14908725 0.0667675 0.13872163 -0.00023127087 -0.11217271 0.048755817
-0.0012395275 -0.002260841 0.14696313 -0.063341625 -0.0011763753 -0.13179712 -0.016118484 0.0010675977
-0.0010732793 0.10898605 0.14329909 0.11316499 0.0009238382 0.10273946 -0.021762608 -0.022960234
-0.01832598 -0.065802455 -0.006675942 -0.0008365839 -0.051959366 0.0024527176 0.014432358 -0.0657339
00000000: 208c 013d 90ae 59ba 06d4 163e c246 1f3a
00000010: 86ca 233d bb9e 13be 0461 633a b426 073a
00000020: aa68 e43d 3e2d 5f3d 8894 133e 940e 83b9
00000030: e14b 77bc 93bd aaba 600d cb39 da64 2c3c
00000040: e3e5 68ba 5b5f 16bd a3a9 093d 5860 c8b9
00000050: fd74 b6bd 8195 94ba cdbf b5bd c79f 93ba
00000060: 0e80 e63b caab 19be 2026 b23d 989e 19bd
00000070: b81d 833a ac70 1cbb 4100 d33d b525 90bd
00000080: 7b3a 17be a65e 08be 9ca3 1a3d ce80 9dbc
00000090: fd66 82ba d623 323d 6e0f a03a ead7 183e
000000a0: 445e e33c 4f7f 10be 9ea3 d8bd 23d8 03be
000000b0: a716 aabd fb5b 6dbb fb5c bcbc 4ee8 0dbe
000000c0: a8b6 fd3c 9f71 8bba e4e4 7a39 1fcb cc3c
000000d0: 0f14 d7bb 0b2b 003a ef93 03bd b709 593d
000000e0: c2bb d83d ce5d 42ba e6a1 e03d e96e 803c
000000f0: 4074 05bc 7de7 c33d b528 85b9 3df1 76b9
00000100: d11d 05ba 2f84 e13d bcd5 97bd a600 babc
00000110: f380 8dbd dd74 a0bd f096 4a3d 7e06 12bd
00000120: 1fc9 0abb 97de ed3d 1610 4b3d d77a c939
00000130: 22fc e23d 03c2 a5bc c539 e13d b685 083e
00000140: 6dff 13be a775 cd3c 3925 fd3c 349b 3a3c
00000150: c569 f53d b466 083e aedf 95bb a511 cbba
00000160: 31f3 67bc cc16 ecbd 6a45 0638 1c31 203c
00000170: 6e70 9abc 34a3 153d b0fe ffbd 0cb7 9fbd
00000180: 9782 a4bd 99cb be3a 8c6e 983d d027 603d
00000190: 9def da3d c5b5 073e c27a dfbd 3b89 3b3c
000001a0: beda 73bd 694d c5bd 40ac 0a3e cf0c ebbd
000001b0: 7757 ffbd 2ab4 d8bd 83fc 943d aa09 cabd
000001c0: ff5b e53c 9feb d1bd 8380 973b b4da 033d
000001d0: 3749 c3bd f0d6 c4b7 deb0 acbd bbe9 003e
000001e0: b581 2abb dacd c0bd 7aa3 013a 0b27 b13c
000001f0: 88b2 c5bd 3c32 c53d 3278 9aba c870 e8bd
00000200: 2a80 a43d e058 5d3c 6d3d 573d 9d5f 5f39
00000210: da20 4dbd b68a 53bd c2aa ac3c 510f bb3d
00000220: d145 783c 0f77 3fbd 477b 173e cadf 79ba
00000230: e9a7 93bd 10ff 693d a1be 613d 09ec e839
00000240: 3386 82bc 6617 8cbd 66e1 8d3d 8b07 163e
00000250: 5540 c0bb 862f 253d e86e 853d 0448 933c
00000260: c15f febd 79c7 9e3d ea46 ca39 8408 0dbe
00000270: dcca 00bd f819 5d3a 4905 a23d 00b6 13be
00000280: 79fb a93b f555 dabd ee63 b43d 661d aebd
00000290: f59d c1bd 8f2c 8dbc 7902 94bc 02bc b6bb
000002a0: 3380 ebbd 8e7e 59bd 3d04 a3b8 c301 3e3d
000002b0: 60c1 5f3a 5ba6 c63d 886c 08bd 4e59 dab8
000002c0: 6461 663d 6a86 94bc e767 0cbe 52af 08be
000002d0: cb76 9ebd dbe9 33ba 525e 03be 5c1c 3b39
000002e0: bd0b 19be da8e 5fbc 47b1 abbc 7909 0abe
000002f0: f183 f83d d3d1 ae3b 03a9 28bd f36c 113e
00000300: f5a5 ec3d b8b8 edba 8644 70b9 6186 d03d
00000310: 3eab 2f3a 8908 5b3a 3d1a e9b9 8d3f 4a3c
00000320: 178b 623d 3d5c fd3d 17d2 a0bd 31ae 0cb8
00000330: 992a 143b c0fe cf3c c2d3 8b3d 933b 8e3d
00000340: 706e 12be 79f2 8e3c 2813 0cba ed0a 0fbb
00000350: c832 fabd 612f c93d 62ed 8c3c 24b0 f5bd
00000360: 941e ec3d 02d0 d53d 71b3 03be c3c2 24bc
00000370: acc5 13be 1ad6 51bb 1e9b 57b9 3e7e 12be
00000380: 363f 8fbd 9c4f 5239 54aa 183e 66bd 883d
00000390: 0b0d 0e3e 4d81 72b9 ceba e5bd 2eb4 473d
000003a0: a477 a2ba 9e2a 14bb 817d 163e 41b9 81bd
000003b0: 9b30 9aba d3f5 06be e90a 84bc a2ee 8b3a
000003c0: 47ad 8cba 1434 df3d ffbc 123e 0cc3 e73d
000003d0: bb2d 723a 1169 d23d 7f47 b2bc 1a17 bcbc
000003e0: 5e20 96bc 70c3 86bd dcc1 dabb 324e 5bba
000003f0: 58d3 54bd c6bd 203b b275 6c3c 7f9f 86bd

bias f4 [10]
-0.007791812 0.0022951495 0.008630137 0.0029186322 0.002350596 0.0076672845 -0.0016954899 -0.0013539401
0.0015074122 -0.0037706518
00000000: 7552 ffbb 386a 163b 6b65 0d3c 8646 3f3b
00000010: 750c 1a3b d83d fb3b 333b deba b176 b1ba
00000020: 5c94 c53a 0a1d 77bb

weight f4 [10, 64]
0.011857059 -0.00024383253 -0.18964645 0.14304176 -0.19857329 0.031333365 -0.15574744 -0.004843926
0.0681822 0.042283706 0.15013011 -0.043842163 0.028137334 0.064008825 -0.19620712 -0.10009184
0.083705746 0.0021283498 -0.00093204476 -0.017666461 0.05047233 0.13433202 0.14540337 0.09581767
0.021966808 -0.15607423 0.09897085 -0.06093835 0.09807799 -0.13330363 0.03310087 0.000112080634
0.14002484 -0.0020181441 0.07643498 -0.19832434 0.027268095 -0.2127964 -0.1934645 -0.21543051
-0.1391462 -0.056160092 0.018951645 -0.001313227 -0.024440326 0.0444758 -0.1961132 0.19080067
-0.08786963 -0.05616859 0.00018096919 -0.047277268 0.04542495 0.0004789487 0.0745989 0.00021496511
-0.047673877 -0.0010095304 0.047973476 0.08897524 -0.0016880808 0.110821374 -0.08638329 -0.017181525
-0.21596685 -0.14907555 -0.17707956 -0.12850817 0.034547187 -0.101144135 -0.20991968 -0.19847035
-0.16804245 0.021968473 -0.042123448 0.00050023396 0.054438468 0.16494107 -0.109996945 0.1388089
0.06663213 -0.00075857225 -0.045247212 0.024596728 -0.00042371804 0.041982677 -0.17053251 -0.0525223
0.0011557983 -0.20971902 -0.13653062 0.023391098 -0.19359279 0.09748301 0.1950606 -7.616227e-05
-0.0030890598 0.0012603254 -0.032768995 0.2061564 -0.094445914 -0.14950128 -0.056078985 0.0009810983
-0.101075046 -0.015775383 -0.027301809 0.16751379 -0.061504647 0.00013489566 0.0012212581 0.0005335946
-0.14239882 0.04419643 0.11836057 -0.00031969257 -0.010662561 0.03973541 -0.00016523224 0.0014005242
0.021975989 0.08060602 0.070251085 -0.08600545 0.015769044 -0.057039004 0.0052786637 -0.039668906
0.00039905327 0.019404437 0.00028918352 -0.17199214 -0.13985439 -0.02851264 -0.107868925 -0.20177497
-0.15348461 -0.0576386 -0.11451304 0.073737286 0.055736393 -0.20822798 0.00021208536 -1.3158451e-05
0.00016158466 0.07682408 -0.053134244 0.21480194 0.09239242 -0.21061201 0.0024915936 0.07078313
-0.0001321938 0.024675073 -0.000402019 0.08070428 -0.13405614 -0.0011815511 0.20232482 0.10346985
-0.20334531 0.08194304 -0.0011747312 -0.026079193 0.11575177 0.114301585 0.08833415 -0.1223605
-0.14048226 -0.0005155568 0.1736073 -0.08348841 0.12770985 -0.00040663866 -0.008593378 -0.09610159
0.10525595 0.042625405 -0.18258378 0.13363014 -0.055301446 -0.18716884 0.00042404636 0.15716104
0.1878752 -0.09237945 0.016831221 0.04480187 0.08324224 -0.13309087 -0.18505484 -0.10763352
0.001984435 -0.0876379 0.1236295 -0.2009654 0.1184002 -0.01920177 0.14820229 -0.2036033
0.002048276 -0.12609564 -0.21111424 0.05524133 0.18192767 -0.04235977 -0.038575273 -0.06515885
-0.18603858 0.13882005 -0.0009743133 -0.00042371463 0.06276845 0.0015666691 -0.02597291 -0.16356918
-0.046011113 0.08893989 0.054463424 0.07291729 -0.1224275 -0.20710722 -0.0023844857 -0.1847938
0.0038364737 0.06869546 0.06663742 -0.1543568 0.010122457 0.110250086 -0.015397564 0.20083968
0.09587059 -0.12974353 0.011399429 0.17355986 -0.033995822 0.03735901 -0.00026132536 0.0492939
0.0009985082 -0.1502364 -0.001183307 0.08233518 -0.03159662 0.03965087 -0.0006725137 -0.08317437
-0.1184028 -0.08276325 0.121218204 0.0003858306 0.059083547 0.008607869 -0.08257682 0.0016604563
00000000: 1c44 423c 4cad 7fb9 ae32 42be 8a79 123e
00000010: cc56 4bbe 6a57 003d 427c 1fbe ccb9 9ebb
00000020: 1ca3 8b3d ae31 2d3d b5bb 193e d793 33bd
00000030: 4480 e63c 0f17 833d 85ea 48be f3fc ccbd
00000040: eb6d ab3d c97b 0b3b 7754 74ba 41b9 90bc
00000050: 13bc 4e3d 558e 093e 9fe4 143e 0e3c c43d
00000060: bcf3 b33c ecd1 1fbe 3bb1 ca3d 7e9a 79bd
00000070: 1ddd c83d bf80 08be c794 073d d50c eb38
00000080: ac62 0f3e d742 04bb f189 9c3d 8915 4bbe
00000090: 5761 df3c 4de7 59be 8f1b 46be d199 5cbe
000000a0: 577c 0ebe 2008 66bd 7b40 9b3c 9620 acba
000000b0: 1437 c8bc 422c 363d e6d1 48be 4061 433e
000000c0: fef4 b3bd 0911 66bd 8cc2 3d39 cfa5 41bd
000000d0: 830f 3a3d 681b fb39 4fc7 983d 4268 6139
000000e0: af45 43bd 3852 84ba d67f 443d a738 b63d
000000f0: 9842 ddba 51f6 e23d b9e9 b0bd 45c0 8cbc
00000100: 6a26 5dbe 43a7 18be 5854 35be a597 03be
00000110: 5a81 0d3d a824 cfbd 2ff5 56be d03b 4bbe
00000120: 5213 2cbe 3af7 b33c a389 2cbd 2222 033a
00000130: dffa 5e3d 50e6 283e 1446 e1bd ec23 0e3e
00000140: 6d76 883d ecda 46ba 2455 39bd 147f c93c
00000150: 7926 deb9 07f6 2b3d 13a0 2ebe a021 57bd
00000160: 287e 973a 95c0 56be afce 0bbe b09e bf3c
00000170: 303d 46be 2ca5 c73d f7bd 473e 4fb9 9fb8
00000180: d371 4abb 8131 a53a c838 06bd aa1a 533e
00000190: dc6c c1bd dd16 19be 14b3 65bd 3298 803a
000001a0: 6f00 cfbd 603b 81bc 0ba8 dfbc bc88 2b3e
000001b0: 4cec 7bbd c772 0d39 9f12 a03a ede0 0b3a
000001c0: ffd0 11be 5107 353d 0767 f23d 699c a7b9
000001d0: 06b2 2ebc 99c1 223d 3142 2db9 cb91 b73a
000001e0: fd06 b43c c514 a53d cddf 8f3d a023 b0bd
000001f0: 152e 813c bba1 69bd a4f8 ac3b dd7b 22bd
00000200: 0638 d139 0ef6 9e3c 8e9d 9739 b51e 30be
00000210: fd35 0fbe 5793 e9bc 62ea dcbd 199e 4ebe
00000220: 122b 1dbe 7416 6cbd d085 eabd 9303 973d
00000230: d84b 643d b739 55be 3b63 5e39 1ec3 5cb7
00000240: 0d6f 2939 f155 9d3d 4ba3 59bd 0af5 5b3e
00000250: 3d38 bd3d adaa 57be 014a 233b bff6 903d
00000260: 819d 0ab9 6123 ca3c 14c6 d2b9 4948 a53d
00000270: 0346 09be 47de 9aba 3d2e 4f3e 00e8 d33d
00000280: c139 50be c1d1 a73d 70f9 99ba 08a4 d5bc
00000290: 440f ed3d f316 ea3d 89e8 b43d 2498 fabd
000002a0: 95da 0fbe 6e26 07ba 1dc6 313e f9fb aabd
000002b0: 5fc6 023e 1e32 d5b9 3dcb 0cbc e9d0 c4bd
000002c0: 6e90 d73d fa97 2e3d 3ef7 3abe 57d6 083e
000002d0: c583 62bd 30a9 3fbe 8a52 de39 d3ee 203e
000002e0: 5b62 403e 7031 bdbd a1e1 893c 2a82 373d
000002f0: e87a aa3d f948 08be 047f 3dbe f76e dcbd
00000300: 4b0d 023b 807b b3bd 7731 fd3d e0c9 4dbe
00000310: ce7b f23d 084d 9dbc 57c2 173e 627d 50be
00000320: 5e3c 063b 371f 01be 552e 58be bc44 623d
00000330: 3f4b 3a3e 7081 2dbd 1b01 1ebd 0172 85bd
00000340: e680 3ebe d826 0e3e 0f69 7fba 0426 deb9
00000350: bf8c 803d b158 cd3a 24c5 d4bc ae7e 27be
00000360: 2676 3cbd 1e26 b63d 0a15 5f3d a955 953d
00000370: 45bb fabd ea13 54be 0845 1cbb 963a 3dbe
00000380: 596d 7b3b 35b0 8c3d 3379 883d b50f 1ebe
00000390: a9d8 253c ccca e13d 1046 7cbc eba8 4d3e
000003a0: cd57 c43d 7ddb 04be acc4 3a3c adb9 313e
000003b0: 343f 0bbd c305 193d 7f02 89b9 67e8 493d
000003c0: 60e0 823a 92d7 19be 3219 9bba 599f a83d
000003d0: 756b 01bd f368 223d a14b 30ba 5357 aabd
000003e0: 2b7d f2bd c77f a9bd 4041 f83d 4e49 ca39
000003f0: 9701 723d 0508 0d3c 091e a9bd aba3 d93a
