ckpt/correction-best.pt (torch, 140304 bytes, 17 tensors)

weight f4 [256, 7]
0	0x396b3384	0.00022430538
1	0xb813d50f	-3.5245957e-05
2	0x3435b9e5	1.6924567e-07
3	0x2db8d1ff	2.1011635e-11
4	0x33101d7c	3.355443e-08
5	0x31ccb411	5.9576526e-09
6	0x3254224f	1.2347825e-08
7	0x33e9ebb1	1.089278e-07
8	0xb54cd21b	-7.6301666e-07
9	0x2f7dfbb3	2.3099637e-10
10	0x28c4a1f6	2.183061e-14
11	0x2d313105	1.007217e-11
12	0x2c810f5b	3.6681053e-12
13	0x2badb3b4	1.2342267e-12
14	0x2b9af0ea	1.1009225e-12
15	0x2abef055	3.3917544e-13
16	0x272f7051	2.4347016e-15
17	0x207b8bee	2.1306826e-19
18	0x249e8dfb	6.87621e-17
19	0x242308ff	3.535261e-17
20	0x23c95a09	2.1830595e-17
21	0x35157f33	5.5691925e-07
22	0xb66b6a3a	-3.507956e-06
23	0x30299813	6.169795e-10
24	0xa901eb28	-2.884772e-14
25	0x2ecf8908	9.437612e-11
26	0x2d83b2c5	1.4972365e-11
27	0x2d083631	7.742738e-12
28	0xbbcf9257	-0.0063345837
29	0xbcbd0628	-0.023074225
30	0xb6b62066	-5.4277943e-06
31	0xb079453d	-9.0684066e-10
32	0xb53125e6	-6.599279e-07
33	0xb3be6c64	-8.8672806e-08
34	0xb3ab6090	-7.9803726e-08
35	0xb6560da2	-3.189642e-06
36	0xb80ac90d	-3.3089007e-05
37	0xb130d27f	-2.5731024e-09
38	0x2c40cc5f	2.739829e-12
39	0x30a19dfd	1.1759195e-09
40	0x3084dbbf	9.66672e-10
41	0x2f4bf7da	1.8550797e-10
42	0xaf7bd5a1	-2.2904213e-10
43	0xafd75a30	-3.9172354e-10
44	0xa95cbd34	-4.901392e-14
45	0xa328ac39	-9.143768e-18
46	0xa8e520db	-2.5438356e-14
47	0x26040319	4.58009e-16
48	0xa69ed8e2	-1.1022239e-15
49	0x372db869	1.035454e-05
50	0xb6aee0ea	-5.2117875e-06
51	0x31ec8f72	6.884812e-09
52	0x2c245797	2.3354424e-12
53	0xb003bdf3	-4.7927456e-10
54	0x2f554bf4	1.9399221e-10
55	0x2f0fe90c	1.3088569e-10
56	0xac086727	-1.9384023e-12
57	0xac7ee249	-3.6221184e-12
58	0xa650aa9f	-7.239573e-16
59	0x9fea59a2	-9.925114e-20
60	0xa4d45468	-9.2083334e-17
61	0xa3d340eb	-2.290416e-17
62	0xa2d5391d	-5.7794237e-18
63	0x39843167	0.0002521381
64	0x392ea50b	0.00016655416
65	0xb6045466	-1.971866e-06
66	0xae8dc84e	-6.447519e-11
67	0x33002045	2.983167e-08
68	0x31100e60	2.096293e-09
69	0x2f3b8912	1.7056248e-10
70	0x39ede9b7	0.00045378294
71	0x3aaf6bc6	0.0013383559
72	0x3691fd5f	4.350833e-06
73	0x2f649212	2.0788374e-10
74	0x32ab4790	1.9939563e-08
75	0x33150058	3.469208e-08
76	0x33138a46	3.4351864e-08
77	0x3684afba	3.954364e-06
78	0xb8880d4c	-6.487462e-05
79	0xb289b360	-1.603047e-08
80	0xabb5cb10	-1.2917185e-12
81	0x2fe37eea	4.1381237e-10
82	0xaf9f6af8	-2.8997937e-10
83	0xaf1927fd	-1.3929476e-10
84	0x39a97edf	0.00032328718
85	0xba982f8a	-0.0011610847
86	0x3470a5a2	2.2411999e-07
87	0x2f67bf54	2.1077301e-10
88	0x3440bcda	1.7950097e-07
89	0x32c93c5b	2.3426926e-08
90	0x32b42a0c	2.0973879e-08
91	0xb87ec7e8	-6.0744496e-05
92	0xb91715fc	-0.00014408672
93	0xb49e0918	-2.943641e-07
94	0xad9c6e9c	-1.7784267e-11
95	0xb284f083	-1.5476195e-08
96	0xb1a8ffe4	-4.918535e-09
97	0x30dad956	1.5923358e-09
98	0x3643179b	2.9071005e-06
99	0xb9a7c7d3	-0.00032001603
100	0xb4342e5b	-1.678067e-07
101	0xae107111	-3.2842232e-11
102	0xb32f18ce	-4.0767922e-08
103	0xb207f250	-7.91313e-09
104	0xb0b9e48d	-1.352548e-09
105	0x34e81080	4.3225373e-07
106	0xb5c3839a	-1.4566933e-06
107	0xaf9e550a	-2.8800456e-10
108	0x2a8a4028	2.4558242e-13
109	0x2e29d68d	3.861671e-11
110	0xacab208d	-4.863726e-12
111	0xac39f181	-2.6424143e-12
112	0x39bbfd86	0.0003585631
113	0xb8833e7c	-6.2582054e-05
114	0x354a065d	7.5260124e-07
115	0x2e6bfae5	5.3655653e-11
116	0x342908bb	1.5742528e-07
117	0xb2190c74	-8.908604e-09
118	0xb1efbcaf	-6.9772663e-09
119	0xb69b8afa	-4.635539e-06
120	0xb73f082a	-1.1386388e-05
121	0x338f7ba6	6.681448e-08
122	0xac046f2f	-1.8820048e-12
123	0xb0bbda8d	-1.3668157e-09
124	0xaef2aefd	-1.103597e-10
125	0xaf096d6d	-1.2498953e-10
126	0xb9489dd8	-0.00019132288
127	0xb9c45331	-0.00037446016
128	0xb504ef69	-4.952222e-07
129	0xad7c9855	-1.4358366e-11
130	0xb37a662f	-5.8300596e-08
131	0xb1c5458a	-5.7413603e-09
132	0xb10fc5cc	-2.0921673e-09
133	0x358c31b9	1.0445284e-06
134	0xb480f1b0	-2.401771e-07
135	0xb243f83c	-1.1406936e-08
136	0x2cad6f5e	4.92932e-12
137	0xb0a0e1db	-1.1705724e-09
138	0x2e95187e	6.780086e-11
139	0x2e18068b	3.456661e-11
140	0x3c84f185	0.016228447
141	0x3a3c7dc1	0.00071903697
142	0xb84edd71	-4.932046e-05
143	0x32fe8d5a	2.9633771e-08
144	0xb601950d	-1.9309257e-06
145	0xb5ee1d5e	-1.7740929e-06
146	0xb539fd4e	-6.928648e-07
147	0x384077d6	4.5887973e-05
148	0xb8ef18ea	-0.00011401049
149	0x33f9a70d	1.16253524e-07
150	0x2d1dcfb8	8.97054e-12
151	0x3151de5a	3.0539895e-09
152	0x31311f91	2.5774833e-09
153	0x30d89bcc	1.5760349e-09
154	0x33a1d13a	7.535205e-08
155	0x33853e28	6.204601e-08
156	0x2de9ba44	2.6571752e-11
157	0x270e4a8c	1.974687e-15
158	0x2d33a622	1.0211861e-11
159	0xaacaecb9	-3.6046667e-13
160	0xac164763	-2.135591e-12
161	0xb4dbec74	-4.096397e-07
162	0xb588eb38	-1.0201247e-06
163	0xaf5ed3e6	-2.0266064e-10
164	0x28c73118	2.211473e-14
165	0xaeed12cc	-1.0780851e-10
166	0xac131d6f	-2.0906295e-12
167	0xac079e7b	-1.9272628e-12
168	0x328683c8	1.565958e-08
169	0xb4e77a47	-4.3116071e-07
170	0x2fea5825	4.2626982e-10
171	0x29f4120a	1.0838906e-13
172	0x2d29868e	9.636415e-12
173	0x2d88bb81	1.5544678e-11
174	0x2c7406e8	3.467832e-12
175	0xb96dccba	-0.00022678348
176	0xb9bd6e8e	-0.0003613126
177	0x34a51a7b	3.0752912e-07
178	0xacc82e88	-5.689508e-12
179	0xb2c2b932	-2.266879e-08
180	0xb2c3db1c	-2.2800627e-08
181	0x32cae9f9	2.3622293e-08
182	0x2ff1c983	4.3980827e-10
183	0xb189e18e	-4.0128674e-09
184	0x2c250614	2.3451284e-12
185	0x259c77ed	2.714295e-16
186	0x2a8c5123	2.4925296e-13
187	0x290c0f19	3.109934e-14
188	0x285531ca	1.18346715e-14
189	0x39db0d63	0.0004178091
190	0xba8e9944	-0.0010879417
191	0x3613cf2f	2.2025304e-06
192	0x2f66933a	2.0970684e-10
193	0xb4531b38	-1.9660808e-07
194	0x33070d0f	3.1444014e-08
195	0x32d19c36	2.4401839e-08
196	0x3a1eb4ad	0.00060541445
197	0xbac1f887	-0.0014798798
198	0x362be0af	2.5611769e-06
199	0x2f787167	2.2595757e-10
200	0xb3ea8592	-1.09207704e-07
201	0x33155602	3.476999e-08
202	0x3282923f	1.5200497e-08
203	0xb8894152	-6.544836e-05
204	0xba41ba45	-0.0007390122
205	0xb4813008	-2.406307e-07
206	0xac9ef701	-4.518053e-12
207	0xb112886d	-2.1323345e-09
208	0x30126815	5.32624e-10
209	0x30fdf642	1.8478163e-09
210	0xae22f6cb	-3.705373e-11
211	0xaf59b482	-1.9800164e-10
212	0xab3ed5ac	-6.779809e-13
213	0xa4018efe	-2.8093535e-17
214	0xa9da6dcb	-9.700191e-14
215	0xa832d2b6	-9.9266756e-15
216	0xa5bf4b75	-3.318435e-16
217	0x3d3a56c5	0.045492906
218	0x3d30abe4	0.043132678
219	0xb94b44c2	-0.00019385203
220	0x33cdd59d	9.5849124e-08
221	0xb689eb1d	-4.110289e-06
222	0xb6d9fd10	-6.4965643e-06
223	0xb7c6cad1	-2.3697883e-05
224	0x301a950f	5.62367e-10
225	0xb1917ac3	-4.234012e-09
226	0x2bede253	1.690268e-12
227	0x25d35841	3.6662469e-16
228	0x2a88e79d	2.4319167e-13
229	0xa8de3f22	-2.467433e-14
230	0x2a61b524	2.004686e-13
231	0x353a83f8	6.948244e-07
232	0xb6cb2ca9	-6.0550706e-06
233	0x30b3d057	1.3083178e-09
234	0x2a087587	1.2120002e-13
235	0x2d8c7c97	1.5971486e-11
236	0x2e0360a3	2.9871782e-11
237	0x2d2b1b90	9.726345e-12
238	0xb4880f3b	-2.5343056e-07
239	0xb67b69f0	-3.7463578e-06
240	0xb1009103	-1.8708881e-09
241	0xa9843f52	-5.872962e-14
242	0xaf430d25	-1.7739817e-10
243	0x38149686	3.5426136e-05
244	0xad30e526	-1.0055323e-11
245	0x35b72b99	1.3647251e-06
246	0xb811eb20	-3.478967e-05
247	0x336050e8	5.2227648e-08
248	0xad2d8f46	-9.8657246e-12
249	0x320e9440	8.299196e-09
250	0x30c5aac4	1.4382171e-09
251	0xb08a2741	-1.0051978e-09
252	0x36b410dc	5.3663807e-06
253	0xb85058be	-4.9673712e-05
254	0x321586fa	8.703632e-09
255	0x2bb5b9dc	1.291241e-12

bias f4 [256]
0	0x3201549c	7.528026e-09
1	0x2c9082b6	4.107238e-12
2	0x25251071	1.4317039e-16
3	0x2e5027e8	4.732917e-11
4	0xb537af30	-6.8427744e-07
5	0x30a61316	1.2083514e-09
6	0xa8f30d18	-2.6984098e-14
7	0x320e6c78	8.290151e-09
8	0x2486c3fb	5.844524e-17
9	0xb782cbe3	-1.559215e-05
10	0x33b2570e	8.304606e-08
11	0xb190a905	-4.210167e-09
12	0x33538ac4	4.9253472e-08
13	0xb2ab26c0	-1.9924641e-08
14	0xb2cdef85	-2.3974062e-08
15	0xae694517	-5.303943e-11
16	0x33b45b4f	8.398512e-08
17	0xafdb4c18	-3.9889936e-10
18	0xb2282183	-9.786507e-09
19	0x2fca1ed7	3.67655e-10
20	0xb708afe2	-8.147183e-06
21	0x31c04939	5.59626e-09
22	0x2d6a6ddf	1.3325756e-11
23	0xad887e93	-1.551762e-11
24	0x2d94aac6	1.690149e-11
25	0x33e2e545	1.0565649e-07
26	0x2a54ddb8	1.8906307e-13
27	0x33a77f40	7.79969e-08
28	0x34d35f99	3.937137e-07
29	0x33b4a117	8.411205e-08
30	0xa8e76864	-2.5691424e-14
31	0xb82a33f9	-4.057956e-05
32	0x29818ec4	5.753517e-14
33	0x2f0962fe	1.2495247e-10
34	0xaf15a4c1	-1.3610003e-10
35	0x30d4bcc8	1.5478685e-09
36	0x2f6039f4	2.039327e-10
37	0xb38566d9	-6.212003e-08
38	0x2dae6e17	1.98304e-11
39	0xb1dc1789	-6.4055183e-09
40	0xb4982ed7	-2.8346287e-07
41	0x253aa4b2	1.6188729e-16
42	0xaf50ee45	-1.900214e-10
43	0x2fa5a604	3.0131286e-10
44	0x2a891fc4	2.435813e-13
45	0xae845e13	-6.019376e-11
46	0xb1fe068b	-7.393117e-09
47	0x2e987bca	6.934149e-11
48	0xb615a42b	-2.2298289e-06
49	0x343a5755	1.7354371e-07
50	0xaea9c473	-7.7201266e-11
51	0x2a900d57	2.5588795e-13
52	0xb73e68d2	-1.1349288e-05
53	0xab084058	-4.84062e-13
54	0xb83c19a7	-4.4846583e-05
55	0xb2b72068	-2.131874e-08
56	0xb4cc3ad1	-3.8040756e-07
57	0xb3840f2a	-6.149487e-08
58	0xb4a02165	-2.982662e-07
59	0xaa05f47c	-1.1897596e-13
60	0xab3f1a94	-6.7893716e-13
61	0x3082cdeb	9.51727e-10
62	0xa98a4224	-6.139905e-14
63	0x3517dcd9	5.657326e-07
64	0xb2a7ee16	-1.9549628e-08
65	0x2f09cab1	1.2532088e-10
66	0x31cb6961	5.9200578e-09
67	0x321d907a	9.171453e-09
68	0x2a80cbf7	2.2878897e-13
69	0x33158d5d	3.4820335e-08
70	0x2c9027b6	4.097135e-12
71	0x3146a8ec	2.8908813e-09
72	0x2b060721	4.7616257e-13
73	0xaf152baa	-1.3566984e-10
74	0x35b475bc	1.344531e-06
75	0xb441a99d	-1.803623e-07
76	0x2e164991	3.417139e-11
77	0x31dc7998	6.4166663e-09
78	0xaf713b6f	-2.1939937e-10
79	0x32d4ceaf	2.4774037e-08
80	0x3501b47f	4.83189e-07
81	0xb831629a	-4.229192e-05
82	0xb81c89f1	-3.7321766e-05
83	0x2ae75699	4.1093932e-13
84	0x3897239d	7.2068746e-05
85	0xa4b4e5f9	-7.8452145e-17
86	0xb30bceea	-3.2551647e-08
87	0xa2d9bb5d	-5.9016346e-18
88	0xb5a81f51	-1.252609e-06
89	0xb45546d0	-1.9862932e-07
90	0x9e1ee152	-8.4110455e-21
91	0xabb8bcb5	-1.3126363e-12
92	0x34c2ed6b	3.630806e-07
93	0xb71672e5	-8.967448e-06
94	0xb4a0cf56	-2.995318e-07
95	0xb229e961	-9.890159e-09
96	0xb2a318ee	-1.8987034e-08
97	0xb722a625	-9.694636e-06
98	0xb5419bf0	-7.212502e-07
99	0x31407067	2.800357e-09
100	0x2e27b5ca	3.8132865e-11
101	0x311a69d6	2.247011e-09
102	0xb24aec17	-1.1811628e-08
103	0x1df7128c	6.5399533e-21
104	0x320067ab	7.474152e-09
105	0x3050466c	7.5770035e-10
106	0x2d444416	1.1156428e-11
107	0x332aad7d	3.9738996e-08
108	0x32adba76	2.0224643e-08
109	0x2f3c0e8c	1.7103668e-10
110	0xb2349a5f	-1.0512479e-08
111	0xb7c26e02	-2.3177829e-05
112	0x2e13ac7f	3.3577138e-11
113	0x3220137d	9.317657e-09
114	0xb460373b	-2.0881718e-07
115	0x37124a9c	8.7196495e-06
116	0xaff9ceac	-4.5439685e-10
117	0xb6c672ec	-5.9142385e-06
118	0x300dfea7	5.1657384e-10
119	0x2bf2b05d	1.7244085e-12
120	0x3322bfd6	3.7893038e-08
121	0xa6ba4c17	-1.2926967e-15
122	0x2eacd1c7	7.8589184e-11
123	0xb34a47de	-4.7097153e-08
124	0x312d261d	2.5196478e-09
125	0xb733c9d3	-1.0716222e-05
126	0x34c99be9	3.7552607e-07
127	0xaadca437	-3.9193797e-13
128	0x3350b2ff	4.859157e-08
129	0x33d3aa81	9.8564676e-08
130	0x2c2c19a3	2.4456901e-12
131	0x25a3a01a	2.8384482e-16
132	0xad9e35da	-1.7986435e-11
133	0x2fd2a2b8	3.8314396e-10
134	0x25d40e3a	3.6785778e-16
135	0xa74899a9	-2.7838875e-15
136	0x33a0782f	7.472442e-08
137	0x27638d18	3.1579065e-15
138	0x33138679	3.4348407e-08
139	0x325b19aa	1.2753313e-08
140	0xada5bb76	-1.8841578e-11
141	0x2f5b58f2	1.9949534e-10
142	0xab1ca9f7	-5.5658207e-13
143	0xa57d6ff3	-2.1982182e-16
144	0x3404df7f	1.2374765e-07
145	0xb80f68c9	-3.4191446e-05
146	0xb1de0990	-6.4621375e-09
147	0xb70367ec	-7.832405e-06
148	0xabe27500	-1.609074e-12
149	0x36249fba	2.4530877e-06
150	0x21ede419	1.6120122e-18
151	0xb7f4d1e8	-2.9184812e-05
152	0xb1e86103	-6.7631176e-09
153	0x309bf58a	1.1347521e-09
154	0x2ead3a2b	7.877462e-11
155	0xa5b71ab1	-3.1763526e-16
156	0x2f4330c6	1.7752474e-10
157	0xa735e614	-2.5243522e-15
158	0x38c004c3	9.1561604e-05
159	0xa478a965	-5.391991e-17
160	0x2bc0dd51	1.3703848e-12
161	0x29c69a6a	8.819753e-14
162	0xb42614ca	-1.5467518e-07
163	0x35016438	4.820208e-07
164	0xa9fb9bed	-1.1173688e-13
165	0x333db30e	4.416784e-08
166	0xb80eec58	-3.407555e-05
167	0x2c0b2391	1.9772831e-12
168	0xa65c5702	-7.644575e-16
169	0xb73d02d2	-1.12659345e-05
170	0x3086b039	9.799869e-10
171	0x2901d126	2.882516e-14
172	0x315b92d2	3.1952152e-09
173	0x29a004ae	7.106239e-14
174	0xa8dd028f	-2.4537038e-14
175	0xb3d2040e	-9.7796246e-08
176	0xa6bc7943	-1.3077989e-15
177	0x2e4200ef	4.4111322e-11
178	0x309d5c7d	1.144954e-09
179	0x2f11d798	1.3264267e-10
180	0xb38981ce	-6.403171e-08
181	0xb736a674	-1.0886801e-05
182	0x37f8a8f0	2.9642571e-05
183	0x324c1e9c	1.1881323e-08
184	0xab3bcf68	-6.672358e-13
185	0x2cc87c3d	5.698135e-12
186	0x3531f8f8	6.6299935e-07
187	0xb2fa8845	-2.9165799e-08
188	0x34762963	2.2925592e-07
189	0x30d36a1e	1.5382431e-09
190	0xa7156f77	-2.073833e-15
191	0x35b528a8	1.3497383e-06
192	0x2cffdda1	7.2721417e-12
193	0xb6ecb790	-7.0547176e-06
194	0x310954d3	1.998434e-09
195	0x2e602a28	5.0969146e-11
196	0x266da58f	8.2450266e-16
197	0x3203fc21	7.682531e-09
198	0x2d846e1e	1.5055564e-11
199	0xb6875724	-4.033458e-06
200	0xa62f7665	-6.0875776e-16
201	0x3112c6f3	2.1358886e-09
202	0x2fb4667d	3.2814632e-10
203	0xb1a995a0	-4.9355577e-09
204	0x2f459408	1.7969637e-10
205	0xb184cad4	-3.8647645e-09
206	0xa408236f	-2.9520313e-17
207	0x32183714	8.860088e-09
208	0xa3bc6577	-2.0425973e-17
209	0x28360f1c	1.0106306e-14
210	0x301f2e4b	5.790965e-10
211	0xb7942dc2	-1.7664282e-05
212	0xb68f223f	-4.265719e-06
213	0xb723550b	-9.735358e-06
214	0x30a4c8b3	1.1989613e-09
215	0x2a5101c8	1.8563547e-13
216	0xa9be7fc1	-8.459857e-14
217	0x305951e2	7.90605e-10
218	0x2d1438d5	8.425445e-12
219	0xb4e91f45	-4.3422384e-07
220	0xb04daa2a	-7.4820383e-10
221	0x3569bbfe	8.707283e-07
222	0x31d90f31	6.3172583e-09
223	0x2c60e67d	3.1960261e-12
224	0x31472e9e	2.898481e-09
225	0xae1fc9e5	-3.6331733e-11
226	0x2924b17d	3.6569262e-14
227	0x2a66d5e3	2.050231e-13
228	0x220c2e30	1.899799e-18
229	0x2c678e24	3.2905978e-12
230	0x25da2444	3.7841546e-16
231	0xa86f0512	-1.3268265e-14
232	0xb1e2d232	-6.601362e-09
233	0xb2ac3b9b	-2.005054e-08
234	0x2b9b5de9	1.1039478e-12
235	0x33f4e577	1.1403875e-07
236	0x32e83f89	2.7037247e-08
237	0xa9bf897c	-8.5059536e-14
238	0x351219ad	5.44266e-07
239	0x2ebba882	8.5337085e-11
240	0x3350a19e	4.8575764e-08
241	0xb27f5870	-1.4863062e-08
242	0xb5477e4b	-7.431706e-07
243	0x2f450475	1.7918629e-10
244	0xa888041a	-1.5100812e-14
245	0x336fee39	5.5863186e-08
246	0x26ad0e9b	1.2008245e-15
247	0x35c6cdfa	1.4812097e-06
248	0xb1069ffa	-1.9590503e-09
249	0xb63c9370	-2.8100003e-06
250	0x311e7066	2.3055917e-09
251	0xa4864e9a	-5.824639e-17
252	0x2633145d	6.21307e-16
253	0xadbd1d8f	-2.1499939e-11
254	0xb777becd	-1.47667715e-05
255	0xa69b6164	-1.0781683e-15

weight f4 [32, 256]
0	0xb7d49ab5	-2.534441e-05
1	0x34030e4e	1.220553e-07
2	0x2b59584f	7.721644e-13
3	0x352891d2	6.2797073e-07
4	0x3bd2a62f	0.006428502
5	0x3726706f	9.920549e-06
6	0xad014f2a	-7.350379e-12
7	0xb59a4462	-1.1493796e-06
8	0x2b3416ef	6.3980673e-13
9	0xb986c4cc	-0.00025705097
10	0xb998d6ed	-0.0002915183
11	0x3808f843	3.265614e-05
12	0x3a7241a8	0.0009241351
13	0x358337f3	9.776544e-07
14	0x38bd2203	9.0185575e-05
15	0x346cb6c9	2.204571e-07
16	0xb7b7fda5	-2.1933412e-05
17	0x34c0e69e	3.5930583e-07
18	0x38a444bb	7.8329314e-05
19	0xb3fa13a9	-1.1645108e-07
20	0x3acdc43f	0.0015698745
21	0x382e4eab	4.1558098e-05
22	0xb501c929	-4.834897e-07
23	0x33f4fb99	1.1407901e-07
24	0x34b6578d	3.3963843e-07
25	0x3a311be6	0.00067561714
26	0xaf4813fc	-1.8196994e-10
27	0xb82b162a	-4.079022e-05
28	0xb86195be	-5.378364e-05
29	0x397090d0	0.0002294213
30	0x2f4bfe70	1.8553137e-10
31	0xbb034d88	-0.0020035226
32	0xaf6e426c	-2.1669572e-10
33	0x33555faa	4.9679933e-08
34	0x3444ff4f	1.8346803e-07
35	0xb6e2552a	-6.7452393e-06
36	0x37dde324	2.6451024e-05
37	0x3a04f9ea	0.00050726405
38	0x35820704	9.687797e-07
39	0x3a95712b	0.0011401525
40	0x3b10e6bb	0.0022110182
41	0x2c547abb	3.0195141e-12
42	0x3592ad48	1.0928279e-06
43	0x378b6d4f	1.6620992e-05
44	0x31cb8c8e	5.924057e-09
45	0x36259a79	2.467683e-06
46	0x379994f5	1.8308385e-05
47	0xb8dd246b	-0.000105448846
48	0x39b2c854	0.00034100062
49	0x3a1d20ad	0.0005993944
50	0xb319529b	-3.5698218e-08
51	0x31ea23cb	6.8143655e-09
52	0xbb0a1e0d	-0.002107504
53	0xb3cc240d	-9.506048e-08
54	0xbb481cf0	-0.0030534826
55	0xb53c530b	-7.01563e-07
56	0x3982e662	0.0002496718
57	0x35baf54a	1.3929468e-06
58	0xb697b6b9	-4.5214224e-06
59	0x30ccdf2a	1.4906381e-09
60	0xb3f4190c	-1.13666914e-07
61	0x35b37ba7	1.3372527e-06
62	0x31b371b1	5.222511e-09
63	0xba76b891	-0.0009411658
64	0x3712956d	8.737069e-06
65	0x346fd6e9	2.2336793e-07
66	0xb859b621	-5.1906452e-05
67	0xb875bbcc	-5.858745e-05
68	0xb0471b44	-7.2434525e-10
69	0x3a4d239c	0.00078254356
70	0x34a1a260	3.010673e-07
71	0xb79b030c	-1.8478859e-05
72	0x331d4108	3.6613557e-08
73	0x3738e441	1.1020399e-05
74	0x3adfc646	0.001707264
75	0x35a3f7a4	1.2216519e-06
76	0xb7ac73cf	-2.0557925e-05
77	0x37b45207	2.1495869e-05
78	0x36ceb207	6.1600035e-06
79	0xbaf506a3	-0.0018693994
80	0xbbfeb4f6	-0.007773037
81	0xbaf5defe	-0.0018758473
82	0xba81bde2	-0.0009898508
83	0xb315c51e	-3.4871043e-08
84	0xbb3839d2	-0.0028110635
85	0xa8801ed4	-1.4224224e-14
86	0x356a409a	8.72658e-07
87	0x29d059fa	9.252664e-14
88	0x3b26fb1e	0.0025479267
89	0x3b333dfe	0.0027350183
90	0x23cc7f83	2.2171728e-17
91	0x335eebb8	5.1902788e-08
92	0xb80fda48	-3.4297147e-05
93	0xbafc92dc	-0.0019269842
94	0x38eae1f4	0.000112000766
95	0x38795585	5.9445872e-05
96	0xbba03be4	-0.004889952
97	0x3a19099b	0.0005837918
98	0xbbebca11	-0.007195719
99	0x37873f2a	1.6122667e-05
100	0xb63ec45c	-2.8426502e-06
101	0x377305cf	1.4485281e-05
102	0x39a3663f	0.00031165962
103	0x26d92552	1.5067515e-15
104	0x3a1dc3fc	0.00060182787
105	0x35c90c82	1.4979307e-06
106	0x353d83c7	7.059975e-07
107	0x37c012a6	2.2896867e-05
108	0xb7179300	-9.0345275e-06
109	0xb3df2561	-1.0391046e-07
110	0x364fe222	3.097703e-06
111	0x3a011397	0.00049238786
112	0x34aa3200	3.1701347e-07
113	0xb59ba18e	-1.1595419e-06
114	0xbad82da1	-0.0016493091
115	0xba272c55	-0.00063771504
116	0x3779b444	1.4883528e-05
117	0xba4d729a	-0.00078372064
118	0x36cfd391	6.1937103e-06
119	0xb58d83e7	-1.0543707e-06
120	0xb806be04	-3.2125055e-05
121	0x2ccb8239	5.7840646e-12
122	0xb34e55b7	-4.804107e-08
123	0xb6abae95	-5.116521e-06
124	0x37018914	7.720915e-06
125	0x3aa140ac	0.0012302599
126	0xb7ebbf41	-2.8103243e-05
127	0x33f4d192	1.1400256e-07
128	0x38fac4f4	0.00011957614
129	0xb82a8449	-4.065436e-05
130	0x2fce629c	3.7541248e-10
131	0xacb9f08e	-5.284723e-12
132	0xb3aabbe9	-7.9504225e-08
133	0xb7bf2f7b	-2.2791084e-05
134	0x2a141318	1.3151665e-13
135	0xaba01ad4	-1.137613e-12
136	0xba11b012	-0.00055575476
137	0xad825452	-1.4816735e-11
138	0xbbf9e800	-0.0076265335
139	0x3a9a86b2	0.001178941
140	0xb3a11981	-7.501786e-08
141	0xb6c19c1f	-5.770023e-06
142	0x315471d9	3.0914775e-09
143	0xad1973b4	-8.722734e-12
144	0x3a3c6f01	0.0007188172
145	0xbb3819ec	-0.0028091623
146	0x38761cd9	5.8677837e-05
147	0xbb454f55	-0.00301071
148	0x340b93f4	1.2999209e-07
149	0xba870e64	-0.0010303971
150	0x297b9625	5.5863425e-14
151	0xb9b9c0bf	-0.00035429557
152	0x36ee006d	7.0930023e-06
153	0xb7182847	-9.069284e-06
154	0x32ca424a	2.354604e-08
155	0xadb5f986	-2.0688128e-11
156	0xb5d3948a	-1.5763956e-06
157	0xb282e35a	-1.523738e-08
158	0xb2cfccdd	-2.4191133e-08
159	0x2bd3bf73	1.504559e-12
160	0xb52aaf9b	-6.3585475e-07
161	0xaece0ad8	-9.369722e-11
162	0x3a8f85b3	0.001094988
163	0xba4a33ef	-0.0007713427
164	0x2e38d6b4	4.202745e-11
165	0xb6da592c	-6.5072873e-06
166	0xbae6b15c	-0.0017600465
167	0x33e478e2	1.0639066e-07
168	0x2eabf4ea	7.819685e-11
169	0xbc0b2aa5	-0.008494054
170	0xb5e66c9e	-1.7167947e-06
171	0xafd67ee3	-3.9016532e-10
172	0x3891a576	6.944958e-05
173	0xb0c2a4aa	-1.4162158e-09
174	0x2f11f51e	1.3274756e-10
175	0x389ba887	7.4223666e-05
176	0x2dbf0684	2.171708e-11
177	0xb7016a9d	-7.713822e-06
178	0x3749e0d1	1.2032878e-05
179	0xb38888d9	-6.357886e-08
180	0x3974b1e5	0.00023335924
181	0xbb33459e	-0.0027354727
182	0x32101955	8.387663e-09
183	0xb89754e0	-7.21605e-05
184	0x3215e76f	8.725563e-09
185	0xb28d794b	-1.6469718e-08
186	0x39e3fba3	0.00043484298
187	0x35b0c47d	1.3170207e-06
188	0xbc1177fb	-0.008878703
189	0xb8e1c60b	-0.000107657244
190	0xac1b8ccb	-2.210498e-12
191	0xba942e5d	-0.0011305321
192	0x33ddf12a	1.0334982e-07
193	0xbb920a9d	-0.0044568316
194	0xb6526e3e	-3.1356608e-06
195	0xb5c07bf9	-1.4341196e-06
196	0x2d6f9ed4	1.3620844e-11
197	0xb642f255	-2.9049309e-06
198	0x356440cc	8.503091e-07
199	0x3a566a7f	0.00081793213
200	0x2d2f7e04	9.975579e-12
201	0xb60e9ae6	-2.1249812e-06
202	0x3528bfac	6.2863796e-07
203	0x38d4fd53	0.00010156133
204	0x33a676de	7.751599e-08
205	0xb82f1df4	-4.1751147e-05
206	0x27df4d96	6.1979052e-15
207	0xb7deff73	-2.6583415e-05
208	0x2b39df84	6.6035393e-13
209	0xb1662083	-3.3487886e-09
210	0x365f3bc1	3.326437e-06
211	0xb9f3df4f	-0.0004651495
212	0x3a4c5685	0.0007794875
213	0x3b137b75	0.0022504006
214	0x3609d0b7	2.053608e-06
215	0x308c28da	1.0197951e-09
216	0x2ff94306	4.534046e-10
217	0xb65767ac	-3.2097842e-06
218	0xb5ac54b3	-1.2839649e-06
219	0x3b364231	0.002781045
220	0xbb27af2b	-0.0025586586
221	0xb9a6cf0e	-0.00031816255
222	0x37c1b86b	2.309327e-05
223	0x32f233eb	2.8196117e-08
224	0xb5165992	-5.6009696e-07
225	0x320ce4b1	8.201071e-09
226	0xaf27f679	-1.5276126e-10
227	0xb0294ff9	-6.159549e-10
228	0x28c19db0	2.149569e-14
229	0xb280fc9f	-1.501604e-08
230	0x2b12ef25	5.22015e-13
231	0x300445b3	4.812037e-10
232	0x33e81f36	1.0809019e-07
233	0xb843fab2	-4.67251e-05
234	0x3188d56e	3.982385e-09
235	0x39a703f7	0.00031855676
236	0x37f2fe75	2.8967139e-05
237	0xaebe2541	-8.646817e-11
238	0xb7ed9eb7	-2.8326509e-05
239	0xb4ea5899	-4.365036e-07
240	0xb7f504b6	-2.920847e-05
241	0xb7ead621	-2.7994685e-05
242	0x38c6b8f1	9.475824e-05
243	0xb42d02f8	-1.611296e-07
244	0xacfe8a96	-7.2345003e-12
245	0xb7bb4d98	-2.232827e-05
246	0xaf3a25be	-1.693001e-10
247	0x3b3bc0ca	0.0028648847
248	0x3798e644	1.8227038e-05
249	0xba191b80	-0.00058405846
250	0xb6693cfe	-3.4755208e-06
251	0x2ba12e86	1.1452651e-12
252	0x2d6eb1c1	1.3568203e-11
253	0x341f8816	1.4857537e-07
254	0xbaeec598	-0.0018216847
255	0xafa239d6	-2.9508723e-10

bias f4 [32]
0	0xb8648d99	-5.449131e-05
1	0x3930a991	0.00016847836
2	0x3403bf20	1.2269857e-07
3	0xb7fc0b29	-3.0045938e-05
4	0xb8828dce	-6.225296e-05
5	0x35b395b6	1.3380111e-06
6	0xb46dd948	-2.2151391e-07
7	0xb6e6357d	-6.860761e-06
8	0xb606dd8a	-2.0096509e-06
9	0xb6f4e9f8	-7.299004e-06
10	0xb5a3cd31	-1.2204165e-06
11	0xb77b7de8	-1.4990081e-05
12	0x343fb927	1.7855619e-07
13	0x3623629c	2.434629e-06
14	0xb7868f2e	-1.6040718e-05
15	0xb9eafec4	-0.00044821773
16	0xb51db36e	-5.874816e-07
17	0x36cfeaea	6.1964283e-06
18	0xb2947bf4	-1.7285835e-08
19	0xb90aedcc	-0.00013249292
20	0x36ed0414	7.063625e-06
21	0xb6117861	-2.1676753e-06
22	0xb5d7d058	-1.6079384e-06
23	0x36784d4b	3.699987e-06
24	0x33aaca7b	7.953073e-08
25	0xb7f5742a	-2.9260369e-05
26	0xb601da0b	-1.9349416e-06
27	0xb7d537e0	-2.5417597e-05
28	0xb3bb136b	-8.711398e-08
29	0x331919a6	3.5646416e-08
30	0x370716b3	8.051912e-06
31	0xb2f0c840	-2.803074e-08

weight f4 [10, 32]
0	0xb859d258	-5.193273e-05
1	0xb9eb8dd4	-0.00044928363
2	0xb94e37fc	-0.00019666547
3	0xb8a89707	-8.038995e-05
4	0xb88f4e12	-6.833313e-05
5	0x37a8d3ac	2.0125728e-05
6	0xb77840d1	-1.4797043e-05
7	0xb6a765d5	-4.9888426e-06
8	0xbaa117ed	-0.0012290456
9	0xb66df5db	-3.5458859e-06
10	0x375b1712	1.3058789e-05
11	0xb893c279	-7.0457296e-05
12	0x383eb219	4.5465396e-05
13	0xb78920ab	-1.6346885e-05
14	0xb8485ae1	-4.7768353e-05
15	0xb908bb0c	-0.00013039651
16	0xb420d905	-1.4980112e-07
17	0xbb2fd712	-0.0026831073
18	0xb9219c0c	-0.00015412288
19	0xba158309	-0.00057034247
20	0x3585257e	9.920184e-07
21	0xb8a0ede7	-7.673707e-05
22	0x3300ece4	3.0017773e-08
23	0xb7410ed3	-1.1507148e-05
24	0xb53564f8	-6.7574683e-07
25	0xbb0b39eb	-0.0021244239
26	0x359924a7	1.1410056e-06
27	0xba21d049	-0.00061726995
28	0x364b9ff1	3.0342455e-06
29	0xb7e392e9	-2.712892e-05
30	0x3867a4e7	5.522827e-05
31	0xb518b61c	-5.6889417e-07
32	0x3b18048b	0.0023196067
33	0xb90b140b	-0.0001326354
34	0xb7b362e5	-2.1384514e-05
35	0x3c24d951	0.010061578
36	0xb977103c	-0.00023561803
37	0x397aa322	0.0002390263
38	0x35a14166	1.2014468e-06
39	0x3878c837	5.9314272e-05
40	0x350cf734	5.251379e-07
41	0x38145d87	3.5373054e-05
42	0x3ae66a10	0.0017579217
43	0x3bb45c06	0.005504134
44	0xb881e930	-6.194634e-05
45	0x3840bffb	4.5955163e-05
46	0x3b3e5e29	0.0029047823
47	0x3a925465	0.0011164068
48	0xb685629c	-3.9751885e-06
49	0x381e4c0c	3.774096e-05
50	0xb6af0240	-5.2156684e-06
51	0xb8975565	-7.216147e-05
52	0x36313fe0	2.6412235e-06
53	0xb7803684	-1.5284175e-05
54	0x3694b82f	4.4321855e-06
55	0xb6a0b606	-4.789562e-06
56	0xb55c8784	-8.215359e-07
57	0xb95d975c	-0.00021132588
58	0xb845f16b	-4.7193298e-05
59	0xb91c41d6	-0.00014901845
60	0xb4f08dce	-4.480666e-07
61	0xb82607f2	-3.9584884e-05
62	0x39ca4260	0.00038577896
63	0xb4fa87ab	-4.666484e-07
64	0x3b9ef47d	0.0048509226
65	0x3c4ebdef	0.012618526
66	0x3bf82e68	0.0075738914
67	0x3c3462e7	0.011009908
68	0x3d17ef18	0.037093252
69	0xbb595785	-0.0033163738
70	0xb8e4c196	-0.000109079454
71	0x3b4f6a48	0.0031649042
72	0x3c6c3d95	0.014418979
73	0xbb77ec5d	-0.0037830092
74	0x3a48f217	0.0007665469
75	0x3c2b7e39	0.010467106
76	0xbb12d74d	-0.0022406161
77	0xba00a8ab	-0.0004907946
78	0x3be9c685	0.007134261
79	0xbd2698d1	-0.04067308
80	0xba807c45	-0.000980266
81	0xbb28b54f	-0.0025742834
82	0xbab46a62	-0.0013764615
83	0x3cee14af	0.029062597
84	0xb9da94f7	-0.00041691188
85	0xbbe41da6	-0.006961542
86	0xba5d818e	-0.0008449786
87	0xbaa77e26	-0.0012778684
88	0xb7e6974f	-2.7488595e-05
89	0x3d1dbf0f	0.038512286
90	0xb9c86ba8	-0.00038227183
91	0x3beaeab0	0.00716909
92	0x3b26f0d7	0.0025473142
93	0xb80fa042	-3.424311e-05
94	0xbb7e6ef8	-0.0038823467
95	0xb841b079	-4.617914e-05
96	0x379e5a70	1.8877181e-05
97	0x372ea42c	1.0409432e-05
98	0xb2bc5d28	-2.1928443e-08
99	0x38246f66	3.9204395e-05
100	0x37937d0c	1.7581995e-05
101	0x38469c94	4.7352703e-05
102	0x3490597e	2.6887204e-07
103	0xb8dffb89	-0.00010680321
104	0x35bfd2cc	1.4291959e-06
105	0x370f5f16	8.545603e-06
106	0x35ef7f6a	1.784397e-06
107	0x3865af20	5.4760952e-05
108	0xbb0abb06	-0.0021168604
109	0x3745a363	1.17801565e-05
110	0x37f79ecc	2.951864e-05
111	0xb8e11049	-0.000107318694
112	0x34c58c26	3.679608e-07
113	0x36e69282	6.87159e-06
114	0x349ead7c	2.955602e-07
115	0x37516009	1.2479731e-05
116	0x361f8db3	2.3775326e-06
117	0x359ff831	1.1918656e-06
118	0x3613d817	2.2030488e-06
119	0x35f0f624	1.795303e-06
120	0x34381b3b	1.7146242e-07
121	0x37908438	1.7227707e-05
122	0x364d2819	3.057072e-06
123	0x372d499f	1.0328745e-05
124	0x36e27e3b	6.75002e-06
125	0x36219bcb	2.4081553e-06
126	0xb5af4220	-1.3057761e-06
127	0x32a3db8d	1.9075538e-08
128	0xb9235ea1	-0.00015580143
129	0x39752636	0.00023379255
130	0xb72eb0bb	-1.04123565e-05
131	0xbb044e4a	-0.0020188265
132	0x39b57a7e	0.00034614274
133	0x3a8d9d2d	0.0010804288
134	0x3692714f	4.36433e-06
135	0x3baa8d3c	0.0052048247
136	0x382bbdff	4.0946525e-05
137	0x389b4003	7.402899e-05
138	0x388fc59b	6.855578e-05
139	0xbb1cb43f	-0.0023911146
140	0x34d35370	3.936252e-07
141	0x389c9b29	7.4675605e-05
142	0x3a5771c3	0.0008218551
143	0xba924371	-0.0011159015
144	0x3700a8e0	7.668714e-06
145	0x38e49730	0.00010900048
146	0x372e8bd9	1.0403769e-05
147	0x39965f41	0.000286812
148	0x37ea1719	2.790573e-05
149	0x383c3f75	4.4881792e-05
150	0x368cb900	4.193862e-06
151	0x37df99ac	2.665523e-05
152	0xb519b65c	-5.726231e-07
153	0x39a4132f	0.0003129481
154	0x38a465a2	7.83906e-05
155	0x399b16a9	0.00029580787
156	0xb63b29f0	-2.7889582e-06
157	0x3891ea9d	6.957839e-05
158	0x3995b7df	0.0002855649
159	0x358ae5e6	1.034871e-06
160	0x3bb0dfd3	0.0053977757
161	0x3cbdc70e	0.023166206
162	0xbbb990ea	-0.005663027
163	0x3c25772f	0.010099216
164	0x3cba4538	0.022738084
165	0xbb5377f3	-0.003226754
166	0x395f8ad7	0.00021318659
167	0x3b38311d	0.0028105446
168	0xbb8ee092	-0.004360267
169	0x3b28efbc	0.0025777658
170	0x3a9a3d17	0.0011767474
171	0x3c2baecf	0.010478689
172	0x3a7eb7ef	0.00097167393
173	0xba67c762	-0.0008841661
174	0x3bf86520	0.0075804144
175	0xbd74af7a	-0.05973766
176	0x3a91fa38	0.0011137193
177	0x3cc4e8ae	0.024036732
178	0x3ab3c6cf	0.0013715866
179	0x3d055f72	0.032561727
180	0xb7939318	-1.7592261e-05
181	0x3c1b633d	0.0094841095
182	0x3ace76e9	0.0015751991
183	0xbab0f65f	-0.0013501159
184	0xb8615d40	-5.3731026e-05
185	0x3d043980	0.0322814
186	0x3b0b3aa8	0.0021244679
187	0x3d08c4b7	0.033390727
188	0xbaf4175d	-0.0018622685
189	0x3bbba19b	0.005726052
190	0xbb52d7b5	-0.0032172028
191	0x38b0a7b8	8.423574e-05
192	0xbb998298	-0.0046847574
193	0xba78b1e8	-0.00094869593
194	0xba36eddf	-0.00069781946
195	0xbc275de4	-0.010215256
196	0xbc02c53d	-0.007981596
197	0x3b61d48d	0.0034458966
198	0x39a389da	0.0003119249
199	0xbb64ea1a	-0.0034929574
200	0x3b83ff47	0.004028234
201	0x3a8bf2ee	0.0010677257
202	0xba2de8dd	-0.00066341256
203	0xbc3531c4	-0.011059228
204	0xba8b5ef2	-0.0010633154
205	0x3a50056c	0.0007935378
206	0xbbd69ebd	-0.006549685
207	0x3d1c3323	0.038134705
208	0x39b333e5	0.00034180205
209	0x3b09365c	0.0020936942
210	0x39e5eb2e	0.00043853506
211	0x3c94336a	0.018090922
212	0x39a93cbf	0.0003227945
213	0x3bb562a5	0.005535441
214	0x3a85a54d	0.0010196358
215	0x398baadf	0.00026639455
216	0x3800dd9d	3.072397e-05
217	0x3bb47926	0.005507606
218	0x3ada6c19	0.0016664296
219	0x3c0094b3	0.007847953
220	0x391c3e80	0.00014900602
221	0x3ba7f264	0.0051253308
222	0x3bae1d68	0.005313564
223	0x38b16087	8.457997e-05
224	0x3aa78eab	0.0012783607
225	0x399d22ec	0.00029971392
226	0xb727f82f	-1.001176e-05
227	0x3a957cb9	0.0011404968
228	0x3a012685	0.00049266993
229	0x3b37a412	0.0028021378
230	0x3701afa3	7.729893e-06
231	0x3909a2ff	0.00013126059
232	0x381ac3d4	3.689884e-05
233	0x399b0223	0.00029565496
234	0xb83f69e7	-4.5636578e-05
235	0x39ca9440	0.00038638897
236	0xb5829e49	-9.731822e-07
237	0x39b94056	0.00035333884
238	0x3af899d3	0.0018966742
239	0xbb0b02bf	-0.0021211354
240	0x378d3d44	1.6837039e-05
241	0x38e6ef3c	0.000110118155
242	0x370b1bc4	8.29151e-06
243	0x39d0bb60	0.00039812457
244	0x38c0b1d5	9.188397e-05
245	0x380d8541	3.3741122e-05
246	0x36d95c40	6.4778433e-06
247	0x3885b016	6.374733e-05
248	0x35f469bf	1.8210193e-06
249	0x39f3a2ef	0.00046469967
250	0x38d0c0d5	9.954131e-05
251	0x39b7bb57	0.0003504406
252	0x364954ff	3.0000808e-06
253	0x389a29d3	7.3510826e-05
254	0xb9abe26a	-0.00032784353
255	0x3545fdab	7.3757354e-07

bias f4 [10]
0	0x3508974d	5.088412e-07
1	0x37112b9c	8.652827e-06
2	0x3b4b873f	0.0031055955
3	0xb5ce0ef2	-1.5352546e-06
4	0x38e9ae06	0.0001114272
5	0x3b844625	0.004036682
6	0xbb304212	-0.002689485
7	0x3a19c798	0.00058662286
8	0xb74e9aa7	-1.2314565e-05
9	0x35395025	6.9034496e-07

bias f4 [64]
0	0xb2a5462d	-1.924044e-08
1	0x9a12bfae	-3.034693e-23
2	0x26306905	6.1204594e-16
3	0xa9c061cd	-8.5434786e-14
4	0x2fb9bf5d	3.3787276e-10
5	0x34841fdb	2.4610094e-07
6	0x3537e16a	6.8500833e-07
7	0x32f252f3	2.8210229e-08
8	0x9e07c190	-7.186868e-21
9	0x33ba97ed	8.688935e-08
10	0x2420fda2	3.4909305e-17
11	0x2a1baabd	1.3826002e-13
12	0x24ac2589	7.4656696e-17
13	0x2e86b7ea	6.126284e-11
14	0x38fa7f75	0.0001194467
15	0xb6ffce27	-7.6235915e-06
16	0xa746bd5d	-2.7580674e-15
17	0xb3d89f09	-1.0087212e-07
18	0xb8604f51	-5.347963e-05
19	0x2aab5ba8	3.04393e-13
20	0x3241562e	1.12536735e-08
21	0x3712b31f	8.743983e-06
22	0xaba8fe42	-1.2007689e-12
23	0x2ab2f491	3.1788854e-13
24	0x327b2d29	1.4620391e-08
25	0xb73143d4	-1.0565815e-05
26	0x36afa43c	5.234526e-06
27	0xa14c0a68	-6.913166e-19
28	0xb6cdb37d	-6.1303713e-06
29	0x2aa03c2d	2.8463465e-13
30	0xb72f66d7	-1.0454757e-05
31	0x1b5bbd59	1.8176437e-22
32	0x2f03e37b	1.1995198e-10
33	0xad26fb77	-9.491844e-12
34	0x2d6a20aa	1.3308613e-11
35	0xb002c98f	-4.7580156e-10
36	0xaf07f41b	-1.2364902e-10
37	0xaa9e0207	-2.8067845e-13
38	0xaf7f687d	-2.3229237e-10
39	0x2cf092f2	6.8375245e-12
40	0xb2289f4a	-9.815105e-09
41	0x9a344954	-3.728236e-23
42	0x2a53bd90	1.8806332e-13
43	0x32a2d50c	1.8956165e-08
44	0xa70f830e	-1.9916281e-15
45	0xaf6355dd	-2.0676034e-10
46	0x33ecf14d	1.1033499e-07
47	0x34a5fba2	3.0916732e-07
48	0x2c8f4546	4.0719953e-12
49	0x362a475f	2.5373517e-06
50	0xb79a7c8f	-1.8416233e-05
51	0x2484cf2b	5.759683e-17
52	0x35089513	5.088088e-07
53	0x33be85c5	8.871897e-08
54	0xb400ed5d	-1.2007281e-07
55	0x3459e68e	2.0293575e-07
56	0x292c0ec2	3.8204472e-14
57	0xa417910f	-3.2865775e-17
58	0x305440ca	7.721722e-10
59	0x2554f324	1.8470448e-16
60	0xa25f5cf1	-3.0271338e-18
61	0x32946f35	1.7280039e-08
62	0x2ebc0267	8.549677e-11
63	0xa4508381	-4.52142e-17

weight f4 [64, 1]
0	0x800006ef	-2.487e-42
1	0x00001e48	1.0863e-41
2	0x80000182	-5.41e-43
3	0x000018cc	8.895e-42
4	0x80000160	-4.93e-43
5	0x000e87e8	1.334451e-39
6	0x8000016d	-5.11e-43
7	0x00000163	4.97e-43
8	0x89d98b26	-5.2371704e-33
9	0x0000941d	5.3133e-41
10	0x898528ed	-3.205707e-33
11	0x854cf831	-9.6376195e-36
12	0x8000015f	-4.92e-43
13	0x8564e90d	-1.0763313e-35
14	0x0ab07639	1.6992654e-32
15	0x00000163	4.97e-43
16	0x869efa65	-5.9800916e-35
17	0x80000162	-4.96e-43
18	0x800868d5	-7.7229e-40
19	0x80000044	-9.5e-44
20	0x80000001	-1e-45
21	0x00000164	4.99e-43
22	0x83eba043	-1.3848853e-36
23	0x12990e3d	9.6591675e-28
24	0x80000160	-4.93e-43
25	0x80006acf	-3.8316e-41
26	0x05237a81	7.6867236e-36
27	0x10e110e1	8.877286e-29
28	0x80000163	-4.97e-43
29	0x86ec6ba5	-8.89315e-35
30	0x80000162	-4.96e-43
31	0x00000165	5e-43
32	0x00000184	5.44e-43
33	0x00000163	4.97e-43
34	0x80000bad	-4.188e-42
35	0x00000169	5.06e-43
36	0x8fad27a7	-1.707439e-29
37	0x800006b9	-2.412e-42
38	0x1216cbb4	4.758274e-28
39	0x80000162	-4.96e-43
40	0x03f4edc2	1.4395618e-36
41	0x84ad6bd9	-4.0771147e-36
42	0x8b42dcbc	-3.7529103e-32
43	0x80000163	-4.97e-43
44	0x8000015f	-4.92e-43
45	0x00000dfb	5.015e-42
46	0x88e67992	-1.38712025e-33
47	0x09ab64af	4.1261435e-33
48	0x80000531	-1.862e-42
49	0x80116d9e	-1.600527e-39
50	0x00000161	4.95e-43
51	0x80000187	-5.48e-43
52	0x86943d1d	-5.576121e-35
53	0x09a80d42	4.0456996e-33
54	0x05e6a6f8	2.169043e-35
55	0x80000164	-4.99e-43
56	0x00000164	4.99e-43
57	0x867d8499	-4.768143e-35
58	0x0425c08d	1.9484072e-36
59	0x80edaedc	-2.182774e-38
60	0x05873812	1.2715936e-35
61	0x00000163	4.97e-43
62	0x0000019d	5.79e-43
63	0x00000164	4.99e-43

bias f4 [64]
0	0x00c4183f	1.8008455e-38
1	0x8003e15e	-3.56353e-40
2	0x80000d31	-4.732e-42
3	0x00001229	6.515e-42
4	0x80000535	-1.868e-42
5	0x826eb30b	-1.7536861e-37
6	0xb182d852	-3.8080907e-09
7	0x04423b33	2.2831773e-36
8	0xb9274f0f	-0.00015955813
9	0x32e6c6d8	2.6865948e-08
10	0x310cf7cd	2.051354e-09
11	0x800007e0	-2.825e-42
12	0xad10d281	-8.232194e-12
13	0x303b33ac	6.8103634e-10
14	0x0004ee01	4.52722e-40
15	0xa964358b	-5.067261e-14
16	0x26659a46	7.9659415e-16
17	0xaf6c717e	-2.1504395e-10
18	0x33739aaa	5.6718513e-08
19	0xb1081823	-1.9804325e-09
20	0xaf0b6c90	-1.2680546e-10
21	0x2030683f	1.4942272e-19
22	0xa80fdbde	-7.985771e-15
23	0xb3c233ad	-9.043229e-08
24	0x35122e69	5.4456774e-07
25	0x31266f04	2.4219284e-09
26	0x27014db0	1.794446e-15
27	0x0c740d3d	1.880106e-31
28	0xa966ec6e	-5.127533e-14
29	0x2cd7da21	6.1348847e-12
30	0xb5d3b5bc	-1.5773617e-06
31	0xb798eaa1	-1.822907e-05
32	0x272b70b0	2.3792105e-15
33	0xaa339fed	-1.5953879e-13
34	0x360b95f3	2.0799896e-06
35	0x00100ebe	1.474656e-39
36	0x0000158b	7.728e-42
37	0x2fca87fb	3.6840206e-10
38	0x2a9ef720	2.8237915e-13
39	0xad53345b	-1.2005587e-11
40	0x02218d85	1.1869026e-37
41	0x323b3cfe	1.0898701e-08
42	0x916df571	-1.8771636e-28
43	0x800040e9	-2.3285e-41
44	0x0dbc11d8	1.159069e-30
45	0x8002a602	-2.43223e-40
46	0x80170903	-2.115449e-39
47	0xb1fe2dd6	-7.397584e-09
48	0x31947343	4.3204706e-09
49	0xa66e923e	-8.277103e-16
50	0x373d91de	1.129924e-05
51	0xb65fa4ec	-3.3325587e-06
52	0x896442f6	-2.7475987e-33
53	0xa735f25b	-2.5250177e-15
54	0xb5e51d0a	-1.7070281e-06
55	0x80000b9f	-4.169e-42
56	0x000e474c	1.311273e-39
57	0x30eb0a7d	1.7101481e-09
58	0x22815c94	3.506354e-18
59	0x00002215	1.2226e-41
60	0xb685a68c	-3.9830975e-06
61	0x2bcabe9b	1.4405867e-12
62	0xaec08cab	-8.756137e-11
63	0x800004ad	-1.677e-42

weight f4 [64, 64]
0	0x0000016e	5.13e-43
1	0x80000017	-3.2e-44
2	0x80000163	-4.97e-43
3	0x800001ab	-5.98e-43
4	0x0000016d	5.11e-43
5	0x000001bc	6.22e-43
6	0x0000019f	5.82e-43
7	0x0000019b	5.76e-43
8	0x8000015f	-4.92e-43
9	0x00000167	5.03e-43
10	0x0000008d	1.98e-43
11	0x80000041	-9.1e-44
12	0x8000016b	-5.09e-43
13	0x8000011c	-3.98e-43
14	0x00000180	5.38e-43
15	0x80000169	-5.06e-43
16	0x800001b2	-6.08e-43
17	0x00000164	4.99e-43
18	0x8000016b	-5.09e-43
19	0x800002ec	-1.048e-42
20	0x80000161	-4.95e-43
21	0x000003a4	1.306e-42
22	0x80000161	-4.95e-43
23	0x00000e26	5.076e-42
24	0x00000167	5.03e-43
25	0x00000161	4.95e-43
26	0x8000015f	-4.92e-43
27	0x0000016d	5.11e-43
28	0x00000180	5.38e-43
29	0x0000017a	5.3e-43
30	0x00000166	5.02e-43
31	0x80000162	-4.96e-43
32	0x0000015f	4.92e-43
33	0x80000161	-4.95e-43
34	0x00000161	4.95e-43
35	0x00000166	5.02e-43
36	0x800001bf	-6.26e-43
37	0x8000030a	-1.09e-42
38	0x0000052a	1.853e-42
39	0x8000015f	-4.92e-43
40	0x00000170	5.16e-43
41	0x80000163	-4.97e-43
42	0x00000165	5e-43
43	0x0000015f	4.92e-43
44	0x80000167	-5.03e-43
45	0x00000170	5.16e-43
46	0x00000167	5.03e-43
47	0x80000163	-4.97e-43
48	0x00000169	5.06e-43
49	0x80000169	-5.06e-43
50	0x00000161	4.95e-43
51	0x0000016b	5.09e-43
52	0x8000017e	-5.35e-43
53	0x000000ff	3.57e-43
54	0x00000162	4.96e-43
55	0x00000160	4.93e-43
56	0x80000163	-4.97e-43
57	0x00000187	5.48e-43
58	0x00000164	4.99e-43
59	0x00000172	5.18e-43
60	0x00000168	5.04e-43
61	0x80000161	-4.95e-43
62	0x0000018c	5.55e-43
63	0x8000016a	-5.07e-43
64	0x8000017b	-5.31e-43
65	0x0000015f	4.92e-43
66	0x00000165	5e-43
67	0x00000165	5e-43
68	0x80000166	-5.02e-43
69	0x80000161	-4.95e-43
70	0x80000162	-4.96e-43
71	0x00000167	5.03e-43
72	0x80000198	-5.72e-43
73	0x00000162	4.96e-43
74	0x00000165	5e-43
75	0x80000199	-5.73e-43
76	0x80000163	-4.97e-43
77	0x0000015f	4.92e-43
78	0x80000165	-5e-43
79	0x8000015f	-4.92e-43
80	0x000001a3	5.87e-43
81	0x00000161	4.95e-43
82	0x80000166	-5.02e-43
83	0x00000173	5.2e-43
84	0x80000164	-4.99e-43
85	0x8000015f	-4.92e-43
86	0x800001b6	-6.14e-43
87	0x8000018f	-5.59e-43
88	0x80000174	-5.21e-43
89	0x00000162	4.96e-43
90	0x000004ce	1.724e-42
91	0x0000017c	5.32e-43
92	0x0000016a	5.07e-43
93	0x80000162	-4.96e-43
94	0x00000163	4.97e-43
95	0x00000160	4.93e-43
96	0x80000163	-4.97e-43
97	0x00000e5e	5.154e-42
98	0x80000160	-4.93e-43
99	0x00000164	4.99e-43
100	0x00000164	4.99e-43
101	0x80000160	-4.93e-43
102	0x80000162	-4.96e-43
103	0x00000168	5.04e-43
104	0x00000163	4.97e-43
105	0x80000165	-5e-43
106	0x0000015f	4.92e-43
107	0x00000160	4.93e-43
108	0x80000164	-4.99e-43
109	0x80000163	-4.97e-43
110	0x0000015f	4.92e-43
111	0x00000161	4.95e-43
112	0x0000016f	5.14e-43
113	0x0000015f	4.92e-43
114	0x80000176	-5.24e-43
115	0x80000161	-4.95e-43
116	0x00000166	5.02e-43
117	0x8000017a	-5.3e-43
118	0x00000167	5.03e-43
119	0x80000163	-4.97e-43
120	0x8000019b	-5.76e-43
121	0x00000161	4.95e-43
122	0x000001be	6.25e-43
123	0x80000171	-5.17e-43
124	0x00000163	4.97e-43
125	0x80000164	-4.99e-43
126	0x000001a3	5.87e-43
127	0x00000161	4.95e-43
128	0x00000163	4.97e-43
129	0x00000178	5.27e-43
130	0x00000169	5.06e-43
131	0x8000018d	-5.56e-43
132	0x8000016a	-5.07e-43
133	0x00000163	4.97e-43
134	0x0000019c	5.77e-43
135	0x00000165	5e-43
136	0x0000016c	5.1e-43
137	0x0000019d	5.79e-43
138	0x8000015f	-4.92e-43
139	0x80000187	-5.48e-43
140	0x00000161	4.95e-43
141	0x80000160	-4.93e-43
142	0x80000167	-5.03e-43
143	0x8000017f	-5.37e-43
144	0x00000172	5.18e-43
145	0x00000164	4.99e-43
146	0x80000164	-4.99e-43
147	0x80000160	-4.93e-43
148	0x80000180	-5.38e-43
149	0x00000167	5.03e-43
150	0x80000166	-5.02e-43
151	0x00000172	5.18e-43
152	0x80000162	-4.96e-43
153	0x00000163	4.97e-43
154	0x80000197	-5.7e-43
155	0x8000015f	-4.92e-43
156	0x80000176	-5.24e-43
157	0x800001b3	-6.1e-43
158	0x80000166	-5.02e-43
159	0x80000070	-1.57e-43
160	0x0000016a	5.07e-43
161	0x00000165	5e-43
162	0x00000162	4.96e-43
163	0x80000163	-4.97e-43
164	0x00000164	4.99e-43
165	0x80000169	-5.06e-43
166	0x8000016c	-5.1e-43
167	0x80000174	-5.21e-43
168	0x00000165	5e-43
169	0x00000168	5.04e-43
170	0x8000017e	-5.35e-43
171	0x8000015f	-4.92e-43
172	0x80000162	-4.96e-43
173	0x00000166	5.02e-43
174	0x00000165	5e-43
175	0x8000016a	-5.07e-43
176	0x80000164	-4.99e-43
177	0x80000171	-5.17e-43
178	0x80000164	-4.99e-43
179	0x00000161	4.95e-43
180	0x00000162	4.96e-43
181	0x8000016f	-5.14e-43
182	0x00000163	4.97e-43
183	0x00000180	5.38e-43
184	0x0000015f	4.92e-43
185	0x0000016c	5.1e-43
186	0x80000176	-5.24e-43
187	0x8000015f	-4.92e-43
188	0x00000164	4.99e-43
189	0x00000172	5.18e-43
190	0x00000160	4.93e-43
191	0x0000015f	4.92e-43
192	0x80000164	-4.99e-43
193	0x000001b6	6.14e-43
194	0x000001ba	6.2e-43
195	0x00000165	5e-43
196	0x8000015f	-4.92e-43
197	0x00000195	5.68e-43
198	0x00000160	4.93e-43
199	0x00000170	5.16e-43
200	0x8000015f	-4.92e-43
201	0x00000161	4.95e-43
202	0x80000165	-5e-43
203	0x000003c9	1.358e-42
204	0x80000175	-5.23e-43
205	0x00000167	5.03e-43
206	0x80000165	-5e-43
207	0x0000015f	4.92e-43
208	0x8000015f	-4.92e-43
209	0x80000188	-5.5e-43
210	0x00000c37	4.382e-42
211	0x800003f3	-1.417e-42
212	0x80000163	-4.97e-43
213	0x00000163	4.97e-43
214	0x00000165	5e-43
215	0x8000015f	-4.92e-43
216	0x80000161	-4.95e-43
217	0x00000161	4.95e-43
218	0x00000164	4.99e-43
219	0x8000017b	-5.31e-43
220	0x000001c0	6.28e-43
221	0x000005b1	2.042e-42
222	0x00000183	5.42e-43
223	0x80000162	-4.96e-43
224	0x80000162	-4.96e-43
225	0x0000016e	5.13e-43
226	0x80000164	-4.99e-43
227	0x80000164	-4.99e-43
228	0x00000162	4.96e-43
229	0x00000189	5.51e-43
230	0x00000161	4.95e-43
231	0x00000162	4.96e-43
232	0x80000183	-5.42e-43
233	0x8000019f	-5.82e-43
234	0x80000164	-4.99e-43
235	0x00000161	4.95e-43
236	0x800004be	-1.701e-42
237	0x00000163	4.97e-43
238	0x8000016f	-5.14e-43
239	0x80000162	-4.96e-43
240	0x80000190	-5.6e-43
241	0x80000161	-4.95e-43
242	0x0000015f	4.92e-43
243	0x80000160	-4.93e-43
244	0x80000171	-5.17e-43
245	0x00000164	4.99e-43
246	0x8000016a	-5.07e-43
247	0x00000167	5.03e-43
248	0x8000016a	-5.07e-43
249	0x80000161	-4.95e-43
250	0x00000175	5.23e-43
251	0x00000178	5.27e-43
252	0x80000162	-4.96e-43
253	0x80000186	-5.47e-43
254	0x80000176	-5.24e-43
255	0x00000167	5.03e-43

bias f4 [10]
0	0x2c952e4c	4.2399747e-12
1	0x26836501	9.117328e-16
2	0x2f02d85e	1.19003e-10
3	0x80065fee	-5.85426e-40
4	0xa6f876f2	-1.7240697e-15
5	0x86f04fb4	-9.039508e-35
6	0x2c58bc07	3.0799822e-12
7	0x2a399dda	1.6486067e-13
8	0x2ae9f252	4.1557258e-13
9	0x3320f48b	3.7475314e-08

weight f4 [10, 64]
0	0x80000172	-5.18e-43
1	0x8000015f	-4.92e-43
2	0x832d1146	-5.085996e-37
3	0x00000163	4.97e-43
4	0x057e866a	1.19677106e-35
5	0x8ab1f8b5	-1.7138033e-32
6	0xa1965011	-1.0185589e-18
7	0x8877c6c9	-7.456253e-34
8	0x24f186c3	1.04745385e-16
9	0xa185af61	-9.058853e-19
10	0x1f244874	3.4788283e-20
11	0x00000166	5.02e-43
12	0x1d59ec34	2.8841825e-21
13	0x9ef6bbf4	-2.6123999e-20
14	0x051c8720	7.359903e-36
15	0x1b4cb681	1.6933455e-22
16	0x961ebc05	-1.2822467e-25
17	0x1a074c8d	2.7979183e-23
18	0x21ee1d4f	1.6135265e-18
19	0x1e956c33	1.5820739e-20
20	0x9e3e12ef	-1.0062432e-20
21	0x8f80f2e7	-1.2715337e-29
22	0x10cdf2b2	8.1232174e-29
23	0xa18d490b	-9.573866e-19
24	0x1f5de850	4.6990735e-20
25	0x9e4b5649	-1.0764574e-20
26	0x93ccfd07	-5.1746344e-27
27	0x141a1f13	7.7811414e-27
28	0x18d61132	5.5335066e-24
29	0x9cbc3053	-1.2453288e-21
30	0xa4041345	-2.863926e-17
31	0x24ad9192	7.5273396e-17
32	0x9566c44d	-4.6602984e-26
33	0x1a0a1a47	2.8558958e-23
34	0x1f1287d0	3.1029044e-20
35	0x058154a9	1.2162201e-35
36	0x80000168	-5.04e-43
37	0x1ded99f6	6.289257e-21
38	0x1375b6ab	3.101341e-27
39	0x9d8ae716	-3.6767233e-21
40	0x8952ab68	-2.5358425e-33
41	0x9e8e210c	-1.5048503e-20
42	0x9840bfdc	-2.4912283e-24
43	0x8000014e	-4.68e-43
44	0x9835b500	-2.3485083e-24
45	0x80000165	-5e-43
46	0x05227cb6	7.640109e-36
47	0x1efcfb2f	2.6785425e-20
48	0x9e9cec03	-1.6614755e-20
49	0x981c9e33	-2.0242398e-24
50	0x234fafb4	1.1258699e-17
51	0x23a0fcae	1.7454249e-17
52	0x94d9e4af	-2.20016e-26
53	0x96171ea8	-1.2207356e-25
54	0xa45a6d5b	-4.7363842e-17
55	0x8000016b	-5.09e-43
56	0x86601059	-4.2141728e-35
57	0xa0ecd2f9	-4.0119565e-19
58	0x95cf1b06	-8.364927e-26
59	0x00000163	4.97e-43
60	0xa9218605	-3.5865425e-14
61	0x1ab25169	7.37506e-23
62	0x9e39254d	-9.801532e-21
63	0x00000160	4.93e-43
64	0x09ad42e1	4.1711128e-33
65	0x0000015f	4.92e-43
66	0x80208dde	-2.989628e-39
67	0x00000160	4.93e-43
68	0x00000182	5.41e-43
69	0x8a317a5c	-8.545253e-33
70	0x9d7ee407	-3.3734507e-21
71	0x0e223988	1.9995742e-30
72	0x1c38218d	6.0923856e-22
73	0x1d98fd38	4.0495887e-21
74	0x1c5910e1	7.1821093e-22
75	0x80000176	-5.24e-43
76	0x1d2877ad	2.2296486e-21
77	0x18ec32b2	6.105576e-24
78	0x00000162	4.96e-43
79	0x1d9e69b8	4.1931562e-21
80	0x19d9d032	2.2521364e-23
81	0xb08face2	-1.0453756e-09
82	0x1c0d6329	4.678115e-22
83	0x1ced9da1	1.5724091e-21
84	0x1e8dd057	1.5015123e-20
85	0x09915885	3.4990724e-33
86	0x870c06a4	-1.0534381e-34
87	0x9c94941c	-9.832104e-22
88	0x1c55ad33	7.0699643e-22
89	0x1d03908a	1.741243e-21
90	0x98348664	-2.3332305e-24
91	0x95095f25	-2.7741985e-26
92	0x1c1e1895	5.2309586e-22
93	0x9be02cad	-3.7086562e-22
94	0x1cb057f3	1.1669437e-21
95	0x1e19bf2c	8.139286e-21
96	0x9b574ef2	-1.7809892e-22
97	0x9fa878e0	-7.135074e-20
98	0x16f27557	3.917126e-25
99	0x07b1d805	2.6758965e-34
100	0x00000164	4.99e-43
101	0x1c347b91	5.971671e-22
102	0x17a7473c	1.0810104e-24
103	0x1e308273	9.344339e-21
104	0x82fe7239	-3.7387506e-37
105	0x1d2408be	2.1709739e-21
106	0x111a28e0	1.2161054e-28
107	0x000069b4	3.7919e-41
108	0x969a5825	-2.493567e-25
109	0x000001a8	5.94e-43
110	0x8000030f	-1.097e-42
111	0x9d83b934	-3.4866907e-21
112	0x1d565ff3	2.8372269e-21
113	0x1a4b2bd5	4.2014823e-23
114	0x9d3ed5a5	-2.5256742e-21
115	0x9cb4dc7d	-1.1968396e-21
116	0x929b9927	-9.81963e-28
117	0x1b4d84e0	1.7000137e-22
118	0x9e200939	-8.472237e-21
119	0x000001ab	5.98e-43
120	0x0752e9d3	1.5867359e-34
121	0x1d9a7040	4.0879524e-21
122	0x19a15fd8	1.6685721e-23
123	0x00000164	4.99e-43
124	0x1d39e094	2.460065e-21
125	0x1dd18a8d	5.5465098e-21
126	0x9d007170	-1.6999305e-21
127	0x80000160	-4.93e-43
128	0x00000881	3.05e-42
129	0x0000016c	5.1e-43
130	0x800001bf	-6.26e-43
131	0x000373e9	3.17087e-40
132	0x80000161	-4.95e-43
133	0x079b15b3	2.3334562e-34
134	0x2178d0d8	8.430207e-19
135	0x061adbb4	2.9125593e-35
136	0xa556a553	-1.8617555e-16
137	0xa1fbc08e	-1.705939e-18
138	0x1f297f51	3.5892456e-20
139	0x00000160	4.93e-43
140	0x9c0f7bd6	-4.7474785e-22
141	0x9ef64aef	-2.6077255e-20
142	0x0000015f	4.92e-43
143	0x1aecf3a5	9.800094e-23
144	0x179e47ef	1.0228669e-24
145	0x1c074b34	4.476495e-22
146	0xa1ee6c59	-1.6156187e-18
147	0x9f882889	-5.76653e-20
148	0x1c517871	6.9307966e-22
149	0x8da8981c	-1.0390418e-30
150	0x1547f087	4.0377473e-26
151	0xa1022b1e	-4.410278e-19
152	0x23261595	9.003448e-18
153	0xa0840969	-2.2367897e-19
154	0x151fb3ea	3.225172e-26
155	0x0c5bf8d4	1.6946025e-31
156	0x975056b4	-6.731786e-25
157	0x9d35e13e	-2.4071598e-21
158	0xa4b64785	-7.905108e-17
159	0xa5e50acc	-3.9732484e-16
160	0x9557fc8a	-4.3618122e-26
161	0x188b2392	3.5966575e-24
162	0x23058de8	7.239994e-18
163	0x00000169	5.06e-43
164	0x0000015f	4.92e-43
165	0x1ef26b17	2.5667038e-20
166	0x1638820c	1.4904437e-25
167	0x1c151785	4.9330363e-22
168	0x8857328a	-6.4758617e-34
169	0x210c1a2d	4.746849e-19
170	0x192cd9d1	8.936179e-24
171	0x00000165	5e-43
172	0x931f6fc9	-2.0123736e-27
173	0x8000023d	-8.03e-43
174	0x800001c2	-6.3e-43
175	0x1fbe7cc2	8.0674524e-20
176	0x1e9f581a	1.6871218e-20
177	0x96a19246	-2.6103264e-25
178	0xa5a3a924	-2.8390607e-16
179	0xa35689b4	-1.1630123e-17
180	0x90c6cc60	-7.841212e-29
181	0x16273626	1.3507239e-25
182	0xa5d32e27	-3.663394e-16
183	0x000001a7	5.93e-43
184	0x89383b01	-2.2175938e-33
185	0x1f3dbc7b	4.0178214e-20
186	0x94c320b2	-1.9702864e-26
187	0x00000165	5e-43
188	0x24afa0ba	7.6166433e-17
189	0x99b9e63a	-1.922154e-23
190	0x1ca6eb16	1.1045727e-21
191	0x00000195	5.68e-43
192	0x80000167	-5.03e-43
193	0x00000166	5.02e-43
194	0x00000163	4.97e-43
195	0x85773c42	-1.1624952e-35
196	0x00000164	4.99e-43
197	0x0000019d	5.79e-43
198	0x80000162	-4.96e-43
199	0x8730ca64	-1.3300246e-34
200	0x800001a9	-5.96e-43
201	0x8000015f	-4.92e-43
202	0x0950625b	2.5083336e-33
203	0x00000163	4.97e-43
204	0x80a4304a	-1.5078344e-38
205	0x80000160	-4.93e-43
206	0x80000166	-5.02e-43
207	0x8000015f	-4.92e-43
208	0x010070df	2.3590868e-38
209	0x00000164	4.99e-43
210	0x80000769	-2.658e-42
211	0x00000194	5.66e-43
212	0x80000163	-4.97e-43
213	0x80000064	-1.4e-43
214	0x8000016d	-5.11e-43
215	0x00000035	7.4e-44
216	0x00000162	4.96e-43
217	0x00000165	5e-43
218	0x80000160	-4.93e-43
219	0x80000163	-4.97e-43
220	0x00000165	5e-43
221	0x87940462	-2.227114e-34
222	0x8000017b	-5.31e-43
223	0x01810f22	4.740883e-38
224	0x000001b0	6.05e-43
225	0x80000169	-5.06e-43
226	0x00000163	4.97e-43
227	0x80000056	-1.2e-43
228	0x000001a9	5.96e-43
229	0x8000015f	-4.92e-43
230	0x00000175	5.23e-43
231	0x053b63e4	8.811045e-36
232	0x8000015f	-4.92e-43
233	0x00000138	4.37e-43
234	0x00000176	5.24e-43
235	0x80030706	-2.78026e-40
236	0x0000016c	5.1e-43
237	0x8000016a	-5.07e-43
238	0x80000167	-5.03e-43
239	0x00000160	4.93e-43
240	0x800001aa	-5.97e-43
241	0x00000161	4.95e-43
242	0x0000016f	5.14e-43
243	0x80000166	-5.02e-43
244	0x80000161	-4.95e-43
245	0x8000015f	-4.92e-43
246	0x80000566	-1.937e-42
247	0x00000166	5.02e-43
248	0x80000162	-4.96e-43
249	0x00000164	4.99e-43
250	0x00000160	4.93e-43
251	0x80000175	-5.23e-43
252	0x8000015f	-4.92e-43
253	0x80000175	-5.23e-43
254	0x00000164	4.99e-43
255	0x8000000d	-1.8e-44
