ckpt/correction-last.pt (torch, 140304 bytes, 17 tensors)

weight f4 [256, 7]
0	0x3b43df6e	0.0029887813
1	0x3b397a6f	0.0028301736
2	0x3b56e8b3	0.0032792508
3	0x39e5abcb	0.0004380628
4	0x3afc0df1	0.0019230229
5	0x3a51d34a	0.0008004202
6	0x3a2257ac	0.00061928737
7	0x335896b3	5.042848e-08
8	0xb474a63f	-2.2784751e-07
9	0xb2967d0e	-1.7519167e-08
10	0xb086cfd0	-9.808847e-10
11	0xb213d268	-8.604367e-09
12	0xb12ffb06	-2.5608542e-09
13	0xb15608f9	-3.11462e-09
14	0x30df4347	1.6244507e-09
15	0xb160884a	-3.2673761e-09
16	0xaf8d0df2	-2.565766e-10
17	0xad966004	-1.7095665e-11
18	0xaf01f6f1	-1.1820213e-10
19	0xae1beb6d	-3.545202e-11
20	0xadd90598	-2.4672528e-11
21	0x3a68d901	0.0008882434
22	0xbac12f6b	-0.0014738863
23	0xbac1b0d4	-0.001477743
24	0xb8c21a7d	-9.255575e-05
25	0xb93b6a13	-0.00017873225
26	0xb87b5513	-5.9922295e-05
27	0xb856182b	-5.1044084e-05
28	0x3655f187	3.188006e-06
29	0xb7835828	-1.5657468e-05
30	0xb5a917fd	-1.2598463e-06
31	0xb43dcac0	-1.7675757e-07
32	0xb555c7eb	-7.96396e-07
33	0xb45eda03	-2.0754673e-07
34	0xb449c17c	-1.8789973e-07
35	0xb420b938	-1.4968543e-07
36	0xb6e9b661	-6.965173e-06
37	0xb4ff5578	-4.7559638e-07
38	0xb2f8ad52	-2.8949817e-08
39	0xb43b27f1	-1.7430263e-07
40	0xb3c6320e	-9.2291984e-08
41	0xb3b46f39	-8.4021345e-08
42	0x32c3caed	2.2793268e-08
43	0x325bd1ea	1.2795207e-08
44	0xb090ddea	-1.0540451e-09
45	0x31e32f15	6.611922e-09
46	0x320189ef	7.540151e-09
47	0x31d0852a	6.0687357e-09
48	0x31e680c8	6.7085217e-09
49	0x36ec3f55	7.040721e-06
50	0xb7782455	-1.4790411e-05
51	0xb59d96f9	-1.174135e-06
52	0xb3c3de7b	-9.120864e-08
53	0xb54a7389	-7.541899e-07
54	0xb4335b0d	-1.6703798e-07
55	0xb3b66498	-8.493333e-08
56	0x38b867f0	8.7931636e-05
57	0xb92ff2e5	-0.00016779786
58	0xb7508173	-1.2427906e-05
59	0xb56aab61	-8.742118e-07
60	0xb6c8bea2	-5.982657e-06
61	0xb5e86418	-1.7314478e-06
62	0xb5b0b332	-1.3165175e-06
63	0xb876f4f5	-5.8879104e-05
64	0xbae05959	-0.0017116471
65	0xb90ce64f	-0.00013437237
66	0xb75d6ca4	-1.3197921e-05
67	0xb84da5b2	-4.9030125e-05
68	0xb7df3c0b	-2.6611631e-05
69	0xb7bc8d62	-2.2477183e-05
70	0x39a965af	0.00032309952
71	0xbb84f511	-0.0040575345
72	0xb926670f	-0.00015869386
73	0xb7b5dde6	-2.1680211e-05
74	0xb8c41514	-9.3499344e-05
75	0xb7e03a0d	-2.6729913e-05
76	0xb7d725ac	-2.564754e-05
77	0x378a4f71	1.6487875e-05
78	0xb8ddaaa1	-0.00010569883
79	0xb6fd3fee	-7.54743e-06
80	0xb5a21804	-1.207693e-06
81	0xb69cde31	-4.675029e-06
82	0xb5b44013	-1.3429693e-06
83	0xb595a710	-1.1149987e-06
84	0x3879e180	5.957624e-05
85	0xb9f1f375	-0.00046148492
86	0xb7fed79d	-3.0379562e-05
87	0xb66ad00b	-3.4989814e-06
88	0xb785cce4	-1.5950245e-05
89	0xb7014afc	-7.706458e-06
90	0xb6a52163	-4.92127e-06
91	0xb20d9cba	-8.242916e-09
92	0xb3570535	-5.0063324e-08
93	0xb17d7b12	-3.6886303e-09
94	0xb01f5be6	-5.797446e-10
95	0xb0e7c2a9	-1.6862788e-09
96	0xb01cacf3	-5.6998245e-10
97	0xafe799ad	-4.2127848e-10
98	0x38a1935c	7.704526e-05
99	0xb9758d5e	-0.00023417684
100	0xb7bd347d	-2.2554997e-05
101	0xb5b5c936	-1.3544111e-06
102	0xb762c576	-1.3516625e-05
103	0xb613360a	-2.1936162e-06
104	0xb63545cf	-2.7011736e-06
105	0xad85dc3b	-1.5218151e-11
106	0xada63db9	-1.8899425e-11
107	0xad102b70	-8.195097e-12
108	0xab15b453	-5.3185684e-13
109	0xac7f2796	-3.6259654e-12
110	0xa9e08d69	-9.972129e-14
111	0xaa6915df	-2.0702145e-13
112	0xab35fde7	-6.465648e-13
113	0xac690bdc	-3.3117875e-12
114	0xab8484b6	-9.415999e-13
115	0xa9745818	-5.4255293e-14
116	0xaaf0d661	-4.278132e-13
117	0xa997047e	-6.7065263e-14
118	0xa98030b9	-5.692794e-14
119	0x331c88b9	3.644593e-08
120	0xb56f14e1	-8.906482e-07
121	0xb3a1ace6	-7.528597e-08
122	0xb18608d8	-3.9009187e-09
123	0xb2ffcebf	-2.9779924e-08
124	0xb24d0a71	-1.1934945e-08
125	0xb218647e	-8.870414e-09
126	0x39711b8c	0.00022993813
127	0xbabdd973	-0.001448436
128	0xb8c5dd26	-9.434884e-05
129	0xb7270007	-9.953982e-06
130	0xb84674c7	-4.7315636e-05
131	0xb7a0dfc7	-1.917769e-05
132	0xb784c5f8	-1.5827813e-05
133	0x3282c895	1.5225206e-08
134	0xb3381265	-4.2857568e-08
135	0xb155a3d7	-3.1088712e-09
136	0xafe19265	-4.103128e-10
137	0xb110e2a5	-2.108359e-09
138	0xafb42aa0	-3.2772096e-10
139	0xaf6b4ef6	-2.1401178e-10
140	0x3cc8cb7c	0.024511091
141	0xbcbce00a	-0.023056049
142	0xb8f358ef	-0.00011603708
143	0xb9085be2	-0.000130042
144	0xb8fd12af	-0.0001206746
145	0xb9335a97	-0.00017104518
146	0xb91dba93	-0.00015042191
147	0x384f634e	4.944513e-05
148	0xb9e90540	-0.00044445135
149	0xb81e0191	-3.7671594e-05
150	0xb6b100e9	-5.275117e-06
151	0xb7735cf7	-1.4505574e-05
152	0xb6f9faf5	-7.4499935e-06
153	0xb6e166db	-6.7174965e-06
154	0xb22fbdc6	-1.022949e-08
155	0xb21640bf	-8.745871e-09
156	0xb1c5e075	-5.7589724e-09
157	0xaf5b6a6a	-1.995574e-10
158	0xaf66ee4a	-2.1003035e-10
159	0xaf9a7df2	-2.8101926e-10
160	0xafa2cf42	-2.9614894e-10
161	0xaffc33ca	-4.587533e-10
162	0xb0280ea8	-6.113887e-10
163	0xafa29c2c	-2.9578595e-10
164	0xadba9e4d	-2.1216051e-11
165	0xaedde1a7	-1.00900004e-10
166	0xac468025	-2.8208627e-12
167	0xacbf07c6	-5.4294095e-12
168	0xbb5dbda2	-0.0033834954
169	0xbbfdcf54	-0.0077456627
170	0xb9bac1d3	-0.00035621095
171	0xb91f0ef8	-0.00015168998
172	0xb9d50e42	-0.0004063715
173	0xb8a6feb7	-7.962941e-05
174	0xb8c3d202	-9.3374416e-05
175	0x36a1850c	4.8136626e-06
176	0xb6e9021e	-6.9441876e-06
177	0xb50cae6b	-5.2407876e-07
178	0xb351901c	-4.879267e-08
179	0xb48df32a	-2.6440222e-07
180	0xb3e5d478	-1.0702291e-07
181	0xb38078f8	-5.9824686e-08
182	0x395cc515	0.00021054254
183	0xbb2eb1ce	-0.0026656273
184	0xb88dff00	-6.7709014e-05
185	0xb78b5c30	-1.661302e-05
186	0xb836cfda	-4.358576e-05
187	0xb7cbcdca	-2.4295314e-05
188	0xb7aa553c	-2.030527e-05
189	0xb70ffa77	-8.58178e-06
190	0xb8b2723d	-8.50898e-05
191	0xb6791f7c	-3.7122218e-06
192	0xb542de7c	-7.259439e-07
193	0xb5f2e618	-1.8097371e-06
194	0xb5712aca	-8.984176e-07
195	0xb56abb5b	-8.744443e-07
196	0x30284d7b	6.122815e-10
197	0xb0233f67	-5.9389155e-10
198	0xadf61a91	-2.797876e-11
199	0xac6ebb4b	-3.3925803e-12
200	0xad5b7d35	-1.247651e-11
201	0xad0b7781	-7.92777e-12
202	0xaceb51fc	-6.688204e-12
203	0x38996b08	7.315545e-05
204	0x385f4add	5.3237065e-05
205	0x388f2802	6.8262234e-05
206	0x373fb08c	1.1425593e-05
207	0x3812b369	3.49762e-05
208	0x378affc0	1.6569975e-05
209	0x37639dce	1.3566996e-05
210	0x39bbefa1	0.00035845957
211	0xbaf58633	-0.0018732011
212	0xb8309c47	-4.2107215e-05
213	0xb76a90b1	-1.39811755e-05
214	0xb80ab8e1	-3.3073946e-05
215	0xb799e552	-1.8345807e-05
216	0xb785db61	-1.5956992e-05
217	0x3cde9c23	0.027174061
218	0x3d8f2b4f	0.06990682
219	0x39217f56	0.00015401593
220	0x3be14c40	0.006875545
221	0x3a21f474	0.0006178089
222	0x3bbe0e93	0.005800077
223	0x3bcc3855	0.0062323012
224	0xaf853858	-2.4232594e-10
225	0xb05f994c	-8.1344775e-10
226	0xaf8623fe	-2.4400032e-10
227	0xad21a96d	-9.1894105e-12
228	0xaed5c147	-9.7204515e-11
229	0xada1548b	-1.8341125e-11
230	0xad6b8b1f	-1.33890945e-11
231	0xb919ef07	-0.00014680262
232	0xbb0c68c3	-0.0021424748
233	0xb8f6a7ec	-0.00011761472
234	0xb7aa28bd	-2.028455e-05
235	0xb851c13f	-5.0009457e-05
236	0xb7f80368	-2.956549e-05
237	0xb7d6edb4	-2.5621477e-05
238	0xb32420ca	-3.8214047e-08
239	0xb67926ca	-3.712647e-06
240	0xb499cccb	-2.8647477e-07
241	0xb2f41958	-2.8416864e-08
242	0xb3df9032	-1.0410476e-07
243	0xb3803350	-5.969798e-08
244	0xb34fa5ab	-4.8346617e-08
245	0xbbc2a3ec	-0.005939951
246	0xbcc2c137	-0.023773773
247	0xb89136bc	-6.924334e-05
248	0xb8c487d7	-9.3713104e-05
249	0xb8b04193	-8.404548e-05
250	0xb87dd6a0	-6.0519786e-05
251	0xb866258e	-5.487125e-05
252	0x2d7852f3	1.4115586e-11
253	0xaed572bc	-9.7064995e-11
254	0xadb448d0	-2.0495966e-11
255	0xab55cff3	-7.596139e-13

bias f4 [256]
0	0x3b00ab75	0.0019633446
1	0xb23ca638	-1.0980834e-08
2	0xaf756546	-2.23186e-10
3	0xb9bcc108	-0.00036001974
4	0xb556ec8a	-8.006542e-07
5	0xb4632079	-2.1152836e-07
6	0x326889d2	1.3535514e-08
7	0xb532acf2	-6.6561836e-07
8	0xb6e86320	-6.9256785e-06
9	0xb87f2584	-6.0831677e-05
10	0xb8dae386	-0.000104374296
11	0xb6a0aedb	-4.7887274e-06
12	0xb7926c53	-1.7454999e-05
13	0xb10e8d1f	-2.0743938e-09
14	0xb7424d4f	-1.1581301e-05
15	0xac598315	-3.091032e-12
16	0xaae6d26b	-4.1002214e-13
17	0xb3242dec	-3.822599e-08
18	0xb86f710c	-5.7087324e-05
19	0xb10eaa0f	-2.0760387e-09
20	0xb94d64af	-0.00019587831
21	0xb794b8c0	-1.7729006e-05
22	0xafe71944	-4.2036608e-10
23	0xaedc089f	-1.0005973e-10
24	0xb9c6a2d4	-0.0003788682
25	0xb481f1c8	-2.4204041e-07
26	0xb83e44a7	-4.5363468e-05
27	0xb60ac373	-2.067737e-06
28	0xae05676a	-3.033255e-11
29	0x38458485	4.709188e-05
30	0xb8033e25	-3.129071e-05
31	0x3b86f59c	0.0041186344
32	0xaed901fb	-9.868369e-11
33	0xb85c6401	-5.2545223e-05
34	0xb4079b2e	-1.2629309e-07
35	0xb8ff7c1f	-0.00012182467
36	0xad441e57	-1.1148047e-11
37	0xba115676	-0.0005544195
38	0xb7f1dac9	-2.8831319e-05
39	0xb587016d	-1.0058699e-06
40	0xb1b29610	-5.197542e-09
41	0xb0b5ca2d	-1.3226945e-09
42	0xad6acfcb	-1.3347499e-11
43	0x35342ec0	6.7123256e-07
44	0x34010b13	1.201809e-07
45	0xb091f0f5	-1.0618623e-09
46	0x3421a97d	1.5055953e-07
47	0xb796e74b	-1.7989098e-05
48	0xb976f51c	-0.00023551699
49	0x322800d9	9.77908e-09
50	0xafd43d8a	-3.8606301e-10
51	0xad507c39	-1.1851014e-11
52	0xb943dd54	-0.000186791
53	0x399016ef	0.00027482907
54	0xb5ced854	-1.5411156e-06
55	0xb75469ed	-1.26608475e-05
56	0x363e4879	2.835439e-06
57	0xb52c762e	-6.424697e-07
58	0xbaa16799	-0.00123142
59	0xba3ae4f5	-0.0007129454
60	0xb8131bb3	-3.5073328e-05
61	0xb487d4ee	-2.5300636e-07
62	0xb08d4a4c	-1.0280217e-09
63	0x37cd70ce	2.4490433e-05
64	0x39831d2f	0.0002500801
65	0xb3832d87	-6.108444e-08
66	0x384ca5cf	4.879181e-05
67	0xb16f8eba	-3.4860208e-09
68	0x3658d81e	3.2312305e-06
69	0xad8f3168	-1.6279159e-11
70	0xac39a396	-2.638089e-12
71	0xb83fa906	-4.5695364e-05
72	0xb9b0a244	-0.00033690233
73	0xb5c044ed	-1.4325175e-06
74	0x3b0a1569	0.002106989
75	0xb8971630	-7.204374e-05
76	0xb4ca440b	-3.767494e-07
77	0x3b843be7	0.004035461
78	0xb1374a86	-2.6672367e-09
79	0xb70809ee	-8.108544e-06
80	0xb7f02bca	-2.863062e-05
81	0xa9cb6fa2	-9.034376e-14
82	0xb630338d	-2.625605e-06
83	0xb512a8bc	-5.463478e-07
84	0x3b0f3572	0.0021851924
85	0x2d609eea	1.2768212e-11
86	0xb2ef2e6f	-2.7844377e-08
87	0xb1c8a923	-5.8399947e-09
88	0xb4f02946	-4.4733514e-07
89	0xaf989cad	-2.7759964e-10
90	0xb6541e73	-3.1608186e-06
91	0x3b2a3f72	0.0025977758
92	0x362b281f	2.550434e-06
93	0xb6bdfa89	-5.661805e-06
94	0x3b821f71	0.0039710333
95	0xb5023c3f	-4.8516443e-07
96	0xb29573d6	-1.7398559e-08
97	0xb4655ac5	-2.1360309e-07
98	0xb6e13a87	-6.712336e-06
99	0xb927a166	-0.00015986487
100	0x2e62a21c	5.1530433e-11
101	0xb667ef45	-3.4560956e-06
102	0x3a422a97	0.0007406859
103	0xaffb5f12	-4.5724186e-10
104	0x3467f814	2.1603802e-07
105	0xb4176479	-1.4099523e-07
106	0xb1178d58	-2.2053737e-09
107	0xb3b16862	-8.261192e-08
108	0xb3ad74dd	-8.0771976e-08
109	0xb7fd5472	-3.0199273e-05
110	0xb2392a24	-1.0777999e-08
111	0x3a038349	0.00050168164
112	0x362ecc0f	2.6046798e-06
113	0xb8fd7fa5	-0.00012087756
114	0xaeb46d92	-8.204916e-11
115	0xb5061153	-4.99441e-07
116	0xb4159689	-1.3931471e-07
117	0x3c053382	0.008129956
118	0x34ea09b9	4.359297e-07
119	0xb605aa48	-1.991766e-06
120	0x307e8c06	9.2603647e-10
121	0x38f0d3d7	0.0001148355
122	0xb864f7f0	-5.4590346e-05
123	0x3aea201f	0.0017862356
124	0xb571169a	-8.9812386e-07
125	0xb5311ea4	-6.5982226e-07
126	0xb3aadb0f	-7.9560884e-08
127	0xb1b41656	-5.241229e-09
128	0xac4278c6	-2.76361e-12
129	0x3961fad2	0.0002155111
130	0xb70c2613	-8.353515e-06
131	0xb4e61e57	-4.2862914e-07
132	0xaee059bb	-1.020228e-10
133	0xb828ac28	-4.0214654e-05
134	0xb06879d0	-8.4574214e-10
135	0xba04e218	-0.0005069091
136	0xb4bc2ba8	-3.5049493e-07
137	0xb6dbb38a	-6.5476097e-06
138	0xb2664c5d	-1.3405125e-08
139	0xb392cca5	-6.8358794e-08
140	0xae6c2ad5	-5.369823e-11
141	0xb7a39bc2	-1.9503645e-05
142	0xb31f309d	-3.7064286e-08
143	0xb5a677be	-1.2402813e-06
144	0xb76782c5	-1.379912e-05
145	0xb80609b4	-3.1957126e-05
146	0xb6aa6bff	-5.078967e-06
147	0xb98909fa	-0.0002613811
148	0xb729f2b0	-1.012969e-05
149	0xb0395b49	-6.743233e-10
150	0x3a67200b	0.00088167255
151	0xb2c412cd	-2.2825953e-08
152	0xb5383ab1	-6.863075e-07
153	0xb3dbb5d4	-1.02310565e-07
154	0xb556b3f2	-7.998307e-07
155	0x3abf53bc	0.0014597098
156	0xb4f181a6	-4.498408e-07
157	0xae83dd3f	-5.9964915e-11
158	0xb6d8f9e7	-6.466394e-06
159	0x38c37e9f	9.3219096e-05
160	0xb12831d1	-2.4475535e-09
161	0xb2e32a91	-2.6445635e-08
162	0xb683ea51	-3.9313823e-06
163	0xb890516c	-6.881621e-05
164	0xb2d0992f	-2.4284047e-08
165	0xb4f24dea	-4.5132703e-07
166	0x386ee826	5.6959827e-05
167	0xb64bb2f8	-3.035353e-06
168	0xb3aae42c	-7.957746e-08
169	0xb80f5380	-3.4171622e-05
170	0xb36fe90f	-5.585849e-08
171	0xb70087d0	-7.661016e-06
172	0xb3af3985	-8.159535e-08
173	0x3936193a	0.0001736627
174	0x30111247	5.2776666e-10
175	0xaebc913b	-8.575048e-11
176	0xb8e9dd39	-0.00011151512
177	0xb0322714	-6.4811556e-10
178	0x2413d107	3.2052597e-17
179	0xb8a50c49	-7.8701014e-05
180	0x3523c5b2	6.1009916e-07
181	0xb956b290	-0.0002047515
182	0xae993180	-6.9664274e-11
183	0xb82bb9fd	-4.0942792e-05
184	0xaf9778fc	-2.7552705e-10
185	0xb6aeec31	-5.2131004e-06
186	0xb96dedfe	-0.0002269074
187	0x361f6a59	2.3754749e-06
188	0xb465e6e5	-2.1411286e-07
189	0xb97c6939	-0.00024071791
190	0xb4552979	-1.9852259e-07
191	0xb16bab59	-3.42944e-09
192	0xb4c71784	-3.7083748e-07
193	0xb9aa598c	-0.00032491644
194	0xb20d4a09	-8.224114e-09
195	0xb692d6e6	-4.3761565e-06
196	0x39cfa5b0	0.00039605564
197	0xb97a7519	-0.0002388548
198	0xb463c62c	-2.1213117e-07
199	0xae158fc6	-3.4006374e-11
200	0xb40b2e79	-1.296229e-07
201	0xb9368b58	-0.00017408782
202	0xb23f281a	-1.1126781e-08
203	0x2dcd3efa	2.3333769e-11
204	0xb42c269a	-1.6032791e-07
205	0x36776d69	3.6869553e-06
206	0xb440248b	-1.7894688e-07
207	0xbb288cc6	-0.0025718673
208	0xad24932c	-9.354999e-12
209	0xb4062cf9	-1.2496083e-07
210	0xb69d5977	-4.6893797e-06
211	0xbb1299d9	-0.0022369532
212	0xaca6bb4c	-4.738798e-12
213	0xb698e7f6	-4.556957e-06
214	0xb512fb4a	-5.475491e-07
215	0xb9fa5bcf	-0.0004775212
216	0xad5c82a2	-1.25345585e-11
217	0xb4b172c7	-3.305233e-07
218	0xaebe66c0	-8.658452e-11
219	0xb5c4198b	-1.4610572e-06
220	0x33e57fed	1.0686913e-07
221	0xaf232bc9	-1.4840319e-10
222	0x3b707438	0.0036690366
223	0xb889ffdf	-6.580329e-05
224	0xaf08e62b	-1.24509e-10
225	0xb3a3b610	-7.623396e-08
226	0xb5d90f74	-1.6172257e-06
227	0xb8866c94	-6.409842e-05
228	0xb858f135	-5.1723055e-05
229	0xb8da69de	-0.00010414769
230	0xba0ccc63	-0.0005371032
231	0x37669ccf	1.3745578e-05
232	0xb6958199	-4.455633e-06
233	0x3c58f1cb	0.013241242
234	0xb48a049d	-2.570786e-07
235	0xb29d8fd9	-1.834262e-08
236	0x33fa4939	1.1654851e-07
237	0xb8c81f48	-9.54257e-05
238	0xb903f8c1	-0.00012585802
239	0xb94f3b69	-0.0001976319
240	0xb899bfd2	-7.331338e-05
241	0x3b1dfcce	0.0024106982
242	0x3995a23e	0.00028540374
243	0xaeda0c51	-9.91568e-11
244	0xb5bef338	-1.4226889e-06
245	0x3a8eb032	0.001088625
246	0xb6c32360	-5.815571e-06
247	0xad8170ee	-1.4715753e-11
248	0xadc04957	-2.1860442e-11
249	0xb5341732	-6.708898e-07
250	0xb6306674	-2.628568e-06
251	0xbadbd8cb	-0.0016772983
252	0xaf5717f1	-1.9562642e-10
253	0xb73eaaa8	-1.13646165e-05
254	0xb9746e0d	-0.0002331065
255	0x3761eac5	1.3465707e-05

weight f4 [32, 256]
0	0xb9f47774	-0.00046628306
1	0xb09e9576	-1.1538492e-09
2	0x2ea383ff	7.435829e-11
3	0x39a157fd	0.0003077387
4	0xb2430342	-1.1351235e-08
5	0xb34a9767	-4.716949e-08
6	0xb156134d	-3.115207e-09
7	0xb2f5838a	-2.858157e-08
8	0x36afe33a	5.241859e-06
9	0xb6040d7f	-1.9677389e-06
10	0x38214264	3.8447222e-05
11	0x35453c16	7.3475655e-07
12	0x35df76a9	1.6649329e-06
13	0xafad19cc	-3.1486846e-10
14	0x3651c659	3.125888e-06
15	0x2b9927c5	1.0882342e-12
16	0x2948fe20	4.462934e-14
17	0xb1b7db4c	-5.350932e-09
18	0x37a0b570	1.9157975e-05
19	0x30a5e4d6	1.2070369e-09
20	0x38c1360e	9.2130256e-05
21	0x35a4d5c9	1.2281172e-06
22	0x301007bc	5.2397886e-10
23	0x2e1737e9	3.4383083e-11
24	0x3911be98	0.0001389928
25	0x33980060	7.07812e-08
26	0xba70095f	-0.000915667
27	0x359c8ac5	1.1663293e-06
28	0x2d7140dc	1.3713666e-11
29	0xb71d1322	-9.362384e-06
30	0x3588325d	1.0147447e-06
31	0xb8e16730	-0.00010748056
32	0x2c06547d	1.9089446e-12
33	0x3843b1ae	4.66571e-05
34	0xb14ed371	-3.0097136e-09
35	0x3a0dd3ac	0.0005410265
36	0x2c75d123	3.4932688e-12
37	0x38ae7522	8.318784e-05
38	0x37276769	9.978053e-06
39	0x35ab2497	1.2751142e-06
40	0x30609cfc	8.1713813e-10
41	0xadb9f4f4	-2.1140846e-11
42	0xac0631d1	-1.90702e-12
43	0x3441b3f1	1.8039988e-07
44	0xb2ba7843	-2.1707939e-08
45	0x2fdea11e	4.0496045e-10
46	0xb3885edd	-6.350249e-08
47	0xb6c3846e	-5.8268697e-06
48	0x38fc85d5	0.000120412245
49	0xb10b7822	-2.029545e-09
50	0x2be399cd	1.6172008e-12
51	0x2b357794	6.4470066e-13
52	0x38d08a6b	9.943995e-05
53	0x38d7eb7b	0.000102958606
54	0x34660413	2.1421901e-07
55	0x376f9983	1.4281252e-05
56	0x3592f49c	1.0949038e-06
57	0x33cd70ab	9.5665506e-08
58	0x382b4145	4.0830364e-05
59	0x38b6d7c9	8.7186294e-05
60	0x350c6996	5.230771e-07
61	0x34a6cfee	3.1071198e-07
62	0x2ff88161	4.5202866e-10
63	0xb70e4e60	-8.482108e-06
64	0x37f9b900	2.976926e-05
65	0xb2246ff8	-9.571515e-09
66	0x396b707c	0.0002245325
67	0xb0868aa1	-9.789184e-10
68	0xb59fec7a	-1.1915247e-06
69	0x2d5db7ec	1.2603234e-11
70	0x2aac1f71	3.0575154e-13
71	0x39839f85	0.00025105118
72	0x38723eec	5.7755897e-05
73	0x3518596e	5.675455e-07
74	0xbb3c39bb	-0.0028720933
75	0x39ca08ab	0.000385349
76	0x34147942	1.3827687e-07
77	0xb92cc06b	-0.0001647488
78	0xaf6a1a22	-2.129146e-10
79	0x368a1a37	4.1157723e-06
80	0xb7969d46	-1.795463e-05
81	0x282e7953	9.685248e-15
82	0xb4e7099b	-4.3034092e-07
83	0x3368c847	5.419886e-08
84	0xb9b7646e	-0.00034979306
85	0x2d3d1b6f	1.0749498e-11
86	0x3215b4d9	8.7140615e-09
87	0xafdf1ee7	-4.058542e-10
88	0x34725534	2.2569003e-07
89	0x2c6cfca5	3.3677863e-12
90	0x35572e65	8.0161254e-07
91	0xbb2306c3	-0.0024875856
92	0xb52b5310	-6.3823336e-07
93	0x35eef7bc	1.7804482e-06
94	0xb8817da7	-6.174604e-05
95	0xb346a3c7	-4.6249422e-08
96	0xb14de3fe	-2.9961025e-09
97	0x3415db05	1.3956385e-07
98	0xb51d87d2	-5.86847e-07
99	0x36034ebf	1.9566357e-06
100	0xad3d0fb8	-1.0746896e-11
101	0x362968fd	2.5244074e-06
102	0xb939428a	-0.00017667763
103	0x2fbc2634	3.4224146e-10
104	0xb37e6f00	-5.9239937e-08
105	0xb2988bb9	-1.7758667e-08
106	0x2ed8e5ff	9.863398e-11
107	0x30092621	4.9894494e-10
108	0xb2156e66	-8.698043e-09
109	0x3699fde5	4.5893125e-06
110	0x30fc2016	1.8344533e-09
111	0xb933fe6b	-0.00017165548
112	0xb3a1bc2b	-7.531374e-08
113	0x37fd2384	3.0176489e-05
114	0xacc08800	-5.4720672e-12
115	0x3440d54a	1.7958988e-07
116	0x34568d60	1.9981735e-07
117	0xba9c79ae	-0.0011938119
118	0xb3c66a08	-9.2393805e-08
119	0x3591c6fe	1.0861256e-06
120	0xb1549054	-3.0932101e-09
121	0x3839a0e5	4.4257282e-05
122	0x384eb7ff	4.9285587e-05
123	0xba2f69e1	-0.00066914974
124	0x32bba2e2	2.1843736e-08
125	0x3344b74a	4.5801507e-08
126	0xb21baf61	-9.062064e-09
127	0xaf673eb0	-2.1031599e-10
128	0x2a94d7a4	2.6439712e-13
129	0x3854d1a6	5.073999e-05
130	0x366d1594	3.5328312e-06
131	0x32b4ce4b	2.1048569e-08
132	0x2cd2a768	5.987145e-12
133	0x37c290a7	2.3193961e-05
134	0x2eeb6e13	1.0706116e-10
135	0xb8be4cea	-9.0742324e-05
136	0x33c5fd88	9.2196444e-08
137	0x3552ee59	7.857794e-07
138	0x3092e3c1	1.068763e-09
139	0x324cca2f	1.1920334e-08
140	0x2c029fb5	1.8562766e-12
141	0x3713b88b	8.80485e-06
142	0x3315e0ba	3.4896154e-08
143	0x34f459b3	4.5513806e-07
144	0x3730dbc9	1.054159e-05
145	0xbb94cf95	-0.0045413473
146	0x35d8a2bd	1.6140617e-06
147	0x3877cdb5	5.908097e-05
148	0x36de8ca5	6.6324887e-06
149	0x2f35b737	1.6526945e-10
150	0x3a22517b	0.0006191951
151	0xb1148be6	-2.1616358e-09
152	0x344cce6b	1.9074075e-07
153	0xb222ecc0	-9.483472e-09
154	0xb42a4825	-1.585873e-07
155	0xb9dd10f6	-0.00042165042
156	0x33fb5214	1.1703028e-07
157	0x2d49321e	1.14366554e-11
158	0x3665b5aa	3.4229402e-06
159	0xb7b72761	-2.1833637e-05
160	0x2eabd6e5	7.8143526e-11
161	0x311ca559	2.2794977e-09
162	0x36a5c727	4.9405676e-06
163	0x38a141fa	7.689367e-05
164	0x31aba5fc	4.9956252e-09
165	0x34445ecb	1.8288408e-07
166	0x393202f0	0.00016976497
167	0x355af51c	8.156801e-07
168	0xb01f408b	-5.7935584e-10
169	0xb6daf267	-6.5251256e-06
170	0x32a812d8	1.9566343e-08
171	0x369e8f71	4.7254657e-06
172	0x325534e2	1.2410256e-08
173	0x36d090b8	6.2157305e-06
174	0x2e8f54a0	6.5179195e-11
175	0x2de2e952	2.579684e-11
176	0x391b0927	0.00014785361
177	0x2f9fdebd	2.9080197e-10
178	0xa36b1219	-1.2743208e-17
179	0x37489320	1.1955184e-05
180	0x352ae46c	6.366233e-07
181	0x38b5aa12	8.6624306e-05
182	0x2cb9864d	5.2729266e-12
183	0x37b07bc7	2.1038473e-05
184	0x2e810a23	5.8680415e-11
185	0xb559e8aa	-8.117737e-07
186	0x38c14869	9.2164446e-05
187	0x35fdc4a0	1.8907194e-06
188	0x34b31368	3.3355468e-07
189	0x386f723c	5.708843e-05
190	0xb322ac10	-3.7875054e-08
191	0xaf141fab	-1.3471772e-10
192	0x3409eac5	1.2844528e-07
193	0x3883527a	6.261929e-05
194	0xb0bdab2c	-1.380021e-09
195	0x36483d6a	2.983807e-06
196	0xb88e11e4	-6.77442e-05
197	0xb648863e	-2.9880462e-06
198	0x3279b294	1.45343115e-08
199	0x2c035ea8	1.8668764e-12
200	0xb185d825	-3.8953822e-09
201	0x39358b57	0.00017313413
202	0x310b923c	2.0310287e-09
203	0xad084d85	-7.747918e-12
204	0x33229899	3.785735e-08
205	0x359b1339	1.1553994e-06
206	0x3260fba2	1.3095731e-08
207	0x3a036bbc	0.0005013307
208	0x2aa5a2f9	2.9422973e-13
209	0xb2c3bcab	-2.2786784e-08
210	0x355ed887	8.3016533e-07
211	0x3a2a28cb	0.0006491064
212	0xaa17e265	-1.349004e-13
213	0xb3f51fba	-1.14144726e-07
214	0x3492c0e5	2.7334968e-07
215	0x38e8a0f3	0.00011092601
216	0xaa6cdceb	-2.1037657e-13
217	0x33433470	4.5449667e-08
218	0x2d85b156	1.5199102e-11
219	0x359be48a	1.1614914e-06
220	0xb2fa56a0	-2.9143223e-08
221	0x2a3c104a	1.6703406e-13
222	0xba3d9431	-0.000723186
223	0x398ba1a6	0.00026632583
224	0xad843050	-1.5028118e-11
225	0x323478b1	1.0504821e-08
226	0x35efd797	1.7869633e-06
227	0x37220fd0	9.659634e-06
228	0x36f1c59a	7.2053635e-06
229	0x37338f93	1.070266e-05
230	0x39951a5a	0.00028439128
231	0x3716fe6f	8.999937e-06
232	0xb4876cf3	-2.522498e-07
233	0xbb374a8c	-0.0027968017
234	0x3256cbae	1.2502751e-08
235	0x31e8b1fd	6.7723236e-09
236	0x3301f887	3.0261187e-08
237	0x3881b657	6.185163e-05
238	0x38c2c7ab	9.287832e-05
239	0x393fb9f4	0.00018284452
240	0xb748beb0	-1.1965327e-05
241	0xbb1b4162	-0.0023690094
242	0x3841586b	4.609713e-05
243	0x2de73231	2.6283949e-11
244	0xb46b5802	-2.1918098e-07
245	0x3ae45ef3	0.0017423317
246	0x35873f8c	1.0076778e-06
247	0xac37558f	-2.6053359e-12
248	0xab4e3c15	-7.326928e-13
249	0x3107fcca	1.978878e-09
250	0xb451bef7	-1.9534114e-07
251	0x39042874	0.00012603571
252	0x2e12fcbf	3.342104e-11
253	0x36720ef6	3.6069519e-06
254	0x38d1135c	9.9695026e-05
255	0x3614581d	2.2105007e-06

bias f4 [32]
0	0xb9be2d10	-0.00036273198
1	0xba63b296	-0.0008685974
2	0xb8c161ed	-9.221197e-05
3	0xbabf9a3e	-0.0014618111
4	0x3a5f275c	0.000851264
5	0x3b71317b	0.0036803174
6	0xbae57643	-0.0017506558
7	0xba926610	-0.0011169333
8	0xb9dd1830	-0.00042170426
9	0xb878c7f4	-5.931403e-05
10	0xbb8b2e31	-0.00424745
11	0xb9ea4d7a	-0.00044689683
12	0xbad33fd2	-0.0016117042
13	0xba298cd4	-0.00064678234
14	0xb851c5f2	-5.0013834e-05
15	0xba86f91e	-0.0010297631
16	0xbab333fb	-0.0013672108
17	0x396a83a3	0.00022365018
18	0x3ba55000	0.005044937
19	0xbabfc02b	-0.0014629414
20	0xb9e8417e	-0.00044299284
21	0x3b6be384	0.0035993764
22	0xba5e3628	-0.0008476698
23	0x3a79d0e2	0.0009529722
24	0xb9fad174	-0.0004783977
25	0xbb1f907b	-0.0024347592
26	0xba67de50	-0.0008845078
27	0xba4cc81a	-0.00078118
28	0xb9c1d12e	-0.0003696768
29	0x3b82bb6f	0.003989629
30	0xbb4a79c4	-0.0030895332
31	0xba9cc8a3	-0.001196165

weight f4 [10, 32]
0	0xbb370617	-0.0027927214
1	0xbb413201	-0.0029479268
2	0xba3a7048	-0.0007112068
3	0xbb5b2853	-0.0033440783
4	0x3b400d6e	0.002930488
5	0x3a73ba7f	0.00092975044
6	0xbbbc0016	-0.005737315
7	0xbc622a62	-0.01380405
8	0xbbe4e717	-0.006985556
9	0xbc3ace8d	-0.011401785
10	0xbc989144	-0.018623956
11	0xbb086bfe	-0.0020816321
12	0xbbb0b243	-0.005392344
13	0xbc38ba85	-0.0112749385
14	0xba5f073f	-0.00085078547
15	0xbbb6b10f	-0.0055753062
16	0xbc2f39ce	-0.010694934
17	0x3a06cbe0	0.0005142074
18	0xbe990fe4	-0.29894936
19	0xbbf6ac3f	-0.0075278576
20	0xbe1ecbcb	-0.15507428
21	0x3c5dad57	0.013530097
22	0xbba73683	-0.005102934
23	0x3acd798d	0.0015676484
24	0xbbcc31ba	-0.006231514
25	0xbd9e732d	-0.07736812
26	0xbb733e6e	-0.0037116068
27	0xbb3e8378	-0.002907006
28	0xbc5cfa0e	-0.013487352
29	0x3c8ab660	0.016932666
30	0xbd401ae8	-0.04690066
31	0xbc2fba62	-0.0107255895
32	0x39da462a	0.00041632476
33	0xbaafc0de	-0.0013408919
34	0x3976015b	0.00023460893
35	0xb936591a	-0.00017390065
36	0xba4dad5e	-0.0007845963
37	0xba1ff05d	-0.00061011856
38	0x39192ef2	0.00014608706
39	0xba882d19	-0.0010389417
40	0xbc0b4b72	-0.008501874
41	0x3b66c8e2	0.003521495
42	0x3b39f5c6	0.0028375252
43	0xb924ff36	-0.00015735332
44	0xbb806293	-0.003918001
45	0xbb27688d	-0.0025544495
46	0xba975bf2	-0.0011547788
47	0x39afe437	0.00033548634
48	0xba0e0a4f	-0.0005418406
49	0x387b6af7	5.9942682e-05
50	0x39a4ad5b	0.00031409677
51	0xba35b495	-0.0006931511
52	0x3a891ae0	0.001046028
53	0x3c30708f	0.010769024
54	0xb9986d3c	-0.00029073085
55	0xbc8f1004	-0.017463692
56	0xbc0004c6	-0.007813638
57	0xba4e14b8	-0.00078613637
58	0xba081d45	-0.000519235
59	0xb9ab861e	-0.00032715587
60	0xbbfcd61d	-0.007715954
61	0x3c53b22a	0.012920896
62	0xbb64bc06	-0.003490211
63	0x384d6aa1	4.8975115e-05
64	0x37f216ab	2.8859204e-05
65	0xb9b5af41	-0.00034653585
66	0xb85b4ed4	-5.2287083e-05
67	0x388f00bb	6.8189074e-05
68	0xbb3ac66d	-0.0028499619
69	0x37d902e8	2.586977e-05
70	0x3980fc67	0.00024602117
71	0xbad9b933	-0.001661098
72	0xba9883a0	-0.0011635907
73	0xbb5546a4	-0.0032543326
74	0x3ac9d63f	0.0015398933
75	0xb97ffeba	-0.00024413588
76	0xbaa9b12a	-0.0012946476
77	0xba1bce71	-0.0005943543
78	0xb7ca7ddf	-2.413889e-05
79	0xb9062708	-0.00012793776
80	0xb9bb8609	-0.00035767283
81	0xb8a29088	-7.751683e-05
82	0x3af03871	0.0018327368
83	0xb99c0883	-0.0002976098
84	0xbab23996	-0.0013597484
85	0x3b5d5668	0.0033773426
86	0xb9880e08	-0.00025950396
87	0x3bb04ce2	0.005380259
88	0xbaaccd9a	-0.0013183833
89	0xbb2ea187	-0.002664657
90	0x38744735	5.824045e-05
91	0xb88f98d8	-6.847241e-05
92	0xbb41163a	-0.002946271
93	0x3b98092e	0.004639766
94	0xb9e23ba7	-0.00043150524
95	0xba0ba562	-0.0005327073
96	0x3b2ab2df	0.0026046557
97	0xba1c19b8	-0.000595476
98	0x39a08340	0.00030615367
99	0xba6e7cd2	-0.0009097579
100	0xbaabfbcd	-0.0013121307
101	0xba65bf99	-0.0008764207
102	0xbb02ba6b	-0.001994754
103	0xbb64b672	-0.0034898785
104	0xbbaec919	-0.0053340313
105	0x3c544755	0.01295646
106	0xbb60f931	-0.0034328217
107	0xb9d0c7e5	-0.00039821785
108	0xbbd01715	-0.006350408
109	0xbbd72e2a	-0.0065667825
110	0xbaa34fd1	-0.00124597
111	0x39bd4d11	0.00036106308
112	0xbac80f34	-0.001526332
113	0x3b0149a4	0.001972773
114	0xbb219d6e	-0.0024660486
115	0xbac8ba2e	-0.0015314275
116	0xbb7dff0e	-0.003875676
117	0x3c549343	0.012974563
118	0xbaa66c2e	-0.0012697035
119	0xbcf2c53d	-0.029635066
120	0xbbbb13bf	-0.005709141
121	0xbb8d96a2	-0.0043209353
122	0xba6dfaa7	-0.00090781826
123	0xba3f65d4	-0.00073012454
124	0x3ba641ae	0.0050737476
125	0x3c564de8	0.013080098
126	0xbba3491b	-0.00498308
127	0xbb03d932	-0.0020118472
128	0xb9aa3f95	-0.000324723
129	0xba11a6ba	-0.0005556155
130	0x395a87ba	0.00020840662
131	0xba430232	-0.0007438987
132	0xba6752fc	-0.00088243163
133	0xba642715	-0.00087033334
134	0xbaf42cf2	-0.0018629117
135	0xbab5ddf0	-0.0013875347
136	0xbbb04a1c	-0.0053799283
137	0x3b9c32de	0.004766806
138	0xbac8e08a	-0.0015325707
139	0xb98ee711	-0.00027256508
140	0xbc06debe	-0.008231817
141	0xbc869ad2	-0.016431246
142	0xbb070092	-0.0020599705
143	0x3b4f1ca5	0.0031602767
144	0xbaab6323	-0.001307581
145	0xba49679a	-0.00076829793
146	0xbbc1be6f	-0.005912594
147	0xba65f6f5	-0.0008772456
148	0xbb9ea422	-0.0048413435
149	0x3c85a07a	0.016311873
150	0xba9998de	-0.0011718532
151	0xbce51ed6	-0.027968805
152	0xbc0988a7	-0.008394397
153	0xbb268afb	-0.0025412429
154	0xb9b0d5f2	-0.00033728738
155	0xb9a2e34f	-0.00031068406
156	0x3bb19a83	0.0054200306
157	0x3c802dfb	0.015646925
158	0xbae40a02	-0.0017398002
159	0xbb059229	-0.0020381308
160	0x39679eb7	0.00022089003
161	0x3998f684	0.00029175368
162	0xb98f4343	-0.000273252
163	0x3a4ca4a8	0.0007806518
164	0x39b2e104	0.00034118455
165	0x3a5e6be1	0.0008484703
166	0x3a9f283a	0.0012142726
167	0x3a0e1b1a	0.00054209086
168	0x3bbfb8af	0.0058508734
169	0xbbd69378	-0.0065483414
170	0xb83796b3	-4.377095e-05
171	0x39599888	0.00020751555
172	0x3be10c2e	0.006867907
173	0x3bd186fd	0.0063942657
174	0x3b04aedd	0.0020245828
175	0xba64c751	-0.000872721
176	0x3a9f30f3	0.0012145325
177	0x3a06854e	0.0005131558
178	0x3bacaf75	0.0052699395
179	0x3a3726d8	0.0006986684
180	0x3b84deee	0.0040548956
181	0xbc9483b6	-0.01812921
182	0x3a786c88	0.00094766216
183	0x3cf00469	0.029298978
184	0x3c0daed0	0.008647636
185	0x3b0bcba0	0.0021331087
186	0x39986c80	0.00029072538
187	0x3951e198	0.00020015833
188	0xbb9cebe1	-0.004788861
189	0xbc8aacef	-0.016928164
190	0x3ac69b06	0.0015152402
191	0x3ad663da	0.0016356662
192	0x3926a5ad	0.00015892713
193	0xbaea4cc0	-0.0017875656
194	0x39a1a91c	0.0003083431
195	0xb9653ac3	-0.00021861032
196	0xba9589de	-0.0011408885
197	0xba67fd05	-0.00088496535
198	0x392a400b	0.00016236321
199	0xbac0b00e	-0.0014700906
200	0xbc05ae9c	-0.008159306
201	0x3b17451d	0.0023081966
202	0x3b0c49a3	0.0021406196
203	0xb76a37d1	-1.3960483e-05
204	0xbb448dde	-0.0029991786
205	0xbacc7e37	-0.001560158
206	0xba8e9a0c	-0.001087965
207	0x3a1416f6	0.00056491734
208	0xb9838391	-0.00025084292
209	0xb8cc21d5	-9.73378e-05
210	0x3a7d1951	0.00096549565
211	0xb988d735	-0.00026100283
212	0x3876fb41	5.888497e-05
213	0x3c31c017	0.01084902
214	0xb8ff983c	-0.000121877034
215	0xbc752a3e	-0.014963685
216	0xbbf7c4ac	-0.007561287
217	0xbaa001a2	-0.0012207518
218	0xb896917f	-7.179658e-05
219	0xb8f4e0ca	-0.00011676697
220	0xbc04466f	-0.008073433
221	0x3c23b34c	0.009991478
222	0xbaa089e0	-0.0012248121
223	0xb9051f6b	-0.00012695573
224	0xb7baa94c	-2.2251763e-05
225	0x3a34140d	0.0006869443
226	0x3836f25b	4.3617893e-05
227	0xb7745bc7	-1.4564902e-05
228	0x3b8157dc	0.003947241
229	0x38077df6	3.230382e-05
230	0xb9e23f33	-0.00043153166
231	0x3c07d920	0.008291513
232	0x3b201d91	0.0024431685
233	0x3bfbb4ed	0.00768148
234	0xbb180a7c	-0.0023199609
235	0x38814e40	6.1657745e-05
236	0x3afe92df	0.0019422433
237	0x3a19057a	0.0005837303
238	0x375b90fc	1.3087174e-05
239	0xb88d69ad	-6.7430876e-05
240	0x39860f2e	0.0002556978
241	0x38fddf15	0.000121055324
242	0xbaf95562	-0.0019022638
243	0x3810e0a5	3.4541492e-05
244	0x3aa629e2	0.0012677277
245	0xbbac833c	-0.005264668
246	0x37ec783b	2.8189379e-05
247	0xbc5aa84e	-0.013345791
248	0x3b2cbd00	0.002635777
249	0x3ad6be96	0.0016383703
250	0xb9a002ad	-0.00030519572
251	0xb89c4fc0	-7.453514e-05
252	0x3bbf8954	0.005845228
253	0xbbcf3885	-0.0063238763
254	0xb8bec09b	-9.0957816e-05
255	0x38f6c1fc	0.000117663265

bias f4 [10]
0	0xbed2bf4e	-0.4116158
1	0xbabafa69	-0.0014265302
2	0x39baf0e3	0.0003565616
3	0x399296c6	0.00027959625
4	0xba885714	-0.0010401928
5	0x3a0cd6e0	0.0005372595
6	0xbb44b4e3	-0.0030015043
7	0xb99ed2e3	-0.0003029323
8	0xbade9c15	-0.0016983772
9	0x3c8b3706	0.01699401

bias f4 [64]
0	0xb770970c	-1.4340283e-05
1	0x8000017d	-5.34e-43
2	0xb646bd40	-2.9614457e-06
3	0x0000018c	5.55e-43
4	0x8000015f	-4.92e-43
5	0xb5caa681	-1.5098632e-06
6	0x2a4d7acd	1.8250263e-13
7	0xb5418908	-7.209751e-07
8	0x000001ad	6.01e-43
9	0x2ea2354b	7.376374e-11
10	0x80000182	-5.41e-43
11	0x37c3f21e	2.3358556e-05
12	0x8000015f	-4.92e-43
13	0x3067757a	8.4204255e-10
14	0x3666de25	3.4401976e-06
15	0xaeff17d7	-1.1600292e-10
16	0x00000187	5.48e-43
17	0xb093f885	-1.0766291e-09
18	0xb0f5d764	-1.7887314e-09
19	0x323701a8	1.06523785e-08
20	0x2cf46aec	6.946768e-12
21	0x8000018d	-5.56e-43
22	0x2f907966	2.6279706e-10
23	0x8000018c	-5.55e-43
24	0xb7970617	-1.8003439e-05
25	0x330e8b62	3.318872e-08
26	0x37789285	1.4816066e-05
27	0x31dedc76	6.486114e-09
28	0xb0ecf470	-1.7240733e-09
29	0x35ac70f0	1.2847868e-06
30	0x333dc28f	4.418194e-08
31	0xb12dde99	-2.5301345e-09
32	0xb2fd069e	-2.9456086e-08
33	0x33326453	4.15351e-08
34	0xb7a59494	-1.973872e-05
35	0x366308e1	3.3830804e-06
36	0x2f8a8767	2.5198263e-10
37	0x34fc2971	4.696881e-07
38	0x2ecd0018	9.322337e-11
39	0x800001b5	-6.12e-43
40	0x3600e652	1.920755e-06
41	0x800001a8	-5.94e-43
42	0xb088e18d	-9.959408e-10
43	0x379937ee	1.8265066e-05
44	0x00000168	5.04e-43
45	0xb8235c1a	-3.8948005e-05
46	0xb4ac4ea0	-3.2094704e-07
47	0x2e449275	4.469532e-11
48	0x31fbab7a	7.324556e-09
49	0x80000182	-5.41e-43
50	0xb2a1341f	-1.8766569e-08
51	0x37e10c4e	2.682782e-05
52	0xb17a2f4d	-3.6406675e-09
53	0xb6c4dfff	-5.8673318e-06
54	0xb1513d68	-3.0448408e-09
55	0x80000183	-5.42e-43
56	0x80000163	-4.97e-43
57	0xb30a09e7	-3.2139635e-08
58	0xb32b6bb5	-3.9912e-08
59	0x800001ae	-6.03e-43
60	0x0000018a	5.52e-43
61	0x80000160	-4.93e-43
62	0xafd00c1f	-3.7843592e-10
63	0x80000162	-4.96e-43

weight f4 [64, 1]
0	0x2f19aa89	1.3975855e-10
1	0x00000193	5.65e-43
2	0xb295d584	-1.7442979e-08
3	0x00000166	5.02e-43
4	0x80000160	-4.93e-43
5	0x33c3970b	9.10787e-08
6	0xa9750f24	-5.441406e-14
7	0x30b576d1	1.3203253e-09
8	0x80000162	-4.96e-43
9	0xaa8c281c	-2.4896827e-13
10	0x80000162	-4.96e-43
11	0xac9ebf12	-4.511843e-12
12	0x80000160	-4.93e-43
13	0xaeca6930	-9.2045815e-11
14	0xb2b6aceb	-2.1266223e-08
15	0x2cff18c9	7.2502876e-12
16	0x00000166	5.02e-43
17	0xb0999776	-1.1175263e-09
18	0xb07340ff	-8.849525e-10
19	0xaf451227	-1.7923495e-10
20	0x2d5a93c7	1.24246785e-11
21	0x00000161	4.95e-43
22	0x2a18bcdf	1.356584e-13
23	0x0000015f	4.92e-43
24	0x33326bd5	4.1541927e-08
25	0xae8cb12d	-6.397936e-11
26	0xaf7f57c9	-2.3223302e-10
27	0xadfaffb4	-2.8535264e-11
28	0x27aebfe6	4.850276e-15
29	0xb05ff402	-8.1473683e-10
30	0xb19adb5f	-4.5069295e-09
31	0xb11886ef	-2.2195612e-09
32	0xb33b7075	-4.364161e-08
33	0xb1066d31	-1.9561635e-09
34	0x2f1cef41	1.4273117e-10
35	0x33b259a0	8.3050736e-08
36	0xab0074dd	-4.5636915e-13
37	0xb0937bf2	-1.0730885e-09
38	0x2796b80f	4.183292e-15
39	0x0000015f	4.92e-43
40	0xb2de8dd4	-2.5908697e-08
41	0x80000165	-5e-43
42	0xaf3273b7	-1.6230116e-10
43	0xb02e8f0a	-6.35041e-10
44	0x80000164	-4.99e-43
45	0x31bdd9a1	5.5253655e-09
46	0x30c4cfd2	1.4319943e-09
47	0x2e8133aa	5.875418e-11
48	0xb00fbbc5	-5.2289933e-10
49	0x00000164	4.99e-43
50	0xb1022391	-1.8937707e-09
51	0xb1f823ae	-7.2218063e-09
52	0xaea8e1e0	-7.679879e-11
53	0x2f669667	2.0971812e-10
54	0x332b63a4	3.9904663e-08
55	0x8000015f	-4.92e-43
56	0x80000164	-4.99e-43
57	0x2d14c82a	8.457271e-12
58	0xb10084df	-1.870198e-09
59	0x80000163	-4.97e-43
60	0x80000161	-4.95e-43
61	0x00000160	4.93e-43
62	0x2f048de1	1.2055736e-10
63	0x00000164	4.99e-43

bias f4 [64]
0	0xac53932e	-3.0066605e-12
1	0x313c21d6	2.7376834e-09
2	0x1b4bdb92	1.6862713e-22
3	0x31b4bb4f	5.259984e-09
4	0x3ab3c98a	0.001371668
5	0xad26f2aa	-9.48989e-12
6	0x3257caec	1.2560786e-08
7	0x39518dcd	0.00019984618
8	0xb7c9bb78	-2.4048364e-05
9	0xb181e133	-3.7799963e-09
10	0x2c4dbf58	2.923847e-12
11	0x3452ceb6	1.9632975e-07
12	0x2c4661d4	2.8191798e-12
13	0xafd0e588	-3.799807e-10
14	0xa9eb80f1	-1.0458464e-13
15	0x296c5e00	5.248406e-14
16	0x2e5049d2	4.735929e-11
17	0x3127bb90	2.4408315e-09
18	0x32682d32	1.3514454e-08
19	0xadfca79d	-2.8723518e-11
20	0x333eb934	4.4406264e-08
21	0x2e197927	3.4895777e-11
22	0xafbeee64	-3.4730185e-10
23	0xad3e6387	-1.0822349e-11
24	0x298490a1	5.887067e-14
25	0x2dc9e05f	2.2950695e-11
26	0x2babfd2d	1.2220551e-12
27	0x303e955c	6.933385e-10
28	0x303ed93a	6.9430295e-10
29	0x303e6619	6.9266687e-10
30	0xaf438917	-1.7783851e-10
31	0xae48dfa1	-4.5673357e-11
32	0x30f1dbaa	1.759749e-09
33	0xaf85fb93	-2.4371313e-10
34	0xaa1f3f0a	-1.4143908e-13
35	0x2949d3e3	4.4814748e-14
36	0x2bd0e7e5	1.4843653e-12
37	0x304fb9ab	7.557001e-10
38	0xaf5a977e	-1.9880805e-10
39	0x3091dae3	1.061235e-09
40	0xb63978b9	-2.7637418e-06
41	0x2f7e60e0	2.3135582e-10
42	0x31b8b183	5.3752856e-09
43	0x282b48ac	9.508165e-15
44	0x2a1358b6	1.3087e-13
45	0x31c40b6c	5.7056493e-09
46	0x31067a88	1.9569217e-09
47	0xb107f7e6	-1.9786e-09
48	0xb1aa5c40	-4.958139e-09
49	0x2c82d0ed	3.7180176e-12
50	0xae89c27e	-6.2645875e-11
51	0x3498b1b3	2.84415e-07
52	0x308292b3	9.500439e-10
53	0x29cefd78	9.1922075e-14
54	0x31867c6c	3.9140584e-09
55	0xaddf0288	-2.5353289e-11
56	0x2ecfb80a	9.445962e-11
57	0x2fc6e064	3.617543e-10
58	0x368042f3	3.822491e-06
59	0xb1df928b	-6.506814e-09
60	0xb12c0596	-2.503247e-09
61	0xb02a0d53	-6.1864575e-10
62	0x2f81ddaf	2.362248e-10
63	0x35abc038	1.2796436e-06

weight f4 [64, 64]
0	0x259ef373	2.7573599e-16
1	0x80000198	-5.72e-43
2	0x251e9852	1.3755924e-16
3	0x8000016a	-5.07e-43
4	0x80000164	-4.99e-43
5	0xa483656f	-5.698403e-17
6	0x239cbf46	1.6994561e-17
7	0x27f74132	6.8626957e-15
8	0x80000163	-4.97e-43
9	0x1e1f273d	8.425504e-21
10	0x800001b0	-6.05e-43
11	0x2bdaa4d0	1.5535576e-12
12	0x80000160	-4.93e-43
13	0xad63ee1b	-1.2956326e-11
14	0x319a11db	4.48402e-09
15	0x9d345b4a	-2.3869997e-21
16	0x0000018d	5.56e-43
17	0x1d461d2c	2.6220163e-21
18	0x9f083d78	-2.8849966e-20
19	0xa91171b1	-3.229508e-14
20	0x1e6bb692	1.2478551e-20
21	0x00000188	5.5e-43
22	0x9a41b30f	-4.0056107e-23
23	0x000001b9	6.18e-43
24	0xa59707bb	-2.6199563e-16
25	0x237e01d8	1.3769758e-17
26	0xa4a324c2	-7.075225e-17
27	0x21ea4d49	1.5876914e-18
28	0x2028163e	1.4237513e-19
29	0x262394ad	5.675348e-16
30	0xa20fcaac	-1.9487407e-18
31	0x9d9316ac	-3.893402e-21
32	0xa2de6239	-6.0277218e-18
33	0xa3303afa	-9.553468e-18
34	0x25206882	1.3913196e-16
35	0x2546c534	1.7240577e-16
36	0xa41e127c	-3.4276446e-17
37	0xa321caa4	-8.770738e-18
38	0xa8209f91	-8.916385e-15
39	0x80000161	-4.95e-43
40	0xa60dccd9	-4.919682e-16
41	0x80000161	-4.95e-43
42	0x1f01502b	2.7383126e-20
43	0x25b933b9	3.2127433e-16
44	0x00000162	4.96e-43
45	0xa682e5e3	-9.082873e-16
46	0x24d93f8d	9.421641e-17
47	0x1b018ef2	1.0716818e-22
48	0x22a94484	4.5880086e-18
49	0x80000189	-5.51e-43
50	0xb845c363	-4.7150428e-05
51	0x24eab6af	1.017908e-16
52	0x220819ce	1.8445098e-18
53	0xae80b9df	-5.8537834e-11
54	0x236023cd	1.21506454e-17
55	0x80000167	-5.03e-43
56	0x00000161	4.95e-43
57	0xa5385eee	-1.599162e-16
58	0xa1336727	-6.078408e-19
59	0x0000016f	5.14e-43
60	0x80000173	-5.2e-43
61	0x80000161	-4.95e-43
62	0xa2c80b11	-5.4221826e-18
63	0x80000164	-4.99e-43
64	0x2e26fbaf	3.796757e-11
65	0x80000165	-5e-43
66	0x29831c80	5.8225126e-14
67	0x00000166	5.02e-43
68	0x80000163	-4.97e-43
69	0xaaab8bc4	-3.0472684e-13
70	0x1e91c733	1.5434859e-20
71	0xaa32472a	-1.5834266e-13
72	0x000001b4	6.11e-43
73	0x23ed429b	2.57238e-17
74	0x00000165	5e-43
75	0xb8456c9c	-4.706961e-05
76	0x80000161	-4.95e-43
77	0xa60a05ff	-4.7886494e-16
78	0x2ab3841d	3.188846e-13
79	0x20eca5f6	4.008978e-19
80	0x000001aa	5.97e-43
81	0xa1e1a3c2	-1.5289939e-18
82	0x25b28c54	3.0973168e-16
83	0xa5e00f06	-3.8867986e-16
84	0x21cb18e2	1.3762401e-18
85	0x80000160	-4.93e-43
86	0xa1f8b36a	-1.6852624e-18
87	0x00000185	5.45e-43
88	0x29d74f1f	9.561643e-14
89	0x283f457c	1.0617697e-14
90	0xabc947aa	-1.43018e-12
91	0x27427acd	2.6989479e-15
92	0x22e212d6	6.1277366e-18
93	0xa8e2c53b	-2.5176575e-14
94	0xa612318e	-5.0721085e-16
95	0x23869ffa	1.4596062e-17
96	0xa7ddebda	-6.1595533e-15
97	0x347aec24	2.3368972e-07
98	0x2a4d5c2e	1.8239639e-13
99	0x2a6f15e2	2.1235056e-13
100	0xa3a9a118	-1.8391243e-17
101	0xa9964998	-6.6741046e-14
102	0x20e5f477	3.8955882e-19
103	0x8000016c	-5.1e-43
104	0xaade3d03	-3.9477457e-13
105	0x00000160	4.93e-43
106	0xa4148fad	-3.2214082e-17
107	0xa8fdc532	-2.8174162e-14
108	0x00000163	4.97e-43
109	0x29384659	4.0917224e-14
110	0xa8aeba94	-1.9398796e-14
111	0x1eeefa3d	2.5302726e-20
112	0xa6fc2b21	-1.7497703e-15
113	0x80000160	-4.93e-43
114	0xa6d451e9	-1.4732657e-15
115	0xa9ef4b6c	-1.0626816e-13
116	0xa5ab3650	-2.9700575e-16
117	0xb53d758f	-7.0579057e-07
118	0x27b10f84	4.914419e-15
119	0x80000164	-4.99e-43
120	0x80000165	-5e-43
121	0xa6ae6df5	-1.2103479e-15
122	0x2576cef6	2.140722e-16
123	0x00000166	5.02e-43
124	0x0000015f	4.92e-43
125	0x80000160	-4.93e-43
126	0x2f2cb516	1.5707644e-10
127	0x00000164	4.99e-43
128	0x14de3713	2.2437994e-26
129	0x800001b1	-6.07e-43
130	0x157d6195	5.1169922e-26
131	0x80000175	-5.23e-43
132	0x80000165	-5e-43
133	0x94d9d5cd	-2.199573e-26
134	0x89812a5e	-3.1095462e-33
135	0x1587448b	5.463421e-26
136	0x80000160	-4.93e-43
137	0x8f1f5b91	-7.85694e-30
138	0x80000161	-4.95e-43
139	0xa5ca2a61	-3.507013e-16
140	0x80000162	-4.96e-43
141	0x9025779a	-3.263265e-29
142	0x162464b4	1.3279591e-25
143	0x0ea25d1f	4.0025756e-30
144	0x00000168	5.04e-43
145	0x8d8845ff	-8.398498e-31
146	0x0fe723a0	2.2792081e-29
147	0x8ec2e18f	-4.8041897e-30
148	0x0d86b01e	8.300786e-31
149	0x0000015f	4.92e-43
150	0x0c8f5963	2.2086436e-31
151	0x80000170	-5.16e-43
152	0x15275e57	3.3799802e-26
153	0x11fea0e8	4.01733e-28
154	0x97e523bb	-1.4807798e-24
155	0x91e75389	-3.6496856e-28
156	0x0f01e389	6.404013e-30
157	0x966ef6aa	-1.930332e-25
158	0x1187e6cf	2.1441491e-28
159	0x0f5a0846	1.0749823e-29
160	0x13fe36d5	6.4172683e-27
161	0x12abeb75	1.0849662e-27
162	0x153d94d2	3.8285645e-26
163	0x95499b31	-4.071405e-26
164	0x8f60ea85	-1.10892195e-29
165	0x9503bf14	-2.6605973e-26
166	0x0c23bdd9	1.2614193e-31
167	0x80000170	-5.16e-43
168	0x149aa9ba	1.5616971e-26
169	0x80000163	-4.97e-43
170	0x1215c4ad	4.725853e-28
171	0x94978cf4	-1.53027e-26
172	0x80000170	-5.16e-43
173	0x15a3c27e	6.614203e-26
174	0x9411feb1	-7.370858e-27
175	0x8d801263	-7.8930355e-31
176	0x10af5777	6.916009e-29
177	0x8000016a	-5.07e-43
178	0x93101718	-1.8186741e-27
179	0x1501a14c	2.6178583e-26
180	0x0f8a010e	1.3608257e-29
181	0x174a017a	6.5271584e-25
182	0x90bb4a2b	-7.387277e-29
183	0x8000017a	-5.3e-43
184	0x00000162	4.96e-43
185	0x13e60082	5.8060663e-27
186	0x11105ac1	1.1387563e-28
187	0x80000164	-4.99e-43
188	0x00000162	4.96e-43
189	0x0000016c	5.1e-43
190	0x90972f1b	-5.9631576e-29
191	0x00000164	4.99e-43
192	0x2b562285	7.607598e-13
193	0x800001ad	-6.01e-43
194	0xb6bd3f88	-5.640035e-06
195	0x00000164	4.99e-43
196	0x000001a0	5.83e-43
197	0xb8ec0491	-0.000112542075
198	0xb7042adb	-7.877791e-06
199	0xac4ec1a1	-2.9381846e-12
200	0x80000169	-5.06e-43
201	0x24e6f45f	1.0016058e-16
202	0x80000164	-4.99e-43
203	0x3003e469	4.798211e-10
204	0x0000016d	5.11e-43
205	0xa6c9e51a	-1.4009275e-15
206	0x2a774411	2.1961622e-13
207	0x21916464	9.852155e-19
208	0x80000164	-4.99e-43
209	0x21df228e	1.5120214e-18
210	0x322f4afa	1.0203388e-08
211	0xb891e450	-6.956665e-05
212	0x232f2a01	9.495664e-18
213	0x8000015f	-4.92e-43
214	0x232523c8	8.952245e-18
215	0x80000160	-4.93e-43
216	0xaa275252	-1.486114e-13
217	0xa8a2bbd5	-1.8067072e-14
218	0xab085aed	-4.844309e-13
219	0x2776c902	3.4248325e-15
220	0xa31cf0e9	-8.507792e-18
221	0x31997d7f	4.4671533e-09
222	0xb3221dbc	-3.7745608e-08
223	0xa4ae5c41	-7.5616755e-17
224	0x29305a5f	3.9158235e-14
225	0xb1ef6099	-6.9667974e-09
226	0xab2e1ffc	-6.1861605e-13
227	0xabe28c25	-1.6097164e-12
228	0xa54deb3f	-1.786062e-16
229	0x2de21f72	2.570719e-11
230	0x225edf2d	3.0204759e-18
231	0x80000168	-5.04e-43
232	0x2ca812c1	4.7769293e-12
233	0x800001a1	-5.84e-43
234	0xa60cde71	-4.887372e-16
235	0x2baf3d73	1.2451553e-12
236	0x00000187	5.48e-43
237	0xa88dd7d2	-1.5747742e-14
238	0xaafe3a8c	-4.516009e-13
239	0x393a59bb	0.0001777177
240	0xb601b672	-1.9328695e-06
241	0x80000161	-4.95e-43
242	0xa93d83f6	-4.2080888e-14
243	0x2a301105	1.5637845e-13
244	0x2aa5b01e	2.9432094e-13
245	0x2a50447e	1.8497874e-13
246	0x28cf9f23	2.3050631e-14
247	0x8000016d	-5.11e-43
248	0x00000161	4.95e-43
249	0xa88ad544	-1.5413567e-14
250	0x2626661c	5.7731203e-16
251	0x00000160	4.93e-43
252	0x00000160	4.93e-43
253	0x80000172	-5.18e-43
254	0xa61a9d20	-5.3642427e-16
255	0x0000015f	4.92e-43

bias f4 [10]
0	0xbc0cf180	-0.0086025
1	0x383895ad	4.4008415e-05
2	0x3881962e	6.1791725e-05
3	0x3bf76509	0.007549886
4	0xb7e3d1ba	-2.715817e-05
5	0x3af2c806	0.0018522746
6	0xb9d63d1b	-0.00040862788
7	0xb5b2a671	-1.3310474e-06
8	0xbbe29bac	-0.00691553
9	0x36cf98df	6.1868773e-06
