ckpt/real_only_gcn-last.pt (torch, 142994 bytes, 17 tensors)

weight f4 [256, 7]
0	0xbb39735c	-0.002829752
1	0x3e4f9f6e	0.20275661
2	0xbe9f461e	-0.31108183
3	0xbe8e6ad5	-0.2781588
4	0xbe151186	-0.14557466
5	0x3dcf92aa	0.10135396
6	0xbbf56396	-0.007488678
7	0x3e997030	0.29968405
8	0xbd096370	-0.033542097
9	0x3dccd437	0.10001414
10	0xbde9ef38	-0.114225805
11	0xbd9827d6	-0.07429473
12	0xbeb8e07f	-0.36108777
13	0xbe8029d3	-0.2503191
14	0xbe1f8b86	-0.15580568
15	0x3c656518	0.014001153
16	0x3e190241	0.14942266
17	0x3e683aee	0.2267873
18	0xbe833194	-0.25623763
19	0xbe288a25	-0.16458948
20	0x3e0c93f5	0.13728316
21	0x3ea0b1e2	0.31385714
22	0xbd9f4dd3	-0.07778516
23	0x3e90cfc8	0.28283525
24	0xbd7988e9	-0.060921583
25	0x3d23d0b7	0.039993968
26	0x3eaf39cc	0.34223783
27	0xbeb3854f	-0.35062644
28	0xbe73a753	-0.23794298
29	0xbdc3f7ca	-0.095687464
30	0xbe16ddd1	-0.14733054
31	0x3ea73315	0.3265616
32	0xbe7ade5d	-0.24498887
33	0xbe322a4c	-0.17398947
34	0xbe87330a	-0.26406127
35	0xbeb53dc1	-0.35398677
36	0xbe61eda8	-0.22063315
37	0x3ea658f8	0.32489753
38	0x3e2cb3d1	0.1686547
39	0x3e3b95e6	0.183189
40	0x3ca2d6a5	0.019877741
41	0xbe466d41	-0.19377615
42	0x3d82f604	0.0639458
43	0xbeb4afc2	-0.35290343
44	0xbe8bd456	-0.27310437
45	0xbe47874a	-0.19485202
46	0x3e743209	0.23847212
47	0x3e62ed5d	0.2216086
48	0xbe2ba5fc	-0.16762537
49	0xbc5f7155	-0.01363786
50	0x3e778863	0.24173121
51	0x3ec061e9	0.375747
52	0x3e199b88	0.15000737
53	0x3d51249b	0.0510603
54	0x3e81c044	0.25342
55	0xbe63e332	-0.22254637
56	0x3d903e59	0.07043142
57	0xbe960911	-0.29303792
58	0xbe861fe0	-0.26196194
59	0xbe47efad	-0.19525023
60	0x3e2f1f89	0.17101873
61	0x3e1ba681	0.15200235
62	0xbe6542f3	-0.2238882
63	0x3de9da38	0.11418575
64	0x3e5478c3	0.20749192
65	0xbd436708	-0.04770568
66	0x3c6c711f	0.014431267
67	0x3db35b20	0.08757615
68	0x3e701b9b	0.2344803
69	0x3eb9d08d	0.36291924
70	0xbe95211f	-0.29126832
71	0xbe0dd63b	-0.13851254
72	0x3e181bdc	0.14854378
73	0x3ea056cd	0.31316224
74	0x3ea8668e	0.32890743
75	0x3eaac072	0.3334995
76	0x3d9a0d2b	0.07522043
77	0xbea8479c	-0.32867134
78	0x3d0e6ae1	0.034769896
79	0xbe7221ad	-0.23645659
80	0xbeb45987	-0.35224554
81	0x3eabf06a	0.3358186
82	0x3e9324a6	0.28738898
83	0xbec10a18	-0.37703013
84	0x3d90e26f	0.07074439
85	0xbd82666a	-0.0636719
86	0xbd7ec39c	-0.062198266
87	0xbe312b10	-0.17301583
88	0x3e14d641	0.14534856
89	0xbe653e18	-0.22386968
90	0x3e0de247	0.13855849
91	0x3e43ba20	0.1911397
92	0x3e8a88ad	0.270574
93	0x3e10b789	0.14132513
94	0xbebf8809	-0.37408474
95	0xbe7b119d	-0.24518438
96	0x3e4140b1	0.18872334
97	0x3da203a0	0.07910848
98	0xbe96f5cc	-0.29484403
99	0xbe5edcd7	-0.21763931
100	0x3eb60d3f	0.3555698
101	0x3e826550	0.2546792
102	0xbe28c1dc	-0.16480201
103	0xbdc2d26b	-0.0951279
104	0xbeb8583e	-0.36004823
105	0xbbde9cba	-0.0067935856
106	0xbe91baf6	-0.28462952
107	0xbe954571	-0.29154542
108	0xbcaa9aa5	-0.020825693
109	0x3d687229	0.056749497
110	0xbe1e80b8	-0.1547879
111	0x3e65a884	0.22427565
112	0xbe6b86bc	-0.23000616
113	0x3eaf979f	0.34295365
114	0x3e849e23	0.259019
115	0xbea330b5	-0.31873098
116	0xbdc0a779	-0.09406943
117	0x3c8bb666	0.017054748
118	0x3d61e02b	0.055145424
119	0x3db796fc	0.08964345
120	0x3e17e23b	0.14832394
121	0x3cb977cd	0.022640133
122	0xbe3cd887	-0.18441974
123	0x3e372418	0.17884862
124	0xbeb9a1ba	-0.362562
125	0xbe65660a	-0.22402206
126	0xbdc1c5ec	-0.09461579
127	0xbe3c87bc	-0.18411154
128	0xbe0765e2	-0.13222459
129	0xbe9e9c84	-0.30978787
130	0xbda4a81c	-0.08039877
131	0x3da57674	0.08079234
132	0xbe7c23f5	-0.24623092
133	0xbc9ee63d	-0.019396896
134	0x3e8a87a6	0.27056617
135	0xbd1f2641	-0.03885484
136	0x3c2c1af1	0.01050447
137	0xbd058e7a	-0.03260658
138	0x3d9ca858	0.076492965
139	0x3e7617af	0.24032472
140	0x3eb74f1b	0.3580254
141	0x3e75ca0c	0.24002856
142	0x3eb7ba7a	0.35884458
143	0xbcdfedaf	-0.027335016
144	0xbeadd759	-0.3395336
145	0xbe377c1a	-0.17918435
146	0x3e83c46d	0.25735798
147	0xbb2092a9	-0.0024501479
148	0xbe405fe8	-0.18786585
149	0xbe944b83	-0.2896386
150	0xbeb51aa2	-0.35371882
151	0xbea354a3	-0.3190051
152	0xbd9d0295	-0.07666508
153	0x3e5440ae	0.20727798
154	0x3e513f52	0.20434311
155	0xbebaa27f	-0.364521
156	0x3e716d05	0.23576744
157	0xbe976df4	-0.29576075
158	0xbda3a589	-0.07990558
159	0xbe1ceeaf	-0.15325426
160	0xbd951913	-0.07280173
161	0xbd97fbb6	-0.07421057
162	0xbeada738	-0.3391664
163	0xbea71732	-0.32634884
164	0xbd7240a5	-0.05914368
165	0x3ba02ab8	0.004887905
166	0xbe2fd210	-0.17169976
167	0x3e11cbc7	0.14237891
168	0xbeae2d65	-0.34019008
169	0xbcd0f5b0	-0.025507778
170	0x3eaa2eee	0.3323893
171	0xbe1dde65	-0.15416868
172	0x3eaebf47	0.34130308
173	0x3e0c2a9a	0.13688126
174	0xbeaea46b	-0.34109816
175	0x3e74e05c	0.23913711
176	0xbd32a5a7	-0.04361501
177	0xbe2cc67d	-0.16872592
178	0x3e9abf45	0.30224052
179	0xbe9c617d	-0.30543128
180	0x3d261f92	0.04055745
181	0xbda210f8	-0.07913393
182	0x3e8a318a	0.2699092
183	0x3dd813e7	0.10550671
184	0x3e39f902	0.18161395
185	0x3e08af62	0.13348153
186	0xbdba2501	-0.09089089
187	0xbda2ca99	-0.07948799
188	0xbe9f7974	-0.3114735
189	0x3e51b686	0.20479783
190	0x3e99a61e	0.3000955
191	0x3e8468e2	0.2586127
192	0xbe8880d6	-0.26660794
193	0x3c8a180e	0.016857173
194	0xbe886ad5	-0.26644006
195	0xbe550e96	-0.20806345
196	0xbe61871d	-0.22024198
197	0x3e04447a	0.12916747
198	0xbe66a3be	-0.225234
199	0xbc071ac6	-0.008246129
200	0x3c824141	0.015900256
201	0x3e797df9	0.24364461
202	0xbe9248b4	-0.28571093
203	0xbe84da33	-0.25947723
204	0xbe60bc98	-0.21946943
205	0x3e877318	0.26454997
206	0xbe0b2032	-0.135865
207	0x3ea33ae7	0.31880876
208	0x3e0bf47b	0.1366748
209	0x3d4408fd	0.047860134
210	0xbb3863fb	-0.0028135765
211	0xbd990504	-0.0747166
212	0x3d423d62	0.04742182
213	0xbdb0c14b	-0.08630618
214	0xbb2e0bf7	-0.0026557425
215	0x3d45883e	0.048225634
216	0xbe975ee1	-0.29564574
217	0xbe4adb87	-0.19810306
218	0x3e9c43a4	0.30520356
219	0xbe9d0c7a	-0.3067358
220	0xbcde551a	-0.027140189
221	0x3ebf6f71	0.3738971
222	0x3e0bcfc5	0.13653477
223	0x3c2f549a	0.010701323
224	0xbea7b457	-0.32754776
225	0x3e3fba98	0.18723524
226	0xbe89d6c9	-0.2692168
227	0xbddbbb2d	-0.1072906
228	0xbe01db55	-0.12681325
229	0xbd6542a7	-0.055971768
230	0x3b8778e3	0.004134284
231	0x3e9f9d6d	0.31174794
232	0x3d4144af	0.047184642
233	0x3ead551f	0.33854005
234	0x3e6cc127	0.23120557
235	0xbe74b077	-0.23895441
236	0x3e2d9649	0.1695186
237	0xbe88cc07	-0.2671816
238	0xbe240912	-0.16019085
239	0x3de3ac03	0.11116793
240	0x3dff979a	0.124800876
241	0x3e912eb7	0.28355953
242	0xbdf92f91	-0.12167276
243	0x3a1e9d7b	0.0006050688
244	0x3e47414b	0.19458501
245	0xbebb2649	-0.36552647
246	0x3e8be8dd	0.27326098
247	0xbea00633	-0.3125473
248	0x3baab2bd	0.0052092955
249	0xbd839ae7	-0.0642603
250	0xbe4bd758	-0.19906366
251	0x3d4c9e9d	0.049955953
252	0x3ea00604	0.3125459
253	0xbde246b1	-0.110486396
254	0xbe65c7e0	-0.22439528
255	0xbe0f240b	-0.13978593

bias f4 [256]
0	0x3e99fcf3	0.30075797
1	0x3e4b1922	0.19833806
2	0x3e1ae3b2	0.15125921
3	0xbdc8e288	-0.098088324
4	0x3e4d8f24	0.20074135
5	0x3e3a1cea	0.18175092
6	0x3e05fbb5	0.130843
7	0xbc32c29d	-0.010910657
8	0x3d673ee0	0.056456447
9	0x3adbcdd7	0.0016769719
10	0xbe8c70d9	-0.27429846
11	0x3db3b11c	0.08774015
12	0xbe8e4383	-0.27785882
13	0x3e3bca4b	0.18338887
14	0xbe66997b	-0.22519486
15	0xbdfcd9cb	-0.12346228
16	0xbe378d89	-0.17925085
17	0x3e98beeb	0.2983316
18	0xbe884762	-0.2661696
19	0x3e45a02d	0.19299383
20	0x3e421c2e	0.18956062
21	0x3e88d4dc	0.267249
22	0x3dc1f25b	0.09470054
23	0x3e52fdf2	0.20604685
24	0x3e98f9d0	0.29878092
25	0x3d98793e	0.07445
26	0x3e039955	0.1285146
27	0xbe975173	-0.29554328
28	0xbdcfa106	-0.10138135
29	0x3d0c5f7e	0.034270756
30	0x3d3b9206	0.045793556
31	0xbe08bd79	-0.13353528
32	0xbebfd76d	-0.37469044
33	0xbdc94e22	-0.09829356
34	0x3e142c50	0.14470029
35	0x3ea6a1ea	0.32545406
36	0xbeaec092	-0.34131294
37	0x3e38c8bf	0.18045329
38	0xbeb79fbe	-0.3586406
39	0xbeb90fba	-0.3614481
40	0xbe726102	-0.23669818
41	0xbd4c7bd8	-0.049922794
42	0x3dd83181	0.10556317
43	0xbe932c26	-0.2874462
44	0x3e951807	0.29119894
45	0x3eaeffba	0.3417948
46	0x3cbe80c1	0.023254754
47	0x3e9d8538	0.307657
48	0xbe2f378c	-0.17111033
49	0xbe191bf7	-0.14952074
50	0xbd47c7b2	-0.04877443
51	0x3d292886	0.04129841
52	0xbe86fed1	-0.26366284
53	0xbe9af4fc	-0.30265033
54	0x3e18e459	0.14930858
55	0x3ddf2f79	0.108977266
56	0x3ebd4ffc	0.36975086
57	0xbe1dcca7	-0.154101
58	0x3e08ad8a	0.1334745
59	0xbe1c2f0b	-0.1525232
60	0x3e3f0f58	0.18658197
61	0xbcab84e3	-0.020937389
62	0x3e8f74d0	0.28018808
63	0x3e57065e	0.20998523
64	0x3ea112f7	0.31459782
65	0x3e46e557	0.19423424
66	0x3c68a774	0.01420008
67	0x3ea6c4b0	0.32571936
68	0xbe635673	-0.22200947
69	0x3eb685f8	0.35649085
70	0x3ebd1a64	0.36934197
71	0x3eb8dc80	0.36105728
72	0xbe34cadc	-0.1765551
73	0xbe4d12f2	-0.20026758
74	0x3cc3e58e	0.023913171
75	0x3df10b48	0.1176973
76	0x3e4225c6	0.18959722
77	0x3e1d6893	0.15371923
78	0x3ea4c743	0.32183275
79	0xbdc1ef98	-0.09469527
80	0xbdfdf3c7	-0.124000125
81	0x3e01bc02	0.12669376
82	0x3dd7b551	0.1053263
83	0xbe61c4c1	-0.22047712
84	0x3d15be56	0.03655847
85	0xbe92eda9	-0.28696945
86	0xbde316b1	-0.110883124
87	0xbe17e6ac	-0.14834088
88	0x3ea9a26e	0.33131737
89	0xbeae331b	-0.34023365
90	0xbe6483f8	-0.22315967
91	0xbebd61e0	-0.36988735
92	0x3dc33994	0.095324665
93	0xbe94f2d2	-0.29091507
94	0x3dfa718c	0.122286886
95	0xbe866b6c	-0.2625383
96	0xbe77ed78	-0.24211681
97	0xbe45ba20	-0.19309282
98	0x3d685404	0.05672075
99	0x3eb1d1de	0.34730428
100	0x3eb54540	0.35404396
101	0xbce9ec68	-0.02855511
102	0xbebd8cd2	-0.370215
103	0xbdffbbdd	-0.12487004
104	0xbe1380e8	-0.14404643
105	0xbda4a442	-0.08039142
106	0x3e13e1c2	0.14441589
107	0x3e42c516	0.19020495
108	0x3e2b9a11	0.1675799
109	0x3ddd20a9	0.10797245
110	0xbe1caece	-0.15301058
111	0xbb83624d	-0.004009521
112	0x3d450737	0.048102584
113	0xbe45b1ae	-0.1930606
114	0xbd0a7dba	-0.03381131
115	0xbd4140c3	-0.047180902
116	0xbeb6d68d	-0.35710564
117	0x3e8330aa	0.25623065
118	0xbd1c8562	-0.03821314
119	0xbea749d2	-0.32673508
120	0x3e991b2e	0.2990355
121	0xbe5040fa	-0.20337287
122	0x3e090712	0.13381603
123	0x3ebfe9ff	0.37483212
124	0x3c8f55bc	0.017496936
125	0x3ddeb3ff	0.10874175
126	0x3e19c7c6	0.15017614
127	0x3e924250	0.28566217
128	0xbded80b0	-0.11596811
129	0xbe59cad3	-0.21268778
130	0xbcf24e35	-0.029578308
131	0x3e97573f	0.2955875
132	0x3d051cb6	0.032498084
133	0x3e867558	0.262614
134	0xbb3829c7	-0.0028101073
135	0x3ded802b	0.11596712
136	0x3c57546b	0.013142685
137	0x3c281a78	0.010260217
138	0xbeb827c3	-0.35967836
139	0xbea92e0d	-0.33042946
140	0x3d00b280	0.03142023
141	0x3e3f8e96	0.18706736
142	0x3e81feff	0.2538986
143	0x3c865867	0.016399575
144	0x3e2324d6	0.1593202
145	0x3e21df66	0.15807876
146	0xbea70e00	-0.3262787
147	0xbeaa16da	-0.3322056
148	0xbe960b13	-0.29305324
149	0x3bd4ef2b	0.0064982376
150	0xbe74ba9f	-0.23899315
151	0xbdf7b680	-0.12095356
152	0xbd679fba	-0.05654881
153	0x3e1701aa	0.14746729
154	0x3db379b1	0.08763445
155	0x3eb38594	0.3506285
156	0x3eae8d20	0.34092045
157	0xbe76e977	-0.24112497
158	0xba9c11de	-0.001190718
159	0x3d7fa6dd	0.062414993
160	0x3ea8f0d5	0.3299624
161	0xbdefe6a5	-0.11713914
162	0xbe181b18	-0.14854085
163	0xbe752b8d	-0.23942395
164	0x3e8e9883	0.27850732
165	0xbddb4ce2	-0.107080236
166	0xbe10f460	-0.14155722
167	0x3e82e3ba	0.25564367
168	0x3eb2116c	0.34778917
169	0xbc827b45	-0.01592792
170	0xbe886971	-0.26642945
171	0x3e9dace9	0.30795982
172	0xbe045e37	-0.12926565
173	0xbe325b0a	-0.17417541
174	0xbe880c32	-0.26571804
175	0xbe3a2396	-0.18177637
176	0xbe978e70	-0.2960086
177	0xbe5f6708	-0.21816647
178	0xbeb0495f	-0.34430978
179	0xbd9c0425	-0.07617978
180	0x3e1b9e0f	0.15197013
181	0xbe92e780	-0.28692245
182	0xba0a5ed4	-0.0005278413
183	0xbe0eb954	-0.13937885
184	0x3e3b355d	0.18282075
185	0x3ea79c23	0.3273631
186	0xbd4d39f5	-0.0501041
187	0xbe42cb7f	-0.1902294
188	0xbe94b131	-0.29041436
189	0xbe636451	-0.22206236
190	0x3ddf7e04	0.109127074
191	0x3db19b00	0.08672142
192	0x3e506e1b	0.20354502
193	0xbd6609a7	-0.05616155
194	0x3e46df33	0.19421081
195	0xbeac68d1	-0.3367372
196	0x3dd015cb	0.10160407
197	0x3ebbdda8	0.36692548
198	0xbebf8636	-0.37407082
199	0xbe48ebbb	-0.19621174
200	0x3e77c4b0	0.24196124
201	0xbd720cd1	-0.059094254
202	0xbe4e4e89	-0.20147146
203	0x3e6c1de2	0.23058274
204	0x3ccf8e0e	0.025336292
205	0x3c728b70	0.014803752
206	0xbdeb1ca5	-0.11480073
207	0x3e91cdd1	0.28477338
208	0x3e56b004	0.20965582
209	0x3d8aab1c	0.06770918
210	0x3d6c43ab	0.05768172
211	0x3e48222c	0.19544286
212	0x3e712085	0.23547561
213	0xbe1ec337	-0.15504156
214	0xbd299de1	-0.04141033
215	0x3e29ead8	0.16593492
216	0xbe3b8c97	-0.1831535
217	0x3eb4f2e5	0.35341564
218	0xbe848f3f	-0.25890538
219	0x3e3298af	0.17441057
220	0xbe8b019a	-0.2714966
221	0x3df88741	0.12135173
222	0x3e8729f3	0.26399192
223	0x3d3aa0bd	0.04556345
224	0xbd1b2aca	-0.037882604
225	0x3e761f08	0.24035275
226	0xbe8af428	-0.271394
227	0xbe828f51	-0.25499967
228	0xbea4ef3e	-0.32213777
229	0xbe6e3d4b	-0.23265569
230	0x3c20b936	0.009809783
231	0xbe2f7fea	-0.17138639
232	0x3dac7393	0.084204815
233	0x3c50f7c5	0.012754385
234	0x3ea10e7d	0.31456366
235	0xbe27d262	-0.16388848
236	0xbdd3c292	-0.10339846
237	0x3e7ffba8	0.24998343
238	0xbdc3ba35	-0.095570005
239	0x3eb945df	0.3618612
240	0xbe19b90c	-0.15011996
241	0xbb87a45a	-0.0041394653
242	0xbdb76634	-0.089550406
243	0x3e3491fa	0.1763381
244	0x3e144caa	0.1448237
245	0xbe4e1b7f	-0.20127676
246	0x3e7f08ac	0.24905652
247	0xbcc4beb2	-0.024016712
248	0xbdc3beca	-0.095578745
249	0xbbf9d420	-0.007624164
250	0x3e86ad8a	0.26304275
251	0x3ebdd460	0.37076092
252	0x3e3c53f1	0.18391396
253	0x3d8772ef	0.06613719
254	0x3e7c97bb	0.24667256
255	0xbe21d889	-0.15805258

weight f4 [32, 256]
0	0xbd05c950	-0.03266269
1	0xbc93dbbc	-0.018049113
2	0xbd25b078	-0.040451497
3	0x3cdc24e0	0.026873052
4	0x3bc28a00	0.005936861
5	0xbcaf2c3c	-0.021383397
6	0xbbcfeaf0	-0.0063451454
7	0xbaa26e00	-0.0012392402
8	0x3d5b8092	0.05358941
9	0x3d6485c8	0.055791646
10	0xbd4514c2	-0.0481155
11	0x3cbba578	0.02290605
12	0x3cc5b524	0.024134226
13	0x3cc3c5b0	0.023897976
14	0xbc0b9a80	-0.008520722
15	0x3c800b8c	0.015630506
16	0x3c80d680	0.015727282
17	0x3d792a1c	0.060831174
18	0xbd755b86	-0.059901737
19	0xbcc24aa4	-0.023717232
20	0xbd2c3cc0	-0.042050123
21	0xbcf85b20	-0.03031689
22	0x3c490ce0	0.012271136
23	0x3d1c2156	0.03811773
24	0xbd41973e	-0.047263376
25	0x3d268164	0.04065074
26	0x3d55d65c	0.052206382
27	0xbcfc5e50	-0.03080669
28	0x3c32ba40	0.010908663
29	0xbd036cb6	-0.032086097
30	0x3c5b53c0	0.013386667
31	0xbced5ff8	-0.028976426
32	0xbcc773bc	-0.024347179
33	0xbd2b5ee2	-0.041838534
34	0xbd557a7a	-0.052118756
35	0x3d4c4aaa	0.049875893
36	0xbc015080	-0.007892728
37	0xbae34380	-0.0017338842
38	0xbcfece8c	-0.031104349
39	0x3d326eca	0.043562688
40	0xbd128710	-0.035773337
41	0xbccf15a8	-0.025278881
42	0xbd47d65c	-0.048788413
43	0xbd5743f2	-0.052555032
44	0x3d63466e	0.05548709
45	0xbd45ae9e	-0.04826223
46	0xbc0d5f30	-0.0086286515
47	0xbc943420	-0.018091261
48	0x3cbb8a10	0.022892982
49	0x3c88f1b4	0.016716816
50	0xbd443f4e	-0.047911935
51	0x3d65e834	0.05612965
52	0xbd7f0288	-0.062258273
53	0x3bca8f30	0.00618162
54	0xbbab1910	-0.0052214935
55	0xbc6d4d68	-0.014483787
56	0x3d2e749c	0.042591676
57	0x3d582524	0.052769795
58	0x3c0563c8	0.0081414655
59	0xbcb4d680	-0.022074938
60	0x3d3e52b6	0.046465598
61	0x3d20d648	0.039266855
62	0x3c37eb30	0.011225507
63	0xbc8c09b0	-0.017094463
64	0x3b2cafe0	0.0026349947
65	0x3d642bd8	0.055705875
66	0x3bde1830	0.0067777857
67	0xbc49cb70	-0.01231657
68	0xbd58be66	-0.052915953
69	0xbd092f9a	-0.033492662
70	0x3d38e462	0.045139678
71	0xbb103c20	-0.0022008494
72	0xbb8861f0	-0.0041620657
73	0x3cc75a48	0.024335042
74	0xbd286de8	-0.04112044
75	0xbb8a5910	-0.004222043
76	0xbc900094	-0.0175784
77	0x3d05f1ce	0.032701306
78	0x3d5056c4	0.050863996
79	0x3d20be8e	0.039244227
80	0x3d3edcbc	0.046597227
81	0xbd64c9a6	-0.05585637
82	0xbcb5c4c0	-0.022188544
83	0x3bf28410	0.007400997
84	0xbd596f50	-0.05308467
85	0x3c8ae440	0.016954541
86	0xbd27cda6	-0.040967606
87	0x3cdb65fc	0.026782028
88	0x3d4f31b6	0.050584517
89	0xbd5afeb6	-0.053465568
90	0x3d568364	0.052371398
91	0x3ceee660	0.029162586
92	0xbd28f0a0	-0.041245103
93	0x3d750998	0.059823602
94	0xbd5db7f8	-0.054130524
95	0xbd2c5820	-0.04207623
96	0xbcfeb134	-0.031090356
97	0xbb4f6a40	-0.0031649023
98	0x3c37e140	0.011223137
99	0xbc9641c8	-0.018341914
100	0xbd72a61e	-0.059240453
101	0xbbec6760	-0.0072144717
102	0x3d423b36	0.04741975
103	0x3d451a9c	0.04812108
104	0x3d0026cc	0.031287
105	0x3c14ac68	0.009074308
106	0x3c7e7020	0.015529662
107	0xbd455a54	-0.048181847
108	0x3ccf543c	0.02530872
109	0xbd7ec7c6	-0.062202238
110	0xbcd370c8	-0.025810614
111	0xbc868d58	-0.01642482
112	0x3d3bfd32	0.045895763
113	0xbaeecd40	-0.0018219128
114	0xbce93884	-0.028469332
115	0x3c32e6d8	0.010919295
116	0xbd546bd4	-0.051860645
117	0xbc878e48	-0.016547337
118	0x3c8dccac	0.01730951
119	0xbb87a2c0	-0.0041392744
120	0xbbd71490	-0.0065637305
121	0x3d1c75fa	0.03819845
122	0xbd4276fc	-0.047476754
123	0xbd0142ce	-0.03155785
124	0x3d77ccfa	0.060498215
125	0x3c4bc3c0	0.012436807
126	0xbc25cc00	-0.010119438
127	0x3d049abe	0.032374136
128	0x3d1a0170	0.037599027
129	0xbc2b1c90	-0.010443822
130	0xbcd544e8	-0.026033834
131	0xbc276170	-0.010216102
132	0x3cb9e958	0.022694275
133	0xbc02ba10	-0.007978931
134	0x3d14fdfe	0.03637504
135	0xbd50c3a4	-0.050967827
136	0xbcfb3414	-0.030664481
137	0x3d4328b2	0.047646232
138	0x3c065668	0.008199312
139	0x3c4e3460	0.012585729
140	0x3ca864f8	0.020555958
141	0xbc71f6d8	-0.014768325
142	0xbcccc0b4	-0.024994232
143	0x3c92e27c	0.017930262
144	0xbc87b224	-0.016564436
145	0xbcd38190	-0.025818616
146	0x3c0749d8	0.008257352
147	0x3c77afc0	0.015117586
148	0xbbb8ead0	-0.005643226
149	0xbd2d21b0	-0.042268455
150	0xbc1ad4c0	-0.009450138
151	0xbd11150e	-0.03542047
152	0x3d06bcb2	0.032894798
153	0xbd29a022	-0.04141248
154	0x3d4c1e3a	0.049833514
155	0x3ccbec70	0.024893016
156	0xbd5b3798	-0.053519815
157	0x3d3dfa54	0.04638131
158	0xbd7d2aec	-0.06180851
159	0xbb6e2580	-0.003633827
160	0xbd1fd5de	-0.03902232
161	0xbd5c3b00	-0.053767204
162	0x3bcaea70	0.006192498
163	0xbcf83f68	-0.030303672
164	0x3d390bc4	0.045177236
165	0xbd493e7e	-0.049131863
166	0x3d547c60	0.051876426
167	0x3d1a71ac	0.037706062
168	0x3d60385a	0.05474124
169	0xbc95ee18	-0.018302009
170	0xbd1cea9e	-0.038309686
171	0xbd2a13d4	-0.041522816
172	0x3d54e1ce	0.051973157
173	0xbcfea808	-0.031085983
174	0xbbfc2a40	-0.0076954663
175	0xbc1dd5f8	-0.009633534
176	0x3c302aa8	0.010752358
177	0xbd52117c	-0.051286206
178	0x3d4e6c40	0.050396204
179	0xbd3d6c9c	-0.046246156
180	0x3d7bca8c	0.06147246
181	0xbcc85668	-0.024455264
182	0xbce49174	-0.027901389
183	0xbc0cc058	-0.00859078
184	0x3c978790	0.018497258
185	0xbc3dbb48	-0.011580296
186	0xbd7f801a	-0.062378027
187	0x3d3410f4	0.04396148
188	0x3d7d90a4	0.06190552
189	0x3d0128cc	0.031533048
190	0x3d7a80b2	0.06115789
191	0x3c8b8bb8	0.017034397
192	0xbba07b10	-0.0048974827
193	0xbd4be71e	-0.049780957
194	0xbd5fbeca	-0.05462531
195	0xbd304156	-0.04303106
196	0xbc81e7fc	-0.01585769
197	0x3d151212	0.036394186
198	0xbcd33e34	-0.025786497
199	0xbb1f15e0	-0.0024274513
200	0xba673a80	-0.0008820668
201	0xbd275780	-0.04085493
202	0xbaddc240	-0.0016918853
203	0x3d772e86	0.060347103
204	0x3d4c9bf2	0.04995341
205	0x3d42f97a	0.0476012
206	0xbbc9fca0	-0.0061641484
207	0x3a914900	0.0011084378
208	0x3d0bf3a8	0.034167916
209	0xbcaa4e08	-0.020789161
210	0xbccf7fb4	-0.025329448
211	0x3d5b07de	0.0534743
212	0x3b69d8a0	0.0035682097
213	0xbd2cda58	-0.042200416
214	0x3d57b4fa	0.052662827
215	0x3c29f5f0	0.0103735775
216	0x3d08f988	0.033441097
217	0xbd5e56ae	-0.054281883
218	0x3c3e0680	0.011598229
219	0x3d1c9520	0.038228154
220	0xbc13ba38	-0.009016566
221	0xbd1182f6	-0.035525285
222	0x3d4cd0c0	0.050003767
223	0x3cee2458	0.029070064
224	0x3c91d20c	0.017800353
225	0x3c722c40	0.014781058
226	0x3ab4cf80	0.001379475
227	0x3d12ceb8	0.035841674
228	0xbc5fdab8	-0.013662986
229	0xbd16b16c	-0.036790296
230	0x3cc38198	0.023865506
231	0x3c889970	0.016674727
232	0x3cc2f17c	0.02379679
233	0xbbe37940	-0.0069419444
234	0xbc07e3a8	-0.008294024
235	0xbba2c5e0	-0.004967436
236	0x3c87016c	0.01648017
237	0xbd44719e	-0.047959916
238	0xbd6e9b72	-0.058253713
239	0x3cbf969c	0.023387246
240	0xbd0c2934	-0.03421898
241	0xbbac4890	-0.0052576736
242	0x3c8df0e8	0.017326787
243	0x3c0fa028	0.008766212
244	0x3d250892	0.040291376
245	0x3c063ac0	0.008192718
246	0x3c7d8460	0.015473455
247	0xbbb75180	-0.0055944324
248	0x3c172708	0.009225614
249	0x3cbbbcec	0.022917233
250	0x3d2ea59c	0.042638406
251	0xbd729026	-0.059219502
252	0xbcd547c4	-0.026035197
253	0xbd65b7f8	-0.05608365
254	0xbccc21a8	-0.024918392
255	0x3d1c0d68	0.038098723

bias f4 [32]
0	0x3d2f30ec	0.042771265
1	0xba932680	-0.0011226684
2	0xbd537dec	-0.05163376
3	0xbd1aea2e	-0.037820987
4	0x3d1c0bec	0.038097307
5	0xbd59ed9a	-0.05320511
6	0xbd3b800c	-0.045776412
7	0xbd22f6da	-0.039786197
8	0xbc89852c	-0.016787134
9	0x3ceeb6a4	0.029139824
10	0x3d316ef4	0.043318704
11	0x3d454fd4	0.048171833
12	0x3cedac24	0.029012747
13	0x3c687e68	0.014190294
14	0xbc86bedc	-0.01644843
15	0xbd1cdac6	-0.038294576
16	0xbd025f7e	-0.03182935
17	0xbaf72140	-0.0018854514
18	0x3d5da2ea	0.054110445
19	0xbcb63b24	-0.022244997
20	0xbc197d68	-0.009368278
21	0xbadde800	-0.0016930103
22	0xbce66978	-0.028126463
23	0xbcf37718	-0.029719874
24	0x3c917278	0.017754778
25	0xbd36c096	-0.044617258
26	0xbb779b80	-0.0037781894
27	0xbc771330	-0.015080258
28	0x3c631540	0.013860047
29	0xbc02dc00	-0.007987022
30	0xbd0624de	-0.032750003
31	0xbc9a9318	-0.018868968

weight f4 [10, 32]
0	0xbd3379b3	-0.043817233
1	0x3d9a1a73	0.07524576
2	0x3d2549fa	0.040353753
3	0xbd60ae84	-0.05485393
4	0x3e0ddf84	0.13854796
5	0x3c808fe3	0.01569361
6	0x3dc5a709	0.09651
7	0xbd89ab08	-0.06722075
8	0xbe197e8b	-0.14989679
9	0xbe2e9346	-0.17048368
10	0xbd7166ca	-0.058935918
11	0x3ddf2e8f	0.10897552
12	0x3de3a812	0.11116041
13	0x3d5ca920	0.053872228
14	0x3d4cc9a6	0.049996994
15	0xbdf33a22	-0.11876322
16	0xbd558faf	-0.05213898
17	0x3cafa98f	0.021443157
18	0xbe1df91b	-0.15427057
19	0xbe24ace3	-0.16081576
20	0xbe095454	-0.13411075
21	0x3d608625	0.05481543
22	0xbcb7b66c	-0.022425853
23	0xbcffabb4	-0.031209804
24	0x3de13e31	0.1099819
25	0xbdf227a1	-0.11823965
26	0xbddfea16	-0.1093332
27	0xbd25a0b5	-0.040436465
28	0x3ddf0ef6	0.108915254
29	0x3ce88478	0.028383479
30	0xbe1c1d34	-0.15245515
31	0x3e00196f	0.12509702
32	0xbdd2416e	-0.10266386
33	0x3e0d3f34	0.13793641
34	0x3d8483bc	0.06470439
35	0x3d3dd93d	0.046349753
36	0x3e15ed72	0.1464136
37	0x3d852590	0.06501305
38	0xbe3287bb	-0.1743459
39	0x3d8fe32b	0.07025751
40	0x3e2f96ca	0.17147365
41	0xbd9647a0	-0.0733788
42	0x3e048f60	0.12945318
43	0x3e128637	0.14309011
44	0xbd2aa12b	-0.041657608
45	0x3981ee4d	0.00024782345
46	0xbcbba432	-0.022905443
47	0x3e201c50	0.156358
48	0x3d97a963	0.07405355
49	0x3e003a7a	0.12522307
50	0xbe21f9a0	-0.1581788
51	0xbd92da9d	-0.071706034
52	0xbe08bf2c	-0.13354176
53	0x3d1e7383	0.03868438
54	0xbd8d53f2	-0.06900777
55	0x3d51e1a4	0.05124058
56	0x3dbc85f0	0.09205234
57	0xbd3f4f41	-0.04670644
58	0x3caa7a96	0.020810407
59	0xbe056e0c	-0.13030261
60	0xbca6ff80	-0.020385504
61	0x3cea35f8	0.028590187
62	0x3e012973	0.12613468
63	0x3d924a30	0.071430564
64	0x3d40866d	0.0470032
65	0x3dbbef04	0.09176448
66	0x3e0d998f	0.13828109
67	0x3c88034f	0.01660314
68	0x3e2e5d9f	0.17027901
69	0xbddcb3f4	-0.10776511
70	0x3d753c19	0.059871767
71	0x3a15906b	0.0005705419
72	0x3e05fe43	0.13085274
73	0xbe2cbc79	-0.16868772
74	0x3dafb663	0.085797094
75	0xbe1bb12b	-0.15204303
76	0xbd587b73	-0.052852105
77	0xbd698882	-0.05701495
78	0xbd725aad	-0.059168506
79	0xbdafdfc4	-0.08587602
80	0xbe139573	-0.14412479
81	0xbe1e76e7	-0.15475045
82	0xbd13b3c3	-0.036060106
83	0x3e13d64e	0.1443722
84	0xbd4234e6	-0.04741373
85	0xbdf49c18	-0.11943835
86	0xbd4eb883	-0.050468933
87	0xbe15424f	-0.14576076
88	0xbc1d1c96	-0.009589335
89	0x3e14b8db	0.14523642
90	0xbe30c127	-0.17261182
91	0x3dc34d85	0.0953627
92	0x3e06330f	0.13105415
93	0x3e028689	0.12746634
94	0xbdd6c21b	-0.104862414
95	0x3ca961dd	0.020676548
96	0x3dcc1079	0.099640794
97	0xbe1b1ff8	-0.15148914
98	0x3e0b0cb2	0.13579062
99	0xbc548e9b	-0.012973453
100	0xbe1f5498	-0.15559614
101	0xbd39bda9	-0.04534689
102	0x3ba65324	0.005075829
103	0xbd93921e	-0.07205604
104	0xbd92febe	-0.071774945
105	0xbc94e9b8	-0.018177852
106	0x3d7907a4	0.060798302
107	0x3da4201c	0.08013937
108	0xbe30f87b	-0.17282288
109	0xbc39d132	-0.01134138
110	0x3d331a0a	0.043726005
111	0x3e121397	0.14265285
112	0x3db567f7	0.0885772
113	0x3df65686	0.12028222
114	0x3d56c6f1	0.05243582
115	0xbc8d73f4	-0.017267205
116	0xbdc81684	-0.097699195
117	0xbd966627	-0.07343703
118	0x3d6a206d	0.05715983
119	0xbd178f9d	-0.037002195
120	0x3e26a751	0.16274764
121	0xbde30313	-0.11084571
122	0x3df62c73	0.12020197
123	0x3de7d998	0.113207996
124	0x3def1d51	0.116755135
125	0x3e0def17	0.13860737
126	0xbdd14847	-0.10218864
127	0x3dd13ce2	0.102166906
128	0xbe333ab9	-0.1750287
129	0xbdc24a00	-0.09486771
130	0xbce5dbf8	-0.02805899
131	0x3e1878d9	0.1488985
132	0xbd11deed	-0.03561299
133	0xbe1121b4	-0.14173013
134	0xbe218984	-0.15775114
135	0x3b58d497	0.0033085698
136	0x3c583660	0.013196558
137	0x3d30238f	0.04300266
138	0xbd4ac6c9	-0.049505983
139	0x3d7186b3	0.05896635
140	0x3c97cc4a	0.01853003
141	0xbd3e2a6c	-0.046427175
142	0x3db96b70	0.09053695
143	0xbe02a0ad	-0.12756605
144	0xbdbb718c	-0.09152517
145	0x3d33031b	0.043704133
146	0xbd4edb2f	-0.050502
147	0xbb8c0f71	-0.0042743017
148	0xbd81b411	-0.06333173
149	0x3dce6d2f	0.10079419
150	0x3e2a7cbf	0.1664915
151	0x3e1b077c	0.15139574
152	0x3d3bd896	0.04586085
153	0xbde57830	-0.112045646
154	0xbd7d23ba	-0.06180165
155	0xbda4cbab	-0.08046659
156	0xbd0bb44a	-0.034107484
157	0xbdb47289	-0.08810908
158	0x3dd7c405	0.10535435
159	0xbe2bb9cb	-0.16770093
160	0x3bfcd66f	0.007715992
161	0x3e02cbc5	0.12773044
162	0xbe0f9330	-0.14020991
163	0xbcfdb7b1	-0.03097138
164	0x3dc67b4d	0.096914865
165	0xbd7cf7e9	-0.061759863
166	0xbdab6ccb	-0.0837036
167	0x3dc0d2c8	0.09415203
168	0xbdfaa977	-0.12239354
169	0x3e34a1b6	0.17639813
170	0x3e226024	0.15856987
171	0x3c01a8a7	0.007913745
172	0x3ce9aa7e	0.02852368
173	0xbdb86700	-0.09004021
174	0x3d28b5c0	0.041188955
175	0xbe08c30d	-0.13355656
176	0xbd3cb112	-0.046067305
177	0x3e10b7dd	0.14132638
178	0x3d534a00	0.051584244
179	0x3e0329ed	0.12808962
180	0x3deee8ec	0.1166552
181	0x3e2ce817	0.1688541
182	0x3d374176	0.044740163
183	0xbe04abcf	-0.12956165
184	0xbe23d97f	-0.16000937
185	0x3de08eb3	0.10964718
186	0x3e13085f	0.14358662
187	0x3e323a7f	0.17405127
188	0xbdf5fc58	-0.120110214
189	0x3e25613a	0.1615037
190	0xbd8101e6	-0.0629919
191	0x3d3cf762	0.04613436
192	0x3dfad95f	0.122484915
193	0xbe0bb04a	-0.13641468
194	0xbe2dbe83	-0.16967206
195	0x3df0c09f	0.117554896
196	0xbe284f76	-0.16436562
197	0x3daf7092	0.08566393
198	0x3dd1783a	0.102280095
199	0x3e046d49	0.12932314
200	0x3b8bc14e	0.004264987
201	0xbd38f97b	-0.045159798
202	0x3cbcda21	0.02305323
203	0xbcc8868a	-0.024478216
204	0xbe2a9932	-0.16660002
205	0x3d2ad2b5	0.041704852
206	0xbdd47bbf	-0.10375165
207	0x3e05fc98	0.13084638
208	0xbda9fa04	-0.0829964
209	0xbd0d31f3	-0.034471463
210	0xbe0c6844	-0.13711649
211	0x3e26bd92	0.16283253
212	0x3dd20a69	0.10255892
213	0x3e1e7f40	0.1547823
214	0x3dd34710	0.103162885
215	0xbddf2aa0	-0.10896802
216	0x3e2b2474	0.16713125
217	0xbcc2bbb1	-0.023771139
218	0x3e268d5f	0.16264866
219	0x3ccaceeb	0.02475687
220	0x3de54163	0.11194112
221	0xbd8fb1b7	-0.07016318
222	0x3d8e38bd	0.06944416
223	0xba8b6863	-0.0010635968
224	0xbe10791f	-0.14108704
225	0x3e0c3783	0.13693051
226	0xbdc5163c	-0.096233815
227	0xbdefe644	-0.117138416
228	0x3e1132ea	0.14179578
229	0xbe26137b	-0.16218369
230	0x3d7a0f75	0.061049897
231	0x3e1335c3	0.14375977
232	0xbce6a83b	-0.02815639
233	0xbe2b3cae	-0.16722366
234	0xbe12b579	-0.14327039
235	0xbc0f5097	-0.008747241
236	0xbce5d206	-0.028054249
237	0x3dfb6900	0.122758865
238	0x3e10b38a	0.14130989
239	0xbddfe4c5	-0.10932306
240	0xbd3f5768	-0.046714216
241	0xbe0e3f35	-0.13891299
242	0x3d212fca	0.039352216
243	0x3e04a440	0.12953281
244	0xbd779239	-0.060442183
245	0x3bc03434	0.005865598
246	0xbc60f75f	-0.013730853
247	0xbe1cff02	-0.15331653
248	0x3e30717a	0.17230788
249	0x3d1c3ce6	0.038144015
250	0x3e29cfcc	0.16583174
251	0xbe1d6253	-0.15369539
252	0xbd53a406	-0.051670097
253	0xbd3eef93	-0.046615195
254	0x3d6e4685	0.05817272
255	0xbd3764e8	-0.044773966

bias f4 [10]
0	0xbe14c7da	-0.14529362
1	0xbd948d54	-0.07253519
2	0xbe20d6ea	-0.15706983
3	0x3db7631b	0.0895445
4	0xbcc49311	-0.023995908
5	0xbd8ec656	-0.06971423
6	0x3e1d4b0f	0.15360664
7	0x3cbf247f	0.023332832
8	0x3cbb0e8d	0.022834087
9	0xbdcb4d0c	-0.09926805

bias f4 [64]
0	0x800001b5	-6.12e-43
1	0x8000015f	-4.92e-43
2	0xa2022813	-1.76395e-18
3	0x1f8b46c2	5.898585e-20
4	0x80000173	-5.2e-43
5	0x8000015f	-4.92e-43
6	0xab8a8ace	-9.844016e-13
7	0x273006a3	2.4428504e-15
8	0x0fe0a91a	2.2153241e-29
9	0x800001b8	-6.17e-43
10	0x1c7b3c1e	8.3126633e-22
11	0xab9ec30b	-1.128071e-12
12	0xab9a0590	-1.0943902e-12
13	0x12e75634	1.45994e-27
14	0x307269f7	8.818967e-10
15	0xb07bd7f7	-9.162017e-10
16	0x80000162	-4.96e-43
17	0x1a69ed9f	4.837522e-23
18	0x80000162	-4.96e-43
19	0x80000160	-4.93e-43
20	0x2b5d7783	7.868083e-13
21	0x118e71b6	2.247373e-28
22	0x80000161	-4.95e-43
23	0x8000015f	-4.92e-43
24	0x20356158	1.5363505e-19
25	0x2fb81926	3.3487274e-10
26	0xb2d7d252	-2.5124937e-08
27	0x80000162	-4.96e-43
28	0x80000165	-5e-43
29	0x80000161	-4.95e-43
30	0xa51fe61f	-1.386902e-16
31	0x80000166	-5.02e-43
32	0x80000169	-5.06e-43
33	0x800001a0	-5.83e-43
34	0x80000161	-4.95e-43
35	0xa6353d7d	-6.288032e-16
36	0xab13539e	-5.2340933e-13
37	0x22f0af1c	6.5237535e-18
38	0x80000196	-5.69e-43
39	0x80000161	-4.95e-43
40	0x8000017f	-5.37e-43
41	0x80000160	-4.93e-43
42	0x8000016e	-5.13e-43
43	0x8000016b	-5.09e-43
44	0x8000017d	-5.34e-43
45	0x8000015f	-4.92e-43
46	0x00000018	3.4e-44
47	0x1ff1927d	1.02309815e-19
48	0x8000016e	-5.13e-43
49	0x80000183	-5.42e-43
50	0xa3050c6c	-7.212575e-18
51	0x8000016b	-5.09e-43
52	0xb094bee4	-1.0822672e-09
53	0x80000171	-5.17e-43
54	0x80000163	-4.97e-43
55	0x8000015f	-4.92e-43
56	0x80000160	-4.93e-43
57	0x8000018c	-5.55e-43
58	0xa80ea6ec	-7.918779e-15
59	0x0f555259	1.05175704e-29
60	0x80000161	-4.95e-43
61	0xa6ddbb05	-1.5385647e-15
62	0x80000179	-5.28e-43
63	0x80000164	-4.99e-43

weight f4 [64, 1]
0	0x8000016b	-5.09e-43
1	0x8000015f	-4.92e-43
2	0xa202ba2d	-1.7716846e-18
3	0x1f8a7dd3	5.865343e-20
4	0x8000015f	-4.92e-43
5	0x80000160	-4.93e-43
6	0xab9bbdb9	-1.1066071e-12
7	0x26baa5dc	1.2951299e-15
8	0x1027cd2c	3.3093e-29
9	0x0000015f	4.92e-43
10	0x1cd3dd79	1.4020058e-21
11	0xab9e37ca	-1.124206e-12
12	0xab9c2637	-1.1095073e-12
13	0x1314106e	1.8688327e-27
14	0x307156a3	8.779841e-10
15	0xb075a968	-8.937122e-10
16	0x80000160	-4.93e-43
17	0x1adf0f34	9.22552e-23
18	0x80000161	-4.95e-43
19	0x8000015f	-4.92e-43
20	0xab553929	-7.5752127e-13
21	0x1194e4dc	2.3491328e-28
22	0x00000160	4.93e-43
23	0x80000162	-4.96e-43
24	0xa1273929	-5.665745e-19
25	0xaf8d043a	-2.5650754e-10
26	0xb2eea94c	-2.7783834e-08
27	0x8000015f	-4.92e-43
28	0x00000162	4.96e-43
29	0x80000160	-4.93e-43
30	0xa5528a2b	-1.826141e-16
31	0x00000162	4.96e-43
32	0x80000160	-4.93e-43
33	0x00000162	4.96e-43
34	0x80000160	-4.93e-43
35	0xa5d2f093	-3.6592212e-16
36	0xab11811c	-5.1693524e-13
37	0x22cf1b12	5.6136124e-18
38	0x00000161	4.95e-43
39	0x80000160	-4.93e-43
40	0x00000161	4.95e-43
41	0x80000160	-4.93e-43
42	0x00000161	4.95e-43
43	0x80000160	-4.93e-43
44	0x80000161	-4.95e-43
45	0x80000161	-4.95e-43
46	0x8000015f	-4.92e-43
47	0x200ad2ac	1.175876e-19
48	0x00000163	4.97e-43
49	0x80000161	-4.95e-43
50	0xa2e5a1e4	-6.2241983e-18
51	0x0000015f	4.92e-43
52	0xb04064d4	-6.999248e-10
53	0x80000162	-4.96e-43
54	0x80000162	-4.96e-43
55	0x00000162	4.96e-43
56	0x80000160	-4.93e-43
57	0x8000015f	-4.92e-43
58	0x26125d7f	5.0780636e-16
59	0x0f8487da	1.3068533e-29
60	0x80000161	-4.95e-43
61	0x25239039	1.4186861e-16
62	0x80000160	-4.93e-43
63	0x00000161	4.95e-43

bias f4 [64]
0	0x81678432	-4.2522845e-38
1	0x26a7214c	1.1596978e-15
2	0x2502e715	1.1353996e-16
3	0xb12f82b9	-2.5540159e-09
4	0xa650f391	-7.249459e-16
5	0x2b43af77	6.9521423e-13
6	0x22349183	2.4471582e-18
7	0xa7edfab1	-6.6052514e-15
8	0x8000013c	-4.43e-43
9	0x33b80dda	8.570687e-08
10	0x2b02999f	4.639847e-13
11	0xabc43b05	-1.3943019e-12
12	0xa476c183	-5.3506658e-17
13	0x250a807f	1.2013128e-16
14	0x8115c283	-2.7506533e-38
15	0xa623971a	-5.6756766e-16
16	0x80000160	-4.93e-43
17	0x340dfb48	1.3223064e-07
18	0x28097eb6	7.632504e-15
19	0x2aadf9a5	3.09042e-13
20	0xa14f9a57	-7.0338595e-19
21	0x2e554dd0	4.8499704e-11
22	0x9e6a10fa	-1.23913675e-20
23	0xa8002b4d	-7.114817e-15
24	0x2a06ff5e	1.1990189e-13
25	0x25b922fe	3.2116096e-16
26	0xa3c12e4f	-2.0944714e-17
27	0x9fe68717	-9.7632276e-20
28	0x000001bf	6.26e-43
29	0x27ff8c06	7.092853e-15
30	0xa6b57b7b	-1.2592867e-15
31	0x22497d6e	2.7306982e-18
32	0x2fe4f22e	4.1645037e-10
33	0x9cb42deb	-1.192327e-21
34	0x39eef6bd	0.00045578732
35	0xa1fbd013	-1.7063498e-18
36	0x3b8ccecc	0.004297113
37	0x36e940c6	6.9514817e-06
38	0x2801735f	7.185956e-15
39	0x2ae70b9d	4.10419e-13
40	0x231f2e38	8.6291945e-18
41	0xb5fce206	-1.8841245e-06
42	0x00000256	8.38e-43
43	0xad959bd5	-1.7008542e-11
44	0x9e07da9c	-7.192048e-21
45	0x800007a0	-2.735e-42
46	0x8000014c	-4.65e-43
47	0xabcb06b3	-1.4425877e-12
48	0x250fb3fc	1.2464254e-16
49	0x019f6cd6	5.856355e-38
50	0x33286575	3.9207823e-08
51	0x209cecb3	2.6584062e-19
52	0xa62ebbc4	-6.0622847e-16
53	0x3c1df6d9	0.009641373
54	0xa8b16e03	-1.9698658e-14
55	0xacf6d701	-7.0156107e-12
56	0x2b55db91	7.597751e-13
57	0xa3c2360c	-2.1056412e-17
58	0xa52caf66	-1.4978049e-16
59	0xabf8e32f	-1.7684516e-12
60	0x2a9ba126	2.764535e-13
61	0xa6ddde85	-1.539527e-15
62	0x298048e7	5.6969884e-14
63	0x8f828a44	-1.2872248e-29

weight f4 [64, 64]
0	0x00000160	4.93e-43
1	0x80000160	-4.93e-43
2	0x800001bf	-6.26e-43
3	0x80000162	-4.96e-43
4	0x80000166	-5.02e-43
5	0x80000161	-4.95e-43
6	0x0000027e	8.94e-43
7	0x80000281	-8.98e-43
8	0x00000162	4.96e-43
9	0x80000166	-5.02e-43
10	0x00000162	4.96e-43
11	0x0000030e	1.096e-42
12	0x80000169	-5.06e-43
13	0x800000dd	-3.1e-43
14	0x00000178	5.27e-43
15	0x8000014d	-4.67e-43
16	0x80000167	-5.03e-43
17	0x800001af	-6.04e-43
18	0x8000016a	-5.07e-43
19	0x0000015f	4.92e-43
20	0x800001ae	-6.03e-43
21	0x00000164	4.99e-43
22	0x00000163	4.97e-43
23	0x80000165	-5e-43
24	0x8000017b	-5.31e-43
25	0x00000161	4.95e-43
26	0x00000166	5.02e-43
27	0x00000162	4.96e-43
28	0x80000165	-5e-43
29	0x80000162	-4.96e-43
30	0x00000187	5.48e-43
31	0x80000160	-4.93e-43
32	0x0000015f	4.92e-43
33	0x80000162	-4.96e-43
34	0x00000165	5e-43
35	0x00000198	5.72e-43
36	0x800001a9	-5.96e-43
37	0x80000160	-4.93e-43
38	0x80000160	-4.93e-43
39	0x00000162	4.96e-43
40	0x8000016d	-5.11e-43
41	0x0000015f	4.92e-43
42	0x80000168	-5.04e-43
43	0x00000163	4.97e-43
44	0x80000164	-4.99e-43
45	0x80000166	-5.02e-43
46	0x80000165	-5e-43
47	0x00000188	5.5e-43
48	0x0000015f	4.92e-43
49	0x00000160	4.93e-43
50	0x00000183	5.42e-43
51	0x80000160	-4.93e-43
52	0x000001b9	6.18e-43
53	0x80000165	-5e-43
54	0x0000015f	4.92e-43
55	0x00000160	4.93e-43
56	0x80000162	-4.96e-43
57	0x0000015f	4.92e-43
58	0x800001ba	-6.2e-43
59	0x00000162	4.96e-43
60	0x0000012a	4.18e-43
61	0x80000419	-1.47e-42
62	0x0000015f	4.92e-43
63	0x80000164	-4.99e-43
64	0x80000197	-5.7e-43
65	0x00000182	5.41e-43
66	0x8be53e0c	-8.830095e-32
67	0x86d3acb3	-7.962314e-35
68	0x80000160	-4.93e-43
69	0x00000166	5.02e-43
70	0x983a6b76	-2.409419e-24
71	0x14ac635e	1.7406755e-26
72	0x000009d8	3.531e-42
73	0x8000015f	-4.92e-43
74	0x06a39b0d	6.154161e-35
75	0x356ae9b0	8.7511853e-07
76	0x123b5803	5.911528e-28
77	0x80045d36	-4.0078e-40
78	0x19c2c8cd	2.0140233e-23
79	0x17008ee9	4.153941e-25
80	0x800001bb	-6.21e-43
81	0x85206a5e	-7.5427004e-36
82	0x80000188	-5.5e-43
83	0x80000161	-4.95e-43
84	0x9805d7ba	-1.7298761e-24
85	0x000021b8	1.2096e-41
86	0x00000160	4.93e-43
87	0x80000160	-4.93e-43
88	0x8e842f23	-3.2585903e-30
89	0x968b59c1	-2.2513304e-25
90	0x9c83ffeb	-8.735006e-22
91	0x800001b3	-6.1e-43
92	0x0000015f	4.92e-43
93	0x8000016c	-5.1e-43
94	0x8e9fbc6f	-3.937798e-30
95	0x00000166	5.02e-43
96	0x8000017c	-5.32e-43
97	0x000001b3	6.1e-43
98	0x800001b5	-6.12e-43
99	0x119edad5	2.506287e-28
100	0x93249be0	-2.0776562e-27
101	0x8d4e859b	-6.3639473e-31
102	0x800001bd	-6.24e-43
103	0x8000015f	-4.92e-43
104	0x8000016e	-5.13e-43
105	0x0000017f	5.37e-43
106	0x800001a9	-5.96e-43
107	0x80000166	-5.02e-43
108	0x80000165	-5e-43
109	0x000001af	6.04e-43
110	0x80000163	-4.97e-43
111	0x8bef3949	-9.2145644e-32
112	0x80000175	-5.23e-43
113	0x00000184	5.44e-43
114	0x8b6b8c54	-4.5364925e-32
115	0x80000180	-5.38e-43
116	0x1834095f	2.3269186e-24
117	0x8000018f	-5.59e-43
118	0x00000167	5.03e-43
119	0x80000160	-4.93e-43
120	0x800001b0	-6.05e-43
121	0x8000015f	-4.92e-43
122	0x94989d60	-1.5410151e-26
123	0x00000486	1.623e-42
124	0x80000138	-4.37e-43
125	0x11ba95c3	2.9437923e-28
126	0x00000188	5.5e-43
127	0x000001a8	5.94e-43
128	0x80000160	-4.93e-43
129	0x80000168	-5.04e-43
130	0x0c700277	1.8489669e-31
131	0x85039379	-6.186677e-36
132	0x8000016b	-5.09e-43
133	0x0000016e	5.13e-43
134	0x9612c78b	-1.1856751e-25
135	0x9510478b	-2.9137006e-26
136	0x800011c8	-6.379e-42
137	0x00000165	5e-43
138	0x859cc96e	-1.4744163e-35
139	0x2571ac0f	2.0961714e-16
140	0x0fb778de	1.809175e-29
141	0x00054f42	4.8761e-40
142	0x181d72cc	2.0349732e-24
143	0x17af079d	1.1311032e-24
144	0x80000186	-5.47e-43
145	0x86258419	-3.11301e-35
146	0x80000167	-5.03e-43
147	0x000001bb	6.21e-43
148	0x178200af	8.401226e-25
149	0x80014fd3	-1.20471e-40
150	0x80000166	-5.02e-43
151	0x00000161	4.95e-43
152	0x0d2ef911	5.3917692e-31
153	0x96506dff	-1.6836815e-25
154	0x9a3245b2	-3.6865837e-23
155	0x8000015f	-4.92e-43
156	0x8000017a	-5.3e-43
157	0x00000195	5.68e-43
158	0x0d6396df	7.013138e-31
159	0x80000160	-4.93e-43
160	0x80000163	-4.97e-43
161	0x80000162	-4.96e-43
162	0x000001b2	6.08e-43
163	0x92e5d41b	-1.450422e-27
164	0x92274945	-5.278622e-28
165	0x0eae0bb6	4.290559e-30
166	0x0000017e	5.35e-43
167	0x8000016c	-5.1e-43
168	0x80000161	-4.95e-43
169	0x800001a9	-5.96e-43
170	0x00000184	5.44e-43
171	0x80000160	-4.93e-43
172	0x8000015f	-4.92e-43
173	0x00000167	5.03e-43
174	0x000001aa	5.97e-43
175	0x0cbe1dc8	2.929206e-31
176	0x80000167	-5.03e-43
177	0x8000016c	-5.1e-43
178	0x0888bc65	8.229494e-34
179	0x00000161	4.95e-43
180	0x181ce746	2.027929e-24
181	0x00000160	4.93e-43
182	0x80000168	-5.04e-43
183	0x0000019a	5.75e-43
184	0x000001b1	6.07e-43
185	0x00000178	5.27e-43
186	0x151ab72c	3.124455e-26
187	0x80001bde	-9.997e-42
188	0x8000016d	-5.11e-43
189	0x0f1f06f5	7.840645e-30
190	0x8000016c	-5.1e-43
191	0x00000191	5.62e-43
192	0x00000197	5.7e-43
193	0x00000172	5.18e-43
194	0xad0bcf78	-7.9473025e-12
195	0x0e6e8b69	2.9402888e-30
196	0x0000017d	5.34e-43
197	0x0000019b	5.76e-43
198	0xb18644cd	-3.907735e-09
199	0x1ceebd2f	1.5798422e-21
200	0x00c43944	1.80203e-38
201	0x8000018d	-5.56e-43
202	0x8e0f6c9b	-1.7678402e-30
203	0xb4a18654	-3.0086323e-07
204	0x1b01b044	1.0727584e-22
205	0x84b2b9d1	-4.2018244e-36
206	0xa17d18c2	-8.57525e-19
207	0x21228d63	5.507486e-19
208	0x800001b9	-6.18e-43
209	0x0d983f95	9.38303e-31
210	0x8000004e	-1.1e-43
211	0x800004d7	-1.736e-42
212	0x1e5a3d37	1.1553483e-20
213	0x828103ff	-1.895714e-37
214	0x0000015f	4.92e-43
215	0x00000175	5.23e-43
216	0x958e7e77	-5.755287e-26
217	0x9f3bcfd4	-3.9770702e-20
218	0x22a2eda9	4.416182e-18
219	0x80000162	-4.96e-43
220	0x0000015f	4.92e-43
221	0x800001a2	-5.86e-43
222	0xb69b0fba	-4.621191e-06
223	0x80000172	-5.18e-43
224	0x800001a5	-5.9e-43
225	0x8000015f	-4.92e-43
226	0x00000160	4.93e-43
227	0x1a380afb	3.8059178e-23
228	0x9b5db7e5	-1.8340111e-22
229	0xb1a9f712	-4.946636e-09
230	0x000001ae	6.03e-43
231	0x8000019e	-5.8e-43
232	0x80000184	-5.44e-43
233	0x000000fa	3.5e-43
234	0x800001a8	-5.94e-43
235	0x00000181	5.4e-43
236	0x000001b1	6.07e-43
237	0x8000017c	-5.32e-43
238	0x0000015f	4.92e-43
239	0x9341cebf	-2.4461958e-27
240	0x8000017d	-5.34e-43
241	0x80000161	-4.95e-43
242	0x10068287	2.6527395e-29
243	0x8000017f	-5.37e-43
244	0xae06b4b6	-3.0628576e-11
245	0x80000160	-4.93e-43
246	0x8000016d	-5.11e-43
247	0x0000017c	5.32e-43
248	0x8000034d	-1.184e-42
249	0x8000015f	-4.92e-43
250	0x1bcfb015	3.4359068e-22
251	0x0300e9ec	3.788435e-37
252	0x0000047e	1.611e-42
253	0x990b87ac	-7.21353e-24
254	0x0000017c	5.32e-43
255	0x000001a3	5.87e-43

bias f4 [20]
0	0xba0efcf2	-0.0005454562
1	0xba876a0a	-0.0010331285
2	0xbc42a4b3	-0.011880088
3	0xbb8cbc08	-0.004294876
4	0x3a526cd8	0.0008027083
5	0x399de72f	0.0003011762
6	0x3b54725b	0.0032416794
7	0xba6fabb8	-0.00091427146
8	0x3b64c41d	0.0034906932
9	0x3c63848f	0.013886585
10	0x3bbe4836	0.005806948
11	0x3b7ebe12	0.0038870615
12	0x3c67d287	0.014149315
13	0xbc2a7e44	-0.010406081
14	0x39922fcd	0.00027882904
15	0x38a67445	7.937154e-05
16	0x3a241c93	0.00062603614
17	0x38ebd670	0.00011245615
18	0xbb916d30	-0.004438065
19	0xbb233349	-0.0024902395

weight f4 [20, 64]
0	0x0016032b	2.021517e-39
1	0x230fd5c8	7.7973155e-18
2	0x22d1a29a	5.6821725e-18
3	0x2df20a93	2.751691e-11
4	0xa482f2bf	-5.678974e-17
5	0xa996d5b9	-6.698413e-14
6	0x23297781	9.186814e-18
7	0x25e1d077	3.917254e-16
8	0x00000160	4.93e-43
9	0x3285b646	1.5566126e-08
10	0xa9d056f3	-9.252139e-14
11	0x281bc975	8.6479125e-15
12	0x2305fabf	7.263042e-18
13	0xa30288d4	-7.076289e-18
14	0x002df1e1	4.219367e-39
15	0x2407b123	2.94235e-17
16	0x000000f3	3.4e-43
17	0xb0dc31e8	-1.6021291e-09
18	0xa5c9f826	-3.5036094e-16
19	0xa72c569a	-2.3916742e-15
20	0x2045ee52	1.6765403e-19
21	0xa9abf1bb	-7.635859e-14
22	0x1a5e9196	4.6026127e-23
23	0x27100655	1.9987447e-15
24	0x2743e882	2.718773e-15
25	0xa29d1ae8	-4.2583423e-18
26	0xa26fa5d4	-3.2478329e-18
27	0x1fdbebe3	9.314035e-20
28	0x00000163	4.97e-43
29	0x2706f3e7	1.8728455e-15
30	0x2637a015	6.370783e-16
31	0x9ef0da51	-2.5501282e-20
32	0xad97b0d2	-1.7245236e-11
33	0x1979fd36	1.2924134e-23
34	0xb68938ef	-4.089546e-06
35	0xa11b309d	-5.258038e-19
36	0xb8ac186d	-8.206149e-05
37	0xb488c458	-2.5474833e-07
38	0x250b02dd	1.2057298e-16
39	0xa7c4252c	-5.444123e-15
40	0xa225c065	-2.2463523e-18
41	0x3556b1be	7.997986e-07
42	0x8000016e	-5.13e-43
43	0x2a930c8a	2.6121146e-13
44	0x9b929f85	-2.425676e-22
45	0x80000176	-5.24e-43
46	0x8000016b	-5.09e-43
47	0xabeade61	-1.6688423e-12
48	0x20249aa8	1.3942512e-19
49	0x8003d326	-3.51252e-40
50	0x2fabb436	3.1232766e-10
51	0xa0893de9	-2.3249671e-19
52	0x278ef588	3.9679123e-15
53	0xb8e3f500	-0.00010869838
54	0x263dc549	6.583992e-16
55	0x290aa597	3.0785782e-14
56	0xaaa41dd0	-2.915294e-13
57	0x20e9dbb0	3.9617112e-19
58	0x24949b6c	6.4448064e-17
59	0xa93d02da	-4.1968904e-14
60	0xa7fd3ed0	-7.0289708e-15
61	0xa4e19945	-9.7837844e-17
62	0xa8200550	-8.882936e-15
63	0x0c4f6133	1.597595e-31
64	0x00041636	3.7531e-40
65	0xa541800f	-1.678347e-16
66	0xa36f65f7	-1.2977808e-17
67	0x2eee0b0d	1.082495e-10
68	0x24136ea7	3.196927e-17
69	0xaa8527f6	-2.3653274e-13
70	0x232a0708	9.217207e-18
71	0x26820ac0	9.023476e-16
72	0x00000163	4.97e-43
73	0x319e2130	4.602178e-09
74	0xa9dc2689	-9.7766474e-14
75	0x29b8ac2d	8.201109e-14
76	0x24912145	6.294009e-17
77	0xa3a5aefb	-1.7963443e-17
78	0x800013be	-7.082e-42
79	0x2101f1ba	4.402682e-19
80	0x80000163	-4.97e-43
81	0xb2b79679	-2.1372431e-08
82	0xa56c62df	-2.0503236e-16
83	0xa92ab8e6	-3.7907957e-14
84	0x1f174266	3.2030417e-20
85	0xad0f838b	-8.157817e-12
86	0x97e6fb69	-1.4926866e-24
87	0x26828b47	9.058313e-16
88	0xa8d434f9	-2.3559701e-14
89	0xa432171d	-3.8617175e-17
90	0xa1f1c061	-1.6381717e-18
91	0x1eb51947	1.9174575e-20
92	0x000000fe	3.56e-43
93	0xa79b30ed	-4.3074188e-15
94	0xa60b867e	-4.8407584e-16
95	0xa06df11c	-2.0154457e-19
96	0xaf14270b	-1.3474392e-10
97	0x96d0700b	-3.3674921e-25
98	0xb8848f06	-6.320891e-05
99	0xa1a4d783	-1.1170118e-18
100	0xb9df690c	-0.0004261214
101	0xb5bb60cd	-1.3960758e-06
102	0xa6cf6ae9	-1.4392488e-15
103	0xa90da56b	-3.1451767e-14
104	0xa3337fe1	-9.730689e-18
105	0xb3a2d8f3	-7.583176e-08
106	0x80000163	-4.97e-43
107	0x2ae136c8	4.000604e-13
108	0x99bd4914	-1.9571658e-23
109	0x00000052	1.15e-43
110	0x80000066	-1.43e-43
111	0x2b30db94	6.2832487e-13
112	0xa315921b	-8.108245e-18
113	0x8046e9fe	-6.512425e-39
114	0xb204b2e9	-7.724091e-09
115	0xa0c63eb9	-3.358401e-19
116	0x26fcc1da	1.7538556e-15
117	0xba29a86b	-0.00064719346
118	0x25b85092	3.1973509e-16
119	0x2aa0435d	2.8468452e-13
120	0xaabbfb33	-3.3392177e-13
121	0x1ce5d1ee	1.5208214e-21
122	0x237ea9d7	1.38053326e-17
123	0x29c58600	8.771803e-14
124	0xa92ee47c	-3.883394e-14
125	0x2475c36f	5.3291445e-17
126	0xa915c7f9	-3.3258095e-14
127	0x8ae9fa6d	-2.2531284e-32
128	0x00217197	3.07132e-39
129	0xa6c37c2b	-1.3564499e-15
130	0xa5150ed0	-1.2928709e-16
131	0x30486d39	7.291479e-10
132	0x25ac61c7	2.99035e-16
133	0xabd623f3	-1.5215592e-12
134	0xa2830539	-3.551315e-18
135	0xa6971cfe	-1.0485588e-15
136	0x80000123	-4.08e-43
137	0xb43db7b9	-1.7668835e-07
138	0xaaffbffb	-4.5430313e-13
139	0x2acf5585	3.6829928e-13
140	0x250ee6b2	1.2394699e-16
141	0xa4c6ac89	-8.61611e-17
142	0x0011aee3	1.623941e-39
143	0x2571f732	2.0987171e-16
144	0x80000117	-3.91e-43
145	0xb408533e	-1.269627e-07
146	0xa76c0d85	-3.2758908e-15
147	0xaa9ce6fb	-2.7871442e-13
148	0x21175abc	5.1280876e-19
149	0xae61e097	-5.1358553e-11
150	0x1beee0bc	3.9519028e-22
151	0xa7432df4	-2.7086597e-15
152	0xaa266d86	-1.478176e-13
153	0xa5acc09b	-2.9967758e-16
154	0x22819e4c	3.5133123e-18
155	0x1f591503	4.5968918e-20
156	0x800001ad	-6.01e-43
157	0xa9301917	-3.9101612e-14
158	0xa543faee	-1.6998572e-16
159	0xa1c5b31b	-1.3396648e-18
160	0xb00232b4	-4.736578e-10
161	0x1a785494	5.135352e-23
162	0xb9fcf377	-0.0004824658
163	0xa299d441	-4.1695466e-18
164	0xbb821855	-0.0039701858
165	0xb70cb053	-8.385704e-06
166	0xa82a5be2	-9.45682e-15
167	0xaa66538f	-2.0457094e-13
168	0xa4bbdde0	-8.1474193e-17
169	0xb56d2da6	-8.835581e-07
170	0x8000003a	-8.1e-44
171	0x2c4540f0	2.8031431e-12
172	0x1bd22d13	3.4770714e-22
173	0x800001c0	-6.28e-43
174	0x80000126	-4.12e-43
175	0x2c3414ce	2.5591087e-12
176	0xa4c0cd5e	-8.361463e-17
177	0x81441875	-3.6017062e-38
178	0xb337fbf8	-4.2837172e-08
179	0xa1e80f42	-1.572497e-18
180	0xa5e54fc9	-3.9779232e-16
181	0xbb9161ec	-0.004436722
182	0x275aacd7	3.0347274e-15
183	0x2c0c8a94	1.9972123e-12
184	0xac91c893	-4.143416e-12
185	0x218bd86f	9.476296e-19
186	0x258fd7f1	2.4952873e-16
187	0x2b327093	6.339453e-13
188	0xaab8529c	-3.2742288e-13
189	0x26721f65	8.4003164e-16
190	0xaa183822	-1.3519787e-13
191	0x0d49ab48	6.214408e-31
192	0x80143510	-1.855745e-39
193	0xa5616e2c	-1.9552967e-16
194	0xa4423fb4	-4.2121003e-17
195	0x2cf1e360	6.8748757e-12
196	0x23dc6afb	2.3897756e-17
197	0x2b0908d1	4.868441e-13
198	0xa158e9a4	-7.349287e-19
199	0x27905ff6	4.007207e-15
200	0x800000d4	-2.97e-43
201	0xb34d44f7	-4.7793005e-08
202	0xabc5de21	-1.4059345e-12
203	0x29ba373d	8.2696416e-14
204	0x252c5d4a	1.495023e-16
205	0xa48f1934	-6.205906e-17
206	0x800ead5a	-1.347884e-39
207	0x242ebcfc	3.789031e-17
208	0x0000015f	4.92e-43
209	0xb320e00d	-3.7456676e-08
210	0xa82c964e	-9.58051e-15
211	0xa9ee1bcc	-1.0574145e-13
212	0x2100db36	4.365821e-19
213	0xadd8c7f7	-2.464516e-11
214	0x1b15f900	1.2405447e-22
215	0x27832ed0	3.641056e-15
216	0xa9952dd6	-6.6248805e-14
217	0xa3cd7f75	-2.2280125e-17
218	0x23c906ba	2.1795312e-17
219	0x1e74cdad	1.2959785e-20
220	0x80000053	-1.16e-43
221	0xa8faf5df	-2.7862205e-14
222	0x2683ee26	9.154501e-16
223	0xa1a173e7	-1.0940463e-18
224	0xaf76895b	-2.2422368e-10
225	0x1839e734	2.4027417e-24
226	0xb9077f22	-0.00012921964
227	0xa0cb03a6	-3.4391952e-19
228	0xba271863	-0.00063741783
229	0xb643af78	-2.91594e-06
230	0xa72b504d	-2.3774548e-15
231	0xaa3c64f5	-1.6732781e-13
232	0xa3fa0186	-2.71057e-17
233	0x33554172	4.965245e-08
234	0x800000df	-3.12e-43
235	0xa9168b1a	-3.3427342e-14
236	0x1ac7e4ba	8.2674e-23
237	0x8000007d	-1.75e-43
238	0x8000007d	-1.75e-43
239	0x2b7fc91c	9.0873294e-13
240	0x230b66d5	7.556981e-18
241	0x80943b53	-1.3612935e-38
242	0xb2b2ecf5	-2.0829683e-08
243	0xa277189e	-3.3487774e-18
244	0x2792235d	4.056148e-15
245	0xbaeeb1b9	-0.0018210924
246	0x2268ae39	3.1534096e-18
247	0x2a9cfc8e	2.7886412e-13
248	0xab0e99fa	-5.066222e-13
249	0x228baea6	3.786094e-18
250	0xa5283bca	-1.4591935e-16
251	0x2832e064	9.929642e-15
252	0xaa12b6e3	-1.3030857e-13
253	0x25c2bd93	3.3782096e-16
254	0xa9ac9e37	-7.66578e-14
255	0x8bce2333	-7.9401276e-32
