ckpt/real_only_mlp-last.pt (torch, 141714 bytes, 17 tensors)

weight f4 [256, 7]
000000 de e4 16 b5 82 05 1a b5 f4 1e e4 b5 4e 87 a4 33
       -5.62124e-07 -5.7377486e-07 -1.6996332e-06 7.661457e-08
000010 09 09 c6 b4 bc a7 04 34 4f e7 de 33 eb 95 16 39
       -3.6886948e-07 1.235448e-07 1.03797554e-07 0.00014360964
000020 d0 f0 69 b9 e8 de da b7 10 fa 67 b6 3e 40 3c b7
       -0.00022310321 -2.6091424e-05 -3.4567238e-06 -1.1220631e-05
000030 d4 ff ac b6 1a 62 9e b6 8c b0 25 bb 7a 35 f4 ba
       -5.1557818e-06 -4.7201875e-06 -0.0025282232 -0.001863166
000040 51 a8 8b bb 9a 54 5d b9 37 05 0f bb 76 e4 2f ba
       -0.0042620082 -0.00021107719 -0.0021823177 -0.00067097635
000050 f6 1c ed b9 72 12 f1 38 b5 cf 05 b9 2e b1 6a b7
       -0.0004522574 0.00011495211 -0.00012761245 -1.398874e-05
000060 74 89 dd b5 70 92 28 b7 af d5 28 b6 f5 d0 04 b6
       -1.6505787e-06 -1.00476755e-05 -2.515833e-06 -1.9791162e-06
000070 b5 10 91 39 7b 41 ae b9 f7 c4 41 b7 4c 4c b6 b6
       0.00027669003 -0.00033236653 -1.1549556e-05 -5.432905e-06
000080 d4 64 3b b7 9e 9b 98 b6 7e 4f 8e b6 d4 79 8a b9
       -1.1169544e-05 -4.5480692e-06 -4.241184e-06 -0.0002641218
000090 e0 a8 2e 39 ed 6f 10 38 e9 55 8e 37 1a b5 91 37
       0.00016656844 3.4436514e-05 1.6967724e-05 1.7369679e-05
0000a0 ab ec 5e 37 13 7d 44 37 b0 16 40 3a 89 5f 04 bb
       1.3287335e-05 1.17116315e-05 0.00073275995 -0.0020198545
0000b0 d7 a9 aa 38 45 16 4d 38 57 2d 04 39 9c 3d c5 37
       8.137867e-05 4.889655e-05 0.00012605391 2.351292e-05
0000c0 47 32 0f 38 f7 60 21 32 c8 3c 5d b2 6d cc d9 b0
       3.414068e-05 9.393481e-09 -1.2877713e-08 -1.5846929e-09
0000d0 54 51 fc ae b0 02 4a b0 c5 65 87 af 66 4d 3b af
       -1.147408e-10 -7.349099e-10 -2.4628669e-10 -1.7035048e-10
0000e0 aa 82 ed 35 60 75 fe b5 f6 5d eb b4 cc ca 01 b4
       1.7695904e-06 -1.8958635e-06 -4.3840527e-07 -1.2087838e-07
0000f0 0c 28 b4 b4 41 8b 14 b4 0b 60 e0 b3 4e a3 09 35
       -3.355675e-07 -1.3834234e-07 -1.0448283e-07 5.1274117e-07
000100 84 17 24 b5 d9 06 9f b3 37 d9 0a b2 82 0b 25 b3
       -6.112898e-07 -7.40526e-08 -8.082046e-09 -3.8427522e-08
000110 13 90 60 b2 e1 29 0b b2 95 9f 54 b5 c5 5d 66 b9
       -1.3071275e-08 -8.100387e-09 -7.9208377e-07 -0.00021969441
000120 20 d2 ac b8 18 0b fb b6 92 ad e6 b7 ad 35 6a b7
       -8.240738e-05 -7.4816744e-06 -2.7498962e-05 -1.3959984e-05
000130 07 9a ed b6 c1 ed 79 bc 6f 0f 5c 3c e6 31 d3 39
       -7.0810815e-06 -0.015254439 0.013431414 0.00040282233
000140 03 34 a8 3a f1 2c 16 3a a6 29 a5 3a 9f 81 95 3a
       0.0012832884 0.00057287427 0.0012600913 0.0011406428
000150 08 a1 8b b9 a9 04 9a b9 c0 47 04 ba 7d 14 8d 38
       -0.00026632124 -0.0002937664 -0.0005046092 6.72722e-05
000160 e8 1a 9a b9 8c c4 8d b8 6e 9b 31 b8 ee 9a aa b2
       -0.00029393216 -6.760014e-05 -4.2344844e-05 -1.9861059e-08
000170 bf d8 6a b3 bf 28 ac b4 e9 3a af 30 19 21 bf b2
       -5.46795e-08 -3.2067143e-07 1.2749669e-09 -2.2250378e-08
000180 a7 f1 09 33 ee d7 17 33 62 17 ac 37 a3 9f 8a 38
       3.211758e-08 3.5353814e-08 2.0514886e-05 6.6100874e-05
000190 7d 03 c0 38 93 18 0f 38 1a a6 75 38 11 9e ff 37
       9.155923e-05 3.4116743e-05 5.8567246e-05 3.0471974e-05
0001a0 36 59 da 37 34 1c c2 bb a1 24 ae bb 26 38 2b bc
       2.6029167e-05 -0.005923772 -0.005314425 -0.010450399
0001b0 10 41 c3 3a 52 d4 b3 bb 9c a9 20 39 45 af 61 39
       0.001489671 -0.005487957 0.00015321973 0.00021522965
0001c0 01 d4 61 39 b6 75 20 b9 72 af de b6 96 cd 73 b6
       0.0002153665 -0.0001530264 -6.63654e-06 -3.6329488e-06
0001d0 13 bb 94 b6 c8 85 68 b6 60 3e 54 b6 41 b1 3f 3a
       -4.432522e-06 -3.4648565e-06 -3.1626769e-06 0.00073124847
0001e0 19 3a 0c ba 08 63 c5 b7 bc a6 6a b7 66 ee 76 b7
       -0.00053492334 -2.3530345e-05 -1.3986308e-05 -1.4718249e-05
0001f0 e4 2f 4b b7 df 52 53 b7 fd cb 78 b8 52 65 56 b9
       -1.2110893e-05 -1.2595875e-05 -5.9317787e-05 -0.00020446375
000200 98 f9 b3 b8 49 61 b2 b7 e2 68 08 b9 6c 5e fe b7
       -8.5818756e-05 -2.1264555e-05 -0.00013009043 -3.0323128e-05
000210 7d 25 e8 b7 0c 6e 28 b6 1a 62 a3 b6 5f 23 32 b6
       -2.7674012e-05 -2.5098007e-06 -4.869199e-06 -2.6544656e-06
000220 43 bf 2d b5 0b e7 50 b6 74 22 85 b5 1a c4 5f b5
       -6.4725845e-07 -3.11289e-06 -9.919299e-07 -8.335934e-07
000230 c7 04 f2 3c 5d 7c 00 bd ff 7f 41 b8 38 6f 89 b9
       0.029543294 -0.031368602 -4.613399e-05 -0.0002621354
000240 5b ae 45 b8 f2 39 73 b9 9e 4b 76 b9 83 6a 1a 35
       -4.713084e-05 -0.00023195872 -0.00023488558 5.7524466e-07
000250 ac b8 16 b5 1f 65 03 b4 33 0f 16 b3 03 0b 84 b3
       -5.614809e-07 -1.2237113e-07 -3.493842e-08 -6.148732e-08
000260 2d df 09 b3 f8 34 f1 b2 81 bc 4c 33 4f 49 26 b3
       -3.2100775e-08 -2.808018e-08 4.7668895e-08 -3.871656e-08
000270 5c 48 76 b1 87 ea 01 b0 1b d5 21 b1 cc 27 2c b0
       -3.5838843e-09 -4.726321e-10 -2.354972e-09 -6.262979e-10
000280 8b 3a 3d b0 28 91 1d ba 17 44 84 bb 40 db b5 ba
       -6.8840994e-10 -0.00060107047 -0.0040364373 -0.0013874546
000290 ec c4 09 b9 f1 25 0c ba 73 26 6d b9 8e 81 8b b9
       -0.00013138697 -0.000534623 -0.00022616405 -0.00026608672
0002a0 be 0a bb bc 84 6e a5 3c e5 65 0e 3a 53 b6 ea 3a
       -0.02283227 0.0201943 0.00054320536 0.001790712
0002b0 ee 58 3d 3a 31 f4 e6 3a ca b3 d3 3a 8c 36 c2 b8
       0.00072230294 0.0017620382 0.0016151604 -9.260801e-05
0002c0 f2 94 92 b8 40 f9 16 b9 f3 22 46 b7 e7 7d 84 b8
       -6.989566e-05 -0.00014397968 -1.1809857e-05 -6.3177016e-05
0002d0 f7 d4 3c b7 6b c8 bf b6 a1 78 11 ba ab f8 e1 bb
       -1.1255258e-05 -5.7155753e-06 -0.0005549286 -0.0068960986
0002e0 f0 21 72 b9 8a ed 1e b9 62 4a b5 b9 9d 23 03 b9
       -0.00023091561 -0.00015156544 -0.0003457843 -0.000125064
0002f0 d2 fc 0c b9 cd 6e c2 3b 7d dc fb bb c8 47 63 b8
       -0.00013445623 0.0059336186 -0.0076861964 -5.418787e-05
000300 63 b2 e5 b8 75 bc be b8 3a 0d 9a b8 2c f6 85 b8
       -0.00010952798 -9.095009e-05 -7.345756e-05 -6.387787e-05
000310 16 43 d0 bb 28 90 9b bb 18 80 1b ba 92 51 13 b9
       -0.0063556535 -0.0047474094 -0.0005931868 -0.000140494
000320 45 3e c3 ba f9 12 85 b9 4f f1 52 b9 ee b9 db b8
       -0.0014895877 -0.00025381873 -0.00020117055 -0.00010477366
000330 61 9e 28 b8 34 0a 8e b8 92 34 bb b6 df 71 4a b8
       -4.0201823e-05 -6.772988e-05 -5.5791543e-06 -4.8266604e-05
000340 80 8d 25 b7 bc 6a c6 b6 01 5f d6 b1 48 05 3c b2
       -9.867712e-06 -5.9132853e-06 -6.2390204e-09 -1.0944241e-08
000350 22 67 e0 b2 9f 90 2f 31 fe 05 2e b2 ba c8 3a 31
       -2.6123931e-08 2.554806e-09 -1.01294955e-08 2.7180662e-09
000360 70 d0 b2 af c4 55 37 b3 c8 a9 19 b3 dc 1e ad b3
       -3.2526115e-10 -4.268601e-08 -3.5777504e-08 -8.0615536e-08
000370 30 c4 77 b2 10 d8 02 b3 ce 66 b6 30 c2 6d 75 31
       -1.44219e-08 -3.046449e-08 1.3271462e-09 3.5714582e-09
000380 c5 bc 69 36 4a 97 41 b6 8d 00 e0 b4 f6 77 32 b4
       3.4829584e-06 -2.8847303e-06 -4.1723652e-07 -1.6621183e-07
000390 1a 4e 48 b4 62 9a 2d b4 63 d4 04 b4 41 ec 2b 38
       -1.8654865e-07 -1.6168045e-07 -1.2370724e-07 4.0989606e-05
0003a0 f0 c0 02 b8 4f f8 28 b6 e7 9d 75 b5 16 24 aa b5
       -3.1174102e-05 -2.5178485e-06 -9.149939e-07 -1.2676489e-06
0003b0 12 30 5d b5 5c 8f 37 b5 c8 ef e8 36 0e 84 b5 b6
       -8.2398867e-07 -6.838143e-07 6.942053e-06 -5.4095935e-06
0003c0 53 46 0a b5 6c 05 22 b4 8d a0 f2 b4 34 43 48 b4
       -5.151134e-07 -1.5089398e-07 -4.519283e-07 -1.86509e-07
0003d0 9e da 39 b4 a3 68 26 37 c2 9e 10 b7 d4 7d cb b5
       -1.7309e-07 9.918734e-06 -8.6200325e-06 -1.5161299e-06
0003e0 e1 d4 08 b4 d7 f9 97 b5 fc c9 9a b4 85 c2 90 b4
       -1.2743432e-07 -1.132309e-06 -2.8831698e-07 -2.6963622e-07
0003f0 ad aa 5b b9 27 de b4 bb 67 71 16 ba a3 fd 28 b9
       -0.00020949049 -0.0055196467 -0.0005738944 -0.00016116216

bias f4 [256]
000000 03 7a 99 b4 dc 73 61 b7 7e d0 1c bb a4 2b 31 b7
       -2.8587246e-07 -1.3438021e-05 -0.0023927982 -1.0560183e-05
000010 c9 18 56 b7 85 00 c1 37 b8 29 fc 38 73 5c 75 b0
       -1.2761165e-05 2.3007635e-05 0.00012024067 -8.926186e-10
000020 f2 d9 f4 b4 8c 30 64 b3 c9 0d 1a b8 71 48 9c 3a
       -4.5607118e-07 -5.312954e-08 -3.67293e-05 0.0011923445
000030 9f 96 aa b9 0b 0d 39 31 11 5c 9a 38 ed 6f b3 bb
       -0.00032537148 2.6928457e-09 7.360441e-05 -0.005475989
000040 2d 34 d6 b6 15 c7 a8 b7 16 e2 02 b9 1c 46 6b b6
       -6.383771e-06 -2.0119865e-05 -0.0001248199 -3.5058538e-06
000050 12 14 5a b9 a6 77 ec b3 a7 46 1c b1 2a 3c 25 ba
       -0.00020797577 -1.101137e-07 -2.274115e-09 -0.00063032156
000060 18 70 d0 3a 9a d5 9a b8 ed 7f b0 b9 e7 fa 1e b9
       0.0015902547 -7.3830786e-05 -0.00033664648 -0.00015161523
000070 60 f5 90 ba 7f 6d 4e b8 1f a8 25 b2 49 c0 ea b2
       -0.0011059456 -4.9216203e-05 -9.64249e-09 -2.7328626e-08
000080 0e 5e b1 b4 de 7e 0a b6 01 0b 06 b5 f5 d7 9a b5
       -3.3037253e-07 -2.063745e-06 -4.99349e-07 -1.1536746e-06
000090 1e f0 c7 b9 fb f8 89 33 6e 8e 61 b8 23 f2 01 b8
       -0.0003813514 6.424849e-08 -5.377683e-05 -3.0981504e-05
0000a0 c8 4a bb b5 c9 2c 13 b6 2f da 63 b5 2c 35 59 b9
       -1.395435e-06 -2.1930775e-06 -8.488159e-07 -0.00020714541
0000b0 f7 cf b2 b9 0f 98 75 b9 e1 45 ea 3a 75 90 1e bb
       -0.00034105752 -0.00023421667 0.0017873609 -0.002419499
0000c0 d4 25 43 b9 b3 9e 25 b7 6e 1a 44 b6 ae 35 8e b8
       -0.00018610741 -9.871716e-06 -2.922166e-06 -6.781086e-05
0000d0 22 4d 32 b9 65 65 8d b5 79 9a 38 b9 e6 1d 6c b9
       -0.00017004137 -1.0534828e-06 -0.00017605153 -0.00022517852
0000e0 a7 ef 9c b5 51 07 f1 b8 b9 27 77 39 de 03 82 b5
       -1.1692654e-06 -0.00011493138 0.00023570553 -9.68688e-07
0000f0 bc 3e 8f b5 08 9c 7f 39 a2 ba 97 b5 9f aa 39 b9
       -1.0672588e-06 0.00024376821 -1.1304694e-06 -0.00017706536
000100 51 07 db b4 6a 83 0f 3b 39 0d 39 b9 eb 5e b4 b9
       -4.0797252e-07 0.0021898397 -0.000176479 -0.00034402995
000110 cd 2e c8 b8 a2 2b 36 b2 d7 3d 15 b1 86 95 a1 39
       -9.5454605e-05 -1.0603715e-08 -2.1717506e-09 0.00030819717
000120 a9 5d a9 ba b0 20 3a b7 11 03 87 ba bb 97 84 b2
       -0.001292159 -1.1094075e-05 -0.0010300596 -1.5435822e-08
000130 85 f0 95 bb 42 04 4a 39 9a c7 0e b7 5e 84 fe b4
       -0.0045757913 0.00019265807 -8.510333e-06 -4.7407497e-07
000140 1e e5 9c b7 b2 1c 37 b5 b5 e8 44 b6 11 89 7f b5
       -1.870334e-05 -6.821457e-07 -2.934173e-06 -9.519436e-07
000150 2c 6a 85 38 69 46 ad ba 29 dc 29 35 e7 55 de b9
       6.36171e-05 -0.0013219836 6.327778e-07 -0.00042407142
000160 87 47 bc b7 f0 6b e4 b3 4c bd 9e b6 38 32 5c 38
       -2.2444654e-05 -1.0636711e-07 -4.730804e-06 5.2498857e-05
000170 a0 7f a9 b4 f2 12 88 b0 e0 b3 22 b5 39 c3 e9 38
       -3.1571562e-07 -9.900687e-10 -6.0611455e-07 0.00011146669
000180 ce 46 21 bb e5 2b 9a b4 c5 19 9f b5 ae 35 2c b9
       -0.0024608853 -2.8716673e-07 -1.1853923e-06 -0.00016423195
000190 d8 5e c9 b1 3b 35 f7 b7 94 ec d4 b7 ff 6c 24 ba
       -5.8606524e-09 -2.9469482e-05 -2.5382535e-05 -0.0006272345
0001a0 d6 0d 80 b8 76 ad 4f b6 80 93 8f b8 00 cd c7 b3
       -6.106093e-05 -3.0946371e-06 -6.8462454e-05 -9.303949e-08
0001b0 30 ef e9 b4 1f 96 3c bb 37 1b 03 b3 70 a0 5b b9
       -4.3573664e-07 -0.0028776003 -3.0525566e-08 -0.00020945235
0001c0 2c 49 2c 38 78 9b 0b ba 41 ff e6 b5 2f ae 2f b9
       4.1076142e-05 -0.0005325596 -1.7210624e-06 -0.00016754189
0001d0 c6 97 b1 b5 24 14 db b6 81 5c fa 38 d3 76 bf ba
       -1.32317e-06 -6.5290533e-06 0.00011938159 -0.0014607556
0001e0 01 bb b1 b8 55 2b 76 b2 f2 69 36 bb a9 9e d6 b8
       -8.47485e-05 -1.4328937e-08 -0.0027834144 -0.00010233868
0001f0 e0 5c ab b8 34 8b 5c b6 0e ce f3 38 fb 25 25 b9
       -8.171215e-05 -3.2863582e-06 0.000116255236 -0.00015749775
000200 d9 37 f4 b5 88 bc 58 b9 ab e8 47 ba e0 5a fe b9
       -1.819567e-06 -0.00020669599 -0.0007625918 -0.00048514362
000210 df d8 b2 b7 1d e3 d3 b8 67 bf ff 31 69 e6 24 b8
       -2.1320242e-05 -0.00010103567 7.4432367e-09 -3.9315233e-05
000220 cc 92 c4 b5 5d 2e e4 b6 78 5c a0 b3 76 07 4e 3b
       -1.4645861e-06 -6.800327e-06 -7.4674006e-08 0.0031437553
000230 36 05 53 b7 f1 0c ad b4 7e 7d 60 ba 99 dd f8 b1
       -1.2577793e-05 -3.2233177e-07 -0.00085636217 -7.2429427e-09
000240 d6 76 ac b6 97 a8 f4 b3 f5 bb 8c b8 f1 85 4e b9
       -5.139834e-06 -1.1392802e-07 -6.71073e-05 -0.00019695588
000250 a3 b3 09 b4 61 6a b1 b7 87 27 b6 b9 a5 27 27 ae
       -1.2824471e-07 -2.114958e-05 -0.00034743195 -3.8006615e-11
000260 82 f0 8c ba 8d 3a 2a ba 71 be 57 ba 2a 4d 6d b9
       -0.0010752829 -0.000649371 -0.0008229977 -0.00022630827
000270 f5 fd 85 b5 cb 15 47 36 d2 85 b6 36 32 63 3c b8
       -9.983183e-07 2.9665996e-06 5.4396014e-06 -4.4915076e-05
000280 5f 9c 08 b8 ef e2 65 b2 c3 e5 c6 b9 0b 81 31 b8
       -3.257056e-05 -1.3381153e-08 -0.0003793669 -4.232027e-05
000290 dc 4c a8 b9 c2 a6 15 b9 92 ef d4 b5 ea 14 aa ba
       -0.00032100722 -0.0001427187 -1.5864955e-06 -0.0012976204
0002a0 cf 2d 26 b7 66 81 00 b9 46 d1 0c b0 60 58 48 3a
       -9.905037e-06 -0.00012255236 -5.12291e-10 0.00076425634
0002b0 7f 2e 1c b6 22 ce 1d b9 6d c1 e8 b8 54 c4 5a b6
       -2.3272876e-06 -0.00015049477 -0.000110986504 -3.259881e-06
0002c0 86 93 47 30 58 a4 bb b6 d5 7d 0d 3a 17 70 d3 b4
       7.260542e-10 -5.5921664e-06 0.00053974736 -3.938337e-07
0002d0 bc bf 06 b3 de 5b 4a b8 3c 9a a9 b5 a3 a7 27 b6
       -3.1373688e-08 -4.824611e-05 -1.2636369e-06 -2.4982517e-06
0002e0 1d 34 6b b7 cf cf 37 b4 a4 49 c5 b5 46 6d f6 b6
       -1.4019225e-05 -1.7118803e-07 -1.4699076e-06 -7.3440924e-06
0002f0 05 0c 37 b7 6d 2d 80 ba 0f 4c cf b7 78 a6 c1 b6
       -1.09104485e-05 -0.0009779163 -2.471174e-05 -5.7712277e-06
000300 70 c2 1b b7 21 0d 23 b9 bd e6 9b 39 3f c4 6b b3
       -9.283991e-06 -0.00015549782 0.00029735817 -5.4893686e-08
000310 2e bf 19 b5 51 ce c0 b6 57 29 4f b9 79 09 0b b5
       -5.7275145e-07 -5.7460643e-06 -0.00019756459 -5.179532e-07
000320 37 77 c8 b8 55 56 2e 36 f5 5f e8 b4 e7 5a f1 3a
       -9.558949e-05 2.5978272e-06 -4.3283185e-07 0.0018413932
000330 62 89 1a 37 2e c8 34 b3 6c 63 f8 b4 9b e9 0a b7
       9.211102e-06 -4.2091578e-08 -4.626594e-07 -8.2798315e-06
000340 61 64 b2 b6 bf b9 2b 3b 55 5e 2a b7 83 60 9f 3b
       -5.316499e-06 0.0026203243 -1.0154753e-05 0.0048638
000350 25 ca d3 b8 ad 13 db b5 2d 06 7c b8 83 d6 84 b8
       -0.000100989164 -1.6322498e-06 -6.0087234e-05 -6.3342064e-05
000360 ac c8 59 b9 41 71 84 b7 d4 4e 7c bb 05 59 2e b7
       -0.00020769489 -1.5788364e-05 -0.0038499134 -1.0391935e-05
000370 5d 4d de 37 1e 9c 16 ba 32 fe ba ba 70 56 19 b2
       2.6500487e-05 -0.0005745309 -0.001426643 -8.925426e-09
000380 99 36 75 b2 66 04 ef b3 67 e5 08 b9 87 cf 56 bb
       -1.4273291e-08 -1.1130105e-07 -0.0001305543 -0.0032777505
000390 63 e0 ae b6 d8 7c 0d ba 95 8f 65 ba 8c 5c 80 b7
       -5.211726e-06 -0.00053973263 -0.0008757052 -1.5301885e-05
0003a0 f9 65 30 b9 6f eb b1 b4 db 18 6f b7 06 fe fa b7
       -0.00016822656 -3.314012e-07 -1.4251297e-05 -2.9920611e-05
0003b0 2d 74 06 b5 23 e4 84 bb 49 5d 31 b5 42 ef ae b6
       -5.008795e-07 -0.0040555163 -6.6073386e-07 -5.2134574e-06
0003c0 10 98 cf b7 b8 85 e4 3a 40 c6 5a bb 89 14 39 b7
       -2.4747133e-05 0.0017434871 -0.0033382326 -1.10316405e-05
0003d0 00 f5 91 b1 c9 f1 83 b3 7c 1d 26 b9 fe 1e 8c b7
       -4.2479087e-09 -6.144143e-08 -0.00015841977 -1.6703732e-05
0003e0 56 a7 5c b5 f0 72 5f bb 2b 07 09 b5 2e 7d 58 bb
       -8.219989e-07 -0.0034095608 -5.104691e-07 -0.0033033597
0003f0 77 b9 b6 b9 49 93 1f b3 af d7 4d b9 b7 ef 88 b5
       -0.00034851927 -3.7154027e-08 -0.00019630672 -1.0202556e-06

weight f4 [32, 256]
000000 05 a4 10 32 4e b7 a8 35 9a f3 98 b6 d8 ab 7a 34
       8.419197e-09 1.2570324e-06 -4.558312e-06 2.3345581e-07
000010 ac 52 dd 35 51 29 1c b5 4b 4d 12 38 26 41 03 b2
       1.6489844e-06 -5.817465e-07 3.4881097e-05 -7.640017e-09
000020 f9 8b 6f 32 52 62 56 31 20 26 44 36 fb c4 f8 38
       1.3943457e-08 3.1196987e-09 2.9228468e-06 0.00011862252
000030 49 21 9a 36 58 e8 90 b2 59 91 8e b5 94 cb 92 b8
       4.5934325e-06 -1.6869464e-08 -1.0622126e-06 -6.999742e-05
000040 ce 24 1b 35 18 dc 0a 36 26 ae 82 35 08 d6 ec b2
       5.779556e-07 2.0691714e-06 9.736439e-07 -2.7571346e-08
000050 a7 e5 f9 38 9a c3 6b 31 09 8d a3 2e d2 1b cc 38
       0.00011916021 3.4308187e-09 7.437435e-11 9.73266e-05
000060 db c0 71 38 aa 9d 87 34 e0 07 82 38 c4 45 4e 38
       5.763849e-05 2.5260425e-07 6.20035e-05 4.91792e-05
000070 bd f5 f5 38 0d a2 3e 35 1c d5 8c b0 db 9a 05 2f
       0.00011728283 7.101633e-07 -1.024691e-09 1.2151295e-10
000080 f9 0c 6a 32 1d d6 06 34 cc 09 97 32 22 9b 3a 33
       1.3623542e-08 1.2557616e-07 1.7583169e-08 4.3447592e-08
000090 b1 2b 40 38 2c 42 12 b2 92 84 18 38 ed a1 bf 35
       4.5817058e-05 -8.513364e-09 3.636309e-05 1.4277736e-06
0000a0 6c 2b 0c 34 88 b0 d2 33 9e a3 bd 32 4f 6b 31 38
       1.3054313e-07 9.810998e-08 2.20769e-08 4.2300027e-05
0000b0 92 a3 91 38 a3 b4 07 38 02 f2 93 38 0c 66 01 b8
       6.944606e-05 3.235474e-05 7.054584e-05 -3.0851035e-05
0000c0 38 57 8b 38 37 62 06 36 3c 02 65 34 e8 93 d0 36
       6.644282e-05 2.0024725e-06 2.13281e-07 6.2161016e-06
0000d0 5a 44 31 38 88 45 ab 33 9d d0 66 38 95 60 d6 38
       4.2263746e-05 7.975456e-08 5.503056e-05 0.00010222305
0000e0 79 bc 03 33 3f e2 16 38 85 c1 7d 38 73 ab d7 31
       3.067223e-08 3.5973495e-05 6.050013e-05 6.276815e-09
0000f0 39 3d 3b 33 7d 4f b8 37 b9 5a 57 33 3d bf d3 37
       4.3595012e-08 2.1971524e-05 5.01411e-08 2.5242212e-05
000100 28 8f 9f 33 e4 fe 6a 39 f1 70 5d 38 fb d3 3b 37
       7.4300544e-08 0.00022410933 5.279569e-05 1.1195424e-05
000110 a9 0e 8b 39 fd aa 1c 30 c6 e9 23 2e 6d 98 6b b7
       0.0002652307 5.699546e-10 3.726954e-11 -1.4042581e-05
000120 73 07 17 3a 27 cc 32 35 79 1b 97 bb c3 8c 7f b0
       0.0005761303 6.660725e-07 -0.0046114293 -9.2968494e-10
000130 c7 bb ff 38 09 fc 6c b6 fe 35 51 35 8f f5 a7 32
       0.00012194324 -3.5313444e-06 7.7937136e-07 1.9553026e-08
000140 1d 4a 88 34 70 f7 28 32 29 fe e4 33 a3 fa 23 33
       2.5385899e-07 9.835148e-09 1.0663309e-07 3.8179348e-08
000150 cd da bc 38 f3 3f d7 39 95 34 79 b3 3d 27 0f 37
       9.0052934e-05 0.00041055641 -5.8022653e-08 8.5326e-06
000160 9b 35 03 36 40 48 52 31 54 97 1b 34 99 b9 8a b5
       1.9551724e-06 3.0600091e-09 1.4490553e-07 -1.0335817e-06
000170 3a b9 29 33 4a a3 ef 2d 61 79 38 32 04 d9 4e 34
       3.951684e-08 2.7243669e-11 1.0737808e-08 1.9264195e-07
000180 0d 1a 29 38 12 0a a2 31 fa 0c d4 32 08 17 e8 38
       4.0317e-05 4.7159654e-09 2.468595e-08 0.00011066912
000190 07 56 ce 2d d9 2c 42 36 41 87 78 36 23 13 8f 37
       2.3457692e-11 2.8934357e-06 3.7033608e-06 1.705584e-05
0001a0 44 68 3b 36 45 2a 8f 33 07 f5 6f 36 db 37 71 31
       2.7925862e-06 6.666645e-08 3.57564e-06 3.5101866e-09
0001b0 4d 80 97 35 46 02 59 38 a9 76 a8 30 d0 d2 20 39
       1.1287717e-06 5.173895e-05 1.2257334e-09 0.00015337323
0001c0 e2 13 69 b9 8c a3 1f 37 cc fa 6c 33 0e 03 65 38
       -0.00022228018 9.515217e-06 5.517613e-08 5.46007e-05
0001d0 f8 76 94 33 bc 76 9c 34 b7 4b 9a 39 8f 72 02 39
       6.913427e-08 2.9143655e-07 0.0002942958 0.00012440443
0001e0 fc 32 5a 37 c3 96 1b 30 17 18 0a 39 56 96 0b 36
       1.3005683e-05 5.6602917e-10 0.0001316968 2.080012e-06
0001f0 f7 23 b2 37 b8 f9 49 34 63 31 63 37 de 2c d5 38
       2.1236001e-05 1.8810431e-07 1.3541753e-05 0.000101649886
000200 af 2f 08 34 a2 09 d2 38 c7 8d 0c 39 e4 6d 51 39
       1.2683334e-07 0.000100153746 0.00013404257 0.0001997273
000210 e3 3d 13 36 32 2a 67 37 f0 a3 42 b1 11 64 5b 36
       2.194073e-06 1.3778497e-05 -2.8323903e-09 3.269179e-06
000220 06 e1 26 32 50 69 09 35 d4 ca 1d 33 99 49 ca 3a
       9.713636e-09 5.1189727e-07 3.6738882e-08 0.0015433311
000230 c4 8b e2 35 d9 cb 34 32 5a 0a 02 37 e7 ea 8a 2f
       1.6878989e-06 1.05237286e-08 7.751014e-06 2.5268962e-10
000240 39 30 e1 34 98 ff 73 31 89 cb e2 36 7c a9 bd 38
       4.1944602e-07 3.5506442e-09 6.7590195e-06 9.043791e-05
000250 c5 07 42 32 b7 41 1d 36 dc 28 a7 38 a1 2f 9a b1
       1.1294053e-08 2.3433074e-06 7.970791e-05 -4.4874047e-09
000260 52 5f 4e 39 bf 30 22 38 75 ab 25 38 a0 68 08 39
       0.000196812 3.8669208e-05 3.9498747e-05 0.00013008947
000270 a3 83 ae 32 65 a6 0c 35 8f ae 54 b4 e6 ea ae 36
       2.0316127e-08 5.23962e-07 -1.9807543e-07 5.21295e-06
000280 f1 f5 52 b3 f5 e5 04 30 d5 8f a3 38 3b 80 12 37
       -4.9118118e-08 4.834811e-10 7.7992365e-05 8.732134e-06
000290 7a dd 2d bb eb db 8a 37 34 ec 10 33 1c cb ac 37
       -0.0026529715 1.655329e-05 3.3742438e-08 2.0598578e-05
0002a0 94 86 8a 35 4f e2 82 35 0c 6e 5c 2c ce 80 fb 39
       1.0320969e-06 9.751619e-07 3.1324969e-12 0.00047970418
0002b0 31 48 69 b2 15 33 61 36 b2 87 f1 37 75 bc 26 b3
       -1.3578799e-08 3.3557346e-06 2.8792627e-05 -3.8821288e-08
0002c0 a3 c9 b9 ae cd 77 c5 34 18 a7 70 39 ae de f8 32
       -8.448644e-11 3.6781276e-07 0.00022950431 2.8972263e-08
0002d0 e6 f5 67 30 d6 4f 23 37 53 4b c3 32 30 71 2a 34
       8.4386753e-10 9.734145e-06 2.2735241e-08 1.5873661e-07
0002e0 9e 19 2b 35 17 39 6b 31 16 08 52 33 29 52 fc 33
       6.373974e-07 3.4229453e-09 4.890179e-08 1.1749609e-07
0002f0 c5 6d 56 35 6c 41 52 b8 95 9a cd 38 0e 97 84 35
       7.988095e-07 -5.012883e-05 9.803955e-05 9.878729e-07
000300 8f 23 77 35 d0 30 be 36 86 31 63 38 89 4c 05 31
       9.2066415e-07 5.668124e-06 5.416714e-05 1.9397552e-09
000310 f6 3e b7 32 42 d7 84 b4 f8 f4 21 38 d6 cb 76 33
       2.1332635e-08 -2.4743537e-07 3.8613536e-05 5.7461726e-08
000320 e0 6b f5 35 2d 5f ce b4 80 03 80 33 72 ca 5e b9
       1.8285318e-06 -3.843974e-07 5.961101e-08 -0.00021246987
000330 b1 35 62 35 0f 7b 54 30 a9 c4 7e 32 90 f7 6a 35
       8.426969e-07 7.730003e-10 1.4829461e-08 8.7532044e-07
000340 9c 8d 1f 35 b1 d4 0e b6 83 45 6c 35 21 69 76 3b
       5.9438185e-07 -2.1283452e-06 8.8018004e-07 0.0037599283
000350 98 a3 f5 37 16 7b 39 39 ee d9 fd 36 93 67 cd 36
       2.9282455e-05 0.00017688828 7.565358e-06 6.1215337e-06
000360 1a 47 12 37 b8 67 50 35 8b 71 c8 39 30 61 f1 35
       8.718833e-06 7.763697e-07 0.0003823157 1.7984185e-06
000370 89 76 19 b5 18 76 59 39 1a cf de 37 d9 01 3c 2f
       -5.7169433e-07 0.00020738726 2.6560901e-05 1.7099157e-10
000380 c2 3d 88 30 16 bb 08 33 1c 91 2c 39 08 ca 1d ba
       9.912855e-10 3.183512e-08 0.00016457256 -0.000601918
000390 47 17 84 34 68 3f a4 39 5e 7a 1b 38 3d 9e 00 35
       2.4603852e-07 0.0003132776 3.7068843e-05 4.791398e-07
0003a0 3d 52 bb 38 8b b5 97 32 01 d8 d0 34 15 5f 24 36
       8.932173e-05 1.766127e-08 3.8900183e-07 2.449325e-06
0003b0 69 42 42 32 99 ea e1 38 d4 bb 89 b3 9b 01 60 b3
       1.1307386e-08 0.00010772533 -6.4137254e-08 -5.2155524e-08
0003c0 b0 ba 55 36 65 11 8a 38 e6 5b 2e b8 c6 f9 03 35
       3.184814e-06 6.583593e-05 -4.157042e-05 4.916477e-07
0003d0 8c 5e 59 2f 62 fc 9b 30 ed 66 10 38 c5 1a c2 34
       1.9769625e-10 1.1349466e-09 3.4428132e-05 3.6154793e-07
0003e0 5c 1d 06 33 1f dd 3f 3a 93 2e 31 32 5f c4 fd 38
       3.122601e-08 0.00073190214 1.0313346e-08 0.00012100557
0003f0 80 7f 01 37 48 a9 89 b1 52 9f be 38 5d 70 14 33
       7.718685e-06 -4.00647e-09 9.089582e-05 3.456113e-08

bias f4 [32]
000000 f6 45 e9 b9 a5 21 b3 3a 95 53 92 ba 3f 9b 45 36
       -0.00044493348 0.0013666643 -0.0011163825 2.9445653e-06
000010 cd 42 85 35 bc a4 af b6 45 6f b3 3a 10 e0 d0 b8
       9.928714e-07 -5.234584e-06 0.0013689777 -9.959948e-05
000020 fd c6 18 b7 7a f6 0a b9 2f 95 43 b8 5b 77 11 37
       -9.106237e-06 -0.00013252525 -4.663056e-05 8.670463e-06
000030 12 1b b6 b8 d1 28 b4 b7 53 e7 cb 38 d7 3a 48 b9
       -8.6834785e-05 -2.1476679e-05 9.722882e-05 -0.00019095406
000040 69 55 02 3a 9e 9a 31 b8 60 9e a6 b9 5e 1b 70 3b
       0.00049718336 -4.2344087e-05 -0.00031779986 0.0036637406
000050 bf ac 28 b9 23 56 17 b9 83 e6 61 b6 e6 49 f5 bc
       -0.00016086081 -0.0001443257 -3.3661788e-06 -0.029942464
000060 21 ca f2 b7 ed 0a 3e 38 f5 f7 55 3a 92 6e b6 b7
       -2.8942772e-05 4.5309705e-05 0.00081622537 -2.1747579e-05
000070 2d 2a c5 b9 e5 dc fc b8 fb 86 3a b8 fa 49 ed b7
       -0.00037606191 -0.00012057441 -4.4471566e-05 -2.828705e-05

weight f4 [20, 32]
000000 1f af 14 b8 22 e2 0a b9 71 e2 7d 38 2d bb b1 37
       -3.5449044e-05 -0.00013244947 6.053079e-05 2.1187205e-05
000010 1a f4 37 b5 be c6 de b5 ac c3 b6 ba ee 14 e1 37
       -6.8528027e-07 -1.659813e-06 -0.0013943813 2.6831836e-05
000020 aa 43 95 b6 a2 e1 94 b8 6f 52 bf 38 9d 40 46 b7
       -4.448423e-06 -7.099217e-05 9.122944e-05 -1.1816764e-05
000030 2b 8a 0d 38 2e 32 0b b6 79 be e7 b8 c6 c8 67 38
       3.37457e-05 -2.0741822e-06 -0.00011050417 5.5261677e-05
000040 06 a9 b4 ba f5 55 b6 36 e1 32 11 3b ab 8f e7 bb
       -0.0013783283 5.4340294e-06 0.002215557 -0.007066687
000050 13 e4 93 b6 7b 8a 0e 38 60 04 b3 35 11 3e 03 ba
       -4.4074927e-06 3.398441e-05 1.3337813e-06 -0.0005006502
000060 05 fd dd 36 f7 ec 03 b8 49 b0 6a b9 a2 84 9f 38
       6.6157686e-06 -3.1453525e-05 -0.0002238165 7.6064156e-05
000070 99 9f 19 38 f1 a7 da 37 b9 38 b3 35 ac 8c 93 36
       3.662668e-05 2.6065829e-05 1.3353048e-06 4.3973178e-06
000080 91 27 5e b8 6b 5e ef 39 2c 09 bc 39 94 9d b6 b5
       -5.2965774e-05 0.0004565598 0.00035864988 -1.3605918e-06
000090 3c 61 56 37 63 3d 2b b6 17 4d 19 3b 4b 1c 5c b8
       1.2778033e-05 -2.5516717e-06 0.0023391896 -5.2478437e-05
0000a0 27 e3 2d 36 00 53 b7 38 ff e2 4c b8 c5 0c 9a 37
       2.591123e-06 8.74158e-05 -4.8848797e-05 1.8364177e-05
0000b0 94 01 db b7 2f 82 20 b8 a8 3a 17 39 62 b7 a4 b8
       -2.610757e-05 -3.8268216e-05 0.00014422333 -7.854287e-05
0000c0 ce c1 16 ba 0a 27 02 b7 e0 34 b1 39 55 3a 00 3b
       -0.0005750925 -7.757693e-06 0.00033799466 0.0019566019
0000d0 7d 22 12 37 21 96 db b7 f5 ef 9a b5 85 58 9d 39
       8.710308e-06 -2.6176744e-05 -1.1543731e-06 0.00030011326
0000e0 70 b2 08 b6 34 41 d8 38 fe 87 68 3a a6 84 05 37
       -2.0369444e-06 0.00010311828 0.0008870362 7.958302e-06
0000f0 bb 0d 93 b8 ed 9f 15 b8 73 6c 56 b9 81 32 50 b7
       -7.012064e-05 -3.567331e-05 -0.00020449031 -1.2409525e-05
000100 b4 1c c2 b8 33 84 23 3a fe a1 87 b8 d1 af 27 37
       -9.255987e-05 0.0006237656 -6.467475e-05 9.994911e-06
000110 b0 1f 90 37 26 60 87 b6 36 cc b3 3a 9f af 56 b8
       1.7180893e-05 -4.0345067e-06 0.0013717476 -5.1185136e-05
000120 ae ca 7f 36 d3 fc 0c 38 8a e8 98 b7 6e f2 a6 37
       3.8115936e-06 3.3614062e-05 -1.8228096e-05 1.9901632e-05
000130 10 4a 94 b7 1e 89 8b 35 63 3c 07 39 49 af 86 b7
       -1.7677463e-05 1.0396213e-06 0.00012897099 -1.6055668e-05
000140 cc 7c b7 b9 63 0f a8 b6 68 84 95 39 4f 8b 4b 3a
       -0.0003499746 -5.0085814e-06 0.00028518145 0.0007764594
000150 0d 9f 23 37 ad b8 4a b7 f6 98 b3 b5 b6 6d 1e b9
       9.752589e-06 -1.2083136e-05 -1.3381057e-06 -0.00015108925
000160 b6 5d 1f 37 d1 43 cc 38 3e 8d 29 39 86 ca f9 37
       9.498957e-06 9.74011e-05 0.00016169713 2.977742e-05
000170 f9 41 89 b8 04 90 d9 b7 0b 89 db b7 f2 f1 40 b7
       -6.5449574e-05 -2.5935478e-05 -2.617065e-05 -1.1500424e-05
000180 70 96 41 39 d3 ad 5a ba 59 ce 91 b8 98 bf af b7
       0.00018461957 -0.0008341942 -6.952574e-05 -2.0950843e-05
000190 8f 76 02 b7 ed 88 3d b6 30 e1 22 bb d6 6f 53 38
       -7.776208e-06 -2.8242896e-06 -0.002485346 5.0410476e-05
0001a0 08 81 7d b6 97 8f 82 37 87 2c 39 37 f3 03 13 b8
       -3.7775044e-06 1.5564072e-05 1.1037227e-05 -3.505121e-05
0001b0 57 ec 47 38 32 f3 99 b6 d1 3a 27 b9 3e 1d bb 38
       4.7665406e-05 -4.588067e-06 -0.00015948272 8.922302e-05
0001c0 ab 36 98 b7 64 9b 05 37 67 14 14 ba 02 31 af ba
       -1.8145269e-05 7.963597e-06 -0.0005648792 -0.0013366046
0001d0 20 9c 12 b8 62 90 80 38 00 66 7e 35 6f 4b 46 38
       -3.4954515e-05 6.130409e-05 9.4770803e-07 4.727713e-05
0001e0 a9 c0 66 b7 7b c4 18 b9 e0 2f 26 ba 06 be 3f b7
       -1.37539255e-05 -0.00014569044 -0.00063395314 -1.142873e-05
0001f0 02 38 ae 38 f8 a4 18 38 e5 3b 2c 37 3a e6 74 37
       8.307399e-05 3.6393263e-05 1.0265944e-05 1.4597137e-05
000200 3c c7 6e 3a fe 29 26 ba 3e 12 24 b9 c7 58 9c b7
       0.0009108668 -0.0006338655 -0.00015647055 -1.863799e-05
000210 ec 26 36 b7 e3 cf 5d b6 f7 f0 b8 ba 12 21 10 38
       -1.0857108e-05 -3.3052572e-06 -0.0014109899 3.4363075e-05
000220 c1 dd 30 b6 97 37 d1 37 69 af 46 36 a1 5f de b7
       -2.6355121e-06 2.4940628e-05 2.9606401e-06 -2.6508993e-05
000230 47 a7 eb 37 06 07 87 36 c6 4a 07 b9 b4 d2 f1 37
       2.8092078e-05 4.024131e-06 -0.00012902459 2.8827555e-05
000240 dd 04 5a b8 b9 b0 ae 36 d0 d1 87 b9 28 fa c5 b8
       -5.197978e-05 5.2061773e-06 -0.0002590553 -9.440287e-05
000250 b3 75 23 ba a0 36 3f 38 8d 36 20 32 6a 85 54 3a
       -0.0006235495 4.5588822e-05 9.325629e-09 0.00081070384
000260 64 2c 3e b7 ee 03 e0 b8 1a 43 90 3a 1c 26 2b 37
       -1.1335218e-05 -0.00010681884 0.0011006326 1.0201267e-05
000270 78 27 78 38 03 ab d9 37 8c 84 bb 36 8d 98 0f 37
       5.9164566e-05 2.594805e-05 5.588465e-06 8.558983e-06
000280 6c 85 6e b8 ec e7 35 ba 63 bb 0b ba b7 48 ac b9
       -5.686788e-05 -0.0006939161 -0.0005330352 -0.00032860573
000290 a3 ec 90 b8 b4 73 d2 b8 ff f6 1a bb 27 d4 ad b9
       -6.910532e-05 -0.00010035132 -0.0023645756 -0.00033155197
0002a0 4a b8 d9 b8 08 11 ad b9 e0 a8 1a bc 2f 13 9e ba
       -0.00010381693 -0.0003300982 -0.009439677 -0.001206016
0002b0 81 c2 78 b9 4c 4d 8a ba bb 44 8c b9 70 a3 0a ba
       -0.00023723581 -0.0010551601 -0.0002675409 -0.00052886363
0002c0 32 17 50 ba bc 3a 25 b9 db 05 97 bc d0 3b 64 3d
       -0.00079380267 -0.00015757506 -0.01843541 0.055721104
0002d0 ce 48 4a 3b ab 28 07 ba 29 e8 3a b8 42 46 ca bc
       0.003086615 -0.00051559013 -4.456207e-05 -0.024691705
0002e0 0e 58 90 bb 8c aa 8a bb 38 cd eb ba 9a 77 12 bc
       -0.004405028 -0.0042317566 -0.0017990237 -0.008939648
0002f0 6a 8a 28 b9 64 fe e2 b9 a9 12 b6 ba cf bf b2 b9
       -0.00016073292 -0.00043295615 -0.0013891059 -0.00034093714
000300 83 bd 4c ba d8 b8 08 3a 92 f2 31 37 84 e9 ad 37
       -0.0007810222 0.0005215532 1.06065e-05 2.0731946e-05
000310 04 66 4a 37 eb 4b 78 36 cf 4e c8 3a de c9 2e b8
       1.2063891e-05 3.699907e-06 0.0015282276 -4.1672836e-05
000320 8f 6a 3b 36 f7 f2 34 b7 83 df 64 b7 8f 4e de 37
       2.7927197e-06 -1.0785406e-05 -1.3641899e-05 2.6501044e-05
000330 32 e5 ef b7 48 71 84 b6 c6 c5 29 39 71 11 d1 b7
       -2.8597748e-05 -3.9470942e-06 0.00016190772 -2.4922863e-05
000340 df 1e 2b b9 a9 f7 bd b6 29 74 b5 39 97 7d c7 39
       -0.00016319331 -5.6614704e-06 0.00034609556 0.0003804981
000350 7c 52 c0 39 7a be 53 b8 9c 73 99 b4 7a bb eb b9
       0.0003668255 -5.0483715e-05 -2.8582588e-07 -0.00044962374
000360 59 19 2e 37 c0 26 f4 38 e2 e8 6f ba 57 fd 34 b7
       1.037711e-05 0.000116420444 -0.00091518287 -1.0787821e-05
000370 8d 98 8f b8 32 5c f3 b7 2a 67 d9 b6 18 61 1a b7
       -6.847186e-05 -2.901079e-05 -6.479114e-06 -9.201722e-06
000380 15 81 22 b8 59 88 09 3a 6f 83 39 36 ee ac 69 b7
       -3.8744027e-05 0.00052464526 2.7643653e-06 -1.3928146e-05
000390 0e bd eb 36 e6 5e 32 b8 2f 78 a4 3a bb c0 e0 37
       7.0255546e-06 -4.2526888e-05 0.0012548025 2.6792628e-05
0003a0 92 81 c3 35 5f 5e 80 38 3d 73 19 37 08 05 b0 37
       1.4566342e-06 6.1210936e-05 9.146342e-06 2.0983178e-05
0003b0 8b f0 f2 b7 60 3e d0 36 29 d4 c0 38 96 de 9b b8
       -2.896066e-05 6.2061445e-06 9.194791e-05 -7.432436e-05
0003c0 03 2c fb b9 d1 1c 86 b6 2f c6 70 39 50 44 3b 3a
       -0.00047907242 -3.996866e-06 0.00022962013 0.0007143663
0003d0 77 88 40 35 71 74 5b b7 78 ed a3 b5 0e 1e 2b b9
       7.1724156e-07 -1.3080528e-05 -1.2213559e-06 -0.00016319027
0003e0 a0 c0 82 37 3a bc e1 38 78 74 93 3a 4d e3 55 38
       1.5586906e-05 0.00010763896 0.001124992 5.0994848e-05
0003f0 ef 49 6c b8 ce 65 a7 b7 54 0e 03 b7 be bb 15 b7
       -5.633564e-05 -1.9955358e-05 -7.8115445e-06 -8.924804e-06

bias f4 [20]
000000 bc dc 1a bc 15 74 52 3c 96 27 5a 3c b2 cf 98 bc
       -0.009452041 0.012845059 0.013315102 -0.018653724
000010 02 db 85 bc 7c 84 23 3d ee 20 7f 3c 2c fa 33 3c
       -0.016339783 0.03992127 0.015571816 0.010984939
000020 bf c9 d1 b8 df 06 41 3c 77 fe bf 3e 0d 98 86 bc
       -0.00010003475 0.011781423 0.3749883 -0.016429925
000030 6b b9 25 ba 4e 12 f1 bb 9b 0d 1d 3c 8e 17 2a 3c
       -0.000632188 -0.0073569184 0.009585763 0.010381592
000040 bb 65 16 bc 8f fb b7 bb 8a 44 b7 3a fc d8 8e 3c
       -0.009179528 -0.005614705 0.0013982218 0.01743745

bias f4 [64]
000000 00 00 00 00 00 00 00 00 00 00 00 00 00 00 00 00
       0.0 0.0 0.0 0.0
000010 00 00 00 00 00 00 00 00 00 00 00 00 00 00 00 00
       0.0 0.0 0.0 0.0
000020 00 00 00 00 00 00 00 00 00 00 00 00 00 00 00 00
       0.0 0.0 0.0 0.0
000030 00 00 00 00 00 00 00 00 00 00 00 00 00 00 00 00
       0.0 0.0 0.0 0.0
000040 00 00 00 00 00 00 00 00 00 00 00 00 00 00 00 00
       0.0 0.0 0.0 0.0
000050 00 00 00 00 00 00 00 00 00 00 00 00 00 00 00 00
       0.0 0.0 0.0 0.0
000060 00 00 00 00 00 00 00 00 00 00 00 00 00 00 00 00
       0.0 0.0 0.0 0.0
000070 00 00 00 00 00 00 00 00 00 00 00 00 00 00 00 00
       0.0 0.0 0.0 0.0
000080 00 00 00 00 00 00 00 00 00 00 00 00 00 00 00 00
       0.0 0.0 0.0 0.0
000090 00 00 00 00 00 00 00 00 00 00 00 00 00 00 00 00
       0.0 0.0 0.0 0.0
0000a0 00 00 00 00 00 00 00 00 00 00 00 00 00 00 00 00
       0.0 0.0 0.0 0.0
0000b0 00 00 00 00 00 00 00 00 00 00 00 00 00 00 00 00
       0.0 0.0 0.0 0.0
0000c0 00 00 00 00 00 00 00 00 00 00 00 00 00 00 00 00
       0.0 0.0 0.0 0.0
0000d0 00 00 00 00 00 00 00 00 00 00 00 00 00 00 00 00
       0.0 0.0 0.0 0.0
0000e0 00 00 00 00 00 00 00 00 00 00 00 00 00 00 00 00
       0.0 0.0 0.0 0.0
0000f0 00 00 00 00 00 00 00 00 00 00 00 00 00 00 00 00
       0.0 0.0 0.0 0.0

weight f4 [64, 1]
000000 d7 06 88 bb 94 e4 82 be a7 b3 4f be 60 fe 3f 3e
       -0.004151206 -0.25565016 -0.20283376 0.1874938
000010 13 3b 15 3e 49 e9 12 be 4b d3 5e 3e a3 0b 17 3e
       0.14573316 -0.14346804 0.2176029 0.14750533
000020 5f 51 08 3e 52 80 82 3c 7a cc 13 3e 76 b8 8d bd
       0.1331229 0.015930329 0.1443347 -0.06919949
000030 3b 66 85 be ab ed a0 bd fd 63 7b 3d 37 92 1c be
       -0.26054558 -0.078578316 0.061374653 -0.15290152
000040 99 86 fa 3d 92 76 8e 3e 50 e1 f8 3d 91 8e 4a 3e
       0.12232704 0.27824837 0.1215235 0.19780947
000050 29 b2 ee bc 60 7b 53 bc 6c 9a b1 bd 2a b6 87 3e
       -0.029137688 -0.012907833 -0.08672032 0.26506168
000060 4f e8 68 be 4d 6e 07 3e 95 04 fa 3d cc 42 8f 3e
       -0.22744869 0.1322567 0.12207905 0.2798065
000070 e4 50 16 bd 55 f9 06 be 88 f9 96 3e f4 d6 5b be
       -0.036698237 -0.1318105 0.29487252 -0.21468717
000080 0f 18 61 3b eb dc 3e be 4f e7 5e 3e 7d 2d 4f 3e
       0.0034346615 -0.18638961 0.21767925 0.20232196
000090 4e 98 25 be d4 d5 b0 bc 3d 1a 41 bb 50 1e 91 be
       -0.16171381 -0.021586336 -0.0029465102 -0.2834344
0000a0 04 14 8f 3e c1 82 01 3e 18 e6 1e b8 a4 79 83 3e
       0.27944958 0.12647535 -3.7884427e-05 0.25678742
0000b0 b2 68 1c 3e 15 91 0b 3e f0 19 00 3e 1a 2a d8 bd
       0.15274313 0.13629563 0.12509894 -0.10554905
0000c0 8a 90 7a be 81 cb e6 3d 95 70 bf bc 41 a0 1d 3e
       -0.244692 0.11269284 -0.023369113 0.15393163
0000d0 86 7e 60 be 81 76 ea 3c 64 6b 68 3e a5 bf 56 3d
       -0.21923265 0.02862096 0.22697216 0.05242886
0000e0 66 ea 5a be b4 37 b9 3d a0 f5 99 3e ff 33 bb bd
       -0.21378478 0.09043828 0.3007021 -0.09140777
0000f0 99 dc 4e bd 4a 8d 36 3e 91 04 49 3e 45 60 e3 3d
       -0.050503347 0.17827335 0.19630648 0.11102346

bias f4 [64]
000000 00 00 00 00 00 00 00 00 00 00 00 00 00 00 00 00
       0.0 0.0 0.0 0.0
000010 00 00 00 00 00 00 00 00 00 00 00 00 00 00 00 00
       0.0 0.0 0.0 0.0
000020 00 00 00 00 00 00 00 00 00 00 00 00 00 00 00 00
       0.0 0.0 0.0 0.0
000030 00 00 00 00 00 00 00 00 00 00 00 00 00 00 00 00
       0.0 0.0 0.0 0.0
000040 00 00 00 00 00 00 00 00 00 00 00 00 00 00 00 00
       0.0 0.0 0.0 0.0
000050 00 00 00 00 00 00 00 00 00 00 00 00 00 00 00 00
       0.0 0.0 0.0 0.0
000060 00 00 00 00 00 00 00 00 00 00 00 00 00 00 00 00
       0.0 0.0 0.0 0.0
000070 00 00 00 00 00 00 00 00 00 00 00 00 00 00 00 00
       0.0 0.0 0.0 0.0
000080 00 00 00 00 00 00 00 00 00 00 00 00 00 00 00 00
       0.0 0.0 0.0 0.0
000090 00 00 00 00 00 00 00 00 00 00 00 00 00 00 00 00
       0.0 0.0 0.0 0.0
0000a0 00 00 00 00 00 00 00 00 00 00 00 00 00 00 00 00
       0.0 0.0 0.0 0.0
0000b0 00 00 00 00 00 00 00 00 00 00 00 00 00 00 00 00
       0.0 0.0 0.0 0.0
0000c0 00 00 00 00 00 00 00 00 00 00 00 00 00 00 00 00
       0.0 0.0 0.0 0.0
0000d0 00 00 00 00 00 00 00 00 00 00 00 00 00 00 00 00
       0.0 0.0 0.0 0.0
0000e0 00 00 00 00 00 00 00 00 00 00 00 00 00 00 00 00
       0.0 0.0 0.0 0.0
0000f0 00 00 00 00 00 00 00 00 00 00 00 00 00 00 00 00
       0.0 0.0 0.0 0.0

weight f4 [64, 64]
000000 b0 e1 ed bd ff a5 94 3d 18 88 52 be 52 3a 7b bd
       -0.11615312 0.07258224 -0.20559728 -0.061334915
000010 f5 ca 66 3c 0e 99 5c 3e c2 07 ac bd 19 84 06 be
       0.014086475 0.2154276 -0.08399917 -0.13136329
000020 77 4e 06 be a1 1d c9 bd f1 f8 f6 bc a0 88 25 3e
       -0.1311587 -0.098201044 -0.030148001 0.161654
000030 3c 2d 04 bc 2b f2 e0 bd 8d da 84 ba 7d 35 46 be
       -0.008067425 -0.1098369 -0.0010135934 -0.19356342
000040 83 50 20 bb 1c af 12 be 80 45 3f 3e e8 81 3a 3e
       -0.0024462051 -0.14324611 0.18678856 0.18213618
000050 9c a3 00 be d1 5a 5b 3d 61 5e 70 bd 23 d3 94 bd
       -0.12562412 0.053553406 -0.058683757 -0.07266834
000060 e3 b3 43 3e c9 81 43 3e f3 ce 28 3e d5 10 54 be
       0.1911159 0.19092478 0.16485195 -0.20709546
000070 26 a5 3f 3d c2 3e e9 3d 1d 24 cf 3d 1f 48 17 be
       0.046788357 0.11388923 0.1011431 -0.14773606
000080 0c 89 c2 3d 91 69 95 bd 0d b3 99 3c d8 f2 5d bd
       0.09498796 -0.07295526 0.018762136 -0.054186672
000090 7a 70 ca 3c a5 ba da bd b8 22 c4 3d 0a 9e 87 bd
       0.024711836 -0.10680131 0.095769346 -0.066219404
0000a0 b9 a4 87 bd 25 83 af 3d 86 85 aa 3d 77 e4 d4 3d
       -0.06623215 0.08569936 0.08326249 0.10395139
0000b0 6a ba 8f 3d e8 9e d0 bd c9 01 2d bd d8 0d df 3d
       0.070179775 -0.10186559 -0.04223803 0.10891312
0000c0 3a bd 5b be 79 e4 f2 3d 07 03 14 3e 67 21 6d 3d
       -0.21458903 0.11859984 0.1445428 0.057893183
0000d0 af 35 0f 3e 57 c6 4f 3e 9e f1 37 bd c3 06 f3 bd
       0.13985322 0.20290504 -0.04490816 -0.11866524
0000e0 4b 4a 0e be b3 31 ad 3d aa 69 07 be fe 4b 96 3c
       -0.13895528 0.08456745 -0.13223901 0.018346783
0000f0 52 92 fc bc f5 a7 1d be d3 02 66 3d b3 15 eb bd
       -0.03083149 -0.15396102 0.056155037 -0.11478748
000100 a9 da 17 3d 3b 67 d9 3d 7d ea 81 bd 53 fe 70 bd
       0.037073765 0.10615393 -0.06343553 -0.058836292
000110 52 5c 08 bd 14 07 69 bc 8e 12 48 3d 35 a0 12 3e
       -0.03329117 -0.014222879 0.04884582 0.14318927
000120 e9 a5 50 be 21 a3 43 3e c0 67 5d 3e 07 c5 f2 bd
       -0.2037579 0.19105197 0.21621609 -0.11853986
000130 df 74 ee 3d 0d 9d 5a 3d c6 cf 18 be d3 fd 20 3c
       0.11643385 0.05337243 -0.1492301 0.009826141
000140 80 02 59 bd 36 3e 35 3e 3a a7 bb bd d4 9a 2d bd
       -0.0529809 0.17699513 -0.09162755 -0.042383984
000150 47 8d 34 3e d9 d3 f3 bd 75 5f 4b be 49 ec 38 3e
       0.17632018 -0.11905641 -0.19860633 0.18058886
000160 6a 48 d8 3c c0 21 a6 3d c7 b8 21 3d 00 52 ba bd
       0.026401717 0.08111906 0.039482858 -0.090976715
000170 c4 cc 6d 3d 6a 67 b9 3d 40 49 c8 3b c5 54 db 3d
       0.058056608 0.09052928 0.0061122477 0.10709528
000180 9d 3e 25 be 6c d5 67 3d 9e 1e 3b 3e 24 66 85 bc
       -0.16137166 0.05660002 0.18273398 -0.016284056
000190 c3 ad 4e 3e 04 b7 07 bd 2f b2 c5 bd 75 a6 1a 3c
       0.20183472 -0.03313352 -0.096531264 0.0094391005
0001a0 1e c1 0d 3e 51 2f f3 3b 78 b6 18 be 5d 30 06 3e
       0.138432 0.007421412 -0.14913356 0.13104387
0001b0 d0 10 8d 3d fa 02 1b be fd 2b 01 3d 97 07 a8 3c
       0.06887972 -0.15137854 0.03153609 0.020511432
0001c0 80 1a 39 3d 12 a3 b8 bc f3 74 2b 3e 89 41 2e be
       0.045191288 -0.022538695 0.16743831 -0.17017187
0001d0 bb 12 67 bc de 31 21 3d 6e 41 c3 bd f7 c9 80 bc
       -0.014103587 0.039354198 -0.09533964 -0.015721304
0001e0 5f c7 55 be 83 e4 a1 38 bb ec 15 3c 3b d3 19 bd
       -0.20876835 7.719642e-05 0.009150679 -0.03755496
0001f0 79 83 58 be c1 e7 c2 3d 74 23 b5 bd 59 02 52 3e
       -0.21143903 0.0951686 -0.08844653 0.20508708
000200 fa 11 52 3e 1d 74 3f 3e 1a 83 33 3e ce 49 2d 3e
       0.2051467 0.18696637 0.1753048 0.16922686
000210 7a ea fe 3a fe 65 c8 3d b5 79 82 bd be 0a 6e bb
       0.0019448542 0.097850785 -0.0637087 -0.003632232
000220 2e c5 1d be 77 d1 db bc 49 36 75 3c 5d 88 0d bd
       -0.1540725 -0.026833279 0.014966556 -0.034553874
000230 16 a2 4c be d9 2d 26 3d 13 55 bb bc 1e 9e b5 bd
       -0.19983706 0.040571067 -0.022867715 -0.08868049
000240 c6 04 b5 bd 9d 6b b7 bd ec 20 05 3e dc 7c 52 3d
       -0.08838801 -0.089560725 0.1300084 0.051388606
000250 db ad cd bc 3b da a2 bd bc 1c f5 3a 85 f6 11 be
       -0.025107315 -0.079517804 0.001870058 -0.14254196
000260 6f 39 5d 3e ed 77 1e be 4e 6a c5 3d 3d 96 40 be
       0.2160394 -0.15475436 0.09639417 -0.18807311
000270 79 68 1e be ae 7d 59 be 83 17 e8 bd e0 e1 3e be
       -0.1546954 -0.21239349 -0.113326095 -0.18640852
000280 30 dc f9 bd 18 74 3e bd 30 d3 8e 3d 48 49 c1 bd
       -0.122002006 -0.046497434 0.069738746 -0.094378054
000290 65 5d 03 3e f3 b1 1d be 78 6e 3a be bc 87 30 be
       0.12828596 -0.15399913 -0.18206203 -0.17239279
0002a0 a7 e3 36 be 5d 13 a3 3d e9 89 20 3e ea fb a5 3d
       -0.1786028 0.07962678 0.15677609 0.081046894
0002b0 9f b2 9c 3c 32 6b 39 3e f2 29 e1 bc 45 fa f9 3d
       0.019128142 0.18107298 -0.027485821 0.12205938
0002c0 7b ed d2 bd d0 83 14 3d c8 33 cc bc c2 50 38 3e
       -0.10299202 0.03625852 -0.024927035 0.17999557
0002d0 71 be b7 bd 2f 52 08 3e fd ef 8a bc db a5 17 be
       -0.08971871 0.133126 -0.016960138 -0.14809363
0002e0 a7 0e bd bd 12 12 4a be fd 40 13 3e ce d8 ab 3d
       -0.0923131 -0.19733456 0.1438026 0.083909616
0002f0 fc 16 27 be 4c d3 f9 bd e1 b2 fc 3d 70 23 20 3e
       -0.16317362 -0.12198505 0.12338806 0.15638518
000300 cb 3d 0c 3e b7 4d 0b 3e b4 a8 85 bd 23 5e 4b 3e
       0.13695447 0.13603865 -0.06526318 0.19860129
000310 bf fa 4f be 06 e7 93 bd 46 85 c2 3d c3 6b c9 3d
       -0.20310496 -0.072217986 0.09498076 0.09835007
000320 ca 4c 59 bd e9 de dd bd 7c ed 9f 3d d4 9e ed 3d
       -0.053051747 -0.10833532 0.078089684 0.1160256
000330 04 c5 c4 3d cb a0 4c 3c f1 c3 5a 3d 2f 95 31 be
       0.0960789 0.012489508 0.05340952 -0.17342065
000340 e1 30 52 be 1a 64 37 be 9f e1 19 3e d3 e2 e0 bc
       -0.20526458 -0.1790928 0.15027474 -0.027451908
000350 e7 ba 74 3d 4f 54 f7 3d 3b 52 0a be e2 99 30 3c
       0.059748556 0.120766275 -0.13507931 0.010778876
000360 93 dd 38 3e e5 88 a5 3d 89 ba 32 3e 01 34 d2 3d
       0.18053274 0.08082751 0.1745397 0.10263825
000370 fc 2c 20 be 14 89 40 be 70 04 09 bd 1a 7d 38 be
       -0.1564216 -0.18802291 -0.033451498 -0.18016472
000380 e5 80 ac 3d b5 aa 1f 3e df 8b 10 3e b4 57 55 3e
       0.08423022 0.15592463 0.14115857 0.20834237
000390 ca eb b3 bd 17 ee 2c 3e 93 0d 3f be f5 c0 cc bd
       -0.087852076 0.16887699 -0.18657522 -0.09997741
0003a0 d7 1a 3e 3c 34 40 14 3e b0 b6 13 be 1f 41 52 be
       0.011603079 0.14477617 -0.14425159 -0.20532654
0003b0 8a 73 47 be 03 91 2c 3d 18 d0 f2 3d 8b c6 4a 3e
       -0.19477668 0.04213048 0.11856097 0.198023
0003c0 33 29 22 3e a1 1a 58 3e de 2d 34 3e 89 ab 53 be
       0.15836029 0.21103908 0.17595622 -0.20670904
0003d0 b4 76 5d be b7 ba 60 3d 70 35 1d be a4 db 78 3d
       -0.21627313 0.054865565 -0.15352416 0.06075634
0003e0 0a c3 3b 3e 7e 83 0d 3d a4 ff 3d bd 95 be a4 bd
       0.1833612 0.03454923 -0.046386376 -0.08044163
0003f0 7d 57 ea bd 7d c4 32 3e c7 8f 8a bd fa 7c 2d 3e
       -0.11442468 0.17457767 -0.067657046 0.16942206

bias f4 [10]
000000 00 00 00 00 00 00 00 00 00 00 00 00 00 00 00 00
       0.0 0.0 0.0 0.0
000010 00 00 00 00 00 00 00 00 00 00 00 00 00 00 00 00
       0.0 0.0 0.0 0.0
000020 00 00 00 00 00 00 00 00
       0.0 0.0
