ckpt/real_only_mlp-best.pt (torch, 141714 bytes, 17 tensors)

weight f4 [256, 7]
000000 c6 3b ef bb 09 7d 33 3e 9c df 79 be 01 08 58 be
       -0.0073008267 0.17528166 -0.24401706 -0.21096803
000010 84 94 a7 bd fe 91 24 3d bc f9 2d b9 0e 30 75 3e
       -0.08182624 0.04017829 -0.00016591599 0.23944113
000020 bd 96 22 bd cc 5e 23 3d 4d d3 54 bd cf ab 8e bc
       -0.039694536 0.039885327 -0.051959325 -0.01741591
000030 ce 1d 96 be 97 db 3b be 4c 98 be bd 3b 7b 6e 3b
       -0.29319614 -0.18345486 -0.09306392 0.003638937
000040 01 06 ae 3d ec 21 24 3e 3f da 41 be e7 03 cc bd
       0.08497239 0.16028565 -0.1893091 -0.09961682
000050 f5 81 96 3d d8 09 92 3e af 91 a2 bd aa 69 5e 3e
       0.07349006 0.28523135 -0.07937943 0.21719995
000060 70 a9 0a bc 4e 1a af 3a 6c 8f 8c 3e eb c6 90 be
       -0.008463249 0.001335928 0.27453172 -0.28276762
000070 48 bb 2f be af 3e 25 bd ec 01 aa bd 20 90 84 3e
       -0.17161286 -0.040342983 -0.08301148 0.2589121
000080 90 79 36 be 70 a1 de bd c3 bf 49 be f3 c8 92 be
       -0.1781981 -0.108706355 -0.19702058 -0.28668937
000090 fb 57 20 be 79 b4 83 3e b5 0d d4 3d 16 e6 f0 3d
       -0.15658562 0.25723627 0.10354177 0.117626354
0000a0 fb 41 05 3a fc 04 03 be 1e 78 9f 3c 05 4c 92 be
       0.0005083379 -0.1279487 0.019466456 -0.28573623
0000b0 dd ee 52 be 32 19 04 be 61 e7 2f 3e 5a ed 1e 3e
       -0.20598932 -0.12900236 0.17178108 0.1552023
0000c0 14 02 d2 bd 51 33 74 bc 69 11 4f 3e 7c 8c 9d 3e
       -0.102543026 -0.014904813 0.20221485 0.30771244
0000d0 a1 52 af 3d 0e de 43 3b c7 f3 3e 3e dc e9 1f be
       0.08560682 0.0029886994 0.18647681 -0.15616554
0000e0 c6 9b 9a 3c e6 1e 67 be ba 8e 47 be 05 7d 04 be
       0.018873107 -0.2257038 -0.1948804 -0.12938316
0000f0 e1 cd d8 3d 02 3f b3 3d f2 35 21 be a3 84 bd 3d
       0.10586143 0.08752252 -0.15743235 0.09253814
000100 3f 68 42 3e d1 d7 53 bc fc 4e 46 bb 1b 84 eb 3c
       0.18985079 -0.012929873 -0.003025948 0.028749516
000110 ee e4 2b 3e b9 0d 97 3e 41 09 65 be 6f 2f 99 bd
       0.16786548 0.29502657 -0.22366811 -0.0747975
000120 30 9a ac 3d 23 84 7b 3e 1d c2 85 3e 76 16 88 3e
       0.084278464 0.24562125 0.2612466 0.26579636
000130 18 94 95 3c 60 3b 86 be 41 51 92 3c 48 d8 2d be
       0.018259093 -0.26217175 0.01786101 -0.16977036
000140 26 9e 91 be af 44 89 3e bf 5d 61 3e 4f 3b 9e be
       -0.2844097 0.26810214 0.22008418 -0.30904624
000150 10 36 9b 3c 49 17 77 bc 21 5b 0d bc 21 b1 dc bd
       0.018946677 -0.015081235 -0.008627684 -0.10775972
000160 2b 47 a6 3d 96 31 21 be a3 ff 98 3d f3 a6 1e 3e
       0.08119043 -0.15741572 0.07470634 0.15493374
000170 fe 55 79 3e 8e 6b 9e 3d e5 bd 9c be 84 d0 36 be
       0.2434921 0.07735358 -0.30613628 -0.1785298
000180 c3 fc fb 3d 53 b5 ae 3c 3c af 68 be e7 77 1b be
       0.1230407 0.021326697 -0.22723097 -0.15182458
000190 36 51 93 3e 54 43 40 3e 77 66 cc bd b8 8b 0e bd
       0.28772897 0.18775684 -0.09980481 -0.034801215
0001a0 43 96 95 be 00 03 ac 3b e8 b2 5e be e6 8f 65 be
       -0.29216203 0.005249381 -0.21747935 -0.22418174
0001b0 c9 68 02 ba ad f4 b7 3b 2f b0 b8 bd 93 9b 21 3e
       -0.00049747207 0.0056138844 -0.09017979 0.15782003
0001c0 a0 b1 54 be c4 2f a7 3e 06 de 45 3e cf 92 80 be
       -0.20770884 0.3265363 0.19322976 -0.25112006
0001d0 1a 66 12 bd 57 0b ea 3a f4 a9 99 3b 61 a4 2b 3d
       -0.035741903 0.0017856163 0.0046894494 0.04190481
0001e0 41 96 cc 3d 52 a2 49 bc e8 7f f3 bd 7f 8b e7 3d
       0.09989596 -0.012306767 -0.118896306 0.11305904
0001f0 01 e4 96 be 2b 6b 21 be a2 42 3c bd ae 9c 04 be
       -0.29470828 -0.15763538 -0.045961984 -0.12950394
000200 ec c3 8c bd 5d 17 78 be 77 1a b7 bc ec 12 ba 3c
       -0.06873307 -0.24227662 -0.022351487 0.0227141
000210 95 b9 37 be 6a bf e6 bc 27 71 60 3e d8 85 bc bb
       -0.17941888 -0.028167445 0.21918164 -0.00575326
000220 61 fa e8 ba 61 d1 e2 ba 2b b3 9c 3c 73 c1 31 3e
       -0.0017774814 -0.0017304831 0.019128403 0.17358951
000230 d5 55 a7 3e 45 dc 65 3e 27 a4 95 3e b7 f6 a1 3a
       0.32682672 0.22447307 0.292268 0.0012356852
000240 10 3e 8b be b6 3a e9 bd 8a ee 42 3e f9 5a c6 3b
       -0.27195787 -0.11388151 0.19036308 0.0060533253
000250 f9 7b fa bd 45 95 63 be fd 5d 92 be fc b6 80 be
       -0.12230677 -0.2222491 -0.28587332 -0.25139606
000260 9a a9 9e bc 9d 89 10 3e d8 62 12 3e a8 a3 99 be
       -0.019367982 0.14114995 0.14295518 -0.30007672
000270 16 30 2d 3e b6 db 69 be 4b 00 b4 bc 8b a9 b5 bd
       0.16912875 -0.2283772 -0.021972796 -0.088702284
000280 30 29 86 bc ee 82 a1 bc e0 0a 8b be bd 74 84 be
       -0.016377062 -0.019715752 -0.27156734 -0.25870314
000290 7b f9 e3 bb 58 de 89 ba 17 14 da bd 7d 6c a0 3d
       -0.0069572306 -0.0010518534 -0.10648363 0.078331925
0002a0 d9 48 8b be 66 34 35 bb cc 89 87 3e 46 7b b7 bd
       -0.27204016 -0.002764964 0.26472318 -0.089590594
0002b0 94 0f 8c 3e 98 bf 95 3d eb f2 8b be 06 ee 40 3e
       0.27355635 0.07311934 -0.2733377 0.18840799
0002c0 4d 36 4b bd 7d 9d d1 bd 5a 74 70 3e 70 78 73 be
       -0.049612332 -0.10235117 0.23481885 -0.23776412
0002d0 82 00 0a ba 39 ff ad bc 80 f4 6c 3e 81 81 c4 3d
       -0.0005264358 -0.021239864 0.23140144 0.095950134
0002e0 1a 09 ed 3d 19 f7 8e 3d 9c 76 04 bd ff eb b1 bc
       0.115740016 0.06980724 -0.032339677 -0.021718977
0002f0 9b cc 79 be df d7 3d 3e 02 00 90 3e c3 75 46 3e
       -0.24394457 0.1853938 0.28125006 0.1938086
000300 7a 46 4c be ef 02 01 3b 12 39 4c be b8 66 11 be
       -0.1994876 0.0019685586 -0.19943646 -0.1419934
000310 65 69 2d be 71 9b e6 3d bf 01 23 be 0a 17 fb ba
       -0.16934736 0.11260117 -0.15918635 -0.0019156646
000320 7c 30 46 bb 58 1e 35 3e e6 ab 5f be 43 5d 45 be
       -0.0030241301 0.17687356 -0.21842918 -0.19273858
000330 97 ec 1d be 2e 4a 4a 3e e8 bf 93 bd 19 a1 80 3e
       -0.15422283 0.1975486 -0.072143376 0.25122908
000340 fd 57 95 3d 82 6a a7 3a cb ef 81 b9 e7 2a 14 bd
       0.07292173 0.0012772831 -0.00024783457 -0.036173727
000350 e8 6c a8 3a c3 2a df bc d9 1d 46 3a b2 bf b5 3a
       0.0012849839 -0.02724207 0.0007557548 0.0013866334
000360 1e be 69 be 0d 17 2e be 2b df 87 3e 89 0b 75 be
       -0.2282643 -0.1700098 0.2653745 -0.23930182
000370 84 0c 13 3a 78 a6 9c 3e 10 fb 94 3d 2f a5 a0 3a
       0.000560947 0.30595756 0.07274449 0.001225626
000380 5b b6 8b be 3c a8 28 3e 3b 50 4f be 2a 28 3b bd
       -0.27287564 0.16470426 -0.20245449 -0.0456926
000390 4a b1 82 bd a5 bd aa bb bf c4 0a bb 34 09 7f 3e
       -0.063814715 -0.0052105957 -0.0021174399 0.24905854
0003a0 09 0e f4 3c 4c 82 8a 3e 62 90 28 3e 6c 85 30 be
       0.029791849 0.27052534 0.16461328 -0.17238396
0003b0 3a b1 d5 3d e2 eb 4c be e5 58 0e be 44 1c d6 3d
       0.10434194 -0.20011857 -0.13901098 0.1045461
0003c0 02 8d 7e 3d de 74 5d 3e 80 83 77 bd d1 e3 6a b9
       0.062146194 0.21626613 -0.060428143 -0.00022400847
0003d0 9b b4 03 3e 13 1f 9c be 64 f4 62 3e 95 55 7b be
       0.12861864 -0.30492458 0.2216354 -0.24544366
0003e0 71 e1 27 bb b5 7b 39 bc ce 56 08 be 5c 65 f4 3a
       -0.0025616551 -0.011320998 -0.13314363 0.001864593
0003f0 09 57 8f 3e cd 40 d5 bd 8b cf 22 be 0d 4f 9b bd
       0.2799609 -0.104127504 -0.15899484 -0.07583437

bias f4 [256]
000000 48 dd 6e 3e fb b1 07 3e 17 ba b1 3d 91 a8 1e bd
       0.233266 0.13251488 0.08678072 -0.038734976
000010 76 fe 09 3e bb 08 ee 3d 42 05 8a 3d 8b 84 cb 3a
       0.13475975 0.11622759 0.06739284 0.0015527172
000020 51 0a b5 3b 82 8e f1 bb 08 19 54 be 41 98 e9 3c
       0.0055249115 -0.0073717246 -0.20712674 0.028514983
000030 84 b2 57 be 91 f6 f0 3d e3 86 22 be e2 c2 77 bd
       -0.21064192 0.11765779 -0.15871768 -0.06048859
000040 1d 8c e9 bd ea 48 6c 3e e0 df 4b be 63 26 02 3e
       -0.114036776 0.2307469 -0.1990962 0.12709956
000050 b7 9f fe 3d 7e fe 4c 3e af 03 0d 3d 64 4c 0f 3e
       0.12432807 0.20018956 0.03442734 0.13993984
000060 86 ed 6c 3e fe 3e 99 3c 18 a9 84 3d db a5 69 be
       0.23137483 0.018706795 0.064775646 -0.22817175
000070 18 55 26 bd 82 39 54 ba dd bd 16 3a 3a 2e 8f bd
       -0.040608495 -0.00080957275 0.0005750338 -0.06991239
000080 b9 0f 9d be b5 9c 1b bd 78 fb a3 3d 82 f1 83 3e
       -0.30676058 -0.037991244 0.08006948 0.25770193
000090 a6 0f 8c be 90 83 eb 3d f3 f6 94 be aa 4c 96 be
       -0.2735569 0.11499703 -0.29094657 -0.29355365
0000a0 09 20 2e be 5c 57 dd ba 67 db 34 3d d0 6e 61 be
       -0.17004408 -0.0016886997 0.04415455 -0.22014928
0000b0 12 3b 65 3e 1a 4d 8c 3e a8 14 01 3a a2 ec 75 3e
       0.22385815 0.27402574 0.00049240375 0.2401605
0000c0 9f 39 d8 bd d9 56 ae bd b0 cf d0 ba 6c c0 15 ba
       -0.10557865 -0.085126586 -0.0015931036 -0.0005712572
0000d0 35 7d 49 be 65 d9 70 be 58 9b ad 3d 1c 17 46 3d
       -0.19676669 -0.2352043 0.08476895 0.048361883
0000e0 03 87 9a 3e 80 dc b6 bd e6 3c 92 3d 74 44 b4 bd
       0.3018113 -0.08928776 0.07140522 -0.08802119
0000f0 ef b3 f7 3d 2e 40 c9 b9 42 0f 5a 3e f1 44 13 3e
       0.120948665 -0.00038385525 0.21294883 0.14381768
000100 8d fb 7c 3e 35 5f 03 3e 62 db d9 3a 30 24 84 3e
       0.24705334 0.12829287 0.0016621167 0.2580886
000110 b9 7a 1f be 54 ca 93 3e c9 53 9a 3e 65 1b 96 3e
       -0.15574159 0.28865302 0.30142048 0.29317775
000120 fd 87 e3 bd a8 cc 09 be ec c2 16 3b 3c b9 65 3d
       -0.11109922 -0.13456976 0.0023004366 0.056084856
000130 9d b7 fd 3d 82 9f b6 3d 9e 2a 82 3e 27 13 0d bd
       0.12388537 0.089171425 0.2542314 -0.034442093
000140 17 f0 79 bd 0f 60 82 3d c6 64 33 3d 84 c7 1d be
       -0.061019983 0.06365978 0.043797277 -0.1540814
000150 7c 20 89 bb 3a ee 60 be 58 dc 49 bd 1f 11 ac bd
       -0.0041847806 -0.21965876 -0.0492824 -0.08401703
000160 ac f7 86 3e 5c 82 8b be 4b 92 20 be d8 97 9a be
       0.26360834 -0.27247894 -0.15680806 -0.30193973
000170 6b 5a 10 3d cf 23 65 be 8e 3b 72 3d f8 2c 48 be
       0.03524248 -0.22376941 0.059138827 -0.19548404
000180 a5 87 33 be f8 88 02 be af 7a b9 3b cb 2a 8f 3e
       -0.17532213 -0.12747562 0.005660377 0.27962336
000190 4c 7a 92 3e 03 22 9b b9 44 bd 9a be 04 2c 7d bd
       0.2860893 -0.00029589245 -0.30222523 -0.061809555
0001a0 d8 b1 a3 bd 31 83 bb bc 8c 3d a4 3d e3 ee fe 3d
       -0.079929054 -0.022889705 0.08019552 0.12447908
0001b0 98 a3 d2 3d 60 68 41 3d 3f 24 b5 bd 1b ed 0d bb
       0.10285109 0.04721868 -0.08844804 -0.0021656218
0001c0 78 9a ad 3a 1e 0c 02 be 29 00 95 3a 7b 6f f0 ba
       0.0013244888 -0.12699935 0.0011367846 -0.0018343771
0001d0 f8 15 94 be 5b ac 41 3e 0f 32 8e 3a f0 a5 84 be
       -0.2892301 0.18913405 0.0010848659 -0.2590785
0001e0 b7 47 6d 3e b3 8f 0c be f0 e3 8f 3d 04 1f 9d 3e
       0.23171888 -0.13726692 0.070258975 0.30687726
0001f0 12 42 84 bb ae b8 3f 3d 48 76 af 3d c6 af 5f 3e
       -0.0040361965 0.046806984 0.08567482 0.21844396
000200 3a 41 5b bd ff 37 16 be 57 14 41 3b 29 8b 69 3e
       -0.053529 -0.14669798 0.0029461586 0.22806992
000210 4e 77 36 ba 19 4c 48 3e b6 68 7c 3a 98 66 5b 3d
       -0.0006960527 0.19560279 0.000962864 0.053564638
000220 6c 94 3f 3a b4 49 76 ba 14 66 95 be 14 86 86 be
       0.00073081884 -0.0009395138 -0.29179442 -0.26274168
000230 28 bf 06 b9 f0 ac f8 3d 86 47 3f 3e 78 e4 72 b9
       -0.00012850447 0.1214236 0.18679628 -0.0002316403
000240 7b 9a c1 3d c3 42 be 3d 7c 75 84 be 9c 76 87 be
       0.09453293 0.092900775 -0.25870883 -0.2645768
000250 5d 1c 67 be 6d 06 fd bb 7a 69 30 be e5 b2 6d bd
       -0.22569413 -0.0077217133 -0.17227736 -0.058031935
000260 7e 56 b2 bb 4d 99 a9 3d d0 f9 eb 3c e3 cc 90 3e
       -0.0054424396 0.08281193 0.028805643 0.28281316
000270 a0 df 8b 3e 9a 91 32 be 5b d3 cf 3a 61 4f 15 3c
       0.2731905 -0.17438355 0.0015855836 0.009113164
000280 b1 4a 86 3e 01 ed 60 bd 4d 53 ac bd 42 dc 30 be
       0.2622886 -0.054913525 -0.08414326 -0.17271522
000290 e2 5f 58 3e 27 e1 39 bd 24 bf 9f bd e3 39 41 3e
       0.21130326 -0.045380738 -0.07800129 0.18869738
0002a0 b7 5e 8f 3e ce 4c 09 b8 fb 58 4c be 5a 4a 76 3e
       0.2800195 -3.2734875e-05 -0.19955818 0.240518
0002b0 86 e0 86 bd 78 24 df bd 43 71 4b be 00 11 ee bd
       -0.06585793 -0.10895628 -0.19867425 -0.11624336
0002c0 54 1e 6a be 19 6d 1b be 1e 94 8d be 5f 5e a0 bc
       -0.22863132 -0.15178336 -0.27652067 -0.01957625
0002d0 c0 22 b3 3d e6 06 61 be 44 cb 5f 3a e0 45 9b bd
       0.087468624 -0.21975288 0.0008537064 -0.07581687
0002e0 8f 2d f0 3d 01 f7 84 3e 88 87 99 bb ff ed fe bd
       0.117274396 0.259697 -0.004685346 -0.12447738
0002f0 08 6d 64 be 7e 60 1f be 99 c6 41 3d 8f df dd 3c
       -0.22307217 -0.15564153 0.047308538 0.02708414
000300 f5 cc 0c 3e 9f 66 fd bb e5 6f 03 3e d6 d9 89 be
       0.1375006 -0.0077331807 0.12835653 -0.26924008
000310 e3 e8 25 3d aa 0e 99 3e 02 b9 9c be 62 d1 05 be
       0.0405053 0.29894 -0.306099 -0.13068154
000320 af 6d 33 3e af 9a 0a bc 0d e2 0a be 9e f5 27 3e
       0.1752231 -0.008459731 -0.13562794 0.1640229
000330 c0 de e2 39 2f dd b1 ba 6a cd 56 bd 3d a6 5e 3e
       0.0004327204 -0.0013569946 -0.052441992 0.21743102
000340 40 ed 12 3e 8f 76 4f 3c af 8c c8 3b 63 ef 04 3e
       0.14348316 0.012662544 0.0061202864 0.12981944
000350 2a 21 2d 3e 0d 20 ba bd a8 a7 e2 39 c4 b4 ce 3d
       0.16907182 -0.090881445 0.00043230993 0.10093072
000360 b3 d6 f0 bd b9 1e 92 3e 01 88 44 be cf 7b df 3d
       -0.117597006 0.28539065 -0.19192506 0.109122865
000370 ff 40 51 be d3 d1 6f 3d 5e a9 49 3e 5b 75 1c 3a
       -0.2043495 0.058549713 0.19693515 0.0005968415
000380 22 b5 35 bb 55 9d 31 3e 48 39 51 be 3b 97 40 be
       -0.0027726372 0.17345174 -0.20432007 -0.1880769
000390 71 4f 82 be ec 03 2a be d1 7d c6 3a a0 74 d9 bd
       -0.25451234 -0.16603059 0.0015143697 -0.106179476
0003a0 93 ff dd 3c 06 25 8b bb 5d ff 7c 3e 34 97 ca bd
       0.027099406 -0.004246357 0.24706788 -0.09892121
0003b0 c3 76 2c bd a8 89 3b 3e 3a 01 11 bd 8a 78 96 3e
       -0.042105448 0.1831423 -0.03540156 0.2938884
0003c0 7e 06 b0 bd 63 bc d7 b9 53 d8 fe bc 4e 38 e3 3d
       -0.08594988 -0.00041148355 -0.03110901 0.11094724
0003d0 6e a6 a4 3d 3b 97 0a be 16 99 3a 3e 74 22 ed b8
       0.080395564 -0.13534252 0.1822246 -0.00011307458
0003e0 ca f3 0f bd fb f1 c8 3a bc d3 48 3e 86 0a 9b 3e
       -0.035144605 0.0015330905 0.1961202 0.30281466
0003f0 a2 8d f2 3d 80 4b 3d 3c 2e 48 38 3e 59 19 bf bd
       0.118434206 0.011553645 0.17996284 -0.093310066

weight f4 [32, 256]
000000 70 58 ca bc 7c d6 09 bc c6 93 45 b9 c6 ce 46 3c
       -0.024700373 -0.0084129535 -0.00018842434 0.01213426
000010 33 2a 94 ba e1 8d 24 bb 3b e7 c1 b9 75 e4 81 ba
       -0.001130408 -0.002510898 -0.0003698411 -0.0009910004
000020 c3 da 28 3c b8 ef 30 3d 6f e2 06 bc df 74 81 bb
       0.010306063 0.043197364 -0.008232697 -0.0039506997
000030 92 5f 9f b9 81 65 a6 3c 96 c2 2c ba a8 24 9e 3a
       -0.0003039805 0.020312073 -0.0006590275 0.0012065368
000040 f4 ae 3e 3c 75 62 2c 3d 3f 8e 5a bc f6 93 9c bc
       0.011638392 0.042086083 -0.013339578 -0.019113522
000050 f0 a5 13 bd 2d 0c a4 ba 62 7a 69 3a 63 c5 12 3c
       -0.036046922 -0.0012515836 0.0008906481 0.0089581935
000060 9a 59 ad bb e3 4b 55 3c 13 3d 24 3d 86 8f d8 bc
       -0.0052902224 0.013018581 0.040097307 -0.026435625
000070 80 15 77 bb 04 ba 7a bb 17 59 d9 ba 94 df ba bc
       -0.0037702024 -0.0038257847 -0.0016582337 -0.022811688
000080 f5 6b 12 bc 55 fe fc bc 39 2e a3 bc 5c 9f ab 3c
       -0.008936872 -0.030882994 -0.019919502 0.020950012
000090 40 4b 00 3b 0d 4d 42 b9 52 91 75 bc dd 79 1a 3b
       0.0019576102 -0.00018529985 -0.01498826 0.0023571171
0000a0 88 e5 6f bb c3 1c b1 39 66 86 07 bc 82 92 f7 bb
       -0.0036605317 0.000337815 -0.008271789 -0.007555307
0000b0 fd 51 ed 3b 91 24 28 bb ad 8b 58 bb 7f 05 12 bb
       0.00724244 -0.002565656 -0.0033042238 -0.0022281108
0000c0 c3 7c a9 3c bd 5e 9a ba 60 9f 1d bd bf c4 03 3c
       0.020689374 -0.0011777502 -0.03848207 0.008042513
0000d0 b6 08 60 bd 2e b1 48 ba af 77 88 bb 5b 9d 41 bc
       -0.054695807 -0.00076557964 -0.004164658 -0.011817302
0000e0 0f f0 f4 3b 92 62 38 3d 84 b2 f8 3b 9f 34 6e ba
       0.0074749063 0.04501588 0.00758964 -0.00090868206
0000f0 10 b4 a8 3b df d9 a8 3b 88 b8 9d b9 48 b2 6a ba
       0.0051484182 0.0051529254 -0.0003008286 -0.00089529576
000100 02 8f dc 39 48 9f 1c 3d 4b 50 9b 37 c0 94 f3 bb
       0.0004206822 0.03823784 1.851483e-05 -0.007433504
000110 43 52 4c bc f2 35 0b bc 4f e3 9b 3b 42 d5 03 bb
       -0.012470785 -0.008496748 0.004757322 -0.0020116125
000120 4c b3 87 3b c6 a8 84 3b 1e fe 95 bc 68 2a 79 bb
       0.004141247 0.0040484397 -0.01830965 -0.003801966
000130 ae ac 3d bb 7d 53 3c ba ad 57 20 3b 5d 6e 3d bb
       -0.0028942036 -0.00071840716 0.0024466321 -0.0028904893
000140 5e 04 4a 3c 33 ef 3b bd c6 93 96 bc 7a dd ee 3a
       0.012330143 -0.045882415 -0.01838101 0.0018223964
000150 c7 88 3d bd 42 a0 6b 3a 39 84 07 bd b2 b6 af ba
       -0.04627302 0.0008988419 -0.03308508 -0.0013405888
000160 ab 11 03 3d aa cd 3c bc 53 66 1d 3d e9 14 00 3c
       0.03199927 -0.0115236435 0.038427662 0.007817485
000170 60 bc 08 bd 56 80 35 3d 72 dd c0 bc f7 98 cf bc
       -0.033382773 0.044311844 -0.023543093 -0.025341494
000180 8f 18 95 bc 61 19 41 bb 38 08 c9 3a 90 c0 54 bc
       -0.018200187 -0.002946459 0.0015337532 -0.012985364
000190 7e 72 e0 bc 3e 2a e9 3b e1 4f b0 3c 9b cd 77 3b
       -0.027398344 0.0071156314 0.021522464 0.003781176
0001a0 d0 1a cf ba 7d 52 a8 3b 88 0a b4 3b 16 bc 2e bc
       -0.0015800837 0.0051367865 0.0054944195 -0.01066496
0001b0 01 c6 90 3c ec 99 51 bd f5 27 bb ba ac 4e 62 bc
       0.01767254 -0.051172182 -0.0014278876 -0.013812702
0001c0 02 54 c5 3b f4 9b c8 ba 18 87 ce 39 48 99 24 3c
       0.0060219774 -0.0015305267 0.00039392035 0.010046311
0001d0 2e ce 10 bc 38 ec 6b bc 61 d5 ec ba 91 71 b9 b9
       -0.00883822 -0.014399581 -0.0018068963 -0.00035370563
0001e0 e9 86 a8 bb 85 50 ce 3c 38 7f ff bb f5 15 c7 bc
       -0.0051430357 0.02518488 -0.007797148 -0.024302462
0001f0 f6 f9 c1 3c e2 e0 27 3c a2 55 09 bc 8e 38 5b 3b
       0.023678761 0.010246487 -0.008382233 0.0033450457
000200 66 05 f6 b9 f1 ce 0c bc 18 07 a3 bc 5b 42 b7 bb
       -0.00046924799 -0.008594261 -0.019900844 -0.005592627
000210 a3 d5 78 3a 63 04 e9 ba e8 e6 54 3b d9 31 59 bc
       0.00094922836 -0.0017777797 0.0032486264 -0.0132565135
000220 67 43 b0 bb d0 3a fb 3b 27 68 6d ba 61 d1 93 ba
       -0.0053791287 0.007666923 -0.00090563524 -0.001127761
000230 d0 9d a1 3b 3f 2f 54 ba c7 07 85 bc 68 70 5b bb
       0.004932143 -0.00080941984 -0.01623906 -0.0033483747
000240 35 49 70 ba d8 82 b7 bc b9 d3 96 b9 cd 76 5b 3c
       -0.0009166182 -0.022401258 -0.00028767975 0.0133950235
000250 cb b5 97 ba c6 e4 c1 bc 81 92 c9 b9 dc e4 f9 bc
       -0.0011574564 -0.023668658 -0.0003844686 -0.030504636
000260 78 a0 a0 3b 02 a8 f4 bc 49 7d 10 3d b2 7e a7 3c
       0.004901942 -0.029865269 0.03527573 0.020446155
000270 a8 3b 20 bd 5b 47 53 3a 86 00 ad bc b5 2c b8 b9
       -0.039119393 0.0008059644 -0.021118414 -0.00035128524
000280 64 85 ed bb fc 6b 80 bc 58 11 a1 b9 5c f6 0a ba
       -0.0072485674 -0.015676491 -0.00030721235 -0.00053009926
000290 43 f6 bc 3b c9 12 23 bc cb 2f 1c 3d 62 2c 01 3b
       0.0057666614 -0.009953209 0.038131516 0.0019710292
0002a0 e7 61 9c 3c 49 f4 35 bb 6d ef f3 bc b3 8d e5 bc
       0.019089652 -0.0027764014 -0.029777253 -0.028021669
0002b0 35 02 19 3c 6f 52 70 bc 12 83 d8 bb 7c 53 28 ba
       0.009338905 -0.014668091 -0.0066074217 -0.00064211315
0002c0 14 09 b1 ba 6c 26 79 bc 04 4a 19 3c 02 66 8f bc
       -0.0013506734 -0.015206914 0.009356026 -0.017504696
0002d0 f8 1e 09 3c 5d 54 ae bc f1 35 b5 39 d4 cb ef ba
       0.0083692 -0.021280462 0.000345632 -0.0018294998
0002e0 e9 20 05 3b d7 d1 f2 bb dc fa 5d bd c1 a1 16 3d
       0.0020313805 -0.0074102688 -0.054194316 0.036775354
0002f0 c4 c6 ae 3c 49 eb 1c 3c 08 c6 98 3c ee 81 74 ba
       0.021335013 0.009577581 0.018649116 -0.00093272224
000300 19 f9 8e ba 09 9d 34 bd 82 6e 19 bd df 77 0e bd
       -0.0010907977 -0.044095073 -0.037458904 -0.034782287
000310 f8 a0 91 ba cf 36 ff 3c 14 7f fc b9 ea c0 f3 ba
       -0.0011110594 0.031154064 -0.00048159866 -0.0018596922
000320 c1 3d 03 ba 9c 7b a8 bc f2 e0 97 b9 30 77 71 3c
       -0.00050064555 -0.020566754 -0.00028968562 0.014737889
000330 36 b9 80 3c ed 2a de 3a 9c 0d f6 b9 3f 69 93 ba
       0.015713315 0.0016950049 -0.00046930916 -0.0011246576
000340 9c 32 d1 ba d1 7f a9 ba 03 7c 4c bc 55 f6 21 3d
       -0.0015960517 -0.0012931769 -0.012480739 0.03954156
000350 18 b2 6b 3b df 54 0d bd 1d 8d 0f 3d 29 69 7b ba
       0.0035964306 -0.034504768 0.035046685 -0.000959056
000360 60 6c 1d 3c cd 48 28 bd 0f 4e 2c ba 6a ac c4 ba
       0.009608358 -0.041085053 -0.0006572911 -0.0015004997
000370 51 84 15 ba 44 d3 a4 bb 5f 51 96 3c c9 6a 16 bb
       -0.00057036156 -0.0050300676 0.018349348 -0.0022951833
000380 8b 45 c7 b9 f2 50 d8 3b 23 25 94 bb a8 f5 b3 3c
       -0.0003800805 0.0066014463 -0.0045210286 0.021967724
000390 55 48 e8 ba 8f 9d 17 3a 72 ae 8d 3a cb 72 f8 3a
       -0.0017721752 0.0005783671 0.0010809435 0.0018955109
0003a0 e6 a7 a7 3c b6 a3 b9 bb 16 11 ba bb 07 50 6e ba
       0.020465802 -0.005665268 -0.0056783063 -0.00090909045
0003b0 a5 bb 32 3b a2 98 1d bc 32 ad 43 bd bc ad 27 3c
       0.002727249 -0.00961891 -0.047772594 0.010234293
0003c0 50 89 cb bc 5e 6f 99 b9 90 7d 80 3c 50 3d a4 bb
       -0.02484575 -0.0002926541 0.015684873 -0.005012192
0003d0 c7 e2 c3 3c 96 53 dd 3b e1 b0 26 ba 48 d3 87 bb
       0.023911847 0.006754349 -0.00063587545 -0.0041450597
0003e0 fd ed b2 ba d5 6d 12 bb 60 1d 06 3d 4e 6c 23 bc
       -0.0013651248 -0.0022343297 0.032742858 -0.009974552
0003f0 f1 4a 8d 3b 15 ee 13 bc 92 24 ac bc 77 47 8e 3a
       0.004311912 -0.009028931 -0.021013532 0.0010855038

bias f4 [32]
000000 22 0f 5d 3b 12 a8 71 bb e1 9d 02 bc be 14 84 bb
       0.0033730944 -0.003687386 -0.007972212 -0.004030793
000010 f0 e5 99 3a 40 fe a2 bb 64 cb b9 39 fc d5 96 3b
       0.00117415 -0.0049741566 0.00035437488 0.0046031456
000020 3d 23 72 bb d4 5e 40 3b 78 2b 06 3b d9 75 73 3b
       -0.0036947273 0.0029353397 0.0020472687 0.00371491
000030 ba ea b1 bb 22 04 22 bc b6 4d 3d ba f5 13 98 bb
       -0.005429593 -0.009888681 -0.00072213577 -0.004641051
000040 f9 e0 dd 3a e4 05 90 3b 61 74 cb 3c 05 14 2d bb
       0.0016928009 0.0043952335 0.024835767 -0.0026409638
000050 d4 1a df 3b 0e f8 1e 3a f8 65 82 bb 3c fd 0c bb
       0.006808618 0.00060641847 -0.003979441 -0.0021513244
000060 c9 75 08 bb 6e f7 63 3a d4 1f 8a 3b e2 16 c9 3a
       -0.0020822159 0.00086962327 0.00421522 0.0015341903
000070 05 a7 b9 3b 79 e7 ec 3b e1 0c 11 bc c7 9a 51 bb
       0.005665662 0.007229742 -0.008853168 -0.0031983124

weight f4 [20, 32]
000000 0b f2 99 bc 6b fa 39 3d 2f 1c 41 3c 31 ac 01 bd
       -0.018792173 0.045404833 0.011786505 -0.031658355
000010 07 8c eb 3d 78 73 17 3c ca a3 3d 3d b1 2e 2c bd
       0.115013175 0.0092438385 0.04629878 -0.042036716
000020 fd 57 ca bd 01 18 f7 bd 66 37 aa bc 8c 3e 70 3d
       -0.09880064 -0.12065125 -0.02077837 0.0586534
000030 67 23 ed 3d 42 de 1a 3d 53 8a 48 3d 78 dd d3 bd
       0.11579018 0.037809618 0.04896004 -0.10344976
000040 90 12 a6 bc a3 6d 84 3c 50 ec 09 be fa 00 11 be
       -0.020272523 0.01616556 -0.13469052 -0.14160529
000050 0a cd 9e bd b4 c6 8d 3d f2 a9 18 bc 74 73 77 bc
       -0.07753952 0.06922665 -0.009317862 -0.01510321
000060 0a ac c4 3d bd b7 ac bd a2 44 b9 bd c7 77 fb bc
       0.09603126 -0.08433483 -0.09046294 -0.030696763
000070 04 03 db 3d 66 b4 15 3d 76 40 e7 bd 2d 4a bb 3d
       0.106939346 0.036548994 -0.11291592 0.09145007
000080 6c ff 50 bd 7f 1d e4 3d b6 a5 07 3d 9a ae 78 3c
       -0.05102484 0.111384384 0.03311702 0.015178347
000090 12 41 05 3e fd 69 54 3d 01 28 ea bd 7f 62 70 3d
       0.13013104 0.05185889 -0.114334114 0.058687683
0000a0 ce 8f 0e 3e 5c e7 ec bc 03 36 9e 3d 9b 36 b9 3d
       0.13922045 -0.028918914 0.07725146 0.09043618
0000b0 9b 64 2d bd c2 b7 c8 bb 74 8d b7 bc a3 0e 15 3e
       -0.042332273 -0.0061254213 -0.022406317 0.14556365
0000c0 54 2c 08 3d 16 19 dc 3d f6 db 1c be 4a fe 91 bd
       0.0332454 0.10746972 -0.15318283 -0.0712858
0000d0 d2 40 9f bd c7 e5 f2 3c cb fe 72 bd 25 d2 24 3d
       -0.07776035 0.029650582 -0.05932502 0.040239472
0000e0 5e ad 8a 3d 98 63 3a bd c1 ee 86 3c e0 d9 dd bd
       0.067713484 -0.045505136 0.016471269 -0.10832572
0000f0 2f e3 7f bc 42 e6 d8 3c 5a 90 a7 3d 0d 63 0f 3d
       -0.01561813 0.026476983 0.0818183 0.03500657
000100 57 7e 18 3c cb 5e 3f 3d a9 2c af 3d 3d 0b ed ba
       0.0093074655 0.04672126 0.0855344 -0.0018085014
000110 08 6f 08 3e 73 d2 a4 bd c4 c7 69 3c 1d 63 ee bb
       0.13323605 -0.080479525 0.014268819 -0.007274999
000120 02 22 9e 3d 80 60 d4 bd c7 bf 02 3d a7 17 c1 bd
       0.0772133 -0.103699684 0.031921174 -0.094283395
000130 8e 32 27 bd f6 77 e9 bc 2f 66 3f bd 64 a7 8e bd
       -0.040819697 -0.028499585 -0.04672831 -0.06965521
000140 d3 cf ab bd c6 96 06 be 22 9a bd bc c0 b0 19 3e
       -0.08389249 -0.13143453 -0.023144785 0.15008831
000150 9d 0d ee bc 29 6e cf bd aa dc 1c bd fd 9c cb bd
       -0.029059226 -0.10128433 -0.03829638 -0.099420525
000160 64 4b 3d bb 5c 70 e4 3d 84 88 1d be 6e b6 c9 3d
       -0.0028884048 0.11154243 -0.15384108 0.09849249
000170 f9 a7 0a 3e 51 56 05 3e 32 4d ae bd b2 35 61 3b
       0.13540639 0.13021208 -0.085108176 0.003436428
000180 c5 db 82 3d 67 14 e9 bd 13 83 c1 3d d8 b5 a9 3b
       0.06389574 -0.113808446 0.094488285 0.005179148
000190 3d 44 04 be 14 34 30 bd 89 31 d0 39 8d 3a 5c bd
       -0.12916656 -0.043018416 0.00039709758 -0.053766776
0001a0 e4 a8 36 bd c0 bc 00 bc bf cd fb 3c 46 d1 3a 3d
       -0.04459466 -0.0078575015 0.030737756 0.045609735
0001b0 c4 c3 27 be a7 f5 a9 bb b9 69 2b 3d ad 59 02 3e
       -0.16383272 -0.0051867547 0.04184887 0.12729521
0001c0 53 28 57 3d 92 e7 c2 3d 00 e9 40 3d 71 92 a6 bc
       0.05252869 0.09516825 0.047097206 -0.0203335
0001d0 c7 d6 54 bd f3 aa a1 bd a8 e7 3e 3d db f1 98 bc
       -0.05196264 -0.07893934 0.046607643 -0.018670013
0001e0 e0 fa fb 3d 1c 73 b6 bd 2c 29 e4 3d 58 81 c9 3d
       0.1230371 -0.08908674 0.111406654 0.098391235
0001f0 9b 1a da 3d 49 e7 f2 3d 39 1c 73 bd 6c b9 69 3d
       0.10649606 0.118605204 -0.059353087 0.057061598
000200 94 45 fe bd 01 22 a9 bd 5d 8e 2e bc 8e 4c b4 3d
       -0.12415615 -0.08258439 -0.010654059 0.08803664
000210 82 70 2a bd f2 c6 f1 bd 7a 92 cf bd 54 5d f5 bb
       -0.041611202 -0.11805524 -0.1013536 -0.007487932
000220 e3 2d 98 3b 4d 4a 76 3c 26 d6 b7 bc 79 87 f1 3c
       0.004644142 0.015032363 -0.022440981 0.029483544
000230 48 35 09 3c 53 1e 10 bd 03 58 86 3d b5 4e 0b be
       0.00837452 -0.03518517 0.06559756 -0.13604243
000240 a2 7e 59 bd b0 31 30 3c 87 3f 71 bd 88 e0 6e bc
       -0.053099282 0.010754034 -0.058898475 -0.0145799
000250 17 c3 fd bc 57 a5 b5 3d fe 57 0f 3e e3 14 fc 3d
       -0.030976815 0.08869427 0.1399841 0.12308671
000260 bf 92 aa 3c 3e 87 e2 bd eb 73 8f bd ab 66 c0 bd
       0.020821927 -0.11060952 -0.070045315 -0.09394582
000270 3b 2a 40 bd d6 38 c7 bd d1 b1 93 3d 68 70 e9 bd
       -0.046915274 -0.097276375 0.0721165 -0.11398393
000280 87 5c 4e 3c 97 23 9e 3d 90 f4 ce bd 79 65 1e bc
       0.012595302 0.07721632 -0.1010524 -0.009667748
000290 a1 ee a8 3d 7a 30 45 bd 96 bc 18 bd 08 ba a2 3d
       0.0824864 -0.048141934 -0.037289225 0.07945639
0002a0 e9 bc 94 bd 5e 4e 0c 3e 03 09 db 3d fb 1e e9 3b
       -0.07262594 0.1370177 0.10695078 0.007114289
0002b0 aa c9 ae 3c 31 7e 92 bd 02 bc f9 3c ea 69 fe bd
       0.021336395 -0.07152975 0.030485157 -0.12422545
0002c0 4a 14 60 bc 65 df 09 3e 2a 49 29 3d 28 89 ed 3d
       -0.013676712 0.13464125 0.04132954 0.11598426
0002d0 b2 1f a1 3d 5e 27 19 3e 31 2d 22 3d e6 2c b1 bd
       0.078673735 0.14956424 0.03959388 -0.08651142
0002e0 d5 07 11 be 94 a2 c0 3d 81 90 05 3e 09 ed 29 3e
       -0.14163144 0.09406009 0.13043405 0.16594328
0002f0 01 b7 e7 bd ab 0c 17 3e a9 f3 28 bd 35 c5 b7 3c
       -0.11314202 0.14750926 -0.041247997 0.022432903
000300 fb 19 9e 3d 3e 9e c7 bd 27 a7 ee bd 30 e8 9e 3d
       0.07719799 -0.09746979 -0.116529755 0.0775913
000310 ab 0a 0e be bb d5 51 3d 1f d8 4e 3d d7 11 ef 3d
       -0.13871257 0.05122922 0.050499078 0.116733246
000320 80 2e 51 3c 24 9e 19 bd 5a 2f 3f 3c ad 88 63 3b
       0.012767434 -0.03750433 0.011669004 0.0034718916
000330 66 26 27 be f0 ea fd 3c 5b 55 a8 bd e4 cf dd 3d
       -0.16323242 0.030995816 -0.08219405 0.108306676
000340 af 6f 21 bd 38 39 2e bd 99 72 14 be db 4e 15 3e
       -0.03941315 -0.042535037 -0.1449684 0.14580862
000350 c0 c5 7e 3d c8 0a 04 3e 4b 68 ae 3d a1 46 9a bd
       0.062200308 0.12894738 0.08515986 -0.07533003
000360 1a 83 0d 3e 8c a7 50 bc 60 9f 13 3e 7b 5f 22 3c
       0.13819543 -0.012735259 0.14416265 0.00991046
000370 6f f4 be 3d c4 59 b1 bd fa 34 84 3d 0a 58 31 bc
       0.09323966 -0.086596996 0.06455417 -0.010824213
000380 35 10 b0 bd 96 bf d0 3d d8 c1 95 bd 21 cf a5 bd
       -0.08596841 0.10192792 -0.073123634 -0.08096147
000390 13 d6 ef 3d fa 21 13 be 48 da f1 3c 9c 2a f4 3d
       0.11710753 -0.1436843 0.02952303 0.119221896
0003a0 b1 0d f9 bc d3 29 12 be 09 68 b3 bd 18 d6 14 bc
       -0.030402036 -0.14273767 -0.087600775 -0.009084247
0003b0 9e 54 1d bd 82 d2 b8 3d 60 88 e3 3d 2d 91 d4 bd
       -0.038410775 0.09024526 0.11109996 -0.103792526
0003c0 97 6a 63 bc 14 16 ff bd 2a 79 fa 3c ac da f6 3d
       -0.0138803935 -0.12455383 0.030575354 0.12053427
0003d0 07 66 24 bd 59 72 68 39 0d a3 74 bc c4 ee 04 be
       -0.040136363 0.00022167842 -0.014931452 -0.12981707
0003e0 91 71 1c 3e 7a fe c5 3c 7c 8b 1f 3e 7f 0d 15 be
       0.15277697 0.024169195 0.15580553 -0.1455593
0003f0 e4 6c 46 bd 28 81 3e bd 50 0a 30 3d a1 b7 13 bd
       -0.04844369 -0.04650989 0.042978585 -0.036063794

bias f4 [20]
000000 1a 86 a8 3d d9 3f 95 bc b2 e5 37 3c 32 4b 3d 3d
       0.08228703 -0.018218921 0.011224197 0.04621429
000010 05 ff ac 3d 71 5f e1 bd 5c 42 f8 bc bb cf a8 bd
       0.084470786 -0.11004532 -0.03030508 -0.082427464
000020 d2 29 b9 bd ee ae 88 bd 9f b2 10 3d f7 6c ab 3d
       -0.0904118 -0.0667399 0.035326596 0.08370393
000030 f2 df 1f bc cb 99 ce 3c 35 4f c1 bb 75 96 e6 bd
       -0.009757983 0.025219819 -0.005899335 -0.11259166
000040 39 c6 e8 3d b6 a6 20 3d 62 0b ca bd 09 06 ab 3c
       0.11365933 0.039221488 -0.09865452 0.020876901

bias f4 [64]
000000 00 00 00 00 00 00 00 00 00 00 00 00 00 00 00 00
       0.0 0.0 0.0 0.0
000010 00 00 00 00 00 00 00 00 00 00 00 00 00 00 00 00
       0.0 0.0 0.0 0.0
000020 00 00 00 00 00 00 00 00 00 00 00 00 00 00 00 00
       0.0 0.0 0.0 0.0
000030 00 00 00 00 00 00 00 00 00 00 00 00 00 00 00 00
       0.0 0.0 0.0 0.0
000040 00 00 00 00 00 00 00 00 00 00 00 00 00 00 00 00
       0.0 0.0 0.0 0.0
000050 00 00 00 00 00 00 00 00 00 00 00 00 00 00 00 00
       0.0 0.0 0.0 0.0
000060 00 00 00 00 00 00 00 00 00 00 00 00 00 00 00 00
       0.0 0.0 0.0 0.0
000070 00 00 00 00 00 00 00 00 00 00 00 00 00 00 00 00
       0.0 0.0 0.0 0.0
000080 00 00 00 00 00 00 00 00 00 00 00 00 00 00 00 00
       0.0 0.0 0.0 0.0
000090 00 00 00 00 00 00 00 00 00 00 00 00 00 00 00 00
       0.0 0.0 0.0 0.0
0000a0 00 00 00 00 00 00 00 00 00 00 00 00 00 00 00 00
       0.0 0.0 0.0 0.0
0000b0 00 00 00 00 00 00 00 00 00 00 00 00 00 00 00 00
       0.0 0.0 0.0 0.0
0000c0 00 00 00 00 00 00 00 00 00 00 00 00 00 00 00 00
       0.0 0.0 0.0 0.0
0000d0 00 00 00 00 00 00 00 00 00 00 00 00 00 00 00 00
       0.0 0.0 0.0 0.0
0000e0 00 00 00 00 00 00 00 00 00 00 00 00 00 00 00 00
       0.0 0.0 0.0 0.0
0000f0 00 00 00 00 00 00 00 00 00 00 00 00 00 00 00 00
       0.0 0.0 0.0 0.0

weight f4 [64, 1]
000000 d7 06 88 bb 94 e4 82 be a7 b3 4f be 60 fe 3f 3e
       -0.004151206 -0.25565016 -0.20283376 0.1874938
000010 13 3b 15 3e 49 e9 12 be 4b d3 5e 3e a3 0b 17 3e
       0.14573316 -0.14346804 0.2176029 0.14750533
000020 5f 51 08 3e 52 80 82 3c 7a cc 13 3e 76 b8 8d bd
       0.1331229 0.015930329 0.1443347 -0.06919949
000030 3b 66 85 be ab ed a0 bd fd 63 7b 3d 37 92 1c be
       -0.26054558 -0.078578316 0.061374653 -0.15290152
000040 99 86 fa 3d 92 76 8e 3e 50 e1 f8 3d 91 8e 4a 3e
       0.12232704 0.27824837 0.1215235 0.19780947
000050 29 b2 ee bc 60 7b 53 bc 6c 9a b1 bd 2a b6 87 3e
       -0.029137688 -0.012907833 -0.08672032 0.26506168
000060 4f e8 68 be 4d 6e 07 3e 95 04 fa 3d cc 42 8f 3e
       -0.22744869 0.1322567 0.12207905 0.2798065
000070 e4 50 16 bd 55 f9 06 be 88 f9 96 3e f4 d6 5b be
       -0.036698237 -0.1318105 0.29487252 -0.21468717
000080 0f 18 61 3b eb dc 3e be 4f e7 5e 3e 7d 2d 4f 3e
       0.0034346615 -0.18638961 0.21767925 0.20232196
000090 4e 98 25 be d4 d5 b0 bc 3d 1a 41 bb 50 1e 91 be
       -0.16171381 -0.021586336 -0.0029465102 -0.2834344
0000a0 04 14 8f 3e c1 82 01 3e 18 e6 1e b8 a4 79 83 3e
       0.27944958 0.12647535 -3.7884427e-05 0.25678742
0000b0 b2 68 1c 3e 15 91 0b 3e f0 19 00 3e 1a 2a d8 bd
       0.15274313 0.13629563 0.12509894 -0.10554905
0000c0 8a 90 7a be 81 cb e6 3d 95 70 bf bc 41 a0 1d 3e
       -0.244692 0.11269284 -0.023369113 0.15393163
0000d0 86 7e 60 be 81 76 ea 3c 64 6b 68 3e a5 bf 56 3d
       -0.21923265 0.02862096 0.22697216 0.05242886
0000e0 66 ea 5a be b4 37 b9 3d a0 f5 99 3e ff 33 bb bd
       -0.21378478 0.09043828 0.3007021 -0.09140777
0000f0 99 dc 4e bd 4a 8d 36 3e 91 04 49 3e 45 60 e3 3d
       -0.050503347 0.17827335 0.19630648 0.11102346

bias f4 [64]
000000 00 00 00 00 00 00 00 00 00 00 00 00 00 00 00 00
       0.0 0.0 0.0 0.0
000010 00 00 00 00 00 00 00 00 00 00 00 00 00 00 00 00
       0.0 0.0 0.0 0.0
000020 00 00 00 00 00 00 00 00 00 00 00 00 00 00 00 00
       0.0 0.0 0.0 0.0
000030 00 00 00 00 00 00 00 00 00 00 00 00 00 00 00 00
       0.0 0.0 0.0 0.0
000040 00 00 00 00 00 00 00 00 00 00 00 00 00 00 00 00
       0.0 0.0 0.0 0.0
000050 00 00 00 00 00 00 00 00 00 00 00 00 00 00 00 00
       0.0 0.0 0.0 0.0
000060 00 00 00 00 00 00 00 00 00 00 00 00 00 00 00 00
       0.0 0.0 0.0 0.0
000070 00 00 00 00 00 00 00 00 00 00 00 00 00 00 00 00
       0.0 0.0 0.0 0.0
000080 00 00 00 00 00 00 00 00 00 00 00 00 00 00 00 00
       0.0 0.0 0.0 0.0
000090 00 00 00 00 00 00 00 00 00 00 00 00 00 00 00 00
       0.0 0.0 0.0 0.0
0000a0 00 00 00 00 00 00 00 00 00 00 00 00 00 00 00 00
       0.0 0.0 0.0 0.0
0000b0 00 00 00 00 00 00 00 00 00 00 00 00 00 00 00 00
       0.0 0.0 0.0 0.0
0000c0 00 00 00 00 00 00 00 00 00 00 00 00 00 00 00 00
       0.0 0.0 0.0 0.0
0000d0 00 00 00 00 00 00 00 00 00 00 00 00 00 00 00 00
       0.0 0.0 0.0 0.0
0000e0 00 00 00 00 00 00 00 00 00 00 00 00 00 00 00 00
       0.0 0.0 0.0 0.0
0000f0 00 00 00 00 00 00 00 00 00 00 00 00 00 00 00 00
       0.0 0.0 0.0 0.0

weight f4 [64, 64]
000000 b0 e1 ed bd ff a5 94 3d 18 88 52 be 52 3a 7b bd
       -0.11615312 0.07258224 -0.20559728 -0.061334915
000010 f5 ca 66 3c 0e 99 5c 3e c2 07 ac bd 19 84 06 be
       0.014086475 0.2154276 -0.08399917 -0.13136329
000020 77 4e 06 be a1 1d c9 bd f1 f8 f6 bc a0 88 25 3e
       -0.1311587 -0.098201044 -0.030148001 0.161654
000030 3c 2d 04 bc 2b f2 e0 bd 8d da 84 ba 7d 35 46 be
       -0.008067425 -0.1098369 -0.0010135934 -0.19356342
000040 83 50 20 bb 1c af 12 be 80 45 3f 3e e8 81 3a 3e
       -0.0024462051 -0.14324611 0.18678856 0.18213618
000050 9c a3 00 be d1 5a 5b 3d 61 5e 70 bd 23 d3 94 bd
       -0.12562412 0.053553406 -0.058683757 -0.07266834
000060 e3 b3 43 3e c9 81 43 3e f3 ce 28 3e d5 10 54 be
       0.1911159 0.19092478 0.16485195 -0.20709546
000070 26 a5 3f 3d c2 3e e9 3d 1d 24 cf 3d 1f 48 17 be
       0.046788357 0.11388923 0.1011431 -0.14773606
000080 0c 89 c2 3d 91 69 95 bd 0d b3 99 3c d8 f2 5d bd
       0.09498796 -0.07295526 0.018762136 -0.054186672
000090 7a 70 ca 3c a5 ba da bd b8 22 c4 3d 0a 9e 87 bd
       0.024711836 -0.10680131 0.095769346 -0.066219404
0000a0 b9 a4 87 bd 25 83 af 3d 86 85 aa 3d 77 e4 d4 3d
       -0.06623215 0.08569936 0.08326249 0.10395139
0000b0 6a ba 8f 3d e8 9e d0 bd c9 01 2d bd d8 0d df 3d
       0.070179775 -0.10186559 -0.04223803 0.10891312
0000c0 3a bd 5b be 79 e4 f2 3d 07 03 14 3e 67 21 6d 3d
       -0.21458903 0.11859984 0.1445428 0.057893183
0000d0 af 35 0f 3e 57 c6 4f 3e 9e f1 37 bd c3 06 f3 bd
       0.13985322 0.20290504 -0.04490816 -0.11866524
0000e0 4b 4a 0e be b3 31 ad 3d aa 69 07 be fe 4b 96 3c
       -0.13895528 0.08456745 -0.13223901 0.018346783
0000f0 52 92 fc bc f5 a7 1d be d3 02 66 3d b3 15 eb bd
       -0.03083149 -0.15396102 0.056155037 -0.11478748
000100 a9 da 17 3d 3b 67 d9 3d 7d ea 81 bd 53 fe 70 bd
       0.037073765 0.10615393 -0.06343553 -0.058836292
000110 52 5c 08 bd 14 07 69 bc 8e 12 48 3d 35 a0 12 3e
       -0.03329117 -0.014222879 0.04884582 0.14318927
000120 e9 a5 50 be 21 a3 43 3e c0 67 5d 3e 07 c5 f2 bd
       -0.2037579 0.19105197 0.21621609 -0.11853986
000130 df 74 ee 3d 0d 9d 5a 3d c6 cf 18 be d3 fd 20 3c
       0.11643385 0.05337243 -0.1492301 0.009826141
000140 80 02 59 bd 36 3e 35 3e 3a a7 bb bd d4 9a 2d bd
       -0.0529809 0.17699513 -0.09162755 -0.042383984
000150 47 8d 34 3e d9 d3 f3 bd 75 5f 4b be 49 ec 38 3e
       0.17632018 -0.11905641 -0.19860633 0.18058886
000160 6a 48 d8 3c c0 21 a6 3d c7 b8 21 3d 00 52 ba bd
       0.026401717 0.08111906 0.039482858 -0.090976715
000170 c4 cc 6d 3d 6a 67 b9 3d 40 49 c8 3b c5 54 db 3d
       0.058056608 0.09052928 0.0061122477 0.10709528
000180 9d 3e 25 be 6c d5 67 3d 9e 1e 3b 3e 24 66 85 bc
       -0.16137166 0.05660002 0.18273398 -0.016284056
000190 c3 ad 4e 3e 04 b7 07 bd 2f b2 c5 bd 75 a6 1a 3c
       0.20183472 -0.03313352 -0.096531264 0.0094391005
0001a0 1e c1 0d 3e 51 2f f3 3b 78 b6 18 be 5d 30 06 3e
       0.138432 0.007421412 -0.14913356 0.13104387
0001b0 d0 10 8d 3d fa 02 1b be fd 2b 01 3d 97 07 a8 3c
       0.06887972 -0.15137854 0.03153609 0.020511432
0001c0 80 1a 39 3d 12 a3 b8 bc f3 74 2b 3e 89 41 2e be
       0.045191288 -0.022538695 0.16743831 -0.17017187
0001d0 bb 12 67 bc de 31 21 3d 6e 41 c3 bd f7 c9 80 bc
       -0.014103587 0.039354198 -0.09533964 -0.015721304
0001e0 5f c7 55 be 83 e4 a1 38 bb ec 15 3c 3b d3 19 bd
       -0.20876835 7.719642e-05 0.009150679 -0.03755496
0001f0 79 83 58 be c1 e7 c2 3d 74 23 b5 bd 59 02 52 3e
       -0.21143903 0.0951686 -0.08844653 0.20508708
000200 fa 11 52 3e 1d 74 3f 3e 1a 83 33 3e ce 49 2d 3e
       0.2051467 0.18696637 0.1753048 0.16922686
000210 7a ea fe 3a fe 65 c8 3d b5 79 82 bd be 0a 6e bb
       0.0019448542 0.097850785 -0.0637087 -0.003632232
000220 2e c5 1d be 77 d1 db bc 49 36 75 3c 5d 88 0d bd
       -0.1540725 -0.026833279 0.014966556 -0.034553874
000230 16 a2 4c be d9 2d 26 3d 13 55 bb bc 1e 9e b5 bd
       -0.19983706 0.040571067 -0.022867715 -0.08868049
000240 c6 04 b5 bd 9d 6b b7 bd ec 20 05 3e dc 7c 52 3d
       -0.08838801 -0.089560725 0.1300084 0.051388606
000250 db ad cd bc 3b da a2 bd bc 1c f5 3a 85 f6 11 be
       -0.025107315 -0.079517804 0.001870058 -0.14254196
000260 6f 39 5d 3e ed 77 1e be 4e 6a c5 3d 3d 96 40 be
       0.2160394 -0.15475436 0.09639417 -0.18807311
000270 79 68 1e be ae 7d 59 be 83 17 e8 bd e0 e1 3e be
       -0.1546954 -0.21239349 -0.113326095 -0.18640852
000280 30 dc f9 bd 18 74 3e bd 30 d3 8e 3d 48 49 c1 bd
       -0.122002006 -0.046497434 0.069738746 -0.094378054
000290 65 5d 03 3e f3 b1 1d be 78 6e 3a be bc 87 30 be
       0.12828596 -0.15399913 -0.18206203 -0.17239279
0002a0 a7 e3 36 be 5d 13 a3 3d e9 89 20 3e ea fb a5 3d
       -0.1786028 0.07962678 0.15677609 0.081046894
0002b0 9f b2 9c 3c 32 6b 39 3e f2 29 e1 bc 45 fa f9 3d
       0.019128142 0.18107298 -0.027485821 0.12205938
0002c0 7b ed d2 bd d0 83 14 3d c8 33 cc bc c2 50 38 3e
       -0.10299202 0.03625852 -0.024927035 0.17999557
0002d0 71 be b7 bd 2f 52 08 3e fd ef 8a bc db a5 17 be
       -0.08971871 0.133126 -0.016960138 -0.14809363
0002e0 a7 0e bd bd 12 12 4a be fd 40 13 3e ce d8 ab 3d
       -0.0923131 -0.19733456 0.1438026 0.083909616
0002f0 fc 16 27 be 4c d3 f9 bd e1 b2 fc 3d 70 23 20 3e
       -0.16317362 -0.12198505 0.12338806 0.15638518
000300 cb 3d 0c 3e b7 4d 0b 3e b4 a8 85 bd 23 5e 4b 3e
       0.13695447 0.13603865 -0.06526318 0.19860129
000310 bf fa 4f be 06 e7 93 bd 46 85 c2 3d c3 6b c9 3d
       -0.20310496 -0.072217986 0.09498076 0.09835007
000320 ca 4c 59 bd e9 de dd bd 7c ed 9f 3d d4 9e ed 3d
       -0.053051747 -0.10833532 0.078089684 0.1160256
000330 04 c5 c4 3d cb a0 4c 3c f1 c3 5a 3d 2f 95 31 be
       0.0960789 0.012489508 0.05340952 -0.17342065
000340 e1 30 52 be 1a 64 37 be 9f e1 19 3e d3 e2 e0 bc
       -0.20526458 -0.1790928 0.15027474 -0.027451908
000350 e7 ba 74 3d 4f 54 f7 3d 3b 52 0a be e2 99 30 3c
       0.059748556 0.120766275 -0.13507931 0.010778876
000360 93 dd 38 3e e5 88 a5 3d 89 ba 32 3e 01 34 d2 3d
       0.18053274 0.08082751 0.1745397 0.10263825
000370 fc 2c 20 be 14 89 40 be 70 04 09 bd 1a 7d 38 be
       -0.1564216 -0.18802291 -0.033451498 -0.18016472
000380 e5 80 ac 3d b5 aa 1f 3e df 8b 10 3e b4 57 55 3e
       0.08423022 0.15592463 0.14115857 0.20834237
000390 ca eb b3 bd 17 ee 2c 3e 93 0d 3f be f5 c0 cc bd
       -0.087852076 0.16887699 -0.18657522 -0.09997741
0003a0 d7 1a 3e 3c 34 40 14 3e b0 b6 13 be 1f 41 52 be
       0.011603079 0.14477617 -0.14425159 -0.20532654
0003b0 8a 73 47 be 03 91 2c 3d 18 d0 f2 3d 8b c6 4a 3e
       -0.19477668 0.04213048 0.11856097 0.198023
0003c0 33 29 22 3e a1 1a 58 3e de 2d 34 3e 89 ab 53 be
       0.15836029 0.21103908 0.17595622 -0.20670904
0003d0 b4 76 5d be b7 ba 60 3d 70 35 1d be a4 db 78 3d
       -0.21627313 0.054865565 -0.15352416 0.06075634
0003e0 0a c3 3b 3e 7e 83 0d 3d a4 ff 3d bd 95 be a4 bd
       0.1833612 0.03454923 -0.046386376 -0.08044163
0003f0 7d 57 ea bd 7d c4 32 3e c7 8f 8a bd fa 7c 2d 3e
       -0.11442468 0.17457767 -0.067657046 0.16942206

bias f4 [10]
000000 00 00 00 00 00 00 00 00 00 00 00 00 00 00 00 00
       0.0 0.0 0.0 0.0
000010 00 00 00 00 00 00 00 00 00 00 00 00 00 00 00 00
       0.0 0.0 0.0 0.0
000020 00 00 00 00 00 00 00 00
       0.0 0.0

weight f4 [10, 64]
000000 f8 a2 ee bd 8c df 26 be 60 51 fb bd 33 36 cc 3c
       -0.116521776 -0.16296214 -0.122713804 0.024928188
000010 f8 34 2e be b4 d2 8d 3e e4 5d ae 3d 89 0c e2 3d
       -0.17012393 0.27699816 0.08514002 0.11037547
000020 94 45 a4 3d c4 6c 40 be 0d c0 c9 bb dd 75 7c be
       0.080210835 -0.18791491 -0.0061569274 -0.24654336
000030 c2 85 1d be 6d 6a fa 3d c7 4b 62 be 66 8d 7f 3e
       -0.15383056 0.1222733 -0.2209922 0.24956283
000040 d4 59 f5 3d c9 97 92 3c d2 d3 04 3c 01 36 c9 bd
       0.11980024 0.017894642 0.0081071425 -0.098247536
000050 53 cb 44 3d dc 44 f1 3d e4 c2 ea bd 88 d0 0e be
       0.048045468 0.11780712 -0.11462954 -0.13946736
000060 d0 f6 8e bd 03 fc f2 bd c9 c3 61 be ec 47 5d be
       -0.069806695 -0.11864474 -0.22047342 -0.21609467
000070 79 6b c4 bd 2d ad 41 3e a2 0b 42 3e 3c f3 f8 bd
       -0.09590811 0.18913718 0.1894975 -0.12155768
000080 c5 f8 89 3e 92 ac 12 be 7c 24 51 3c 79 59 88 3e
       0.2694761 -0.14323643 0.012765046 0.26630762
000090 b6 fd 7a 3d d1 8d 10 be 8c 15 82 3d f3 52 75 be
       0.061277114 -0.14116599 0.06351766 -0.23957424
0000a0 93 aa bd 3d ac 92 61 be 1c c9 5a 3e a2 da b2 bd
       0.0926105 -0.22028607 0.2136578 -0.08733107
0000b0 f2 e2 48 bc 6b 33 5b bd 17 dc 85 be 05 90 7b 3e
       -0.012261139 -0.053515833 -0.26144478 0.24566658
0000c0 2c 3a 26 3e c4 a0 51 3e 6b f8 83 3e 19 6a 8c 3e
       0.16233128 0.20471483 0.25775465 0.27424696
0000d0 2b 23 85 3e e4 6f f7 3d 8f a7 af 3d 54 c7 87 be
       0.26003394 0.12081888 0.08576881 -0.26519263
0000e0 98 27 a8 3d a3 7e 2b 3c 63 8e 18 bd 86 3c 12 3d
       0.08210677 0.010467204 -0.037245166 0.03570225
0000f0 79 d0 a9 bd 39 ba 88 3e ab 14 fb bc 61 58 88 be
       -0.08291716 0.26704577 -0.030649504 -0.26629928
000100 ff 41 84 3d e4 11 85 3e af 80 31 be 5c cc 09 bd
       0.064579 0.25990212 -0.17334245 -0.033642158
000110 90 ba ed bc ab d5 87 be d2 23 c4 3d a3 c7 40 be
       -0.029019624 -0.26530203 0.09577145 -0.18826155
000120 ed e9 97 bd bb 09 c1 bd 9e b0 29 3e 24 33 85 be
       -0.07417665 -0.09425684 0.1657128 -0.2601558
000130 39 67 77 3d 4a 96 34 3e d2 ba 00 3e 28 bd 0f be
       0.060401175 0.17635456 0.12571266 -0.14037001
000140 e9 8e 71 3d be f0 c9 3d 04 4e 79 3e ad 42 d9 3d
       0.05897418 0.09860371 0.24346167 0.106084205
000150 31 e1 85 3c bd cd 30 be 16 80 f1 3d 27 84 31 3d
       0.016342731 -0.17265983 0.117920086 0.04333892
000160 78 70 72 3e 08 94 83 3e 94 3d 3a 3e c5 19 19 3d
       0.23675716 0.25698876 0.18187553 0.03737809
000170 c2 ca 32 be 59 ca 89 3e af 4f 68 be 70 8d c3 bc
       -0.17460158 0.26912192 -0.22686647 -0.023871154
000180 52 98 f6 bd 3c b2 3a 3e 98 a7 71 3e 73 c4 43 be
       -0.120407715 0.18232054 0.23599088 -0.19117908
000190 e0 23 c7 3d 4a ef 66 3e 49 77 47 be ed ba 06 be
       0.097236395 0.22552219 -0.19479097 -0.13157244
0001a0 54 57 6f be fc f6 c5 bd 72 15 03 be 6e 78 4b 3e
       -0.23373157 -0.09666249 -0.1280115 0.19870159
0001b0 a7 09 04 3d f2 b5 08 be 95 aa 56 be 68 f4 58 3d
       0.032235768 -0.13350657 -0.2096351 0.05296746
0001c0 d6 c2 51 3d 82 d8 1b be 6a 8b 92 3d c2 74 48 be
       0.0512112 -0.1521931 0.07155497 -0.1957579
0001d0 21 a4 8c be 72 00 2f be 1b cb 84 be 5d 22 39 3e
       -0.2746897 -0.17090014 -0.25936207 0.18079515
0001e0 ec 79 8b 3e d3 0b 73 3e 57 97 18 be 37 00 93 bb
       0.27241457 0.2373498 -0.14901482 -0.0044861096
0001f0 e9 40 23 be 2c f2 d0 bd dd b3 a4 3d 95 80 75 3e
       -0.1594273 -0.102024406 0.08042119 0.23974831
000200 b2 6b c9 3d bb d1 0c 3d 62 07 6d bd 53 13 f6 3d
       0.098349944 0.034379702 -0.05786837 0.120154046
000210 5e e4 19 bd e6 a9 71 be 43 aa b8 3c 56 bc 77 3e
       -0.037571304 -0.23599967 0.022542125 0.24192938
000220 7c 16 4c 3e 98 f3 c3 bc 6a 5b 3a be ca 87 e4 bd
       0.19930452 -0.023919865 -0.18198934 -0.11158712
000230 62 0c 25 bc 8e 0d ec bd 8b 25 03 be 79 b3 26 3e
       -0.010073753 -0.11526023 -0.1280729 0.16279401
000240 98 ce 84 be f9 2f 02 bd f6 0e 64 3e 78 3e cb 3d
       -0.2593887 -0.03178403 0.22271332 0.09924024
000250 47 66 e7 bc 17 93 59 3e 56 3b 29 be d6 6c ec 3c
       -0.028247012 0.21247517 -0.16526541 0.02886049
000260 b4 ba 8f 3e ce ab e3 3b c2 2e 87 be de 94 5a be
       0.2807213 0.006947971 -0.2640286 -0.21345851
000270 81 e9 7f be a1 a7 18 be 14 86 bb 3d 97 6f 07 be
       -0.24991418 -0.14907695 0.09156433 -0.13226162
000280 2e 99 55 3c fa 22 8f be 4c 87 62 bd b9 55 e3 3d
       0.013037009 -0.27956372 -0.05530481 0.11100335
000290 96 2d f5 3d fe 48 75 3e 73 72 06 3e 13 2b 5a be
       0.119715855 0.23953626 0.13129596 -0.21305494
0002a0 ed bf 30 3e b3 d5 4f be 9d bf 41 bd d7 78 16 3e
       0.17260714 -0.20296364 -0.047301877 0.14694534
0002b0 22 b4 6c 3e 0d 8a 26 3d 70 97 eb 3d 23 46 22 3e
       0.2311559 0.040659 0.11503494 0.15847068
0002c0 a5 a9 8f 3e fc 7a 59 3e cf 61 d7 bd 27 bc b6 3d
       0.28059116 0.21238321 -0.105167024 0.08922606
0002d0 ae b4 83 be e0 bd 99 bd 99 bf bb 3d 21 e5 28 3e
       -0.25723785 -0.07506919 0.09167404 0.16493656
0002e0 01 10 36 3e ef 57 06 3d e2 58 30 bd fe 34 53 3e
       0.17779543 0.032798704 -0.043053515 0.20625684
0002f0 bf 5a 5c 3e 73 ac da bd e8 59 25 3d 80 77 47 bd
       0.21518992 -0.10677423 0.040368944 -0.04869795
000300 a9 23 0c 3e e9 46 3e be 82 d2 32 be 1a 20 63 bd
       0.13685478 -0.18581738 -0.17463115 -0.055450536
000310 32 29 71 3e 94 48 6e 3d 7a 09 c0 3d f8 90 dd 3d
       0.23550871 0.058174685 0.093768075 0.10818666
000320 f2 4f 8a 3e 9f bd 0c be b6 6e 86 bc cb 14 eb 3d
       0.27014118 -0.1374421 -0.016410213 0.11478575
000330 80 3b cf 3c 20 28 6f 3e bf 14 81 be 44 8c 69 bd
       0.025296926 0.2335515 -0.2521114 -0.057018533
000340 81 72 3d be e3 35 86 3d 3f 54 f9 3d a8 d3 27 be
       -0.18500711 0.06553247 0.12174272 -0.16389334
000350 b5 1b 7e 3e ef 1a fb 3c 89 5c 85 be 59 64 8c be
       0.24815257 0.030652491 -0.2604716 -0.2742031
000360 2b 94 bd 3d 71 eb 94 3d a1 15 39 be 16 88 d0 3d
       0.092567764 0.072714694 -0.18074657 0.10182206
000370 22 71 3d 3e f7 1e 5a 3e e9 71 21 bd 59 79 bd bd
       0.18500188 0.21300875 -0.039415274 -0.09251661
000380 8b 14 d2 3d e6 cf 22 be 6d 78 84 be c8 2d 8b bd
       0.102578245 -0.1589962 -0.25873128 -0.067958415
000390 81 f8 0b 3d d9 0f b0 3d 22 ec 63 3e f3 1f 26 bd
       0.03417254 0.08596773 0.22258046 -0.040557813
0003a0 e5 e1 35 be 06 1c 9b 3b d2 4e a2 3d 21 88 87 3e
       -0.17761953 0.0047335653 0.0792519 0.26471046
0003b0 7a 99 44 3e 27 a4 84 be fa 59 66 3d 51 61 1d 3e
       0.19199172 -0.25906488 0.056238152 0.15369155
0003c0 e8 0f c4 bd a7 95 08 3e f5 f6 aa bc 54 48 f1 bd
       -0.095733464 0.13338338 -0.020869711 -0.117813736
0003d0 1f 95 fa bd 00 b4 26 3e f8 15 72 3e a0 48 80 3e
       -0.12235474 0.16279602 0.23641193 0.25055408
0003e0 45 bf 3d 3d 94 db 0a bc 09 7c 32 3e 10 91 66 3e
       0.046324987 -0.008475203 0.17430128 0.22516274
0003f0 24 1c a9 bc 52 59 a8 bd 15 b0 35 be 6d 17 fe 3d
       -0.020643301 -0.082201615 -0.17742951 0.12406812
