ckpt/real_only_MLP-best.pt (torch, 106402 bytes, 11 tensors)

weight f4 [256, 7]
-0.009805292 0.1403424 -0.18501654 -0.15327659 -0.037782434 0.009522022 -0.0008444141 0.1922021
-0.040048864 0.007497098 -0.016554806 -0.0024168561 -0.23243673 -0.1273936 -0.046413742 0.0024235882
0.040422816 0.105824776 -0.13279442 -0.052176006 0.031410284 0.21203591 -0.071571074 0.15809901
0.00016138855 0.00097529433 0.21421565 -0.22229983 -0.11784396 -0.019882785 -0.038848825 0.1991811
-0.12243073 -0.05985955 -0.14007683 -0.22602312 -0.10449509 0.19765249 0.055479188 0.06757028
3.808668e-05 -0.07658547 0.0051184506 -0.22462936 -0.14844126 -0.077520035 0.116467245 0.10116249
-0.05462848 -0.020733746 0.17497076 0.24672462 0.040762555 -0.00081604446 0.1302224 -0.101987794
0.0043162187 -0.1681131 -0.13812664 -0.077868424 0.05740169 0.042289857 -0.103208035 0.07781762
0.1689815 -0.005724689 -0.0012620391 0.0041737435 0.11268592 0.23409183 -0.16581851 -0.0349415
0.039671537 0.18638499 0.20143396 0.20582874 0.0011577825 -0.20091482 0.0046961936 -0.11457812
-0.22385256 0.20806159 0.16194364 -0.24780102 0.0014650472 -0.0014376654 7.960187e-05 -0.059047554
0.037268 -0.10319283 0.03230921 0.12032296 0.20738946 0.03525966 -0.24496509 -0.12315872
0.07217306 0.0018052635 -0.16903561 -0.09838421 0.22706096 0.13135844 -0.05236341 -0.0069642034
-0.23138058 0.003116659 -0.16022716 -0.16583078 2.7470893e-05 -5.418628e-05 -0.044424396 0.10356322
-0.17184098 0.29051116 0.13814197 -0.1916541 -0.006228348 0.0006992835 6.72047e-05 0.057529777
0.114624634 -0.0036233594 -0.068640776 0.06430057 -0.2338939 -0.10345185 -0.008004364 -0.07102752
-0.027932901 -0.18317233 -0.0022173945 0.0022977404 -0.123566 -0.021848675 0.19311272 -0.004037387
-0.0010308728 -0.0018665858 0.0011252254 0.11808165 0.2648198 0.1872775 0.23016348 -0.0010225825
-0.21182589 -0.06434426 0.13378368 0.0021492897 -0.070810564 -0.16402751 -0.22527188 -0.19194691
-0.0014048029 0.08838965 0.08965322 -0.23912401 0.114075735 -0.16985261 -0.002019801 -0.043238528
-0.00075346406 -0.0005133111 -0.21163285 -0.19897915 0.00013671549 -9.7197924e-05 -0.05796318 0.03507644
-0.21203724 0.0008249487 0.2048983 -0.043950293 0.21335702 0.031139387 -0.21311735 0.17317796
-0.04625679 -0.060544863 0.17597003 -0.17933534 -0.0010204669 -0.0023276005 0.16868404 0.062128633
0.06637214 0.028714754 -0.0061431457 -0.002142815 -0.18478826 0.14383723 0.24443935 0.13493894
-0.14248519 -0.0029134185 -0.1424116 -0.08922353 -0.14189015 0.11611772 -0.10383926 0.0032853035
0.005415787 0.12129672 -0.16029692 -0.13550149 -0.10009687 0.14060454 -0.030396154 0.19178107
0.030984469 6.109581e-05 -0.00032582087 -0.0017726182 3.3615922e-06 -0.0038131096 9.287112e-05 6.6622097e-06
-0.16974719 -0.15148236 0.25016382 -0.18190435 -0.00041120482 0.24474882 0.030802898 -0.000441925
-0.20132796 0.123050235 -0.14437447 -0.012564611 -0.023791298 0.0005605379 0.0012122762 0.20103794
0.011075528 0.21122733 0.10983978 -0.116637625 0.056241184 -0.14293297 -0.07708471 0.065416045
0.024718234 0.15835689 -0.020623762 0.0009837705 0.07735004 -0.25510374 0.19463539 -0.18599772
0.0017282444 0.0008548962 -0.081177235 0.00033897423 0.24153207 -0.09805774 -0.10583228 -0.03319668
00000000: 60a6 20bc ebb5 0f3e fa74 3dbe 8af4 1cbe
00000010: c1c1 1abd 4102 1c3c ac5b 5dba a1d0 443e
00000020: 470a 24bd 37aa f53b f29d 87bc 1e64 1ebb
00000030: e503 6ebe 7873 02be 561c 3ebd 10d5 1e3b
00000040: 6592 253d a9ba d83d 43fb 07be 82b6 55bd
00000050: 12a8 003d f11f 593e db93 92bd b5e4 213e
00000060: 693a 2939 e5aa 7f3a 595b 5b3e 91a2 63be
00000070: 2d58 f1bd 39e1 a2bc f21f 1fbd 21f6 4b3e
00000080: f6bc fabd 4a2f 75bd 4d70 0fbe 9b72 67be
00000090: 8601 d6bd 6a65 4a3e 253e 633d 4962 8a3d
000000a0: 43bf 1f38 d8d8 9cbd adb8 a73b 3d05 66be
000000b0: fc00 18be d3c2 9ebd 6186 ee3d 482e cf3d
000000c0: 1dc2 5fbd d1d9 a9bc 892b 333e 61a5 7c3e
000000d0: a3f6 263d d1eb 55ba 0559 053e fade d0bd
000000e0: 116f 8d3b d725 2cbe 1271 0dbe 7b79 9fbd
000000f0: 091e 6b3d 2138 2d3d bc5e d3bd d85e 9f3d
00000100: 7d09 2d3e 2c96 bbbb 016b a5ba e6c3 883b
00000110: e0c7 e63d c5b5 6f3e 54cc 29be d11e 0fbd
00000120: 9f7e 223d b5db 3e3e b444 4e3e c5c4 523e
00000130: bcc0 973a 9dbc 4dbe 87e2 993b efa7 eabd
00000140: 9b39 65be 190e 553e 8ed4 253e 8dbf 7dbe
00000150: d406 c03a 0c70 bcba eeef a638 d9db 71bd
00000160: 55a6 183d c356 d3bd aa56 043d e26b f63d
00000170: e75d 543e 6f6c 103d 21d8 7abe a43a fcbd
00000180: 78cf 933d 979e ec3a ac17 2dbe a97d c9bd
00000190: ab82 683e d482 063e 047b 56bd f933 e4bb
000001a0: 08ef 6cbe dc40 4c3b 9712 24be 8bcf 29be
000001b0: 4b71 e637 1346 63b8 5bf6 35bd f418 d43d
000001c0: 15f7 2fbe e1bd 943e 1775 0d3e f940 44be
000001d0: 2b17 ccbb 1f50 373a 40f0 8c38 58a4 6b3d
000001e0: 52c0 ea3d e275 6dbb 8993 8cbd 04b0 833d
000001f0: e281 6fbe 90de d3bd bc24 03bc e076 91bd
00000200: 8ad3 e4bc 8791 3bbe b551 11bb b095 163b
00000210: 2c10 fdbd fefb b2bc 57bf 453e 0f4c 84bb
00000220: 5a1e 87ba 3aa8 f4ba 4d7c 933a cbd4 f13d
00000230: 7696 873e acc5 3f3e faaf 6b3e 2d08 86ba
00000240: e3e8 58be ecc6 83bd 97fe 083e 19db 0c3b
00000250: 2105 91bd d4f6 27be acad 66be bb8d 44be
00000260: 5d21 b8ba a205 b53d 1b9c b73d eddc 74be
00000270: 8aa0 e93d d8ed 2dbe a35e 04bb e21a 31bd
00000280: 1e84 45ba ba8f 06ba 48b6 58be 31c1 4bbe
00000290: 495b 0f39 bdd6 cbb8 cd6a 6dbd 50ac 0f3d
000002a0: 4a20 59be 5f41 583a dcd0 513e 3905 34bd
000002b0: 437a 5a3e 0718 ff3c 6f3b 5abe 9055 313e
000002c0: c377 3dbd e4fd 77bd 7d31 343e afa3 37be
000002d0: 30c1 85ba a88a 18bb 82bb 2c3e 987a 7e3d
000002e0: 1eee 873d 343b eb3c 714c c9bb 786e 0cbb
000002f0: 2239 3dbe 114a 133e 4f4e 7a3e 6f2d 0a3e
00000300: a3e7 11be 0def 3ebb 59d4 11be d3ba b6bd
00000310: a74b 11be 21cf ed3d aea9 d4bd 3f4e 573b
00000320: ea76 b13b 6a6a f83d e024 24be e7c0 0abe
00000330: 96ff ccbd a3fa 0f3e 5b01 f9bc 4262 443e
00000340: 24d3 fd3c 9020 8038 f0d2 aab9 3257 e8ba
00000350: b797 6136 5de5 79bb cec3 c238 f28b df36
00000360: 35d2 2dbe 311e 1bbe 7915 803e 2245 3abe
00000370: fa96 d7b9 6f9f 7a3e 5c56 fc3c 2bb2 e7b9
00000380: eb28 4ebe c301 fc3d e7d6 13be ccdb 4dbc
00000390: f8e5 c2bc 10f1 123a 3de5 9e3a e4dc 4d3e
000003a0: 2276 353c fa4b 583e aef3 e03d b5df eebd
000003b0: 285d 663d 055d 12be 97de 9dbd d9f8 853d
000003c0: e57d ca3c 4f28 223e 2af3 a8bc dcf1 803a
000003d0: b369 9e3d f59c 82be 804e 473e 3076 3ebe
000003e0: 4286 e23a 1d1b 603a 4040 a6bd 5ab8 b139
000003f0: 2f54 773e 7fd2 c8bd 98be d8bd 3ef9 07bd

bias f4 [256]
0.1745394 0.08033503 0.04174292 -0.008620898 0.08262804 0.0663583 0.026977008 0.00025440627
-3.230277e-05 -0.0034843732 -0.14963514 0.0042995135 -0.1529744 0.06748635 -0.1043862 -0.022038652
-0.06371912 0.17224741 -0.14204757 0.07569635 0.07278479 0.14305605 0.006865524 0.08730324
0.17275329 -0.00028424847 0.025164545 -0.1700123 -0.008705591 0.00026674304 3.2065032e-05 -0.029597003
-0.2454558 -0.008370824 0.037151203 0.19816628 -0.21341355 0.06522618 -0.23000035 -0.23273271
-0.1147986 -0.0003406405 0.011710233 -0.16197796 0.16544142 0.21378604 -0.00018175507 0.18114354
-0.059098747 -0.040366568 0.0028923184 0.00010903467 -0.14048998 -0.17636901 0.04003605 0.012876457
0.24072753 -0.044691447 0.028447112 -0.042675093 0.0704055 2.673584e-05 0.15516946 0.09074877
0.18775487 0.07693698 2.5740565e-05 0.19839603 -0.10148304 0.22783872 0.24035153 0.23236635
-0.062130164 -0.08226127 -0.004111046 0.018550212 0.07301326 0.04364659 0.1946681 -0.0067822826
-0.022360727 0.024066625 0.010934639 -0.100100055 -0.0012602258 -0.16153923 -0.014512178 -0.03948675
0.20354334 -0.21230423 -0.10279245 -0.24087797 0.006833855 -0.16531876 0.022088433 -0.13889219
-0.12031333 -0.07651689 1.2372795e-05 0.21895745 0.2254779 -0.0028954947 -0.24118851 -0.022914892
-0.036333203 -0.0046650223 0.03643854 0.07353932 0.054769345 0.012892568 -0.043050874 0.0018965494
0.00028722925 -0.07709818 5.710072e-05 0.0011058219 -0.2285315 0.13325788 1.5436253e-05 -0.19933128
0.17284277 -0.085333124 0.028957987 0.24548964 0.0019683882 0.013268526 0.04099756 0.16040106
-0.017437844 -0.093606405 -0.0033791973 0.1698729 -4.5680303e-05 0.13875212 0.0003121998 0.017574321
7.2980314e-05 -0.00063784525 -0.23103248 -0.2028867 0.00012852601 0.07083619 0.13066743 6.434359e-05
0.04798128 0.04689326 -0.19904333 -0.20503613 -0.16728358 -0.0009387838 -0.116942726 -0.020577261
0.00033398723 0.039383948 0.0033330584 0.22210054 0.21280219 -0.11890596 -0.0010921208 0.00011895015
0.2024113 -0.017293131 -0.039650135 -0.11729698 0.15357983 -0.012574114 -0.036024913 0.13227756
0.21981207 0.00035709774 -0.14268087 0.18124606 -0.025915356 -0.059654795 -0.14160374 -0.066378966
-0.17009866 -0.09808591 -0.21623142 0.00023982265 0.042310767 -0.16126612 -8.176648e-05 -0.03359973
0.067245364 0.19998868 0.0030671444 -0.07423617 -0.16483016 -0.1015787 0.013695757 0.004242231
0.085052505 -0.0036742822 0.07748818 -0.2089479 0.009899691 0.23810643 -0.2449184 -0.078775674
0.119642675 0.0024068218 -0.08332095 0.10927887 0.00058756355 1.923495e-05 -0.016747845 0.15947746
0.09048581 0.00016504877 -0.0007642865 0.07795096 0.11382042 -0.044611678 -0.004092094 0.053281724
-0.06751113 0.22492088 -0.13528018 0.060186252 -0.14706105 0.020842332 0.1397577 0.00011415715
0.0022691977 0.11821038 -0.14673285 -0.132031 -0.19492988 -0.1111482 0.003233572 -0.05766256
0.003294995 -0.0033804951 0.1876287 -0.051616147 -0.0106670195 0.12702636 -0.0069718896 0.23305714
-0.0406482 -3.6974703e-05 -0.006292958 0.062014077 0.036884725 -0.08380805 0.12615809 8.735124e-05
-0.0071660154 0.00059679756 0.13905951 0.24171874 0.068027794 0.00015251535 0.12396694 -0.04694411
00000000: 75ba 323e b186 a43d a0fa 2a3d ab3e 0dbc
00000010: e438 a93d dce6 873d e3fe dc3c d561 8539
00000020: d67c 07b8 155a 64bb f439 19be efe2 8c3b
00000030: 52a5 1cbe 4936 8a3d 6fc8 d5bd 678a b4bc
00000040: 2c7f 82bd a061 303e eb74 11be b006 9b3d
00000050: 3110 953d 497d 123e 31f8 e03b 0bcc b23d
00000060: 3de6 303e 2f07 95b9 e025 ce3c b417 2ebe
00000070: e5a1 0ebc a5d9 8b39 917d 0638 6a75 f2bc
00000080: c458 7bbe c825 09bc dc2b 183d 1aec 4a3e
00000090: 1589 5abe 4e95 853d 3685 6bbe 7c51 6ebe
000000a0: 871b ebbd fe97 b2b9 47dc 3f3c 8ddd 25be
000000b0: 7a69 293e baea 5a3e 8195 3eb9 b17d 393e
000000c0: 8711 72bd 6a57 25bd 0d8d 3d3b 8ba9 e438
000000d0: 9bdc 0fbe 149a 34be d7fc 233d c6f7 523c
000000e0: 4781 763e 610e 37bd eb09 e93c 14cc 2ebd
000000f0: c230 903d c746 e037 bee4 1e3e 7eda b93d
00000100: d042 403e 2391 9d3d 71ed d737 5428 4b3e
00000110: 57d6 cfbd 8e4e 693e b61e 763e 72f1 6d3e
00000120: 337c 7ebd 9978 a8bd f4b5 86bb 9df6 973c
00000130: fa87 953d c4c6 323d 1357 473e e93d debb
00000140: d82d b7bc 5f27 c53c 3327 333c 4201 cdbd
00000150: 292e a5ba 8a6a 25be 7cc4 6dbc dcbc 21bd
00000160: aa6d 503e 4866 59be d984 d2bd b7a8 76be
00000170: 88ee df3b 5249 29be cdf2 b43c c139 0ebe
00000180: d666 f6bd e3b4 9cbd c094 4f37 6236 603e
00000190: aee3 663e 57c2 3dbb 1ffa 76be 03b8 bbbc
000001a0: 20d2 14bd 0bdd 98bb 9440 153d c89b 963d
000001b0: d255 603d 593b 533c 1d56 30bd a395 f83a
000001c0: 4297 9639 a7e5 9dbd 6e7f 6f38 3af1 903a
000001d0: 2904 6abe c174 083e 1a7d 8137 801d 4cbe
000001e0: b2fd 303e 22c3 aebd 4d39 ed3c a361 7b3e
000001f0: 1300 013b 3b64 593c 0fed 273d 2d40 243e
00000200: cfd9 8ebc b7b4 bfbd 8675 5dbb 29f3 2d3e
00000210: da98 3fb8 0915 0e3e bfae a339 06f8 8f3c
00000220: 020d 9938 1235 27ba c793 6cbe 88c1 4fbe
00000230: f0c4 0639 9012 913d afcd 053e 34f0 8638
00000240: 0588 443d 2613 403d 04d2 4bbe fef4 51be
00000250: 634c 2bbe b718 76ba ab7f efbd a591 a8bc
00000260: 021b af39 1051 213d 716f 5a3b 536e 633e
00000270: d1e8 593e f884 f3bd 7e25 8fba e074 f938
00000280: e844 4f3e 53aa 8dbc 2e68 22bd 6639 f0bd
00000290: 0844 1d3e a803 4ebc dc8e 13bd c573 073e
000002a0: 6a16 613e d938 bb39 ef1a 12be 9198 393e
000002b0: 714c d4bc 9658 74bd 9200 11be b2f1 87bd
000002c0: 582e 2ebe 44e1 c8bd c56b 5dbe e778 7b39
000002d0: 0e4e 2d3d f222 25be 0b7a abb8 df9f 09bd
000002e0: f0b7 893d d5c9 4c3e 2502 493b 2209 98bd
000002f0: 3dc9 28be 7e08 d0bd 2b64 603c 6a02 8b3b
00000300: 0230 ae3d 3acc 70bb 1fb2 9e3d 70f6 55be
00000310: 5032 223c 2cd2 733e e4cb 7abe 2455 a1bd
00000320: 3807 f53d c5bb 1d3b 2da4 aabd 9acd df3d
00000330: b906 1a3a be5a a137 c732 89bc 0f4e 233e
00000340: a050 b93d f110 2d39 665a 48ba c1a4 9f3d
00000350: ae1a e93d bcba 36bd f916 86bb f03d 5a3d
00000360: 4643 8abd a951 663e e386 0abe dc85 763d
00000370: 2c97 16be 8abd aa3c a41c 0f3e a767 ef38
00000380: d2b6 143b 4918 f23d 2341 16be 2233 07be
00000390: b39b 47be aba1 e3bd 56ea 533b 942f 6cbd
000003a0: d8f0 573b 4c8b 5dbb bd21 403e 746b 53bd
000003b0: b9c4 2ebc 3313 023e 7374 e4bb 88a6 6e3e
000003c0: ba7e 26bd 4915 1bb8 2835 cebb 7902 7e3d
000003d0: 7014 173d 8ea3 abbd 962f 013e 5730 b738
000003e0: e5d0 eabb 6872 1c3a 9e65 0e3e 1e85 773e
000003f0: 2852 8b3d 87ec 1f39 61e2 fd3d 7848 40bd

weight f4 [32, 256]
-0.0003513975 0.0017775163 -0.00015652065 0.0009534995 2.6502237e-05 -0.0009081632 -0.000803291 0.0019724988
-0.00082264317 0.014085419 -0.0004958001 -0.00016984444 1.3872604e-05 0.009241471 -0.0006472924 -0.0005364113
0.005117674 0.009877796 -0.00020032753 -0.0018947213 -0.013347795 -0.00028699278 -0.00050493167 -0.00095687417
-0.0004426315 0.0013880464 0.010620596 -0.00869881 0.00096376956 -0.0007620284 2.2452778e-05 -0.0006704642
0.00039905673 -0.0027425766 0.000904381 0.0022880116 0.0006442944 -0.00050595484 0.0014189729 -0.00044332983
-0.0006685404 -0.00019507206 -0.000511651 -0.00030810598 0.00021120222 -0.00012035599 0.0001720563 -0.0009779355
0.012825694 1.6811735e-05 -0.0053185998 -0.0005837072 -0.023555415 4.362821e-05 -2.389466e-05 -0.0028813614
-0.0006926679 0.020434072 0.005353902 -0.00046620396 -0.0005462296 -0.0005747919 -0.0001624934 -0.00028375912
-0.000649257 0.007328741 -0.00037899552 0.002479166 0.00025010554 0.001357314 0.00080515584 0.0023359996
-0.0008385124 -8.8164765e-05 0.0014901707 0.0022178516 -0.0011973142 -0.0003732928 -0.00033480013 -0.00022004217
-0.001018645 -0.009302844 -0.0027190244 -0.0014019356 -0.01820203 -0.00041233384 -0.0035306364 -1.3893881e-05
0.004905229 -0.00045234212 0.00924453 -0.0012197956 -0.0038518652 0.01285642 0.00075610646 -0.0002228593
0.0027664106 0.0018156291 -0.00065002276 0.00016490163 0.0015791598 -0.0006713542 0.0015383995 -0.00046815505
-0.00014926564 0.0020037943 0.000673568 -0.0007527691 0.0050952476 -0.013415848 -0.0006707796 -0.0002657605
-0.00052950263 0.0018489856 -1.6363247e-05 0.0069000167 -0.0004989739 -0.004312058 2.532836e-05 -0.00082927366
0.00199669 0.0034813988 -0.0007353642 -0.00422455 0.0013777253 0.0052086655 0.001299866 7.1815746e-05
-0.0004048136 -0.001074241 -0.0017464701 0.0012544938 -0.00046222185 -0.0015705122 -0.00064839685 -0.00088420237
-0.0012467754 -0.0007082541 8.260758e-05 7.617543e-05 -0.0011106641 6.3770385e-05 0.0007388193 -2.4921166e-05
7.463632e-05 -0.0073076063 0.0021867042 0.007829311 -3.667675e-05 0.002314356 7.1050286e-05 -0.009537798
-0.0007022332 -0.00039053833 0.007888066 0.007732316 -0.0017036969 4.1146475e-07 -0.0009742748 -0.0006990144
-0.0010584655 0.0011109085 -2.5514351e-05 -0.00024862698 -0.0006865847 -0.00063307385 0.011401463 -0.00040884706
0.000647633 -0.0010834269 -0.0020782014 0.0011551025 -0.0006703841 0.001623596 2.8445513e-05 6.640133e-05
8.542429e-05 -0.0009827779 -0.00067608734 0.0014032093 -0.00037360354 -0.00847894 -4.723831e-05 0.00092265627
-0.0005169328 1.5654698e-05 -0.02103944 0.017048065 -0.0006811226 -0.0012949626 -0.0007066409 0.0005009285
0.0001230805 -0.02066506 -0.0021030696 -0.007617534 -0.00021865907 0.015108057 -0.00011626547 0.0010133405
-0.0002776656 0.0012502098 0.001763315 -0.00055658614 -0.00114374 -0.00021294296 -0.00083903247 0.0032485744
-6.0483457e-05 -0.0003119243 0.0020400735 0.011927223 0.003485446 -0.006682769 0.006456764 7.390113e-05
-0.0011912603 -0.002988151 -0.00015166734 -1.3779984e-05 0.00017642965 -0.0008673244 0.002089547 -0.0002505345
0.0013410726 0.0020529947 0.0014607132 0.0036388878 9.25689e-05 -7.373086e-06 5.7318783e-05 -0.00062644086
0.008150483 0.001486053 0.0006461687 0.00013016356 -0.0008260288 -0.0008411249 -0.009403276 0.0019819897
0.0016845244 1.4790512e-05 0.009627485 0.0006837197 0.0032414966 0.0048481794 7.097787e-05 0.00010893943
0.00012473587 -1.8101266e-05 0.011186277 -3.525912e-05 -0.00013864506 -7.9724334e-05 -0.005816542 -0.000353216
00000000: c63b b8b9 8dfb e83a b11f 24b9 45f4 793a
00000010: 1f51 de37 cd11 6eba f293 52ba 0a45 013b
00000020: a6a6 57ba 87c6 663c 95f8 01ba 4518 32b9
00000030: 61be 6837 8a69 173c 0faf 29ba f49d 0cba
00000040: 29b2 a73b 7bd6 213c 030f 52b9 4c58 f8ba
00000050: b6b0 5abc 8577 96b9 645d 04ba bdd6 7aba
00000060: ff10 e8b9 1cef b53a 0202 2e3c 7485 0ebc
00000070: 7ba5 7c3a dcc2 47ba f958 bc37 17c2 2fba
00000080: 7d38 d139 cdbc 33bb fb13 6d3a 77f2 153b
00000090: dee5 283a 0ea2 04ba d4fc b93a b96e e8b9
000000a0: fd40 2fba 428c 4cb9 5120 06ba 4989 a1b9
000000b0: 2a76 5d39 a167 fcb8 036a 3439 122e 80ba
000000c0: dc22 523c ed06 8d37 a647 aebb ed03 19ba
000000d0: 49f7 c0bc 6ffd 3638 6471 c8b7 39d5 3cbb
000000e0: 2894 35ba 5b65 a73c c96f af3b d66c f4b9
000000f0: d930 0fba a2ad 16ba fd62 2ab9 81c5 94b9
00000100: e632 2aba ef25 f03b ebb3 c6b9 8179 223b
00000110: 9920 8339 e6e7 b13a 1811 533a 9217 193b
00000120: 9dcf 5bba 19e5 b8b8 d551 c33a 6059 113b
00000130: 33ef 9cba 83b6 c3b9 1d88 afb9 1fbb 66b9
00000140: 0e84 85ba f56a 18bc a931 32bb 27c1 b7ba
00000150: 6c1c 95bc 832e d8b9 4062 67bb c419 69b7
00000160: 0bbc a03b 5528 edb9 5f76 173c 8ce1 9fba
00000170: 936f 7cbb bca3 523c 7235 463a 56af 69b9
00000180: ab4c 353b 67fa ed3a 4a66 2aba 72e9 2c39
00000190: cffb ce3a d1fd 2fba 1fa4 c93a b572 f5b9
000001a0: 3184 1cb9 1752 033b 6292 303a 7b55 45ba
000001b0: 09f6 a63b 25ce 5bbc 42d7 2fba c555 8bb9
000001c0: 52ce 0aba a959 f23a ce43 89b7 8919 e23b
000001d0: 92cd 02ba 2a4c 8dbb 3d78 d437 9d63 59ba
000001e0: e6da 023b 2e28 643b 75c5 40ba 186e 8abb
000001f0: ca94 b43a 74ad aa3b 4460 aa3a c99b 9638
00000200: 293d d4b9 8ccd 8cba d0e9 e4ba d46d a43a
00000210: 5e56 f2b9 a5d9 cdba 2df9 29ba d1c9 67ba
00000220: d76a a3ba 21aa 39ba 9b3d ad38 5fc0 9f38
00000230: b493 91ba 77bc 8538 53ad 413a cc0d d1b7
00000240: 1286 9c38 a574 efbb cf4e 0f3b 8346 003c
00000250: 5cd5 19b8 73ac 173b d500 9538 6d44 1cbc
00000260: 1316 38ba 2bc1 ccb9 f23c 013c 5e5f fd3b
00000270: 954e dfba 49e7 dc34 7a66 7fba 103e 37ba
00000280: 35bc 8aba e79b 913a a707 d6b7 265a 82b9
00000290: ebfb 33ba def4 25ba 34cd 3a3c 865a d6b9
000002a0: eac5 293a c601 8eba 6f32 08bb cf66 973a
000002b0: b7bc 2fba d7ce d43a 469e ee37 f140 8b38
000002c0: d125 b338 8ed0 80ba 743b 31ba e4eb b73a
000002d0: 38e0 c3b9 41eb 0abc c021 46b8 6ade 713a
000002e0: c682 07ba 3552 8337 e75a acbc 62a8 8b3c
000002f0: 5d8d 32ba bcbb a9ba de3d 39ba be50 033a
00000300: 2c0f 0139 c649 a9bc a7d3 09bb 829c f9bb
00000310: d947 65b9 c987 773c 8dd3 f3b8 11d2 843a
00000320: a593 91b9 14de a33a 091f e73a dde7 11ba
00000330: 8ce9 95ba 7149 5fb9 84f2 5bba 09e6 543b
00000340: 9eaf 7db8 c589 a3b9 c1b2 053b 666a 433c
00000350: 156c 643b 21fb dabb 4393 d33b 5efb 9a38
00000360: 1024 9cba dbd4 43bb e408 1fb9 9530 67b7
00000370: f9ff 3839 285d 63ba c8f0 083b 2c5a 83b9
00000380: eec6 af3a 898b 063b 6775 bf3a 687a 6e3b
00000390: 8d21 c238 5466 f7b6 9369 7038 bc37 24ba
000003a0: 9a89 053c aac7 c23a a663 293a 847c 0839
000003b0: db89 58ba f07e 5cba 3310 1abc 45e4 013b
000003c0: 42cb dc3a c424 7837 99bc 1d3c a73b 333a
000003d0: 4a6f 543b 7add 9e3b f4d9 9438 6976 e438
000003e0: 88cb 0239 2cd8 97b7 a546 373c 31e3 13b8
000003f0: 4061 11b9 ad31 a7b8 b198 bebb d92f b9b9

bias f4 [32]
0.00040265537 0.0048925555 6.978573e-06 -0.00034595476 0.017736107 9.1921356e-05 -0.00042057448 0.00073897775
-0.00011961475 -0.003683723 7.8327656e-05 -0.0022813089 0.00054068083 4.236506e-05 0.0012260231 -0.0040584714
5.5486123e-07 0.00087067654 -0.0032438927 -0.0013994778 0.00077524147 -0.00045756137 0.00047776522 -0.0010258078
0.0013926849 -0.00606315 0.004483462 0.00023351915 -0.0023568606 0.0003817936 -0.0014991539 -0.00091958995
00000000: 7d1b d339 bb51 a03b 7c29 ea36 4361 b5b9
00000010: 504b 913c e7c5 c038 8d80 dcb9 f5b7 413a
00000020: aed9 fab8 9e6a 71bb d743 a438 0382 15bb
00000030: 7abc 0d3a 23b1 3138 82b2 a03a edfc 84bb
00000040: c6f1 1435 1d3e 643a 7d97 54bb af6e b7ba
00000050: 9339 4b3a d9e4 efb9 907c fa39 6674 86ba
00000060: c08a b63a 63ad c6bb 01ea 923b d2dc 7439
00000070: 8f75 1abb 782b c839 427f c4ba a310 71ba

weight f4 [20, 32]
-0.0053669037 0.06947246 -0.004278049 -0.007018049 0.13046323 -0.00051106734 0.0122752255 -0.050788622
-0.0991593 -0.10644856 -0.015510429 0.06408103 0.05738322 -0.0020096204 0.0155019 -0.098031044
-0.0032235517 -0.0019999312 -0.08486266 -0.09350116 -0.0359102 0.009798839 -0.0046007195 -0.0082734255
0.06768228 -0.08581636 -0.072323255 -0.029689984 0.09279066 0.014453332 -0.06140757 0.03915418
-0.036150362 0.12178544 0.028538723 0.025172655 0.13739528 0.009871697 -0.07662141 0.0637457
0.1564919 -0.06889323 0.05970766 0.12865162 -0.025473084 0.0031093452 -0.017077962 0.14843267
0.017308814 0.040626045 -0.12013986 -0.05417689 -0.073713556 0.010957489 -0.033699583 0.03784659
0.08715977 -0.049187984 0.015262476 -0.1279307 -0.019220527 0.027249245 0.06891821 0.026891543
0.008351977 0.0791673 0.08477616 0.010132329 0.15669462 -0.033780538 0.01315824 -0.0038931137
0.11378722 -0.14586575 0.028544264 -0.13477252 -0.028118113 -0.0054376307 -0.044209555 -0.089154705
-0.047841944 -0.055770442 -0.01946965 0.105797336 -0.020602634 -0.043140832 -0.015592909 -0.08127867
-0.003539246 0.12876432 -0.16817485 0.07975496 0.11907962 0.11435528 -0.060331084 0.0018892008
0.020338545 -0.12955135 0.07650452 -0.0005833719 -0.14091526 -0.0013715343 -0.0038492496 -0.066284046
-0.0675235 -0.015609348 0.008875983 0.05995597 -0.111892514 -0.0032516054 0.024819717 0.13206287
0.0099953 0.029685631 0.04083822 -0.0059120273 -0.03509516 -0.019294927 0.027908707 -0.015149151
0.11267123 -0.09524367 0.11748386 0.09182465 0.10402511 0.10787088 -0.040211987 0.033858865
-0.08701924 -0.0799864 -0.002959709 0.076219946 -0.030241154 -0.0499211 -0.077481166 0.0040661353
0.01397724 0.04772974 -0.012618034 0.04896496 0.00871243 -0.018045757 0.06818934 -0.12016632
-0.02914806 0.0065713134 -0.047528382 -0.00908326 -0.039889183 0.08018153 0.112803 0.11592764
0.032425612 -0.10197875 -0.053884126 -0.06764786 -0.03445011 -0.079006016 0.06938807 -0.09795386
0.0036613701 0.10855053 -0.07796066 -0.0016726827 0.08581038 -0.007478922 -0.009218399 0.08163069
-0.106187604 0.12567563 0.070450425 0.007351557 0.009953719 -0.020389207 0.020809626 -0.12761469
-0.0009494451 0.04077113 0.013760845 0.07308505 0.058927193 0.07300296 0.010559071 -0.050584152
-0.13205744 0.09410448 0.12921013 0.14119893 -0.105090566 0.13625103 -0.03623867 0.0111871585
0.03170044 -0.12471488 -0.11072463 0.03545096 -0.1539014 0.016454725 0.02625371 0.115747854
-0.0017645818 -0.035103768 -0.005428415 -0.02012353 -0.115742706 0.0014146949 -0.0720501 0.119563505
-0.01500268 -0.0016534085 -0.09506204 0.12830985 0.04424492 0.07767078 0.048724256 -0.06574424
0.14478736 -0.021045014 0.15115552 0.013028806 0.101855114 -0.061178334 0.024534298 -0.010113362
-0.05146524 0.119397156 -0.030975262 -0.044136263 0.13271286 -0.06451626 0.021621305 0.12968811
-0.021415224 -0.12757035 -0.06682513 -0.010429994 -0.013622854 0.033424 0.098125994 -0.100308746
-0.0065817893 -0.044851888 0.026253622 0.09580114 -0.0193896 -0.013951557 -0.003766383 -0.0906321
0.14620277 0.03400893 0.15159479 -0.1355677 -0.041592084 -0.04351453 0.025485989 -0.022409214
00000000: dadc afbb 9447 8e3d e02e 8cbb a9f7 e5bb
00000010: 2798 053e 26f9 05ba 071e 493c bb07 50bd
00000020: 0814 cbbd b401 dabd 741f 7ebc ea3c 833d
00000030: ab0a 6b3d d6b3 03bb aefb 7d3c 80c4 c8bd
00000040: 3942 53bb 4711 03bb 79cc adbd 897d bfbd
00000050: 9316 13bd 4f8b 203c a2c1 96bb 438d 07bc
00000060: 029d 8a3d 7dc0 afbd 371e 94bd 6938 f3bc
00000070: 0809 be3d abcd 6c3c 8186 7bbd 2260 203d
00000080: 6712 14bd a56a f93d 0aca e93c e236 ce3c
00000090: 59b1 0c3e e6bc 213c b0eb 9cbd 1b8d 823d
000000a0: 6a3f 203e e517 8dbd 0590 743d 40bd 033e
000000b0: eeac d0bc 28c6 4b3b 15e7 8bbc bcfe 173e
000000c0: 37cb 8d3c 7f67 263d e30b f6bd 96e8 5dbd
000000d0: 22f7 96bd 0a87 333c 9308 0abd 0705 1b3d
000000e0: d280 b23d 5779 49bd 770f 7a3c 4400 03be
000000f0: 5e74 9dbc cf39 df3c fe24 8d3d a74b dc3c
00000100: bbd6 083c 7722 a23d 209f ad3d 1102 263c
00000110: 8e74 203e 765d 0abd a995 573c 9c23 7fbb
00000120: 4609 e93d d55d 15be a9d5 e93c cf01 0abe
00000130: f557 e6bc 272e b2bb 1415 35bd be96 b6bd
00000140: eaf5 43bd 8c6f 64bd d17e 9fbc 46ac d83d
00000150: dbc6 a8bc 71b4 30bd 6779 7fbc 6e75 a6bd
00000160: b2f2 67bb cbda 033e 0736 2cbe 9256 a33d
00000170: 04e0 f33d 1a33 ea3d ba1d 77bd 0f9f f73a
00000180: 059d a63c 1ca9 04be 67ae 9c3d 6ded 18ba
00000190: 174c 10be 0ec5 b3ba b143 7cbb eebf 87bd
000001a0: c349 8abd 5abe 7fbc 926c 113c 6494 753d
000001b0: e727 e5bd e318 55bb b852 cb3c 7d3b 073e
000001c0: 54c3 233c 482f f33c fa45 273d aeb9 c1bb
000001d0: f1bf 0fbd 6510 9ebc cda0 e43c 2534 78bc
000001e0: 2dc0 e63d 1d0f c3bd 619b f03d 900e bc3d
000001f0: 1e0b d53d 68eb dc3d 53b5 24bd 98af 0a3d
00000200: 2537 b2bd e9cf a3bd adf7 41bb 3419 9c3d
00000210: 4cbc f7bc 117a 4cbd 72ae 9ebd 373d 853b
00000220: cb00 653c 4380 433d dfbb 4ebc 7b8f 483d
00000230: 94be 0e3c b2d4 93bc daa6 8b3d c219 f6bd
00000240: eac7 eebc 2c54 d73b 1fad 42bd f4d1 14bc
00000250: d762 23bd 3736 a43d 4205 e73d 786b ed3d
00000260: b8d0 043d 3cda d0bd 9ab5 5cbd f68a 8abd
00000270: 8f1b 0dbd e8cd a1bd 551b 8e3d 099c c8bd
00000280: 99f3 6f3b be4f de3d d7a9 9fbd eb3d dbba
00000290: 5abd af3d bf11 f5bb c508 17bc fe2d a73d
000002a0: e378 d9bd 1db1 003e 5048 903d 54e5 f03b
000002b0: ec14 233c 4407 a7bc f378 aa3c 6dad 02be
000002c0: 2fe4 78ba a1ff 263d 2b75 613c 9dad 953d
000002d0: a45d 713d 9382 953d f4ff 2c3c 5431 4fbd
000002e0: 113a 07be dab9 c03d a94f 043e 7496 103e
000002f0: b939 d7bd 6485 0b3e 006f 14bd 584a 373c
00000300: 52d8 013d 846a ffbd 98c3 e2bd 0735 113d
00000310: 5498 1dbe 0fcc 863c 0512 d73c 360d ed3d
00000320: 8a49 e7ba f8c8 0fbd d8e0 b1bb 1ada a4bc
00000330: 830a edbd 496d b93a 018f 93bd b6dd f43d
00000340: cdcd 75bc 2fb7 d8ba e3af c2bd a863 033e
00000350: 293a 353d dc11 9f3d 1693 473d eba4 86bd
00000360: 2343 143e 9866 acbc 83c8 1a3e c676 553c
00000370: 6a99 d03d 2296 7abd 27fc c83c 84b2 25bc
00000380: 37cd 52bd 7f86 f43d d5bf fdbc 3ac8 34bd
00000390: e1e5 073e 1a21 84bd 2a1f b13c f6cc 043e
000003a0: fb6e afbc cda1 02be 9ddb 88bd 91e2 2abc
000003b0: 6432 5fbc 9be7 083d 48f6 c83d ac6e cdbd
000003c0: 0dac d7bb 9db6 37bd d611 d73c 6333 c43d
000003d0: f0d6 9ebc 1295 64bc 6cd5 76bb 539d b9bd
000003e0: 2eb6 153e f34c 0b3d aa3b 1b3e 42d2 0abe
000003f0: 765c 2abd 4b3c 32bd fec7 d03c 8793 b7bc

bias f4 [20]
0.051193364 -0.018220928 0.012796151 0.021744939 0.06870117 -0.0803514 -0.015763216 -0.050393656
-0.050581682 -0.053093843 0.0074571334 0.039502468 0.0015161479 0.0121092815 -0.0011484297 -0.063719034
0.08078211 0.021050762 -0.07694302 0.0095630735
00000000: 22b0 513d 0e44 95bc f3a6 513c 7122 b23c
00000010: 33b3 8c3d 468f a4bd dc21 81bc 9469 4ebd
00000020: bd2e 4fbd ee78 59bd f85a f43b 57cd 213d
00000030: 7bb9 c63a 0266 463c e886 96ba 207f 82bd
00000040: 1771 a53d a672 ac3c 4d94 9dbd 70ae 1c3c

weight f4 [256, 20]
0.09302097 0.11305963 0.15375386 0.13635808 0.1439592 -0.03657691 0.037186414 0.058828797
-0.13202573 0.05302616 -0.05864996 0.11710167 0.07664325 0.10919224 0.12918743 0.12756233
-0.16036049 -0.13108268 -0.13927819 0.1273697 -0.030301139 0.092238836 0.04050737 0.12242124
-0.053934414 0.009116034 -0.0886747 -0.10280222 -0.10496052 0.058081213 -0.0023693528 -0.0029849068
0.070244946 0.020969933 0.02535263 -0.043098204 0.061345726 0.10731095 -0.10035369 -0.019728558
-0.11454054 -0.04903979 0.04049121 -0.1593587 -0.1278429 0.068905026 0.12655653 -0.074469194
0.082026295 -0.14189774 -0.040147226 0.09334589 -0.014362813 0.043689735 -0.10734305 0.043227438
-0.03415284 -0.0024667347 0.06443712 0.042203497 0.044000544 -0.007998709 -0.028230693 0.06537832
0.0008206162 -0.08355625 -0.05307491 0.049677145 0.031823594 -0.02955407 0.050934438 0.016471174
0.012922857 -6.638156e-05 0.035344545 -0.002032388 -0.090256386 -0.006673959 0.011519221 -0.030591687
0.036173966 0.16161527 0.05588801 0.095984966 -0.010818519 -0.006568367 -0.044108205 0.14594537
-0.09501244 0.06284223 0.02116148 0.10076818 -0.005382383 -0.03024824 0.15376197 -0.08460944
0.0066580977 -0.09374006 0.092360765 0.10231917 -0.03253254 -0.0010455833 -0.0014917109 -0.098823234
0.09878574 0.041357413 -0.0010242892 0.102779716 0.023635942 0.03501285 0.007857907 -0.0031990854
-0.07135854 0.012038021 0.0015963109 0.025455493 -0.06527858 0.0014567837 0.06720085 0.0028448792
-0.052843038 0.024609895 0.123649664 -0.01741944 -0.004599861 0.050061848 0.052496646 0.030693164
0.002635662 0.066593476 0.092430435 -0.08172527 0.039053276 0.060427863 0.04536518 0.015970415
0.030577714 0.06283241 0.013035366 0.097646296 0.0009166486 0.021527138 0.06283306 0.0016892323
0.056814287 0.037713457 0.0029321157 -0.004971591 -0.05497938 0.006134201 0.02759711 -0.082430005
4.7382455e-05 -0.00012763169 -0.0008008025 0.027566377 0.074737355 -0.00324402 0.0064475406 0.05425605
-0.001982862 0.06305202 0.11513909 -0.0045198617 -0.11634452 -0.09773418 0.07478887 -0.06337127
0.100501165 0.010892695 -0.065054104 0.1012227 0.06141777 -0.0037440837 -0.00936622 -0.029062541
-0.04036841 0.008645387 -0.008680342 -0.05266045 -0.017118419 0.067465305 0.041996036 0.032249395
-0.10787058 -0.0823823 0.034920048 0.10640832 0.013675005 -0.12530196 0.038732443 -0.06948356
-0.11756879 0.077408955 0.09022556 -0.01929298 0.10614842 -0.054073993 0.056630284 -0.14254452
-0.016703703 -0.011588729 0.006788157 0.014577334 0.0047663185 -0.037276648 0.063625045 0.055767026
-0.027887484 0.0016750251 0.08771329 -0.0015983649 -0.10463433 0.055841994 0.015766187 0.02510153
0.004228187 -0.00084954716 -0.002833933 0.015474246 -0.011468552 -0.063340135 -0.009594681 0.01717475
-0.12605079 -0.0019143134 0.031412322 -0.06624014 0.056052517 0.025719784 0.032326035 0.013222157
-0.0009632795 0.018412406 -0.08562588 0.061675876 -0.0034091861 -0.0044114003 -0.030187804 -0.07170851
-0.041317914 0.059153605 -0.034762383 0.092394456 -0.016037464 -0.123528235 -0.0383227 -0.00503264
-0.052105285 -0.050165985 0.013609247 0.014909639 0.0015781805 -0.06460019 -0.089545816 -0.0007295901
00000000: c781 be3d cf8b e73d a771 1d3e 74a1 0b3e
00000010: 0a6a 133e acd1 15bd c850 183d 77f6 703d
00000020: c131 07be f531 593d f13a 70bd 00d3 ef3d
00000030: 23f7 9c3d 2ea0 df3d b649 043e b39f 023e
00000040: 8a35 24be 8a3a 06be f19e 0ebe 346d 023e
00000050: 183a f8bc b7e7 bc3d 0eeb 253d fdb7 fa3d
00000060: 55ea 5cbd 6b5b 153c 159b b5bd f889 d2bd
00000070: 8bf5 d6bd 91e6 6d3d 2547 1bbb 6d9e 43bb
00000080: 95dc 8f3d 23c9 ab3c 52b0 cf3c be87 30bd
00000090: a845 7b3d d8c5 db3d 3c86 cdbd c99d a1bc
000000a0: 3b94 eabd f2dd 48bd 1cda 253d ed2e 23be
000000b0: 40e9 02be 141e 8d3d 0998 013e 4e83 98bd
000000c0: 67fd a73d a44d 11be 6b71 24bd 212c bf3d
000000d0: 0152 6bbc 02f4 323d acd6 dbbd 410f 313d
000000e0: d9e3 0bbd f1a8 21bb 9cf7 833d 93dd 2c3d
000000f0: ea39 343d 040d 03bc 0e44 e7bc 12e5 853d
00000100: 9f1e 573a 8a1f abbd 1465 59bd 437a 4b3d
00000110: 7559 023d 611b f2bc a1a0 503d 8eee 863c
00000120: 64ba 533c 5436 8bb8 71c5 103d d031 05bb
00000130: 57d8 b8bd 3ab1 dabb 1dbb 3c3c 6b9b fabc
00000140: 272b 143d 797e 253e d3ea 643d c493 c43d
00000150: 2840 31bc 753b d7bb ceaa 34bd b472 153e
00000160: e295 c2bd 6db3 803d d75a ad3c 8c5f ce3d
00000170: b35e b0bb 28cb f7bc c773 1d3e b747 adbd
00000180: 2c2c da3b cafa bfbd a427 bd3d b78c d13d
00000190: d740 05bd f40b 89ba 8385 c3ba d663 cabd
000001a0: 2e50 ca3d 6466 293d 7141 86ba 2c7e d23d
000001b0: 2aa0 c13c a269 0f3d 73be 003c bfa7 51bb
000001c0: 6d24 92bd 1f3b 453c 4e3b d13a 0a88 d03c
000001d0: c7b0 85bd 8df1 be3a 99a0 893d 2771 3a3b
000001e0: f171 58bd b19a c93c 093c fd3d 37b3 8ebc
000001f0: 6eba 96bb a70d 4d3d b906 573d 3b70 fb3c
00000200: 12bb 2c3b 2962 883d 2b4c bd3d 945f a7bd
00000210: 54f6 1f3d 3583 773d d7d0 393d 63d4 823c
00000220: 1d7e fa3c 47ae 803d 4a92 553c c8fa c73d
00000230: 3f4b 703a ae59 b03c 9fae 803d 3b69 dd3a
00000240: 19b6 683d 6d79 1a3d bd28 403b bae8 a2bb
00000250: 0f32 61bd 6801 c93b 5613 e23c 10d1 a8bd
00000260: 86bc 4638 dfd4 05b9 f2ec 51ba e2d2 e13c
00000270: e60f 993d a099 54bb e445 d33b 983b 5e3d
00000280: e7f2 01bb 6b21 813d 0bce eb3d 591b 94bb
00000290: 0946 eebd dc28 c8bd e82a 993d ccc8 81bd
000002a0: 8ed3 cd3d 4677 323c 163b 85bd d94d cf3d
000002b0: 3391 7b3d 4d5f 75bb c674 19bc 9114 eebc
000002c0: 5959 25bd 62a5 0d3c fe37 0ebc 7cb2 57bd
000002d0: ed3b 8cbc 402b 8a3d 0904 2c3d f117 043d
000002e0: 40eb dcbd 0db8 a8bd 5308 0f3d 9bec d93d
000002f0: 210d 603c 284f 00be e9a5 1e3d 664d 8ebd
00000300: e8c7 f0bd 9688 9e3d 2ec8 b83d 500c 9ebc
00000310: 5864 d93d b17c 5dbd 28f5 673d 31f7 11be
00000320: 34d6 88bc a7de 3dbc 306f de3b c5d5 6e3c
00000330: c72e 9c3b 66af 18bd d94d 823d f76b 643d
00000340: 4b74 e4bc 848c db3a 06a3 b33d 3a80 d1ba
00000350: 864a d6bd 93ba 643d 1728 813c b9a1 cd3c
00000360: 9a8c 8a3b 25b4 5eba 82b9 39bb b187 7d3c
00000370: 98e6 3bbc 79b8 81bd 0233 1dbc 10b2 8c3c
00000380: 7513 01be b3e9 faba 35aa 003d e9a8 87bd
00000390: 5397 653d 4cb2 d23c 4e68 043d bfa1 583c
000003a0: 9884 7cba 9dd5 963c 9f5c afbd d89f 7c3d
000003b0: a76c 5fbb 828d 90bb 6a4c f7bc e9db 92bd
000003c0: f93c 29bd 0d4b 723d 0063 0ebd 4e39 bd3d
000003d0: 0061 83bc 5ffc fcbd 43f8 1cbd d8e8 a4bb
000003e0: 5a6c 55bd d97a 4dbd 52f9 5e3c 8f47 743c
000003f0: f3da ce3a 1b4d 84bd cc63 b7bd f641 3fba

bias f4 [256]
-0.09320153 0.07511543 0.018609062 -0.01125163 0.0019757813 -0.030811984 0.0076129436 0.095751286
0.049725667 0.0006312545 -0.09661198 -0.036871664 -0.04275747 -0.050837386 0.07504875 -0.024462584
0.023814233 -0.0022796327 -0.0015791707 -0.10039291 0.004750139 0.036456417 -0.061827105 -0.0039288714
0.00029236975 0.03694674 0.0054431465 -0.022266064 0.053370077 0.0037662871 -0.005990274 -0.025184432
0.0175772 0.038290117 0.075601086 0.013942394 0.00023841253 -0.09216371 -7.9814665e-05 -0.002030515
0.0030389098 0.007934324 0.0020176668 0.00084534724 0.059552915 -0.00041276467 0.039075367 0.044336997
-0.0047808476 -0.00032600816 -0.05900871 0.0058500497 -0.030597685 0.008440478 -0.013180441 0.046928372
-0.053397164 0.0026108902 0.00603281 0.012348725 -0.05803741 -0.043742795 0.079224944 -0.0037715465
-0.026638817 0.004364829 0.042951964 0.0023569865 -0.00040243665 0.0009040165 -0.0834683 0.020139614
-0.024796916 -0.056263156 -0.0057310998 -0.03248514 -0.007332556 -0.012794581 0.0035123504 -0.00044096058
0.06588429 -0.034489725 0.07370015 -0.0003790403 0.001383398 0.10861427 0.02046189 -0.058832664
0.020599958 0.05309564 0.01152026 0.031352222 0.005396857 0.052622464 -0.043390036 -0.10170882
0.0047955816 0.0013557974 -0.08020951 -0.063036196 0.05324978 -0.077725835 0.021529462 0.04601507
1.852419e-05 -0.017012326 -0.010977665 0.05928435 0.029864304 -0.07796287 -0.08010694 0.035695534
-0.062358685 -0.0028891459 -0.00043399373 0.073935054 -0.053323414 -0.0028274334 0.064083196 0.05182014
-0.104157954 -0.058092207 0.014176613 -0.014185095 0.048363667 -0.0005868689 0.089527264 -0.008616039
0.0010937693 -0.050651133 -0.07618819 -0.015520584 0.089077726 0.054446705 0.048451107 0.060846
-0.0901188 0.05147601 0.06337814 -0.0053509586 -0.0829179 -0.023551164 0.064649865 -0.024834784
-0.00844469 -0.054297976 -0.017351208 7.15479e-05 0.005168674 0.0313649 0.0001567977 -0.07609889
0.056317125 -0.0047881906 -0.0075380276 -0.06496516 0.0009765998 0.0056806197 -0.06958631 -0.05968933
0.043617573 0.011180223 -0.0009619777 -0.006561842 -0.014414403 0.001195635 -0.0021498867 0.0017715425
0.0045123533 0.030250024 0.014539958 -0.005086341 0.10209862 0.006330595 0.0005946708 0.0036658703
-0.10351321 -0.009158703 -0.009376519 0.007871581 0.10888364 -0.0055667236 0.07359677 0.0002039977
-0.023258366 -0.027532516 0.000966209 0.0020463194 -0.0008359992 0.027277071 0.09836009 0.0063387533
0.05523136 3.0016474e-06 -0.01535821 0.068408005 0.092388794 -0.033018906 -0.013229436 0.08582001
0.0091969585 0.08743175 0.04320149 0.092268646 -0.0015649975 0.005887101 -0.05508216 -0.0021954975
0.032702345 0.004507696 -0.00019303118 -0.031376883 0.06625595 -0.09100712 0.0011770136 0.08237367
3.9088587e-05 -0.019818436 -0.0017124469 -0.027851595 -0.026709694 0.06270886 0.006309134 0.020068202
-0.07874977 -0.00019482823 -0.017313581 -0.053290468 -0.021329867 0.064427726 -0.047975205 -0.011930172
-0.0781282 0.049637705 0.070600726 0.0016655953 0.0688254 -0.0015258758 -0.00042689717 0.08786443
0.07394069 0.073044464 0.061987925 0.06572554 0.021637702 -0.007480399 -0.027705941 -0.0018076457
-0.006326974 -0.04548059 0.015245131 0.09668708 -0.08126894 -0.05819014 0.028615583 -0.09093876
00000000: 72e0 bebd 1ed6 993d 0872 983c c258 38bc
00000010: 1c7c 013b 6a69 fcbc 0076 f93b 4019 c43d
00000020: 24ad 4b3d c67a 253a 80dc c5bd be06 17bd
00000030: 7522 2fbd dd3a 50bd 29b3 993d c265 c8bc
00000040: 1116 c33c e465 15bb 2dfc ceba cc9a cdbd
00000050: 0ea7 9b3b 5353 153d 6b3e 7dbd c3bd 80bb
00000060: 3449 9939 7755 173d 6c5c b23b 5267 b6bc
00000070: 959a 5a3d d0d3 763b 0f4a c4bb 954f cebc
00000080: 0ffe 8f3c 19d6 1c3d bed4 9a3d a46e 643c
00000090: 60fe 7939 54c0 bcbd 2c62 a7b8 6412 05bb
000000a0: 7228 473b f8fe 013c d53a 043b 4b9a 5d3a
000000b0: c2ed 733d 5668 d8b9 7e0d 203d b69a 353d
000000c0: a8a8 9cbb 13ec aab9 1eb3 71bd c6b1 bf3b
000000d0: ffa7 fabc ee49 0a3c c7f2 57bc f737 403d
000000e0: fcb6 5abd 781b 2b3b e1ae c53b 4f52 4a3c
000000f0: a3b8 6dbd a52b 33bd b040 a23d 0d2c 77bb
00000100: a639 dabc d706 8f3b 66ee 2f3d ac77 1a3b
00000110: 22fe d2b9 85fb 6c3a 6ef1 aabd d5fb a43c
00000120: e722 cbbc 3274 66bd f3cb bbbb 230f 05bd
00000130: f045 f0bb 5da0 51bc 762f 663b ba30 e7b9
00000140: 58ee 863d 1945 0dbd 1bf0 963d eeb9 c6b9
00000150: 2253 b53a 2971 de3d b29f a73c 85fa 70bd
00000160: 3ec1 a83c d07a 593d 79bf 3c3c 306b 003d
00000170: 1ed8 b03b a78a 573d c0b9 31bd b74c d0bd
00000180: 4124 9d3b 03b5 b13a e244 a4bd 1f19 81bd
00000190: 711c 5a3d b92e 9fbd 8e5e b03c 4c7a 3c3d
000001a0: 6564 9b37 6f5d 8bbc aadb 33bc 26d4 723d
000001b0: fca5 f43c ffaa 9fbd 1b0f a4bd 7b35 123d
000001c0: d26b 7fbd d357 3dbb a789 e3b9 436b 973d
000001d0: a769 5abd 764c 39bb 0d3e 833d 5b41 543d
000001e0: c450 d5bd 18f2 6dbd 0645 683c 9a68 68bc
000001f0: fb18 463d 1bd8 19ba 125a b73d 492a 0dbc
00000200: cf5c 8f3a 9077 4fbd 8e08 9cbd 0c4a 7ebc
00000210: 626e b63d 8203 5f3d ab74 463d a839 793d
00000220: 3590 b8bd 82d8 523d 66cc 813d 1857 afbb
00000230: dcd0 a9bd 5fee c0bc 2667 843d 5172 cbbc
00000240: 995b 0abc 8e67 5ebd 1f24 8ebc fc0b 9638
00000250: fb5d a93b 7b78 003d 106a 2439 bcd9 9bbd
00000260: c9ac 663d 41e6 9cbb 8f01 f7bb 740c 85bd
00000270: 4001 803a 7e24 ba3b 4483 8ebd cd7c 74bd
00000280: 57a8 323d 412d 373c 3b2d 7cba b804 d7bb
00000290: 632a 6cbc dab6 9c3a 1de5 0cbb 1a33 e83a
000002a0: 5ddc 933b e6ce f73c 0139 6e3c 52ab a6bb
000002b0: 1519 d13d e170 cf3b afe3 1b3a 193f 703b
000002c0: bcfe d3bd 620e 16bc f99f 19bc cef7 003c
000002d0: 63fe de3d 1069 b6bb e7b9 963d 37e8 5539
000002e0: 5488 bebc df8b e1bc 3049 7d3a 8b1b 063b
000002f0: f526 5bba 2a74 df3c 0471 c93d 51b5 cf3b
00000300: 473a 623d e96f 4936 00a1 7bbc 7f19 8c3d
00000310: 5636 bd3d d53e 07bd 47c0 58bc 67c2 af3d
00000320: d7ae 163c 6b0f b33d 0cf4 303d 58f7 bc3d
00000330: 9a20 cdba 95e8 c03b d59d 61bd 56e2 0fbb
00000340: e5f2 053d 4bb5 933b 6a68 4ab9 0c85 00bd
00000350: 33b1 873d f161 babd 0646 9a3a 87b3 a83d
00000360: 0df3 2338 465a a2bc 2f74 e0ba 0729 e4bc
00000370: 4ace dabc 816d 803d dabc ce3b 1266 a43c
00000380: 8f47 a1bd ce4a 4cb9 36d5 8dbc 1b47 5abd
00000390: f9bb aebc aff2 833d a681 44bd c576 43bc
000003a0: ad01 a0bd e850 4b3d 1d97 903d 1b50 da3a
000003b0: 55f4 8c3d e5ff c7ba 2bd1 dfb9 44f2 b33d
000003c0: 376e 973d 5698 953d 0de7 7d3d 1d9b 863d
000003d0: 8d41 b13c 231e f5bb 92f7 e2bc 86ee ecba
000003e0: 8152 cfbb db49 3abd b7c6 793c e003 c63d
000003f0: 5470 a6bd c958 6ebd 3a6b ea3c 1a3e babd

weight f4 [32, 256]
-0.035671815 0.0010498866 -0.051574327 0.00904816 -0.041810676 0.001917281 -0.042432763 0.0036949948
-0.009663422 0.040311027 -0.001041257 0.005948347 0.011331396 0.0013365459 -0.002556133 -0.0009316852
0.038015146 -0.0004977036 0.012003001 0.013474063 0.0037055083 -0.010569125 -0.0008796172 -0.009064541
-0.00068586774 0.0005687457 0.007968412 0.03179855 -0.0028152356 0.0024108433 -0.00089042605 -0.023948457
-0.0027704258 -0.008028514 -0.012947098 0.016850734 -0.0052336995 -0.00022084948 0.00012310132 0.045259364
-0.055605426 0.003193715 -0.0015709675 -0.042253494 -0.00049442274 -0.0024618378 -0.008029637 0.0067349183
0.02589471 -0.0032467267 0.0027129499 -0.007429687 -0.00600986 -0.028936438 0.0027191222 0.043276023
-0.03617537 -9.159875e-05 -0.0008704722 -0.033244092 -0.0414222 -0.00039090164 -0.0011602557 -0.029994112
-0.013321898 -0.00065982755 0.0070548286 -0.001497775 -0.00085270347 0.008839704 0.014502154 -0.010138754
0.013289897 -0.032614313 0.005171941 0.02583335 -0.00044464337 0.014620033 0.007596385 0.0006494455
0.011110981 0.005073036 -0.010303151 0.004235506 -0.012705107 -0.056095958 -6.318808e-06 0.0017796308
-0.0066182334 0.00462499 -0.031451114 0.014948341 -0.0075172316 -0.00024647146 -0.04287239 -0.035889387
0.0070720664 0.0070225233 -0.022255808 -0.000677692 -0.009524259 -0.016553495 0.0051658032 -0.00010874606
0.0023328997 -0.0060977037 0.007006981 -0.00021902061 -0.0017463991 0.007954926 -0.047142003 0.042265855
0.0075442432 -0.043530818 -0.018000698 0.0014332811 -0.026629658 0.037423547 -0.005706529 0.008652955
0.026730979 -0.012976367 -0.018392775 0.022956828 -0.004255385 -0.006131786 -0.029523226 -0.00021199306
0.0057935016 -0.0007157201 0.0023923216 0.008361236 -0.008088808 0.0035124316 0.030349268 -0.0010143961
0.0037420788 -0.004973941 -0.007897828 -0.001565293 0.031281307 0.003669707 0.01626687 -0.029960943
0.0025063907 0.0015096634 0.0025250108 -0.007974897 0.02565951 0.003113444 0.0023490284 0.022929858
0.029921072 -0.045161836 -0.00012039668 0.009686499 -0.009288339 -0.058734 -0.008818253 0.0008727721
-0.0027886855 0.012583787 -0.035148557 0.000847115 -0.04771751 0.0071023903 -0.0067813494 -0.03995236
-0.029820448 0.0039122826 -0.013895539 0.0038876764 0.021530109 0.00040764155 -0.0010139892 0.004026325
-0.0024244096 -0.028105652 -0.0009903227 0.006895017 0.009381969 0.0003749807 -0.035070993 -0.019517202
-0.00081678515 0.017020175 0.0014540676 -0.012029293 0.011235315 -0.0027730265 0.01284652 -0.00057681784
0.006788361 0.005038703 -0.038237974 0.002602179 0.0011011937 0.0100900205 -0.00873374 0.018267019
0.005104036 0.0015960946 0.0075073247 -0.04641948 -0.01623919 -0.058011662 0.03045443 0.008827121
-0.003564023 0.007952919 0.014088168 -0.0046790307 -0.0031535341 0.004600683 -0.0012856623 -0.015984297
-0.0009841988 0.0016566038 -0.00067742536 0.0126082245 0.00022993119 -0.01828953 -0.0343052 0.0071917456
-0.0015055935 0.0045969277 0.0014262447 -0.021703912 0.01221793 -0.030671593 -0.0002062753 0.006929742
-0.0067141815 0.007326614 -0.0010571631 -0.008690878 0.0021012856 -0.0033002656 -0.005911187 -0.0036547782
0.0015371863 0.018360626 0.005343469 0.0028401585 0.03810062 -0.013039877 -0.00011618866 -0.06211079
-0.010676261 0.026802983 0.0012177089 -0.0075392565 -0.016583253 0.015312926 0.00089202233 -0.0071675624
00000000: 9c1c 12bd 599c 893a 9a3f 53bd bc3e 143c
00000010: ac41 2bbd 464d fb3a facd 2dbd ba27 723b
00000020: 5453 1ebc 2d1d 253d ca7a 88ba 5aea c23b
00000030: 52a7 393c 0a2f af3a cc84 27bb 563c 74ba
00000040: c5b5 1b3d 5378 02ba 3ca8 443c 51c2 5c3c
00000050: 1dd8 723b 202a 2dbc 1c96 66ba 7183 14bc
00000060: cecb 33ba e117 153a f18d 023c 323f 023d
00000070: d17f 38bb 3dff 1d3b 7b6b 69ba 8e2f c4bc
00000080: 0890 35bb 078a 03bc 1120 54bc 8d0a 8a3c
00000090: 747f abbb d593 67b9 c214 0139 e261 393d
000000a0: 84c2 63bd a54d 513b ece8 cdba 0012 2dbd
000000b0: 269c 01ba c956 21bb bd8e 03bc 97b0 dc3b
000000c0: 2521 d43c 09c7 54bb bfcb 313b bb74 f3bb
000000d0: 5cee c4bb 1c0c edbc 4d33 323b 3342 313d
000000e0: a02c 14bd b418 c0b8 6730 64ba f52a 08bd
000000f0: 53aa 29bd eef1 ccb9 b913 98ba 36b6 f5bc
00000100: 1744 5abc 47f8 2cba 312c e73b fd50 c4ba
00000110: f687 5fba 68d4 103c 719a 6d3c 041d 26bc
00000120: debd 593c 9696 05bd 6379 a93b 76a0 d33c
00000130: 061f e9b9 dd88 6f3c 19eb f83b 8d3f 2a3a
00000140: d50a 363c b63b a63b 8cce 28bc 00ca 8a3b
00000150: 1529 50bc e0c4 65bd 2606 d4b6 8042 e93a
00000160: c4dd d8bb 3a8d 973b e2d2 00bd e3e9 743c
00000170: 1c53 f6bb d738 81b9 f69a 2fbd c000 13bd
00000180: cbbc e73b 321d e63b d051 b6bc 24a7 31ba
00000190: a30b 1cbc 329b 87bc e645 a93b 990e e4b8
000001a0: 90e3 183b 3fcf c7bb d19a e53b e6a8 65b9
000001b0: 6ee7 e4ba 6155 023c f917 41bd f61e 2d3d
000001c0: b335 f73b 5f4d 32bd 3376 93bc efdc bb3a
000001d0: 7126 dabc 6f49 193d d6fd babb 20c5 0d3c
000001e0: edfa da3c d49a 54bc 72ac 96bc f50f bc3c
000001f0: c270 8bbb 26ed c8bb b1da f1bc 744a 5eb9
00000200: 6ad7 bd3b 2a9f 3bba 7fc8 1c3b 91fd 083c
00000210: eb86 04bc d330 663b 079f f83c 7cf5 84ba
00000220: aa3d 753b 71fc a2bb e465 01bc 842a cdba
00000230: d420 003d 787f 703b 1942 853c a770 f5bc
00000240: 4242 243b e6df c53a a77a 253b 24a9 02bc
00000250: e533 d23c ec0a 4c3b 28f2 193b 66d7 bb3c
00000260: 091d f53c 9efb 38bd 7a7d fcb8 1fb4 1e3c
00000270: 1e2e 18bc 1093 70bd 6f7a 10bc bfca 643a
00000280: 61c2 36bb 3a2c 4e3c eff7 0fbd ed10 5e3a
00000290: 7073 43bd 2bbb e83b 1536 debb 16a5 23bd
000002a0: 034a f4bc 9b32 803b 1daa 63bc 63c8 7e3b
000002b0: e95f b03c b9b8 d539 d5e7 84ba 43ef 833b
000002c0: d8e2 1ebb d33d e6bc b7cd 81ba 98ef e13b
000002d0: d5b6 193c 0f99 c439 9aa6 0fbd 8ae2 9fbc
000002e0: 861d 56ba e56d 8b3c 6a96 be3a 8316 45bc
000002f0: 5414 383c aabb 35bb 367a 523c 9735 17ba
00000300: e670 de3b b41b a53b 6c9f 1cbd 5289 2a3b
00000310: ee55 903a 9d50 253c f617 0fbc b7a4 953c
00000320: c23f a73b 0c34 d13a 0100 f63b 5a22 3ebd
00000330: 0d08 85bc a39d 6dbd 927b f93c a19f 103c
00000340: 6292 69bb f64c 023c 0fd2 663c 8e52 99bb
00000350: 86ab 4ebb 54c1 963b ab83 a8ba 80f1 82bc
00000360: 3b00 81ba 6622 d93a 3f95 31ba ba92 4e3c
00000370: af19 7139 edd3 95bc 9c83 0cbd bca8 eb3b
00000380: 5657 c5ba d3a1 963b d5f0 ba3a 67cc b1bc
00000390: b62d 483c fe42 fbbc 9b4b 58b9 e412 e33b
000003a0: a302 dcbb 1814 f03b 8290 8aba 2f64 0ebc
000003b0: b9b5 093b 4549 58bb a1b2 c1bb 0185 6fbb
000003c0: 6a7b c93a 0669 963c 4418 af3b f421 3a3b
000003d0: 650f 1c3d 35a5 55bc 50aa f3b8 e267 7ebd
000003e0: 7ceb 2ebc ee91 db3c 889b 9f3a de0b f7bb
000003f0: 9ad9 87bc 11e3 7a3c 9bd6 693a dfdd eabb

bias f4 [32]
-0.010554304 0.010912265 0.023723548 -0.010287588 -0.0013238769 0.00085953006 0.0071767997 0.001277617
-0.014860652 0.007233729 -0.031220319 -0.008132785 0.040845294 0.0056941495 0.006454312 0.024667835
-0.03812188 0.0008014437 0.0007980826 -0.0008630306 0.015169877 0.005100339 -0.022540275 -0.0036054333
-0.0038563008 0.0031783613 -0.0017435119 -0.015978783 0.032123663 -0.0025338712 -0.021850316 0.03628955
00000000: f6eb 2cbc 5bc9 323c e357 c23c 468d 28bc
00000010: f085 adba 1652 613a 5c2b eb3b b675 a73a
00000020: 187a 73bc eb08 ed3b c1c1 ffbc 5f3f 05bc
00000030: 654d 273d fd95 ba3b b17e d33b 3314 ca3c
00000040: b025 1cbd fa17 523a 6b36 513a 013d 62ba
00000050: 138b 783c bf20 a73b 62a6 b8bc 2249 6cbb
00000060: feb9 7cbb 0e4c 503b 8d86 e4ba f0e5 82bc
00000070: 1a94 033d 4e0f 26bb 6fff b2bc 5aa4 143d

weight f4 [1, 32]
0.08837718 -0.10929126 -0.14249967 -0.06558261 0.008227532 0.026229002 0.022784276 0.0389875
-0.09522704 -0.026913812 -0.13753694 0.13197406 -0.056695454 0.0060576946 0.12909396 -0.039425556
0.027066788 -0.07002922 0.000835574 -0.002732317 -0.038259193 -0.15516071 -0.13206372 -0.099360734
0.061972987 0.016757648 0.08438231 -0.020432707 -0.046557482 0.085893564 -0.09691907 -0.08702929
00000000: 18ff b43d 19d4 dfbd 6feb 11be 2d50 86bd
00000010: c5cc 063c 34de d63c 17a6 ba3c 5bb1 1f3d
00000020: 6506 c3bd 5b7a dcbc 7cd6 0cbe 3524 073e
00000030: 7e39 68bd a07f c63b 3531 043e b17c 21bd
00000040: 2bbb dd3c 7b6b 8fbd 6c0a 5b3a ac10 33bb
00000050: acb5 1cbd 73e2 1ebe b63b 07be a47d cbbd
00000060: 63d7 7d3d 5647 893c a2d0 ac3d 7e62 a7bc
00000070: 0fb3 3ebd f7e8 af3d 817d c6bd 6a3c b2bd
