ckpt/real_only_GCN-best.pt (torch, 96866 bytes, 11 tensors)

bias f4 [64]
000000 fc ce da 3c fa a9 1f 3c 07 62 e2 3c 2e bf da 3c
       0.026710026 0.009745115 0.027634634 0.02670249
000010 91 1d ea 3c 4d c7 ed 3c ab 0c a5 bc 58 30 e7 3c
       0.028578551 0.029025698 -0.020147642 0.028221294
000020 70 01 14 bd dd d4 e4 3c ec e2 ed 3c c8 ff aa 3c
       -0.036134183 0.027933532 0.029038869 0.02087392
000030 b8 c2 e8 3c 32 9f e4 bc 36 51 2e 3c 6d 2a 1b 3c
       0.028413162 -0.027907941 0.010639479 0.009470564
000040 1a cb e5 3c fb ad 5e 3c 2e 9e 80 3c 13 0c af bc
       0.028050948 0.013591285 0.015700426 -0.021368062
000050 40 9c e5 3c be ae dd 3c 1f ce e9 3c ca 6a 6d bc
       0.028028607 0.027060863 0.028540669 -0.0144907925
000060 c3 2a dd 3c b9 6c 77 3c 4f e6 ed 3c 21 de fe 3b
       0.02699793 0.015101605 0.029040484 0.0077779447
000070 dc 19 63 3c f6 86 a1 3c 20 58 dd bc fd 0b 2c bc
       0.013861146 0.019717675 -0.02701956 -0.010500905
000080 02 30 21 bd f0 b0 e6 3c 26 96 a6 bc 11 91 85 bc
       -0.039352424 0.028160542 -0.020335268 -0.016304525
000090 aa 33 d6 ba b8 d7 ee 3c 4f 6b 8c 3c 9b c5 44 bc
       -0.0016342301 0.029155597 0.017141012 -0.012010003
0000a0 63 76 5d 3c 84 4d 8e bc cf fc c7 3a 50 6e d4 bc
       0.013516995 -0.017370947 0.0015257838 -0.025931507
0000b0 2b 80 b6 bc b1 b6 08 bd f9 88 8b bc 25 7b 33 bd
       -0.022277912 -0.033377353 -0.017033087 -0.04381861
0000c0 df 88 c6 bb 99 5f a8 3c 4e bd 0b bd 7f 9e 5c 3c
       -0.006058797 0.020553397 -0.034116082 0.013465523
0000d0 ef 12 90 bc 14 63 c6 3c 67 11 ea 3c d9 28 e8 bc
       -0.017587153 0.024217166 0.028572751 -0.02833979
0000e0 28 ff c9 3c 87 58 9f bc b9 08 61 3c ea 91 87 3c
       0.0246578 -0.019451393 0.01373499 0.01654907
0000f0 fe c0 a8 bc 09 fe 66 3c c4 94 6e 3c 92 4b dd bb
       -0.020599838 0.014098653 0.014561836 -0.0067533934

weight f4 [64, 1]
000000 72 72 42 3e 8b a0 c0 bc 66 c9 1f 3d 9f e7 c4 3d
       0.1898897 -0.023514053 0.039010428 0.09614491
000010 20 37 5c 3e e2 06 a2 3e 24 92 2a be ef 3e 91 bd
       0.21505404 0.31645876 -0.1665731 -0.07092082
000020 97 f6 a5 3d 1c 4b 8d 3e 2e ab 93 3e d1 a9 91 3e
       0.08103674 0.27596366 0.28841537 0.28449872
000030 b3 2b b4 3d 6c ee 66 be 2d 1b 16 3d 84 f4 01 be
       0.087973975 -0.22551888 0.03664701 -0.12690932
000040 f8 9d 67 be 5c 33 8e 3e 6b ff 71 3e bf 77 81 be
       -0.22618854 0.2777356 0.2363259 -0.25286672
000050 53 c0 a7 3d 1b cf a9 bc 16 32 a9 bc 7f df cb bd
       0.0819098 -0.020728638 -0.020653766 -0.09954738
000060 ef e3 10 3e fb dc f1 bd 6d b6 0e 3e 44 7a 1f 3e
       0.1414945 -0.11809727 0.13936777 0.15573984
000070 25 db 5e 3e 57 a4 05 3e 29 ba 79 be 75 f3 0b be
       0.21763285 0.13050972 -0.2438742 -0.1366709
000080 c3 88 dd 3d 80 0c ba 3d e9 50 28 be 90 2f df bd
       0.10817101 0.090844154 -0.16437115 -0.10897744
000090 2e 55 8c 3e 4c f0 6d 3e 0c 39 af bd c5 70 6e bd
       0.27408737 0.23236197 -0.08555803 -0.058213014
0000a0 d8 ee 62 be df b8 aa bc 7b 93 25 be c3 f9 36 be
       -0.22161424 -0.020840107 -0.1616954 -0.17868714
0000b0 d9 27 0b bd 1a eb 2c 3c 09 8f 9e bd 0a 97 06 3e
       -0.03397355 0.010554099 -0.077421255 0.13143554
0000c0 ae 03 07 be 27 bf 95 3e bf 4a 2d 3e 3b 84 42 be
       -0.13184997 0.292474 0.16923045 -0.18995754
0000d0 fb dc 6d bd 08 89 1a 3d 5c 75 94 3d 26 19 2d 3d
       -0.05807207 0.03772834 0.07248947 0.04226031
0000e0 1a 38 10 3e 51 3e 5c bb 10 a2 b7 bd 4a ff 20 3e
       0.14083901 -0.003360648 -0.08966458 0.15722385
0000f0 ba 3b 73 be fc 93 01 be d7 e8 43 bd f2 de ad bd
       -0.23753253 -0.12654108 -0.047829475 -0.08489789

bias f4 [64]
000000 1a 9a eb 3b 36 90 f8 3c 13 96 25 3c 8f 76 f1 3c
       0.007190001 0.030342203 0.010106581 0.029475478
000010 c7 28 34 bc 13 fe c8 bc cd 10 9e bc cc 3a dd bc
       -0.01099605 -0.024535215 -0.01929512 -0.027005576
000020 56 a1 91 3c f9 71 d9 bc a3 ad 9a 3c 25 bb d3 bc
       0.017777126 -0.026543604 0.018881625 -0.025846073
000030 cc 71 8a bc 13 99 6e 3c fa 39 99 bb 29 1b ef 3c
       -0.016899966 0.014562863 -0.004676101 0.029187756
000040 09 01 31 3c fe eb 95 3c 6d ac 29 3c 95 49 a2 3c
       0.010803469 0.018301006 0.010356051 0.019810477
000050 12 7b f0 bc 52 ad d0 3c 3b 51 94 3c 24 91 df 3a
       -0.02935556 0.02547327 0.01810514 0.0017056805
000060 bc 6e b0 bc 03 a0 f1 bc d2 ce 9a bc 58 ca e0 3c
       -0.021537177 -0.029495245 -0.018897448 0.027440235
000070 c8 b3 32 bd f4 1e d8 bb c3 90 ef 3c 25 c2 a1 3c
       -0.043628484 -0.006595487 0.029243832 0.019745896
000080 8b 62 f7 3c b9 a9 9e 3c ca 6e 86 3c 29 51 5c bc
       0.030198356 0.01936804 0.01641025 -0.013447084
000090 ba 38 b9 3c 19 55 96 bc 67 7a ad bc 96 6f f3 3b
       0.022610057 -0.018351125 -0.02117653 0.0074290736
0000a0 14 00 d6 bb 8e 7e d4 bc b5 15 08 3c ae 8d a3 bc
       -0.006530771 -0.025939252 0.008305957 -0.01996502
0000b0 51 0e 3b bc f4 15 d3 bc 80 f9 b8 3c 2a 90 14 3c
       -0.0114169875 -0.025767304 0.022579908 0.0090675745
0000c0 e6 3e df 3c 15 66 a7 bc 35 9a 84 3c ec b5 e2 3c
       0.027251672 -0.020434419 0.016186813 0.027674638
0000d0 cd 85 f3 3c 34 9d 8d 3c 8c ce fc bb 07 84 f0 3c
       0.029726887 0.017286874 -0.007715052 0.02935983
0000e0 95 32 43 3c ff eb fb 3c a2 a3 8d 3b 48 d5 e1 3b
       0.011913915 0.03075218 0.004322485 0.00689188
0000f0 8f 46 c7 3c 85 d0 9f 3c 81 51 cb bc 93 bb a7 3c
       0.024325637 0.01950861 -0.024819138 0.020475185

weight f4 [64, 64]
000000 03 1e 0c 3d 05 3b db 3d 49 d7 0f 3e 7c d3 f6 3d
       0.03420831 0.107046165 0.14046969 0.12052056
000010 98 cb 6b bd ba c0 c1 3a 2c b1 93 bd 20 91 5e 38
       -0.05756721 0.0014782168 -0.07211527 5.3064083e-05
000020 c4 5e e8 3d 38 cd 32 3d 02 13 0a be 5e 6a 0e bd
       0.113462 0.043652743 -0.13483813 -0.03476941
000030 9e 51 f0 bd 09 0e 28 3d d3 80 51 3a 41 63 bf bd
       -0.11734317 0.04102901 0.00079919136 -0.09345103
000040 f9 07 5d bc 04 fb 5d 3c 7b 90 89 3a a3 7f 0c 3e
       -0.01349067 0.013548616 0.0010495329 0.13720565
000050 13 32 51 bb 5f f4 55 3c cb 05 34 bc dd b8 d5 b8
       -0.0031920716 0.013058751 -0.010987709 -0.00010191065
000060 30 39 34 bb 6e 9a f6 3d ea c3 f8 3c 99 84 7a bd
       -0.0027499907 0.12041174 0.030366857 -0.06116161
000070 fe 66 02 be 00 99 0f be 98 e0 a9 bc f3 65 03 ba
       -0.12734601 -0.14023209 -0.020736977 -0.0005012445
000080 d0 65 0c 3e fe 9e 2c 39 e7 2f d5 3c 42 8a 45 3d
       0.13710713 0.00016462427 0.026023818 0.048227556
000090 59 c9 d0 bd 09 59 ea bd ca 03 c3 3c 42 a4 23 3d
       -0.10194654 -0.11442763 0.023805518 0.03995157
0000a0 16 5f 22 bd b6 d8 99 ba 1e 2e 15 be 63 f9 6b b6
       -0.039641462 -0.0011737559 -0.14568374 -3.516289e-06
0000b0 6e b6 68 3b 66 cb 7d 38 dd 73 8f 3a 12 c0 ef 3c
       0.0035509127 6.050933e-05 0.0010944564 0.029266391
0000c0 21 34 e7 bb bd 13 c3 3d 5c 13 f9 bd 4a 50 78 bd
       -0.007055775 0.09525249 -0.12161896 -0.060623445
0000d0 e2 00 ec bd ed 0f 05 be e6 a2 c3 3d f1 64 92 bb
       -0.11523606 -0.12994356 0.09552555 -0.0044675996
0000e0 0d cc d7 bd 0b e0 1f 39 cf 9f ca bd 7d aa 19 bb
       -0.105369665 0.00015246884 -0.09893762 -0.0023447566
0000f0 88 89 2b 3d 31 b9 de b9 ff 13 4a 3d ba 91 10 39
       0.041879207 -0.00042481118 0.049335476 0.00013787198
000100 de 30 0f be 6d 77 11 bc aa 4d f3 3d bf 8d a4 bc
       -0.13983485 -0.008878571 0.118800476 -0.020087121
000110 63 f9 47 3d b1 30 67 3d cb 4f f0 bb 21 50 34 3c
       0.048821818 0.05644292 -0.007333731 0.011005432
000120 55 3b 22 be d8 0c 42 3e 4e fc f8 3d 63 9f 62 3d
       -0.15842946 0.18950212 0.12157498 0.055327784
000130 bf 53 83 3d 31 a1 e6 bd 4c 9b 02 bd df b3 ba bc
       0.06412458 -0.112612136 -0.031886384 -0.022790847
000140 9d 75 83 3c 6e 0f b2 bd 69 57 52 3d 2a 29 82 bd
       0.016047293 -0.08694349 0.051352892 -0.06355508
000150 ff 91 21 3e e2 4e 04 be 5f c7 4a bc 20 00 bc 3d
       0.1577835 -0.12920716 -0.012376635 0.09179711
000160 21 df 08 be ff 77 9a bc 58 d3 fc 3d a2 fe e4 3d
       -0.13366367 -0.018856047 0.12344998 0.1118138
000170 66 3a 5b 3d 8f 26 e4 3d c4 ef ce bd 24 e2 fc 3d
       0.05352249 0.11140167 -0.101043254 0.123478204
000180 c3 2f 10 3d c1 99 17 3e ec 7e 65 3c bf 6e f1 bc
       0.0352018 0.14804746 0.014007311 -0.029471753
000190 70 d8 f4 3d 86 de 65 3e 89 94 1a 3e 67 4b e8 bd
       0.11955345 0.22448167 0.15095724 -0.11342507
0001a0 25 c2 44 bc aa 74 b6 bd 8a a8 9c 3d e8 c3 d5 3d
       -0.012009178 -0.08908971 0.07649334 0.10437757
0001b0 56 d3 ad bd 6d 3e 26 3c 03 ba bf 3d 5c 79 28 3e
       -0.08487575 0.010146719 0.09361651 0.16452545
0001c0 6f bf c0 bd e2 4b 2f 3e 3d e2 c6 bb f1 b4 eb bd
       -0.09411513 0.17118791 -0.00606945 -0.11509121
0001d0 d7 7b 1f 3c f1 9c ab 3d d4 81 06 3e 97 9d c2 bd
       0.009734116 0.083795436 0.13135463 -0.09502714
0001e0 4f 3b fb bd 18 8f a7 bd e0 1d 8c 3d f1 e6 1d be
       -0.122671716 -0.0818159 0.06841636 -0.15420128
0001f0 dc 1c c3 bc 80 1f ea bc 31 f2 19 3d 73 99 13 3c
       -0.023817472 -0.028579473 0.037584487 0.009008753
000200 96 1c 44 bd 68 ca 6e ba 18 90 08 3e e3 3c 6e 3a
       -0.047878824 -0.00091091404 0.13336217 0.00090880523
000210 24 f7 3c bd d6 2e ad 3b db c8 07 be 71 93 99 bd
       -0.04613413 0.0052851243 -0.13260214 -0.07498825
000220 e0 0c 27 3a f8 47 93 bd 99 7d f0 3d 8d c6 44 3b
       0.0006372463 -0.07191461 0.11742706 0.0030025572
000230 5b 25 d2 3d a8 74 fb ba 7d b5 00 3b fe 93 8f 3b
       0.10261031 -0.0019184547 0.0019639425 0.0043816557
000240 58 76 27 bc 83 81 93 bc 3a 0f 16 be 31 38 c9 3d
       -0.010221086 -0.018006092 -0.14654246 0.09825171
000250 f6 2e 05 3e 0f 98 17 be 5d 21 7a bc e7 52 ca bd
       0.13006195 -0.148041 -0.0152667435 -0.098790936
000260 2a 90 eb bc 3a 95 cc 3d 17 9a 5a 3d 45 51 3e 3b
       -0.028755266 0.099894 0.053369608 0.002904014
000270 b2 1f 04 3d 74 5c 33 3c 42 51 64 3d 72 85 de bd
       0.03225679 0.0109473355 0.055741556 -0.108652964
000280 fc 39 3a 3c 64 58 0e be 03 4e a0 bd 66 b2 b8 bc
       0.011366364 -0.13900906 -0.078273796 -0.022546005
000290 85 8b 93 3b 3e ed 0d be e9 3f 61 b9 a1 83 ab ba
       0.004502716 -0.13860032 -0.0002148148 -0.0013085493
0002a0 48 b5 db bc 47 78 6c 3c 7d fb fc 3d d9 ec 66 3a
       -0.02681984 0.014432973 0.12352655 0.0008809097
0002b0 cc f0 58 bd e2 2b 01 be 40 25 bf bd ef 9b 6c bd
       -0.052964017 -0.12614396 -0.09333277 -0.057765897
0002c0 15 fb c2 bd 9b 85 de bc 2c e5 64 3d cf ee 50 3c
       -0.09520546 -0.027163317 0.055882618 0.012752249
0002d0 3c 65 04 3e d5 4f 18 3e 64 b4 a5 bc da 19 d9 bc
       0.12929243 0.14874204 -0.020227619 -0.026501585
0002e0 df 28 2f 3b 98 92 db bd 15 63 62 3d 07 00 23 3b
       0.0026727242 -0.1072132 0.055270273 0.0024871842
0002f0 a4 02 ed bd e9 aa c9 bd 58 a4 ad bd 3a c1 eb 3b
       -0.11572769 -0.09847052 -0.08478612 0.0071946653
000300 81 19 fe 3d 28 3c d8 3d 12 7e d0 bc 0c 8f a9 bd
       0.12407208 0.10558349 -0.02545074 -0.08279237
000310 db ec 78 bd f7 f0 e1 bd cc 7e 7a bb aa 78 04 be
       -0.060772758 -0.110322885 -0.003822255 -0.12936655
000320 18 87 63 3d d0 86 25 be 62 d0 c7 bd a1 51 ea 3d
       0.055548757 -0.16164708 -0.09756543 0.11441351
000330 a4 5d e9 bd 8d b9 4f 3c 56 cf c5 3d 67 f2 17 3e
       -0.11394814 0.012678516 0.09658687 0.14838563
000340 79 4a 53 3d 03 75 da bc 98 96 be 3d 0c 77 c9 ba
       0.051584695 -0.026667124 0.09306067 -0.0015370562
000350 34 1a 05 bd d7 f9 07 bc de e1 8f bb 9b b8 a9 3d
       -0.032495692 -0.008299313 -0.004390939 0.08287164
000360 c3 60 72 3d 85 8d 37 3d 65 8c e6 3c 94 bc 69 3c
       0.05917431 0.044812698 0.028143117 0.014266152
000370 75 85 87 3d b7 4d fe 3c 82 e2 0e be 46 71 94 3b
       0.06617252 0.031042917 -0.13953593 0.004530105
000380 8c 45 49 bd 9f 98 95 bd ee d0 fd 3c 91 f9 d4 3b
       -0.04913859 -0.07304501 0.030983415 0.006499477
000390 0a c7 4b 3d bc 77 89 bd 9c 51 25 3d 84 3a 0d 3e
       0.049750365 -0.06712291 0.040361032 0.13791853
0003a0 d9 f8 39 3b a5 12 fc 3c 62 e6 fb bd 09 dd 8d 3d
       0.0028377085 0.03077061 -0.122998014 0.06926925
0003b0 50 e1 a7 3c 0d 83 15 3d 34 bd 09 3d 0d 5c a9 bc
       0.02049318 0.036501933 0.033627704 -0.020673776
0003c0 01 50 9b 3b aa 33 2e 3e e9 26 df 3d eb 60 b6 bd
       0.004739762 0.17011896 0.108960934 -0.089052044
0003d0 16 7b dc 3d 2d d0 17 3e 96 b8 4d 3c 7c b2 d7 bd
       0.10765664 0.14825507 0.012556216 -0.1053209
0003e0 34 d6 f4 3c 00 11 c6 3a 2e e3 bc 3d 5e b9 23 be
       0.029887296 0.0015111268 0.092230186 -0.1598868
0003f0 b4 53 6e 3c 0c ff c9 3b 87 30 48 3b b3 5e b0 3d
       0.014546324 0.006164437 0.0030546503 0.086118124

bias f4 [20]
000000 7a 3f 02 3d d5 89 a9 3c 22 70 e1 ba 57 9d f8 3c
       0.031798817 0.020695606 -0.0017199556 0.030348463
000010 61 5c f5 3c 08 6a 0c 3b 22 35 fd bc bc c2 c7 bc
       0.029951276 0.0021425504 -0.030909125 -0.024384849
000020 10 40 fe 3c ad a8 6c 3c a7 71 a3 bc 2c cc c7 3c
       0.031036407 0.014444512 -0.019951655 0.024389349
000030 0d 78 21 3d 16 72 c6 3c 9e 92 dd bc 48 aa fa bc
       0.03942113 0.024224322 -0.027047452 -0.030598775
000040 2d da d6 bc 06 b2 a8 3c 2a 4f ce bc 38 e4 ab 3c
       -0.026227081 0.0205927 -0.025184233 0.020982847

weight f4 [20, 64]
000000 49 71 32 3e 36 6a a1 3d 0a 93 81 bb 25 d3 12 3e
       0.17426027 0.07881586 -0.003954296 0.14338358
000010 de e9 25 3d 18 82 9b bc 1a 02 22 bc bb f2 d5 bd
       0.040506236 -0.018982932 -0.009888196 -0.10446688
000020 35 e6 74 bc d4 74 33 be aa e3 52 bc ab 72 42 be
       -0.014947464 -0.17525035 -0.012871662 -0.18989055
000030 24 3d 14 3c d7 7a ef 3c 8a 2c 57 3d 50 98 09 be
       0.00904778 0.02923338 0.05253271 -0.13437009
000040 28 89 c6 bc 8e f1 32 bc 0b 0c 02 be 38 94 18 3e
       -0.024235323 -0.010921849 -0.12699907 0.14900291
000050 07 c2 48 be 59 d3 58 3e a5 36 ab bc 6f 94 b5 bd
       -0.19605266 0.21174373 -0.02090008 -0.08866202
000060 8d 8c 41 be 26 75 3b be 19 72 0b bd 44 55 45 3e
       -0.18901272 -0.18306407 -0.03404436 0.19270808
000070 02 c1 ab 3d 0e 25 0d be d8 09 2e 3e a0 37 24 3e
       0.08386423 -0.13783666 0.16995943 0.16036844
000080 9b 6f 0d 3e 67 5d 4b 3e b7 c1 3a 3e 81 d0 64 3d
       0.13812105 0.19859849 0.18237959 0.055862907
000090 8b f9 02 3e f4 5b b1 bd 32 77 91 bc ca a5 b7 bd
       0.12790506 -0.08660117 -0.017757032 -0.08967169
0000a0 db 72 8f bc e5 7a 11 be e2 b2 f9 3d 43 89 41 bd
       -0.017510822 -0.14207037 0.12192322 -0.047250044
0000b0 4b 66 bd 3c 8a 68 3a 3e 3b ac fc 3c c6 1d 8f bc
       0.023120066 0.18203941 0.030843845 -0.017470252
0000c0 4b a7 8b 3e 66 38 47 be 97 91 68 3e 17 20 4a be
       0.27276072 -0.19455108 0.22711788 -0.19738804
0000d0 e5 ff 89 3e 1f c5 96 bb a8 2c c4 bd aa b6 83 bd
       0.26953045 -0.0046011354 -0.0957883 -0.06431325
0000e0 71 c3 90 bd 81 62 3f 3e fd 17 83 3e 86 0f cd 3d
       -0.070685275 0.1868992 0.2560424 0.100127265
0000f0 1f 32 07 3e f2 48 8e 3e 56 25 2a be 9d e4 0e 3e
       0.13202713 0.27790028 -0.16615805 0.13954397
000100 e1 bb 74 ba 8a 25 e7 3d b2 62 a5 3c 4a e1 26 3a
       -0.00093358575 0.11286457 0.020188663 0.0006365968
000110 6d a1 03 3e 91 46 3b bd f5 84 0c be 28 a7 ff bd
       0.12854548 -0.045721594 -0.13722594 -0.124830544
000120 02 2b 02 3e 65 5f 29 ba 57 c5 19 be a9 31 06 3d
       0.12711719 -0.0006461053 -0.15016685 0.032762203
000130 2e 70 00 ba 73 12 e0 bd ab aa 29 3e 49 93 c8 3d
       -0.00048995286 -0.10941019 0.16569011 0.097937174
000140 e5 f2 23 3e 7d 9c 16 3a 85 6b ef bd 99 2c 22 be
       0.16010626 0.00057453645 -0.116904296 -0.15837325
000150 76 0c 76 ba f9 38 08 be cf f8 c2 3d 37 9f 32 be
       -0.0009386012 -0.13302983 0.09520113 -0.17443548
000160 58 6e fd bd 74 b1 e4 b9 8b e1 3e 3c 61 f3 30 bb
       -0.12374562 -0.00043619762 0.011650453 -0.0027000534
000170 a5 5a cb bc 50 c0 92 bd 94 cd 96 bc b3 6d e2 b9
       -0.024823496 -0.07165587 -0.018408574 -0.0004318781
000180 ff ba 3a be 94 0d 0e 3a 64 7d 46 bb a3 c8 f4 3b
       -0.18235396 0.00054188934 -0.003028714 0.007470207
000190 a0 ec 09 3e c3 d5 21 be 17 3b 08 3d 9f b5 1e 3d
       0.13469172 -0.158042 0.033259477 0.038747426
0001a0 f2 c3 2f 3d 41 f8 94 bc 34 ad ba 3d 7e e6 fb bd
       0.042911477 -0.018184783 0.09115067 -0.12299822
0001b0 58 f9 3a bd 0d ff bf ba dc a6 16 3a 07 f8 49 be
       -0.04564795 -0.0014648155 0.000574691 -0.19723521
0001c0 38 bf a7 3d 79 01 c0 3d 52 97 30 be b1 f2 67 3c
       0.08190769 0.09375281 -0.17245224 0.014156983
0001d0 30 d3 26 be 5a 7c 05 b9 e0 4f af ba 66 6c 2a 3e
       -0.16291499 -0.00012730193 -0.0013375245 0.16642913
0001e0 6c e1 fa 3d 41 e1 df 3d b8 86 3e 3d 22 16 38 be
       0.12250027 0.10931636 0.046515197 -0.17977193
0001f0 c5 ef d4 bc 36 ff 3c 3e 5e 20 ae ba 04 1f c8 bc
       -0.025993237 0.1845673 -0.0013284793 -0.024428852
000200 3c ba 11 bd 08 2e c5 3d 8d 79 d2 3d 58 d2 39 3c
       -0.035577998 0.096279204 0.1027709 0.011341654
000210 50 24 67 3d 42 28 05 3e 54 c8 ea 3d cc d0 96 3d
       0.056431115 0.13003638 0.11463991 0.073640436
000220 4c bd ef 3d d6 42 18 3d 8b e7 7a 3c 0c f6 48 be
       0.117060274 0.037173115 0.015313993 -0.1962511
000230 84 93 11 bc e9 a4 88 bd 80 44 93 3c 53 38 83 bd
       -0.008885268 -0.06672079 0.017977 -0.06407227
000240 17 aa 34 be 51 a0 20 3e b3 c9 c6 bd 42 b2 3f be
       -0.17643009 0.15686156 -0.0970644 -0.18720344
000250 97 7f 62 bd e8 32 30 3d d6 77 f2 bc 3b b2 4d be
       -0.05529746 0.043017298 -0.029598158 -0.20087521
000260 ef 90 e5 3c 6c 93 25 3d 20 ba 39 3e c6 2b 65 be
       0.028023211 0.040423796 0.18137407 -0.2237998
000270 c7 75 dd bc 60 4a 19 bd 81 89 18 bd c1 7c 9f bb
       -0.0270337 -0.037424445 -0.03724051 -0.0048671667
000280 2f 5a 58 3e 95 5b 70 bb 8e 2a 3c 3e db 91 99 3c
       0.21128152 -0.003667568 0.18375608 0.018746307
000290 e1 07 9c bd 50 f1 88 bb 77 db 94 3d 4d c8 c5 3d
       -0.0761869 -0.0041791573 0.07268422 0.09657345
0002a0 1d 56 50 bd 13 3c b0 bb e4 92 21 be b5 79 da bd
       -0.050863374 -0.005378255 -0.1577869 -0.10667745
0002b0 d0 49 68 bc 9e ed bf 3d 08 02 ee 3b f2 ec b0 3d
       -0.0141777545 0.09371494 0.0072634257 0.08638944
0002c0 f6 f6 3a be 86 ed f4 3a 9f a5 22 be f3 f2 64 bd
       -0.1825827 0.001868651 -0.15883492 -0.055895757
0002d0 ed 89 35 3e 0f af ec bb 20 54 0a be 0f f4 47 be
       0.17728396 -0.007223017 -0.13508654 -0.19526695
0002e0 0b ab c0 bc 28 11 b9 bd cf 37 60 be ca 61 a6 3d
       -0.02351906 -0.090364754 -0.2189629 0.081241205
0002f0 64 59 ae bb 2b f8 0c bd 9a c6 0e 3e 20 22 5e be
       -0.005320715 -0.03441636 0.13942948 -0.21692705
000300 79 e0 0d 3d b2 a0 4e 3e 5c 33 3b 3c c0 3f a4 3d
       0.034637902 0.20178488 0.011425819 0.08019972
000310 fe 23 7c bd 8e 64 3b be b6 38 3a 3e fb 66 48 be
       -0.061557762 -0.18300077 0.18185696 -0.19570534
000320 48 ec 33 bd 00 5b 39 3e 56 03 7a bd 29 fc 86 ba
       -0.043926507 0.1810112 -0.061038338 -0.0010298538
000330 9e a5 94 bd 33 c4 a3 3d b3 11 52 bd 1e 71 e4 3d
       -0.072581515 0.079964064 -0.05128641 0.11154388
000340 48 19 46 3e f3 5b 08 be af 8c 3f 3e 06 e7 bb bb
       0.19345582 -0.13316326 0.1870601 -0.0057343272
000350 19 81 48 be 0a d1 06 3e 5f 47 e9 bd 1c 49 ca 3d
       -0.19580497 0.1316568 -0.11390566 0.09877226
000360 71 83 9f b9 0f f7 be bd 14 95 28 be 2b 75 a4 3d
       -0.00030424775 -0.093244664 -0.16463119 0.080301605
000370 d6 f9 4c be b0 0c a3 3d 3e d1 50 3d 84 f9 20 be
       -0.2001718 0.07961404 0.0509808 -0.15720183
000380 9a b7 1b 3e 97 c2 11 be 85 da 46 3d 2e 3d 2a bd
       0.15206757 -0.14234386 0.04854824 -0.04156225
000390 35 c6 f0 3d 6b 97 22 be 29 93 b2 bc 95 4f 3d bd
       0.11756555 -0.15878074 -0.021798687 -0.046218473
0003a0 e9 83 4b 3b e2 80 1e 3b f2 7b cc bd c2 0a cf 3b
       0.0031053966 0.0024185707 -0.09984578 0.006318421
0003b0 cc 30 0c bb ec 93 8e bd f0 33 fd 3b d9 a8 03 3e
       -0.002139139 -0.069618076 0.0077271387 0.12857379
0003c0 5b fc 0e 3e 25 ec 0d 3d 50 cf ae bd e9 a6 21 be
       0.13963453 0.034649033 -0.085356355 -0.15786327
0003d0 3f 9e 1e 3e 83 5a b1 3b bf 73 8b 3b ae 54 ae 3d
       0.15490054 0.005412401 0.0042557414 0.08512245
0003e0 0f ab 70 bd 27 a1 6b be 4a 0a 1a be a4 f5 3a be
       -0.058756884 -0.23010693 -0.15042987 -0.18257767
0003f0 31 d3 d1 3d 1d 13 32 3e e0 c7 67 bd 6f 8f f8 bc
       0.1024536 0.17390104 -0.0565871 -0.030341832

weight f4 [256, 20]
000000 4e 09 a6 3d de ba fd ba 28 ec 69 3d 1e 52 f4 3b
       0.081072435 -0.0019358059 0.05710998 0.007456078
000010 44 c6 ff bd 56 32 24 ba 99 bc de bb f9 6a a5 bd
       -0.12488988 -0.0006263604 -0.006797385 -0.08077044
000020 e0 70 32 bd 47 4e f7 3d 1c 00 8b 3d 00 85 13 3e
       -0.043564677 0.12075477 0.0678713 0.14406204
000030 65 e7 13 3e 08 34 96 3b 20 6a 85 bc ed d9 37 3d
       0.14443739 0.0045838393 -0.016285956 0.044885565
000040 c0 a6 68 bd 09 f5 e1 3d 7c 52 09 3e 51 03 f2 3d
       -0.05679965 0.11033065 0.13410372 0.11817039
000050 cf 43 1f 3e bb 26 f3 bc 4b ac b6 bd e6 a1 3a bd
       0.1555321 -0.029681554 -0.08919581 -0.045564555
000060 7f e5 21 be 64 88 17 3e 63 2e ec bd c3 0a f0 bc
       -0.15810202 0.14798123 -0.11532285 -0.029302007
000070 64 37 f5 bc ab c2 97 3d 86 fd 0d be 11 bf da 3c
       -0.029933639 0.07410177 -0.13866243 0.026702436
000080 8a 87 0c 3e 9d 45 33 bd bd 13 96 3c 1d 82 69 3d
       0.13723579 -0.04376756 0.018319959 0.05700885
000090 8b e5 ea 3d 6b 38 1c be 4b a3 bb bd 10 26 ee bd
       0.11469563 -0.15255897 -0.09162005 -0.116283536
0000a0 b0 1b 03 be 8e 42 88 bd a3 d9 3a 3d 9b 30 ee 3d
       -0.1280353 -0.06653319 0.04561771 0.116303645
0000b0 60 e3 a3 3c 98 63 1c 3b 8d 2f bc bc 65 dc 2d be
       0.020005882 0.0023863073 -0.022971893 -0.16978605
0000c0 4c b7 31 3e c0 42 8b 3d 48 0c 05 be 2a 8e e8 3c
       0.17355078 0.06799841 -0.12992966 0.028388102
0000d0 29 43 d9 3d a8 09 c3 3d 0e 03 10 3e 15 02 16 3e
       0.10608513 0.09523326 0.14063665 0.14649232
0000e0 ad f4 f6 3d 5e a5 70 bc a1 26 00 3d 06 1b 29 3d
       0.12058387 -0.014687864 0.03128684 0.041285537
0000f0 c3 cb 0d be 99 19 99 3c 53 11 ac bd 5b 9f 19 3e
       -0.1384726 0.018688964 -0.08401742 0.15002196
000100 03 53 cb 3d 36 b7 09 3e 34 50 f5 3d ae a2 07 3e
       0.099279426 0.13448796 0.11978188 0.13245651
000110 f3 be 16 be 6c 5e 02 be 4f 81 02 be 58 a4 eb 3d
       -0.14721279 -0.12731332 -0.1274464 0.115059555
000120 21 67 8c bd ce 2e c6 3d d4 5c 14 3d de 8f 1b 3e
       -0.06855608 0.09676896 0.03622134 0.151916
000130 8f 8e 5e bd f9 4f ba 3a 23 59 fb bd 87 6d e5 bd
       -0.054335173 0.0014214508 -0.12272861 -0.11202531
000140 c6 94 3e be 3e 1f 8d 3d b0 c4 c0 bc fe db 37 3b
       -0.1861144 0.068907246 -0.023531288 0.002805471
000150 09 de 00 3e 86 67 6d 3d 8d 43 86 3d 26 ea 96 bd
       0.125847 0.057960056 0.06555853 -0.07368879
000160 db 65 ab 3d 03 ba 1e 3e e7 2b 11 be 24 29 f8 bc
       0.08369037 0.15500645 -0.14176904 -0.030293055
000170 b9 59 f1 bd 3f 6e 62 bd 18 ef ad 3c ef c5 14 be
       -0.11784691 -0.05528092 0.021232173 -0.1452863
000180 44 c8 c1 bd 43 fe dd 3c 2d 7f 01 3e 92 d5 51 bd
       -0.09462026 0.02709878 0.1264617 -0.051229067
000190 c7 61 e7 3d 01 ce e2 bd 26 3e 82 bd c0 dd f4 3d
       0.112979464 -0.110744484 -0.0635951 0.11956358
0001a0 3b 89 13 bc 8a 03 25 3d be b9 da bd a6 3a 29 3d
       -0.009004886 0.04028658 -0.10679959 0.041315697
0001b0 02 1b ca bc da 67 06 3c 60 a9 43 3d 5f d5 32 3d
       -0.024671081 0.008203471 0.04776895 0.043660518
0001c0 ce b2 d8 3d 4d 63 0d 3b 69 54 ab bc 4a e5 f7 3d
       0.10580979 0.002157408 -0.020914273 0.1210428
0001d0 4d b4 1d 3c 53 09 01 be e8 28 e6 bd 6c 0d be 3d
       0.009625507 -0.12601213 -0.11238271 0.09279904
0001e0 db 5c 5d 3d 7d fb 33 bd 28 2a bd 3d f5 c3 4a 3d
       0.054043632 -0.04394101 0.09236556 0.049503285
0001f0 61 92 34 3d 8f 85 5d ba e5 6f 22 3d 05 ce 33 bc
       0.04408491 -0.0008450383 0.039657492 -0.010974412
000200 b0 8d fb bd 2e 23 91 b9 96 48 93 bb a1 d4 44 bd
       -0.12282884 -0.00027682766 -0.004494737 -0.04805434
000210 90 e1 cd 3c 35 ac 10 3e 79 ea f6 3c 6a d0 a2 3d
       0.02513197 0.14128192 0.030141102 0.07949908
000220 c8 25 3e bb cf 74 13 3b 24 1d 82 bc 79 f0 05 3e
       -0.0029014219 0.0022500043 -0.015883036 0.13080014
000230 a2 8f d4 bd ae 8f 16 3d f1 3a 03 3d c4 a6 0f 3e
       -0.10378958 0.036758117 0.032038633 0.1402846
000240 db 01 6b 3b e2 c8 15 bd 51 fd 1a 3e 7a 77 bf bd
       0.003585926 -0.03656853 0.15135695 -0.0934896
000250 ce 4e 99 3b a6 16 99 bd f3 59 c3 3d 24 70 ad 3d
       0.0046785837 -0.07475023 0.09538641 0.08468655
000260 20 c8 61 bd 58 dd 62 3b 88 ff 12 ba 5a 04 12 be
       -0.055122495 0.0034616794 -0.0005607535 -0.14259472
000270 40 2c 0e 3e 61 6f 06 3d 79 7a bb bb 98 2c fc 3d
       0.13884068 0.032821063 -0.005721387 0.12313193
000280 16 a9 76 3d 1c 82 22 3d 61 70 da 3c 35 fe 91 bc
       0.060219847 0.039674863 0.026664915 -0.01782141
000290 88 e3 e2 bd e4 44 c1 3c 6b 97 f7 39 4d 6a 47 3d
       -0.110785544 0.02359242 0.00047224326 0.04868536
0002a0 45 a3 bd bd cd be a0 38 38 6c cc 3d 3c 97 b2 3b
       -0.09259657 7.664934e-05 0.099815786 0.0054501574
0002b0 6d 5b c4 bd 46 24 a4 3c a7 87 1e 3e 34 ae 9e bc
       -0.095877506 0.020036828 0.15481435 -0.019370176
0002c0 93 63 ca ba 1d 47 8c 3d 73 6b 9e 3d 54 00 e8 3c
       -0.0015441052 0.06849501 0.07735338 0.028320469
0002d0 1e d3 1b 3d 43 0e cf 3d ea 29 1b 3e 07 66 15 be
       0.038043134 0.10110142 0.15152708 -0.14589702
0002e0 bf d9 d7 3d 74 db d8 3d 37 b5 a4 3d 71 1c 55 3d
       0.10539579 0.10588732 0.080423765 0.052029077
0002f0 12 ed 73 3d 72 79 f5 3d bc ca a5 3b d2 bd 0c 3e
       0.05955226 0.119860545 0.005059568 0.13744286
000300 f4 f5 ae bc 78 43 9d 3d bf 6d f1 3d 5a 43 a5 bb
       -0.021357514 0.07678884 0.117885105 -0.0050434293
000310 8b 58 e0 3d d0 46 9e 3d 9f 7b 36 3d f3 51 25 bd
       0.10954388 0.0772835 0.044551488 -0.040361356
000320 00 6f 04 be db bc de 3c 98 16 bd 3d 56 ef 1c be
       -0.12932968 0.027189663 0.09232825 -0.15325674
000330 b4 97 d8 3c bd 64 21 bc 6f 62 93 bd 82 7a be 3d
       0.026439525 -0.009850678 -0.07196509 0.0930071
000340 45 87 56 3e c8 1f 32 bd 40 ab 5b 3d 4f 12 18 3e
       0.20950039 -0.04348734 0.053630114 0.14850734
000350 43 25 39 bd 7d 49 0b 3e 3a f2 1e 3e 16 e7 21 bd
       -0.04520155 0.13602252 0.1552209 -0.03952702
000360 1c 85 1b be 6e 22 0d be f3 9d 0f 3e 9a de cd bd
       -0.15187496 -0.13782665 0.14025097 -0.100522235
000370 70 11 54 3e 86 3c 49 ba 89 cd 17 be 0e 8d 32 3e
       0.20709777 -0.000767656 -0.14824499 0.1743662
000380 dd 24 2b 3e 30 ae 90 bc 2c d6 5e bd ac 19 00 be
       0.16713281 -0.017661184 -0.05440347 -0.12509793
000390 05 8d a9 bd ba 80 8c 3d 87 c0 e4 bc ee 1a df bd
       -0.082788505 0.0686049 -0.027923835 -0.10893808
0003a0 d5 71 74 bd c8 4f ba 3d f4 8b f0 3c fe e2 8b 3c
       -0.05967887 0.09097248 0.02936361 0.017076012
0003b0 0a 9b a8 bd db 29 55 bd 01 17 f7 3c 02 02 ff 3d
       -0.08232696 -0.05204187 0.030162336 0.12451555
0003c0 a8 d8 e3 3b 5c e5 d7 bd 60 83 a7 3c 31 44 9a bd
       0.0069533177 -0.10541794 0.020448387 -0.07532538
0003d0 9b c3 10 be cb 31 c0 3d ca 4d 89 3d 5c cd c9 bb
       -0.14137118 0.09384497 0.0670429 -0.006158514
0003e0 7a 52 9f 3d bf e8 bd bc fb 47 4e 3c 8b ff 1a be
       0.07779403 -0.023182271 0.012590404 -0.15136544
0003f0 5f 33 3f bd e9 0a 90 3b 8f b3 56 ba 68 02 2a 3d
       -0.04667985 0.004395832 -0.00081902085 0.0415062

bias f4 [256]
000000 99 29 a9 bd 19 e4 fe 3d 73 ff d0 3b 4f 43 cf 3d
       -0.08259887 0.1244585 0.006378108 0.1012026
000010 9c 43 d3 3d 84 5f ee 3d f0 db f4 bd a1 45 9d bd
       0.1031563 0.11639312 -0.11956012 -0.07679296
000020 4f a4 0e be ef 2d 16 3c a4 09 f6 3d 8a 85 20 3e
       -0.13929866 0.009166225 0.120135576 0.15675941
000030 78 76 89 bd 62 df 1b 3c d8 41 3a 3e 55 84 22 3e
       -0.06712049 0.009513708 0.1818918 0.15870793
000040 dc 76 c8 3d 18 31 d7 bc ba 0a 28 be 9b f7 05 3d
       0.097882956 -0.026268527 -0.16410342 0.032706838
000050 d8 84 87 3d aa 1d c8 3d 11 78 83 bd ff b1 b3 bd
       0.06617135 0.09771283 -0.06419385 -0.087741844
000060 83 e4 34 bd 08 5b 0c 3e 3a f3 06 3e 31 dd f6 bd
       -0.04416324 0.137066 0.13178721 -0.12053908
000070 2a 87 eb bb 08 a7 e0 3d 56 c0 00 3e c9 ad 28 3e
       -0.0071877437 0.10969359 0.1257337 0.16472544
000080 70 27 08 3e d1 5c 0f bd 61 4c 1d 3e 39 79 45 bb
       0.13296294 -0.035000626 0.15361167 -0.0030132069
000090 59 8f 40 3e bd 8c f8 bd 16 55 f9 bb 54 4c 21 be
       0.18804683 -0.12136219 -0.00760902 -0.15751773
0000a0 13 03 0f 3e 75 0e b1 3d bb d9 1b 3e ed 3b e5 bb
       0.13966016 0.086453356 0.15219776 -0.006995669
0000b0 53 c3 38 3e 2d 91 1f 3e 09 47 57 3e 73 73 82 bd
       0.1804326 0.15582724 0.21023192 -0.063696764
0000c0 47 0d f9 3c c7 5a e9 3c c7 fe 03 3e 21 3a 54 3d
       0.030401839 0.028485669 0.12890159 0.05181325
0000d0 14 90 0c be 20 ad 1e 3e fa 45 a1 3a 29 70 3e bd
       -0.13726836 0.1549573 0.001230418 -0.046493683
0000e0 0c 79 be bc cd b1 0b be 6c e7 fa 3d 38 9f 60 3e
       -0.023251079 -0.13642044 0.122511715 0.21935737
0000f0 40 fd 3a 3e 5d 49 a9 3c c6 c7 23 be 6c ae e7 bd
       0.1826067 0.020664865 -0.15994176 -0.11312565
000100 f7 29 1d be 4d ee d7 bd 60 cc 5b 3e 37 91 a7 bd
       -0.1534804 -0.10543499 0.21464682 -0.081819944
000110 a3 96 f8 3d b7 8a 0d bd 3b 03 79 bc 44 fc 14 be
       0.12138107 -0.034556117 -0.015198524 -0.14549357
000120 59 14 d9 3d 97 dd 0e 3e e2 ca d0 bd fb 6d 7d bb
       0.10599584 0.13951717 -0.10194947 -0.003867029
000130 19 b9 cd bc 4c cd 1c 3e 17 18 57 3d 3e 10 36 bd
       -0.025112676 0.1531269 0.05251321 -0.044449084
000140 b1 69 28 3e 0f a9 8c 3d df 9a 94 bd 11 82 9e bd
       0.16446568 0.06868183 -0.07256102 -0.07739652
000150 74 35 8c 3d 65 41 2f 3e 42 a7 21 3e 9a 12 a2 3d
       0.06846133 0.1711479 0.1578646 0.07913704
000160 e1 94 9f 3d f0 bf 03 be 9f 49 40 3d 4e 79 4c bd
       0.07792068 -0.12866187 0.04694521 -0.049920373
000170 2c 8b d8 3c 65 a8 ac 3d 6c 97 44 bc f0 42 ea 3c
       0.02643355 0.08430556 -0.011998992 0.028596371
000180 e2 33 1d 3e 05 d0 a2 3d e2 09 08 3e 46 86 13 3e
       0.15351823 0.07949833 0.1328502 0.1440669
000190 13 cb 63 bb 62 5d 63 3c d3 22 0c be 60 b6 88 3c
       -0.0034758493 0.013877245 -0.1368516 0.016688526
0001a0 eb 12 c4 bd c8 44 01 3e e1 a6 16 bd df 10 f1 3d
       -0.09573921 0.12623894 -0.036780242 0.11770796
0001b0 30 c6 ed bd 7c 78 91 3d 6b be b6 3c 6c dd 2d 3c
       -0.11610067 0.07103059 0.022307595 0.010611873
0001c0 fc 19 c0 bd 11 f6 b4 bd 98 97 23 3e ed 12 0e 3d
       -0.09379956 -0.08835996 0.15975797 0.034686018
0001d0 c4 ce 58 bd b7 a3 e9 3d d8 f8 31 3e 76 11 d4 3c
       -0.052931562 0.11408179 0.17380083 0.025887232
0001e0 05 f4 2e bd 64 38 c3 3d 4f 26 0f be 37 1a f1 3d
       -0.042713184 0.0953224 -0.13979457 0.11772578
0001f0 24 1d 5c bd e8 e8 04 be 30 c7 2b 3c 5a 41 ac bd
       -0.05373873 -0.12979472 0.010484502 -0.08410902
000200 43 ce 20 bd 5e f9 4a bd 01 43 0e 3c a4 d9 b3 bc
       -0.039259207 -0.04955422 0.008682967 -0.021954365
000210 2f 02 32 3e fb 9d 83 bd 97 b0 50 3e 00 af f1 3c
       0.17383645 -0.06426617 0.20379864 0.029502392
000220 25 48 2e bd 5f d4 5d 3e 3c 27 06 3e 8e 78 c7 bd
       -0.04254927 0.21663044 0.13100904 -0.09739791
000230 b3 08 0c 3e 18 4c f4 3d 81 8a 01 3d 24 2f 0c 3e
       0.13675193 0.11928576 0.03162623 0.13689858
000240 ff 45 71 3d 54 8f 39 3e c5 d3 e1 bd 0e 21 08 be
       0.058904644 0.18121082 -0.1102672 -0.1329386
000250 ae 95 5b 3c 30 2c 14 3d b1 c0 06 be 8d c3 e6 bd
       0.013402386 0.036174953 -0.13159443 -0.11267767
000260 f5 57 0f 3e 44 ef ef bd c6 c5 dd 3d a2 f3 39 3e
       0.13998397 -0.11715558 0.10828738 0.18159345
000270 8e 6e e6 bc 69 37 96 bd bf 40 35 bd d7 38 4c 3e
       -0.028128888 -0.073347874 -0.0442512 0.19943558
000280 bc 80 d7 3d 9c a7 f6 bd a1 10 ec bd 85 7d 91 3d
       0.10522601 -0.12043688 -0.11526609 0.07104019
000290 fd 6b da bd 50 47 c2 bb b3 e9 4a bc db c8 53 3e
       -0.106651284 -0.0059289113 -0.01238482 0.20682089
0002a0 cc 65 1d be 0a e8 1d bc d0 4f 17 3e 5b 92 33 3e
       -0.15370864 -0.009637842 0.1477654 0.17536299
0002b0 7b 07 11 be a6 34 e9 bd 2b 2f 8e 3d 5d a7 61 bd
       -0.1416301 -0.11386995 0.0694259 -0.05509125
0002c0 9f 85 0b 3e 71 a2 ba 3d da d6 39 3e 1b 1b 9d bd
       0.13625191 0.091130145 0.18148366 -0.076711856
0002d0 e7 8b 39 3d 31 41 cc bd 73 ac f6 bd 5f e6 0f bd
       0.045299437 -0.09973372 -0.12044611 -0.03513181
0002e0 4e 9e 46 3e 24 b9 31 3e 06 f9 c7 3d 13 3b 49 3e
       0.19396326 0.17355782 0.09764294 0.19651441
0002f0 e9 02 09 be ea 55 37 3e ed 2b 32 3e 46 4e 25 bd
       -0.13380016 0.17903867 0.17399569 -0.04035785
000300 c2 04 eb bd 91 5c 4b bd d9 c4 4a 3e 34 c8 87 bd
       -0.11475517 -0.049648825 0.19801654 -0.066299826
000310 22 a5 83 bd db a0 a1 bd 74 19 6b bd 6a ec bc bc
       -0.06427981 -0.07892009 -0.05739732 -0.02306195
000320 c7 aa be 3c 68 6a e5 3d 8b 6c dd bb e3 4e 03 be
       0.023274792 0.11201936 -0.006757324 -0.12823062
000330 84 80 41 3e 9d 99 ca 3c f6 dd 8f bd ef 74 cc bd
       0.18896681 0.024731452 -0.070247576 -0.09983241
000340 99 d7 26 3a 26 d8 d2 3d 52 47 f2 bd d6 8d dc bd
       0.0006364524 0.10295133 -0.118300095 -0.107692406
000350 5c ec 0c 3e b8 fa 50 3d 6b b6 1d bd 20 3a ca bc
       0.13762039 0.051020354 -0.038504045 -0.02468592
000360 b6 a4 e3 bc e9 65 a8 3d 42 56 1c 3d 74 f8 9f 3d
       -0.027788501 0.08222563 0.0381682 0.078110605
000370 9d 71 bf 3d 06 bc 92 3d 88 9a 5a 3d 76 00 2d bd
       0.09347842 0.07164769 0.05337003 -0.042236768
000380 b1 83 78 3e 5c e2 c4 3d cf 39 47 bd d3 7f 8b 3c
       0.24268986 0.09613487 -0.048639115 0.017028725
000390 2d 01 11 be c3 8b 25 bd cd 69 68 bd ed 99 d8 3d
       -0.14160605 -0.04041649 -0.056741524 0.10576234
0003a0 03 01 41 3e b8 b7 86 bd d1 44 58 3e 46 9c a6 3d
       0.18848042 -0.0657801 0.21120001 0.081352755
0003b0 6a 5d 84 bd 44 93 c8 bd ae fd a1 bc f5 7d 19 3d
       -0.0646313 -0.09793714 -0.019774284 0.037473638
0003c0 cd b4 b9 bc b9 cc 0d 3e bb 08 73 3e 90 fb af 3d
       -0.02266922 0.13847627 0.23733799 0.085929036
0003d0 56 01 32 3e 58 aa 32 3d 4b c0 b3 bd 8c 52 43 3e
       0.17383322 0.043619484 -0.08776911 0.19074458
0003e0 57 b9 70 3e 16 ed 73 bd 24 93 84 bd 6c a7 30 3e
       0.23508202 -0.059552275 -0.06473377 0.17251366
0003f0 8c af 8f 3d 3d 8d 2c 3e 34 55 32 3e 4d 31 6e 3e
       0.07015905 0.16850753 0.17415315 0.23260994

weight f4 [32, 256]
000000 33 8f 1e 3b 11 f1 ed bb f9 35 0f bd 13 b5 0e ba
       0.002419424 -0.0072614034 -0.03496358 -0.0005443852
000010 88 14 b3 3c 20 85 aa bc cf f6 cc 3b f9 14 0c bc
       0.021860376 -0.020815432 0.006255008 -0.008549922
000020 a2 65 97 3c 0d 67 51 bd bd 4c 15 bc 32 47 1b 3d
       0.01848108 -0.051123668 -0.009112534 0.037909694
000030 0d 99 d8 38 5c 24 8e bb 86 59 b9 bc 71 8d 21 bd
       0.000103281905 -0.0043378305 -0.022625696 -0.03944153
000040 00 ea 26 bd cd e3 94 ba cd 90 0f 3c 99 4a 3c 3c
       -0.040750504 -0.0011359394 0.008762551 0.011492395
000050 ab c2 68 bd 71 94 c7 3b ea ae 12 bd 40 24 92 bb
       -0.056826275 0.0060906936 -0.035811342 -0.0044598877
000060 f0 40 a3 bc 49 ba eb 3c cf 1c 51 bd 21 df 62 bb
       -0.019928426 0.028775351 -0.051052865 -0.0034617858
000070 7f 57 28 bc e6 68 02 3c 34 f3 06 3d 08 2e f8 3b
       -0.010274767 0.00795958 0.03294678 0.0075738467
000080 a6 35 00 3d 7b 0c 1f ba 5b 56 86 bc 7a f4 e2 3b
       0.031301163 -0.00060672284 -0.0163986 0.0069261165
000090 c0 5a 12 3d 97 56 4a 3c 67 ef 8c 3b 9e 9c 1d 3c
       0.035731077 0.012349746 0.004301 0.00961986
0000a0 8e b9 84 3c 6d e8 f4 bc 98 2a 29 bd ff 73 79 bb
       0.01620176 -0.029895985 -0.041300386 -0.0038063524
0000b0 cf dd 07 bd db 53 2d bd 76 cf 47 3c 01 07 1b 3c
       -0.033170518 -0.0423163 0.012195459 0.009462119
0000c0 95 28 95 bc 2d 09 a9 bb c3 33 a8 3c 84 07 52 bd
       -0.018207828 -0.0051585645 0.020532494 -0.0512767
0000d0 3c d8 cd bc f0 32 ff 3b 0b df 4a bc 5d df a1 b8
       -0.025127523 0.0077880546 -0.012382279 -7.718683e-05
0000e0 ea 47 09 bd c9 d3 01 3b db 51 68 bd dc d4 2e 3d
       -0.03351585 0.0019810072 -0.05671869 0.042683467
0000f0 1d ba 27 bb 0f 1a a9 3c 1f 8b a5 3b f9 ec 3a 3b
       -0.002559311 0.020642309 0.005051985 0.0028522594
000100 92 65 ef 3a 69 90 78 bb 91 ef 07 bd 2d f9 2d 3b
       0.0018264523 -0.0037927872 -0.033187453 0.0026546225
000110 13 f4 ed 3c ba 3e d6 ba 95 94 c0 3b 40 77 97 3c
       0.029047048 -0.0016345598 0.0058770874 0.01848948
000120 56 44 74 3c 7d aa 4d bd 06 06 3e ba af 3b b1 bb
       0.014908871 -0.05021142 -0.00072488224 -0.005408726
000130 98 41 cd bc 0e e1 30 bc e4 65 1c 3d 25 47 d7 37
       -0.025055692 -0.010795845 0.038183108 2.5663127e-05
000140 76 c2 cf ba a1 49 32 bd 86 81 d4 bb 06 3c 00 bb
       -0.00158508 -0.04352725 -0.006485167 -0.0019567027
000150 5d c4 a9 bb 30 03 36 bc a7 b9 4f bd 1c a9 ff 3b
       -0.005180879 -0.011109158 -0.05071416 0.007802142
000160 70 c4 3f bd 4f 95 99 3b 71 2e e8 bc a7 34 74 3c
       -0.046818197 0.0046869884 -0.028342457 0.014905131
000170 9a a1 26 bd 76 1c f4 3c d4 25 3b 3a d9 44 2b bd
       -0.04068146 0.029798727 0.0007139121 -0.041813705
000180 35 68 e1 bc 43 75 95 bc 51 ba 80 bb 22 97 ca 3b
       -0.02751551 -0.018244391 -0.0039284606 0.006182567
000190 cb 64 fd 3c 09 11 e2 bb b2 39 46 3c b8 6f 19 bc
       0.03093185 -0.0068990034 0.012098717 -0.009365015
0001a0 03 68 1f 3b bd c1 42 bd dd a9 92 ba 29 a1 10 3d
       0.002432347 -0.047548044 -0.0011189539 0.035309944
0001b0 e2 79 50 bc af 8d 93 bc f7 3d 53 ba a9 b1 17 bd
       -0.012724372 -0.018011896 -0.0008058245 -0.037034664
0001c0 51 5a 54 bc 3b 7a ae 3c f4 83 01 bd e7 7a f1 bc
       -0.012960986 0.021298518 -0.03161998 -0.02947755
0001d0 63 cf 2d 3b 92 98 a3 bc f1 19 17 3d 55 de 84 bb
       0.0026521317 -0.019970212 0.036889974 -0.0040548244
0001e0 2c cf 3e 39 2d 8f b8 3b b6 18 9d 3c e1 7c 46 bc
       0.0001819699 0.0056323023 0.019176822 -0.012114734
0001f0 41 6b 60 3c ff 32 10 bc 27 b0 e3 3b 2f 43 8a 3c
       0.013697446 -0.008801221 0.006948489 0.016877739
000200 b2 4a 33 bb c5 b0 86 bb b7 eb 2d bb d1 0c 50 ba
       -0.0027357754 -0.004110428 -0.0026538202 -0.000793648
000210 eb d6 38 3d fd f6 02 3c d1 72 52 bd d6 ee 2a b7
       0.045126837 0.007993457 -0.05137903 -1.0188398e-05
000220 f9 fd 64 3b 72 2e 8f bd 07 ca bd 3c a7 0c c0 3b
       0.0034941419 -0.069912806 0.023167623 0.0058608833
000230 2d 4b 55 bd f1 30 77 3c 14 bf 0c bd 30 13 e5 3c
       -0.052073646 0.015087352 -0.034361914 0.02796325
000240 51 b7 86 bc ea e9 a4 bc 57 a9 5f bc bb ab f9 bb
       -0.016444834 -0.02013107 -0.013651214 -0.007619349
000250 23 88 3a 3c d2 cc 1e 3b 68 4d ac bb 15 57 a8 3b
       0.011384997 0.002423097 -0.005258251 0.005137334
000260 3c 43 c7 bc a3 30 2b bc 16 2b cb 3b 15 58 1b bd
       -0.024324052 -0.010448608 0.0062002046 -0.0379258
000270 73 0d e4 3a a0 06 61 3a 0d bb b4 ba 43 a4 aa bc
       0.0017399028 0.0008584056 -0.0013788656 -0.02083028
000280 d8 ec 0c bb 34 e5 a3 3c d6 60 f6 bb c2 b1 12 3c
       -0.0021503475 0.020006754 -0.007518868 0.008953514
000290 47 15 33 3c a1 0d 3e bb 19 83 13 bc 2e cc e8 bb
       0.010930366 -0.0028999823 -0.009003424 -0.0071044182
0002a0 a0 fa d1 bb d6 b6 db 3c 2d 22 15 bd c6 af 12 3d
       -0.0064080507 0.026820581 -0.036409546 0.035812162
0002b0 9e c4 60 3c 1e 7b 29 bb 7e f3 10 bb 64 46 3e 3c
       0.013718752 -0.0025860737 -0.002211779 0.011613462
0002c0 6c 33 2c bd 23 e4 42 bd b1 49 13 bd 9d fe 9e 3a
       -0.042041227 -0.04758085 -0.03595895 0.0012130324
0002d0 e2 c8 70 3c 4c 1d 82 3b 5d 3a 5a 3a 5c e5 a5 3b
       0.014696332 0.0039707776 0.0008324737 0.005062742
0002e0 31 9e 85 bc c6 c9 8b 3c 89 c7 e7 ba f6 cc 2f bd
       -0.016310783 0.017063987 -0.0017683367 -0.042920075
0002f0 62 3f cc 3b 35 84 cc bc f5 44 52 bc 1a 42 1a bc
       0.0062331418 -0.024965385 -0.012833823 -0.009415174
000300 4e 16 59 3c 13 68 5e 3c 5a 83 3e 3c 53 3d 4f bb
       0.013249947 0.013574618 0.011627996 -0.0031622245
000310 76 a7 8b 3b b1 9e 46 3b 35 a9 f3 3a 62 73 84 bc
       0.0042619063 0.003030699 0.0018589856 -0.0161683
000320 90 a3 69 3c 90 e8 09 3d 08 74 35 b8 75 9c f2 3b
       0.014260188 0.033669055 -4.3261825e-05 0.007403905
000330 b9 99 d6 3c 8d 26 2f bd f0 00 96 3a 60 51 99 3c
       0.026196348 -0.042761374 0.0011444371 0.01871556
000340 0b 7c 2a ba ab a6 88 bd 67 2f c5 bc d8 18 34 3c
       -0.0006503469 -0.066724144 -0.024070455 0.010992251
000350 e2 fa f2 bb 9d 8b 68 3c 99 36 46 bc ee 6f e7 3b
       -0.0074151615 0.014193443 -0.012097978 0.0070629036
000360 3b 15 d1 bb 7f 14 28 3c 48 57 45 bd d4 b0 1d bd
       -0.0063807047 0.010258793 -0.04817894 -0.038498715
000370 20 a8 dd bc 7e b5 02 3a 91 9d 70 bc 7c ca bf 3a
       -0.027057707 0.0004986151 -0.014686004 0.0014632489
000380 92 c5 d5 3c 3e 7d 32 3d 90 fe 23 3b 13 99 8f 3a
       0.026095185 0.04357647 0.0025023557 0.0010955654
000390 d2 8b 85 ba 98 0c 4f bc b7 76 8c bc 9e 2b 04 3d
       -0.0010188764 -0.01263728 -0.017146451 0.03226816
0003a0 2c d7 0a 3c 69 83 e4 ba 8f b8 65 bd 63 72 25 bd
       0.008474153 -0.0017434183 -0.056084212 -0.04039229
0003b0 41 d5 c9 3a 97 4f a8 3c 55 f7 ab bb 8b 0c ec bc
       0.0015398638 0.020545764 -0.00524799 -0.028814575
0003c0 6f 39 3f 3a 49 7b 1b bc 09 1f 4d 3c 54 ef a2 bc
       0.000729463 -0.009489843 0.012519606 -0.019889511
0003d0 e8 2c 9f 3c 12 e1 45 3c 74 07 25 bb 96 69 0f 39
       0.019430593 0.012077587 -0.0025181444 0.00013676877
0003e0 14 24 24 bb 82 d6 09 3c 02 fd 6b bc f4 af e6 3c
       -0.0025045918 0.008412959 -0.0144035835 0.028160073
0003f0 2d d7 9a bb c0 fa b5 ba 54 17 33 3b 55 39 78 bd
       -0.004725358 -0.0013883933 0.0027327137 -0.06060155

bias f4 [32]
000000 37 bb 06 bd 60 ed 2a 3d a2 81 31 3c fb 80 f6 39
       -0.032893386 0.041730285 0.0108341295 0.00047016874
000010 d6 4b 8c 3c 93 d0 90 3c 6e bd ea 3b 8a 48 dd 3b
       0.017126005 0.017677581 0.007163695 0.006753032
000020 a5 b6 a2 bc 74 bf 99 3c c5 dd b4 bc f9 f5 70 3d
       -0.019862482 0.01876805 -0.022078404 0.058828328
000030 c7 9d 0e bd a1 bd ba 3d 00 e1 87 3d 99 b4 f6 3c
       -0.034818437 0.091182 0.06634712 0.030115413
000040 e0 61 81 3d 33 b1 55 bd 24 d1 84 3d 33 4c b6 3d
       0.06317496 -0.052170943 0.06485203 0.089012526
000050 2c f9 f4 bc d0 6d 02 3d 90 95 fc bb e4 63 70 3b
       -0.02990397 0.031843007 -0.007708259 0.0036680633
000060 35 05 20 bc cc 73 80 bd 93 be ae 3b eb fe 99 3c
       -0.009766866 -0.062720865 0.005332777 0.018798312
000070 d2 50 d8 3b 55 c5 e0 3c aa f7 a4 bc 3c 5a cc bc
       0.0066014314 0.027437845 -0.020137627 -0.02494537

weight f4 [1, 32]
000000 83 9d 25 3e 84 3f 03 3e a4 cb 8f bd 3e 85 b4 3d
       0.16173367 0.12817198 -0.07021263 0.088144764
000010 cc 5e 92 bd 8f 9e f7 3d 91 87 15 3e a2 75 b4 3d
       -0.07146987 0.120907895 0.14602496 0.08811499
000020 14 10 8f 3d 35 98 15 be 76 1c a8 3d 5c 53 fe bd
       0.069854885 -0.14608844 0.082085535 -0.12418243
000030 46 91 2c 3e fb fa d7 bd 74 2c d1 bd 66 27 1d 3e
       0.16852292 -0.105459176 -0.10213557 0.1534706
000040 e5 14 dd bd e9 10 76 3d 4b af 11 be 79 83 33 be
       -0.10795001 0.06007472 -0.14227025 -0.17530622
000050 f2 87 51 3d cd 0a a6 bd cd 53 d6 3d 77 75 d8 bd
       0.05115504 -0.08107529 0.104652025 -0.1056928
000060 34 f0 6f 3d 11 9d ab 3d 13 11 06 3e 47 b9 d1 3d
       0.058578685 0.083795674 0.13092451 0.10240417
000070 21 db 14 be 0d 53 dd 3c 9e 43 4b be b7 17 4e 3d
       -0.14536716 0.02701714 -0.19850013 0.050315585
