ckpt/real-last.pt (torch, 140172 bytes, 17 tensors)

weight f4 [256, 7]
-3.4145094e-05 -4.450766e-05 -3.1240304e-06 -4.1731644e-07 7.9091626e-07 -1.5190489e-07 1.5023096e-07 6.627751e-05
-0.0014995476 -0.00014633106 -4.458868e-06 -3.62663e-05 -3.336208e-05 -6.4038024e-05 -6.625154e-09 -2.469926e-08
-1.1002226e-09 -4.13549e-10 -1.5791023e-09 5.6788624e-10 -1.2266703e-09 3.098586e-05 -0.00013134854 -1.1181988e-05
-7.739373e-07 -6.512751e-06 -3.7211482e-06 -3.2645705e-06 1.7667508e-06 -3.9144406e-06 -1.0510146e-07 -5.664927e-08
-1.4886847e-07 -1.7668713e-08 1.6736854e-09 -4.057682e-08 -3.802572e-08 -5.2803006e-09 -3.6416592e-10 1.0708415e-09
-1.4838588e-09 -1.612351e-09 -0.0010100823 -0.01011911 -2.221747e-05 -0.00016854836 -0.00020410208 -2.1470823e-05
8.50538e-06 -9.877283e-07 -1.1620967e-06 -2.6520723e-08 -3.3138164e-08 -1.022265e-07 -1.2960187e-08 -1.9197238e-08
-1.0273519e-07 -3.8238912e-08 2.3530585e-07 3.377884e-08 1.0825234e-07 7.386233e-08 5.2783992e-08 1.1703093e-05
-1.9100335e-05 -2.5208653e-06 -2.7802895e-07 -3.8835105e-07 -5.803898e-07 -4.1310577e-07 -0.00019507307 -0.00023717993
-1.4126063e-05 -4.987276e-06 -1.2818053e-05 -8.92751e-06 -6.698592e-06 -0.004352573 -0.004679024 -0.011422506
-0.0002755564 -0.0063023255 -0.0004339178 -0.00051706174 -0.00035301127 -0.0067894864 -0.00011722846 -9.5033436e-05
-0.00018967016 -6.963066e-05 -5.0470295e-05 -1.9466782e-07 -9.326123e-07 3.6592846e-07 4.4007354e-08 9.885535e-08
4.9489962e-08 2.148795e-08 -0.00064906065 -0.0015130524 -0.00020827565 -1.0928796e-05 2.3823442e-05 -6.978985e-05
-4.684463e-05 2.6117745e-12 -2.0898333e-11 -1.0050616e-12 -2.5324445e-13 6.338937e-14 1.7823465e-14 -3.1785037e-14
-1.1487482e-14 -1.10602445e-13 -6.822559e-15 -8.4014117e-16 -1.4823192e-15 1.0833875e-15 -1.7397425e-16 -0.007860994
-0.010045603 4.2442407e-05 -0.00015561302 -0.0006350178 -0.00026527815 -5.1246287e-05 -1.5764877e-07 -7.639637e-07
-7.154222e-08 -7.093164e-09 -1.7619463e-08 -1.4508356e-08 -1.787867e-08 2.3657112e-09 -8.532284e-08 -7.507616e-09
-4.8468457e-10 -3.7264267e-09 -2.3557045e-09 -2.7355689e-09 0.024239818 -0.015673717 0.00052299746 -9.043391e-05
0.00028213783 -0.00022506756 -0.0002026219 1.9139983e-07 -3.6224327e-07 -1.298528e-08 -5.4030784e-09 -1.9783613e-08
3.8685705e-10 1.6616258e-09 -0.018734982 -0.023926515 -0.000970155 -0.00025755423 -0.0022295732 -0.0007448967
-0.00054949854 0.04888138 0.042548336 0.036489278 0.012626982 0.029457144 0.012864585 0.010751779
-9.7513075e-05 -0.011935809 2.175024e-05 -5.720081e-05 -4.3045748e-05 -7.552896e-05 -6.263189e-05 0.11035112
0.102237865 0.07357617 0.023558244 0.038816024 0.030082438 0.0257119 -2.8995681e-09 -7.733578e-09
-3.2018868e-10 -6.5460054e-11 3.203754e-11 -3.1371794e-11 -1.03846584e-10 -3.415352e-05 -7.5818556e-05 -9.704794e-06
-8.833931e-07 -1.0640897e-06 1.071923e-06 3.347807e-07 -0.0003972642 -0.0012630891 -6.405263e-05 -1.4147777e-05
-3.5895132e-06 -6.4123706e-06 -1.482286e-05 0.00027513635 -0.0009237483 0.000953872 -0.000110175366 -0.0016080949
-0.00010306604 -0.00036992566 0.0018269934 -0.006114748 0.0003177449 -1.3778498e-05 -0.00043917293 -0.00012237647
-9.844112e-05 -2.2283398e-06 -5.804636e-06 -6.2069176e-07 4.960037e-09 -7.934877e-08 -7.7145316e-08 -1.5697601e-07
-0.0033784357 -0.0042484654 -0.0001519837 -0.0001132289 -0.00036761363 -0.00018642544 -0.0001519943 -3.5952112e-06
-6.2602794e-07 -5.7965757e-08 5.6946472e-08 1.871605e-07 1.5136995e-07 1.3698191e-07 2.6433187e-05 -8.551096e-05
-7.203383e-06 -7.0762303e-07 -5.037945e-06 -2.584789e-06 -1.9938657e-06 -2.4748392e-14 -1.65969e-13 -1.5462058e-14
-1.0513067e-15 -6.9264743e-16 1.6144381e-15 -3.9586124e-16 5.235865e-07 -4.6248735e-07 -2.2209923e-08 -1.4293902e-09
00000000: 0437 0fb8 bcad 3ab8 6fa6 51b6 890b e0b4
00000010: 5a4f 5435 4c1b 23b4 2c4f 2134 78fe 8a38
00000020: 788c c4ba 7270 19b9 629d 95b6 a51c 18b8
00000030: 43ee 0bb8 274c 86b8 79a3 e3b1 3f2a d4b2
00000040: a436 97b0 d959 e3af b907 d9b0 7119 1c30
00000050: a097 a8b0 d0f6 0138 9bba 09b9 469a 3bb7
00000060: 91c0 4fb5 1b88 dab6 d7b8 79b6 e514 5bb6
00000070: 1821 ed35 ca58 83b6 24b4 e1b3 884e 73b3
00000080: a7d8 1fb4 e9c5 97b2 9207 e630 af46 2eb3
00000090: b951 23b3 046e b5b1 cc33 c8af e32c 9330
000000a0: a4f0 cbb0 8f99 ddb0 bd64 84ba a0ca 25bc
000000b0: a75f bab7 5bbc 30b9 3c04 56b9 3e1c b4b7
000000c0: 54b2 0e37 1692 84b5 57f9 9bb5 b0cf e3b2
000000d0: cc53 0eb3 9d87 dbb3 81a7 5eb2 2ce7 a4b2
000000e0: 459f dcb3 213c 24b3 61a8 7c34 3a14 1133
000000f0: 5a78 e833 3f9e 9e33 9db4 6233 6758 4437
00000100: a839 a0b7 232c 29b6 0244 95b4 907e d0b4
00000110: 15cc 1bb5 d3c8 ddb4 878c 4cb9 81b3 78b9
00000120: fbfe 6cb7 6058 a7b6 1e0d 57b7 5dc7 15b7
00000130: 78c4 e0b6 07a0 8ebb 8052 99bb 7625 3bbc
00000140: 8e78 90b9 bd83 cebb 767f e3b9 6d8b 07ba
00000150: 5f14 b9b9 577a debb 8dd8 f5b8 b04c c7b8
00000160: 32e2 46b9 ad06 92b8 11b0 53b8 e205 51b4
00000170: a158 7ab5 d374 c434 9902 3d33 4e4a d433
00000180: ca8e 5433 8094 b832 b925 2aba 9d51 c6ba
00000190: 9264 5ab9 d25a 37b7 74d8 c737 245c 92b8
000001a0: 0a7b 44b8 8cc9 372c ddd2 b7ad 2973 8dab
000001b0: 5f90 8eaa 7cbd 8e29 1d8a a028 a725 0fa9
000001c0: a9f0 4ea8 f80d f9a9 00cf f5a7 7a27 72a6
000001d0: ed9f d5a6 f221 9c26 2394 48a5 66cb 00bc
000001e0: 5096 24bc 3004 3238 0d2c 23b9 5377 26ba
000001f0: 0815 8bb9 48f1 56b8 2a46 29b4 3013 4db5
00000200: c0a2 99b3 21b8 f3b1 9c59 97b2 6d40 79b2
00000210: 9c93 99b2 0892 2231 ba3a b7b3 d8fa 00b2
00000220: a53a 05b0 ff09 80b1 fee1 21b1 a3fc 3bb1
00000230: 9592 c63c 2b66 80bc c419 093a 56a7 bdb8
00000240: e6eb 9339 1d00 6cb9 e776 54b9 9683 4d34
00000250: 567a c2b4 de15 5fb2 fba5 b9b1 a0f0 a9b2
00000260: 4aad d42f 435f e430 1b7a 99bc 8a01 c4bc
00000270: 0052 7eba 5808 87b9 081e 12bb 2c45 43ba
00000280: 390c 10ba d837 483d 2a47 2e3d c875 153d
00000290: 67e1 4e3c 1c50 f13c fbc5 523c 3b28 303c
000002a0: ef7f ccb8 698e 43bc 4974 b637 e7ea 6fb8
000002b0: 058c 34b8 4d65 9eb8 3d59 83b8 c5ff e13d
000002c0: 1662 d13d 1aaf 963d 38fd c03c 8dfd 1e3d
000002d0: 726f f63c c3a1 d23c be41 47b1 a3dc 04b2
000002e0: 8d06 b0af bcf2 8fae 10e7 0c2e 80f9 09ae
000002f0: 6e5c e4ae 1040 0fb8 c700 9fb8 c6d1 22b7
00000300: 5022 6db5 d8d1 8eb5 fede 8f35 e9bb b334
00000310: e647 d0b9 3d8e a5ba fe53 86b8 3d5c 6db7
00000320: 5ee3 70b6 d829 d7b6 b3af 78b7 2d40 9039
00000330: b327 72ba 440d 7a3a f30d e7b8 b6c6 d2ba
00000340: 2925 d8b8 95f2 c1b9 ba77 ef3a 395e c8bb
00000350: 0097 a639 332a 67b7 cb40 e6b9 2f52 00b9
00000360: 2d72 ceb8 968a 15b6 72c5 c2b6 9d9d 26b5
00000370: f26c aa31 7366 aab3 16ab a5b3 3d8d 28b4
00000380: bf68 5dbb b636 8bbb d05d 1fb9 4e75 edb8
00000390: 44bc c0b9 337b 43b9 a960 1fb9 4245 71b6
000003a0: 500c 28b5 06f6 78b3 4f95 7433 49f6 4834
000003b0: 4188 2234 4d15 1334 d6bc dd37 5954 b3b8
000003c0: 97b4 f1b6 7cf3 3db5 9e0b a9b6 5676 2db6
000003d0: 5ace 05b6 e8e9 dea8 4fdd 3aaa 1445 8ba8
000003e0: 5f82 97a6 5ca4 47a6 41aa e826 cf32 e4a5
000003f0: 978c 0c35 c74b f8b4 23c8 beb2 3274 c4b0

bias f4 [256]
1.2639316e-07 -3.7694157e-05 -1.9539605e-09 -2.1941232e-06 -2.2082652e-07 1.1708885e-09 -0.00028188905 -1.16783774e-07
1.03319366e-07 -5.339794e-07 -2.3163779e-05 -0.0057390067 -0.00020048527 1.1655414e-07 1.987433e-05 -3.9133684e-13
-4.451442e-15 -0.0006276875 -6.6000037e-09 -1.690626e-09 -2.0000889e-05 -2.60632e-08 -0.0020825658 0.030866751
-6.942797e-05 0.038314596 -2.2370511e-10 -3.9106718e-07 -1.2371482e-05 -0.0009513464 0.00014756495 -6.196002e-08
-0.00027866324 1.9924575e-07 -2.3926275e-06 -2.3714132e-15 -1.10463665e-08 3.4891073e-05 0.0067429044 5.310282e-08
-1.8171826e-06 -0.0014994909 -2.5994098e-06 0.0032549638 -0.0017254968 3.2838738e-09 -0.00049385877 -3.473174e-10
-0.00013901074 0.023839252 -1.3723382e-10 -0.0012069268 -0.00013117972 -8.516447e-06 -6.7109323e-07 -5.9091735e-06
-3.018295e-05 -2.3691945e-07 -0.0007095021 4.6372776e-08 -0.0069032456 -2.5422784e-07 -0.0030353065 -3.482041e-12
1.3426384e-07 -5.301512e-06 -0.0018110292 2.338849e-09 -0.00026878456 -5.716929e-06 -0.0018818504 1.5926379e-07
-0.0025092799 -7.430045e-10 -7.6233496e-06 -0.00056032964 -2.2393176e-07 1.8129633e-08 1.9354752e-07 -0.00021329113
0.03834733 2.4418375e-06 -2.4499291e-08 -0.000106838226 -1.7418341e-06 -0.0012980622 -1.1214363e-06 5.546953e-11
1.3250575e-08 0.0039018707 -5.547934e-10 -8.399545e-06 8.183754e-06 -5.0800246e-11 0.005158562 -9.0475885e-05
-0.00068504503 -9.105369e-06 -6.597098e-05 0.001675828 1.8076273e-07 1.1200835e-07 -0.00019098246 -1.6589992e-06
-0.00631152 -0.0016412715 -1.02542835e-10 -0.0024841658 -8.072541e-06 -9.133935e-12 1.1294633e-07 -0.00011619681
-0.00025443497 -6.5249674e-06 0.019056559 9.971229e-09 -0.00012342114 -4.0390016e-09 -3.516644e-06 -1.757242e-06
-7.0167046e-11 8.911469e-05 -1.2364925e-06 -0.0022230041 4.4928942e-08 2.713651e-05 -5.213039e-10 -5.0522363e-13
-0.0008258272 -0.00023511327 -0.0011678837 -2.7199844e-12 -0.00083856005 6.813093e-08 2.1372145e-08 -7.5266175e-06
-3.5267487e-05 -9.416554e-06 -2.2884069e-05 0.00016188546 -0.0014780341 0.038877927 -5.5204286e-08 -2.1209455e-05
-5.550913e-09 -9.193845e-06 -4.5597544e-09 -0.000190699 -0.005549197 -2.7465198e-06 -2.0169287e-07 0.0002335789
7.487914e-05 -0.002514409 -2.1784339e-05 -0.0058040656 -4.205432e-10 -0.0066471566 9.062186e-06 -0.0005000968
-3.46301e-13 3.787985e-08 -4.336766e-06 -2.0903706e-16 -2.7274896e-11 -5.8791393e-05 -2.5498659e-05 7.567337e-05
-7.8950003e-16 -0.00016617619 -8.3853714e-13 -1.4845636e-09 -1.558952e-09 2.0450515e-09 -2.5188486e-12 0.0031506566
-1.0864256e-05 -0.00023116522 -1.700206e-06 -0.0037144765 -1.7852912e-10 -0.00014014315 0.0001970913 -8.529319e-13
0.002350065 -2.989786e-12 -0.0007433459 3.7607816e-08 3.904699e-08 0.0011468139 -0.0011165538 -0.00058945274
-6.369627e-10 -1.3559529e-06 -1.0141515e-12 -0.0004291685 0.005384498 -1.914209e-08 -0.0006256177 -0.0058415136
-0.0065062926 -3.3569953e-09 0.005290191 -5.956491e-05 -4.4251488e-14 -0.0031926082 -1.2460938e-08 -3.6331352e-05
0.009154372 -4.531682e-09 -2.3433115e-07 -2.0168765e-12 4.8473023e-08 5.322597e-08 6.089659e-11 -0.0007418102
3.6457534e-06 -1.0965006e-06 -2.1602407e-10 -0.0010662274 -0.006879392 -3.6948822e-07 -1.02929054e-10 -0.00054524996
-1.029907e-06 0.0017226785 -1.1734189e-06 -0.00018650551 -6.663996e-07 0.0024917622 -0.00014653214 2.0372108e-06
5.4932774e-09 1.999634e-06 1.1684609e-05 -0.003691893 0.0020156323 -0.000713241 -0.0015470159 1.1297803e-08
1.3331364e-10 -5.4092116e-11 -0.00024930562 -3.5100625e-12 -0.00010726748 0.0056731855 0.006844011 -1.1884301e-09
-2.5545767e-05 -2.2020095e-06 0.035701282 -0.00070014835 -3.4683503e-11 0.009781886 -0.00017735749 5.7642204e-08
00000000: b0b6 0734 cb19 1eb8 7046 06b1 c03e 13b6
00000010: 551c 6db4 faec a030 82ca 93b9 8fca fab3
00000020: 6ce0 dd33 c956 0fb5 d64f c2b7 470e bcbb
00000030: 5b39 52b9 514c fa33 ccb7 a637 954d dcaa
00000040: 4e61 a0a7 658b 24ba 3fc6 e2b1 9d5b e8b0
00000050: 95c7 a7b7 95e1 dfb2 a87b 08bb 45dc fc3c
00000060: dc99 91b8 c4ef 1c3d 64f7 75af ddf3 d1b4
00000070: 1c8f 4fb7 c763 79ba aabb 1a39 e20e 85b3
00000080: 8c19 92b9 41f0 5534 0791 20b6 dae0 2aa7
00000090: 6fc6 3db2 0158 1238 95f3 dc3b 2b13 6433
000000a0: ebe5 f3b5 918a c4ba 8571 2eb6 3b51 553b
000000b0: 112a e2ba 85aa 6131 4d76 01ba 94f0 beaf
000000c0: 69c3 11b9 894a c33c e3e3 16af be31 9eba
000000d0: 4a8d 09b9 dde1 0eb7 2d25 34b5 6a47 c6b6
000000e0: 6431 fdb7 ec63 7eb4 e1fd 39ba 682b 4733
000000f0: 9f34 e2bb cf7c 88b4 feeb 46bb e006 75ac
00000100: 2a2a 1034 a4e3 b1b6 0e60 edba 77b9 2031
00000110: a7eb 8cb9 0cd4 bfb6 6ca8 f6ba 1902 2b34
00000120: bb72 24bb 4b3c 4cb0 13cc ffb6 16e3 12ba
00000130: e571 70b4 7cbb 9b32 f0d1 4f34 e7a6 5fb9
00000140: 1712 1d3d 73de 2336 8372 d2b2 560e e0b8
00000150: f7c8 e9b5 bd23 aaba 4284 96b5 23f5 732e
00000160: a5a4 6332 87b6 7f3b 1d80 18b0 c5eb 0cb7
00000170: f54c 0937 fe6b 5fae 2809 a93b dfbd bdb8
00000180: 9894 33ba 43c3 18b7 e659 8ab8 75a7 db3a
00000190: ae17 4234 3e89 f033 7742 48b9 c7aa deb5
000001a0: ded0 cebb ef1f d7ba 7c7e e1ae 63cd 22bb
000001b0: 4d6f 07b7 96af 20ad e78c f233 b0ae f3b8
000001c0: af65 85b9 0bf1 dab6 801c 9c3c ee4d 2b32
000001d0: 9c6a 01b9 6fc7 8ab1 7cff 6bb6 60da ebb5
000001e0: 894c 9aae 16e3 ba38 8ff5 a5b5 d2af 11bb
000001f0: e5f7 4033 36a3 e337 804b 0fb0 3335 0eab
00000200: 537c 58ba bd88 76b9 ad13 99ba e266 3fac
00000210: d0d2 5bba 604f 9233 d895 b732 278d fcb6
00000220: 2dec 13b8 cbfb 1db7 2af7 bfb7 ccbf 2939
00000230: 98ba c1ba 763e 1f3d c119 6db3 f5ea b1b7
00000240: 59ba beb1 433f 1ab7 06ac 9cb1 5ff6 47b9
00000250: 0ad6 b5bb da50 38b6 ea90 58b4 dcec 7439
00000260: 6f08 9d38 c8c8 24bb 83bd b6b7 0830 bebb
00000270: 3232 e7af 64d0 d9bb cb09 1837 ee18 03ba
00000280: 3cf3 c2aa 56b1 2233 8984 91b6 da00 71a5
00000290: 9be9 efad c796 76b8 f4e5 d5b7 d5b2 9e38
000002a0: d28e 63a6 953f 2eb9 f806 6cab 7009 ccb0
000002b0: bf42 d6b0 ed88 0c31 8b3f 31ac 3f7b 4e3b
000002c0: a045 36b7 f164 72b9 a232 e4b5 936e 73bb
000002d0: 7b4b 44af 64f3 12b9 4baa 4e39 3814 70ab
000002e0: 8c03 1a3b 3263 52ac 19dd 42ba 3b86 2133
000002f0: 9fb4 2733 b050 963a 5459 92ba 8185 1aba
00000300: 4416 2fb0 30fe b5b5 a9ba 8eab 0502 e1b9
00000310: 7170 b03b e76d a4b2 7e00 24ba 2b6a bfbb
00000320: bd32 d5bb e3b0 66b1 5759 ad3b 56d5 79b8
00000330: 7e4a 47a9 143b 51bb c913 56b2 7e62 18b8
00000340: 38fc 153c 19b5 9bb1 759c 7bb4 d1ec 0dac
00000350: a730 5033 939a 6433 bce9 852e 0a76 42ba
00000360: 91a9 7436 792b 93b5 5f85 6daf a8c0 8bba
00000370: 866c e1bb 135e c6b4 e857 e2ae 1bef 0eba
00000380: 563b 8ab5 80cb e13a 5e7e 9db5 b190 43b9
00000390: a2e2 32b5 d54c 233b 6ca6 19b9 04b7 0836
000003a0: 61bf bc31 7331 0636 0309 4437 b0f3 71bb
000003b0: b318 043b cbf8 3aba 3dc5 caba 4318 4232
000003c0: 7494 122f 4fe6 6dae 3cb5 82b9 aaff 76ac
000003d0: caf4 e0b8 21e6 b93b ba43 e03b 2b56 a3b0
000003e0: 1e4b d6b7 3cc6 13b6 823b 123d 298a 37ba
000003f0: 278a 18ae 3444 203c 0af9 39b9 4692 7733

weight f4 [32, 256]
-2.8158418e-06 -6.649109e-05 -3.115739e-10 3.5919652e-06 -8.0027725e-08 -1.5384238e-09 0.00054673577 -6.271989e-08
2.397627e-08 7.952262e-07 -5.523943e-07 -0.00173679 0.00026146515 6.402571e-08 -1.5136108e-05 -4.3356364e-13
-3.4617809e-15 -0.00054204045 -3.6475612e-08 -4.0381933e-09 0.00020357221 -2.461175e-08 -0.0014192732 0.0030785564
0.0005591149 -0.0044714757 -1.8227954e-10 -3.5001847e-06 3.5143985e-06 0.0007605766 0.000631153 1.3983149e-07
-0.0002554512 -1.480936e-07 1.5643868e-06 -4.196231e-15 -3.9229446e-09 -0.0001921145 0.0033593923 -9.197191e-08
1.6299552e-06 0.00022421646 -2.4137628e-06 0.0015970267 -0.0012672037 -8.718214e-09 0.00036754736 -2.2179372e-10
0.00037218817 0.0043940134 3.240647e-11 -0.0007090575 0.00037506927 2.8948177e-06 3.6918047e-07 -1.0012025e-05
2.8686942e-05 7.9599346e-08 0.0002935153 5.149645e-09 0.005547139 3.1225792e-07 -0.0007804522 -6.3472643e-12
-2.4388882e-07 4.0170744e-06 0.0012766985 -4.057065e-08 -0.0001898561 7.8716545e-07 -0.0022454176 -4.6090003e-07
-0.0023465059 -1.6413181e-09 -5.0392995e-08 0.0008434224 7.887752e-09 2.5306526e-09 -5.152721e-07 -0.00018848067
-0.002319962 -6.724697e-06 3.7618624e-09 0.00043399178 -1.328444e-06 -0.00046152237 1.4036071e-06 -3.0003322e-09
3.741501e-09 0.0019099024 3.7449485e-10 9.0787427e-07 2.079372e-06 -1.5859147e-10 -0.019717218 2.3545328e-05
-0.00030826425 -6.922259e-06 -2.201043e-05 0.0014910623 -1.8716806e-07 7.663772e-08 0.00038274087 1.1962785e-06
0.00018383499 -0.0008942511 -1.2498748e-10 -0.00046824428 3.1871148e-06 8.5273325e-12 7.0888336e-07 0.0002927159
-0.00025132767 4.4522835e-06 0.008329122 -7.987043e-07 0.000112820366 3.0727942e-09 2.0648358e-07 5.8181644e-07
1.2172596e-09 0.00028543634 -1.1102389e-06 -0.0019966168 1.3298667e-07 0.00058871595 -9.368923e-11 -2.7967564e-13
-0.0071966834 6.817545e-05 0.002423798 -3.6932727e-12 -0.0005544768 1.1165544e-07 3.676514e-07 -8.915436e-06
9.188343e-06 -9.806551e-08 3.2538457e-05 0.00060990587 9.926927e-06 -0.0034216372 -9.238343e-08 -3.0524748e-06
2.3399507e-09 -4.727187e-06 -7.318357e-08 0.00021524487 -0.0005473884 3.153529e-06 -3.299545e-07 0.00034290773
0.00028070583 -0.0021256092 0.00013008274 -0.0018126363 -3.7597728e-10 0.005521622 5.272798e-06 0.00038542747
-3.0497165e-13 -2.8715773e-08 1.0675594e-06 -1.6944938e-16 -8.230718e-11 -2.9483448e-05 2.00094e-05 -0.00026320864
-2.5484276e-15 9.70588e-05 -1.8793864e-13 -2.3895727e-10 -3.021752e-09 2.1430194e-10 -6.474062e-12 0.0013117425
4.0480154e-06 0.0006430893 1.506622e-06 0.0024023952 1.0966916e-11 0.00039884044 0.00035013043 -8.399415e-13
1.349069e-05 -6.513692e-12 -0.011516854 -7.421414e-07 -7.631967e-08 -0.020737601 -0.0011097032 -0.00033281045
-3.7825937e-10 2.946501e-05 -5.748033e-13 -0.00057868403 0.0024040902 -1.3799764e-08 -0.0011141533 -0.0017800515
0.005810572 3.1901104e-09 0.003857394 -6.972015e-05 -7.0369146e-14 -0.0015567294 -9.314639e-07 -6.442878e-05
0.0020918595 -8.627164e-10 9.738909e-07 6.906138e-12 7.685254e-09 -6.575096e-08 1.3177806e-10 -1.40577395e-05
1.1700613e-06 -1.6800814e-06 1.391182e-10 -0.0009279751 0.0057087047 -2.6785804e-07 -1.9433831e-10 -0.000627279
-7.887759e-07 -0.01745056 -1.9999413e-06 1.7920513e-05 -3.1534438e-07 -0.01150599 -0.00011108221 2.522005e-07
-2.9331012e-08 1.8099745e-07 -1.5347474e-05 0.0007485823 0.0020906604 -0.00013839664 -0.001562075 -1.318204e-07
-1.419814e-10 -9.572364e-11 -4.4416283e-05 -3.684054e-12 0.000119638134 0.002455611 0.0036814015 -2.4708766e-09
-6.139204e-05 -2.462628e-07 0.007707198 -0.00019769261 1.3825018e-10 0.0038820072 0.000278597 1.223394e-08
00000000: cbf7 3cb6 2271 8bb8 214a abaf 7e0d 7136
00000010: b5db abb3 7a70 d3b0 d152 0f3a a0b0 86b3
00000020: 60f4 cd32 8777 5535 3f48 14b5 01a5 e3ba
00000030: 4215 8939 827e 8933 17f1 7db7 1b13 f4aa
00000040: 9672 79a7 b817 0eba 5ca9 1cb3 53c0 8ab1
00000050: 0076 5539 d069 d3b2 e806 baba 9bc1 493b
00000060: 9191 123a 7585 92bb 216b 48af b7e4 6ab6
00000070: e8d8 6b36 6e61 473a f673 253a 9624 1634
00000080: 14ee 85b9 a903 1fb4 ecf7 d135 662f 97a7
00000090: 96ca 86b1 5872 49b9 4029 5c3b 1882 c5b3
000000a0: d6c4 da35 a61b 6b39 21fc 21b6 5353 d13a
000000b0: 4d18 a6ba 1cc7 15b2 5fb3 c039 62dd 73af
000000c0: 4022 c339 a8fb 8f3b 7186 0e2e 0be0 39ba
000000d0: f2a4 c439 9744 4236 c733 c634 52f9 27b7
000000e0: bda4 f037 34f0 aa33 f5e2 9939 c2f0 b031
000000f0: c6c4 b53b 67a4 a734 4397 4cba 1353 dfac
00000100: d3ef 82b4 68ca 8636 e556 a73a e73f 2eb3
00000110: 1c14 47b9 994d 5335 db27 13bb 9e71 f7b4
00000120: d6c7 19bb bf94 e1b0 af6f 58b3 1e19 5d3a
00000130: b382 0732 b6e7 2d31 3b51 0ab5 e5a2 45b9
00000140: 810a 18bb b5a4 e1b6 b141 8131 6489 e339
00000150: fd4c b2b5 7cf8 f1b9 9363 bc35 672e 4eb1
00000160: 978e 8031 b155 fa3a 77e1 cd2f a5b4 7335
00000170: 578b 0b36 885f 2eaf 0186 a1bc 3583 c537
00000180: 879e a1b9 c145 e8b6 0aa3 b8b7 c06f c33a
00000190: 5df8 48b4 0894 a433 9caa c839 d18f a035
000001a0: d4c3 4039 2d6c 6aba d96c 09af af7e f5b9
000001b0: 37e2 5536 b103 162d 184a 3e35 aa77 9939
000001c0: a1c4 83b9 d364 9536 df76 083c 8b66 56b5
000001d0: f999 ec38 2b29 5331 c6b5 5d34 1f2e 1c35
000001e0: 844c a730 9ea6 9539 8503 95b5 acd9 02bb
000001f0: 19cb 0e34 0f54 1a3a 5906 ceae 8271 9daa
00000200: 28d2 ebbb 6bf9 8e38 95d8 1e3b 0bf2 81ac
00000210: 4f5a 11ba 3ac7 ef33 a061 c534 8293 15b7
00000220: a227 1a37 1698 d2b3 e779 0838 17e2 1f3a
00000230: d48b 2637 8c3d 60bb 5464 c6b3 1ed9 4cb6
00000240: d9cc 2031 3a9e 9eb6 1829 9db3 5bb3 6139
00000250: 9d7e 0fba 37a1 5336 9a24 b1b4 4cc8 b339
00000260: b32b 9339 ce4d 0bbb d266 0839 fb95 edba
00000270: 19b2 ceaf b9ee b43b fdec b036 3313 ca39
00000280: 0caf abaa a7aa f6b2 1049 8f35 a15c 43a5
00000290: d3fe b4ae 3953 f7b7 dcd9 a737 44ff 89b9
000002a0: 31a2 37a7 0c8c cb38 a099 53aa 3f5e 83af
000002b0: 39a7 4fb1 a2a0 6b2f 2bc9 e3ac c6ee ab3a
000002c0: 30d4 8736 fe94 283a 2337 ca35 8171 1d3b
000002d0: 99ee 402d 751b d139 b691 b739 2a6c 6cab
000002e0: 1356 6237 1f2e e5ac 30b1 3cbc 9237 47b5
000002f0: 2fe5 a3b3 e7e1 a9bc 7673 91ba 107d aeb9
00000300: 46f3 cfaf a12b f737 f1ca 21ab d4b2 17ba
00000310: f18d 1d3b 0114 6db2 c808 92ba 9e50 e9ba
00000320: 9c66 be3b 0439 5b31 55cc 7c3b b836 92b8
00000330: 0d75 9ea9 2c0b ccba b609 7ab5 f01d 87b8
00000340: 9417 093b 4524 6db0 a3b6 8235 f6fc f22c
00000350: 1b08 0432 f932 8db3 3ae4 102f 88d9 6bb7
00000360: 000b 9d35 287f e1b5 4bf6 182f 5b43 73ba
00000370: 1610 bb3b 21ce 8fb4 5fad 55af fb6f 24ba
00000380: 44bc 53b5 7af4 8ebc bb36 06b6 0254 9637
00000390: 9a4c a9b4 9f83 3cbc cff4 e8b8 2c66 8734
000003a0: 94f3 fbb2 3358 4234 73be 80b7 823c 443a
000003b0: 7603 093b 911e 11b9 8abe ccba 848a 0db4
000003c0: 361c 1caf 9e7f d2ae 9f4b 3ab8 029f 81ac
000003d0: 3ce6 fa38 51ee 203b ab43 713b 1fcc 29b1
000003e0: 9abf 80b8 1a36 84b4 aa8c fc3b b54b 4fb9
000003f0: f701 182f 4669 7e3b a810 9239 702d 5232

bias f4 [32]
0.0016406265 -0.0012141785 0.0018148933 0.02812917 -0.0028076565 -0.0011207747 0.003987549 -0.0031797613
-0.0005778842 0.00029322068 0.00023279816 0.0018029105 0.00030914287 -0.0027534543 -0.0022246647 0.04413593
-0.0018977845 0.0037856004 0.0032682929 0.008384617 -0.0018112711 -0.0011558903 0.022319116 -0.0015748049
0.00032445582 -0.0027661454 0.002598838 0.008519089 -0.0028793782 0.0032363262 -0.0014973837 -0.00082981255
00000000: 4a0a d73a 1225 9fba b7e1 ed3a 256f e63c
00000010: a900 38bb f5e6 92ba fca9 823b 8b63 50bb
00000020: 277d 17ba 6abb 9939 481b 7439 a34f ec3a
00000030: 7414 a239 4c73 34bb aecb 11bb e0c7 343d
00000040: 15bf f8ba d617 783b db30 563b a25f 093c
00000050: 2c68 edba 3e81 97ba 94d6 b63c af69 ceba
00000060: b91b aa39 3848 35bb 4451 2a3b a693 0b3c
00000070: f3b3 3cbb 8b18 543b dc43 c4ba c787 59ba

weight f4 [10, 32]
-0.0068966276 -0.0052334755 -0.00018139857 0.017225968 -0.031140352 -0.004907049 0.008569799 -0.04496104
-0.0007950211 0.0006544025 0.001072186 0.0074297003 0.0017566163 -0.028344348 -0.00072351925 -0.007585852
-0.0018764352 0.012286044 -0.29593447 0.0072637587 -0.14292924 -0.0004162735 0.032582834 -0.0041668685
-0.0022323136 -0.09173783 0.0029372491 -0.041617475 0.0014818312 0.017504122 -0.006414331 0.00043961784
0.025756553 -0.006069695 0.012643591 0.022288749 -0.011352485 -0.006061353 0.0044501 -0.012002974
-0.006664697 -0.0010616225 -0.0025492753 -0.02780654 -0.0024652611 -0.011225949 -0.0011073491 -0.015603847
0.0033786625 -0.032565016 -0.01369835 0.010042041 -0.0017765719 -0.0010275828 -0.006106505 -0.010366537
8.42867e-05 -0.0021532194 0.00059593853 0.046114348 0.0017801081 -0.03165512 -0.0073504476 -0.012411002
0.020995611 -0.0051668603 0.009757805 0.023485776 -0.008989077 -0.004204348 0.008192866 -0.009984764
-0.005771615 -0.0011069465 -0.00037664222 -0.024318721 -0.001330003 -0.008948978 0.0017992039 -0.022568855
0.0024115518 -0.031940613 -0.0050762366 0.00780294 -0.00883605 -0.0004607565 -0.0007408473 -0.0082648555
0.00045095698 -0.008965193 0.0034831234 0.03730216 0.0015012686 -0.0321727 -0.0055204313 -0.012384804
-0.027905932 0.003949281 -0.015404588 -0.020364175 0.006990346 0.0026467727 -0.0043596136 0.007974452
0.0043207374 0.00053957454 0.0021567706 0.02442802 0.0010215825 0.0073294966 -0.0012244458 0.030777486
-0.0028115953 0.030947678 0.008625474 -0.010745322 0.0055933525 -0.00019945744 0.0011524331 0.008055449
-0.000871433 0.00597081 -0.0034420535 -0.030260883 -0.001876814 0.027389085 0.0046067317 0.011327747
-0.0035536317 0.004997231 0.0003595975 0.009231061 0.0009818722 -0.004166723 -0.015728967 0.0013925956
0.003722469 0.0054341895 -0.0021980081 0.009619264 -0.0012353085 0.0030958448 -0.0014079844 0.0022099637
0.0011241355 0.009705776 -0.09126333 0.004511742 -0.050464656 0.0024073196 0.00991033 -0.006374576
0.0020185353 -0.027286636 -0.005822847 -0.020896602 -0.0005298255 0.013073649 0.004215416 0.0057479716
0.0010836736 -0.0023305218 -0.00028857723 0.014900738 -0.005053167 -0.0031944974 0.0044904356 -0.005834976
-0.0016739318 -0.0010590976 0.0021974146 0.0051114536 -7.914162e-05 -0.005377878 -0.0058499286 0.061255
-0.00336591 0.0071447766 0.0026131785 0.003864172 -0.001943753 -0.00367929 0.014374543 -0.005482731
-0.0029133013 -0.0028911554 0.0019628422 0.03711172 -0.0010266545 0.00526131 -0.00287059 -0.0021570965
-0.0024531102 0.0017852263 -0.001338516 -0.01640858 0.0029283988 0.0011331253 -0.009038298 0.003335479
0.00060095347 0.0006339788 -0.0003605443 0.0102726305 -0.004183331 0.0031199004 -0.0071747773 0.02802185
0.00041457033 0.010967806 0.0051952815 -0.005887736 0.001438105 -0.00059382565 -0.020182962 -0.004152816
-0.0019701833 0.0016443528 -0.021107504 -0.013322122 -0.0013012965 0.01246225 0.0020962458 0.005977491
0.0040814215 0.002113093 0.0018727615 -0.026433738 0.0055722506 0.0027258398 -0.006307731 0.0074837063
0.002802786 0.0016612683 0.0009450669 0.024751548 0.0018802535 0.0058948854 0.0027869309 0.0025671464
0.00081820006 0.021123279 0.0071197962 -0.009977517 0.006202526 0.002643328 -0.009441041 0.006006286
0.0025044272 0.006155997 -0.0010643121 -0.018029355 -0.008832782 0.014005759 0.0025115332 0.01336659
00000000: 1bfd e1bb 937d abbb cf35 3eb9 791d 8d3c
00000010: 0d1a ffbc 4fcb a0bb 5868 0c3c 1129 38bd
00000020: f668 50ba 358c 2b3a 9888 8c3a d874 f33b
00000030: 433e e63a 6832 e8bc 8eaa 3dba bd92 f8bb
00000040: b8f2 f5ba 674b 493c b984 97be d304 ee3b
00000050: 0b5c 12be 493f dab9 9475 053d 3a8a 88bb
00000060: 024c 12bb 0be1 bbbd dd7e 403b 1677 2abd
00000070: 013a c23a ce64 8f3c 4f2f d2bb 827c e639
00000080: 68ff d23c 4be4 c6bb 1027 4f3c e596 b63c
00000090: c6ff 39bc 509e c6bb 25d2 913b 1fa8 44bc
000000a0: 8863 dabb 2426 8bba be11 27bb 8aca e3bc
000000b0: 3890 21bb 0bed 37bc 7824 91ba 47a7 7fbc
000000c0: 8d6c 5d3b e562 05bd 0b6f 60bc 5f87 243c
000000d0: dcdb e8ba f5af 86ba 1419 c8bb 68d8 29bc
000000e0: 14c3 b038 071d 0dbb c238 1c3a 66e2 3c3d
000000f0: 8452 e93a cda8 01bd 06dc f0bb 8457 4bbc
00000100: fdfe ab3c c44e a9bb 33df 1f3c 3e65 c03c
00000110: ec46 13bc a1c4 89bb 5f3b 063c 2397 23bc
00000120: d11f bdbb f616 91ba 1078 c5b9 0e38 c7bc
00000130: 7f53 aeba bc9e 12bc 44d3 eb3a 52e2 b8bc
00000140: 200b 1e3b 29d4 02bd 8f56 a6bb ceaf ff3b
00000150: 14c5 10bc b191 f1b9 6c35 42ba 5169 07bc
00000160: 6c6e ec39 bfe2 12bc 1d45 643b 26ca 183d
00000170: 37c6 c43a 85c7 03bd bce4 b4bb a2e9 4abc
00000180: fb9a e4bc f868 813b 8663 7cbc c5d2 a6bc
00000190: 460f e53b 7a75 2d3b 17db 8ebb 47a7 023c
000001a0: f994 8d3b 3c72 0d3a 9b58 0d3b 451d c83c
000001b0: 9fe6 853a 462c f03b 957d a0ba 1121 fc3c
000001c0: be42 38bb fc85 fd3c dc51 0d3c 260d 30bc
000001d0: 7148 b73b 7325 51b9 3d0d 973a 01fb 033c
000001e0: e170 64ba c9a6 c33b 1394 61bb ace5 f7bc
000001f0: 6eff f5ba 135f e03c 11f4 963b 0498 393c
00000200: 0ce4 68bb d0bf a33b 5c88 bc39 e03d 173c
00000210: 2ab2 803a 0289 88bb 09da 80bc c187 b63a
00000220: abf4 733b 4911 b23b 750c 10bb 1e9a 1d3c
00000230: 13ea a1ba a8e3 4a3b 1e8c b8ba 0ad5 103b
00000240: ba57 933a fa04 1f3c 45e8 babd 3cd7 933b
00000250: 07b4 4ebd 1fc4 1d3b f05e 223c d2e1 d0bb
00000260: 6749 043b 3988 dfbc 95cd bebb 5a2f abbc
00000270: fde3 0aba dc32 563c 7921 8a3b 7b59 bc3b
00000280: 0d0a 8e3a abbb 18bb 2e4c 97b9 3a22 743c
00000290: 0a95 a5bb c65a 51bb 8124 933b 5433 bfbb
000002a0: d567 dbba 6bd1 8aba 8002 103b fb7d a73b
000002b0: d5f8 a5b8 e938 b0bb c2b0 bfbb 86e6 7a3d
000002c0: 9996 5cbb bb1e ea3b dc41 2b3b 0c3e 7d3b
000002d0: 87c5 feba 3e20 71bb 3483 6b3c 7ba8 b3bb
000002e0: 16ed 3ebb 8a79 3dbb 07a3 003b 7502 183d
000002f0: cf90 86ba 1167 ac3b 8220 3cbb 135e 0dbb
00000300: 5cc4 20bb 41fe e93a 2571 afba 496b 86bc
00000310: 61ea 3f3b 6085 943a 5f15 14bc 0d98 5a3b
00000320: 4e89 1d3a 9931 263a 7007 bdb9 894e 283c
00000330: 5314 89bb 3e77 4c3b 651a ebbb 148e e53c
00000340: b05a d939 50b2 333c 2e3d aa3b e9ed c0bb
00000350: cc7e bc3a f7aa 1bba bd56 a5bc 5814 88bb
00000360: 311e 01bb 5387 d73a a5e9 acbc 0845 5abc
00000370: 4490 aaba 772e 4c3c 2b61 093b d4de c33b
00000380: 72bd 853b d17b 0a3b 7377 f53a 918b d8bc
00000390: 6d97 b63b 01a4 323b 15b1 cebb e139 f53b
000003a0: f2ae 373b eabe d93a 5ebe 773a c2c3 ca3c
000003b0: d772 f63a e229 c13b f1a4 363b 923d 283b
000003c0: 7a7c 563a ba0a ad3c 2e4d e93b bd78 23bc
000003d0: 8f3e cb3b af3b 2d3b 99ae 1abc 61d0 c43b
000003e0: 5121 243b 3fb8 c93b 6380 8bba 4cb2 93bc
000003f0: 5fb7 10bc 6978 653c 8998 243b 8bff 5a3c

bias f4 [10]
-0.4115755 0.018805701 0.019226037 -0.015376549 -0.034652524 0.0010548811 -0.010526349 -0.030380256
0.032795593 -0.012388892
00000000: 06ba d2be 6a0e 9a3c ec7f 9d3c eced 7bbc
00000010: ceef 0dbd f043 8a3a b576 2cbc 04e0 f8bc
00000020: ac54 063d c7fa 4abc

bias f4 [64]
-6.15e-43 1.4452225e-12 -6.05e-43 4.95e-43 -8.121938e-06 8.109423e-09 -1.5207448e-14 6.088197e-11
-6e-43 1.910336e-05 5.02e-43 -3.518536e-07 -5.11e-43 1.6840495e-13 1.7338072e-09 0.000104525
-5.54e-43 7.380124e-16 3.7446796e-08 -5.14e-43 1.5591434e-11 -5.23e-43 -5.436456e-09 -5.14e-43
0.00011153619 2.3920902e-07 4.5232355e-12 1.9258657e-08 9.188212e-12 -5.492114e-07 3.523064e-05 -5.17e-43
-6.4497494e-06 -8.325e-09 4.7710568e-05 1.4172257e-06 -3.7996836e-06 2.9047345e-07 3.437598e-08 -5.62e-43
-7.988286e-05 -4.92e-43 1.125029e-10 1.0698931e-08 -5.93e-43 -4.3013833e-06 -2.9639492e-05 -1.0691162e-10
-7.573402e-05 6.1333374e-09 -1.5358457e-07 -5.41e-43 -4.072788e-09 3.113183e-06 1.2191117e-08 -4.1071066e-10
-5.07e-43 -1.1242085e-05 -4.957182e-06 2.1873281e-07 3.4371304e-08 -2.4158937e-09 -1.02643654e-07 -5.72e-43
00000000: b701 0080 a165 cb2b b001 0080 6101 0000
00000010: 7543 08b7 9f51 0b32 fdf9 88a8 81e1 852e
00000020: ac01 0080 2740 a037 6601 0000 64e6 bcb4
00000030: 6d01 0080 6c9b 3d2a eb4a ee30 6f34 db38
00000040: 8b01 0080 b4b7 5426 30d5 2033 6f01 0080
00000050: ca24 892d 7501 0080 93cb bab1 6f01 0080
00000060: 89e8 e938 a36c 8034 af25 9f2c 3c6e a532
00000070: 07a4 212d 856d 13b5 9dc4 1338 7101 0080
00000080: ed6a d8b6 bd05 0fb2 d51c 4838 8137 be35
00000090: 11fe 7eb6 5ef2 9b34 caa4 1333 9101 0080
000000a0: c986 a7b8 5f01 0080 8165 f72e 65ce 3732
000000b0: a701 0080 9a54 90b6 53a2 f8b7 e419 ebae
000000c0: 64d3 9eb8 68bd d231 01e9 24b4 8201 0080
000000d0: 9ff0 8bb1 14ec 5036 1971 5132 63ca e1af
000000e0: 6a01 0080 639c 3cb7 df55 a6b6 d1dc 6a34
000000f0: a69f 1333 da04 26b1 f26c dcb3 9801 0080

weight f4 [64, 1]
4.99e-43 -7.363445e-13 5.42e-43 5e-43 8.448169e-11 1.8458461e-10 2.96587e-14 1.2012488e-13
-4.97e-43 9.1554435e-09 -4.96e-43 7.561152e-11 4.99e-43 7.832799e-17 -2.5120015e-12 1.4678654e-11
5.02e-43 3.9787358e-17 -4.0767385e-09 -4.95e-43 1.2697333e-11 4.95e-43 2.7292075e-12 4.93e-43
3.150281e-12 -7.727924e-09 3.735432e-13 -1.1370174e-09 3.7613687e-13 -3.5763328e-12 4.2220383e-09 4.95e-43
-4.492405e-12 -8.441786e-13 1.2658614e-12 -2.450689e-10 1.1300535e-09 -1.6014995e-09 1.72104e-09 4.93e-43
6.261769e-11 -4.96e-43 -2.108399e-12 -3.4254023e-11 -5e-43 4.1119516e-10 -1.5154565e-11 -1.0694292e-10
-1.8688326e-10 -8.6444363e-10 8.355069e-10 -4.93e-43 7.7711806e-13 2.8351468e-12 1.1086499e-11 -1.0219414e-10
-4.93e-43 1.2205844e-08 -5.252961e-09 1.0271435e-10 3.115317e-09 2.1301162e-11 -1.8033643e-09 5e-43
00000000: 6401 0000 3743 4fab 8301 0000 6501 0000
00000010: f7c6 b92e f3f3 4a2f 2792 0529 a43f 072a
00000020: 6301 0080 114a 1d32 6201 0080 8045 a62e
00000030: 6401 0000 af9c b424 32c4 30ac 641d 812d
00000040: 6601 0000 9f7c 3724 5f13 8cb1 6101 0080
00000050: b45f 5f2d 6101 0000 080d 402c 6001 0000
00000060: 6bae 5d2c c5c3 04b2 4049 d22a 3e45 9cb0
00000070: 09bf d32a 7ca9 7bac 7111 9131 6101 0000
00000080: fd0f 9eac 7b9d 6dab 7727 b22b 62ba 86af
00000090: 3950 9b30 c11b dcb0 b689 ec30 6001 0000
000000a0: a0b2 892e 6201 0080 8a5d 14ac 9aa6 16ae
000000b0: 6501 0080 930e e22f 0c4d 85ad 832b ebae
000000c0: f67a 4daf d09d 6db0 92a9 6530 6001 0080
000000d0: 42bd 5a2b 7781 472c 2709 432d 30ba e0ae
000000e0: 6001 0080 dfb1 5132 897d b4b1 0adf e12e
000000f0: 3c15 5631 f45d bb2d 3eda f7b0 6501 0000

bias f4 [64]
-3.4189436e-11 2.578427e-10 -2.0847935e-08 -2.4167266e-09 -1.3088026e-09 -3.9172418e-10 -4.3294805e-11 8.5676675e-09
2.6579428e-10 1.9259833e-11 2.3352284e-11 0.00013456437 -0.0004778356 -4.0097033e-11 -2.5935287e-10 -3.3946926e-10
6.592916e-10 -1.159188e-10 2.2098579e-09 1.2398315e-09 -7.548509e-10 9.676798e-10 2.5373257e-09 7.459361e-13
3.0966046e-07 -6.4538946e-10 0.0008451368 -5.777987e-10 6.65315e-11 1.7937707e-09 2.449765e-09 1.660589e-07
7.200725e-11 -3.684596e-12 2.986238e-09 1.2682893e-06 4.0829054e-08 5.0206374e-15 -1.4813186e-08 6.577645e-08
4.3122437e-08 9.923509e-07 -8.8468005e-05 1.8263294e-09 2.3351416e-11 -3.1547223e-15 4.0235926e-10 7.0010935e-11
-5.2421534e-10 8.424146e-09 5.966748e-10 -1.4268266e-13 -1.8057549e-09 2.1118983e-10 3.8514732e-13 -7.608765e-10
-1.0430187e-08 3.7980307e-08 -1.2908546e-09 1.8348887e-06 -7.35057e-12 2.3657025e-09 -8.0550855e-10 -3.2731286e-08
00000000: e25d 16ae 22c0 8d2f 1815 b3b2 8113 26b1
00000010: 66e1 b3b0 475a d7af 9e69 3eae 0031 1332
00000020: 381f 922f 4a69 a92d ab68 cd2d d919 0d39
00000030: 0286 fab9 3f59 30ae ac94 8eaf 0da0 baaf
00000040: 8639 3530 7ce8 feae 3bdc 1731 b166 aa30
00000050: e97d 4fb0 35ff 8430 1b5d 2e31 5cf6 512b
00000060: 693f a634 3f67 31b0 2c8c 5d3a f8d2 1eb0
00000070: e84d 922e b288 f630 b958 2831 ec4d 3234
00000080: 7a58 9e2e e4a3 81ac 7436 4d31 173a aa35
00000090: 055c 2f33 35e3 b427 157d 7eb2 fc40 8d33
000000a0: 9f35 3933 eb30 8535 e687 b9b8 4102 fb30
000000b0: b766 cd2d 5b52 63a7 0833 dd2f a7f4 992e
000000c0: 6018 10b0 c9b9 1032 4203 2430 7aa5 20aa
000000d0: 5a2e f8b0 a734 682f 94d1 d82a ec25 51b0
000000e0: 7330 33b2 ca1f 2333 e969 b1b0 4c46 f635
000000f0: 0650 01ad e191 2231 a06a 5db0 6e94 0cb3

weight f4 [64, 64]
-4.92e-43 2.3479943e-06 -4.99e-43 -5.09e-43 3.54276e-15 -1.8474803e-17 1.8978837e-22 -8.4260584e-15
-4.96e-43 6.502963e-16 4.92e-43 -4.3154254e-05 -5.04e-43 -1.885809e-08 1.4163003e-17 -2.0037081e-14
5.42e-43 4.2599436e-25 5.860605e-17 -5.47e-43 -2.4551011e-20 6.08e-43 7.412328e-18 4.93e-43
2.4898184e-15 4.161943e-17 3.783825e-21 1.405804e-17 -2.464841e-15 1.14621456e-14 -9.189991e-15 -4.93e-43
-2.1189366e-15 -2.7111975e-17 3.143467e-16 1.0664358e-15 1.7337339e-13 1.1355993e-15 -1.5817154e-18 -4.92e-43
1.3155029e-15 -4.99e-43 -9.340735e-19 1.3590586e-17 5.02e-43 4.3224484e-14 4.8452766e-15 1.1882538e-21
4.010176e-16 1.3717703e-17 -1.2786016e-06 -4.97e-43 9.230898e-18 -2.0951745e-13 -4.201926e-17 -4.013617e-19
5e-43 1.0855266e-15 3.2415074e-15 -7.9943245e-16 -1.19654744e-17 -5.920852e-18 4.0637054e-15 -5.28e-43
5.55e-43 -3.9886544e-21 5.02e-43 5.04e-43 1.6296882e-14 -1.816724e-16 3.4698058e-22 -2.0661727e-18
5.8e-43 5.5343024e-15 -5.02e-43 -6.430816e-09 -4.95e-43 6.661859e-21 -6.9114083e-17 2.5798369e-14
5.97e-43 2.737954e-25 1.8083598e-17 5.13e-43 -4.6701667e-20 -4.92e-43 2.7290359e-16 5.42e-43
3.0912084e-15 1.44674e-16 -4.6488286e-12 1.6454175e-16 9.263327e-18 2.5614433e-15 1.5153912e-14 -4.92e-43
-1.3897869e-15 1.1169367e-15 8.2342385e-15 -1.1163004e-15 6.8685546e-15 -4.4971785e-16 2.021291e-17 -4.97e-43
3.3715103e-14 4.92e-43 -5.075364e-18 -6.479673e-17 4.97e-43 1.4001723e-14 1.4052352e-14 5.474427e-20
6.793034e-14 6.6106865e-17 -2.1466204e-15 -4.99e-43 -1.6585433e-17 1.5362892e-09 4.7049196e-17 5.006091e-19
-5.47e-43 6.0599863e-15 7.105668e-14 -8.596773e-16 4.5953308e-17 1.9616116e-16 3.0680639e-10 5e-43
4.95e-43 3.0811148e-17 -5.03e-43 -6.03e-43 2.9382829e-12 1.1158542e-14 1.8628128e-19 -2.2934954e-14
-5.09e-43 1.2636162e-11 -4.92e-43 1.8661321e-08 -4.97e-43 -2.1104287e-18 -2.1028708e-14 -2.682597e-11
5.02e-43 2.9958606e-21 -2.380549e-14 -4.95e-43 -3.267553e-16 -5e-43 -5.445879e-14 -4.96e-43
-5.4843925e-12 -1.1735904e-13 7.200374e-17 -1.08884845e-13 1.5745062e-15 -2.4506293e-11 -3.484491e-11 -4.99e-43
3.288003e-10 4.170062e-14 3.241599e-12 1.474293e-11 -8.803313e-12 -1.51322e-13 -4.9830427e-15 -5.06e-43
1.3669526e-11 -5e-43 -4.0816523e-15 1.2753787e-13 -5.31e-43 -1.0175576e-11 2.0245016e-11 3.5036912e-17
-3.6778016e-12 -5.6941163e-15 -1.7708117e-12 4.97e-43 -8.856423e-15 4.7772797e-10 -6.7687324e-14 1.0072106e-14
4.95e-43 -3.9088797e-12 -8.234457e-13 7.680243e-13 -2.4185657e-14 -6.155681e-14 1.3080483e-12 4.93e-43
4.92e-43 -1.435121e-12 5.84e-43 4.97e-43 -1.4071353e-09 -9.145452e-09 1.9056736e-07 -3.5485446e-15
4.97e-43 -1.2213372e-13 -4.93e-43 -4.995906e-07 5.11e-43 -2.3890149e-17 -8.1115144e-17 5.307624e-13
-4.99e-43 4.615692e-22 -6.976579e-11 6.01e-43 -8.630935e-18 -4.92e-43 1.2035217e-15 -4.93e-43
-2.9806938e-13 -1.4466877e-15 -9.221425e-19 3.690611e-15 -1.3975808e-16 2.685799e-10 7.663367e-10 -4.93e-43
2.2809068e-12 -1.7775669e-08 -1.232919e-12 1.0789662e-13 -1.814566e-13 9.4627507e-07 -6.013863e-17 4.97e-43
1.4872841e-12 -5.17e-43 -2.0487897e-17 8.7992895e-16 5.1e-43 -1.2436003e-12 -7.437571e-13 4.7066166e-08
4.588474e-07 -1.4298282e-15 -2.0764518e-14 -4.95e-43 -6.6853424e-08 9.520049e-14 6.9393444e-16 -4.3274437e-16
5.14e-43 -7.403167e-14 2.8655173e-12 4.2928082e-07 1.948123e-15 1.9826636e-15 -5.567052e-14 5.02e-43
00000000: 5f01 0080 3c92 1d36 6401 0080 6b01 0080
00000010: 6348 7f27 6566 aaa3 a870 651b 56ca 17a8
00000020: 6201 0080 666f 3b26 5f01 0000 8700 35b8
00000030: 6801 0080 61fd a1b2 72a1 8223 5d7a b4a8
00000040: 8301 0000 c0d6 0317 e822 8724 8601 0080
00000050: b4e0 e79e b201 0000 bbbb 0823 6001 0000
00000060: 0b69 3327 8def 3f24 e9f2 8e1d 9ca9 8123
00000070: 4b9c 31a7 d17b 4e28 5a8d 25a8 6001 0080
00000080: 7baf 18a7 5710 faa3 6335 b525 89b0 9926
00000090: 7a33 432a 38a8 a326 856b e9a1 5f01 0080
000000a0: 7e95 bd26 6401 0080 4dd8 89a1 bab3 7a23
000000b0: 6601 0000 70aa 4229 ca91 ae27 5890 b31c
000000c0: c12b e725 050c 7d23 6b9c abb5 6301 0080
000000d0: af47 2a23 4be5 6baa 96c7 41a4 11ec eca0
000000e0: 6501 0000 dd70 9c26 4293 6927 b46b 66a6
000000f0: 5bb9 5ca3 de70 daa2 1169 9227 7901 0080
00000100: 8c01 0000 e6af 969d 6601 0000 6801 0000
00000110: 0dca 9228 3a74 51a5 a5bc d11b e674 18a2
00000120: 9e01 0000 ee64 c727 6601 0080 0ef6 dcb1
00000130: 6101 0080 8cad fb1d c15d 9fa4 fd5e e828
00000140: aa01 0000 9d78 a916 b0ca a623 6e01 0000
00000150: da8a 5c9f 5f01 0080 7651 9d25 8301 0000
00000160: bbbe 5e27 3acc 2625 ed90 a3ac 27b4 3d25
00000170: d3e0 2a23 4a92 3827 8b7e 8828 5f01 0080
00000180: 164a c8a6 b1f7 a026 b955 1428 37e0 a0a6
00000190: 3c77 f727 529f 01a6 626e ba23 6301 0080
000001a0: ded6 1729 5f01 0000 753f bba2 3d69 95a4
000001b0: 6301 0000 8d3b 7c28 0925 7d28 e142 811f
000001c0: 2df7 9829 9b6e 9824 28ae 1aa7 6401 0080
000001d0: 3ff9 98a3 5f25 d330 e3f9 5824 f4c0 1321
000001e0: 8601 0080 8255 da27 6301 a029 fdc8 77a6
000001f0: 17ec 5324 8e28 6225 29ab a82f 6501 0000
00000200: 6101 0000 6217 0e24 6701 0080 ae01 0080
00000210: 66c3 4e2c b103 4928 10ec 5b20 6794 cea8
00000220: 6b01 0080 374c 5e2d 5f01 0080 ae4c a032
00000230: 6301 0080 dfb8 1ba2 e668 bda8 b7f6 ebad
00000240: 6601 0000 5f5c 621d b96b d6a8 6101 0080
00000250: 925c bca5 6501 0080 b642 75a9 6201 0080
00000260: 04f7 c0ac 7122 04aa 8207 a624 d72f f5a9
00000270: 07e9 e226 448f d7ad e23f 19ae 6401 0080
00000280: 87c2 b42f 8bcd 3b29 751b 642c 21ae 812d
00000290: 99de 1aad 995f 2aaa 7588 b3a7 6901 0080
000002a0: 127a 702d 6501 0080 990e 93a7 4a98 0f2a
000002b0: 7b01 0080 b802 33ad b913 b22d 4994 2124
000002c0: b166 81ac f426 cda7 3738 f9ab 6301 0000
000002d0: 0b8b 1fa8 1e51 0330 166b 98a9 6471 3528
000002e0: 6101 0000 0f88 89ac 84c7 67ab fc2d 582b
000002f0: 54d8 d9a8 169d 8aa9 6817 b82b 6001 0000
00000300: 5f01 0000 aff9 c9ab a101 0000 6301 0000
00000310: 2c65 c1b0 201e 1db2 c29e 4c34 18b3 7fa7
00000320: 6301 0000 a682 09aa 6001 0080 9b1b 06b5
00000330: 6d01 0000 0559 dca3 ee09 bba4 7665 152b
00000340: 6401 0080 3080 0b1c a66a 99ae ad01 0000
00000350: 7036 1fa3 5f01 0080 1d72 ad26 6001 0080
00000360: 53cc a7aa 5b7d d0a6 8f15 88a1 e1f7 8427
00000370: 4e21 21a5 43a7 932f 27a6 5230 6001 0080
00000380: 2a81 202c 1cb1 98b2 9784 adab 2bf6 f229
00000390: 4e4d 4caa 8703 7e35 95ab 8aa4 6301 0000
000003a0: 0f51 d12b 7101 0080 aef7 bca3 4c9f 7d26
000003b0: 6c01 0000 6c05 afab 5959 51ab cc25 4a33
000003c0: 8257 f634 5a0f cea6 b807 bba8 6101 0080
000003d0: 0f91 8fb3 595f d629 5303 4826 cc75 f9a5
000003e0: 6f01 0000 5ab4 a6a9 92a4 492c e877 e634
000003f0: 8760 0c27 b0dd 0e27 bdb7 7aa9 6601 0000

bias f4 [10]
-1.0953441e-07 0.0010596126 -0.0030336934 0.0023984099 0.020362556 -0.00059963285 -7.48352e-07 -0.003002227
-0.0026501482 0.0070562656
00000000: 2e39 ebb3 b3e2 8a3a eed0 46bb a42e 1d3b
00000010: 60cf a63c ae30 1dba 5ce2 48b5 03c1 44bb
00000020: 1cae 2dbb 3f38 e73b

weight f4 [10, 64]
-1.1203809e-15 1.2604431e-16 9.076246e-13 3.433365e-14 -2.1758508e-14 6.191968e-14 -4.9983637e-16 2.0716335e-14
2.3887348e-15 -4.4509777e-15 -2.2857758e-16 -2.8803657e-09 4.0044474e-09 -1.4914415e-15 1.3669763e-15 3.9199114e-15
-2.5152753e-15 -1.2151097e-15 -9.666904e-14 -8.772525e-14 1.7943922e-14 -1.0438098e-14 -4.4748778e-13 7.6779096e-17
-3.2768504e-12 -1.7037881e-16 -6.0002385e-09 7.6334796e-15 1.4304307e-15 -1.4790157e-14 -2.6677843e-14 -1.9994492e-12
-1.3010381e-15 -1.5324649e-17 -2.1453766e-14 1.43043286e-11 -3.119026e-13 2.3465211e-17 -1.8286724e-13 5.0608338e-14
-1.9079298e-12 -1.4126509e-11 -2.8264482e-09 -2.8239123e-14 -7.559166e-16 -8.0494735e-20 -4.764704e-15 -8.2948615e-15
-4.0417424e-14 -4.3114753e-14 -6.273213e-15 7.3238585e-17 2.5341052e-13 5.6872308e-15 -1.146292e-17 -8.788857e-14
1.2010469e-13 -3.7061955e-13 1.6741964e-14 -1.7117162e-11 2.3833323e-16 -1.580943e-14 -7.310253e-15 1.8034943e-13
-1.78183e-12 1.9363622e-11 -1.5676646e-08 1.08985376e-10 8.7064383e-11 -1.4494581e-11 2.010592e-12 -1.9444588e-09
1.9027058e-11 2.0898039e-11 1.7548554e-12 9.83294e-06 1.6170901e-07 -3.2153828e-12 8.705063e-12 -3.890862e-12
3.7675293e-11 -2.3837635e-12 7.025121e-10 1.4178089e-10 1.3323491e-10 -1.3118217e-11 1.2515283e-09 9.840501e-14
2.6280333e-08 -4.5005503e-13 4.7916026e-05 -3.964613e-11 1.6521953e-12 3.0457023e-10 1.2596495e-10 1.4691318e-08
7.313506e-12 8.957964e-13 2.8159292e-10 -2.5206185e-07 1.4407673e-09 1.5428251e-14 1.7114359e-10 7.2197412e-09
5.187011e-09 4.559731e-08 -4.087274e-06 1.531485e-10 5.841114e-13 -1.584843e-16 1.5590276e-11 1.3557423e-10
4.9093896e-11 5.8790245e-10 4.7714235e-11 6.3518255e-14 -8.0918466e-10 3.1025394e-11 1.1039991e-13 -6.526378e-11
6.983738e-10 2.5257614e-09 4.260208e-11 1.1735199e-07 -5.341156e-13 1.755173e-10 7.5362e-11 -2.3981336e-10
-2.4901038e-12 -4.6793472e-11 -3.5674756e-08 2.3659403e-09 -1.15905306e-10 -2.2286731e-10 -4.8435306e-13 8.4909235e-09
-4.2098377e-11 -1.629176e-11 -3.6888144e-12 -1.6137505e-05 0.00010738586 1.162687e-11 2.0304966e-11 -6.202274e-11
-1.0967301e-10 2.829858e-11 -1.2854002e-09 -3.9743792e-10 -5.084439e-11 -8.7459526e-11 5.462639e-10 1.5112886e-14
-5.0714362e-08 5.4173013e-11 -0.00012461023 1.4841435e-11 -7.901726e-12 -4.193509e-10 -3.071082e-10 -2.7060606e-08
-9.965385e-12 -2.2179136e-12 2.9945124e-10 -1.2992815e-07 -3.170216e-09 -6.46655e-14 1.5742346e-10 -4.651958e-09
-7.3191426e-09 -1.3140371e-07 -4.6114446e-06 -2.7682184e-10 -3.1917713e-12 -2.6277074e-16 -4.16071e-11 -1.1135767e-10
6.1866394e-11 -1.0160792e-09 -7.646365e-11 -1.000846e-13 1.5835604e-09 -4.5648128e-11 -1.7755112e-13 2.8100935e-10
-1.4221684e-09 -5.8363177e-09 1.613815e-10 -2.9142544e-07 8.461837e-14 -3.4214334e-10 1.2494053e-10 -4.1909431e-10
8.523699e-11 2.8592918e-11 2.8974526e-08 1.8552818e-09 -3.00914e-10 1.9693408e-10 -2.8246296e-12 6.500399e-09
5.312001e-11 7.124166e-12 2.7231021e-12 5.8597492e-05 -0.000102088845 -9.936454e-12 -2.6680142e-11 2.3666229e-11
8.7033804e-11 7.667128e-12 4.737676e-10 2.8433662e-11 -2.639928e-10 -3.529431e-09 4.7137423e-09 3.3963327e-13
5.3906593e-08 6.965953e-12 0.00011527002 -4.059636e-11 1.8372435e-12 7.682384e-10 -1.820796e-12 1.6354628e-08
1.0622469e-11 -5.8262735e-12 7.424737e-11 1.1001036e-06 8.479447e-09 2.1803054e-15 -2.5860571e-09 -2.038571e-09
2.5501363e-08 2.2916284e-07 9.758017e-06 2.8500433e-10 1.661032e-11 -2.047185e-15 7.457349e-11 2.9205444e-11
-7.1547046e-11 2.0861926e-09 7.378048e-11 2.8271079e-13 -4.13871e-09 -4.8473982e-11 5.693177e-14 -1.5847136e-09
-7.142929e-09 6.2723577e-09 -2.0523241e-10 1.05847846e-07 -1.9106734e-12 3.1627845e-10 1.2777561e-10 5.069644e-10
00000000: c276 a1a6 b751 1125 3f79 7f2b 01a0 1a29
00000010: b4fb c3a8 446e 8b29 6a11 10a6 9e98 ba28
00000020: 6120 2c27 065d a0a7 19c4 83a5 eeef 45b1
00000030: 7e97 8931 7bf0 d6a6 8600 c526 cd3a 8d27
00000040: a43e 35a7 a31d afa6 e8ad d9a9 2a8a c5a9
00000050: de9f a128 3b09 3ca8 c9e9 fbaa 610a b124
00000060: 7d96 66ac f36e 44a5 a82a ceb1 3683 0928
00000070: 9425 ce26 c837 85a8 eb4a f0a8 e0b2 0cac
00000080: d57f bba6 4e58 8da3 043d c1a8 f8a4 7b2d
00000090: e795 afaa aa6d d823 e5e3 4daa 71eb 6329
000000a0: 3542 06ac 2484 78ad 673b 42b1 fc5a fea8
000000b0: cde0 59a6 1510 be9f a3aa aba7 4c6d 15a8
000000c0: 1e06 36a9 ed2b 42a9 2d04 e2a7 6ee0 a824
000000d0: 4ea8 8e2a 72e7 cc27 1c74 53a3 50e8 c5a9
000000e0: d239 072a e8a3 d0aa 57cc 9628 6c90 96ad
000000f0: c763 8925 1066 8ea8 97b0 03a8 2f0e 4b2a
00000100: 31c5 faab 0053 aa2d 4fa9 86b2 50a9 ef2e
00000110: e474 bf2e cafd 7ead 9b7b 0d2c 489f 05b1
00000120: 205d a72d 33d2 b72d 54f9 f62b 28f8 2437
00000130: 3ca2 2d34 3043 62ac 1e24 192d c5e5 88ac
00000140: 9cb2 252e 11be 27ac e51a 4130 c6e3 1b2f
00000150: 4b7e 122f 32c7 66ad 3d02 ac30 a096 dd29
00000160: 10bf e132 c45b fdaa 71f9 4838 935d 2eae
00000170: 9c86 e82b 7370 a72f fb7f 0a2f 1a65 7c32
00000180: 1aa9 002d ef24 7c2b aece 9a2f 1e53 87b4
00000190: 7e04 c630 20f7 8a28 a32c 3c2f 8411 f831
000001a0: 6e39 b231 c6d6 4333 6b25 89b6 7863 282f
000001b0: aa69 242b 4fb8 36a5 2e22 892d c110 152f
000001c0: d0ea 572e f599 2130 74d9 512e c807 8f29
000001d0: 4f6d 5eb0 7d73 082e 3799 f829 3e84 8fae
000001e0: b0f7 3f30 aa91 2d31 ae5d 3b2e f002 fc33
000001f0: 1657 16ab bafb 402f 09b9 a52e bbd6 83af
00000200: b939 2fac c4cc 4dae cf38 19b3 1096 2231
00000210: e3e0 feae 920b 75af 5155 08ab 7adf 1132
00000220: 8f26 39ae c84d 8fad e3c9 81ac 075f 87b7
00000230: 5834 e138 c48a 4c2d b89a b22d b363 88ae
00000240: 6a2c f1ae bdea f82d 00aa b0b0 6a7e daaf
00000250: b29d 5fae 5653 c0ae e827 1630 f11f 8828
00000260: 08d1 59b3 6441 6e2e cea9 02b9 f18b 822d
00000270: 3602 0bad 648a e6af a3d5 a8af e772 e8b2
00000280: 1b50 2fad 6112 1cac 04a0 a42f 6182 0bb4
00000290: 08db 59b1 1f9d 91a9 c416 2d2f 0ed7 9fb1
000002a0: dc7b fbb1 fa17 0db4 02bc 9ab6 362f 98af
000002b0: d799 60ac 1e7a 97a5 6efd 36ae cce0 f4ae
000002c0: af0b 882e 1ca6 8bb0 3525 a8ae d85e e1a9
000002d0: 94a4 d930 39c3 48ae a0e7 47aa 8d7c 9a2f
000002e0: 1a76 c3b0 cb88 c8b1 db70 312f 3575 9cb4
000002f0: 2b8b be29 6518 bcaf a25f 092f 4866 e6af
00000300: 2970 bb2e 8781 fb2d a8e3 f832 edfc fe30
00000310: e16d a5af 0488 582f 01c4 46ac 1d5a df31
00000320: d09f 692e c8a8 fa2c 0c9f 3f2c 94c6 7538
00000330: 8818 d6b8 cfcd 2ead 57ae eaad 9c2b d02d
00000340: ad63 bf2e ade1 062d 6e3a 0230 ea1a fa2d
00000350: af21 91af 688a 72b1 84f6 a131 5032 bf2a
00000360: ed86 6733 ba17 f52c 1fbd f138 708b 32ae
00000370: d648 012c f92b 5330 8b20 00ac 357c 8c32
00000380: 59df 3a2d 68fe ccac 8e45 a32e 46a7 9335
00000390: 01ad 1132 891b 1d27 66b6 31b1 ec16 0cb1
000003a0: 170e db32 cd0f 7634 5db6 2337 cbae 9c2f
000003b0: 1e1b 922d e683 13a7 25fd a32e 6872 002e
000003c0: 6855 9dae b05c 0f31 b83e a22e eb26 9f2a
000003d0: 7a34 8eb1 da30 55ae ee32 8029 27cd d9b0
000003e0: de6d f5b1 3e84 d731 caa7 61af 784e e333
000003f0: a273 06ac 3ce0 ad2f a37d 0c2f 735a 0b30
