ckpt/real_only_MLP-last.pt (torch, 106402 bytes, 11 tensors)

weight f4 [256, 7]
8.2755686e-10 7.928311e-10 6.2483706e-11 -3.1806359e-12 -9.9528816e-11 -5.9967153e-12 3.4309396e-11 3.7519418e-05
4.487376e-05 -2.9265027e-06 3.9401112e-07 -8.564e-06 -2.5582508e-06 -1.487041e-06 4.146743e-06 -8.393664e-06
4.62181e-08 3.4330472e-09 -7.9714184e-08 -1.0675642e-08 -1.7951394e-09 -0.0058447374 -0.0075712027 0.000484627
1.278254e-05 -5.8346246e-05 -4.1430656e-05 -3.514379e-05 0.0012581989 -0.00064511085 -0.00011240945 1.5484276e-06
-1.7850352e-05 1.1486478e-05 1.2896439e-06 1.3449874e-05 -5.833493e-05 1.8802224e-06 -9.414178e-09 -4.3252922e-07
-3.6468816e-08 -4.9508763e-08 8.40225e-08 -6.6689715e-08 6.1268196e-10 -4.5495803e-12 -1.3222043e-09 2.9258283e-11
-1.1225912e-10 3.820925e-09 -8.047991e-09 -1.1840476e-10 -7.9264095e-12 -6.357005e-11 -7.063594e-13 -1.5864175e-11
0.01955412 0.022369253 -0.00040087666 7.4475094e-05 -0.0046538245 0.00056711043 -0.00038627375 4.5195566e-08
-8.074219e-08 -1.7946502e-09 5.5661975e-10 -1.7131771e-10 -7.747402e-11 -3.3339997e-10 -0.0029702191 -0.0054313755
-0.0002400364 -1.6343365e-06 -2.8875998e-05 2.504935e-05 8.056513e-06 -0.008409441 -0.006901735 -0.0012445452
-6.307919e-07 0.0002002796 2.4101502e-05 5.201984e-05 -0.0012150242 -0.0024909365 0.00012121696 5.157438e-07
4.866219e-06 -6.5847516e-06 -3.4529598e-06 3.364656e-05 5.417656e-05 -5.906833e-05 -1.452665e-06 -7.28423e-06
-1.9674867e-06 -4.771547e-06 -0.00030018712 -0.000354658 1.904448e-05 2.7174494e-07 -1.6296085e-06 -3.3980908e-07
-1.3922813e-06 8.713952e-05 -0.00044287537 2.0025438e-05 -8.129536e-07 -2.886175e-06 3.2914488e-07 -4.054555e-08
4.7835776e-05 -0.00035329483 1.1746431e-05 9.174805e-08 -1.4893291e-06 -1.8120055e-07 -2.4503834e-07 4.5943976e-10
6.072405e-10 -1.4793387e-10 3.270678e-12 -9.234099e-11 -2.4483953e-11 -9.721894e-14 1.3146604e-07 -8.806997e-08
1.4802648e-09 1.1298886e-10 -2.145853e-09 -1.8851279e-10 -4.315423e-11 4.3050356e-13 5.0183306e-13 -1.5669988e-13
3.1408615e-14 -2.725434e-14 2.3947163e-14 -7.28888e-15 0.00029747852 -0.0005991656 6.9458714e-05 1.7495385e-07
2.8447454e-05 -1.06446405e-05 -8.392718e-06 9.3846717e-07 -2.2211293e-06 -9.9861746e-09 -3.6799058e-10 -2.3801483e-08
3.6599248e-09 -4.465785e-09 2.3189175e-05 -0.0002940952 9.549947e-06 1.499686e-07 -2.4173073e-06 -2.21182e-07
-2.2639654e-07 1.9003957e-07 -2.8144779e-08 6.06519e-08 -1.3032148e-09 -1.067075e-08 5.4947735e-10 1.1643609e-09
8.529613e-06 -6.2907944e-05 1.9494096e-06 -1.4875328e-08 -3.0305634e-07 -3.9911853e-08 -1.2856678e-07 1.16495364e-08
-6.2131646e-09 5.1388555e-10 1.6286524e-11 -2.6158875e-10 3.185589e-12 -3.9070937e-11 2.1949994e-08 -1.3728727e-08
-3.5671552e-10 8.570489e-12 -2.0401044e-11 1.3996918e-11 -8.206072e-12 3.8628852e-05 -7.282959e-05 1.4484576e-05
2.3456501e-07 3.0561478e-06 -1.2865561e-06 -4.6016288e-07 9.445773e-08 -1.3760058e-07 2.5242215e-09 -2.3664506e-10
-1.4334925e-09 1.2321161e-10 1.0604034e-11 0.00021880744 -0.001830091 7.089765e-05 -1.2576155e-06 -4.6018927e-06
2.611452e-09 -2.2567824e-06 3.617502e-05 -0.00012836973 2.6771147e-06 -1.191258e-07 -9.982356e-07 -3.8452097e-08
-6.970118e-08 2.1743703e-07 2.6294188e-07 -4.628352e-08 5.519203e-09 -3.080677e-08 3.208484e-08 6.8185395e-09
5.6833034e-08 -1.7877056e-08 3.3817418e-10 1.3440387e-09 3.0078946e-09 -4.98126e-09 -5.5517435e-09 1.5831134e-09
5.334338e-09 8.0120194e-10 -1.668041e-11 -1.6924291e-10 -2.9340172e-10 -1.8146677e-10 6.4281485e-06 -3.543968e-05
8.7529384e-07 2.0798034e-08 -3.1852588e-07 -2.7274695e-08 -4.105753e-08 6.118456e-08 7.396579e-08 -1.7182058e-08
2.2867146e-09 -1.4954638e-08 1.7367927e-09 8.100039e-10 2.9728324e-09 -3.777729e-09 -4.7480176e-11 -1.8026896e-12
00000000: 237a 6330 87ee 5930 3367 892e 3ed1 5fac
00000010: bedd daae 9cfd d2ac f2e4 162e 2b5e 1d38
00000020: d536 3c38 ef64 44b6 7a88 d334 1aae 0fb7
00000030: 6aae 2bb6 5796 c7b5 4024 8b36 83d2 0cb7
00000040: 5781 4633 ceea 6b31 562f abb3 f867 37b2
00000050: dab8 f6b0 3685 bfbb da17 f8bb 8915 fe39
00000060: 9774 5637 ceb8 74b8 d4c5 2db8 5b67 13b8
00000070: 26ea a43a a81c 29ba 5dbd ebb8 91d3 cf35
00000080: 57bd 95b7 0cb6 4037 d417 ad35 c5a6 6137
00000090: a7ac 74b8 f35b fc35 febb 21b2 5d36 e8b4
000000a0: e3a1 1cb3 76a3 54b3 dc6f b433 0f37 8fb3
000000b0: a969 2830 fa12 a0ac eeb8 b5b0 e6ad 002e
000000c0: 44dc f6ae 3649 8331 7043 0ab2 fa2f 02af
000000d0: 6071 0bad c2ca 8bae 8fd2 46ab f28a 8bad
000000e0: f62f a03c b93f b73c c12c d2b9 832f 9c38
000000f0: 1c7f 98bb 23aa 143a c984 cab9 0d1d 4233
00000100: 7d64 adb3 a4a7 f6b0 a200 1930 a65d 3caf
00000110: ff5d aaae e049 b7af 02a8 42bb aef9 b1bb
00000120: 48b2 7bb9 605b dbb5 bc3a f2b7 1221 d237
00000130: 762a 0737 c1c7 09bc f327 e2bb 0220 a3ba
00000140: b053 29b5 2502 5239 952d ca37 e12f 5a38
00000150: 7241 9fba fb3e 23bb dc35 fe38 a571 0a35
00000160: 8148 a336 96f2 dcb6 66b9 67b6 b81f 0d38
00000170: a33b 6338 23c0 77b8 30f9 c2b5 0f6b f4b6
00000180: 2a09 04b6 471b a0b6 6f62 9db9 64f1 b9b9
00000190: b6c1 9f37 57e4 9134 ecb8 dab5 016f b6b4
000001a0: 6cde bab5 acbe b638 ba31 e8b9 4dfc a737
000001b0: bf39 5ab5 1cb0 41b6 54b5 b034 4e24 2eb3
000001c0: 46a3 4838 6e3a b9b9 8912 4537 0607 c533
000001d0: f5e4 c7b5 0790 42b4 d08d 83b4 6694 fc2f
000001e0: c0ea 2630 afa7 22af 4c27 662c 5b0f cbae
000001f0: f65c d7ad e7ea daa9 1c29 0d34 fa20 bdb3
00000200: 3072 cb30 1377 f82e 3f76 13b1 a245 4faf
00000210: 58cb 3dae 1a5a f22a e240 0d2b aa6d 30aa
00000220: ab73 0d29 3b7c f5a8 66b2 d728 074e 03a8
00000230: e4f6 9b39 5311 1dba 5daa 9138 f3da 3b34
00000240: 71a2 ee37 6296 32b7 73ce 0cb7 f9ea 7b35
00000250: b60e 15b6 a98f 2bb2 124e caaf 0474 ccb2
00000260: 1482 7b31 7671 99b1 6086 c237 ca30 9ab9
00000270: b638 2037 0e07 2134 0639 22b6 0c7e 6db4
00000280: 6817 73b4 ae0d 4c34 06c3 f1b2 bc3f 8233
00000290: cb1c b3b0 7452 37b2 080a 1730 4f07 a030
000002a0: 691a 0f37 72ed 83b8 9ad2 0236 628e 7fb2
000002b0: bfb3 a2b4 8c6b 2bb3 2b0c 0ab4 3423 4832
000002c0: 937b d5b1 7b41 0d30 fe41 8f2d 58cf 8faf
000002d0: 782a 602c f7d5 2bae 8c8c bc32 94db 6bb2
000002e0: 3f1b c4af 0dc6 162d 1173 b3ad 843c 762d
000002f0: dd5c 10ad 6a05 2238 17bc 98b8 c802 7337
00000300: bddc 7b34 3818 4d36 bbad acb5 4e0c f7b4
00000310: b0d8 ca33 5cbf 13b4 9376 2d31 d518 82af
00000320: 8904 c5b0 fc78 072f 538c 3a2d ad6f 6539
00000330: aadf efba e3ae 9438 57cb a8b5 f569 9ab6
00000340: 2675 3331 3a73 17b6 a2ba 1738 fd9a 06b9
00000350: 7ba8 3336 1ad2 ffb3 1dfb 85b5 8726 25b3
00000360: a1ae 95b3 a378 6934 752a 8d34 45c9 46b3
00000370: 6ca3 bd31 6750 04b3 a8cd 0933 8248 ea31
00000380: 9518 7433 1090 99b2 c9e9 b92f 28b9 b830
00000390: 71b3 4e31 a027 abb1 a7c1 beb1 da94 d930
000003a0: 5549 b731 933b 5c30 f2b8 92ad a515 3aaf
000003b0: 9f4c a1af 5b86 47af 60b1 d736 11a5 14b8
000003c0: bcf5 6a35 5ca7 b232 dd01 abb4 b049 eab2
000003d0: 3b57 30b3 9164 8333 20d7 9e33 bf97 93b2
000003e0: 4f24 1d31 9975 80b2 f6b3 ee30 f5a6 5e30
000003f0: 9f4a 4c31 41cd 81b1 edd1 50ae bdb4 fdab

bias f4 [256]
-8.79628e-11 -5.611052e-06 -1.7206025e-08 -0.00012007254 3.9417437e-06 -5.1850157e-07 2.1729972e-10 -2.6324372e-11
-0.0035527535 -2.911337e-10 4.1480736e-05 0.00028738097 -1.9568115e-05 5.4392285e-06 -4.101301e-06 -5.679664e-06
-2.5730744e-06 -5.7541874e-11 -1.86621e-09 -6.5255084e-15 5.402595e-06 -7.940483e-09 -2.2757013e-06 -1.9056413e-08
-5.156639e-07 -2.5752062e-10 2.3559208e-11 -1.6210557e-06 -3.790791e-10 -1.5442642e-05 -4.5969952e-07 -1.9356223e-08
-2.9992662e-09 -3.5501385e-10 -2.3095525e-07 -1.0444053e-08 -6.6407047e-11 -4.4713943e-08 -6.868072e-13 -3.445175e-07
1.1680795e-09 -4.173678e-06 -1.1959236e-05 -1.7372137e-06 1.6684531e-05 -6.698574e-10 -4.15616e-08 -1.256304e-07
-0.0015964309 -5.983351e-11 -2.3332879e-08 3.8966894e-07 -1.1786286e-06 -2.1680988e-05 3.7105837e-16 -2.3117389e-08
-3.517228e-07 -6.5529043e-10 1.12110264e-07 -1.0240242e-07 -6.123396e-08 0.0004818444 1.2585699e-11 -3.07619e-10
-0.00082220195 -8.64767e-11 -4.9160676e-06 -6.2850285e-07 -0.0007848506 -2.876021e-08 -1.1463176e-06 -2.1017568e-05
-0.00031062213 -3.9665083e-06 5.886059e-10 -3.1791435e-05 -6.1483193e-12 -2.029193e-07 -7.4892476e-08 2.5786244e-07
1.124584e-08 -5.015984e-11 2.6829872e-07 -4.6284904e-06 -6.505748e-06 -9.2847023e-07 -2.0436075e-05 -1.3995311e-05
-5.468345e-09 -1.3039074e-05 5.303065e-12 2.266687e-06 -7.412401e-12 -3.7100594e-09 -0.010027729 6.0328457e-13
-3.7980824e-06 -3.5920905e-10 -2.5773383e-10 -2.2860238e-05 -8.5788376e-11 -1.1774304e-09 -1.1208746e-09 -8.729642e-09
-5.924288e-10 -7.237021e-11 2.0824464e-13 -1.1565723e-07 -1.2666287e-07 1.435668e-07 2.7387657e-13 -1.9423218e-05
-5.94132e-05 -2.5027218e-06 3.4972232e-05 3.2095667e-15 -1.3094842e-05 6.654932e-05 5.402997e-08 -1.1007033e-08
-2.7232494e-05 -1.9950215e-11 0.00029864942 5.71213e-07 -8.562265e-06 0.000124793 3.263354e-15 -2.6118108e-11
8.280554e-12 -7.664031e-07 -2.109093e-06 1.8907838e-10 2.1669595e-05 -4.8801985e-06 -1.6711103e-06 -2.9891862e-07
1.5011879e-14 3.7194522e-07 0.0013681465 -6.9421e-06 -1.8981609e-07 -3.0232379e-05 -0.0015424627 -0.015260925
-3.0011697e-07 3.403475e-05 -8.70225e-06 -1.1975379e-06 -2.4973697e-06 -1.4885867e-13 -3.0839992e-10 -3.9132775e-08
-0.0007086023 -2.1323544e-07 3.7807183e-14 -1.2103408e-07 -1.0035476e-08 -5.664957e-06 -9.0530506e-08 -7.730655e-05
-7.428718e-09 -1.7373699e-09 -8.1606396e-07 -1.192683e-06 -6.29477e-08 -2.7025753e-05 -1.0099787e-05 -3.23412e-13
-6.2667136e-14 -4.168767e-09 -0.00012168516 -8.305108e-08 -1.6922394e-12 -1.3687793e-05 2.1239328e-05 -1.5256143e-07
-1.3633118e-06 -1.628774e-07 -5.2629137e-09 -2.0628819e-09 -1.1925866e-07 -5.550153e-08 -5.058971e-05 -1.4839915e-07
-0.00075623294 -3.256121e-07 -6.1688653e-12 6.606132e-06 -2.7123655e-05 -0.014148441 -1.5851145e-07 -5.2301384e-06
-7.794356e-10 7.8325485e-07 -2.8578484e-07 -1.7266348e-10 -3.48901e-06 -1.6570588e-06 -3.656111e-06 -2.258918e-06
-4.9072274e-05 0.0004151167 -7.3855e-08 -1.6798269e-06 1.9882713e-05 2.5016328e-10 -7.9182e-10 -1.5183995e-09
0.00014349725 3.2734082e-05 -2.4685948e-10 -6.263778e-06 -5.2126574e-09 -3.0891376e-10 -9.523233e-10 -1.4590017e-05
-2.7931428e-09 -1.7289501e-09 9.170771e-12 -2.5401017e-09 -1.0815545e-08 -2.9119087e-07 0.010175766 -5.3871318e-06
-3.2735707e-06 -5.707189e-10 -4.9498663e-06 -7.0041553e-13 -0.001321546 -2.5302e-10 -4.2207105e-08 -1.8166103e-13
-2.9380542e-05 -8.270318e-06 -8.382301e-06 -1.1474208e-05 -6.316032e-07 -9.090528e-06 -2.6794131e-12 -3.757797e-08
-1.2140654e-06 8.2570784e-11 7.795931e-07 -1.9571907e-08 -4.0337977e-06 2.4424776e-07 -1.8753205e-08 -0.0012606706
-1.433063e-09 -4.2129087e-09 -0.00018477793 -8.708413e-12 7.81311e-12 -1.065257e-06 4.5466448e-05 -9.875924e-07
00000000: a76e c1ae 9246 bcb6 73cc 93b2 74cf fbb8
00000010: 5243 8436 282f 0bb5 6fec 6e2f 378d e7ad
00000020: 50d5 68bb 6d0d a0af 9afb 2d38 9fab 9639
00000030: 3526 a4b7 9e82 b636 e89d 89b6 f193 beb6
00000040: 15ad 2cb6 6412 7dae b73e 00b1 311b eba7
00000050: f047 b536 9d6a 08b2 40b8 18b6 7fb1 a3b2
00000060: 276c 0ab5 ce92 8daf 9f3a cf2d 0d93 d9b5
00000070: a466 d0af d28a 81b7 9fcc f6b4 c944 a6b2
00000080: a61b 4eb1 c22b c3af 7ffc 77b4 6e6d 33b2
00000090: d807 92ae 800b 40b3 ad51 41ab 20f6 b8b4
000000a0: 258a a030 9f0b 8cb6 87a4 48b7 352a e9b5
000000b0: c2f5 8b37 0621 38b0 7681 32b3 05e5 06b4
000000c0: 553f d1ba 4693 83ae 8b6d c8b2 b133 d134
000000d0: 5f31 9eb5 91df b5b7 8de6 d525 ad93 c6b2
000000e0: 6ad4 bcb4 f71f 34b0 45c1 f033 53e8 dbb3
000000f0: ba7f 83b3 10a0 fc39 f368 5d2d 871d a9af
00000100: 0a89 57ba 0e2a beae b3f4 a4b6 63b6 28b5
00000110: 6fbe 4dba 5f0c f7b2 2cdb 99b5 e24e b0b7
00000120: ffda a2b9 0c18 85b6 75cb 2130 cb57 05b8
00000130: 2353 d8ac 08e2 59b4 93d4 a0b3 5870 8a34
00000140: ba33 4132 f69a 5cae b20a 9034 6e4e 9bb6
00000150: f34b dab6 fd3b 79b5 236e abb7 67cd 6ab7
00000160: 12e4 bbb1 65c2 5ab7 c395 ba2c 631d 1836
00000170: 7d66 02ad 0ef4 7eb1 584b 24bc 3ccf 292b
00000180: 8fe2 7eb6 2e7a c5af d0b0 8daf fdc3 bfb7
00000190: 90a6 bcae 26d3 a1b0 450d 9ab0 5ff9 15b2
000001a0: 78d8 22b0 ce24 9fae 6e76 6a2a 3c5f f8b3
000001b0: d300 08b4 5727 1a34 c62d 9a2a 0bef a2b7
000001c0: 7032 79b8 6ff4 27b6 26af 1238 0e46 6727
000001d0: ebb1 5bb7 6590 8b38 950e 6833 7119 3db2
000001e0: 5671 e4b7 e47b afad 0c94 9c39 7555 1935
000001f0: a6a6 0fb7 deda 0239 4226 6b27 c0bc e5ad
00000200: 4dac 112d d2ba 4db5 f189 0db6 d5e4 4f2f
00000210: 1ac7 b537 96c0 a3b6 ea4a e0b5 107b a0b4
00000220: 0937 8728 c3af c734 6153 b33a 2ff0 e8b6
00000230: 40d0 4bb4 8a9b fdb7 762c caba f508 7abc
00000240: c31f a1b4 89c0 0e38 e1ff 11b7 17bb a0b5
00000250: 7c98 27b6 9799 27aa 6e8b a9af f112 28b3
00000260: 7fc1 39ba b6f5 64b4 b744 2a29 98f5 01b4
00000270: 7d68 2cb2 9c15 beb6 ac69 c2b3 a31f a2b8
00000280: b23f ffb1 45c8 eeb0 7d0f 5bb5 4714 a0b5
00000290: dd2d 87b3 5db5 e2b7 4172 29b7 9510 b6aa
000002a0: 251d 8da9 dd3c 8fb1 3931 ffb8 d059 b2b3
000002b0: 5a29 eeab a0a4 65b7 1c2b b237 c4cf 23b4
000002c0: 09fb b6b5 66e3 2eb4 14d5 b4b1 9ac2 0db1
000002d0: 920d 00b4 9460 6eb3 4a30 54b8 a657 1fb4
000002e0: ef3d 46ba c9cf aeb4 330c d9ac 3eaa dd36
000002f0: 9b87 e3b7 ddce 67bc 4c33 2ab4 8c7e afb6
00000300: e83f 56b0 dd40 5235 f86d 99b4 73d8 3daf
00000310: bc24 6ab6 1b68 deb5 825b 75b6 ea97 17b6
00000320: f4d2 4db8 05a4 d939 379a 9eb3 6a76 e1b5
00000330: cdc9 a637 5a87 892f 61a7 59b0 efaf d0b0
00000340: c077 1639 f44b 0938 62b6 87af 712d d2b6
00000350: 051b b3b1 bfd3 a9af e6e2 82b0 a5c7 74b7
00000360: 7df1 3fb1 06a0 edb0 7b55 212d f18d 2eb1
00000370: 45cf 39b2 f854 9cb4 42b8 263c 1cc3 b4b6
00000380: 84af 5bb6 c6e0 1cb0 0717 a6b6 4226 45ab
00000390: ba37 adba 6619 8baf 3447 35b3 3a88 4caa
000003a0: 3c76 f6b7 bfc0 0ab7 b5a1 0cb7 5981 40b7
000003b0: 718b 29b5 8583 18b7 048c 3cac 6a65 21b3
000003c0: f8f2 a2b5 3893 b52e 3b45 5135 141f a8b2
000003d0: 0f5a 87b6 2821 8334 bc16 a1b2 163d a5ba
000003e0: 6cf5 c4b0 23c1 90b1 f3c0 41b9 3533 19ad
000003f0: 1f73 092d f4f9 8eb5 3ab3 3e38 6b8d 84b5

weight f4 [32, 256]
1.6481369e-10 2.9005903e-06 -8.9066396e-07 0.0006468226 0.00018691139 -2.5799368e-06 3.8266377e-09 -8.871112e-10
0.0020496119 -1.0179524e-08 0.00043759405 0.00077186775 0.00017593225 2.3068385e-05 3.3399087e-05 1.5360596e-05
-2.8172151e-05 1.5853352e-10 -1.6025014e-08 1.1526304e-13 -2.1518805e-05 1.0268437e-07 -2.0073749e-06 -3.027239e-08
2.735956e-06 1.0110397e-09 9.0040925e-10 -2.2421407e-06 -1.3702379e-08 -5.465177e-06 8.156901e-06 7.115855e-08
9.450235e-09 -2.9611572e-10 -9.0568585e-07 1.2627525e-08 3.1841765e-10 7.45457e-07 1.0849445e-12 1.0885033e-06
-9.164109e-09 -2.932114e-05 3.8691942e-05 1.5893589e-05 -6.326947e-05 -1.3930559e-09 -6.1098e-07 5.651768e-07
-0.0037705938 -4.2976064e-10 1.5600493e-07 1.3339782e-06 -7.48174e-06 -0.00021285268 8.191647e-14 2.5977936e-08
-3.0730891e-06 2.8964733e-08 1.03861474e-07 1.8338376e-06 -2.0417167e-06 0.0002239578 -1.4893274e-10 2.8995023e-10
0.0020548776 -1.9019424e-09 4.9420556e-05 3.761413e-06 0.009101476 -5.839381e-08 -2.3275863e-06 -0.00036618873
0.0011054449 2.8004393e-05 3.7409706e-09 0.0011948214 2.5185187e-11 -1.4487921e-06 1.2451441e-07 5.213841e-06
1.9287407e-08 6.9044735e-11 4.8406235e-07 2.678995e-05 -4.0158938e-07 3.1497416e-06 -5.4444165e-05 -2.9216157e-05
-5.1838033e-08 0.0007877203 5.4587144e-11 1.5142003e-05 -1.2038975e-10 -6.627298e-09 -0.019979198 2.0481677e-10
-3.141514e-05 -1.9960987e-07 -2.2176033e-08 0.00013839273 3.0496453e-10 -4.1482897e-09 -2.9939842e-09 -1.0666396e-07
5.3134896e-09 -2.9778018e-09 3.063273e-12 1.9589191e-07 5.575511e-07 3.8708168e-07 1.849015e-12 0.00020942664
0.00013414044 -1.2581394e-06 3.784709e-05 3.7588777e-15 6.670099e-05 2.4788853e-05 -7.230039e-08 2.6752756e-09
3.748936e-05 -5.7748195e-10 0.0007513114 -4.6425357e-06 0.00021273935 9.735345e-05 7.2474096e-15 -6.2659467e-10
-1.3476868e-11 -1.675676e-07 2.408593e-06 3.7171943e-10 2.4351735e-05 3.9078313e-05 1.7454176e-05 2.1367819e-06
6.2865696e-13 9.992101e-07 -0.017421328 4.280171e-05 1.0396268e-06 0.0006927266 0.003138082 -0.024158385
9.788002e-07 -9.44401e-05 0.0005708552 -8.556246e-07 0.00017287214 1.0285487e-11 -4.030898e-09 4.0318296e-06
0.008436272 1.950522e-06 -6.2884797e-12 1.513633e-07 2.3747537e-08 0.00022191626 8.0507476e-07 -0.018566558
-1.3625319e-08 -4.160579e-09 9.044627e-06 -6.5129852e-06 -8.3925164e-07 -0.00034907213 5.8522943e-05 5.8807397e-13
2.6999626e-13 2.081559e-08 0.00052975566 3.2325156e-07 1.0701204e-12 6.925271e-05 0.00042703818 -1.0600701e-06
-7.4380787e-06 7.8409244e-07 1.6946187e-08 7.807266e-09 4.6301628e-07 3.853292e-08 -2.7056396e-05 -4.34664e-06
0.00042338556 1.0831195e-06 1.2517994e-10 5.520392e-06 -9.898809e-06 -0.023420474 2.7279602e-06 4.121559e-05
-7.295542e-08 -1.5441141e-05 1.57641e-07 3.613812e-10 4.177221e-05 1.4115044e-06 2.1219013e-05 1.5788108e-05
0.00048324265 0.00065158604 1.0553102e-07 1.6156286e-05 0.00015969564 3.5576947e-10 -7.3825274e-10 -1.0659916e-08
0.00024406504 0.00048154657 -3.9887507e-09 -0.00014619475 2.399529e-08 2.3624829e-09 5.8649325e-09 0.00011498004
7.454527e-09 3.2280578e-09 6.578652e-09 3.5348209e-09 5.8594143e-08 1.2574982e-07 -0.009630418 3.2445091e-06
2.3901994e-05 1.1125886e-09 3.6407368e-05 -5.9474136e-12 0.0026222703 5.7803873e-10 1.9709901e-07 1.06954e-12
2.6372343e-05 -1.7788334e-05 1.4072779e-05 3.3919061e-06 3.52956e-06 0.00013523552 -5.4911837e-13 6.8558435e-08
-2.5987807e-05 8.3345386e-10 5.6056126e-07 -1.4198415e-07 7.619641e-06 4.548569e-07 -5.903196e-07 0.00066723645
4.4226636e-10 3.7616832e-08 0.00019088232 1.6275448e-11 5.8841742e-12 1.568798e-05 -9.852072e-05 -3.7395412e-06
00000000: ee36 352f c3a7 4236 f615 6fb5 888f 293a
00000010: a5fd 4339 fa22 2db6 767b 8331 e7d8 73b0
00000020: c852 063b 05e2 2eb2 e16c e539 2b57 4a3a
00000030: 747a 3839 fb82 c137 ff15 0c38 a1da 8037
00000040: 3c53 ecb7 384f 2e2f 61a7 89b2 4fc6 012a
00000050: 4883 b4b7 5483 dc33 70b6 06b6 d804 02b3
00000060: 5e9b 3736 ccf4 8a30 ab80 7730 af77 16b6
00000070: b367 6bb2 8361 b7b6 9fd9 0837 d4cf 9833
00000080: 935a 2232 95ca a2af 421e 73b5 71f0 5832
00000090: 4d0d af2f 6a1b 4835 3fb1 982b b018 9235
000000a0: 2d70 1db2 abf6 f5b7 2849 2238 3953 8537
000000b0: 8aaf 84b8 cc75 bfb0 3a02 24b5 a7b6 1735
000000c0: 111c 77bb 6f43 ecaf 4f82 2734 240b b335
000000d0: a80b fbb6 3531 5fb9 a175 b829 1626 df32
000000e0: 453b 4eb6 1fce f832 730a df33 2e22 f635
000000f0: 6d04 09b6 37d6 6a39 d7c0 23af de66 9f2f
00000100: 20ab 063b 53b3 02b1 eb48 4f38 956c 7c36
00000110: 5b1e 153c accc 7ab3 a133 1cb6 05fd bfb9
00000120: 93e4 903a faea ea37 ed89 8031 8e9b 9c3a
00000130: 0088 dd2d 1e74 c2b5 43b2 0534 8ef2 ae36
00000140: 75ad a532 bbd4 972e 83f0 0135 fbba e037
00000150: 069a d7b4 2660 5336 fa5a 64b8 3815 f5b7
00000160: 85a4 5eb3 047f 4e3a a913 702e 680a 7e37
00000170: b45e 04af 54b6 e3b1 6aab a3bc cc32 612f
00000180: c0c3 03b8 5854 56b4 9d7d beb2 841d 1139
00000190: f1a7 a72f be88 8eb1 babe 4db1 220f e5b3
000001a0: f391 b631 0ba2 4cb1 058f 572c 5c56 5234
000001b0: 9faa 1535 1ad0 cf34 e51c 022c 8999 5b39
000001c0: 0da8 0c39 57dd a8b5 01be 1e38 876d 8727
000001d0: d2e1 8b38 a8f1 cf37 8f43 9bb3 f2d7 3731
000001e0: e53d 1d38 aebc 1eb0 a8f3 443a 14c7 9bb6
000001f0: c912 5f39 3c2a cc38 c78e 0228 ae3c 2cb0
00000200: 6b16 6dad a2ec 33b4 50a3 2136 dc5a cc2f
00000210: f446 cc37 05e8 2338 8f6a 9237 a265 0f36
00000220: 82f3 302b 991c 8635 2cb7 8ebc fc85 3338
00000230: 4e89 8b35 1898 353a 48a8 4d3b cee7 c5bc
00000240: 525f 8335 250e c6b8 72a5 153a 13ae 65b5
00000250: 0345 3539 b7f1 342d 2780 8ab1 2749 8736
00000260: 4a38 0a3c b6e5 0236 9741 ddac 6d86 2234
00000270: 63fd cb32 31b2 6839 511c 5835 e518 98bc
00000280: c914 6ab2 d7f4 8eb1 61be 1737 1e8a dab6
00000290: ef48 61b5 ab03 b7b9 8876 7538 3287 252b
000002a0: 90fe 972a f7cd b232 4ddf 0a3a 5b8b ad34
000002b0: 279b 962b c43b 9138 18e4 df39 bb47 8eb5
000002c0: 9c94 f9b6 6c7a 5235 0f91 9132 b820 0632
000002d0: 7994 f834 657f 2533 2bf7 e2b7 5ad9 91b6
000002e0: d9f9 dd39 b45f 9135 05a3 092f ce3b b936
000002f0: 1013 26b7 4bdc bfbc 0012 3736 e7de 2c38
00000300: abab 9cb3 9987 81b7 0744 2934 e2ab c62f
00000310: 9234 2f38 ec72 bd35 7cff b137 b470 8437
00000320: bb5b fd39 33cf 2a3a 4ba0 e233 5c87 8737
00000330: f973 2739 1a96 c32f ebed 4ab0 ce22 37b2
00000340: b6eb 7f39 1678 fc39 6c0d 89b1 db4b 19b9
00000350: 331e ce32 3d59 2231 7e84 c931 7021 f138
00000360: 5b11 0032 98d4 5d31 6f0a e231 3ae9 7231
00000370: f1a8 7b33 d905 0734 e7c8 1dbc 3ebc 5936
00000380: 2481 c837 bbe9 9830 1db4 1838 8a41 d1ac
00000390: 65da 2b3b dce3 1e30 2aa2 5334 3d86 962b
000003a0: 2d3a dd37 2838 95b7 201a 6c37 81a0 6336
000003b0: 61dd 6c36 02ce 0d39 2690 1aab 663a 9333
000003c0: 6400 dab7 1a19 6530 7a79 1635 4e74 18b4
000003d0: 38ac ff36 0e33 f434 7476 1eb5 7be9 2e3a
000003e0: 7523 f32f 2590 2133 9527 4839 0d29 8f2d
000003f0: ee07 cf2c ae99 8337 e99c ceb8 d4f4 7ab6

bias f4 [32]
0.0010030943 0.00022756042 0.0011860027 -0.00052456 0.0002570766 0.00082810264 0.001682457 9.928253e-05
0.002520967 -0.0033380513 0.0007207357 0.00044133136 0.0023373223 0.003177078 0.009884781 0.0025494862
0.0024302974 0.020549644 0.00074115634 0.01911708 0.00092274917 0.0020511248 0.0004840599 0.00019218591
0.0006486536 0.000578252 0.024574082 0.00043071414 0.0010733493 0.0029249208 0.00019605998 -0.006839311
00000000: 427a 833a 499d 6e39 a673 9b3a a082 09ba
00000010: 3dc8 8639 0715 593a e485 dc3a e735 d038
00000020: cf36 253b 35c3 5abb c1ef 3c3a 7e62 e739
00000030: c32d 193b 8636 503b c7f3 213c 4815 273b
00000040: a045 1f3b ba57 a83c 294a 423a 6c9b 9c3c
00000050: a6e4 713a 2a6c 063b 6cc9 fd39 8385 4939
00000060: 680a 2a3a d695 173a 964f c93c 79d1 e139
00000070: a0af 8c3a 07b0 3f3b 7395 4d39 4d1c e0bb

weight f4 [20, 32]
0.0053722807 0.00016625776 0.0052472325 0.00021154797 -5.2020983e-05 0.0070559294 0.0037599015 0.00012251719
0.006598016 0.005447037 0.0046334467 0.0030231918 0.0064663864 0.00032950507 0.0014601162 0.0059388652
0.000111865425 0.0015802124 0.0045456234 0.0016565678 0.00044594833 -0.00050290837 0.0050912946 0.0023002664
0.000686807 -0.0001823768 0.0012908662 0.0058311545 -6.106843e-05 0.0043763514 0.00011435006 -0.012319122
0.0023685494 -0.00012247515 0.00017181931 -0.0010882184 -0.00016127525 0.00056743453 -0.0008130396 -0.00012153496
0.0006043431 0.0025634295 -0.0012189002 0.00015161741 0.0009021441 -0.0007108251 -0.0031744086 -0.0012296038
-0.0009796004 -0.006017627 -0.00064252573 -0.005777737 0.00047108383 -0.0012213156 -0.00032884115 0.00067695294
-0.00046630416 -0.00026256984 -0.0065028872 0.002998672 -0.00019785746 -0.000452594 -4.8338185e-05 0.002099697
-0.002819902 1.03352e-05 -0.00211635 0.00041343507 4.6981968e-05 -0.0012882475 -0.00040502142 2.4343719e-05
-0.0021749337 -0.0017190822 0.00038441698 -0.00060916465 -0.0023037817 0.00026255412 0.0012373391 -0.00189373
0.00031376164 0.0019825154 0.00047379278 0.001920072 0.00010182258 0.00057333446 -0.0020367587 -0.0010229776
0.00036375664 0.00014625168 0.0023304753 -0.003164261 0.00010421948 -0.0009959624 2.3839777e-05 0.0028687746
0.0076849726 0.00030277576 0.0077069094 -0.0012210596 0.00011421128 0.009252273 0.0051615457 0.00018626916
0.008044259 0.0060928767 0.0030976082 0.0034988006 0.007857274 0.0012038926 0.003454342 0.00830058
-0.0008159807 0.0034905463 0.0030307684 0.0035883877 0.00034679365 -0.0010876122 0.0041679977 0.0034899742
0.0011264317 -0.0005446662 0.003357841 0.0073824963 2.5632467e-05 0.0042730058 8.091306e-06 -0.012955074
0.0110423155 0.0015637695 0.0077318577 -0.001353733 -0.0016332507 0.0051867114 -0.002194227 -0.00069106655
0.0075496295 0.0111262025 -0.00015979803 -0.0013672615 0.008261403 0.0057191257 -0.004043803 0.0056915875
-0.004176603 -0.054173134 0.0010703029 -0.046840023 0.0019682408 -0.003187133 0.007777927 0.003479449
0.004247024 0.0012606742 -0.07103661 0.012204441 0.0021306013 0.00070463866 0.0013314221 0.0127468575
-0.008375096 -0.0009135675 -0.0050160843 0.001576096 0.0007548245 -0.0029142713 0.0021443882 0.00022260069
-0.004824009 -0.007830291 0.00074434886 0.00057418493 -0.005485015 -0.005256067 -0.004342499 -0.0034426635
0.003476036 0.02217472 -7.663275e-06 0.01717427 -0.0013490553 0.001979773 -0.0069947857 -0.0015953592
-0.0022308584 -0.00053092395 0.041511115 -0.009680034 -0.0015746267 -0.00044961984 -0.0005956268 -0.009378198
-0.0047754147 3.5987232e-05 -0.002848541 0.00085949845 8.1863174e-05 -0.0025774634 -0.0010458643 6.231391e-05
-0.0029918498 -0.004353937 0.000420151 -0.0005933188 -0.0031890008 4.848981e-05 0.0012577655 -0.0025116499
0.001287056 0.003408456 -0.00063562783 0.0030278156 0.00032029726 0.0009617921 -0.003849431 -0.0013115064
0.00049713015 0.0003817084 0.007868041 -0.0054520788 5.454181e-05 -0.00095440284 7.685409e-05 0.0010168613
-0.004511513 0.0008056011 -0.0027641347 -0.0011513205 0.00016307097 -0.003660009 -0.0002444728 -0.0005684177
-0.0023042837 -0.006342082 -0.0029977625 -0.00023100164 -0.0029936829 0.013377776 0.053152774 -0.0005597496
0.0023566117 0.1470858 -0.0023338287 0.13453111 0.002762966 0.0035164005 -0.004274885 -0.00024923487
0.0014119277 0.0012909765 0.18393835 -0.0056256545 0.003508022 0.0012228709 0.0004917542 -0.0143718645
00000000: f509 b03b 7a55 2e39 faf0 ab3b fad2 5d39
00000010: 1b31 5ab8 6d35 e73b ae68 763b f577 0039
00000020: 2b34 d83b 0f7d b23b 2bd4 973b be20 463b
00000030: fbe3 d33b 6cc1 ac39 5f61 bf3a d09a c23b
00000040: 4b99 ea38 211f cf3a 74f3 943b 3121 d93a
00000050: 2cce e939 9cd5 03ba e0d4 a63b 11c0 163b
00000060: d60a 343a 663c 3fb9 4832 a93a 4513 bf3b
00000070: dd11 80b8 7f67 8f3b 39cf ef38 25d6 49bc
00000080: aa39 1b3b ac6c 00b9 652a 3439 8da2 8eba
00000090: ff1b 29b9 e3bf 143a 2a22 55ba 96e0 feb8
000000a0: c76c 1e3a 36ff 273b 81c3 9fba 7dfb 1e39
000000b0: de7d 6c3a aa56 3aba bd09 50bb a82a a1ba
000000c0: ef65 80ba 842f c5bb 2c6f 28ba 2c53 bdbb
000000d0: cdfb f639 8d14 a0ba 5068 acb9 8b75 313a
000000e0: 497a f4b9 87a9 89b9 2c16 d5bb 5e85 443b
000000f0: f577 4fb9 234a edb9 bbbe 4ab8 129b 093b
00000100: 1bce 38bb 5965 2d37 76b2 0abb 51c2 d839
00000110: 810e 4538 6ada a8ba 0e59 d4b9 bd35 cc37
00000120: 5589 0ebb d452 e1ba 938b c939 59b0 1fba
00000130: 0bfb 16bb 6ba7 8939 362e a23a 0937 f8ba
00000140: 6080 a439 17ed 013b 6467 f839 edaa fb3a
00000150: 9589 d538 d34b 163a 247b 05bb 6f15 86ba
00000160: 97b6 be39 235b 1939 e3ba 183b 7e5f 4fbb
00000170: 6890 da38 f48a 82ba 88fb c737 0d02 3c3b
00000180: 39d2 fb3b e0bd 9e39 3e8a fc3b f60b a0ba
00000190: b784 ef38 d896 173c 2f22 a93b 3f51 4339
000001a0: 11cc 033c c1a6 c73b 3e01 4b3b 224c 653b
000001b0: ccbb 003c efcb 9d3a 3e62 623b 28ff 073c
000001c0: 8ae7 55ba a6c1 643b db9f 463b 282b 6b3b
000001d0: dbd1 b539 368e 8eba b393 883b 0db8 643b
000001e0: c7a4 933a eec7 0eba 390f 5c3b dee8 f13b
000001f0: 4e05 d737 9204 8c3b e5bf 0737 8541 54bc
00000200: d4ea 343c 66f7 cc3a 865b fd3b be6f b1ba
00000210: cd12 d6ba 4af5 a93b 05cd 0fbb b128 35ba
00000220: e262 f73b ad4a 363c 758f 27b9 af35 b3ba
00000230: d65a 073c 8167 bb3b e181 84bb 7f80 ba3b
00000240: e3db 88bb a6e4 5dbd 6849 8c3a 53db 3fbd
00000250: 9afd 003b 38df 50bb fbdd fe3b 7807 643b
00000260: 9f2a 8b3b 353d a53a a47b 91bd 23f5 473c
00000270: 8fa1 0b3b 80b7 383a 1d83 ae3a 32d8 503c
00000280: b337 09bc 7a7c 6fba f75d a4bb 0295 ce3a
00000290: 6adf 453a 5cfd 3ebb dd88 0c3b eb69 6939
000002a0: b812 9ebb 9f4a 00bc 6820 433a e684 163a
000002b0: a4bb b3bb 163b acbb 864b 8ebb 4f9e 61bb
000002c0: 35ce 633b c2a7 b53c 8491 00b7 0eb1 8c3c
000002d0: c9d2 b0ba 14bf 013b 8434 e5bb 5f1b d1ba
000002e0: 9833 12bb b42d 0bba 8f07 2a3d 0199 1ebc
000002f0: b463 ceba f4ba ebb9 d723 1cba 03a7 19bc
00000300: 157b 9cbb fff0 1638 96ae 3abb f74f 613a
00000310: f5ad ab38 a9ea 28bb 6215 89ba 87ae 8238
00000320: e912 44bb 79ab 8ebb b647 dc39 f388 1bba
00000330: 8efe 50bb 8961 4b38 9bdb a43a 7e9a 24bb
00000340: 6fb2 a83a 6760 5f3b 43a0 26ba 516e 463b
00000350: 92ed a739 c620 7c3a bc46 7cbb dae6 abba
00000360: d751 023a 0920 c839 f5e8 003c 5aa7 b2bb
00000370: d3c3 6438 e430 7aba ba2c a138 3448 853a
00000380: 50d5 93bb fa2e 533a 7c26 35bb e8e7 96ba
00000390: 08fe 2a39 c3dc 6fbb 952c 80b9 de01 15ba
000003a0: 7703 17bb 3dd1 cfbb 1c76 44bb 0839 72b9
000003b0: aa31 44bb 762e 5b3c b9b6 593d 29bc 12ba
000003c0: 6271 1a3b a99d 163e 26f3 18bb 86c2 093e
000003d0: e112 353b 6973 663b 5614 8cbb bdab 82b9
000003e0: 6f10 b93a fc35 a93a 565a 3c3e 6957 b8bb
000003f0: d8e6 653b bd48 a03a 11e9 003a f877 6bbc

bias f4 [20]
0.004359829 -0.00070176186 -0.002837351 -0.0023194253 -0.19362554 0.12534855 0.0037650664 0.3705176
-0.002502975 -0.37017742 -0.0016594158 0.0025992517 -0.0022895394 0.0019026748 -0.023606613 0.0014691559
0.001909803 -0.23138884 -0.0030309854 0.002613292
00000000: e5dc 8e3b 71f6 37ba daf2 39bb 8001 18bb
00000010: c645 46be 5f5b 003e 55bf 763b 7cb4 bd3e
00000020: f408 24bb e587 bdbe c180 d9ba 3558 2a3b
00000030: 190c 16bb 2c63 f93a a862 c1bc b190 c03a
00000040: 5b52 fa3a 32f1 6cbe 7fa3 46bb c443 2b3b

weight f4 [256, 20]
5.965115e-17 -8.881901e-17 1.0584828e-17 7.128532e-17 -1.5614094e-16 1.0028049e-16 2.1924743e-17 2.512759e-16
-7.443857e-17 -2.5380686e-16 -4.129091e-17 2.6829621e-17 3.6692317e-18 6.771326e-18 -1.9751622e-16 3.466032e-17
-1.4387403e-16 -1.8678045e-16 -1.4312613e-16 3.319794e-17 7.444151e-05 -2.8147497e-05 3.5847486e-05 9.984043e-05
-0.000117956035 2.7696857e-05 -4.8664665e-06 -6.25223e-05 -6.7854e-05 7.97454e-05 1.3295748e-05 4.064374e-05
3.459451e-05 -3.2858014e-05 -4.8883157e-05 1.2907603e-05 -0.00010157849 -0.00016758863 -0.00011887074 -1.8850613e-05
-0.0026660294 0.0032925918 0.0002705722 -0.0046058716 0.02330806 -0.015427965 -0.0012925033 -0.035434354
0.0023333337 0.017610403 0.0016462205 -0.0012154717 0.00020132684 -0.00029588025 0.009128745 -0.00067570887
0.004746017 0.030802164 0.006054827 -0.0012506632 0.0113702025 -0.014131171 0.00148612 0.011761685
-0.0153324 0.013595339 0.0062981984 0.016100083 -0.012364546 -0.016240975 -0.008256546 0.0073658484
-2.5841227e-05 0.0003063637 -0.009314803 0.010405762 -0.011948814 -0.015518396 -0.011490831 0.006387086
3.822636e-05 1.4446651e-05 1.7986082e-05 -6.8323556e-05 -0.0028414056 0.0004290837 4.146636e-06 0.004656585
4.6304922e-05 -0.0040491004 -1.0172378e-05 -3.907258e-05 -2.3716293e-05 2.2830885e-05 9.3746356e-05 3.7436384e-05
7.041388e-05 -0.00430695 7.890314e-05 2.2063214e-05 -1.1267936e-05 4.497213e-05 -1.1845915e-05 -6.189885e-05
-0.0007881426 0.0003555844 -2.800607e-05 -0.001094205 3.4579523e-06 0.0008916722 2.7440019e-05 1.5883872e-05
1.0832955e-05 -1.0258768e-05 0.00011456002 -1.5041107e-05 5.8494687e-05 -0.00079127646 6.809719e-05 -2.9988109e-05
8.6352657e-07 6.513594e-07 3.6114122e-07 -1.9236393e-06 2.5031077e-06 2.0128262e-07 2.2535328e-07 5.8809906e-05
-7.8308943e-07 -5.81849e-05 -3.3167598e-07 2.9256066e-07 -7.351558e-07 7.0234057e-07 1.1535618e-06 1.2347613e-07
-5.3825016e-07 7.4138206e-06 8.106011e-07 5.001848e-07 3.9898205e-06 3.2176408e-06 -1.1836655e-06 4.7085546e-06
-9.710248e-05 -1.1294105e-05 -4.225539e-06 0.0020899095 3.528655e-06 -0.0020652597 5.2211713e-06 -5.805086e-06
6.51188e-06 -5.4931597e-06 -4.374056e-06 1.2104821e-06 -2.2025604e-06 -0.0003571737 -4.8725824e-06 1.4279818e-06
2.3142212e-10 -6.8651995e-10 2.0485143e-10 1.1728644e-09 -1.9922617e-09 -2.0456765e-10 1.1680198e-10 2.5739975e-08
-5.364604e-10 -1.4456356e-09 -2.0900266e-10 -3.5012548e-10 1.7638807e-10 -2.2905969e-11 -3.990823e-09 2.0779663e-10
-7.2483397e-10 -4.2163335e-09 -7.310673e-10 1.8382255e-10 0.007727084 0.0041496754 -0.0013173965 -0.0005072634
-0.08040805 0.041546278 -0.0024830324 0.19627512 -0.0070428425 -0.1920965 0.002823136 0.008011351
0.0020188761 -0.0018087552 0.0020394458 -0.0012781435 0.001867822 -0.107068166 -0.006253211 -0.0045611598
4.115539e-12 -7.113876e-12 7.223536e-13 4.7657056e-12 -9.835143e-12 6.2919552e-12 1.36515e-12 1.5841668e-11
-5.3526966e-12 -1.5982349e-11 -2.9627574e-12 2.0888519e-12 2.671216e-13 4.5369706e-13 -1.4474319e-11 -6.1608075e-12
2.3904437e-11 -1.18052495e-11 1.1004267e-11 2.3955165e-12 6.8880144e-07 -9.765572e-07 2.4435124e-07 9.3206376e-07
-1.3483988e-06 8.740637e-07 2.9037852e-07 1.9084175e-06 -5.2198664e-07 -1.9153335e-06 -4.4529457e-07 1.7193764e-07
-2.7339127e-07 1.725173e-07 -3.144072e-06 6.1179463e-07 -2.210977e-06 -1.5954587e-06 -2.3052744e-06 2.8503663e-07
-3.883359e-17 1.1979938e-17 -2.0528774e-18 -2.3901443e-17 5.3053432e-17 -2.2002417e-17 2.1716402e-19 1.9111664e-16
2.1326324e-17 -1.64875e-16 -1.4395913e-18 -1.869918e-17 2.1989897e-17 6.83429e-18 -3.1387448e-17 1.7458778e-17
00000000: d38b 8924 7dcd cca4 7041 4323 6d5f a424
00000010: ac04 34a5 273b e724 5638 ca23 c7d9 9025
00000020: c7a4 aba4 484f 92a5 b46b 3ea4 a775 f723
00000030: ea5e 8722 5ed1 f922 80b8 63a5 afd7 1f24
00000040: 1ee0 25a5 dc57 57a5 6103 25a5 3619 1924
00000050: 7b1d 9c38 4a1e ecb7 f25a 1638 6c61 d138
00000060: 2a5f f7b8 8c56 e837 a14a a3b6 671e 83b8
00000070: d74c 8eb8 fc3c a738 ce10 5f37 e278 2a38
00000080: 9319 1138 06d1 09b8 e407 4db8 bc8d 5837
00000090: 8906 d5b8 bbba 2fb9 3e4a f9b8 6221 9eb7
000000a0: 8db8 2ebb 86c8 573b 96db 8d39 daec 96bb
000000b0: 8bf0 be3c 93c5 7cbc 3769 a9ba 9d23 11bd
000000c0: d8ea 183b b143 903c fec5 d73a 7650 9fba
000000d0: 431b 5339 6020 9bb9 bb90 153c 0e22 31ba
000000e0: 7a84 9b3b d254 fc3c 9267 c63b 4bed a3ba
000000f0: 164a 3a3c 6d86 67bc eac9 c23a 15b4 403c
00000100: bf34 7bbc fcbe 5e3c 1e61 ce3b 52e4 833c
00000110: aa94 4abc cb0b 85bc 7746 07bc 375d f13b
00000120: 9dc5 d8b7 719f a039 1e9d 18bc ee7c 2a3c
00000130: f5c4 43bc df40 7ebc 0a44 3cbc c34a d13b
00000140: 3e55 2038 e55f 7237 d1e0 9637 ee48 8fb8
00000150: e036 3abb a4f6 e039 5523 8b36 4496 983b
00000160: 8837 4238 51ae 84bb 08aa 2ab7 dde1 23b8
00000170: 5af2 c6b7 f484 bf37 b199 c438 0305 1d38
00000180: 2aab 9338 5121 8dbb cd78 a538 6414 b937
00000190: 6b0b 3db7 75a0 3c38 d1bd 46b7 b1cf 81b8
000001a0: 5b9b 4eba bb6d ba39 94ee eab7 6d6b 8fba
000001b0: 2b0f 6836 1cbf 693a fe2e e637 5b3e 8537
000001c0: 30bf 3537 131d 2cb7 f13f f038 1059 7cb7
000001d0: 3158 7538 aa6d 4fba 67cf 8e38 f98e fbb7
000001e0: 18cd 6735 14d9 2e35 dfe2 c134 df17 01b6
000001f0: 10fb 2736 2520 5834 a3f8 7134 a8aa 7638
00000200: 7f35 52b5 900b 74b8 3311 b2b4 3b11 9d34
00000210: 8657 45b5 7a88 3c35 15d4 9a35 dc94 0434
00000220: 457c 10b5 3cc4 f836 1598 5935 7044 0635
00000230: 4ce0 8536 a6ee 5736 70de 9eb5 2dfe 9d36
00000240: 7fa3 cbb8 d07b 3db7 1bc9 8db6 ddf6 083b
00000250: d5cd 6c36 4f59 07bb 8531 af36 4fc9 c2b6
00000260: a080 da36 e251 b8b6 dbc4 92b6 d977 a235
00000270: b3cf 13b6 0b43 bbb9 2a7f a3b6 15a9 bf35
00000280: 8973 7e2f 8cb5 3cb0 8d3c 612f 7f32 a130
00000290: 3de8 08b1 adec 60af d66c 002f ce1a dd32
000002a0: 0b76 13b0 c8af c6b0 05cd 65af c87b c0af
000002b0: d4f0 412f a87b c9ad a61f 89b1 8d79 642f
000002c0: a83d 47b0 43df 90b1 4af4 48b0 731d 4a2f
000002d0: 7b33 fd3b 00fa 873b 7eac acba dff9 04ba
000002e0: faac a4bd 6e2c 2a3d 5fba 22bb 58fc 483e
000002f0: a5c7 e6bb f2b4 44be 5d04 393b 0b42 033c
00000300: 1f4f 043b c113 edba 39a8 053b 6187 a7ba
00000310: b5d1 f43a 8e46 dbbd bce7 ccbb c875 95bb
00000320: 7bcd 902c 194c faac 1053 4b2b a9ad a72c
00000330: 8c05 2dad e560 dd2c b620 c02b 4458 8b2d
00000340: ce54 bcac 0d95 8cad 4b7c 50ac 69fd 122c
00000350: 4860 962a a368 ff2a 8aa2 7ead 9fc3 d8ac
00000360: 0244 d22d 1eae 4fad d096 412d ca91 282c
00000370: 13e6 3835 4012 83b5 612f 8334 ef32 7a35
00000380: a1fa b4b5 33a1 6a35 52e5 9b34 5d12 0036
00000390: a61e 0cb5 2e89 00b6 d210 efb4 dc9d 3834
000003a0: 9cc6 92b4 323d 3934 bffe 52b6 353a 2435
000003b0: 4c60 14b6 8b23 d6b5 50b4 1ab6 2307 9934
000003c0: 9c16 33a4 a8fd 5c23 c279 17a2 b073 dca3
000003d0: 70aa 7424 bdef caa3 e630 8020 ad57 5c25
000003e0: 5cb3 c423 8316 3ea5 3972 d4a1 3178 aca3
000003f0: 2dd2 ca23 0b24 fc22 c2bf 10a4 6007 a123

bias f4 [256]
1.395893e-16 -0.00087998994 0.28453916 0.03577532 -0.009747906 -8.072218e-05 3.0644114e-05 -0.00019129692
-1.0946023e-08 0.31194264 1.165436e-11 -4.0406785e-06 6.316381e-17 8.100011e-14 5.9114527e-08 -1.2413972e-09
7.64858e-06 1.5474846e-08 -0.0067541124 -1.2278421e-06 -4.62853e-07 3.7488906e-05 1.91955e-05 -0.006142739
9.875303e-08 -0.035903856 1.5444144e-08 1.3115633e-06 -0.00014864697 -1.2015749e-05 0.00033249162 0.00062766444
-1.2857966e-07 -0.0002101832 -1.8960212e-07 -0.0022693637 1.9125133e-09 0.004399926 3.826439e-05 4.42176e-15
-6.433213e-05 -5.5217386e-10 4.54482e-06 4.836734e-07 0.00015487336 -3.0161193e-08 0.008085737 0.2966065
2.003818e-10 1.7530244e-15 3.9072e-12 5.1597476e-12 8.488251e-06 8.917785e-09 3.3158337e-11 -1.2131466e-06
-1.1896869e-07 1.892795e-06 0.21028605 0.2802729 -0.009238482 2.9580388e-10 1.5544826e-13 -1.5886102e-09
1.7321595e-09 -1.237565e-11 1.7119226e-05 6.4446986e-08 0.01728516 2.745761e-13 2.0392673e-13 0.004906157
-0.032778487 6.904246e-12 8.255722e-05 -0.0011066111 1.7389242e-05 -4.6274477e-06 1.6288045e-06 -0.0071650757
0.000107920554 7.985293e-12 1.30980355e-08 0.019594856 -8.883921e-06 -2.5209474e-06 0.046755902 4.0224036e-11
-1.04674186e-07 1.2422642e-10 1.8738898e-06 -2.2403782e-11 4.8838192e-05 3.916237e-12 8.5095564e-10 0.11272155
-0.0024289372 2.212231e-07 -1.9018842e-07 -0.0017650495 2.8376123e-08 -7.634388e-12 2.1391543e-05 2.9444935e-09
0.0080062235 -1.8879431e-09 4.3490715e-11 1.1252383e-07 0.00084792316 -0.018859787 1.1262165e-12 1.5279946e-11
8.613583e-05 -0.00014964922 -0.0004827425 -2.4423187e-05 9.0740555e-17 1.2277891e-09 -0.00014442668 -0.00022984197
0.08022737 3.850877e-07 -9.653773e-10 7.1892905e-09 -0.016689174 2.7836218e-06 0.32813585 1.00727065e-17
-5.8406994e-07 0.011933034 -0.003208874 -1.4388725e-09 -1.2146765e-05 1.2981326e-05 -0.00048231264 -0.0016334988
-5.741629e-07 -0.0083894385 -0.00020897354 0.04751262 0.0008305266 -3.825698e-07 9.957753e-06 -0.00030013823
-8.622127e-06 6.529527e-10 1.5060007e-06 -6.713277e-08 0.38173017 0.000689217 3.6191064e-11 -4.9397347e-08
-3.8470002e-10 3.8181502e-09 1.2189668e-09 -0.043514147 1.671082e-11 -4.4757737e-05 3.500716e-13 3.5993494e-10
0.35742825 -0.0015669265 3.9726412e-08 1.4895925e-06 5.723827e-12 -0.007958711 6.616866e-06 -1.8190162e-08
-0.0014623125 0.33519918 -0.039101854 -3.1473158e-07 0.019150337 7.186682e-08 7.759607e-09 4.6391325e-08
0.13884884 7.88622e-11 -0.0007353151 6.350149e-08 -1.3950984e-05 -2.2178842e-10 -1.4406353e-09 -0.00016357744
0.0005502946 -1.0022144e-08 6.643777e-14 -8.770238e-06 -1.2125089e-07 6.0593484e-06 -3.3032907e-06 -0.0144003015
-0.0050270706 2.7557667e-10 -0.00445159 9.224035e-18 0.01571647 -0.0003157433 1.4201478e-06 0.2712636
-1.9978047e-07 6.8717023e-09 2.1436889e-13 2.474638e-11 -1.3431254e-13 0.32708636 3.9294917e-17 -2.7569419e-08
-0.038007643 -0.050562296 2.0198062e-08 -4.6929223e-12 -7.1000294e-08 3.8578594e-09 -1.7482309e-08 -6.0366474e-08
2.0460693e-05 1.6926282e-07 9.749878e-10 -2.5934938e-10 3.173447e-05 8.575915e-06 -2.1677373e-07 2.8112044e-11
-9.272719e-08 9.903432e-13 -4.1332696e-05 0.38682488 4.55338e-14 2.0744149e-13 -0.00088499096 -2.3203371e-10
-5.678562e-14 -0.00069302303 -0.0035021883 -0.0034314815 -8.445219e-12 2.5648517e-06 4.4105504e-11 0.019005422
-2.4605977e-05 -0.010275687 -4.2878087e-06 0.00015647947 -4.284645e-08 -2.9233607e-09 -5.5481286e-11 0.0018445235
1.5287401e-07 -8.025587e-06 1.2576226e-11 8.284039e-15 1.9491814e-08 0.06396063 -0.0038679435 -3.6970346e-06
00000000: 7def 2025 20af 66ba 1eaf 913e 2489 123d
00000010: aeb5 1fbc 6449 a9b8 de87 0038 e096 48b9
00000020: 1e0d 3cb2 f2b6 9f3e 9206 4d2d 2a95 87b6
00000030: 55a5 9124 6265 b629 1ce5 7d33 c89d aab0
00000040: 6752 0037 8ced 8432 9a51 ddbb 55cc a4b5
00000050: 087e f8b4 683d 1d38 0606 a137 0849 c9bb
00000060: 0d12 d433 ec0f 13bd 08aa 8432 f908 b035
00000070: 1ede 1bb9 4097 49b7 4552 ae39 d989 243a
00000080: b50f 0ab4 a064 5cb9 6f95 4bb4 9bb9 14bb
00000090: 4a6d 0331 412d 903b 137e 2038 8a4f 9f27
000000a0: 0dea 86b8 c8c7 17b0 b57f 9836 c8d5 0135
000000b0: 8065 2239 958a 01b3 0a7a 043c cfdc 973e
000000c0: 7652 5c2f 2fa3 fc26 ee78 892c e08a b52c
000000d0: c368 0e37 d534 1932 f8d4 112e 66d3 a2b5
000000e0: bb7b ffb3 f10b fe35 3a55 573e ee7f 8f3e
000000f0: 015d 17bc b29e a22f e904 2f2a 4156 dab0
00000100: f210 ee30 f9b6 59ad 429b 8f37 1b66 8a33
00000110: 9c99 8d3c 9692 9a2a e199 652a d4c3 a03b
00000120: bc42 06bd ebeb f22c 9222 ad38 b50b 91ba
00000130: 1ddf 9137 7945 9bb6 4c9d da35 03c9 eabb
00000140: 6853 e238 907a 0c2d c505 6132 6485 a03c
00000150: 260c 15b7 8c2d 29b6 1e83 3f3d 3de8 302e
00000160: 3ec9 e0b3 a196 082f 5d82 fb35 d510 c5ad
00000170: 9cd7 4c38 54ca 892c aee8 6930 8eda e63d
00000180: ce2e 1fbb 5889 6d34 9836 4cb4 3c59 e7ba
00000190: c1bf f332 3a4e 06ad fd71 b337 1458 4a31
000001a0: 892c 033c 0cbd 01b1 3146 3f2e a1a4 f133
000001b0: 2947 5e3a d77f 9abc 3a80 9e2b 6167 862d
000001c0: d2a3 b438 28eb 1cb9 9a18 fdb9 65e0 ccb7
000001d0: c53b d124 fdbe a830 3e71 17b9 bc01 71b9
000001e0: 3f4e a43d 0dbe ce34 32ae 84b0 ab05 f731
000001f0: bcb7 88bc 42ce 3a36 6c01 a83e 03cf 3923
00000200: fbc8 1cb5 c682 433c f94b 52bb d3c1 c5b0
00000210: f5c9 4bb7 5fca 5937 e8de fcb9 201b d6ba
00000220: 2d20 1ab5 db73 09bc e81f 5bb9 989c 423d
00000230: b2b7 593a fe63 cdb4 3910 2737 df5b 9db9
00000240: c1a7 10b7 767b 3330 ca21 ca35 a12a 90b3
00000250: 2372 c33e 92ac 343a 842b 1f2e f528 54b3
00000260: b77d d3af ce30 8331 9588 a730 e43b 32bd
00000270: 6cfd 922d 41ba 3bb8 a212 c52a 57e0 c52f
00000280: d600 b73e 5461 cdba a79f 2a33 02ee c735
00000290: a663 c92c 4165 02bc 7206 de36 9740 9cb2
000002a0: 11ab bfba 3a9f ab3e 4429 20bd 61f8 a8b4
000002b0: 2be1 9c3c 3455 9a33 1d4f 0532 cd3f 4733
000002c0: 642e 0e3e 796b ad2e 29c2 40ba 505e 8833
000002d0: 050f 6ab7 e4db 73af d9ff c5b0 fc85 2bb9
000002e0: a541 103a db2d 2cb2 c49a 9529 e323 13b7
000002f0: 3131 02b4 6851 cb36 1aae 5db6 3eef 6bbc
00000300: 20ba a4bb f87f 972f a5de 91bb 4627 2a23
00000310: d4bf 803c 598a a5b9 e89b be35 10e3 8a3e
00000320: 3d83 56b4 221c ec31 a05b 712a e5ab d92d
00000330: f438 17aa dd77 a73e 4037 3524 cbd1 ecb2
00000340: e7ad 1bbd 691a 4fbd 0280 ad32 161e a5ac
00000350: d378 98b3 178e 8431 012c 96b2 d2a2 81b3
00000360: 01a3 ab37 9cbe 3534 5500 8630 2e94 8eaf
00000370: a11a 0538 46e1 0f37 4fc2 68b4 b246 f72d
00000380: 5021 c7b3 e060 8b2b a55c 2db8 e90d c63e
00000390: e610 4d29 f08e 692a bdfe 67ba af1f 7faf
000003a0: 5dbd 7fa9 fdab 35ba f884 65bb b5e2 60bb
000003b0: e391 14ad d11f 2c36 62fa 412e 42b1 9b3c
000003c0: ef68 ceb7 5b5b 28bc ffdf 8fb6 a314 2439
000003d0: 2c06 38b3 4ee4 48b1 6002 74ae f0c3 f13a
000003e0: b025 2434 a2a5 06b7 493e 5d2d 633b 1528
000003f0: f46e a732 cafd 823d 537d 7dbb 921a 78b6

weight f4 [32, 256]
2.197842e-18 -2.663429e-05 -0.010354905 0.0005290023 7.897447e-05 8.900299e-05 9.998469e-07 -5.8098147e-05
3.0610156e-10 0.0031885006 5.379253e-13 -3.4699386e-08 3.425702e-18 -1.0821611e-15 3.82811e-10 3.5574255e-11
-2.457182e-08 -3.125794e-10 6.8985275e-05 -4.0753467e-09 6.567339e-08 -9.509239e-07 -2.5133772e-07 0.00014865583
2.172288e-09 8.8894393e-07 -5.173011e-10 2.509526e-08 -3.3539884e-06 -3.237764e-07 6.779396e-06 -0.0011841729
-5.4951843e-09 -4.674214e-07 -4.744748e-10 -8.450431e-06 -1.2337949e-11 7.24635e-05 -7.254574e-07 1.7860327e-17
-3.2292704e-07 4.585333e-12 -3.8508102e-07 2.1662325e-10 -7.864728e-06 6.7302847e-10 0.00022036591 -0.00245883
-5.744416e-12 3.560871e-15 -1.376206e-13 -5.003445e-14 -1.636868e-07 2.4848493e-10 7.448223e-14 -8.81751e-09
7.5354234e-10 1.41814884e-11 -0.005958208 -0.010115 -2.6979124e-05 -3.024577e-11 -1.858996e-15 -4.282004e-11
-3.19488e-11 1.8729172e-12 -9.182804e-08 8.6322594e-10 1.25461465e-05 1.29599454e-14 1.8233794e-14 1.8612052e-05
-0.002278662 5.3043935e-13 -2.1839207e-06 -8.350411e-06 -2.0586509e-07 4.4150936e-09 6.496707e-09 0.00014026469
8.724626e-05 -1.0237979e-14 5.697117e-11 8.990362e-05 -1.9596791e-07 -1.9420131e-08 7.633172e-05 1.0697744e-12
-2.605962e-09 -2.2788989e-12 -1.1037596e-08 -9.175303e-12 -6.14795e-07 -1.8728412e-13 2.5802145e-12 -0.0011368855
2.158321e-05 1.6050853e-09 -3.2343799e-09 -0.00011373588 -3.4079892e-10 -6.808249e-14 -8.379391e-08 1.405435e-10
0.00034575094 -1.4089777e-11 1.2578935e-13 -1.1709251e-09 4.5605003e-07 -0.0018882828 8.4984225e-14 -3.5656257e-12
4.2440925e-07 -9.1955127e-07 1.3490154e-05 8.5177606e-07 1.6814639e-19 -2.6689737e-13 -9.902339e-06 -1.3225392e-05
-0.0016198918 2.9335987e-09 -2.6607352e-11 6.0112304e-10 -0.0003576246 1.1520216e-09 0.004752502 4.1005564e-18
1.8005817e-08 6.486292e-05 5.801823e-05 5.9635165e-11 -1.359105e-08 3.5535396e-07 -2.6867706e-06 0.0003943103
1.1512271e-08 -0.00051031215 -8.93265e-07 -0.0032274711 -2.5367934e-05 -6.295376e-10 -5.0569337e-08 1.0276976e-06
-2.0518748e-06 -3.532446e-11 3.021094e-08 -1.0109001e-09 -0.0013046013 -1.4451077e-05 -1.742145e-12 -3.1737735e-10
-1.5113487e-12 3.83859e-12 -2.6035972e-12 -0.000551835 8.4045276e-13 2.7355733e-05 -1.7932267e-14 3.0192181e-12
-0.0060483012 3.183514e-05 6.76854e-10 4.114447e-09 -2.0237472e-15 -6.5683496e-05 6.059921e-08 -3.2777767e-10
-1.1551815e-05 -0.003559062 -0.00019351953 3.521609e-10 0.0004902794 4.878277e-10 3.2706254e-10 6.385952e-10
-0.0009860081 3.73144e-11 0.0001226357 1.6550404e-09 -4.1371888e-07 -6.2269473e-12 1.9394686e-11 -4.9400296e-06
7.5835937e-06 1.5819066e-10 1.699156e-14 -2.6581748e-07 -6.616048e-10 -7.636188e-09 -6.0294454e-08 -0.0010300169
-7.261758e-05 -2.6179937e-12 2.6022748e-05 1.7161462e-19 -6.128456e-05 -4.7585314e-07 1.6628865e-08 -0.009432
8.87895e-09 1.4566877e-10 6.0757487e-15 8.68923e-14 -4.40714e-15 0.0031210412 -1.0306229e-18 -1.313096e-10
0.00018298271 0.000116493306 -5.3879696e-11 -1.5970448e-13 -3.8293417e-09 1.4895725e-11 7.917463e-10 -2.3407687e-10
-9.056291e-07 2.5188085e-09 1.8322696e-11 -8.863054e-13 -7.9670485e-08 8.383041e-08 -1.2392268e-09 -2.273816e-14
3.446325e-09 4.4246816e-14 -1.3409951e-06 -0.009538887 5.4488184e-17 2.6093534e-13 8.447744e-06 -2.8051119e-11
1.10266326e-14 4.1405863e-05 0.00027543557 -5.467644e-05 -8.1710334e-14 -1.8486393e-08 -1.4855998e-13 2.731147e-05
5.1267587e-05 0.00013221434 -1.6360146e-07 -2.3766293e-06 -3.561708e-10 -3.9837827e-11 3.1149714e-13 3.0645628e-05
1.8219596e-09 7.510169e-08 -1.5282332e-13 1.143395e-16 -2.5567493e-11 0.002142344 0.00035540177 -9.437998e-09
00000000: 102c 2222 b46c dfb7 9fa7 29bc beac 0a3a
00000010: 199f a538 1ea7 ba38 7a32 8635 69ae 73b8
00000020: f747 a82f 2af6 503b 9a69 172b 6108 15b3
00000030: aec5 7c22 b3f4 9ba6 dc73 d22f 0d75 1c2e
00000040: 0112 d3b2 a4d7 abaf 30ac 9038 2107 8cb1
00000050: 5408 8d33 fe42 7fb5 98ef 86b4 7fe0 1b39
00000060: 4b47 1531 c39f 6e35 d431 0eb0 0f91 d732
00000070: 1515 61b6 7dd3 adb4 917a e336 4036 9bba
00000080: 27d0 bcb1 e8f1 fab4 326c 02b0 53c6 0db7
00000090: 2f0d 59ad 8cf7 9738 0ebd 42b5 81bb a423
000000a0: c15e adb4 0255 a12c 22bd ceb4 062e 6e2f
000000b0: c0f2 03b7 2b00 3930 0612 6739 5224 21bb
000000c0: 191d caac 3d4b 8027 70f2 1aaa cb55 61a9
000000d0: e3c1 2fb4 259b 882f 15b8 a729 d27b 17b2
000000e0: d421 4f30 bf7b 792d 123d c3bb 63b9 25bc
000000f0: 3a51 e2b7 b605 05ae 6cf4 05a7 1453 3cae
00000100: 2783 0cae 7acb 032c 0033 c5b3 2048 6d30
00000110: 4a7d 5237 3377 6928 443c a428 1421 9c37
00000120: 9b55 15bb 2f4e 152b 798f 12b6 be18 0cb7
00000130: c40b 5db4 93b3 9731 a439 df31 0414 1339
00000140: fbf7 b638 586e 38a8 d68f 7a2e a38a bc38
00000150: 406b 52b4 52d1 a6b2 4814 a038 af8e 962b
00000160: 9114 33b1 fe5c 20ac dc9f 3db2 e469 21ad
00000170: 6408 25b5 f9dc 52aa 0391 352c 8c03 95ba
00000180: 970d b537 eb99 dc30 d043 5eb1 7c85 eeb8
00000190: 2f5b bbaf e24e 99a9 30f2 b3b3 7a87 1a2f
000001a0: e845 b539 b7de 77ad 50a0 0d2a 44ee a0b0
000001b0: 0ad7 f434 4280 f7ba 125e bf29 9ae8 7aac
000001c0: 5dda e334 15d7 76b5 c553 6237 9ba5 6435
000001d0: 2183 4620 f73f 96aa 3922 26b7 a0e2 5db7
000001e0: 8d52 d4ba 6a98 4931 6e0a eaad 463c 2530
000001f0: 907f bbb9 2855 9e30 e0ba 9b3b a948 9722
00000200: 36ab 9a32 0407 8838 9a58 7338 9d23 832e
00000210: 127e 69b2 7ac7 be34 5e4e 34b6 6fbb ce39
00000220: 81c7 4532 78c6 05ba b4c8 6fb5 fb83 53bb
00000230: 39cd d4b7 c50b 2db0 9331 59b3 6cef 8935
00000240: f1b2 09b6 ce5b 1bae 48c1 0133 e3ef 8ab0
00000250: 28ff aaba e772 72b7 632f f5ab e47a aeaf
00000260: 13b4 d4ab f20e 872c 3d36 37ac 05a9 10ba
00000270: 0191 6c2b fd79 e537 fe84 a1a8 6675 542c
00000280: d430 c6bb b986 0538 5e0d 3a30 0f5f 8d31
00000290: 8cd3 11a7 8fbf 89b8 c522 8233 9b32 b4af
000002a0: abce 41b7 273f 69bb 81eb 4ab9 3e9a c12f
000002b0: 1886 003a d317 0630 f6cd b32f 2489 2f30
000002c0: f13c 81ba 481c 242e c597 0039 8f77 e330
000002d0: 171d deb4 5b17 dbac f398 aa2d 88c2 a5b6
000002e0: 9376 fe36 b6ee 2d2f df0b 9928 adb5 8eb4
000002f0: 4ddc 35b0 4f30 03b2 3a7b 81b3 a201 87ba
00000300: 444a 98b8 9539 38ac 6d4b da37 569b 4a20
00000310: e685 80b8 c278 ffb4 43d7 8e32 ad88 1abc
00000320: 098a 1832 1d2a 202f e4e6 da27 00aa c329
00000330: b1c8 9ea7 628a 4c3b d517 98a1 5e60 10af
00000340: 0cdf 3f39 de4d f438 25f7 6cae afcf 33aa
00000350: 3f93 83b1 3106 832d 31a2 5930 64af 80af
00000360: 5c1a 73b5 5917 2d31 0b2b a12d 0979 79ab
00000370: 5017 abb3 4106 b433 6b51 aab0 a1ce cca8
00000380: 64d4 6c31 1b45 4729 3efc b3b5 fe48 1cbc
00000390: 4b48 7b24 bfe4 922a c9ba 0d37 81bd f6ad
000003a0: 5ea3 4628 35ab 2d38 5668 9039 6154 65b8
000003b0: cdfe b7a9 02cc 9eb2 8043 27aa ef1a e537
000003c0: 2708 5738 04a3 0a39 6daa 2fb4 2e7e 1fb6
000003d0: 95ce c3af 6835 2fae 785b af2a 7e89 0038
000003e0: 8168 fa30 9747 a133 5310 2caa 10d3 0325
000003f0: e0e4 e0ad 9166 0c3b 3855 ba39 c124 22b2

bias f4 [32]
-0.01824314 0.45429996 0.00034981003 0.38553238 3.2186028e-07 -7.433882e-09 -0.0003993209 -1.0619634e-09
0.40796512 -1.1918853e-06 0.5135169 -2.4016463e-08 0.33546466 2.5686493e-06 -2.9767745e-07 -1.1351054e-13
-0.001858366 -3.4566336e-13 -1.7835719e-05 -0.0017438146 -2.3559039e-07 0.5298784 0.4957603 -0.00061700057
-1.352802e-08 -6.6196553e-25 -9.045675e-11 1.466306e-10 -0.01252673 -4.984274e-13 -0.001458388 0.42495403
00000000: a372 95bc 019a e83e b566 b739 8064 c53e
00000010: 24cc ac34 1e6d ffb1 f25b d1b9 84f4 91b0
00000020: cee0 d03e def8 9fb5 d875 033f c34c ceb2
00000030: 06c2 ab3e 0f61 2c36 7ad0 9fb4 5f9a ffa9
00000040: 6a94 f3ba 5797 c2aa ea9d 95b7 b590 e4ba
00000050: 98f6 7cb4 1ca6 073f 4bd4 fd3e 35be 21ba
00000060: dc68 68b2 50de 4c97 a0ea c6ae d838 212f
00000070: ea3c 4dbc 7b4b 0cab 6227 bfba 9393 d93e
