ckpt/real_Full_model-last.pt (torch, 140478 bytes, 17 tensors)

weight f4 [256, 7]
1.598373e-07 -2.1893949e-07 8.5255053e-10 3.877096e-11 2.0297367e-10 5.5766492e-11 -4.4224565e-11 -2.8264774e-13
-6.9254146e-13 -2.4447378e-14 -2.123639e-15 -1.3639922e-14 1.3432041e-15 -7.398074e-15 -5.838064e-13 -2.978643e-11
1.5375189e-13 4.5524743e-15 -1.7971506e-13 -1.1456304e-13 6.7896874e-14 -3.537943e-05 -0.00030083317 -2.4060208e-07
-2.5785536e-07 -3.4653482e-07 3.1594573e-07 6.484805e-07 0.012539926 0.01020691 -0.0046033114 -2.5491552e-05
-0.00023745443 0.0010427461 0.00018473901 9.552613e-09 -1.2299663e-08 1.11645755e-10 2.0698458e-12 1.6974023e-11
2.0358578e-11 -2.829465e-11 7.1432953e-07 -1.8218574e-06 4.161496e-09 -3.6624717e-10 -4.014544e-09 9.2202296e-10
-2.7519582e-09 5.7042655e-07 -1.0495783e-06 3.3424157e-09 1.8035998e-10 -2.3067208e-09 5.4416965e-10 8.880722e-10
5.034377e-07 -6.513415e-07 1.0669898e-08 -1.6567436e-09 -7.9647606e-08 -1.40964485e-08 -2.3999252e-08 -0.006286245
0.0015245134 -0.0022108294 -9.088574e-05 0.0034916378 0.00030619794 0.0004158276 4.6133635e-09 7.4796186e-10
-2.5426583e-10 -5.8288725e-12 -1.6664652e-10 -2.9408538e-11 8.43375e-11 -0.0001407314 -0.0024204392 9.2320115e-06
-7.616398e-08 5.6259637e-06 -2.0907355e-06 6.922455e-07 3.3552205e-09 -4.5540576e-09 4.7502148e-11 2.8778744e-14
-1.6551363e-11 -3.5271705e-12 1.4072347e-12 1.9544552e-10 -3.7338038e-10 1.6162844e-12 -5.737149e-14 -4.768196e-13
-6.258014e-13 -7.965316e-14 -3.2890118e-10 -4.1717485e-10 -1.391381e-11 3.5691412e-13 4.3099475e-11 4.8843915e-12
9.173875e-12 -0.00029887137 -0.0019108641 -2.672546e-05 -1.2407612e-06 -6.616093e-05 -9.587051e-06 -1.2840227e-05
-5.717745e-11 -1.9030448e-10 2.9732113e-12 -6.37587e-14 -1.2225203e-12 -1.6910274e-12 -4.0759678e-13 8.075255e-06
-1.234955e-05 1.0055283e-07 -2.40939e-09 -2.0936037e-08 -4.960482e-10 5.9985344e-10 0.00241618 -0.0006346195
0.00039518156 -9.779046e-06 -0.00039889337 6.295033e-05 5.172908e-06 5.550042e-05 -0.0003968585 1.2822787e-06
-3.1956054e-07 1.4822278e-06 4.789791e-07 -5.099766e-07 0.0010428153 -0.0033415572 1.3560975e-05 1.6002109e-07
3.2355736e-06 -4.172372e-07 -1.0267268e-09 3.0443007e-13 -1.7138926e-12 -1.0929119e-15 9.11034e-18 9.760812e-15
-3.4709343e-15 1.08287174e-16 -1.7345123e-05 8.319583e-06 6.660782e-08 9.350763e-10 -8.647361e-10 -1.8497712e-09
3.2928986e-09 7.103972e-08 -1.2167784e-07 5.742616e-10 -5.2831337e-11 -5.1701543e-10 -2.330209e-10 -3.00554e-10
-0.0007194107 -0.0012729765 -4.5202913e-05 3.8162426e-07 -6.2847926e-06 -9.89433e-06 4.9710034e-06 6.798513e-05
-0.00044992234 2.7136716e-06 -7.8650594e-08 1.6333056e-06 3.9285007e-07 7.7394236e-07 6.3186576e-08 -1.0213689e-07
8.4649754e-10 1.9527375e-11 -3.424469e-11 1.1161246e-11 9.067559e-12 1.1935699e-06 -5.7009984e-06 3.4254086e-08
-1.6777227e-09 -1.718247e-08 6.161378e-09 -7.187639e-09 0.00011126679 7.773767e-05 2.172254e-06 -4.200497e-07
1.634904e-07 -8.34027e-07 -1.6025989e-06 -0.00014308997 -0.0034128309 1.4138512e-05 9.414429e-07 9.873738e-06
2.7922108e-06 3.373269e-06 2.2724112e-06 -7.742678e-06 1.1864541e-08 2.0700976e-09 1.1786441e-09 -1.2486829e-08
-3.0857836e-10 1.293731e-09 -2.0846815e-09 1.86837e-11 9.782735e-13 -7.300086e-12 -2.719319e-13 -7.2869667e-13
-4.152959e-09 -5.479257e-09 5.6523003e-10 2.3105746e-11 2.9212868e-11 2.3261744e-10 -6.0506725e-11 -0.01065315
0.0015572318 -4.8442456e-05 -7.4167457e-07 -4.7718395e-06 -4.8916763e-06 -4.918853e-06 -1.7052179e-11 -2.768538e-11
-7.395144e-13 -1.0686235e-14 -5.690111e-14 -5.8816293e-13 3.254541e-13 -3.20337e-11 -7.0828954e-10 6.895059e-12
1.0231128e-13 3.527534e-12 -2.0279846e-12 9.87803e-13 6.793031e-09 -6.5815993e-09 7.305748e-11 -1.4354648e-12
00000000: be9f 2b34 a115 6bb4 e958 6a30 3884 2a2e
00000010: 022c 5f2f 7d43 752e 6f80 42ae d51d 9faa
00000020: dfee 42ab d133 dca8 3a06 19a7 0ab7 75a8
00000030: 7c93 c126 9845 05a8 af53 24ab 8a00 03ae
00000040: f71b 2d2a 2a05 a427 5757 4aaa 8cfc 00aa
00000050: e2e3 9829 6064 14b8 25b9 9db9 192c 81b4
00000060: 5f6f 8ab4 620b bab4 409f a934 3e13 2e35
00000070: 4374 4d3c e23a 273c 60d7 96bb b1d6 d5b7
00000080: 30fd 78b9 c1ac 883a 80b6 4139 d61c 2432
00000090: 7d4e 53b2 f982 f52e 07a7 112c 1a4e 952d
000000a0: 7113 b32d e3e1 f8ad 5ac0 3f35 8b86 f4b5
000000b0: e8fc 8e31 b558 c9af 4df0 89b1 9971 7d30
000000c0: f61c 3db1 6a1f 1935 3cdf 8cb5 66b0 6531
000000d0: d24e 462f 4384 1eb1 8994 1530 871c 7430
000000e0: fa23 0735 d9d7 2eb5 b54e 3732 7cb3 e3b0
000000f0: bc0a abb3 d62c 72b2 ea26 ceb2 d8fc cdbb
00000100: 2ed2 c73a 90e3 10bb e999 beb8 f6d3 643b
00000110: 3189 a039 7003 da39 9383 9e31 2399 4d30
00000120: bcc8 8baf d115 cdac d33a 37af 1257 01ae
00000130: cb75 b92e 4c91 13b9 3ba0 1ebb 30e3 1a37
00000140: 978f a3b3 a9c6 bc36 904e 0cb6 c0d2 3935
00000150: aa91 6631 ea79 9cb1 aaea 502e a29b 0129
00000160: 5b96 91ad db33 78ac f90c c62b 06e5 562f
00000170: 9e44 cdaf c878 e32b 6a30 81a9 7936 06ab
00000180: be25 30ab ec5c b3a9 bad0 b4af 2458 e5af
00000190: 3bc6 74ad bfec c82a b28d 3d2e b0da ab2c
000001a0: 7663 212d d6b1 9cb9 f675 faba 7d30 e0b7
000001b0: 3b88 a6b5 e1bf 8ab8 12d8 20b7 5b6c 57b7
000001c0: 1678 7bae f33d 51af 9d38 512c 6392 8fa9
000001d0: f00d acab affd edab e374 e5aa f57a 0737
000001e0: ea30 4fb7 81ef d733 7092 25b1 d5d6 b3b2
000001f0: 4a5a 08b0 efe2 2430 c658 1e3b 985c 26ba
00000200: 5f30 cf39 af10 24b7 9022 d1b9 3304 8438
00000210: f192 ad36 1fc9 6838 7211 d0b9 c31a ac35
00000220: 1190 abb4 f6f0 c635 3193 0035 53e5 08b5
00000230: 13af 883a 07fe 5abb f283 6337 43d2 2b34
00000240: bb22 5936 a500 e0b4 bd1c 8db0 ff60 ab2a
00000250: 7d35 f1ab 5581 9da6 5d0e 2823 cdd5 2f28
00000260: 701b 7aa7 77b1 f924 5e80 91b7 5694 0b37
00000270: 090a 8f33 1384 8030 65b2 6db0 0a3b feb0
00000280: 4949 6231 808e 9833 8da6 02b4 11da 1d30
00000290: cc5a 68ae ba1d 0eb0 c71a 80af 373b a5af
000002a0: d696 3cba 01da a6ba 4298 3db8 0ae2 cc34
000002b0: f5e1 d2b6 d3ff 25b7 98cc a636 3d93 8e38
000002c0: 8ee3 ebb9 861c 3636 9fe6 a8b3 f437 db35
000002d0: e7e8 d234 eac0 4f35 30b1 8733 5956 dbb3
000002e0: f8ae 6830 bdc3 ab2d 189c 16ae c959 442d
000002f0: a884 1f2d c032 a035 344b bfb6 c41e 1333
00000300: 9f95 e6b0 a798 93b2 0eb4 d331 24f7 f6b1
00000310: e757 e938 1807 a338 0ac7 1136 3183 e1b4
00000320: e68b 2f34 e6e1 5fb5 e118 d7b5 6c0a 16b9
00000330: cda9 5fbb 7234 6d37 77b7 7c35 62a7 2537
00000340: d161 3b36 5260 6236 ba7f 1836 8ce6 01b7
00000350: ced4 4b32 8b41 0e31 dafd a130 a885 56b2
00000360: 8ba4 a9af 1dcf b130 1b42 0fb1 f457 a42d
00000370: 04ae 892b aa6c 00ad 8415 99aa 211c 4dab
00000380: d0b1 8eb1 0e44 bcb1 875e 1b30 843d cb2d
00000390: c47a 002e fdc3 7f2f 420e 85ae 8d8a 2ebc
000003a0: 071c cc3a b12e 4bb8 7d17 47b5 ca1d a0b6
000003b0: 2e23 a4b6 a00c a5b6 18fe 95ad ef85 f3ad
000003c0: a127 50ab 8f81 40a8 4221 80a9 9b8d 25ab
000003d0: e136 b72a bde2 0cae 72b1 42b0 2c99 f22c
000003e0: 7062 e629 673a 782c ecb4 0eac 5b05 8b2b
000003f0: 2268 e931 5c24 e2b1 b4a7 a02e 1206 caab

bias f4 [256]
1.5483012e-10 -1.4688498e-14 -1.931486e-13 -2.0535267e-06 -0.0019704527 2.7340095e-11 -1.1403678e-09 -3.6322453e-10
-3.293302e-08 0.001665292 -2.2043514e-10 9.875022e-07 -3.7061643e-12 3.9161561e-13 1.7144383e-11 2.259791e-06
-2.176601e-12 8.767811e-09 -0.0001011671 6.452186e-07 9.3162726e-07 1.7850413e-15 -4.352425e-09 9.105774e-11
1.1274094e-05 1.2083916e-06 1.7342847e-10 -4.6005386e-09 8.442922e-08 -3.885055e-06 -1.4813267e-09 2.4221634e-12
1.3605754e-10 2.2246488e-05 7.3052035e-13 1.5496793e-12 -8.467857e-12 -6.2055784e-07 -3.7041033e-11 -3.6985097e-05
-2.1994664e-08 -0.0014439048 -1.9616286e-12 8.9032095e-05 -7.811979e-10 -4.4670045e-16 -2.5627667e-08 5.225693e-07
1.8375414e-07 -6.686765e-10 9.57819e-11 -1.6410652e-09 1.4026818e-06 0.0007753649 -4.2569862e-08 -2.6311974e-07
-2.5152094e-11 -6.1222253e-19 7.656871e-06 0.000106879415 4.5985382e-07 5.7901546e-15 -0.0017947603 -3.8787685e-11
-6.2803096e-11 1.377196e-11 7.309497e-07 -1.2098562e-07 1.7320214e-09 -8.748224e-09 -1.1737993e-16 -0.00090706226
-8.16957e-05 1.8351522e-10 2.4244854e-11 8.581611e-18 -4.705734e-06 -5.2197233e-11 1.0407594e-05 -4.911765e-08
-7.029634e-10 -2.3856383e-18 -9.841888e-08 -5.804874e-07 -1.2469371e-08 -0.003623858 6.657357e-08 -0.0039691413
3.9794607e-08 -6.0553945e-15 -3.4924625e-09 -4.309879e-10 -0.0025494013 -3.0963196e-08 0.00025552916 -3.417834e-08
-2.3913885e-12 -0.00035451623 -1.194391e-08 7.143935e-20 -2.196737e-16 0.0016442604 -7.8336456e-08 1.4522487e-06
-8.352278e-08 -1.1829512e-11 -2.3032688e-10 -0.0020300436 1.4138984e-09 8.5857573e-07 -4.5242417e-05 -0.00025811812
-7.233312e-07 6.2854934e-07 7.265744e-09 5.329258e-10 -0.00080645154 -5.16516e-10 -5.061647e-11 -1.1303899e-08
7.990621e-13 -0.0080101155 -1.3596387e-14 -5.3801585e-20 -7.182147e-06 -5.014432e-07 -1.41012375e-08 -2.2956105e-12
-2.1118102e-07 6.660524e-07 2.7290848e-06 -0.00012528372 2.1049725e-06 3.1062493e-11 7.962264e-06 0.00023696036
-2.2632992e-08 1.465763e-11 -5.245602e-06 6.9715517e-15 -1.1253726e-16 -0.0008120189 3.8319395e-12 1.6617953e-12
-5.1266805e-05 -5.029984e-08 -2.3422117e-13 2.445055e-07 1.0494581e-10 1.1099119e-18 -2.609052e-11 1.4643593e-08
0.00026966765 -7.332557e-15 -1.8744096e-07 -2.1667533e-14 5.270267e-10 -4.6046873e-12 -2.8136273e-09 2.0762862e-05
2.1737398e-08 9.101104e-07 5.481545e-07 1.705973e-08 2.3253175e-16 2.5788103e-11 -9.4898354e-08 2.754586e-11
3.870709e-12 6.2552247e-10 8.563756e-09 -3.8032013e-09 -1.8761475e-07 -8.059087e-05 -0.0003789213 8.568274e-05
9.932196e-10 5.2308256e-05 1.0157397e-06 2.0735818e-07 -4.475376e-10 1.1117081e-06 1.9286767e-13 1.477395e-12
-2.487061e-07 1.202303e-08 -3.9461156e-06 2.2377942e-06 -1.5088572e-05 6.4306453e-19 -1.4303853e-07 -3.3588088e-10
-1.9611274e-07 5.1502475e-06 2.2222634e-06 -3.9080444e-07 -7.9010435e-12 -1.7319706e-11 1.6251532e-06 2.1803835e-10
1.1398607e-10 1.4620028e-08 6.438538e-11 1.6335979e-12 -8.8784514e-11 3.3035118e-07 -3.860413e-10 -6.356938e-21
-3.0835404e-11 1.1535506e-05 2.6085613e-06 -6.3978803e-13 -3.2629774e-07 1.291823e-09 -3.461584e-08 -2.733378e-06
-4.156924e-11 1.6702613e-08 -1.8140067e-09 4.14186e-07 -1.9787387e-05 -2.234613e-08 8.4053015e-10 2.847018e-11
-7.691153e-08 5.2242762e-11 -1.6213305e-15 3.0375597e-17 3.1361037e-07 -3.0950065e-11 2.7669282e-07 7.773982e-08
1.2381828e-09 2.3467023e-10 1.1580464e-12 -3.864831e-06 2.7984374e-08 -5.2829607e-12 -8.446024e-09 8.179763e-05
6.315867e-11 -1.6121455e-13 -6.546139e-07 -0.0003352701 -9.177571e-08 3.0375264e-05 1.0624683e-07 8.15352e-12
-1.8759787e-05 -6.857095e-10 -1.4094638e-19 1.1114895e-07 -6.3494947e-09 4.5116602e-10 -7.2293665e-07 -2.1325304e-05
00000000: ce3c 2a2f 5f4d 84a8 4b77 59aa 52cf 09b6
00000010: b622 01bb 6c7c f02d 20bb 9cb0 4faf c7af
00000020: 3d72 0db3 ed45 da3a fa5e 72af 518a 8435
00000030: 2966 82ac c275 dc2a b8cd 962d eaa6 1736
00000040: 282a 19ac 3ea1 1632 ac29 d4b8 1633 2d35
00000050: f014 7a35 33a0 0027 568c 95b1 f33c c82e
00000060: dd25 3d37 0530 a235 c6af 3e2f c412 9eb1
00000070: 744f b533 5e5c 82b6 8d97 cbb0 d171 2a2c
00000080: cb98 152f f89d ba37 8a9f 4d2b 1519 da2b
00000090: d6f7 14ad 6994 26b5 7fe8 22ae 7220 1bb8
000000a0: c7ee bcb2 6841 bdba 8f09 0aac beb6 ba38
000000b0: eabb 56b0 adc0 00a6 d623 dcb2 b046 0c35
000000c0: f44d 4534 edcd 37b0 6ba0 d22e d98b e1b0
000000d0: c843 bc35 dc41 4b3a 0fd6 36b3 e742 8db4
000000e0: 7b3d ddad 3ab2 34a1 0376 0037 7324 e038
000000f0: d4e1 f634 c09c d027 2a3e ebba 0d97 2aae
00000100: 001b 8aae 6547 722d 7b36 4435 46e8 01b4
00000110: 160c ee30 194b 16b2 7154 07a5 ebc7 6dba
00000120: 0c54 abb8 f1c6 492f 8f42 d52d 834d 1e23
00000130: f3e5 9db6 dc90 65ae 479c 2e37 6df5 52b3
00000140: a73a 41b0 6f07 30a2 5a5a d3b3 cad2 1bb5
00000150: e038 56b2 407e 6dbb 35f7 8e33 920f 82bb
00000160: a2ea 2a33 282b daa7 0d00 70b1 28f0 ecaf
00000170: db13 27bb 65fc 04b3 8bf8 8539 7bcb 12b3
00000180: 6d47 28ac 5dde b9b9 df31 4db2 70ae a81f
00000190: 3b44 7da5 3984 d73a ec39 a8b3 e3ea c235
000001a0: 225d b3b3 631b 50ad 413f 7daf 7b0a 05bb
000001b0: 2153 c230 e078 6635 adc2 3db8 0754 87b9
000001c0: f12a 42b5 95b9 2835 29a6 f931 527d 1230
000001d0: 0c68 53ba 95fa 0db0 149d 5eae 1333 42b2
000001e0: 7eea 602b dc3c 03bc 45ee 74a8 2012 7e9f
000001f0: 2cfe f0b6 ea9a 06b5 e641 72b2 0b8a 21ac
00000200: ffc0 62b4 c6ca 3235 5225 3736 985e 03b9
00000210: 2743 0d36 429d 082e aa95 0537 9078 7839
00000220: 7a6a c2b2 0cee 802d 6103 b0b6 372d fb27
00000230: 23bf 01a5 aadd 54ba 0bd3 862c 7ce0 e92b
00000240: 5007 57b8 4209 58b3 d4da 83aa 9444 8334
00000250: 3dc7 e62e 49cb a321 a17e e5ad 3493 7b32
00000260: 2e62 8d39 7317 04a8 6143 49b4 ee29 c3a8
00000270: 35de 1030 5603 a2ac db59 41b1 e82b ae37
00000280: 0bb9 ba32 4f4e 7435 e424 1335 be8a 9232
00000290: a10b 8625 a5d5 e22d ecca cbb3 c34b f22d
000002a0: 3f30 882c 3bf1 2b30 cc1f 1332 50ad 82b1
000002b0: 2673 49b4 e502 a9b8 f5a9 c6b9 92b0 b338
000002c0: cf81 8830 9065 5b38 8d54 8835 2fa6 5e34
000002d0: 5109 f6af 0036 9535 5226 592a c4ec cf2b
000002e0: e885 85b4 d88d 4e32 e068 84b6 032d 1636
000002f0: ec24 7db7 95cc 3d21 2296 19b4 08a7 b8af
00000300: 0f93 52b4 4ad0 ac36 3222 1536 c1cf d1b4
00000310: 23ff 0aad 8358 98ad d71f da35 57bc 6f2f
00000320: 74a8 fa2e 902b 7b32 bf95 8d2e 91e8 e52b
00000330: 3d3d c3ae 1f5b b134 7c3a d4af 8828 f09d
00000340: 949d 07ae 9f88 4137 be0e 2f36 9615 34ab
00000350: 052e afb4 fb8b b130 85ac 14b3 146f 37b6
00000360: ced2 36ae 6f79 8f32 b050 f9b0 4a5d de34
00000370: 17fd a5b7 a9f3 bfb2 0d0b 6730 256d fa2d
00000380: 902a a5b3 1fc4 652e 8aa8 e9a6 2d15 0c24
00000390: 485e a834 ad1e 08ae 5f8c 9434 ebf1 a633
000003a0: af2c aa30 e602 812f 05fb a22b a5ae 81b6
000003b0: 4a62 f032 aee0 b9ac 021a 11b2 c58a ab38
000003c0: 2ce3 8a2e ee82 35aa bab8 2fb5 31c7 afb9
000003d0: 3b16 c5b3 62ce fe37 d029 e433 3170 0f2d
000003e0: 565e 9db7 847c 3cb0 6e66 26a0 c8b0 ee33
000003f0: bf2a dab1 f907 f82f d40f 42b5 bee3 b2b7

weight f4 [32, 256]
3.3998195e-09 2.1553915e-14 7.4059655e-13 1.9785091e-05 -0.0014875588 -5.5961517e-11 -1.946675e-08 -1.7026068e-08
2.8013264e-07 0.00082433224 -1.2570932e-10 -2.1607222e-05 -7.2458844e-11 2.7443214e-13 -5.640412e-12 4.698085e-06
-3.6933003e-13 1.4974616e-07 -0.00026034756 -1.5847626e-06 7.0786978e-06 3.9251414e-15 -7.1995096e-08 3.5315324e-09
2.6906596e-06 -1.078623e-06 -1.7079638e-11 2.3417869e-08 -1.5473954e-05 -4.493297e-06 -4.3774895e-07 4.236054e-11
-5.5144244e-12 -2.0436191e-06 -1.2287747e-13 1.7406288e-11 -1.2727318e-10 -1.8648527e-05 -2.0909098e-10 -3.2480246e-05
-4.7593726e-08 -0.0012939476 -1.1466301e-11 6.0689126e-05 -3.135388e-08 1.7798795e-16 -6.875248e-07 1.3723201e-06
2.8494353e-06 -2.5667826e-09 -1.0824592e-09 -7.955319e-10 2.3147074e-06 0.00019812945 1.0491175e-07 6.0073535e-07
-1.0560269e-10 3.822604e-18 -9.0074815e-07 0.00043177936 5.326554e-07 2.092884e-14 -0.0013903605 -4.2360065e-10
-6.9419853e-10 8.3571386e-11 2.2967306e-06 -4.4639143e-07 7.673243e-09 1.0342624e-07 -8.971182e-15 0.00042246326
-2.1786325e-05 -1.624687e-10 2.2624752e-08 -1.0067717e-16 -4.5922032e-05 -1.5359401e-12 0.00017405929 1.4991397e-06
-1.0623938e-08 1.0259272e-17 3.389737e-08 3.0193058e-07 -7.867662e-08 -0.0019141801 2.8158422e-07 -0.001974908
-1.4937492e-06 -6.96406e-15 3.0600823e-08 1.5904733e-06 -0.0015742728 1.4428276e-06 -0.0006081655 -3.90034e-06
-1.0697889e-12 0.0014545524 5.1528062e-08 8.6273335e-19 -2.118689e-16 0.00068363943 -7.054177e-07 -7.710223e-06
-2.7551656e-07 4.7179767e-11 -3.009764e-08 0.00083581853 4.4635302e-11 2.3856794e-06 0.00010007864 -0.0010761698
7.5587072e-06 3.9516467e-06 -9.2708255e-08 8.481801e-09 0.0041741123 5.3839995e-09 3.4843475e-10 -1.0884117e-07
-8.057916e-13 -0.003377333 2.8379088e-14 1.33064384e-17 -8.502382e-06 4.0908362e-05 8.088645e-07 8.8631325e-12
-1.7047674e-06 4.806032e-06 -3.4376496e-06 0.0002898458 -3.510274e-05 6.447481e-10 -9.328783e-06 -0.0022807631
2.9335286e-08 -2.0148351e-10 0.00018479873 6.009265e-14 1.2689738e-16 0.0005679037 1.0892633e-11 4.9318476e-13
0.0004960515 -7.715581e-08 1.0891128e-10 3.7004454e-06 7.332258e-11 -1.9457847e-17 4.4885493e-10 -5.5120825e-07
1.8419203e-05 -5.7714454e-12 -1.0669756e-06 -5.220288e-13 -2.5449994e-08 -9.764353e-11 -9.083189e-09 6.9858565e-05
-1.1897484e-08 -9.72854e-07 1.8395708e-07 2.7423616e-07 1.8277385e-16 -4.665122e-11 1.2600643e-07 -2.0158845e-10
4.4251956e-11 5.2419407e-09 5.4347794e-07 -3.159726e-08 2.6716896e-07 1.691926e-05 -0.0019087218 4.2120144e-05
2.1326565e-08 -0.00013572714 -5.814275e-07 1.2719862e-06 -1.00819214e-10 4.8179054e-06 3.0497358e-12 -5.701411e-12
-1.1290951e-05 5.017063e-07 -5.9379577e-06 -4.223844e-06 -0.00013422465 -1.6502207e-19 -1.1636214e-07 -3.6334724e-10
7.314968e-06 1.8878704e-06 -7.036169e-05 4.0271065e-08 -1.1310588e-10 6.2905126e-10 -2.9288192e-05 -4.617045e-10
-2.1263067e-09 -4.038872e-07 1.6746944e-11 -6.6518076e-11 1.8098546e-10 -2.6478386e-07 7.6578643e-10 -5.624415e-21
-2.8952554e-11 0.00070074544 5.2572253e-05 2.8948234e-11 7.0934567e-07 1.8811785e-07 1.9103986e-08 -1.0025311e-06
-2.0988193e-09 3.5553984e-09 -1.2024019e-07 -6.467831e-06 6.727237e-05 -4.696843e-08 5.32718e-08 6.3576955e-10
-3.546889e-07 -2.2058233e-09 -3.1542816e-16 -1.258326e-15 -2.2818624e-06 1.0382038e-10 2.1040717e-07 -3.5468296e-05
-1.1604426e-09 6.489328e-11 -5.3498683e-10 2.2413103e-06 -4.2858835e-07 8.948436e-12 6.583965e-07 4.090687e-05
8.679499e-11 9.289266e-15 1.3277462e-06 -0.00040660065 -9.1300836e-07 0.00027851667 2.1711362e-06 -2.1642858e-11
-3.866202e-05 -5.3385523e-09 -3.413552e-20 6.6129476e-05 -1.00849185e-07 -1.8694999e-09 2.7323117e-06 -1.6917727e-05
00000000: 42a2 6931 f223 c228 9b75 502b 29f8 a537
00000010: 31fa c2ba 111f 76ae d637 a7b2 b840 92b2
00000020: 2365 9634 0018 583a 0738 0aaf 2841 b5b7
00000030: b456 9fae d77d 9a2a 5174 c6ac 3ea4 9d36
00000040: 11ea cfaa e9c9 2034 427f 88b9 07b4 d4b5
00000050: 8d85 ed36 0a6b 8d27 b99b 9ab3 60af 7231
00000060: 2e91 3436 34c5 90b5 ed3b 96ad 7028 c932
00000070: 10ce 81b7 21c5 96b6 c203 ebb4 ba4d 3a2e
00000080: 8505 c2ac 1c25 09b6 0559 0aaa 7a1b 992d
00000090: 37f0 0baf 686f 9cb7 e1e5 65af 663b 08b8
000000a0: db69 4cb3 ad99 a9ba a1b7 49ad 748c 7e38
000000b0: f5a9 06b3 c534 4d25 588e 38b5 8f30 b835
000000c0: ed38 3f36 5163 30b1 a6c5 94b0 95ac 5ab0
000000d0: 5f56 1b36 f8c0 4f39 d84b e133 3842 2135
000000e0: 0839 e8ae 7907 8d22 f1ca 71b5 7260 e239
000000f0: cdfb 0e35 9f82 bc28 c23c b6ba 7ee0 e8af
00000100: e1d1 3eb0 82c6 b72e 8821 1a36 92a7 efb4
00000110: 48d3 0332 2d1b de33 469c 21a8 0f7e dd39
00000120: c7c1 b6b7 e0a2 32af 5b58 c232 5025 e8a4
00000130: 689c 40b8 132a d8ab af83 3639 0c36 c935
00000140: 9384 36b2 0b40 3d23 8d96 1133 0619 a234
00000150: eef4 a8b3 3ae5 faba a42c 9734 756d 01bb
00000160: d57c c8b5 1ee8 faa7 f66d 0333 3f78 d535
00000170: d457 ceba 2ea7 c135 4c6d 1fba aadf 82b6
00000180: 358f 96ab aea6 be3a b44f 5d33 4aa2 7e21
00000190: a944 74a5 4436 333a ef5b 3db5 285b 01b7
000001a0: b5ea 93b4 b27f 4f2e b544 01b3 d51a 5b3a
000001b0: e24e 442e a919 2036 50e1 d138 440e 8dba
000001c0: cda0 fd36 6398 8436 e716 c7b3 5bb7 1132
000001d0: fec6 883b 29fe b831 d58d bf2f 11bc e9b3
000001e0: 67cf 62ab 3f56 5dbb b99d ff28 e175 7523
000001f0: 74a5 0eb7 0595 2b38 bf20 5935 00ec 1b2d
00000200: 5dcf e4b5 8043 a136 5fb2 66b6 72f6 9739
00000210: 483b 13b8 1d3a 3130 d182 1cb7 db78 15bb
00000220: fafc fb32 9188 5daf 88c6 4139 0e51 8729
00000230: 7f4d 1225 5fdf 143a 0fa0 3f2d b5d1 0a2b
00000240: 7409 023a dbb0 a5b3 9a7f ef2e 2b55 7836
00000250: f13c a12e 8b77 b3a3 b7c2 f62f bef6 13b5
00000260: f082 9a37 8f10 cbac 0135 8fb5 24f0 12ab
00000270: 219d dab2 6cb8 d6ae 4a0c 1cb2 0881 9238
00000280: b065 4cb2 0293 82b5 bd85 4534 bb3a 9334
00000290: 52b9 5225 9b2c 4dae 624c 0734 1ba6 5daf
000002a0: 469f 422e 991c b431 85e3 1135 8eb5 07b3
000002b0: 6c6f 8f34 d6ed 8d37 132e faba 29aa 3038
000002c0: 9d31 b732 fa51 0eb9 6513 1cb5 1db9 aa35
000002d0: 2cb4 ddae 7ea9 a136 289b 562c bf99 c8ac
000002e0: 446e 3db7 ffac 0635 ab3e c7b6 8bba 8db6
000002f0: a8be 0cb9 dcd2 42a0 c3e2 f9b3 94c0 c7af
00000300: 1973 f536 bc62 fd35 258f 93b8 81f6 2c33
00000310: f3b8 f8ae 8ce9 2c30 eaaf f5b7 22d3 fdaf
00000320: 621e 12b1 d6d5 d8b4 c44e 932d 5946 92ae
00000330: e1fe 462f 9e27 8eb4 6e7f 5230 017c d49d
00000340: 5bab fead 3bb2 373a 0781 5c38 a1a1 fe2d
00000350: dd69 3e35 71fd 4934 1c1a a432 b58e 86b5
00000360: d23a 10b1 3b53 7431 5f1b 01b4 3f06 d9b6
00000370: 9414 8d38 56ba 49b3 f7cc 6433 4ec2 2e30
00000380: 126c beb4 4195 17b1 fbd4 b5a5 0958 b5a6
00000390: 1922 19b6 ae4d e42e 48ec 6134 cbc3 14b8
000003a0: 727d 9fb0 abb3 8e2e 5a0e 13b0 6b69 1636
000003b0: bc18 e6b4 2c6c 1d2d aabc 3035 6b93 2b38
000003c0: 3cdd be2e 2e57 2728 0335 b235 042d d5b9
000003d0: 7515 75b5 e005 9239 d6b3 1136 625f bead
000003e0: 0729 22b8 676e b7b1 5033 219f feae 8a38
000003f0: 6d92 d8b3 9778 00b1 c25c 3736 8bea 8db7

bias f4 [32]
-0.00018320407 -0.00011853217 -7.793095e-06 -3.3647142e-05 -0.0003441097 0.0007968177 -3.9208817e-06 7.1445984e-06
-0.0030850023 0.006389081 -0.008812067 -0.00012740157 -0.004849581 -6.230381e-05 -0.001082445 -0.001037483
-0.0064641 2.8284048e-05 0.0123604145 0.0037256742 0.0073391125 3.946842e-05 -0.000114159186 -0.0014425686
0.00048014396 0.007443943 0.0069408077 1.30799535e-05 -0.0035067757 -0.00036163154 0.0001305306 -0.00036369407
00000000: 781a 40b9 7994 f8b8 17bf 02b7 5820 0db8
00000010: 9f69 b4b9 88e1 503a 1e90 83b6 a2bb ef36
00000020: c02d 4abb 7f5b d13b 7d60 10bc 1997 05b9
00000030: 3ce9 9ebb 1aa9 82b8 d4e0 8dba 27fc 87ba
00000040: cdd0 d3bb 8843 ed37 5683 4a3c 712a 743b
00000050: f07c f03b e58a 2538 bf68 efb8 9214 bdba
00000060: d5bb fb39 52ec f33b b76f e33b f971 5b37
00000070: efd1 65bb 5d99 bdb9 0bdf 0839 31ae beb9

weight f4 [10, 32]
0.0022249115 0.0036614898 5.9669943e-05 0.0005970178 0.007368544 0.002097663 -0.00016188521 -0.00021501283
0.005836116 -0.13283399 0.016055802 0.00025843977 0.020804357 -4.4017448e-05 0.012748022 0.0012244806
0.01338964 -0.0008501955 -0.2402138 -0.08259304 -0.15089522 -0.0001909487 0.0021084796 -0.00047138004
-0.009278476 -0.15276203 -0.14351398 -0.00025340667 0.0105307195 0.00084450055 0.0005647094 0.0056304126
-0.0005544223 -8.131967e-05 3.218244e-05 0.00014791597 -0.0015220497 -0.00027517698 8.515562e-06 -4.122662e-06
-0.0029063358 -0.00013230713 -0.0014697916 -7.633579e-05 0.0033916482 -0.0001208096 -0.000610512 0.0005598136
-0.001674145 -2.29053e-05 0.0005048514 -0.0002203116 2.9040422e-05 -6.5730084e-05 -0.0008193773 -6.4263068e-06
-0.0002579807 4.3790827e-05 -1.3510391e-05 -9.1133006e-05 -0.00090912165 0.0022263613 -7.703097e-05 -4.2615582e-05
0.00011639482 -0.00023022348 -0.00046890532 0.00048463335 0.0005789497 0.0012712004 2.878302e-05 -0.00016201257
0.0013580341 0.0011241294 0.0147824325 -9.713803e-06 -0.004841998 -9.241966e-06 -0.0031525684 -0.0018501087
0.008036519 -0.00046318467 0.00067092944 0.00095557375 0.0011504199 -0.00070561084 0.0005972029 -0.0002203559
0.000706377 0.0011515926 0.0011534014 -4.645532e-05 0.0055616195 -0.0016862374 -0.00056500436 4.6394583e-05
0.0004677555 0.00019352284 3.604143e-05 -0.00035462392 -0.00014367228 0.0004976988 1.4394261e-05 1.9387783e-06
0.0007477324 0.0006767202 -0.0006594243 0.0003869087 -0.0020639093 9.811048e-05 0.0006040374 -0.00010164373
-0.00041534528 0.0001575805 0.0016854326 0.0003462703 0.00087614026 -0.00015432929 5.1667317e-05 0.00053125614
-0.0008386725 0.00088781427 0.00080640387 8.052505e-05 0.00024185808 0.0017421565 -0.0003167238 0.000585458
-0.0006688151 -4.1652234e-05 -3.6124509e-06 0.00026480027 -0.0011469565 -0.00030933492 3.3555448e-06 2.6067723e-06
-0.0027041242 -0.00013934598 -0.0010380773 -0.00018836927 0.002302941 -0.00013538208 -0.00059239694 0.0005210926
-0.0014791137 -2.0291951e-05 0.0005462955 -0.0002040316 1.8961482e-05 -3.3924072e-05 -0.0005770473 -0.000104202714
-0.00068400044 -3.2264856e-05 -4.027124e-05 -0.0001372565 -0.0011374146 0.0009576163 -7.934378e-05 -0.00012957829
0.0012459471 0.0005849506 9.103584e-05 0.0004543643 0.00026641187 0.0006801809 1.7065471e-05 4.685231e-05
0.0019437264 0.0015443357 -0.0025155644 0.00063060375 -0.015041422 0.00020287035 0.0033965486 -0.0003395167
-0.0017448039 0.0006251233 0.0012132345 0.0016203907 0.0018568045 2.2384203e-05 0.00054061634 0.00090492395
0.0010119596 0.0018290203 0.0019028747 0.0003005223 0.0009128836 0.00058896485 2.6480067e-05 0.002375673
0.0001236463 7.6134966e-05 -1.2741604e-05 -0.00137208 0.00086552626 1.0668124e-05 -3.7656505e-06 4.733105e-06
0.0027305165 0.00043100698 -0.0012058109 0.00024076483 -0.0009636212 -1.3164631e-05 0.00028511445 1.8834837e-05
-0.0013224982 8.181455e-05 0.00031456555 0.00024890003 0.00047113738 -0.00012618634 0.00062420475 0.00031196818
0.0011651949 0.0004712268 0.00046194467 5.0421033e-05 -0.000466284 0.0021576062 -0.00015536709 0.0001431714
0.00014775454 -4.1662308e-05 -3.7278372e-05 -0.00054537697 0.000774083 -0.00016441298 -7.790367e-06 5.0721737e-06
0.0022553902 0.00011811388 -0.0013641099 0.00012531046 0.000834062 3.147222e-05 -0.00012953968 0.0003858577
-0.0014517687 -1.1125772e-05 -0.00018774302 9.162678e-05 5.9879138e-05 -0.0001028397 0.00056898454 9.803214e-05
0.0021083478 5.8234837e-05 8.625497e-05 9.119388e-06 -0.0012064427 0.0022465845 -8.581957e-05 -4.7088302e-05
00000000: d2cf 113b 9bf5 6f3b 1d46 7a38 3081 1c3a
00000010: d473 f13b f278 093b bbbf 29b9 1175 61b9
00000020: e43c bf3b a205 08be 7587 833c 337f 8739
00000030: e66d aa3c 609f 38b8 14dd 503c c07e a03a
00000040: 3860 5b3c a7df 5eba 9bfa 75be 8a26 a9bd
00000050: 4784 1abe 6739 48b9 6b2e 0a3b 8f23 f7b9
00000060: c004 18bc a66d 1cbe 54f5 12be abdb 84b9
00000070: 0a89 2c3c 7961 5d3a 0209 143a 537f b83b
00000080: a756 11ba 2a8a aab8 a2fb 0638 e419 1b39
00000090: 837f c7ba a145 90b9 0fde 0e37 6655 8ab6
000000a0: 3978 3ebb edbb 0ab9 06a6 c0ba 7716 a0b8
000000b0: 6a46 5e3b 295b fdb8 c40a 20ba 74c0 123a
000000c0: fc6e dbba c224 c0b7 0158 043a 7203 67b9
000000d0: d59b f337 92d8 89b8 7bcb 56ba 8ea1 d7b6
000000e0: 9541 87b9 0bac 3738 b0aa 62b7 a91e bfb8
000000f0: 1f52 6eba 25e8 113b b08b a1b8 22be 32b8
00000100: fe18 f438 2568 71b9 68d7 f5b9 6316 fe39
00000110: a8c4 173a 689e a63a 1173 f137 ebe1 29b9
00000120: 1000 b23a 8657 933a 0432 723c 77f8 22b7
00000130: a0a9 9ebb f10d 1bb7 529b 4ebb 597f f2ba
00000140: 9bab 033c 98d7 f2b9 50e1 2f3a 787f 7a3a
00000150: b0c9 963a bef8 38ba 9c8d 1c3a 560f 67b9
00000160: 282c 393a 09f1 963a bb2d 973a 05d9 42b8
00000170: 3f3e b63b bd04 ddba cd1c 14ba ce97 4238
00000180: 153d f539 64ec 4a39 312b 1738 d1ec b9b9
00000190: bca6 16b9 0078 023a e17e 7137 f51b 0236
000001a0: 7903 443a ed65 313a 37dd 2cba 02da ca39
000001b0: a742 07bb aac0 cd38 4458 1e3a 9029 d5b8
000001c0: b3c2 d9b9 323c 2539 bce9 dc3a 9d8b b539
000001d0: c7ac 653a 74d3 21b9 5cb5 5838 ff43 0b3a
000001e0: 5cda 5bba 35bc 683a d964 533a 8fdf a838
000001f0: 499b 7d39 1259 e43a f30d a6b9 6c79 193a
00000200: 6c53 2fba bfb3 2eb8 6f6d 72b6 e4d4 8a39
00000210: 7955 96ba 3b2e a2b9 d22f 6136 02f0 2e36
00000220: ad37 31bb 671d 12b9 1810 88ba fe84 45b9
00000230: f0ec 163b 5af5 0db9 164b 1bba ef99 083a
00000240: d2de c1ba a238 aab7 4535 0f3a 51f1 55b9
00000250: 790f 9f37 b249 0eb8 fd44 17ba 6887 dab8
00000260: 7e4e 33ba 2054 07b8 eae8 28b8 83ec 0fb9
00000270: 4d15 95ba 8b08 7b3a 5e65 a6b8 68df 07b9
00000280: 0c4f a33a 5f57 193a 7fea be38 be37 ee39
00000290: 32ad 8b39 2b4e 323a d227 8f37 4983 4438
000002a0: a3c4 fe3a 4f6b ca3a 2bdc 24bb 1a4f 253a
000002b0: 4c70 76bc 98b9 5439 a198 5e3b 2901 b2b9
000002c0: e7b1 e4ba 51df 233a 6505 9f3a 4a63 d43a
000002d0: 0560 f33a b6c5 bb37 26b8 0d3a 6b38 6d3a
000002e0: bba3 843a bdbb ef3a e169 f93a 6c8f 9d39
000002f0: 954e 6f3a c364 1a3a 8321 de37 2eb1 1b3b
00000300: 0da7 0139 a6aa 9f38 c6c4 55b7 5dd7 b3ba
00000310: 7ce4 623a 3efb 3237 62b5 7cb6 10d1 9e36
00000320: 77f2 323b c7f8 e139 4d0c 9eba d175 7c39
00000330: 869b 7cba a9dd 5cb7 6a7b 9539 81ff 9d37
00000340: ad57 adba da93 ab38 46ec a439 cc7e 8239
00000350: fd02 f739 e350 04b9 aca1 233a a98f a339
00000360: 74b9 983a fe0e f739 2a31 f239 2c7b 5338
00000370: 9477 f4b9 a066 0d3b 09ea 22b9 4820 1639
00000380: 8fee 1a39 90be 2eb8 595b 1cb8 a1f7 0eba
00000390: d5eb 4a3a 4666 2cb9 5fb3 02b7 a431 aa36
000003a0: 2bcf 133b e8b3 f738 efcb b2ba c565 0339
000003b0: f4a4 5a3a 0a01 0438 0bd5 07b9 f24c ca39
000003c0: 4649 beba d4a8 3ab7 e2dc 44b9 c127 c038
000003d0: bc26 7b38 a5ab d7b8 e827 153a 9b96 cd38
000003e0: 352c 0a3b 2e41 7438 c9e3 b438 79ff 1837
000003f0: 8021 9eba 6f3b 133b 08fa b3b8 ae80 45b8

bias f4 [10]
-0.5513921 -0.0006488432 0.009634395 0.0025412627 -0.0009605683 0.0031468968 0.00086701487 -0.00036684365
0.003697966 -0.0012107146
00000000: 0828 0dbf 2117 2aba 95d9 1d3c 508b 263b
00000010: a6ce 7bba 2b3c 4e3b 6248 633a ec54 c0b9
00000020: 9359 723b d7b0 9eba

bias f4 [64]
-4.99e-43 6.2786705e-07 -4.4886556e-11 2.1840967e-09 -2.383137e-11 -9.7386845e-08 4.7884765e-07 1.8933246e-05
-7.2304556e-07 -4.93e-43 -5.55e-43 -2.349633e-05 -5.68e-43 -3.125925e-10 -1.1353988e-11 3.2962722e-13
-3.0240754e-11 -5.07e-43 1.6462738e-09 -1.8410812e-09 -1.5173082e-10 -5.68e-43 2.5218029e-12 -2.2594831e-14
3.2985517e-06 -6.251013e-14 -2.482367e-05 3.5398791e-06 8.1552376e-11 -5.62e-43 -1.1319539e-11 -6.2e-43
6.1987984e-11 -1.963327e-06 -4.826857e-16 -3.791196e-07 2.2239188e-07 -6.6036523e-07 3.4e-43 2.020046e-06
-3.444829e-13 -6.24e-43 -1.5638484e-09 -4.2667353e-10 -6.1514085e-11 -2.396029e-13 -8.008187e-08 -3.3214391e-09
1.6986464e-11 -1.0466831e-05 -2.8607394e-06 -4.646365e-13 1.2130904e-06 2.096157e-06 -2.731672e-13 -9.047732e-09
-1.7688317e-10 -2.8052571e-12 -8.690603e-06 -5.06e-43 4.1748913e-10 -9.1067676e-10 1.040047e-07 -4.92e-43
00000000: 6401 0080 b28a 2835 c569 45ae 0917 1631
00000010: 799f d1ad fc22 d1b3 298a 0035 d6d2 9e37
00000020: 5017 42b5 6001 0080 8c01 0080 fc19 c5b7
00000030: 9501 0080 7cd9 abaf d1bd 47ad 4a90 b92a
00000040: 1000 05ae 6a01 0080 1c43 e230 4909 fdb0
00000050: 6ed4 26af 9501 0080 c374 312c 2284 cba8
00000060: b05c 5d36 a3c2 8ca9 6d3c d0b7 a98e 6d36
00000070: e855 b32e 9101 0080 ac22 47ad ba01 0080
00000080: 2250 882e b3c1 03b6 eb1f 0ba6 cd89 cbb4
00000090: 9dca 6e34 f443 31b5 f300 0000 2090 0736
000000a0: 38ed c1aa bd01 0080 06ef d6b0 f690 eaaf
000000b0: 5a45 87ae 6be2 86aa 79f9 abb3 603f 64b1
000000c0: 1e6a 952d b29a 2fb7 21fb 3fb6 97c8 02ab
000000d0: 78d1 a235 b4ab 0c36 8bc7 99aa 5970 1bb2
000000e0: 307c 42af 0567 45ac dbcd 11b7 6901 0080
000000f0: 5f84 e52f 2e53 7ab0 3059 df33 5f01 0080

weight f4 [64, 1]
4.93e-43 -2.6322996e-07 3.2996487e-11 -3.0928304e-10 -5.69247e-12 1.2851532e-08 -1.3407324e-06 -1.33728545e-05
4.879169e-07 4.97e-43 -4.95e-43 1.0180797e-06 -5.02e-43 -4.2196868e-10 -5.54878e-12 -1.440313e-13
9.687834e-12 -5.16e-43 -1.0912328e-09 -6.994166e-11 -1.1424323e-10 4.92e-43 -8.3842465e-14 1.1351778e-14
3.6816193e-06 -6.928777e-14 4.834553e-06 1.3947006e-07 1.9712112e-12 -4.96e-43 5.6027842e-11 4.92e-43
6.4028375e-12 1.7862386e-06 2.1043259e-15 -1.0852525e-06 -2.1576848e-07 5.5734596e-08 4.97e-43 -3.4221412e-06
2.2718843e-13 -5e-43 3.0062802e-10 1.5553943e-10 2.5358925e-12 9.048034e-14 1.5793178e-07 7.789667e-09
5.2409305e-10 -1.3374876e-06 3.28023e-07 -4.040479e-13 5.2564236e-08 -8.2455165e-07 -2.4570074e-14 1.8612973e-09
-3.6591587e-11 2.1604466e-13 7.7201645e-07 -4.93e-43 6.805196e-11 1.10457796e-10 -4.915315e-09 4.95e-43
00000000: 6001 0000 0d52 8db4 be1e 112e b807 aaaf
00000010: 3649 c8ac a3c9 5c32 37f3 b3b5 f95b 60b7
00000020: 65f9 0235 6301 0000 6101 0080 f4a4 8835
00000030: 6601 0080 d0fa e7af f83a c3ac 322a 22aa
00000040: 206e 2a2d 7001 0080 57fa 95b0 a7cd 99ae
00000050: 3939 fbae 5f01 0000 e4cb bca9 d67e 4c28
00000060: bd11 7736 ae05 9ca9 7e38 a236 3dc1 1534
00000070: 2fb6 0a2c 6201 0080 be69 762e 5f01 0000
00000080: a247 e12c b1be ef35 f6a1 1727 fea8 91b5
00000090: fdad 67b4 d660 6f33 6301 0000 f0a7 65b6
000000a0: 9bca 7f2a 6501 0080 a245 a52f 7504 2b2f
000000b0: 9472 322c 5dbe cb29 f593 2934 51d3 0532
000000c0: c50f 1030 b983 b3b5 231b b034 7075 e3aa
000000d0: fdc2 6133 c256 5db5 bc4e dda8 94d0 ff30
000000e0: 77ee 20ae a23e 732a 913c 4f35 6001 0080
000000f0: d9a5 952e 36e6 f22e 91e3 a8b1 6101 0000

bias f4 [64]
2.757441e-07 3.407541e-07 -1.1716e-41 -1.8661752e-06 -4.0884982e-13 -4.6905548e-08 -3.4968756e-10 -1.443121e-10
-1.9665335e-11 -8.548541e-12 -5.5162637e-08 -4.304584e-05 -3.6346137e-07 -2.0897676e-12 -9.496357e-07 -6.9635897e-10
-1.494618e-15 -1.0612384e-09 -0.0040147207 -4.5242046e-09 -4.4619253e-07 -3.873022e-07 -2.2786888e-05 -3.772251e-12
-6.3251555e-08 6.745512e-11 1.4548365e-10 -4.7646373e-11 -1.9978719e-09 0.0014607183 5.9174715e-10 -3.0237423e-08
-0.000764827 -4.138077e-08 -2.5838684e-05 -7.8333384e-10 -7.057844e-10 -1.1374844e-05 -4.002368e-08 -1.0711851e-05
-1.6340666e-06 -1.4499048e-10 -3.7157025e-07 -3.3836593e-06 -0.013376051 -4.97e-43 -3.3051582e-11 -0.0025816245
-1.13838005e-05 -4.212831e-12 -2.8804076e-08 2.8349367e-12 -1.2321438e-07 -1.0872974e-11 -9.861244e-08 -1.0335623e-12
0.008285129 3.6757574e-17 -1.9077331e-10 -1.3283797e-08 -1.9377107e-15 -3.8874327e-07 7.265713e-08 -4.302507e-11
00000000: fb09 9434 e3f0 b634 a920 0080 4b79 fab5
00000010: 7829 e6aa 3275 49b3 263e c0af 3fac 1eaf
00000020: 66fa acad 3563 16ad f6eb 6cb3 1e8c 34b8
00000030: c021 c3b4 e80d 13ac 78ea 7eb5 e869 3fb0
00000040: ac65 d7a6 02db 91b0 eb8d 83bb 5373 9bb1
00000050: 3c8c efb4 69ee cfb4 7826 bfb7 6bb9 84ac
00000060: e9d4 87b3 db55 942e 02f6 1f2f 0c8d 51ae
00000070: ef4a 09b1 9375 bf3a 81a8 2230 66de 01b3
00000080: ac7e 48ba a3ba 31b3 27c0 d8b7 3852 57b0
00000090: 2901 42b0 95d6 3eb7 80e6 2bb3 0db7 33b7
000000a0: 1a52 dbb5 316b 1faf 3a7c c7b4 d312 63b6
000000b0: 3927 5bbc 6301 0080 c65c 11ae 7930 29bb
000000c0: 0dfd 3eb7 cf39 94ac d56c f7b2 ae7d 472c
000000d0: e94c 04b4 8647 3fad c3c4 d3b3 0276 91ab
000000e0: 5abe 073c af83 2924 eac1 51af c236 64b2
000000f0: 74a0 0ba7 78b4 d0b4 ae07 9c33 ec39 3dae

weight f4 [64, 64]
-4.92e-43 1.362695e-11 -4.1753354e-17 -2.1957618e-11 -2.253957e-17 -1.0440542e-13 -9.689685e-10 1.1466664e-06
-4.6740313e-11 4.96e-43 -5.87e-43 -1.11574305e-10 5.11e-43 -4.4915005e-09 -1.1778892e-09 -1.5703159e-17
-3.7273725e-16 5.02e-43 -5.270262e-16 1.0137738e-12 -4.6030494e-15 4.92e-43 -4.119543e-16 -4.2626287e-16
4.1714904e-10 3.6015024e-17 8.3672624e-11 -1.8413586e-10 5.3812823e-14 -5.55e-43 5.565636e-17 -4.92e-43
1.0184272e-15 -5.9638197e-12 1.8528316e-18 -1.9425865e-10 2.675729e-10 -1.5838267e-10 5.8e-43 -7.2747516e-11
6.020141e-17 -4.93e-43 1.322401e-14 1.266317e-15 8.3075716e-16 -5.4813535e-16 -3.5608838e-10 -2.1438196e-14
-9.860683e-16 8.8298015e-11 2.151707e-09 -4.4218402e-17 -1.3010416e-11 -8.267383e-10 1.2654751e-15 1.6446444e-13
5.2458686e-17 1.6675068e-17 1.3937046e-11 -5.04e-43 -9.519973e-15 -5.372106e-16 -6.0577536e-13 5.66e-43
-5.75e-43 -5.664687e-13 -9.016948e-18 1.0136745e-12 -3.5884544e-17 2.719337e-14 -2.4895112e-11 7.29016e-10
2.8666328e-10 4.95e-43 -4.99e-43 1.2752784e-06 -4.96e-43 -1.7330112e-13 -1.6949956e-15 1.3227527e-18
-2.2454413e-17 -5.02e-43 3.8463324e-16 5.7064786e-14 -8.888376e-15 -4.97e-43 -5.2265395e-16 -1.1638908e-16
-1.00599855e-10 -6.2950714e-17 7.4722445e-10 8.367607e-11 -1.350535e-14 -5.07e-43 4.235909e-18 -4.96e-43
8.388802e-17 7.4030635e-07 -2.488443e-18 -1.3132212e-10 -2.3433524e-11 -7.8554204e-13 -5.04e-43 -1.06440716e-11
2.6108695e-17 4.92e-43 1.1507007e-15 -1.424669e-16 -4.8327216e-16 1.061554e-18 -6.002759e-11 1.3681473e-14
3.069491e-16 2.8710083e-11 8.540516e-11 9.75403e-19 -6.853152e-13 8.354599e-11 1.5890428e-16 -4.7362982e-14
1.7094718e-16 -1.3009698e-18 -2.1383256e-10 4.96e-43 -2.212889e-15 -1.1556343e-15 4.5163312e-14 4.93e-43
4.97e-43 4.92e-43 -5.54e-43 -5.368e-42 4.92e-43 6.26e-43 -4.92e-43 5.91e-43
6.21e-43 -4.97e-43 -4.92e-43 -1.796e-42 -4.95e-43 5.45e-43 5.14e-43 6.14e-43
5.7e-43 -4.97e-43 -5.91e-43 -5.04e-43 5.52e-43 -4.96e-43 4.93e-43 -4.92e-43
5.72e-43 5.06e-43 -2.768e-42 -5.59e-43 4.93e-43 -5.56e-43 -5.59e-43 -4.95e-43
-6.3e-43 5.25e-43 -5.42e-43 -6.29e-43 4.96e-43 4.92e-43 5.66e-43 5.68e-43
5.5e-43 -5.14e-43 1.839e-42 -4.95e-43 -5.7e-43 -5.44e-43 -5.42e-43 4.61e-43
5.48e-43 -4.92e-43 5.4e-43 -5.52e-43 -6.03e-43 2.97e-43 5.37e-43 5.82e-43
5.37e-43 -5.62e-43 -5.31e-43 -4.92e-43 1.16e-43 -4.93e-43 -5.11e-43 4.97e-43
4.97e-43 -6.889607e-12 -5.534564e-16 6.527691e-14 -3.9819813e-08 -4.5593872e-08 1.3100341e-06 -1.3059501e-10
1.9897051e-11 4.99e-43 -5.02e-43 -8.8969193e-07 -5.09e-43 3.9337945e-14 1.2068671e-16 -1.481193e-17
6.0707176e-17 4.97e-43 -2.922143e-11 3.001445e-06 -2.3379958e-15 -4.99e-43 3.1370798e-18 -3.0475797e-18
-2.8927409e-11 1.085266e-17 8.911125e-11 -4.049216e-11 -1.8619874e-15 5.91e-43 9.090418e-05 -4.97e-43
-5.2883154e-18 -3.5652396e-05 -5.036217e-20 -2.2350035e-11 1.5274297e-11 -2.2992661e-07 4.93e-43 -3.3832333e-11
1.9818057e-19 5.32e-43 1.621138e-14 -5.6429716e-15 1.2039537e-14 -1.2762411e-18 1.0916896e-11 -2.294026e-13
1.1273881e-14 3.70456e-11 2.4405979e-11 1.1350717e-18 -2.9688765e-09 -5.779506e-11 7.704194e-17 2.1665358e-14
-2.6825831e-17 -9.1168505e-18 -2.5552636e-11 5.62e-43 -5.2962687e-15 -1.3511069e-14 1.2513878e-13 5e-43
00000000: 5f01 0080 54ba 6f2d a98d 40a4 2924 c1ad
00000010: 0ee4 cfa3 a119 eba9 8c2c 85b0 28e7 9935
00000020: ea90 4dae 6201 0000 a301 0080 c05a f5ae
00000030: 6d01 0000 a853 9ab1 4be3 a1b0 09d6 90a3
00000040: 4fde d6a5 6601 0000 abe7 17a6 0dad 8e2b
00000050: a3d7 a5a7 5f01 0000 b979 eda5 4cb9 f5a5
00000060: 8254 e52f 0917 2624 80ff b72e a375 4aaf
00000070: f659 7229 8c01 0080 b755 8024 5f01 0080
00000080: 55c5 9226 50d5 d1ac 00b7 0822 f396 55af
00000090: 8a19 932f c224 2eaf 9e01 0000 36f9 9fae
000000a0: a4d0 8a24 6001 0080 fb38 6e28 da7e b626
000000b0: 0f73 6f26 40fd 1da6 fcc2 c3af 1d19 c1a8
000000c0: 801b 8ea6 5d2b c22e 3bdd 1331 e0eb 4ba4
000000d0: b4e1 64ad 8940 63b0 ca5f b626 a62b 392a
000000e0: 49ec 7124 e4cc 9923 e02e 752d 6801 0080
000000f0: 207f 2ba8 25d7 1aa6 b782 2aab 9401 0000
00000100: 9a01 0080 5f72 1fab 5555 26a3 79a9 8e2b
00000110: fe7c 25a4 a4ef f428 cffa daad f163 4830
00000120: 4598 9d2f 6101 0000 6401 0080 3b2a ab35
00000130: 6201 0080 a61e 43aa 4d46 f4a6 2f34 c321
00000140: fc1a cfa3 6601 0080 d9b9 dd25 9c7f 8029
00000150: 661e 20a8 6301 0080 0ea5 16a6 fe2f 06a5
00000160: af38 ddae 8b27 91a4 3f65 4d30 7101 b82e
00000170: 6f4a 73a8 6a01 0080 0847 9c22 6201 0080
00000180: bf6e c124 77b9 4635 5c9d 37a2 e463 10af
00000190: 9b1f cead 451c 5dab 6801 0080 a340 3bad
000001a0: 6acf f023 5f01 0000 5dd5 a526 cf40 24a5
000001b0: 314b 0ba6 60a8 9c21 8700 84ae a876 7628
000001c0: b1f1 b025 5c89 fc2d d5ce bb2e aff1 8f21
000001d0: 2ae6 40ab 36b8 b72e 4434 3725 cd4d 55a9
000001e0: b416 4525 40fd bfa1 841c 6baf 6201 0000
000001f0: 9974 1fa7 618b a6a6 c165 4b29 6001 0000
00000200: 6301 0000 5f01 0000 8b01 0080 f70e 0080
00000210: 5f01 0000 bf01 0000 5f01 0080 a601 0000
00000220: bb01 0000 6301 0080 5f01 0080 0205 0080
00000230: 6101 0080 8501 0000 6f01 0000 b601 0000
00000240: 9701 0000 6301 0080 a601 0080 6801 0080
00000250: 8a01 0000 6201 0080 6001 0000 5f01 0080
00000260: 9801 0000 6901 0000 b707 0080 8f01 0080
00000270: 6001 0000 8d01 0080 8f01 0080 6101 0080
00000280: c201 0080 7701 0000 8301 0080 c101 0080
00000290: 6201 0000 5f01 0000 9401 0000 9501 0000
000002a0: 8801 0000 6f01 0080 2005 0000 6101 0080
000002b0: 9701 0080 8401 0080 8301 0080 4901 0000
000002c0: 8701 0000 5f01 0080 8101 0000 8a01 0080
000002d0: ae01 0080 d400 0000 7f01 0000 9f01 0000
000002e0: 7f01 0000 9101 0080 7b01 0080 5f01 0080
000002f0: 5300 0000 6001 0080 6d01 0080 6301 0000
00000300: 6301 0000 1068 f2ac e085 1fa6 94fd 9229
00000310: 5906 2bb3 fed2 43b3 6ed4 af35 3a97 0faf
00000320: 2d04 af2d 6401 0000 6601 0080 2ad3 6eb5
00000330: 6b01 0080 9029 3129 6e24 0b25 ae9d 88a3
00000340: 31fb 8b24 6301 0000 6884 00ae 6f6c 4936
00000350: 6978 28a7 6401 0080 c379 6722 27df 60a2
00000360: bc72 fead 3d32 4823 2df5 c32e 1f16 32ae
00000370: 9b2b 06a7 a601 0000 cfa3 be38 6301 0080
00000380: ba1a c3a2 7889 15b8 21d4 6d9f ce97 c4ad
00000390: a95a 862d bfe1 76b4 6001 0000 d2cb 14ae
000003a0: 67f8 6920 7c01 0000 e604 9228 3a4f cba7
000003b0: 90e2 5828 0757 bca1 540d 402d 6624 81aa
000003c0: 9917 4b28 a3ed 222e 61ad d62d cc81 a721
000003d0: 0705 4cb1 742f 7eae 89a5 b124 ea24 c328
000003e0: b46c f7a3 1c2d 28a3 6cc3 e0ad 9101 0000
000003f0: 75d1 bea7 cf64 73a8 cce4 0c2a 6501 0000

bias f4 [10]
-0.117644146 -0.27460757 -0.24016307 0.10047489 -2.0765518e-07 -0.15173948 3.1399452e-06 -9.7929056e-05
-0.18207832 -0.11845241
00000000: 6aef f0bd 5d99 8cbe 4fed 75be c7c5 cd3d
00000010: d2f7 5eb4 9861 1bbe d9b7 5236 435f cdb8
00000020: bd72 3abe 2d97 f2bd

weight f4 [10, 64]
-3.371103e-07 -1.398434e-07 -1.14e-42 -1.025097e-07 2.2160161e-13 -5.3263727e-09 2.7955085e-10 5.3631183e-10
-6.2533585e-12 6.1393886e-13 2.0082624e-08 -1.2196033e-05 -7.066826e-08 6.725121e-13 -1.3594945e-07 1.7305693e-11
1.7685733e-16 -6.4732504e-11 0.00031766755 -2.8555192e-10 -1.231717e-07 -5.537513e-08 4.8910755e-07 1.900803e-10
5.936577e-07 6.314028e-11 -6.410634e-11 3.244316e-12 -1.1867357e-10 0.0005617966 -7.996929e-11 3.5454533e-09
-0.00014645745 6.3786015e-10 -6.4065557e-06 1.1814697e-07 8.350267e-11 -2.7841422e-06 -5.331659e-09 -5.1584215e-07
-3.0872292e-07 -1.0817317e-09 -4.881234e-08 -4.441283e-07 -9.8576114e-05 5.32e-43 6.8324415e-13 -0.00038825
-1.3564053e-06 2.0152365e-13 2.5858355e-09 -5.863051e-13 -7.77136e-10 -3.9352918e-12 2.067937e-09 -6.051077e-14
-0.0026162693 -1.5253557e-18 -3.9036573e-11 -1.2547574e-09 4.3371647e-17 1.8479232e-08 4.827429e-09 -3.1332463e-12
-7.16865e-07 1.1643441e-07 3.636e-42 2.4422604e-07 2.7236619e-14 -3.3755563e-09 5.7050126e-10 9.990794e-10
1.9986023e-11 2.149683e-12 1.01100056e-07 -1.32002315e-05 -2.5257423e-08 6.545907e-13 3.312098e-08 2.4115876e-11
-2.2355209e-16 2.1739172e-10 -1.0636093e-05 1.0008293e-09 -1.7941564e-07 9.206726e-08 4.990092e-07 2.6601035e-10
5.5689617e-07 3.285121e-10 1.7892532e-10 4.7154686e-11 5.359975e-10 0.0031303812 2.671021e-10 6.618285e-10
-7.6423574e-05 5.365916e-08 -1.2046836e-05 -3.4944958e-07 -1.4788794e-10 -4.5728852e-06 -7.0285022e-09 2.9957573e-06
1.0266354e-07 8.421071e-09 -3.407867e-08 -2.5062187e-07 0.0039179954 -5.18e-43 1.342967e-11 -0.0002918865
7.9277436e-07 3.887707e-12 4.100387e-08 7.730331e-13 1.136309e-07 -5.2794817e-12 2.203149e-09 9.534499e-14
0.00012777594 -3.6782542e-18 7.106113e-11 -8.0824447e-10 4.545095e-17 9.204343e-09 2.4727743e-08 1.25910974e-11
-3.041387e-07 9.342344e-08 2.726e-42 1.5728634e-07 5.938061e-14 -4.7915254e-09 5.240098e-10 9.221892e-10
1.5821839e-11 1.8592964e-12 9.056203e-08 -1.4423645e-05 -4.3362895e-08 8.922546e-13 -6.332543e-08 6.5945464e-11
-1.121875e-16 5.934989e-11 -0.0002096456 1.4485209e-09 -1.7278902e-07 6.4721846e-08 4.4614282e-07 2.556657e-10
7.179783e-07 2.260067e-10 1.3149484e-10 3.7950226e-11 3.8802214e-10 0.0038122197 2.2587564e-10 5.8272825e-10
-4.2960717e-05 4.4347182e-08 -1.1497793e-05 1.4670654e-07 -1.01465565e-10 -5.5327487e-06 -7.865627e-09 2.2227173e-06
-2.2770719e-08 7.0689157e-09 -3.575536e-08 -4.3557452e-07 0.003372446 5e-43 1.8000683e-11 -0.00040334032
1.342897e-08 3.3649255e-12 3.5314443e-08 1.6137697e-13 8.905426e-08 -3.708502e-12 1.933312e-09 4.659253e-14
0.0014719348 6.3567697e-18 5.2202038e-11 -1.1946556e-09 4.2604007e-17 8.901538e-09 1.9642776e-08 4.6321605e-12
1.4930981e-07 1.5308898e-07 1.843e-42 8.078039e-08 -2.0639889e-13 4.7057336e-09 -2.3558747e-10 -4.6983983e-10
7.808698e-12 -5.1518127e-13 -1.4137304e-08 1.0687962e-05 4.9579402e-08 -4.870307e-13 1.9124667e-07 8.753806e-12
-1.7185249e-16 4.7405854e-11 -0.0002677547 3.3106518e-10 1.0630931e-07 6.224872e-08 -5.430409e-07 -1.732549e-10
-3.9719544e-07 -1.5614393e-11 6.4716905e-11 1.8745093e-13 1.4309912e-10 0.00022720486 4.8000975e-11 -4.49223e-09
0.00015403377 3.196369e-09 5.32462e-06 1.9836887e-07 -9.418542e-11 3.703935e-06 6.611596e-09 4.286547e-07
3.2559325e-07 1.5915222e-09 4.2562228e-08 3.5335492e-07 0.00068110815 -5.42e-43 -1.3344661e-13 0.000524942
1.4176059e-06 3.7113074e-14 8.7726204e-10 9.619972e-13 8.2146245e-09 3.5841436e-12 -2.3290392e-09 6.749109e-14
0.0043788315 -9.586144e-19 4.1425717e-11 1.2475324e-09 -4.7256332e-17 -2.3990111e-08 7.1364146e-09 8.23542e-13
00000000: 16fc b4b4 dc27 16b4 2e03 0080 4e23 dcb3
00000010: 5180 792a 4503 b7b1 49af 992f 976b 1330
00000020: 3f05 dcac f5ce 2c2b 2882 ac32 909d 4cb7
00000030: 49c2 97b3 9b4b 3d2b 80f9 11b4 f538 982d
00000040: 12e7 4b25 2959 8eae 9e8c a639 dcfb 9caf
00000050: 2e41 04b4 99d5 6db3 374b 0335 d9fe 502f
00000060: d95b 1f35 d1d8 8a2e a9f8 8cae 674c 642c
00000070: a47b 02af 8845 133a b5da afae 46a4 7331
00000080: 5f92 19b9 6b55 2f30 e5f7 d6b6 fcb7 fd33
00000090: d39f b72e 33d7 3ab6 c531 b7b1 6778 0ab5
000000a0: 8ebe a5b4 0dac 94b0 bca5 51b3 8770 eeb4
000000b0: a6ba ceb8 7c01 0000 ee50 402b 088e cbb9
000000c0: bb0d b6b5 3de5 622a 80b2 3131 bc07 25ab
000000d0: 169e 55b0 f575 8aac 881b 0e31 1642 88a9
000000e0: b775 2bbb 4f1a e1a1 46af 2bae da73 acb0
000000f0: 3404 4824 43bc 9e32 84de a531 8c7b 5cac
00000100: 966e 40b5 7e0a fa33 230a 0000 2c1e 8334
00000110: 5e53 f528 6af7 67b1 75d1 1c30 fb4f 8930
00000120: 86cc af2d 3f45 172c 581c d933 9076 5db7
00000130: a9f5 d8b2 3b40 382b e740 0e33 2020 d42d
00000140: 77de 80a5 5406 6f2f ac71 32b7 8d8d 8930
00000150: 65a5 40b4 83b6 c533 a7f3 0535 a13d 922f
00000160: 9d7d 1535 f899 b42f 00bb 442f 7563 4f2e
00000170: 7955 1330 1527 4d3b 47d7 922f 0aec 3530
00000180: 9845 a0b8 df76 6633 c41c 4ab7 fc9b bbb4
00000190: c19a 22af c970 99b6 5c7f f1b1 b80a 4936
000001a0: e177 dc33 43ac 1032 e55d 12b3 358d 86b4
000001b0: 8762 803b 7201 0080 db41 6c2d 5808 99b9
000001c0: 0acf 5435 5ac9 882c 3b1c 3033 e896 592b
000001d0: 3f05 f433 58c1 b9ac 3566 1731 a5b2 d629
000001e0: 98fb 0539 21b4 87a2 dc43 9c2e 262b 5eb0
000001f0: 039b 5124 2121 1e32 e268 d432 4381 5d2d
00000200: 8148 a3b4 14a0 c833 9907 0000 8ae2 2834
00000210: 97b6 8529 b4a2 a4b1 e909 1030 4c7d 7d30
00000220: 9d2b 8b2d 1bd6 022c 017b c233 15fd 71b7
00000230: 023e 3ab3 b825 7b2b 86fd 87b3 ff03 912e
00000240: e857 01a5 0583 822e 50d4 5bb9 4c15 c730
00000250: e287 39b4 36fd 8a33 6785 ef34 c08d 8c2f
00000260: 18bb 4035 3b7f 782f 8294 102f 28e8 262e
00000270: 4351 d52f 6fd6 793b 575a 782f db2d 2030
00000280: b830 34b8 3e78 3e33 a5e6 40b7 6386 1d34
00000290: 0920 dfae f3a5 b9b6 6521 07b2 fe29 1536
000002a0: 5799 c3b2 d7e2 f231 6f91 19b3 e8d8 e9b4
000002b0: 4104 5d3b 6501 0000 ef55 9e2d 6c77 d3b9
000002c0: 3cb5 6632 1cc9 6c2c a4ac 1733 bfb1 352a
000002d0: 193e bf33 377b 82ac 2fdb 0431 88d5 5129
000002e0: f0ed c03a fe85 ea22 4596 652e 3531 a4b0
000002f0: ef79 4424 61ed 1832 ecba a832 cbfa a22c
00000300: f851 2034 c760 2434 2305 0000 7d79 ad33
00000310: 6e62 68aa 12b0 a131 fd83 81af 0a26 01b0
00000320: 405f 092d b902 11ab 85e0 72b2 7250 3337
00000330: 21f1 5433 4316 09ab 7c59 4d34 a3ff 192d
00000340: e721 46a5 3f7e 502e 6d61 8cb9 4801 b62f
00000350: 294c e433 99ad 8533 7dc5 11b5 eb7e 3eaf
00000360: 203e d5b4 7d58 89ad 6150 8e2e 0d0d 532a
00000370: d256 1d2f d73d 6e39 4b1c 532e 135a 9ab1
00000380: 2084 2139 1ea7 5b31 23aa b236 38ff 5434
00000390: ae1d cfae 1e91 7836 372c e331 da21 e634
000003a0: 32cd ae34 b6bc da30 aacd 3633 bbb4 bd34
000003b0: 658c 323a 8301 0080 5e3f 16aa 439c 093a
000003c0: 9144 be35 7624 2729 d423 7130 9a63 872b
000003d0: 4d20 0d32 3136 7c2c e40c 20b1 f7f9 9729
000003e0: 4d7c 8f3b 6e77 8da1 3631 362e a575 ab30
000003f0: 6eee 59a4 d012 ceb2 9134 f531 75ce 672b
