ckpt/real_only_GCN-last.pt (torch, 96866 bytes, 11 tensors)

bias f4 [64]
000000 0e 01 00 80 9c f6 2d ae b4 e8 02 28 60 01 00 80
       -3.78e-43 -3.955468e-11 7.266909e-15 -4.93e-43
000010 5f 01 00 80 30 50 ea 1e e8 ca 6a 2a 32 84 14 b4
       -4.92e-43 2.4808878e-20 2.0853772e-13 -1.3831666e-07
000020 e9 51 ab ab 72 30 89 13 76 24 bf 1a 1a 18 a9 1f
       -1.2173015e-12 3.4631433e-27 7.9054654e-23 7.1614157e-20
000030 62 01 00 80 66 c6 8f ac 24 29 03 ad ea aa 01 aa
       -4.96e-43 -4.086331e-12 -7.455623e-12 -1.15168e-13
000040 67 01 00 80 7e 02 01 0d 62 01 00 80 67 01 00 80
       -5.03e-43 3.9754194e-31 -4.96e-43 -5.03e-43
000050 60 01 00 80 05 b0 92 a8 68 01 00 80 d1 e3 3d a9
       -4.93e-43 -1.6285592e-14 -5.04e-43 -4.216403e-14
000060 61 01 00 80 a0 87 d9 2b ca 61 ac 02 65 01 00 80
       -4.95e-43 1.5456421e-12 2.5329257e-37 -5e-43
000070 f0 00 00 80 62 01 00 80 b9 01 00 80 b2 a0 dc ac
       -3.36e-43 -4.96e-43 -6.18e-43 -6.270617e-12
000080 94 23 aa af 61 01 00 80 7f 01 00 80 68 fc 5f 27
       -3.09481e-10 -4.95e-43 -5.37e-43 3.1084297e-15
000090 cf 00 00 80 e4 db b1 08 25 2c 96 2d 83 97 4d 2d
       -2.9e-43 1.0704496e-33 1.707263e-11 1.1686543e-11
0000a0 6c 01 00 80 1d b2 22 ac cc 27 af 2e 49 44 de 2c
       -5.1e-43 -2.3120457e-12 7.965148e-11 6.3172007e-12
0000b0 94 1d 29 ac 0d 8e 31 ac 61 01 00 80 62 01 00 80
       -2.4032764e-12 -2.5232067e-12 -4.95e-43 -4.96e-43
0000c0 9f bb 0d 2d 7c 5a a2 1b 5f 01 00 80 f2 df d7 2a
       8.056582e-12 2.6859126e-22 -4.92e-43 3.8347065e-13
0000d0 e8 91 35 30 60 01 00 80 24 00 00 00 57 c9 89 ac
       6.605476e-10 -4.93e-43 5e-44 -3.9161274e-12
0000e0 57 01 00 80 93 65 9e 2b 81 3d bf 29 d0 00 00 80
       -4.8e-43 1.1254768e-12 8.492773e-14 -2.91e-43
0000f0 60 01 00 80 bb 5e 35 2c 1f dc 64 b0 12 94 85 af
       -4.93e-43 2.5774233e-12 -8.325873e-10 -2.429777e-10

weight f4 [64, 1]
000000 60 01 00 00 51 25 32 ae 5d 65 4a 28 60 01 00 80
       4.93e-43 -4.0505658e-11 1.1235232e-14 -4.93e-43
000010 5f 01 00 80 e0 75 07 20 0e a9 ae a9 cd 4e 15 b4
       -4.92e-43 1.1473946e-19 -7.7564786e-14 -1.3905374e-07
000020 86 6d aa ab 23 7a ca 13 00 70 76 1b a8 6d 7a 20
       -1.2109625e-12 5.1112405e-27 2.0384832e-22 2.1212106e-19
000030 60 01 00 80 47 09 fa ab f5 74 0d ad 2f 34 05 aa
       -4.93e-43 -1.7766143e-12 -8.040892e-12 -1.1830878e-13
000040 60 01 00 00 e1 1e 1e 0d 61 01 00 00 5f 01 00 00
       4.93e-43 4.872468e-31 4.95e-43 4.92e-43
000050 60 01 00 80 ce c5 94 a8 a3 01 00 80 35 0e 62 a9
       -4.93e-43 -1.6517085e-14 -5.87e-43 -5.0194403e-14
000060 61 01 00 80 8b f8 d7 2b a1 f6 c2 02 63 01 00 00
       -4.95e-43 1.5345653e-12 2.8647296e-37 4.97e-43
000070 5f 01 00 80 61 01 00 80 61 01 00 00 46 52 df ac
       -4.92e-43 -4.95e-43 4.95e-43 -6.3471754e-12
000080 a8 33 a6 af 60 01 00 00 5f 01 00 80 47 d2 84 27
       -3.0231928e-10 4.93e-43 -4.92e-43 3.6865343e-15
000090 61 01 00 80 20 ae 0a 08 2e d1 a6 2d b3 a2 4c 2d
       -4.95e-43 4.1732547e-34 1.896491e-11 1.1632184e-11
0000a0 5f 01 00 80 b0 66 f5 ab ad c6 ac 2e bc a2 f0 ac
       -4.92e-43 -1.7436799e-12 7.856946e-11 -6.8392774e-12
0000b0 bb 35 26 ac 6e cb 3e ac 61 01 00 00 62 01 00 00
       -2.3619845e-12 -2.711355e-12 4.95e-43 4.96e-43
0000c0 d5 a1 17 2d 42 03 81 1c 60 01 00 80 5e 62 a9 2a
       8.61929e-12 8.537346e-22 -4.93e-43 3.0088687e-13
0000d0 97 7c 33 30 60 01 00 00 5f 01 00 00 25 de 84 ac
       6.5296873e-10 4.93e-43 4.92e-43 -3.7763286e-12
0000e0 61 01 00 00 ea 32 1a 2b 20 af b2 29 73 01 00 00
       4.95e-43 5.478245e-13 7.935167e-14 5.2e-43
0000f0 b3 01 00 00 66 c2 8f ab 84 3e 62 b0 78 3a 88 af
       6.1e-43 -1.0214718e-12 -8.230716e-10 -2.47798e-10

bias f4 [64]
000000 65 d4 c5 b1 3d 7d 99 9c f0 bb 95 b6 4f 2c 3f a6
       -5.757601e-09 -1.0157064e-21 -4.462425e-06 -6.6326486e-16
000010 85 c7 1d 36 81 06 54 b5 86 83 52 aa 59 af c8 3b
       2.3510959e-06 -7.898562e-07 -1.8697378e-13 0.0061244187
000020 61 04 21 aa cf 94 95 ba b9 43 99 2d 49 05 53 b7
       -1.4301192e-13 -0.0011412146 1.7424161e-11 -1.2577811e-05
000030 83 f3 58 b3 10 11 2c 2f 28 9b 09 34 c6 22 97 20
       -5.051289e-08 1.564937e-10 1.2815565e-07 2.5603406e-19
000040 dd 6a 98 36 74 60 b9 2b f0 00 00 80 95 f0 c6 2a
       4.5423935e-06 1.3171812e-12 -3.36e-43 3.5338803e-13
000050 10 4e 2f 32 dd bd 82 a9 ba f2 ee b3 ef 53 8a 37
       1.020409e-08 -5.806096e-14 -1.112689e-07 1.6489967e-05
000060 0e 9a 80 35 34 1d 35 2f b6 26 03 31 d2 b4 d2 99
       9.581579e-07 1.6472229e-10 1.9085014e-09 -2.1786524e-23
000070 20 2c 9d 29 fa 4d 55 b4 0e 12 77 a8 41 b2 10 2f
       6.979855e-14 -1.9865539e-07 -1.3715169e-14 1.3160052e-10
000080 64 68 e6 9f 85 49 be b5 a4 b7 fc 8b 2b 08 a9 b0
       -9.758149e-20 -1.41775e-06 -9.734318e-32 -1.229869e-09
000090 43 bf e2 b3 45 bc c6 b7 e7 f0 13 b2 02 4b 6a 2a
       -1.05587354e-07 -2.369111e-05 -8.611301e-09 2.0809399e-13
0000a0 ac 80 c7 b9 d8 c3 e8 32 4e e7 5f 37 30 53 d8 30
       -0.00038052106 2.7097414e-08 1.3345691e-05 1.5739712e-09
0000b0 f8 a4 ff b3 4d 03 63 2a 20 d2 59 3c cd 57 88 b5
       -1.19043705e-07 2.0162795e-13 0.013294727 -1.0158343e-06
0000c0 a5 f2 3a 80 ea 55 cf 2a 6c 21 00 80 18 b0 99 b5
       -5.413503e-39 3.6830201e-13 -1.199e-41 -1.1450638e-06
0000d0 e5 df b9 9d e4 69 65 b0 55 d5 43 b4 af 24 3f b5
       -4.9200594e-21 -8.3460194e-10 -1.82384e-07 -7.1206426e-07
0000e0 50 86 a1 32 e6 94 b6 95 9a 00 00 00 5f 0d ef b8
       1.8803945e-08 -7.3744135e-26 2.16e-43 -0.00011398899
0000f0 32 67 c7 ad 61 01 00 80 49 4b 39 37 9d 42 42 9e
       -2.2669509e-11 -4.95e-43 1.1044388e-05 -1.028405e-20

weight f4 [64, 64]
000000 83 01 00 80 44 07 52 1f 45 74 bf 9c a4 02 00 00
       -5.42e-43 4.447524e-20 -1.2669375e-21 9.47e-43
000010 62 01 00 00 86 46 46 92 a1 56 ab a0 66 1f 07 ac
       4.96e-43 -6.256471e-28 -2.9025853e-19 -1.9202083e-12
000020 87 b1 1a 9f d0 03 55 08 82 5b 9a 8d 05 e6 18 93
       -3.2757616e-20 6.4101838e-34 -9.5130125e-31 -1.9298506e-27
000030 b2 02 00 80 19 aa c5 9a cd e5 58 b5 fb 01 47 9e
       -9.67e-43 -8.17521e-23 -8.0800675e-07 -1.0535382e-20
000040 89 01 00 80 08 0a 33 03 61 01 00 80 68 01 00 80
       -5.51e-43 5.2614888e-37 -4.95e-43 -5.04e-43
000050 aa 01 00 00 dc 2d 3b 1e 85 01 00 80 57 5e dd ac
       5.97e-43 9.909181e-21 -5.45e-43 -6.2916716e-12
000060 7b 01 00 00 a3 1b 19 9f ad 03 00 00 a1 01 00 00
       5.31e-43 -3.242187e-20 1.319e-42 5.84e-43
000070 62 01 00 00 a1 01 00 80 a9 01 00 80 76 a9 97 af
       4.96e-43 -5.84e-43 -5.96e-43 -2.758715e-10
000080 81 9d 17 23 5f 01 00 00 8c 01 00 80 f1 4e 91 9c
       8.219079e-18 4.92e-43 -5.55e-43 -9.615701e-22
000090 60 01 00 80 df bf 37 81 22 d5 a0 a1 cc 1d 5c 9f
       -4.93e-43 -3.3749452e-38 -1.0898438e-18 -4.661146e-20
0000a0 8c 01 00 00 04 9a aa 33 58 bf c3 9f 4f 79 1a a4
       5.55e-43 7.944257e-08 -8.2902264e-20 -3.349618e-17
0000b0 ac 5a aa 1f b5 8b ae b0 7e 01 00 80 90 01 00 80
       7.2147805e-20 -1.2699873e-09 -5.35e-43 -5.6e-43
0000c0 94 8c 57 1e 18 9f 1f 8f 6b 01 00 80 f2 44 47 1c
       1.1411076e-20 -7.8699456e-30 -5.09e-43 6.5932686e-22
0000d0 27 e3 28 a3 87 01 00 80 61 01 00 00 1c c9 8f 1f
       -9.1554e-18 -5.48e-43 4.95e-43 6.0895563e-20
0000e0 b2 01 00 80 2b e3 28 a4 18 6a a8 9e 82 00 00 80
       -6.08e-43 -3.6621612e-17 -1.7831571e-20 -1.82e-43
0000f0 8e 01 00 80 d8 ac 67 1a 69 ea 6e 20 df 6d af 21
       -5.58e-43 4.7909302e-23 2.0236944e-19 1.1887544e-18
000100 63 01 00 80 dc d2 2a 89 7c e1 bf 87 63 01 00 80
       -4.97e-43 -2.0562151e-33 -2.8871014e-34 -4.97e-43
000110 ac 01 00 80 8b 0c 00 00 da 22 c3 89 f1 ff d5 0d
       -6e-43 4.5e-42 -4.6977317e-33 1.3188754e-30
000120 67 45 c9 08 63 01 00 80 64 01 00 00 c2 1c 00 00
       1.2113564e-33 -4.97e-43 4.99e-43 1.0316e-41
000130 66 01 00 00 e1 38 33 08 a0 44 0a 0c 85 52 30 08
       5.02e-43 5.3932714e-34 1.0651784e-31 5.3060075e-34
000140 63 01 00 80 63 01 00 00 5f 01 00 80 66 01 00 80
       -4.97e-43 4.97e-43 -4.92e-43 -5.02e-43
000150 64 01 00 80 b5 f4 71 05 81 01 00 00 84 e7 1e 0b
       -4.99e-43 1.1376711e-35 5.4e-43 3.0603866e-32
000160 5f 01 00 00 56 7d d0 08 60 01 00 80 61 01 00 00
       4.92e-43 1.2548011e-33 -4.93e-43 4.95e-43
000170 64 01 00 80 64 01 00 00 66 01 00 00 81 a9 dd 87
       -4.99e-43 4.99e-43 5.02e-43 -3.335201e-34
000180 85 33 12 8d 66 01 00 80 76 01 00 00 bd c6 63 06
       -4.505174e-31 -5.02e-43 5.24e-43 4.2839965e-35
000190 60 01 00 00 ff 00 00 80 0a f4 d3 0b db 2d 86 87
       4.93e-43 -3.57e-43 8.164143e-32 -2.018903e-34
0001a0 68 01 00 80 d0 bb 3e 8b 1d 85 7f 0a 0a 04 8f 0c
       -5.04e-43 -3.6733963e-32 1.2302839e-32 2.203507e-31
0001b0 f0 60 32 09 30 dc 52 89 60 01 00 80 63 01 00 80
       2.147155e-33 -2.5381362e-33 -4.93e-43 -4.97e-43
0001c0 b8 7e 11 86 5e 01 00 00 64 01 00 00 3c f0 6e 88
       -2.7364567e-35 4.9e-43 4.99e-43 -7.1902914e-34
0001d0 22 e7 8b 0c 65 01 00 00 62 01 00 00 8d 35 a6 88
       2.155545e-31 5e-43 4.96e-43 -1.0003351e-33
0001e0 63 01 00 80 d2 04 1d 0d 48 c9 75 89 63 01 00 80
       -4.97e-43 4.8385162e-31 -2.9585444e-33 -4.97e-43
0001f0 62 01 00 80 32 37 1b 06 76 11 09 0a f2 e8 0c 0a
       -4.96e-43 2.919281e-35 6.599594e-33 6.784567e-33
000200 93 01 00 00 6e 11 21 b6 dc 7f bf a2 91 01 00 00
       5.65e-43 -2.4001015e-06 -5.190603e-18 5.62e-43
000210 8d 01 00 80 6b 79 32 96 e7 19 90 27 19 7f 12 29
       -5.56e-43 -1.4417038e-25 3.9996112e-15 3.2528752e-14
000220 ea 3c 31 a7 ef e9 30 0d d0 f4 0b 94 2d 6c 8e 97
       -2.4596706e-15 5.4515775e-31 -7.065987e-27 -9.203842e-25
000230 9b 01 00 80 0b d7 12 23 56 45 9c 31 0f 94 2c 24
       -5.76e-43 7.960213e-18 4.54808e-09 3.7421965e-17
000240 7c 01 00 80 9a 47 19 0a bb 01 00 00 60 01 00 80
       -5.32e-43 7.380149e-33 6.21e-43 -4.93e-43
000250 ae 01 00 00 78 99 a3 a5 8a 01 00 80 f0 3b 39 29
       6.03e-43 -2.8379987e-16 -5.52e-43 4.113024e-14
000260 7a 01 00 80 e3 64 ac a2 fe aa 9c 81 90 01 00 80
       -5.3e-43 -4.672751e-18 -5.755071e-38 -5.6e-43
000270 6a 01 00 00 76 01 00 80 6e 01 00 00 50 14 3c 26
       5.07e-43 -5.24e-43 5.13e-43 6.525313e-16
000280 8d 72 69 26 8f 01 00 00 76 01 00 00 74 89 18 a1
       8.099336e-16 5.59e-43 5.24e-43 -5.168152e-19
000290 7b 01 00 00 8d 8f 1c 88 c3 e3 ef 33 6d a8 a7 34
       5.31e-43 -4.7113286e-34 1.11707344e-07 3.122872e-07
0002a0 7e 01 00 00 0d 8a 91 a7 b2 1d 18 a6 53 4b 3c b4
       5.35e-43 -4.039526e-15 -5.277584e-16 -1.7536267e-07
0002b0 21 cd b4 23 de cd 95 26 88 01 00 00 72 01 00 80
       1.9602515e-17 1.0394752e-15 5.5e-43 -5.18e-43
0002c0 8b 35 a3 a2 4b 6f b4 94 95 01 00 80 2f 13 aa a1
       -4.423793e-18 -1.8219253e-26 -5.68e-43 -1.1524726e-18
0002d0 d6 c6 e3 a7 bd 01 00 80 8b 01 00 80 1f f9 8e a4
       -6.3220735e-15 -6.24e-43 -5.54e-43 -6.200471e-17
0002e0 a8 01 00 80 83 4c 30 a9 26 50 bf 24 9d 01 00 80
       -5.94e-43 -3.9146214e-14 8.296882e-17 -5.79e-43
0002f0 6a 01 00 00 37 80 92 21 a6 75 2c a5 95 60 1c 26
       5.07e-43 9.927283e-19 -1.4958483e-16 5.4254266e-16
000300 c0 01 00 00 1e ef 82 1b dd 04 60 16 bf 01 00 80
       6.28e-43 2.1661222e-22 1.809611e-25 -6.26e-43
000310 be 01 00 00 bf bb 0c 89 e0 ef d1 1d f4 2b 2e 98
       6.25e-43 -1.6940165e-33 5.5569864e-21 -2.2511164e-24
000320 2f e1 91 9a 06 f6 63 84 42 a9 3a 07 65 4c a5 8b
       -6.03344e-23 -2.679669e-36 1.4042825e-34 -6.3670634e-32
000330 b8 01 00 00 5f fe 5c 18 c5 e6 0c 1a e6 95 a7 99
       6.17e-43 2.8562758e-24 2.9137736e-23 -1.7327939e-23
000340 6f 01 00 00 10 84 ec 00 9e 01 00 00 65 01 00 80
       5.14e-43 2.1720552e-38 5.8e-43 -5e-43
000350 83 01 00 80 d8 77 18 1c 85 01 00 00 d7 7a 1c 1d
       -5.42e-43 5.0447476e-22 5.45e-43 2.0709935e-21
000360 7f 01 00 00 a4 22 0f 97 37 1a 00 80 bf 01 00 80
       5.37e-43 -4.6249515e-25 -9.404e-42 -6.26e-43
000370 62 01 00 00 8e 01 00 00 79 01 00 00 a6 c9 ee 9a
       4.96e-43 5.58e-43 5.28e-43 -9.8760274e-23
000380 7c 3f 2f 19 a2 01 00 80 7b 01 00 00 79 5c a3 18
       9.0601085e-24 -5.86e-43 5.31e-43 4.2227886e-24
000390 92 01 00 80 44 87 10 00 08 67 39 9a bb c8 76 9c
       -5.63e-43 1.517892e-39 -3.834033e-23 -8.165401e-22
0003a0 bd 01 00 00 45 66 3e 19 a3 71 5d 17 f8 e8 88 9d
       6.24e-43 9.843423e-24 7.155238e-25 -3.6239784e-21
0003b0 f9 64 b7 17 40 13 a1 1b 5f 01 00 80 61 01 00 00
       1.1851587e-24 2.6647656e-22 -4.92e-43 4.95e-43
0003c0 db a1 04 1a c7 a1 81 89 6b 01 00 80 75 5f 4d 98
       2.7427706e-23 -3.1207755e-33 -5.09e-43 -2.6543822e-24
0003d0 15 62 1a 99 76 01 00 80 88 01 00 00 52 bd a1 9a
       -7.981421e-24 -5.24e-43 5.5e-43 -6.68939e-23
0003e0 70 01 00 00 89 3e 83 a0 98 3a 30 9a 8e 01 00 00
       5.16e-43 -2.2233646e-19 -3.644328e-23 5.58e-43
0003f0 7b 01 00 80 f7 fe 34 14 c0 00 48 32 7d 6c 67 1a
       -5.31e-43 9.1379606e-27 1.1641703e-08 4.7857317e-23

bias f4 [20]
000000 c0 a3 63 b2 07 93 22 bc 24 5c 5d 3a 5b 64 ed bb
       -1.32503715e-08 -0.009922749 0.0008444211 -0.0072446293
000010 69 b4 02 bb 90 eb 52 bb 5b 4f 01 3b 88 38 c4 bc
       -0.0019943959 -0.0032183863 0.0019731137 -0.023952737
000020 e1 81 e6 3b 3e 1f 40 3b 11 e4 af 3b 8f 94 90 bb
       0.0070345257 0.0029315497 0.005367764 -0.004412241
000030 6e 62 42 ba 30 14 18 3c 30 49 b1 39 07 0d 26 bb
       -0.000741518 0.009282157 0.000338146 -0.0025337355
000040 1f 64 44 bc 98 30 02 3b 84 a8 fb 3b 99 4d 74 ba
       -0.011986761 0.001986539 0.0076800007 -0.0009319424

weight f4 [20, 64]
000000 49 9d 21 27 b1 b3 4b 8f d4 0c fd 2b e0 27 aa 9b
       2.2428503e-15 -1.004328e-29 1.7980292e-12 -2.814991e-22
000010 12 86 3f ac 66 ec 69 2b bd 6f 1f 9e ae a0 07 b2
       -2.7217156e-12 8.31063e-13 -8.440497e-21 -7.8945686e-09
000020 8f e9 56 1f a7 58 6e 30 16 d9 ef a3 c6 6e 82 2c
       4.5509458e-20 8.670988e-10 -2.6004371e-17 3.7071205e-12
000030 45 b4 92 28 9a 87 89 a6 66 13 52 aa b6 c5 82 16
       1.6287436e-14 -9.54304e-16 -1.8658477e-13 2.1127406e-25
000040 8f fd 9d ac 4b a6 11 a2 60 01 00 80 89 fa 29 a1
       -4.490359e-12 -1.97392e-18 -4.93e-43 -5.759101e-19
000050 f3 19 8f a8 50 f8 45 27 7f a0 e6 29 e6 d9 d3 ad
       -1.5887443e-14 2.7473852e-15 1.02418935e-13 -2.4084689e-11
000060 a3 11 b8 ab 15 f8 8e a5 f2 a1 a5 a7 0a 6b 96 0c
       -1.3078882e-12 -2.480118e-16 -4.597228e-15 2.317558e-31
000070 e9 4a 2c a0 9f 4a ba a8 47 cb 22 1e df 12 6b a5
       -1.4593752e-19 -2.068251e-14 8.618245e-21 -2.0389395e-16
000080 6f d9 10 1f e1 5d 64 2b 57 ad 3c 00 ba 83 96 26
       3.0673043e-20 8.1132155e-13 5.572312e-39 1.0444045e-15
000090 e1 d8 13 a8 6c 29 32 ab 61 b7 50 28 89 27 76 9b
       -8.207167e-15 -6.329579e-13 1.1586083e-14 -2.0361418e-22
0000a0 8f 2c b3 2d 8f 9f 31 a9 19 b0 a7 ad 0d e6 27 a7
       2.0369732e-11 -3.944029e-14 -1.9063905e-11 -2.3300616e-15
0000b0 b9 f7 16 2b 15 93 ad a0 19 f6 a7 b2 61 8f ca aa
       5.363449e-13 -2.940467e-19 -1.9553271e-08 -3.5981897e-13
0000c0 5f 01 00 00 39 6e 0a a1 63 01 00 80 10 21 4b 29
       4.92e-43 -4.6902097e-19 -4.97e-43 4.5103732e-14
0000d0 f9 9e 5b 10 d1 cf 3b 27 ea 15 8b 29 34 9c ec 2a
       4.3312603e-29 2.606412e-15 6.1766415e-14 4.203041e-13
0000e0 1d a3 16 a9 5d 26 ce 08 61 01 00 80 02 c9 fe 2e
       -3.344817e-14 1.2407193e-33 -4.95e-43 1.1586289e-10
0000f0 0a ea cc 22 62 01 00 00 ee f8 af ac 7c b2 a4 95
       5.554211e-18 4.96e-43 -5.001436e-12 -6.652067e-26
000100 b3 21 b6 30 aa cc 26 1b 76 8d fa 33 1a 7f 8a a6
       1.3251821e-09 1.3797329e-22 1.1667264e-07 -9.610125e-16
000110 c8 f4 cb b5 56 45 12 34 8a ef 1f a8 d9 81 7f bb
       -1.5195919e-06 1.3622534e-07 -8.878215e-15 -0.0038987307
000120 ac 66 7b 2a 8b 80 39 b8 33 f5 d7 ac 3e ef 60 35
       2.23289e-13 -4.4227152e-05 -6.13789e-12 8.3794646e-07
000130 01 99 96 32 0d ea b3 30 93 9a 8a b3 43 81 f5 a0
       1.7531876e-08 1.3090485e-09 -6.454243e-08 -4.1590153e-19
000140 32 39 08 b6 6f 09 11 ab 63 01 00 00 87 ca 86 aa
       -2.0298871e-06 -5.152744e-13 4.97e-43 -2.3943713e-13
000150 6b 90 c4 b1 7d e5 0e 27 3e d9 d9 32 a2 16 03 b7
       -5.720769e-09 1.9830865e-15 2.5360915e-08 -7.813478e-06
000160 92 74 e0 b4 c4 d8 a2 ae 39 45 90 b0 0f 4a 84 18
       -4.1808067e-07 -7.4054124e-11 -1.0497053e-09 3.419598e-24
000170 ee ba 1a a9 5e 1b 18 b0 74 2b 4e 27 ec 75 ac ae
       -3.4357005e-14 -5.533617e-10 2.8611799e-15 -7.8426016e-11
000180 eb 0a dd 1d 6a 88 09 34 05 b3 ca 0c c0 d5 64 2f
       5.85095e-21 1.2808746e-07 3.1230771e-31 2.0812418e-10
000190 58 9a 97 31 36 a6 55 35 8a 03 ae b0 7e 2b 9f aa
       4.4122253e-09 7.959055e-07 -1.2661172e-09 -2.8274253e-13
0001a0 27 5a 84 38 6d b7 46 b2 31 49 a7 b6 fc f5 16 b1
       6.311043e-05 -1.1566823e-08 -4.9855084e-06 -2.1967699e-09
0001b0 86 84 a0 30 2a 0d a3 a9 ff a5 7c bb 04 a9 6d 35
       1.1679198e-09 -7.240938e-14 -0.003855109 8.853533e-07
0001c0 1d 4c 0b 00 bb c3 04 ab 8e 27 00 00 81 f1 cc b3
       1.037495e-39 -4.716745e-13 1.419e-41 -9.5434196e-08
0001d0 52 b9 4c 1c a3 3e 0e 30 e0 6b 9b 32 ec 8f f0 31
       6.773746e-22 5.174831e-10 1.809343e-08 7.0012813e-09
0001e0 ae e0 b1 b2 32 c4 7c 14 79 01 00 80 b9 0c c5 b7
       -2.0707684e-08 1.2761441e-26 -5.28e-43 -2.3490154e-05
0001f0 62 92 b3 2b 71 00 00 80 e5 de 8f b7 fd da 9b 1c
       1.2759344e-12 -1.58e-43 -1.7150722e-05 1.0313647e-21
000200 d2 99 bb ae c3 75 5a 99 1f d7 9a b3 b9 4f 8e 24
       -8.5310994e-11 -1.1294118e-23 -7.210314e-08 6.171774e-17
000210 61 bf 91 33 71 f1 d0 b2 b8 bd 9e a7 32 3e fd 39
       6.7869e-08 -2.4324182e-08 -4.4059503e-15 0.0004830226
000220 c8 4d 04 a9 ec 3e c1 b7 92 c9 59 2b 25 a5 96 b3
       -2.9377352e-14 -2.3036693e-05 7.737362e-13 -7.014959e-08
000230 e8 ec 98 31 5f 8d 90 ae cb 2b f1 31 1d b5 0f 1f
       4.4507154e-09 -6.5734744e-11 7.019002e-09 3.043124e-20
000240 70 38 7c 34 00 99 ae 29 f4 00 00 00 5d 2a 11 29
       2.3489861e-07 7.7536935e-14 3.42e-43 3.2233212e-14
000250 8d a5 18 30 38 0b c1 a5 1f 6c e3 31 6e 9b 90 35
       5.553254e-10 -3.3487765e-16 6.6188615e-09 1.0774072e-06
000260 e8 f6 9a 33 7e 84 2d 2d 86 ef 95 af f9 70 58 96
       7.216096e-08 9.863331e-12 -2.7273134e-10 -1.7483989e-25
000270 5a 65 b9 27 a3 83 5a 31 1a a7 2a a6 63 2b 11 2d
       5.14577e-15 3.1798002e-09 -5.9207063e-16 8.2519295e-12
000280 6c 5f 5c 9c dc 9a 02 31 74 5b ac 0a 3f 95 4a ad
       -7.2915224e-22 1.9005517e-09 1.6597398e-32 -1.151551e-11
000290 08 29 41 b1 11 a8 71 b4 c6 08 17 b1 06 ba d6 28
       -2.810852e-09 -2.2506016e-07 -2.197838e-09 2.3839448e-14
0002a0 1d a7 45 b6 b4 90 ce 30 0d bc 52 35 fd 83 3f 2e
       -2.945256e-06 1.50296e-09 7.8504746e-07 4.35456e-11
0002b0 3b d6 a6 32 bf 72 1a 28 e0 ad 61 3a 19 b9 22 34
       1.9422364e-08 8.573599e-15 0.0008608978 1.5154764e-07
0002c0 a4 01 02 80 d1 49 09 29 9f 0e 00 80 70 ff 65 b3
       -1.8426e-40 3.0484136e-14 -5.245e-42 -5.3550536e-08
0002d0 8a cd 85 9a 88 df e7 2e 94 53 be b1 fb 58 f3 b2
       -5.533958e-23 1.0544371e-10 -5.5392295e-09 -2.8329387e-08
0002e0 6f 9c 87 30 95 14 26 11 74 01 00 80 8e 51 1d b6
       9.867004e-10 1.3101433e-28 -5.21e-43 -2.3442294e-06
0002f0 73 c0 76 aa 7d 01 00 80 e1 97 c0 35 43 7e f1 9a
       -2.1915958e-13 -5.34e-43 1.4349317e-06 -9.987925e-23
000300 1f b8 de 2f f3 76 99 1a 87 6e 6d 34 08 e1 76 24
       4.051239e-10 6.347149e-23 2.2112555e-07 5.3533356e-17
000310 94 df 5c b5 d2 ff 4e 33 be aa 1b a9 41 0f eb ba
       -8.2281736e-07 4.819578e-08 -3.456501e-14 -0.0017933623
000320 df de ee a9 e0 d6 75 37 d7 e3 10 ad cf dc 23 35
       -1.0607985e-13 1.4653167e-05 -8.236043e-12 6.104355e-07
000330 b2 78 81 31 07 ff a1 ad f2 dc 68 b3 8f a1 42 a0
       3.7681156e-09 -1.8416836e-11 -5.4217658e-08 -1.6485894e-19
000340 21 87 c8 b5 73 62 48 ab 63 01 00 80 da e0 e7 a9
       -1.4940489e-06 -7.11909e-13 -4.97e-43 -1.0297466e-13
000350 3a 67 5f b1 a5 4d 44 27 8b 76 30 32 fd f4 b6 b6
       -3.2509448e-09 2.7242555e-15 1.0271502e-08 -5.452543e-06
000360 9d f4 d7 b4 a4 50 a6 ae 86 e6 86 b0 95 3a ef 17
       -4.022485e-07 -7.563131e-11 -9.815302e-10 1.5459801e-24
000370 26 7a a6 a9 f4 90 60 32 b8 56 2e 25 ea ec 9a ae
       -7.39307e-14 1.3071475e-08 1.5121476e-16 -7.0451936e-11
000380 14 3f bf 1d 47 69 96 33 33 ae 8e 0b 62 bd 67 2e
       5.06225e-21 7.004069e-08 5.4958516e-32 5.2691525e-11
000390 2c e2 c2 31 a4 fc a4 35 d8 b1 4c af 51 0c e1 a9
       5.671856e-09 1.229248e-06 -1.8616875e-10 -9.994144e-14
0003a0 71 9f 9a 37 7e 53 4e b2 31 1d a5 b6 a1 a6 27 b0
       1.8432476e-05 -1.2009762e-08 -4.9207815e-06 -6.099104e-10
0003b0 9e 0e da 32 e5 d7 e8 a9 ac 93 9a bb a0 04 dd b3
       2.5385187e-08 -1.03403214e-13 -0.004717311 -1.0291956e-07
0003c0 8c 94 08 00 55 dc c0 aa 70 08 00 00 68 80 10 b4
       7.87973e-40 -3.4258937e-13 3.027e-42 -1.3457759e-07
0003d0 8f 1b e2 1b 06 13 91 2d 30 72 28 32 f0 d2 4f 33
       3.7406373e-22 1.649304e-11 9.80485e-09 4.838779e-08
0003e0 d8 d4 9c b1 c9 4f b8 13 63 01 00 80 f8 3b 71 b7
       -4.564395e-09 4.6526804e-27 -4.97e-43 -1.4378682e-05
0003f0 f0 e8 e4 2b 70 01 00 80 7f 87 bc b6 a9 64 3c 1c
       1.6265028e-12 -5.16e-43 -5.6186104e-06 6.233408e-22

weight f4 [256, 20]
000000 a3 a9 8b ab 98 d6 33 35 fa 9b 82 b3 40 9a a8 35
       -9.923628e-13 6.699497e-07 -6.081969e-08 1.2561868e-06
000010 db 5d 96 33 4f a3 4e 34 32 ad cb b3 18 86 a0 33
       7.0019915e-08 1.9244656e-07 -9.484428e-08 7.474972e-08
000020 d5 d5 e6 b4 14 be 98 b4 51 6d ad b4 45 1c e7 33
       -4.2996422e-07 -2.8450506e-07 -3.23033e-07 1.0761918e-07
000030 a4 48 5d 33 5e 8d 8d b5 a2 25 86 b3 59 dd 3e 34
       5.152164e-08 -1.0546462e-06 -6.2467066e-08 1.7775655e-07
000040 f9 8f 2a 35 24 cf d3 b2 9a 67 51 b5 ef 1d a3 33
       6.3539443e-07 -2.465783e-08 -7.800933e-07 7.595724e-08
000050 b8 0b bc ae c4 01 ba b7 c7 12 c2 34 e0 0f 67 b7
       -8.551332e-11 -2.217375e-05 3.6148978e-07 -1.3772369e-05
000060 40 a3 22 b6 02 14 2f 37 9a ba 41 b5 3d 28 cc b8
       -2.4234905e-06 1.0435471e-05 -7.2169644e-07 -9.734973e-05
000070 b0 e4 d5 37 23 13 4b 36 ad 5b 7c b4 ef 93 55 b7
       2.549807e-05 3.0260496e-06 -2.350268e-07 -1.2730233e-05
000080 0f 5d c8 b5 42 45 b4 37 df 0d c0 b6 89 3f 51 b6
       -1.4928245e-06 2.1489923e-05 -5.7236607e-06 -3.118041e-06
000090 c8 2b d3 b6 90 44 03 35 90 51 1d 37 d7 21 bf b5
       -6.293387e-06 4.8901074e-07 9.3769195e-06 -1.4240458e-06
0000a0 7e 10 f1 19 25 0c df 22 01 2a e0 a0 86 39 3f a2
       2.4925477e-23 6.045713e-18 -3.7974872e-19 -2.591578e-18
0000b0 b1 38 97 21 c1 e9 59 9f 09 c7 a3 21 7f a8 1d 24
       1.0247164e-18 -4.6144894e-20 1.1097994e-18 3.418667e-17
0000c0 39 56 38 a3 b7 dc 02 21 2a d8 b1 22 31 8b af a2
       -9.992918e-18 4.4337827e-19 4.820482e-18 -4.758122e-18
0000d0 6e f9 5c a0 77 8e a3 a1 05 f8 f8 a2 5f 5c f7 21
       -1.8717254e-19 -1.108302e-18 -6.7483136e-18 1.6761821e-18
0000e0 81 b1 9e 21 c7 a3 90 1f 7a f4 54 23 d0 11 86 21
       1.0753481e-18 6.125732e-20 1.1544313e-17 9.084908e-19
0000f0 d0 fe b2 ad 5c cb 3d 38 73 32 2d b6 f9 97 c9 37
       -2.0349417e-11 4.5250505e-05 -2.5808374e-06 2.4031835e-05
000100 3c 58 f3 36 4d 9f 40 37 17 80 17 b7 28 fe 08 38
       7.252236e-06 1.1481182e-05 -9.030125e-06 3.266163e-05
000110 e0 2a 3a b7 e1 de 6e b7 cd 6c dd b7 fd 62 d3 37
       -1.10964465e-05 -1.42377985e-05 -2.6395917e-05 2.5199255e-05
000120 49 ef 14 36 4b 6a 0d b8 e1 01 55 b3 2b 19 48 37
       2.2193e-06 -3.3716013e-05 -4.9594636e-08 1.1926789e-05
000130 d3 03 76 38 aa 15 f5 b6 90 d3 29 b8 f7 a1 38 36
       5.8654532e-05 -7.304091e-06 -4.0489773e-05 2.7512413e-06
000140 d3 c2 1e 1d 1c 4a ed 25 81 c3 1b 24 4d b2 2f 25
       2.1011848e-21 4.1163165e-16 3.3775866e-17 1.5239241e-16
000150 f4 ba b7 24 4c 02 88 a4 d4 6d c8 a4 b8 69 17 27
       7.968031e-17 -5.898449e-17 -8.692223e-17 2.101277e-15
000160 38 80 dd a5 51 cc d2 23 49 69 87 25 ef 0f 21 24
       -3.8424273e-16 2.2854777e-17 2.349011e-16 3.4924806e-17
000170 92 4c 0a 24 79 d4 5d 25 4b c3 36 25 d3 23 29 25
       2.9988838e-17 1.9240683e-16 1.5852151e-16 1.4670551e-16
000180 82 78 0a 25 4e 03 0d a5 8c 43 4c 25 33 69 6b 23
       1.2010422e-16 -1.223092e-16 1.7717065e-16 1.2761652e-17
000190 b3 12 0f a9 2a 16 c1 32 1e a3 c1 af ff 84 8c b0
       -3.1768597e-14 2.2478236e-08 -3.5222397e-10 -1.022414e-09
0001a0 4b ff d6 30 18 57 a6 31 5f a2 14 b1 1f f4 09 b3
       1.5643108e-09 4.8411373e-09 -2.1629132e-09 -3.2119825e-08
0001b0 ac 94 2f 32 33 41 16 b0 1f cd 06 b2 e4 76 2e b2
       1.0220145e-08 -5.4662336e-10 -7.846466e-09 -1.0155166e-08
0001c0 ec 3f 42 30 40 d5 79 30 84 21 b3 31 00 89 d4 ae
       7.066763e-10 9.088872e-10 5.213396e-09 -9.66498e-11
0001d0 b2 21 1a 32 e3 ff 07 b0 bf 3e f5 b2 9c 27 48 2f
       8.971641e-09 -4.947635e-10 -2.8550287e-08 1.8203966e-10
0001e0 75 2e 3f 2e 3e dd 53 39 5f 5f 1b b8 88 0c bf 39
       4.3469634e-11 0.00020204947 -3.70437e-05 0.00036439695
0001f0 fb 14 6f 37 bc 94 3e 38 9c 33 a6 b8 55 b0 36 3a
       1.4250395e-05 4.543805e-05 -7.92511e-05 0.00069690245
000200 63 2c 09 b8 ee f2 19 b9 9b f2 52 b9 75 9e c0 39
       -3.2704684e-05 -0.00014681715 -0.00020117538 0.00036739153
000210 3b 93 b6 37 77 bd a3 b9 dc dc c0 b7 da c8 d3 38
       2.176465e-05 -0.00031230945 -2.299103e-05 0.000100986756
000220 88 a4 8b 39 1f a2 33 b8 c3 21 ef b8 b8 76 0f 38
       0.0002663473 -4.2827913e-05 -0.00011402697 3.4204422e-05
000230 50 98 2c 2f d9 73 91 39 e9 24 e7 b7 1f 5b 53 39
       1.5697421e-10 0.00027742868 -2.7554534e-05 0.00020156473
000240 b9 af 47 38 61 00 f5 38 6e b7 61 b8 15 f5 e1 39
       4.760895e-05 0.00011682581 -5.3815013e-05 0.00043097945
000250 37 2d 8c b9 95 6d 90 b8 c1 d4 45 b9 6a 53 d7 38
       -0.00026736569 -6.886866e-05 -0.00018866641 0.00010267536
000260 d3 28 ca 37 00 fe 82 b9 86 f4 9e b8 f5 d5 8d 38
       2.4099287e-05 -0.00024984777 -7.579573e-05 6.7632565e-05
000270 30 4e a7 39 82 25 82 b8 f8 d0 8e b9 4f d4 07 38
       0.00031910976 -6.2058694e-05 -0.00027240044 3.2384236e-05
000280 bd a9 ae 2c 9b 99 9d 37 ad d5 8e b5 fa 37 0c 37
       4.964222e-12 1.8787387e-05 -1.0642012e-06 8.357683e-06
000290 e1 1e 40 36 f5 ff e1 36 2c 8a 3b b6 12 a2 38 38
       2.8628203e-06 6.73532e-06 -2.7945598e-06 4.401996e-05
0002a0 b5 37 50 b7 bc 87 b0 b6 42 cd 2b b7 00 a6 2e 37
       -1.2410736e-05 -5.2610103e-06 -1.0240185e-05 1.0409858e-05
0002b0 10 09 99 35 65 4c 9a b7 8d 11 43 b6 a1 11 b0 36
       1.1402026e-06 -1.8393805e-05 -2.906748e-06 5.247261e-06
0002c0 0b c6 b7 37 6c ba 8a b6 d1 a4 70 b7 bb d3 9e 35
       2.1907521e-05 -4.134423e-06 -1.4343489e-05 1.1833539e-06
0002d0 bb ed 9b ac 9a c9 d0 b7 03 af 24 36 f6 00 c5 b7
       -4.4317583e-12 -2.488941e-05 2.4539775e-06 -2.3484678e-05
0002e0 a5 9e a6 b6 73 24 59 b7 15 df d2 36 df 55 8f b7
       -4.965654e-06 -1.2942694e-05 6.284458e-06 -1.7086915e-05
0002f0 39 1c 9b 37 9d ac 17 37 f2 79 95 37 ce a0 7c b7
       1.8490582e-05 9.040491e-06 1.781897e-05 -1.5057811e-05
000300 e5 1d 4d b6 e9 7d 10 38 c3 2b 96 35 db 19 1f b7
       -3.0564781e-06 3.444954e-05 1.1188607e-06 -9.4831585e-06
000310 9e 50 27 b8 78 91 f0 36 ce 34 89 37 6b 12 7e b6
       -3.9890983e-05 7.169492e-06 1.6356262e-05 -3.785967e-06
000320 0d 58 3d 90 1c c7 cc 1b 0a 57 39 9a b1 8e d5 1b
       -3.734151e-29 3.387764e-22 -3.8327413e-23 3.5330106e-22
000330 13 07 6d 1a 36 bf eb 1a 29 0e 97 9a b3 32 76 1c
       4.9016166e-23 9.750264e-23 -6.2475013e-23 8.14601e-22
000340 6f 63 a3 9b 7a e7 02 9b 52 82 25 9b 65 00 60 1b
       -2.7030345e-22 -1.0828142e-22 -1.3690589e-22 1.8528973e-22
000350 82 99 e3 19 18 0b d1 9b d1 32 eb 18 f1 c2 f6 1a
       2.3533251e-23 -3.458332e-22 6.0797388e-24 1.0205816e-22
000360 87 16 08 1c 32 4e af 9a 99 ff a7 9a e4 21 38 1a
       4.502774e-22 -7.2504635e-23 -6.948252e-23 3.8077685e-23
000370 af 4c 8b 32 dc 97 36 3c 33 4c 45 ba 2b d7 c0 3b
       1.6216601e-08 0.0111446045 -0.0007526308 0.005885025
000380 17 55 17 3b 7d 55 85 3b df a0 03 bb bf d5 dc 3c
       0.002309149 0.004069029 -0.00200849 0.02695739
000390 1d 68 11 bc 91 ea 2a bb 50 7f ce bb 12 24 1b 3b
       -0.00887492 -0.0026079754 -0.006301798 0.0023672623
0003a0 af 3a 06 3a 92 70 13 bc 84 d6 04 39 83 d0 0b 3b
       0.0005120439 -0.008999007 0.00012668414 0.0021334
0003b0 de 1f 79 3c 3d f4 c1 ba 15 a7 3c bc b8 39 28 3a
       0.015205352 -0.001479752 -0.011514445 0.0006417292
0003c0 b1 53 d7 2f 72 f8 95 3a 86 fb 6a b8 c3 08 32 3a
       3.9167738e-10 0.001144184 -5.6024197e-05 0.0006791467
0003d0 04 c0 63 39 b6 28 a9 39 fb ef 35 b9 3d 24 06 3b
       0.00021719938 0.00032264524 -0.00017350905 0.0020468377
0003e0 c7 33 53 ba 30 06 57 b9 fe 31 e6 b9 50 fb 89 39
       -0.00080567267 -0.00020506303 -0.00043906266 0.0002631792
0003f0 3d e0 8a 38 43 67 04 ba 8a 6d e5 b8 b2 1c 17 39
       6.6221204e-05 -0.00050507876 -0.00010939974 0.00014411172

bias f4 [256]
000000 f5 58 e1 b6 e4 bf 9c bb 03 63 32 a5 7c 1e 30 ba
       -6.7158785e-06 -0.0047836173 -1.5472585e-16 -0.000671841
000010 82 90 d7 a7 37 03 58 b5 b8 88 a2 bb 8f ea ff bb
       -5.9831163e-15 -8.047095e-07 -0.004960146 -0.007809944
000020 ea 54 bb b9 ae c8 d7 38 a0 d1 d7 9d 81 d0 3a 3e
       -0.00035730685 0.000102893784 -5.7126773e-21 0.182436
000030 bb 0c 5c bc c5 23 7c b9 5c 49 89 b5 31 56 21 3c
       -0.01343077 -0.00024045918 -1.0228646e-06 0.00984721
000040 c7 10 fa 22 a0 4a 8f b8 d8 35 23 bc df 34 4e a0
       6.77804e-18 -6.832671e-05 -0.009961568 -1.7466372e-19
000050 0d 7b 31 35 45 bf 94 bb 6c 8a 21 3b 88 03 8f b8
       6.61167e-07 -0.0045394027 0.0024649156 -6.819429e-05
000060 5a 32 83 3a c8 c4 da 27 78 99 22 9c 3b c7 00 b9
       0.0010009513 6.0720506e-15 -5.3799657e-22 -0.0001228125
000070 5d fb 3e b7 0f 3d 11 ac b8 9b e2 3a 9e 4e 93 97
       -1.1383408e-05 -2.0639634e-12 0.001728884 -9.519498e-25
000080 85 e0 3d b2 62 87 26 bc 1d 18 78 af 29 51 4a b5
       -1.1052298e-08 -0.010164114 -2.2564035e-10 -7.536897e-07
000090 44 9f 5e 3e 43 c5 40 b7 fa 96 3e b7 dd f2 84 b0
       0.21740443 -1.149002e-05 -1.13600345e-05 -9.67329e-10
0000a0 21 cf 30 3d 0a 13 09 33 7e eb 2e ab 9c d6 d7 b7
       0.043166284 3.1915114e-08 -6.214403e-13 -2.5729933e-05
0000b0 bc 52 06 bb 10 a8 64 b4 ea b3 82 b4 f9 0b 1f bc
       -0.002049609 -2.1295295e-07 -2.4345292e-07 -0.009707444
0000c0 5e 7f 1f b8 39 94 8c b5 ba 43 92 b2 b6 40 1e bc
       -3.8027174e-05 -1.0473951e-06 -1.7027435e-08 -0.009658983
0000d0 a1 4e a0 b6 67 7a 6a a9 a4 b1 6e b7 01 35 40 36
       -4.777525e-06 -5.2064605e-14 -1.4227266e-05 2.8641082e-06
0000e0 81 fc 02 a4 89 a2 cd ba cb bc c3 ab e6 27 20 3e
       -2.8403136e-17 -0.0015688698 -1.3907984e-12 0.1564022
0000f0 ec 7f e1 bb 0a d8 4a ba 78 f5 ea b9 34 7b 66 ba
       -0.0068817046 -0.0007737881 -0.00044814846 -0.00087921624
000100 5d 93 ab b8 63 c9 36 b0 20 6d 05 3d f1 d6 ed b8
       -8.181364e-05 -6.64974e-10 0.032574773 -0.000113410766
000110 b1 c4 69 ae 5e 0d cb b9 42 c6 ff bb d1 31 72 bc
       -5.3152763e-11 -0.00038729137 -0.0078056166 -0.014782385
000120 62 2c cd 3d 3d 61 02 9e 2f 23 69 b2 b2 42 8b bb
       0.10018231 -6.902251e-21 -1.3570385e-08 -0.004249894
000130 22 9a 0a bc 3e ea 61 b6 b4 32 90 b4 01 5a 2c b3
       -0.0084596 -3.366396e-06 -2.6858982e-07 -4.012873e-08
000140 84 3a 6b b1 9c 6f 01 b5 16 89 51 b5 d1 0e 44 b3
       -3.4230263e-09 -4.821866e-07 -7.8058054e-07 -4.564828e-08
000150 df c8 3c bc f2 1b c1 a2 33 83 7f 9f df 8e 13 a9
       -0.011522501 -5.2342343e-18 -5.4106876e-20 -3.2764478e-14
000160 56 91 5e 37 1f 5c 14 ac bd 6d 92 a6 95 e1 a8 bb
       1.326607e-05 -2.1083202e-12 -1.016053e-15 -0.0051538446
000170 62 9f 4b bc 51 b5 15 9c c1 21 25 ae ab ce 07 bc
       -0.012428137 -4.953431e-22 -3.7546636e-11 -0.00828902
000180 22 4b d9 b5 1c 7b 98 ba af 03 8b b7 80 d3 09 b0
       -1.6189626e-06 -0.0011633369 -1.6571807e-05 -5.014087e-10
000190 bb 96 1e b6 4f ea c4 b3 e8 42 c7 bb 07 10 bf b1
       -2.3631571e-06 -9.169582e-08 -0.006080974 -5.5606537e-09
0001a0 b6 34 d6 39 dd 13 bb a5 91 3f 25 bd 56 62 ef bc
       0.00040856533 -3.245279e-16 -0.040343825 -0.029221695
0001b0 05 21 b2 b7 1a 13 5c bb 3e 70 fc bb 62 6f 6e b9
       -2.123463e-05 -0.0033580721 -0.00770381 -0.00022738942
0001c0 10 6a b2 b8 f5 c1 82 af 86 b8 9b b3 23 af 99 b6
       -8.507457e-05 -2.3784677e-10 -7.2513146e-08 -4.580144e-06
0001d0 86 a3 20 b3 7b 10 93 bc 26 4a 27 3c ba 28 8c bc
       -3.7401627e-08 -0.017952194 0.010210549 -0.017109264
0001e0 86 62 90 3b 86 9b 59 a8 a3 27 85 b1 14 0a 40 b7
       0.004406276 -1.2079644e-14 -3.8753156e-09 -1.1446438e-05
0001f0 ae d8 25 b6 70 e5 9c ae 20 4a 85 b0 90 a1 42 bb
       -2.471304e-06 -7.134815e-11 -9.698091e-10 -0.002969835
000200 df 44 6c ab cb ba 5b bc db d0 76 ae 25 2c 24 b6
       -8.393962e-13 -0.013411234 -5.6119425e-11 -2.44636e-06
000210 63 03 11 3c 8e f0 0d b6 7c 69 5b 3e f3 53 71 9c
       0.008850905 -2.1150659e-06 0.21426958 -7.9848713e-22
000220 67 f3 cd bb fa c9 c4 3e 19 91 3f a0 5d 5d c7 b6
       -0.0062851193 0.38435346 -1.6226338e-19 -5.941531e-06
000230 15 d5 5e ab a0 91 09 b5 11 b0 37 3b b7 49 32 b6
       -7.9165954e-13 -5.124839e-07 0.0028028528 -2.6566975e-06
000240 26 5e a9 b9 dc 91 81 3e d3 2f 28 b0 40 51 d3 bc
       -0.00032304338 0.25306594 -6.1186006e-10 -0.025795579
000250 41 e0 93 b5 e1 72 19 b7 ed c5 48 9c 58 8c b2 ae
       -1.101762e-06 -9.146258e-06 -6.643026e-22 -8.119433e-11
000260 4e 80 d7 b5 18 67 dc b3 1d 24 80 a8 c7 21 68 3e
       -1.605609e-06 -1.0263301e-07 -1.4226516e-14 0.22669135
000270 1c 9c 19 b9 0a 17 45 ad fb eb 39 b6 f7 01 2f 3d
       -0.00014649372 -1.1203269e-11 -2.7704507e-06 0.042726483
000280 d4 f1 03 b3 06 4d bb bc 6e e4 88 bb a4 21 0f bc
       -3.0720756e-08 -0.022863876 -0.0041776216 -0.008736048
000290 2a 02 7c bc c1 b6 89 b0 0e 6b d5 bb 2b 37 a5 b3
       -0.015381375 -1.0020004e-09 -0.006513006 -7.693446e-08
0002a0 d9 d8 e0 af ea 4b db 29 0d 46 66 96 02 36 85 3e
       -4.0899442e-10 9.738723e-14 -1.8601356e-25 0.26017767
0002b0 40 1d 77 bb 6a b1 a2 bb de 11 ce b8 ba 80 05 9e
       -0.0037706643 -0.004964997 -9.8261735e-05 -7.067581e-21
0002c0 09 78 5f ac 1f 52 b9 b0 88 8d 9d ba 42 d9 af b2
       -3.1756839e-12 -1.3483862e-09 -0.0012020329 -2.0471479e-08
0002d0 33 f0 b5 1f 6f f4 83 ba c2 40 8f bc 6f f8 48 bc
       7.705386e-20 -0.0010067354 -0.017486934 -0.012266262
0002e0 7b 92 e3 9c 78 a7 3d bc 94 06 e4 b9 42 4c 80 3e
       -1.5059464e-21 -0.011575572 -0.0004349245 0.2505818
0002f0 60 aa 14 b2 e9 f5 74 3e 32 b6 97 28 2e 47 83 bb
       -8.653473e-09 0.23921932 1.6843382e-14 -0.004006288
000300 73 85 6f bc 20 6e 42 2a f1 b9 33 b4 fd 9d a1 b7
       -0.014619219 1.7268869e-13 -1.6738319e-07 -1.9266265e-05
000310 86 56 56 b1 e0 d2 a4 b9 d0 fb dd 39 46 ae ea b7
       -3.1190281e-09 -0.00031437632 0.0004234002 -2.7976126e-05
000320 8c c1 b3 2a d4 f3 16 ad e2 1c e2 b1 fd ca 95 bc
       3.1931088e-13 -8.5806535e-12 -6.5807493e-09 -0.018285269
000330 ec ab 0e 3e 88 69 d3 3d db c4 87 b4 69 5b 1a bd
       0.1393277 0.10322863 -2.528894e-07 -0.03768483
000340 de 62 f5 b7 98 2c e6 36 ca de a9 9a e3 59 b5 9b
       -2.9252315e-05 6.8597255e-06 -7.02567e-23 -3.0002026e-22
000350 22 54 d5 b1 af 6f 19 b3 17 c5 92 b1 06 5a 4c b1
       -6.2086807e-09 -3.5724664e-08 -4.2715658e-09 -2.973708e-09
000360 96 82 53 b2 c9 b0 a2 bc 53 79 25 ba 8c 73 54 bb
       -1.2311508e-08 -0.019859688 -0.0006312329 -0.0032417504
000370 ed 51 47 ae 10 35 47 a6 41 86 84 35 4e 16 2d b2
       -4.5320126e-11 -6.911391e-16 9.873839e-07 -1.0074997e-08
000380 b6 c6 5d 3e b8 44 51 2e cf bc 68 ba 8b e3 88 30
       0.21657833 4.7582133e-11 -0.00088782323 9.959974e-10
000390 c0 d6 e0 bb c4 e5 2d ba ab d1 4c a3 17 8b 97 b1
       -0.0068615377 -0.0006633664 -1.1103261e-17 -4.410491e-09
0003a0 a6 c5 ae 9f 10 16 0b bc 11 c0 06 b5 45 33 18 b5
       -7.401885e-20 -0.008489147 -5.0198383e-07 -5.669902e-07
0003b0 4c 91 4d bc 38 ea 54 ba bd 42 59 bc 7f bf 7b b6
       -0.0125468485 -0.00081220595 -0.013260541 -3.751338e-06
0003c0 c4 e9 76 bc ac fc cd 34 84 76 14 3e 09 16 e6 ae
       -0.0150703825 3.8368069e-07 0.14498335 -1.0463103e-10
0003d0 87 40 f6 3d 17 78 b9 ac 7e e9 00 bd f4 c0 01 96
       0.12024026 -5.271349e-12 -0.031472676 -1.0481422e-25
0003e0 61 1a 9f 3e 23 93 98 ba a3 8e 4f ae bc 3b 80 98
       0.31074813 -0.001164053 -4.7193038e-11 -3.314754e-24
0003f0 75 04 49 af 05 3f 47 b9 92 59 88 3e 63 c1 9a 3e
       -1.8282427e-10 -0.00019001596 0.26630837 0.30225667

weight f4 [32, 256]
000000 f9 a9 b0 b0 ff 09 b3 b4 07 31 27 9f 6d e3 bf b3
       -1.2853995e-09 -3.334862e-07 -3.540418e-20 -8.935499e-08
000010 27 21 20 a1 fb 31 60 ae 7a aa ee b5 b1 e6 11 b6
       -5.4253985e-19 -5.0976095e-11 -1.7781997e-06 -2.1740964e-06
000020 5b 20 c3 b3 f5 da 92 33 bc a8 b0 97 02 b0 be 37
       -9.0862805e-08 6.838483e-08 -1.1416328e-24 2.2731725e-05
000030 2d 9a a3 b6 d6 fc a9 b3 5d 08 e1 ad 58 25 d2 36
       -4.875727e-06 -7.915666e-08 -2.5583253e-11 6.262835e-06
000040 51 3b 63 1d 40 52 46 b3 e9 76 76 b6 38 21 e3 99
       3.0073866e-21 -4.6175273e-08 -3.6726071e-06 -2.3484667e-23
000050 1b 8c bb 2f dd 3f 17 b5 f9 eb 9c b6 9f c3 0a b2
       3.4114653e-10 -5.6344817e-07 -4.676633e-06 -8.077136e-09
000060 48 91 47 35 eb f1 85 22 17 39 d4 94 43 a1 90 b2
       7.434469e-07 3.6305863e-18 -2.1429047e-26 -1.683714e-08
000070 3f 05 b9 b0 f6 69 30 a6 df 6b de 35 6a d2 84 90
       -1.3462013e-09 -6.120587e-16 1.6571684e-06 -5.2389014e-29
000080 1a 51 60 ab 6e ef 1a b6 2e 72 b4 a8 9d 84 ba ae
       -7.969334e-13 -2.3087155e-06 -2.0033532e-14 -8.4818576e-11
000090 ab 1f b8 37 64 58 a6 b1 04 25 b2 b1 ba cf b0 aa
       2.1949256e-05 -4.8412847e-09 -5.18469e-09 -3.140802e-13
0000a0 b8 5c c1 37 8f 3f a7 2d 5f 51 3b a4 fa 75 ca b2
       2.3050568e-05 1.9013928e-11 -4.0618085e-17 -2.3569545e-08
0000b0 2d 98 e2 b3 54 48 90 ad e5 02 c2 ac a0 3e 29 b6
       -1.0551626e-07 -1.6403025e-11 -5.514133e-12 -2.5219415e-06
0000c0 35 7c 18 b2 1d 92 7d af 24 b0 e1 ab cb 8f 52 b5
       -8.875806e-09 -2.3062126e-10 -1.60361e-12 -7.844034e-07
0000d0 15 3c 26 b0 69 f5 30 a2 e9 38 9a b1 6b e9 64 32
       -6.047583e-10 -2.3982367e-18 -4.48846e-09 1.332442e-08
0000e0 bc 2a a1 9d 05 a2 4d b5 32 91 83 a4 7c 32 be 37
       -4.266053e-21 -7.660422e-07 -5.7058164e-17 2.2673274e-05
0000f0 4e 40 1e 37 ac bc 8a b3 5a 3e 49 b3 67 36 c0 b3
       9.432506e-06 -6.460445e-08 -4.6855668e-08 -8.9505924e-08
000100 b6 e2 98 b3 28 f5 81 aa 95 58 1e 37 73 17 26 b2
       -7.11929e-08 -2.3085115e-13 9.4381585e-06 -9.6678034e-09
000110 9a d3 96 a7 25 44 4a b4 53 b3 68 b5 1d 0f 5a b6
       -4.1862782e-15 -1.8837507e-07 -8.6687686e-07 -3.2493328e-06
000120 09 4e a7 37 75 75 95 96 9e 04 d2 ac f9 33 ea b5
       1.994429e-05 -2.4146374e-25 -5.9690716e-12 -1.7449485e-06
000130 a5 9c 04 b6 6d 9e 95 af ad e3 c8 ad 9a c7 83 ad
       -1.9760712e-06 -2.721551e-10 -2.2838476e-11 -1.4981617e-11
000140 99 dd 51 aa b4 66 44 ad c1 80 f0 ae 74 11 78 ae
       -1.8639811e-13 -1.1164115e-11 -1.0936808e-10 -5.6404173e-11
000150 6d 70 17 b6 2d 1d 0e 9c e7 8a 2b 98 b6 f8 e7 a2
       -2.2566194e-06 -4.702157e-22 -2.217136e-24 -6.287601e-18
000160 ab c8 25 32 84 a2 50 a6 71 75 ba 9e 8b f0 fd b5
       9.649891e-09 -7.2384746e-16 -1.9742089e-20 -1.8919976e-06
000170 1e b1 95 b5 59 0d 47 95 5b 6f ab a7 36 e6 46 b5
       -1.1152913e-06 -4.019826e-26 -4.7582766e-15 -7.409575e-07
000180 d0 98 ae ae 2d e7 b4 b3 87 84 0c b1 7f a1 26 a9
       -7.939749e-11 -8.423954e-08 -2.0448014e-09 -3.699948e-14
000190 55 64 4a af ea fe 12 ad 48 4d ca b5 a0 2f 5f aa
       -1.8407438e-10 -8.3557414e-12 -1.5072665e-06 -1.9822902e-13
0001a0 a1 83 5b 35 5e 9e b5 9e 56 c1 1c b8 79 c1 08 b6
       8.17754e-07 -1.922962e-20 -3.7373356e-05 -2.0378195e-06
0001b0 dc 98 d5 b1 4e 59 8f b4 00 28 02 b6 dd af af b2
       -6.216494e-09 -2.6700803e-07 -1.9394793e-06 -2.0452655e-08
0001c0 69 25 b7 b2 5a 38 79 a9 bf fd bb ac 57 02 28 b0
       -2.1321016e-08 -5.5337984e-14 -5.343031e-12 -6.112137e-10
0001d0 41 60 45 ad e1 1f 77 b6 03 ef 6a 36 e8 a0 d6 b6
       -1.1219526e-11 -3.6824424e-06 3.500784e-06 -6.396429e-06
0001e0 0f 00 c0 36 3b 77 33 a2 34 5d 8c aa 8d 20 8c b0
       5.7220527e-06 -2.4322144e-18 -2.4933668e-13 -1.0195592e-09
0001f0 57 b6 57 b0 e8 a0 b0 a8 9d 5c e0 aa 83 16 71 b5
       -7.8475665e-10 -1.9609707e-14 -3.9854657e-13 -8.9812255e-07
000200 65 30 da a5 13 82 36 b6 7a e1 d2 a7 a5 3c ce b0
       -3.7849765e-16 -2.7195827e-06 -5.853117e-15 -1.5005709e-09
000210 c4 75 4e 36 79 fe 57 b0 21 04 b9 37 b1 1d 9c 95
       3.076494e-06 -7.857817e-10 2.2055641e-05 -6.305474e-26
000220 f1 dd 89 36 0b 23 43 37 fd 7e d6 99 60 ae 33 b1
       4.1087555e-06 1.1631065e-05 -2.2178372e-23 -2.614705e-09
000230 02 29 a6 a4 6c 3b 06 ae a6 1f 8f 35 97 d1 6b af
       -7.2060494e-17 -3.052085e-11 1.0663541e-06 -2.1447587e-10
000240 9c 39 95 b2 43 8f ab 37 5a 77 20 aa 4a ec c1 b6
       -1.737208e-08 2.04515e-05 -1.4252263e-13 -5.779356e-06
000250 3a 80 de ae bb 42 60 b0 bc 2d 47 96 2a 43 e9 a8
       -1.0118169e-10 -8.1585555e-10 -1.6089523e-25 -2.5897324e-14
000260 67 13 8f ae 63 2e b6 ad 0f 3d b5 a1 e4 5a b5 37
       -6.506334e-11 -2.0711604e-11 -1.2281199e-18 2.1619206e-05
000270 24 ca 0a b2 80 07 b8 a6 bd 0c 22 b0 1e 8e 43 37
       -8.078619e-09 -1.2769598e-15 -5.895336e-10 1.1655995e-05
000280 25 a5 95 ac b1 a9 ab b6 68 9b a6 b6 d0 79 10 b6
       -4.2531694e-12 -5.115952e-06 -4.965277e-06 -2.1528576e-06
000290 87 dc 4f b6 f1 64 ed aa b6 fd bd b5 29 db 95 ac
       -3.0973767e-06 -4.21697e-13 -1.4155437e-06 -4.2591664e-12
0002a0 c9 69 9f a9 8b 8f ef 24 2d 1a 4f 8f 0a 8f a8 37
       -7.079369e-14 1.038929e-16 -1.0210929e-29 2.0093768e-05
0002b0 20 15 9c b5 51 31 38 b6 33 cc 78 b3 df 24 63 97
       -1.1629054e-06 -2.7446843e-06 -5.7927718e-08 -7.3394194e-25
0002c0 d4 63 4f a5 2b 02 99 a9 ff aa d4 b3 55 7f 1f ac
       -1.7988211e-16 -6.794941e-14 -9.903123e-08 -2.2665942e-12
0002d0 d0 7f 43 1a f6 57 10 b4 d3 13 87 b6 db 85 0f b6
       4.04283e-23 -1.3443045e-07 -4.0256214e-06 -2.1386575e-06
0002e0 bb fd 74 96 24 17 e4 36 2f 94 d5 b3 cf 98 ac 37
       -1.9790226e-25 6.7976234e-06 -9.94554e-08 2.0575155e-05
0002f0 40 40 fb ab 7b 0e b1 37 cf ae 36 23 bd 42 bc b5
       -1.7852456e-12 2.1106787e-05 9.903257e-18 -1.4026515e-06
000300 66 35 9d b6 a0 02 ce 24 e9 08 78 ac e8 fc 13 b2
       -4.685181e-06 8.9342706e-17 -3.5247866e-12 -8.61403e-09
000310 25 65 40 ab db 6c 60 b4 ee e7 06 36 14 86 29 b2
       -6.835247e-13 -2.0901227e-07 2.0102557e-06 -9.8675805e-09
000320 65 2a 07 26 12 3d 0e 26 aa c4 b0 ab 94 e3 e7 b6
       4.689499e-16 4.934891e-16 -1.2560137e-12 -6.91083e-06
000330 6f d6 ba 37 ed 4b a7 38 c9 3e 76 ae af 69 45 b7
       2.2272781e-05 7.977323e-05 -5.598969e-11 -1.1766721e-05
000340 89 24 f1 b1 ed 72 92 31 74 72 e6 93 01 0b 1b 95
       -7.0181767e-09 4.262225e-09 -5.8173022e-27 -3.131068e-26
000350 6b ce c3 aa 6f 7d d4 ab 28 6f 2c ab e5 e3 44 ad
       -3.478219e-13 -1.5098321e-12 -6.1260936e-13 -1.1191913e-11
000360 9b 5b 51 ac b7 56 8e b6 19 64 e0 b2 67 72 8d b4
       -2.9751538e-12 -4.2420247e-06 -2.6122551e-08 -2.6346535e-07
000370 a8 ff ce 26 d9 a6 51 9f 9b a3 06 30 ce e5 24 ac
       1.4363417e-15 -4.4395485e-20 4.8981413e-10 -2.343337e-12
000380 09 51 b8 37 d0 f2 ba 28 2b 25 d0 b4 2b 09 30 2b
       2.1972244e-05 2.0755451e-14 -3.8770062e-07 6.2540484e-13
000390 5d e5 0b b6 78 11 7b b4 18 01 4f 1c 41 8c c6 aa
       -2.084612e-06 -2.3382552e-07 6.849197e-22 -3.5269186e-13
0003a0 d5 af 9f 98 dd 80 4a b6 eb 32 64 ad 15 13 7a ad
       -4.127808e-24 -3.0175354e-06 -1.29716056e-11 -1.4215092e-11
0003b0 46 33 37 b6 c8 81 82 b4 8e c0 87 b6 1b 10 69 af
       -2.729897e-06 -2.4308815e-07 -4.04573e-06 -2.1196948e-10
0003c0 61 fe e2 b6 14 85 2f 30 cb 55 bc 37 7a d1 e9 a7
       -6.7649385e-06 6.3853745e-10 2.2451297e-05 -6.4897606e-15
0003d0 66 a7 b3 37 ae 27 34 a6 81 cb 4d b7 97 55 a5 8e
       2.1416414e-05 -6.250382e-16 -1.2266334e-05 -4.075806e-30
0003e0 a6 a2 8e 37 15 e3 fc b4 f0 4c 5a a8 a1 84 32 0f
       1.7003458e-05 -4.7103882e-07 -1.2118114e-14 8.801621e-30
0003f0 32 29 a6 a8 93 6e 98 b2 aa c6 a5 37 e0 86 93 37
       -1.8447568e-14 -1.7745412e-08 1.9762043e-05 1.7586572e-05

bias f4 [32]
000000 8e ae 5a b8 71 f9 f5 ba 1c 59 ae 3d cb 83 aa 38
       -5.2137817e-05 -0.0018766356 0.0851309 8.13078e-05
000010 4b 0c 0d 3e d3 e1 ba ba a6 2e 31 b8 1c 10 25 b5
       0.1377422 -0.0014257975 -4.2243533e-05 -6.149073e-07
000020 ed e0 b7 b8 9d 15 ca 3e 64 6f 0d b7 f4 07 be 3e
       -8.768016e-05 0.39469615 -8.43019e-06 0.37115443
000030 23 91 b3 b6 9d 3b ae 3e 9c 80 a6 3e b8 21 8d 3c
       -5.351512e-06 0.34029856 0.32519996 0.017227992
000040 56 d3 aa 3e 66 52 92 ba 14 e5 d1 3e 1a 42 eb 3e
       0.33364362 -0.0011163473 0.40995085 0.4594887
000050 48 1f 3c bc 37 16 68 3e d3 5c 6d bc 07 70 9b 3e
       -0.011482067 0.22664724 -0.014487463 0.30358908
000060 28 ae d0 b8 c4 7c 71 b9 f0 34 88 b9 b5 15 46 3b
       -9.950652e-05 -0.0002303003 -0.00025979383 0.003022534
000070 0b df c9 3e f5 d0 dd b8 9c 43 e3 3e 83 15 f1 b8
       0.3942798 -0.000105770225 0.4438752 -0.000114957824

weight f4 [1, 32]
000000 59 51 ac 38 46 98 72 3b ce 6e 43 bd 7a aa aa 38
       8.216751e-05 0.0037017032 -0.047713093 8.1379854e-05
000010 4a e7 c9 bd d6 5a ef ba 0a 9f de 37 f7 0b cc b3
       -0.09858568 -0.0018261324 2.653852e-05 -9.501667e-08
000020 2b f6 38 38 63 90 ce be d5 77 40 37 e7 3e bb be
       4.409828e-05 -0.40344533 1.1471992e-05 -0.36571428
000030 27 4a 0b 35 f2 2b a6 be e3 d2 9d be 49 12 9c 3c
       5.188944e-07 -0.32455403 -0.30824956 0.019051688
000040 58 48 a3 be af d2 0a ba ab ae d4 be 29 52 f5 be
       -0.3189113 -0.00052956765 -0.4153951 -0.47914246
000050 69 c3 1d bc ea e7 47 be 00 c3 8d 3c f3 1a 93 be
       -0.009629109 -0.19522062 0.017304897 -0.28731498
000060 6c 01 60 3a c3 7c b1 39 50 79 19 38 83 47 1c 3c
       0.0008545134 0.00033853026 3.6591024e-05 0.009538534
000070 c8 79 cf be a7 74 95 b8 82 7e fa be 89 e5 48 39
       -0.405226 -7.126602e-05 -0.48924643 0.00019158995
