ckpt/real-best.pt (torch, 140172 bytes, 17 tensors)

weight f4 [256, 7]
-0.0070311064 0.15764476 -0.24369024 -0.210958 -0.081537716 0.040236328 -0.00037235336 0.23348847
-0.03230332 0.038679622 -0.051976677 -0.018041788 -0.29321402 -0.18347938 -0.091334835 -0.0040146867
0.08504311 0.16028649 -0.18929659 -0.099615395 0.07349194 0.27613285 -0.07057104 0.21699469
-0.007985389 0.0019998995 0.2745364 -0.28275687 -0.17236704 -0.04575586 -0.08312827 0.25891054
-0.17821755 -0.10870944 -0.19702223 -0.28671286 -0.15643668 0.25723568 0.10354166 0.11762601
0.00048829993 -0.12794791 0.015114641 -0.28533944 -0.20592803 -0.12899753 0.17179734 0.15520446
-0.10254052 -0.016934132 0.19866267 0.30753624 0.08558148 0.0020059769 0.18647088 -0.15617067
0.015550271 -0.2255991 -0.1949442 -0.12938726 0.10583227 0.08751572 -0.15743639 0.07417281
0.16503003 -0.0041704946 -0.00020451868 0.028163008 0.16782905 0.29500413 -0.22522879 -0.08175745
0.084066905 0.24561922 0.26121846 0.26579377 0.018244514 -0.26228586 0.008518055 -0.16989249
-0.28441268 0.26807603 0.2200821 -0.30904734 0.012798007 -0.017837768 -0.009049685 -0.10776337
0.081125595 -0.15742207 0.074696034 0.1536329 0.24117178 0.079428256 -0.30610606 -0.1781448
0.12309164 0.021483062 -0.22666803 -0.15026027 0.28777862 0.18775979 -0.09976996 -0.034789212
-0.2921599 0.0045100213 -0.2166543 -0.22413874 -0.00053778006 0.0056885644 -0.09017226 0.15782508
-0.18389784 0.28673753 0.19170363 -0.25115436 -0.034914855 0.0005159132 0.0043676677 0.08156459
0.13663164 0.005602319 -0.11889649 0.11312039 -0.29478204 -0.1577583 -0.034108963 -0.11875977
-0.06854363 -0.24227321 -0.022257848 0.022715364 -0.17941935 -0.021985734 0.23029616 -0.0064048455
-5.1119523e-06 -0.0009234898 0.018988261 0.17354585 0.3172924 0.22394544 0.2905769 0.00025672853
-0.27232587 -0.11397864 0.1902999 0.004952313 -0.12137696 -0.22226404 -0.28587428 -0.2513979
-0.019361712 0.14115256 0.14324929 -0.29751134 0.16927877 -0.22837317 -0.021822866 -0.08869194
-0.01635443 -0.018675651 -0.27128583 -0.25864848 -0.0069368337 0.00033696962 -0.106477246 0.07833914
-0.27229595 0.004055557 0.26471728 -0.08958795 0.2735523 0.07312033 -0.27333778 0.18997209
-0.050658673 -0.10442076 0.23478925 -0.23804185 -0.001119028 -0.021521071 0.22509679 0.089338936
0.11785666 0.06993192 -0.030564236 -0.021466535 -0.24390927 0.17538914 0.27364096 0.19148132
-0.19956349 -0.002537875 -0.19949618 -0.14206025 -0.17119172 0.11869624 -0.15853006 0.00015901438
0.0009693875 0.1769035 -0.21840875 -0.19173221 -0.15225264 0.19759569 -0.07214634 0.2512452
0.07293178 0.0012909637 -0.00036315544 -0.021579856 0.0011592351 -0.0272447 0.00046885872 0.0013914953
-0.22826129 -0.15968134 0.26312214 -0.23990972 0.00022686606 0.30580327 0.07268892 0.0005880985
-0.25809312 0.1509738 -0.20177366 -0.045616325 -0.06336709 -0.0049557993 0.00045258962 0.24402687
0.018607566 0.27048862 0.16462003 -0.17242526 0.10433065 -0.20012721 -0.124937914 0.08409045
0.06163854 0.21628925 -0.059251748 0.0003224398 0.1286978 -0.29582298 0.22234575 -0.24472295
-0.0002848945 -0.00992816 -0.13309601 0.0021179693 0.26569948 -0.107650205 -0.1588718 -0.075878136
00000000: 3265 e6bb a16d 213e ef89 79be 6005 58be
00000010: 3ffd a6bd d9ce 243d 6c38 c3b9 9a17 6f3e
00000020: 7c50 04bd 866e 1e3d 7fe5 54bd 5fcc 93bc
00000030: 2620 96be 05e2 3bbe c20d bbbd a28d 83bb
00000040: 152b ae3d 2422 243e f7d6 41be 2803 ccbd
00000050: f182 963d 4961 8d3e 8d87 90bd db33 5e3e
00000060: 26d5 02bc bf10 033b 0990 8c3e 82c5 90be
00000070: fc80 30be 7f6a 3bbd 283f aabd ec8f 843e
00000080: a97e 36be 0ea3 debd 32c0 49be 07cc 92be
00000090: f030 20be 65b4 833e a60d d43d e8e5 f03d
000000a0: 4101 003a c704 03be 66a3 773c 0318 92be
000000b0: ccde 52be ee17 04be a4eb 2f3e ebed 1e3e
000000c0: c400 d2bd 73b9 8abc 3a6e 4b3e 6475 9d3e
000000d0: 5845 af3d b576 033b 39f2 3e3e 34eb 1fbe
000000e0: 90c6 7e3c 7303 67be 749f 47be 187e 04be
000000f0: 97be d83d 713b b33d 0137 21be eae7 973d
00000100: a2fd 283e a5a8 88bb 1174 56b9 1cb6 e63c
00000110: 61db 2b3e c80a 973e 60a2 66be 7370 a7bd
00000120: 452b ac3d 9b83 7b3e 6dbe 853e 1f16 883e
00000130: 8575 953c 554a 86be 508f 0b3c 4cf8 2dbe
00000140: 8a9e 91be 4341 893e 345d 613e 743b 9ebe
00000150: bbae 513c 8320 92bc 2145 14bc 0bb3 dcbd
00000160: 2d25 a63d 4033 21be 3cfa 983d f151 1d3e
00000170: bcf5 763e 48ab a23d efb9 9cbe 976b 36be
00000180: 7817 fc3d 3ffd af3c aa1b 68be d4dd 19be
00000190: b857 933e 1a44 403e 3154 ccbd 227f 0ebd
000001a0: fb95 95be cdc8 933b a0da 5dbe a084 65be
000001b0: cff9 0cba 2367 ba3b 3cac b8bd e69c 213e
000001c0: b74f 3cbe 43cf 923e f54d 443e 4e97 80be
000001d0: e102 0fbd 593e 073a a71e 8f3b 560b a73d
000001e0: 2ae9 0b3e a893 b73b 0180 f3bd aaab e73d
000001f0: aced 96be 648b 21be d7b5 0bbd 5338 f3bd
00000200: 9a60 8cbd 7816 78be 1756 b6bc 9215 ba3c
00000210: b5b9 37be 6d1b b4bc c2d2 6b3e bddf d1bb
00000220: 5687 abb6 5a16 72ba 458d 9b3c 01b6 313e
00000230: 2674 a23e f451 653e 7fc6 943e 8599 8639
00000240: 4c6e 8bbe a26d e9bd fadd 423e 0347 a23b
00000250: 7c94 f8bd 2f99 63be 1d5e 92be 3ab7 80be
00000260: 749c 9ebc 4c8a 103e f1af 123e 6853 98be
00000270: 6a57 2d3e a8da 69be dec5 b2bc 1fa4 b5bd
00000280: baf9 85bc aefd 98bc fae5 8abe 936d 84be
00000290: 614e e3bb 4cab b039 be10 dabd 4570 a03d
000002a0: 606a 8bbe 7ae4 843b 0689 873e e379 b7bd
000002b0: 0c0f 8c3e 1dc0 953d eef2 8bbe 0b88 423e
000002c0: 787f 4fbd 8dda d5bd 986c 703e 3ec1 73be
000002d0: 59ac 92ba f54c b0bc c67f 663e 55f7 b63d
000002e0: d55e f13d 7738 8f3d d961 fabc 96da afbc
000002f0: 5ac3 79be 3699 333e ab1a 8c3e ae13 443e
00000300: 5f5a 4cbe 7a52 26bb ba48 4cbe 3e78 11be
00000310: e24c 2fbe 0417 f33d b455 22be 19bd 2639
00000320: 7e1e 7e3a 3126 353e 8ba6 5fbe 7355 44be
00000330: 1ee8 1bbe 8656 4a3e 76c1 93bd 36a3 803e
00000340: 425d 953d 8e35 a93a e665 beb9 3dc8 b0bc
00000350: 7af1 973a 4730 dfbc 27d1 f539 d662 b63a
00000360: 54bd 69be 8183 23be f2b7 863e e5aa 75be
00000370: e5e2 6d39 3f92 9c3e eedd 943d 9f2a 1a3a
00000380: c824 84be e098 1a3e c19d 4ebe 2fd8 3abd
00000390: 9bc6 81bd 4264 a2bb 8d49 ed39 2ee2 793e
000003a0: e56e 983c 7c7d 8a3e 2792 283e 3f90 30be
000003b0: 4fab d53d 26ee 4cbe 73df ffbd 9d37 ac3d
000003c0: b278 7c3d ee7a 5d3e f6b1 72bd 230d a939
000003d0: 5bc9 033e 1c76 97be 9bae 633e a798 7abe
000003e0: e45d 95b9 b9a9 22bc 524a 08be a1cd 0a3b
000003f0: c309 883e b677 dcbd 4aaf 22be ff65 9bbd

bias f4 [256]
0.2333049 0.13232154 0.0868017 -0.037106004 0.13473791 0.116225846 0.067433074 0.0001773628
0.0053879856 0.00063973415 -0.20715606 0.028394535 -0.21066946 0.118150204 -0.15869437 -0.060457893
-0.11406698 0.23055129 -0.19907914 0.1270037 0.12348256 0.20018457 0.03454805 0.13996725
0.23137358 0.017616715 0.06577953 -0.22849368 -0.040163755 -0.0010467428 0.0005412305 -0.07036108
-0.30666253 -0.037980564 0.08039572 0.2578797 -0.27361774 0.11497975 -0.2907408 -0.29354748
-0.17002389 -0.0020938427 0.044006385 -0.22015944 0.22364788 0.27403814 0.00044626553 0.24018268
-0.10613686 -0.08513559 -0.0019745636 -0.000566189 -0.19753633 -0.23518966 0.08497714 0.046768036
0.3018188 -0.08959262 0.06954436 -0.08795425 0.12096571 -0.0005675462 0.2129613 0.14381394
0.24701709 0.12822047 -0.00020939339 0.25812212 -0.15564412 0.28860036 0.30122104 0.29329118
-0.11121132 -0.13414237 -0.000497558 0.054764967 0.12388677 0.0891777 0.2542163 -0.03441886
-0.06099496 0.06330733 0.043551367 -0.1540635 -0.00040667306 -0.21967314 -0.048616312 -0.08397083
0.2636367 -0.272479 -0.15664774 -0.3019332 0.03448951 -0.22348243 0.05957837 -0.1955326
-0.17554806 -0.12724768 0.0056108683 0.27935082 0.28617775 0.0003856159 -0.30234104 -0.061786573
-0.079897106 -0.023845412 0.08025924 0.1244481 0.102083616 0.045786 -0.08844093 5.1439794e-05
0.0015089039 -0.12764499 0.0011981863 -0.0030391228 -0.28923696 0.18943839 0.001077407 -0.2590833
0.23138288 -0.1374606 0.07022134 0.30678052 7.662624e-05 0.046916474 0.08592216 0.218489
-0.053576156 -0.14691475 -0.0012279897 0.22827403 -0.0010319325 0.19557546 -0.00055765436 0.053604446
-0.00011475233 0.00023067665 -0.29179737 -0.26274925 -0.0008327949 0.121400334 0.18687505 7.661257e-06
0.094599776 0.093143545 -0.25876218 -0.26486135 -0.22569776 0.000813197 -0.17230883 -0.05848108
-0.005420213 0.08383593 0.027825521 0.2827203 0.27298132 -0.17440528 0.00016765442 0.009018309
0.26227924 -0.05445347 -0.08422601 -0.1727062 0.21133259 -0.045470152 -0.07835305 0.18873705
0.28018877 -8.150707e-05 -0.19969957 0.24028414 -0.06594385 -0.10865454 -0.19865109 -0.116279036
-0.2286065 -0.15180244 -0.2765311 -0.018835079 0.08753653 -0.21972288 0.00043510692 -0.07516912
0.11731188 0.25973365 -0.0019840433 -0.124643 -0.2230687 -0.1556268 0.047354806 0.027028933
0.13750494 -0.009998316 0.12849604 -0.26885885 0.04050487 0.2988801 -0.30609202 -0.13047455
0.17525521 -0.006808144 -0.13578203 0.16401981 9.853361e-05 -0.00031651594 -0.05240768 0.21735178
0.14347388 0.012545338 0.005632202 0.1294163 0.16874439 -0.09041279 -0.0007137483 0.10088679
-0.11760963 0.28549182 -0.19193865 0.10910358 -0.20435515 0.058610212 0.19697706 0.0005030454
0.0013644389 0.17355618 -0.2042401 -0.1880826 -0.2545275 -0.16606264 -0.0010854575 -0.10612495
0.025190152 -0.00066721154 0.24697322 -0.098928876 -0.04217826 0.18315014 -0.034771007 0.2938942
-0.085661575 -0.00044072146 -0.03008927 0.111022376 0.08075111 -0.13533805 0.18219914 -0.00032636613
-0.035159267 1.892816e-05 0.19578795 0.30280104 0.11833517 0.01165712 0.17965539 -0.09330035
00000000: 7be7 6e3e 4c7f 073e 17c5 b13d 77fc 17bd
00000010: bcf8 093e d107 ee3d 5a1a 8a3d 77fa 3939
00000020: b38d b03b d5b3 273a b820 54be a89b e83c
00000030: bcb9 57be bcf8 f13d c780 22be b2a2 77bd
00000040: f39b e9bd a315 6c3e 67db 4bbe 420d 023e
00000050: 6de4 fc3d 2ffd 4c3e 4282 0d3d 9353 0f3e
00000060: 32ed 6c3e ee50 903c 6bb7 863d 3ffa 69be
00000070: c082 24bd dc32 89ba 5de1 0d3a 7819 90bd
00000080: df02 9dbe 8291 1bbd 83a6 a43d cf08 843e
00000090: a017 8cbe 817a eb3d fadb 94be db4b 96be
000000a0: be1a 2ebe da38 09bb 0a40 343d 7a71 61be
000000b0: f303 653e ba4e 8c3e bff8 e939 73f2 753e
000000c0: 485e d9bd 915b aebd ae67 01bb 4d6c 14ba
000000d0: f746 4abe 8fd5 70be 7f08 ae3d d78f 3f3d
000000e0: fe87 9a3e 567c b7bd 466d 8e3d 5c21 b4bd
000000f0: dfbc f73d 61c7 14ba 8712 5a3e f643 133e
00000100: 0cf2 7c3e 3a4c 033e 9c90 5bb9 9528 843e
00000110: 2c61 1fbe 6dc3 933e a539 9a3e 432a 963e
00000120: c3c2 e3bd 9e5c 09be 8d6e 02ba 3b51 603d
00000130: 59b8 fd3d cca2 b63d a428 823e cafa 0cbd
00000140: dad5 79bd 46a7 813d eb62 323d d2c2 1dbe
00000150: bc36 d5b9 fff1 60be e621 47bd e6f8 abbd
00000160: 64fb 863e 5e82 8bbe 4468 20be fd96 9abe
00000170: df44 0d3d 94d8 64be 7308 743d b339 48be
00000180: dfc2 33be 374d 02be 60db b73b 1207 8f3e
00000190: e485 923e 7d2c ca39 72cc 9abe eb13 7dbd
000001a0: 18a1 a3bd 7457 c3bc f55e a43d a5de fe3d
000001b0: 3711 d13d 1a8a 3b3d 8520 b5bd 0fc1 5738
000001c0: 6ac6 c53a 5eb5 02be 760c 9d3a 052c 47bb
000001d0: de16 94be 23fc 413e c837 8d3a 91a6 84be
000001e0: a2ef 6c3e 79c2 0cbe 35d0 8f3d 5612 9d3e
000001f0: 66b2 a038 7d2b 403d f5f7 af3d 95bb 5f3e
00000200: ac72 5bbd d270 16be 7ff4 a0ba abc0 693e
00000210: e941 87ba ef44 483e 8d2f 12ba 5690 5b3d
00000220: 30a7 f0b8 cbe1 7139 7766 95be 1287 86be
00000230: eb4f 5aba bda0 f83d 2c5c 3f3e d988 0037
00000240: 87bd c13d 0bc2 be3d 7a7c 84be e89b 87be
00000250: 501d 67be ba2c 553a ba71 30be db89 6fbd
00000260: 0b9c b1bb 2cb2 ab3d 59f2 e33c b7c0 903e
00000270: 35c4 8b3e 4c97 32be 64cc 2f39 88c1 133c
00000280: 7749 863e 9a0a 5fbd b07e acbd e5d9 30be
00000290: 9267 583e e93e 3abd 9077 a0bd 4944 413e
000002a0: e774 8f3e c6ee aab8 0b7e 4cbe 0c0d 763e
000002b0: 920d 87bd 4586 debd 316b 4bbe b423 eebd
000002c0: d317 6abe 1972 1bbe 7c95 8dbe 064c 9abc
000002d0: 5a46 b33d 09ff 60be 101f e439 45f2 99bd
000002e0: 3641 f03d cffb 843e b906 02bb d444 ffbd
000002f0: 1f6c 64be a25c 1fbe 1df7 413d c86b dd3c
00000300: 18ce 0c3e facf 23bc 7794 033e dea7 89be
00000310: 6fe8 253d d006 993e 18b8 9cbe 1f9b 05be
00000320: 1a76 333e da16 dfbb 720a 0bbe cff4 273e
00000330: d4a3 ce38 0df2 a5b9 6fa9 56bd 7791 5e3e
00000340: d1ea 123e f68a 4d3c 568e b83b b585 043e
00000350: 54cb 2c3e 572a b9bd d61a 3bba bc9d ce3d
00000360: 51dd f0bd fc2b 923e 918b 44be b371 df3d
00000370: 7a42 51be 4311 703d 5bb4 493e cede 033a
00000380: f9d6 b23a b6b8 313e 5124 51be ba98 40be
00000390: 6e51 82be 530c 2abe e945 8eba 0a58 d9bd
000003a0: 945b ce3c cfe7 2eba 8ce6 7c3e 399b cabd
000003b0: 1cc3 2cbd b68b 3b3e 0b6c 0ebd 4d79 963e
000003c0: 566f afbd a210 e7b9 c67d f6bc b35f e33d
000003d0: d760 a53d 0f96 0abe 6992 3a3e 1f1c abb9
000003e0: 2a03 10bd eac7 9e37 a37c 483e bd08 9b3e
000003f0: b659 f23d 81fd 3e3c 95f7 373e 4114 bfbd

weight f4 [32, 256]
-0.011582551 -0.004951859 0.00011034745 0.0063894684 -0.0016289387 -0.0037499862 -0.005504265 0.0030898484
0.001406053 0.037711155 -0.005525413 -0.00015389119 1.3359855e-06 0.019198298 -0.0041610976 -0.005060838
0.014618931 0.03803245 -0.010724322 -0.010348262 -0.030003352 -0.0016157854 -0.005501189 -0.004400044
-0.0032275494 0.008309237 0.032784153 -0.020221682 0.009871755 -0.0033374948 -3.332262e-05 -0.009494037
0.009674797 -0.022123259 0.0006164719 0.021419764 0.0013061318 -0.0043321736 0.0041630333 -0.002405196
-0.003046096 -0.000558021 -0.0060282103 -0.006081297 0.0086667705 -0.0028523977 0.0006420065 -0.0046381876
0.020004805 -0.001900885 -0.023087451 0.0031513784 -0.045515336 -0.003117022 -0.0023020601 -0.009096033
-0.0027862422 0.039984692 0.008131054 -0.0033670913 -0.0016557777 -0.0033126874 -0.0029160255 -0.0018905398
-0.005647299 0.030296868 -0.0047038496 0.00199833 0.000232431 -0.005199109 0.007444257 0.003656227
-0.0019321 -0.001396462 -0.0068515115 0.0031098553 -0.0048648813 -0.0035480072 0.0014708801 -0.0005591867
-0.0010065928 -0.031727985 -0.010726845 -0.0055701756 -0.037991643 -0.004710255 -0.01706439 -0.0003774455
0.024398642 -0.008171051 0.031222213 -0.0043246998 -0.018129088 0.040077526 -0.000598925 -0.01703065
-0.0018900931 0.002778503 -0.005501207 -0.008057809 -0.0033250705 -0.002322133 0.015459115 -0.00013682587
-0.0027635547 0.0040101614 0.0013249719 -0.007716806 0.019692661 -0.040174894 -0.0036839368 -0.004302695
-0.0014653502 0.0016241637 -7.579398e-05 0.010571525 -0.006858019 -0.0100789275 -0.0007750841 -0.005278211
0.0011911625 0.018496871 -0.005991283 -0.018270135 0.018117152 0.011431717 0.00015284804 -0.002745756
-0.0023402767 -0.005067906 -0.012809039 0.009901205 -0.004741907 -0.005682759 -0.005009542 -0.009841043
-0.00525441 -0.0013952869 -0.0018006539 -0.0017584376 -0.005707945 -0.0014356718 -0.009180452 2.5353735e-05
-0.001554975 -0.016984569 0.011687372 0.013673046 -0.0021237659 -0.0005384326 -0.002375117 -0.023012053
-0.0047000707 -0.012535429 0.028563501 0.018390082 -0.020505419 0.00042752599 -0.016288118 -0.0054812836
-0.0057745585 -0.00049947645 -0.0027664436 -0.0014006337 -0.0026161536 -0.0068034925 0.036035452 -0.0031323584
0.013244653 -0.0042642066 -0.01733621 -0.011869293 0.0011599142 0.010356101 0.0049200575 -0.0032491097
-0.00047067684 -0.011196602 0.00029739694 0.0040345807 0.0074097216 -0.01773499 -0.00056043785 0.0061857486
-0.00490695 0.0053775636 -0.043873835 0.034667034 0.0070949243 -0.0042756395 0.006059467 0.008390795
-0.0002146527 -0.0380268 -0.02269663 -0.024417398 -0.0018103091 0.029951815 -0.0010800406 -0.00013986854
-0.00421283 0.0059197815 0.00045249055 0.0059224474 0.00012502632 7.722173e-05 -0.005290911 0.010369801
-0.0020600362 -0.0016450527 -0.0017062561 0.036905054 0.004216012 -0.023513332 0.026972972 -0.0008871082
-0.0044719507 -0.023033252 -0.002433626 -0.0014147748 -0.0021971916 -0.003714413 0.013849408 -0.0025890584
0.010189652 0.01084497 0.0104320105 0.019700266 -0.0010080339 0.0011431655 0.0043862197 -0.0052711843
0.018204195 0.00056081783 -0.0031434384 -0.0018732559 -0.0050839414 -0.0071207196 -0.03104229 0.011683523
-0.004192094 -0.0036637608 0.0153865665 0.009483666 0.020102484 0.008858408 7.822158e-05 0.0019295281
-0.0007003105 -0.0004969585 0.031158416 -0.008889283 -0.0014731181 -0.007413397 -0.015429689 -0.0028013934
00000000: bdc4 3dbc 3443 a2bb 566a e738 bf5e d13b
00000010: 1d82 d5ba 54c2 75bb 1f5d b4bb 0e7f 4a3b
00000020: 4f4b b83a 0377 1a3d 860e b5bb da5d 21b9
00000030: 1d50 b335 c045 9d3c d159 88bb 63d5 a5bb
00000040: 3e84 6f3c eac7 1b3d 11b5 2fbc c28b 29bc
00000050: 97c9 f5bc c3c8 d3ba 5143 b4bb 3f2e 90bb
00000060: 4b85 53bb 7723 083c ad48 063d f1a7 a5bc
00000070: 24bd 213c dfb9 5abb e4c3 0bb8 e18c 1bbc
00000080: 0a83 1e3c d63b b5bc bb9a 213a 8078 af3c
00000090: 8332 ab3a e8f4 8dbb 0e6a 883b 7ea0 1dbb
000000a0: 03a1 47bb 2848 12ba 4b88 c5bb 9e45 c7bb
000000b0: 12ff 0d3c 4bef 3abb 544c 283a f0fb 97bb
000000c0: 1ee1 a33c 1e27 f9ba e521 bdbc 5b87 4e3b
000000d0: 4a6e 3abd f446 4cbb 29de 16bb 8707 15bc
000000e0: 6399 36bb fdc6 233d 1d38 053c 6baa 5cbb
000000f0: ae06 d9ba ac19 59bb ca1a 3fbb fdcb f7ba
00000100: fa0c b9bb 2331 f83c c022 9abb 6af6 023b
00000110: b9b8 7339 4a5d aabb f4ee f33b 4f9d 6f3b
00000120: 853e fdba 7d09 b7ba a582 e0bb b7ce 4b3b
00000130: 9569 9fbb af85 68bb 8cca c03a 6296 12ba
00000140: a6ef 83ba 34f5 01bd a6bf 2fbc 0586 b6bb
00000150: 209d 1bbd 7c58 9abb 9fca 8bbc e1e3 c5b9
00000160: a9df c73c dfdf 05bc bac5 ff3c 36b6 8dbb
00000170: 7483 94bc 5528 243d 2d01 1dba dd83 8bbc
00000180: 00bd f7ba 8c17 363b 7843 b4bb e704 04bc
00000190: 6de9 59bb ed2e 18bb 3a48 7d3c ea78 0fb9
000001a0: c11c 35bb ac67 833b aeaa ad3a 43dd fcbb
000001b0: 8152 a13c 6e8e 24bd 346e 71bb 9ffd 8cbb
000001c0: fe10 c0ba e4e1 d43a 95f3 9eb8 3134 2d3c
000001d0: 3cb9 e0bb 1622 25bc 032f 4bba d8f4 acbb
000001e0: c820 9c3a c086 973c 8652 c4bb 40ab 95bc
000001f0: 6c6a 943c 194c 3b3c d545 2039 24f2 33bb
00000200: 545f 19bb ad10 a6bb 01dd 51bc aa38 223c
00000210: 0062 9bbb 7036 babb 1627 a4bb 533c 21bc
00000220: 302d acbb 0fe2 b6ba eb03 ecba 607b e6ba
00000230: b709 bbbb 272d bcba 9b69 16bc bbae d437
00000240: 4ed0 cbba 3923 8bbc 647c 3f3c e904 603c
00000250: e12e 0bbb 9a25 0dba daa7 1bbb c683 bcbc
00000260: 0d03 9abb 6661 4dbc 01fe e93c cca6 963c
00000270: fbfa a7bc 9125 e039 a96e 85bc 579c b3bb
00000280: 8238 bdbb 4cef 02ba 394d 35bb 7895 b7ba
00000290: c673 2bbb d5ef debb e999 133d 4148 4dbb
000002a0: 1a00 593c c2ba 8bbb ab04 8ebc 6c77 42bc
000002b0: 4308 983a a3ac 293c 6f38 a13b 04ef 54bb
000002c0: 2dc5 f6b9 f471 37bc f1eb 9b39 8434 843b
000002d0: 40cd f23b f848 91bc 59ea 12ba d2b1 ca3b
000002e0: 7bca a0bb 4636 b03b 0db5 33bd 05ff 0d3d
000002f0: 8a7c e83b aa1a 8cbb 7e8e c63b 8c79 093c
00000300: 6514 61b9 fdc1 1bbd 48ee b9bc ff06 c8bc
00000310: e547 edba 825d f53c 2690 8dba ada9 12b9
00000320: c80b 8abb bafa c13b 413c ed39 1711 c23b
00000330: 7f19 0339 1af2 a138 615f adbb 19e6 293c
00000340: ac01 07bb cf9e d7ba 74a4 dfba c129 173d
00000350: 7926 8a3b 089f c0bc 6cf6 dc3c d38c 68ba
00000360: 7189 92bb 3bb0 bcbc 787d 1fbb f76f b9ba
00000370: c2fe 0fbb 826d 73bb a1e8 623c 31ad 29bb
00000380: 80f2 263c 1aaf 313c 06eb 2a3c 7462 a13c
00000390: 0120 84ba 45d6 953a 47ba 8f3b e6b9 acbb
000003a0: f720 953c d903 133a 2502 4ebb 0a88 f5ba
000003b0: 3197 a6bb ed54 e9bb 674c febc 3f6c 3f3c
000003c0: d55d 89bb b51b 70bb f017 7c3c 6161 1b3c
000003d0: f7ad a43c db22 113c e40a a438 38e8 fc3a
000003e0: 0b95 37ba 5246 02ba ef3f ff3c 5ba4 11bc
000003f0: a415 c1ba 15ec f2bb cecc 7cbc 9597 37bb

bias f4 [32]
0.00073846406 -0.00033331529 -0.0032482361 -0.00113976 0.011717531 -0.0037980701 -0.00044660122 0.0008550504
-0.003663425 0.0019000564 0.00014511483 -2.0202093e-05 -0.00054459175 0.00024174707 -0.00037069712 -0.006237535
0.002324531 0.002260619 0.006861143 -0.0067979526 0.00029153834 -0.0001163167 -0.005967402 -0.007814355
-0.00040480887 -0.0027862445 0.00051554904 -0.00066854834 -6.383735e-05 0.00030546464 0.0003052304 -0.0003334292
00000000: 7c95 413a d2c0 aeb9 5ce0 54bb 0064 95ba
00000010: e3fa 3f3c 0be9 78bb cd25 eab9 7625 603a
00000020: 1316 70bb 500b f93a f729 1839 aa77 a9b7
00000030: efc2 0eba 7c7d 7d39 205a c2b9 3c64 ccbb
00000040: 2957 183b e526 143b 70d3 e03b 5cc1 debb
00000050: 9dd9 9839 0eef f3b8 328a c3bb c807 00bc
00000060: 873c d4b9 6d99 36bb e925 073a 8541 2fba
00000070: 6be0 85b8 c526 a039 5507 a039 1cd0 aeb9

weight f4 [10, 32]
-0.03477271 0.07732316 0.014801522 -0.046542797 0.13623114 -0.0017539357 0.06816933 -0.06501537
-0.13754484 -0.14492075 -0.0289707 0.10438276 0.08240755 0.019005703 0.025678474 -0.11269241
-0.031197907 -0.0006386503 -0.14946336 -0.14971486 -0.104134865 0.057009056 -0.01790969 -0.029649768
0.06848476 -0.11020482 -0.105072446 -0.03152066 0.07216215 0.007677243 -0.10635704 0.07742997
-0.074387096 0.1210643 0.053057864 0.039993435 0.13305324 0.04819628 -0.13270918 0.065966524
0.15368657 -0.078210935 0.09071672 0.1325433 -0.02920553 0.005380423 -0.010523012 0.1445495
0.0519542 0.0707349 -0.16256139 -0.078094974 -0.09686727 0.028043557 -0.075667284 0.043293074
0.06973418 -0.054437295 0.012748145 -0.08499672 -0.0073942095 0.020722652 0.092873625 0.047399934
0.019652687 0.08685197 0.07941584 0.010012422 0.16175976 -0.053968653 0.026221324 -0.006740952
0.11845498 -0.1300118 0.040727105 -0.13357791 -0.05393522 -0.030866498 -0.053988516 -0.07914397
-0.08914458 -0.09138926 -0.032375745 0.13487099 -0.024576582 -0.10793576 -0.044569407 -0.1360527
-0.014246103 0.1354822 -0.16182013 0.054864097 0.09968334 0.06957404 -0.060543958 0.00707036
0.057746656 -0.1297445 0.07572416 -0.007774658 -0.13978808 -0.017439831 -0.0032396459 -0.05380513
-0.056685686 -0.0038314639 0.026491838 0.07431275 -0.12476116 -0.0060335016 0.013660378 0.13876301
0.04206631 0.06120617 0.05414427 -0.00832484 -0.065460585 -0.061406232 0.059651084 -0.030944
0.10150344 -0.09415824 0.120069176 0.056688674 0.06430335 0.07883185 -0.055834845 0.04823505
-0.11832973 -0.095202796 -0.017930232 0.117967136 -0.040679958 -0.077489205 -0.103953965 0.009844219
0.0055826455 0.01984437 -0.017249458 0.04737031 0.025343994 -0.012324831 0.07840443 -0.12750277
-0.052310947 0.013227307 -0.058041584 -0.0076883375 -0.038932182 0.08497615 0.14531578 0.13524388
0.040713828 -0.10830899 -0.066758536 -0.039806608 -0.01583217 -0.033713996 0.06589079 -0.1064715
0.012253822 0.11348836 -0.08950553 -0.028448919 0.08691026 -0.022339566 -0.05957324 0.085350335
-0.12461499 0.15280452 0.111279204 0.003993648 0.034700982 -0.044079185 0.0379327 -0.13685058
-0.02723428 0.08421008 0.04401076 0.115125306 0.0936093 0.15621492 0.03569032 -0.13184468
-0.1069582 0.0971943 0.13439822 0.12906443 -0.08052216 0.11370667 -0.0401362 0.026978787
0.062246814 -0.10745615 -0.111064024 0.07645724 -0.14788705 0.02578871 0.04547536 0.093401454
-0.0042833574 -0.02139114 0.0053551486 -0.024094587 -0.12732008 -0.0010199203 -0.054750793 0.10533044
-0.034198064 0.0009821964 -0.12888329 0.127694 0.049571313 0.12575957 0.07839491 -0.10127351
0.1054234 -0.02783829 0.13685817 -0.003265094 0.062313538 -0.018314134 0.014897564 4.913296e-05
-0.091971785 0.116443664 -0.045645513 -0.09759957 0.12492421 -0.09874078 0.041614614 0.121566415
-0.03543749 -0.15256055 -0.08829817 -0.011021651 -0.025214141 0.07390181 0.108865604 -0.110993795
-0.01662498 -0.07565667 0.029292844 0.11016115 -0.028779928 -0.0031065396 -0.021244556 -0.15228397
0.12863658 0.024106186 0.15117387 -0.10294227 -0.039604876 -0.01532485 0.032000747 -0.014507854
00000000: d46d 0ebd 9b5b 9e3d 1582 723c a9a3 3ebd
00000010: 2d80 0b3e 51e4 e5ba 5d9c 8b3d c726 85bd
00000020: 8ed8 0cbe 1b66 14be f653 edbc a1c6 d53d
00000030: 4ac5 a83d d9b1 9b3c aa5b d23c 47cb e6bd
00000040: c192 ffbc 196b 27ba ec0c 19be da4e 19be
00000050: a944 d5bd 5482 693d 58b7 92bc 12e4 f2bc
00000060: bd41 8c3d 11b3 e1bd 3930 d7bd cf1b 01bd
00000070: c0c9 933d 6291 fb3b b8d1 d9bd 9b93 9e3d
00000080: 4358 98bd 8ff0 f73d 3453 593d 28d0 233d
00000090: 1c3f 083e 7669 453d eae4 07be 7519 873d
000000a0: 0360 1d3e 0e2d a0bd b0c9 b93d 6eb9 073e
000000b0: 7040 efbc 424e b03b b668 2cbc c904 143e
000000c0: edcd 543d 76dd 903d 7e76 26be 42f0 9fbd
000000d0: 5962 c6bd 9abb e53c 73f7 9abd 1454 313d
000000e0: cbd0 8e3d a4f9 5ebd 98dd 503c c312 aebd
000000f0: 204b f2bb 8dc2 a93c 8734 be3d 6f26 423d
00000100: acfe a03c 72df b13d c6a4 a23d 240b 243c
00000110: 5aa4 253e 3c0e 5dbd 1ace d63c 34e3 dcbb
00000120: 8698 f23d d021 05be 77d1 263d a6c8 08be
00000130: 2deb 5cbd bddb fcbc 1023 5dbd 3c16 a2bd
00000140: 6f91 b6bd 4b2a bbbd 6e9c 04bd 9f1b 0a3e
00000150: d454 c9bc 6c0d ddbd 698e 36bd 6651 0bbe
00000160: 7d68 69bc d9bb 0a3e 2db4 25be 2db9 603d
00000170: c726 cc3d d67c 8e3d f1fc 77bd 7aae e73b
00000180: c287 6c3d bedb 04be 4515 9b3d 8fc2 febb
00000190: 9b24 0fbe fadd 8ebc 3d50 54bb c562 5cbd
000001a0: 402f 68bd 4c19 7bbb 6905 d93c 4831 983d
000001b0: c782 ffbd aeb4 c5bb c7cf 5f3c e417 0e3e
000001c0: b94d 2c3d 52b3 7a3d 62c6 5d3d e964 08bc
000001d0: 3310 86bd 1a85 7bbd b254 743d 467e fdbc
000001e0: 09e1 cf3d 09d6 c0bd d4e6 f53d 6232 683d
000001f0: 7ab1 833d 9872 a13d 14b3 64bd 1e92 453d
00000200: dc56 f2bd aff9 c2bd 6ce2 92bc c198 f13d
00000210: 07a0 26bd a9b2 9ebd d1e5 d4bd a649 213c
00000220: a0ee b63b a990 a23c bc4e 8dbc 5f07 423d
00000230: 359e cf3c 17ee 49bc 8092 a03d 1690 02be
00000240: 0144 56bd 59b7 583c 03bd 6dbd 73ee fbbb
00000250: 5a77 1fbd fa07 ae3d a9cd 143e 5f7d 0a3e
00000260: 8bc3 263d 1bd1 ddbd b3b8 88bd 410c 23bd
00000270: 78b2 81bc b017 0abd c0f1 863d bb0d dabd
00000280: 41c4 483c 966c e83d ad4e b7bd b50d e9bc
00000290: 02fe b13d 7701 b7bc 1203 74bd 28cc ae3d
000002a0: 2536 ffbd ca78 1c3e 5ae6 e33d 26dd 823b
000002b0: 9e22 0e3d 608c 34bd 525f 1b3d 8f22 0cbe
000002c0: 6d1a dfbc 5676 ac3d a044 343d d1c6 eb3d
000002d0: 3cb6 bf3d cef6 1f3e 0330 123d 4b02 07be
000002e0: e70c dbbd ce0d c73d b09f 093e 7729 043e
000002f0: cde8 a4bd 0bdf e83d db65 24bd 9e02 dd3c
00000300: 84f6 7e3d f811 dcbd 8975 e3bd 9d95 9c3d
00000310: b46f 17be d842 d33c 5f44 3a3d 4349 bf3d
00000320: 685b 8cbb 793c afbc 3e7a af3b 0362 c5bc
00000330: 3260 02be d9ae 85ba 5e42 60bd 7cb7 d73d
00000340: 4513 0cbd 0bbd 803a fbf9 03be 37c2 023e
00000350: 4a0b 4b3d 1ec7 003e 838d a03d 7c68 cfbd
00000360: 39e8 d73d 200d e4bc 8c24 0c3e 30fb 55bb
00000370: 7b3c 7f3d 8607 96bc ea14 743c 1d14 4e38
00000380: b45b bcbd 047a ee3d caf6 3abd 49e2 c7bd
00000390: 44d8 ff3d 9b38 cabd 1674 2a3d d0f7 f83d
000003a0: e726 11bd d538 1cbe acd5 b4bd 2894 34bc
000003b0: e38d cebc d559 973d eef4 de3d b750 e3bd
000003c0: 1c31 88bc e2f1 9abd 8cf7 ef3c 2b9c e13d
000003d0: e2c3 ebbc 1697 4bbb 1009 aebc 54f0 1bbe
000003e0: 4fb9 033e 567a c53c 53cd 1a3e 66d3 d2bd
000003f0: b938 22bd 1415 7bbc 3713 033d 5ab2 6dbc

bias f4 [10]
-0.09330335 -0.041975 -0.095692664 0.041858416 -0.008859993 -0.0395539 0.0908134 0.007973764
0.0022254242 -0.07849085
00000000: d415 bfbd faed 2bbd 84fa c3bd bb73 2b3d
00000010: 8129 11bc 4503 22bd 60fc b93d 64a4 023c
00000020: 6cd8 113b d0bf a0bd

bias f4 [64]
-0.0021015992 -0.0017627027 0.0010780505 0.0013903506 0.00014566189 0.001141337 -2.4337189e-05 -0.0005593933
-0.0020651233 -0.002482539 -0.0009788824 -0.00040869886 0.0012990606 -0.0031194875 -0.0015578476 -0.00069393497
0.001965896 -0.0010623287 0.0023146742 -0.0024469178 -0.001405651 -0.004239305 0.00012747246 0.002505217
-0.002057234 0.0012525881 0.0017996492 0.002477324 0.0010301314 0.0016712636 0.0011077295 0.002484853
0.0024172787 0.0013336459 -0.002541825 -0.00052595214 -0.0019353203 0.00048675615 0.0006989521 0.00071613817
0.00056070747 0.0017517094 -0.0021182727 0.0008561038 0.0018420991 0.0024610376 0.0011046323 0.00026683652
0.0005137812 0.0023295581 0.0020503155 -0.0005659493 -0.00095653505 -0.00028109865 -0.00079021964 -0.00095898384
-0.00021123199 0.0009949175 -0.001010181 -0.0016629366 -0.00056814187 -0.0008995711 -0.0016821541 0.0023298692
00000000: fcba 09bb 7d0a e7ba 5f4d 8d3a 6d3c b63a
00000010: d1bc 1839 ea98 953a b727 ccb7 40a4 12ba
00000020: 0557 07bb 18b2 22bb d84d 80ba a246 d6b9
00000030: 3e45 aa3a 5170 4cbb b130 ccba 30e9 35ba
00000040: 43d6 003b d63d 8bba cab1 173b 785c 20bb
00000050: d23d b8ba dee9 8abb 21aa 0539 912e 243b
00000060: a9d2 06bb e22d a43a 35e2 eb3a 9a5a 223b
00000070: 7905 873a 4d0e db3a 3c31 913a ead8 223b
00000080: 356b 1e3b bbcd ae3a bf94 26bb 0de0 09ba
00000090: 93aa fdba 4e33 ff39 e239 373a 38bb 3b3a
000000a0: 71fc 123a 9d99 e53a b8d2 0abb 276c 603a
000000b0: 9772 f13a 5c49 213b 4fc9 903a 31e6 8b39
000000c0: 46af 063a 80ab 183b 965e 063b 375c 14ba
000000d0: fbbf 7aba 6c60 93b9 be26 4fba 5164 7bba
000000e0: 287e 5db9 e467 823a 0d68 84ba e5f6 d9ba
000000f0: 5bef 14ba 32d1 6bba ba7b dcba b8b0 183b

weight f4 [64, 1]
0.16183096 0.1308559 -0.0014115841 0.07878619 -0.08027317 -0.18051814 -0.0013559874 -0.113931604
0.2164402 -0.1802769 0.21533924 -0.0031506757 0.010374417 0.19701262 -0.076772 -0.050502166
0.061930176 -0.019866098 0.0045540608 0.12504691 -0.0019390895 0.1401083 -0.069521375 0.06170022
-0.0020184002 -0.1669969 0.0015508202 0.05775216 -0.12161236 0.1899114 -0.10533797 0.10116789
0.0015057352 -0.11114801 0.16114393 -0.013376481 -0.001485683 -0.028297393 -0.233879 0.11584029
-0.07401664 0.115749486 0.08229922 0.09909057 0.04696484 0.03848421 -0.1893531 -0.00069671235
-0.06250766 0.16283692 0.0552257 -0.00048533658 -0.20789838 -0.21205327 -0.18727545 0.14731903
0.12470429 -0.20207508 -0.19451186 0.1859516 0.05800336 -0.12566847 0.0006649616 0.12317942
00000000: 04b7 253e 17ff 053e e704 b9ba a75a a13d
00000010: 4266 a4bd bfd9 38be 63bb b1ba f954 e9bd
00000020: 80a2 5d3e 829a 38be e481 5c3e 917b 4ebb
00000030: 75f9 293c adbd 493e a33a 9dbd 5cdb 4ebd
00000040: 7faa 7d3d 3abe a2bc 3b3a 953b 4c0c 003e
00000050: 0c29 feba 8d78 0f3e 3961 8ebd 5fb9 7c3d
00000060: 2347 04bb 3c01 2bbe e444 cb3a 878d 6c3d
00000070: e70f f9bd 2278 423e 6fbb d7bd 1c31 cf3d
00000080: 175c c53a 91a1 e3bd ea02 253e 0729 5bbc
00000090: 40bb c2ba efcf e7bc fa7d 6fbe ad3d ed3d
000000a0: 0996 97bd 110e ed3d 7e8c a83d ffef ca3d
000000b0: 345e 403d 9ea1 1d3d c7e5 41be 93a3 36ba
000000c0: 0404 80bd b9be 263e 5834 623d c674 feb9
000000d0: 50e3 54be 7e24 59be 23c5 3fbe cdda 163e
000000e0: f664 ff3d c5ec 4ebe 1e2e 47be 196a 3e3e
000000f0: ee94 6d3d 3caf 00be d150 2e3a 7e45 fc3d

bias f4 [64]
-0.001139161 -0.0034880203 0.0001957945 -0.0066750436 0.0021660347 -0.005786327 -0.0017020117 -0.0044470495
-0.004224707 -0.002526459 -0.0019405809 0.00093705475 0.00051142345 -0.0004962143 0.0001543518 0.0008427993
-0.0024694242 0.001566268 0.0006936874 -7.9467725e-05 -0.00014206614 -0.0060567246 -0.0032995073 -0.0008551867
-0.0009013717 0.0020577917 -0.0013682648 0.003468523 -0.004319087 0.0007402449 0.0015163542 -0.00050088804
-0.0016822148 0.0014841069 -0.0016717672 0.0012216555 0.001096118 0.00047628075 7.3383555e-05 0.0018819536
0.001121017 -0.0017582575 0.0035332358 -0.00086307584 0.0036639394 0.00065126165 0.0019833643 -0.00032043803
0.00014576218 -0.0002958548 9.01461e-05 -0.0005119314 -0.00072458776 0.0010409856 7.4777367e-06 0.0018118444
-0.0016394045 -0.00024259892 0.0020775243 -0.0029121719 0.003270261 -0.0010493994 -0.0010765714 -0.0003642509
00000000: e64f 95ba 4597 64bb 304e 4d39 53ba dabb
00000010: 08f4 0d3b 3b9b bdbb 0916 dfba 8eb8 91bb
00000020: 696f 8abb f392 25bb 175b feba aea4 753a
00000030: 0c11 063a 6114 02ba 7fd9 2139 4eef 5c3a
00000040: 10d6 21bb 3c4b cd3a 93d8 353a e9a7 a6b8
00000050: 97f7 14b9 7d77 c6bb 8c3c 58bb 9c2e 60ba
00000060: 084a 6cba 04dc 063b 5957 b3ba 2950 633b
00000070: 2187 8dbb ff0c 423a 67c0 c63a 074e 03ba
00000080: c37d dcba 5d86 c23a 331f dbba f51f a03a
00000090: 9eab 8f3a 52b5 f939 7fe5 9938 e2ab f63a
000000a0: 17ef 923a 5575 e6ba dc8d 673b 0a40 62ba
000000b0: b41e 703b 6eb9 2a3a 55fb 013b 7700 a8b9
000000c0: bdd7 1839 f61c 9bb9 d20c bd38 2233 06ba
000000d0: 43f2 3dba ae71 883a 45e9 fa36 697b ed3a
000000e0: 49e1 d6ba 2762 7eb9 1327 083b 23da 3ebb
000000f0: e051 563b 008c 89ba be1b 8dba eef8 beb9

weight f4 [64, 64]
0.031627774 -0.0008303901 0.14729318 0.0006075911 0.039988063 -0.1441602 0.0008673819 0.00051556074
0.111527756 0.054486506 0.14412129 -0.0002499713 -0.015093775 -0.0013026462 0.00038729157 0.010522092
-0.0008884353 -0.03671203 0.033609044 -0.00038218754 -0.089090325 -0.0011336053 -0.08874474 -0.0011262823
0.0070343083 -0.15006939 0.08698678 -0.037504762 0.0010003364 -0.0023870869 0.10302783 -0.07038442
-0.14768402 -0.13317356 0.037753686 -0.019226458 -0.0009948906 0.043491207 0.001221163 0.14926115
0.02775491 -0.14111064 -0.105780825 -0.12875418 -0.08305102 -0.0036218155 -0.022993555 -0.13858148
0.030970886 -0.001063872 0.00023927122 0.0249992 -0.00656367 0.0004889227 -0.032123502 0.05298778
0.10582687 -0.0007414491 0.1096838 0.015677886 -0.008145392 0.09565637 -0.00025398066 -0.00023550213
-0.00050779834 0.1101154 -0.074138135 -0.022705387 -0.06909361 -0.0783479 0.04946035 -0.035650723
-0.0021177 0.11614721 0.049575888 0.0003842923 0.11083247 -0.020234114 0.10997347 0.13332257
-0.14452906 0.025080515 0.030901538 0.011389543 0.119830646 0.13320428 -0.004573784 -0.001549293
-0.014157102 -0.11527786 3.201275e-05 0.009777334 -0.018852439 0.036532596 -0.1249975 -0.07798585
-0.080327205 0.0014556522 0.0744296 0.05472547 0.10690234 0.13252933 -0.10912086 0.011446293
-0.05953478 -0.096339054 0.1354227 -0.114770524 -0.124678545 -0.105812386 0.07274725 -0.098651245
0.027997969 -0.10250019 0.0046234736 0.032190993 -0.09535449 -2.3465082e-05 -0.08432172 0.12589161
-0.0026017253 -0.09414263 0.00049453176 0.021625062 -0.09653193 0.09628722 -0.0011785089 -0.11349636
0.08032258 0.013509959 0.052548815 0.00021302552 -0.050080158 -0.051645957 0.021077517 0.09133781
0.015153368 -0.046744402 0.1479312 -0.00095319434 -0.07209761 0.057128012 0.05511344 0.00044426342
-0.015933132 -0.068404004 0.06927757 0.14651315 -0.005867044 0.040328525 0.06515294 0.017978676
-0.12420607 0.0775289 0.00038581277 -0.1377278 -0.03144346 0.00084343523 0.07911164 -0.14424896
0.0051874486 -0.10660926 0.088081226 -0.08501701 -0.09453956 -0.017233161 -0.018067585 -0.005576611
-0.11499062 -0.053099208 -7.7732366e-05 0.0463884 0.00085355877 0.096996985 -0.03330663 -0.00010411684
0.056245223 -0.0181305 -0.1371151 -0.1334813 -0.07737502 -0.0006863156 -0.12828949 0.00017844269
-0.14945884 -0.013644898 -0.020958556 -0.13480176 0.12134541 0.0053350716 -0.041176807 0.14201717
0.11555091 -0.0018136731 -0.00022913703 0.10181881 0.0006701239 0.00083554623 -0.0004446077 0.012344253
0.055308428 0.12371109 -0.07852572 -3.3540804e-05 0.0022608396 0.025390027 0.06827499 0.06944957
-0.14299941 0.017449604 -0.00053434353 -0.0021826592 -0.12216717 0.0982349 0.017203037 -0.11996487
0.1152927 0.10440065 -0.1286142 -0.0100561995 -0.14430875 -0.0032018495 -0.00020561762 -0.1430597
-0.069944784 0.00020056838 0.14908725 0.0667675 0.13872163 -0.00023127082 -0.11217271 0.048755817
-0.0012395274 -0.0022608421 0.14696313 -0.063341625 -0.0011763765 -0.13179712 -0.016118484 0.0010675977
-0.0010732791 0.10898605 0.14329909 0.11316499 0.0009238389 0.10273946 -0.021762608 -0.022960234
-0.01832598 -0.065802455 -0.006675942 -0.000836585 -0.051959366 0.0024527176 0.014432358 -0.0657339
00000000: 208c 013d 89ae 59ba 06d4 163e c046 1f3a
00000010: 86ca 233d bb9e 13be 0461 633a b226 073a
00000020: aa68 e43d 3e2d 5f3d 8894 133e 940e 83b9
00000030: e14b 77bc 8ebd aaba 650d cb39 da64 2c3c
00000040: e2e5 68ba 5b5f 16bd a3a9 093d 5860 c8b9
00000050: fd74 b6bd 7b95 94ba cdbf b5bd c39f 93ba
00000060: 0e80 e63b caab 19be 2026 b23d 989e 19bd
00000070: b81d 833a ac70 1cbb 4100 d33d b525 90bd
00000080: 7b3a 17be a65e 08be 9ca3 1a3d ce80 9dbc
00000090: fd66 82ba d623 323d 6e0f a03a ead7 183e
000000a0: 445e e33c 4f7f 10be 9ea3 d8bd 23d8 03be
000000b0: a716 aabd fb5b 6dbb fb5c bcbc 4ee8 0dbe
000000c0: a8b6 fd3c 9f71 8bba e1e4 7a39 1fcb cc3c
000000d0: 0e14 d7bb 0c2b 003a ef93 03bd b709 593d
000000e0: c2bb d83d cf5d 42ba e6a1 e03d e96e 803c
000000f0: 4074 05bc 7de7 c33d b528 85b9 1ff1 76b9
00000100: c51d 05ba 2f84 e13d bcd5 97bd a600 babc
00000110: f380 8dbd dd74 a0bd f096 4a3d 7e06 12bd
00000120: 1cc9 0abb 97de ed3d 1610 4b3d d77a c939
00000130: 22fc e23d 03c2 a5bc c539 e13d b685 083e
00000140: 6dff 13be a775 cd3c 3925 fd3c 359b 3a3c
00000150: c569 f53d b466 083e aedf 95bb a611 cbba
00000160: 31f3 67bc cc16 ecbd 6e45 0638 1c31 203c
00000170: 6e70 9abc 34a3 153d b0fe ffbd 0cb7 9fbd
00000180: 9782 a4bd 95cb be3a 8c6e 983d d027 603d
00000190: 9def da3d c5b5 073e c27a dfbd 3c89 3b3c
000001a0: beda 73bd 694d c5bd 40ac 0a3e cf0c ebbd
000001b0: 7757 ffbd 2ab4 d8bd 83fc 943d aa09 cabd
000001c0: ff5b e53c 9feb d1bd 8280 973b b4da 033d
000001d0: 3749 c3bd e1d6 c4b7 deb0 acbd bbe9 003e
000001e0: b581 2abb dacd c0bd 77a3 013a 0b27 b13c
000001f0: 88b2 c5bd 3c32 c53d 3278 9aba c870 e8bd
00000200: 2a80 a43d e058 5d3c 6d3d 573d 9a5f 5f39
00000210: da20 4dbd b68a 53bd c2aa ac3c 510f bb3d
00000220: d545 783c 0f77 3fbd 477b 173e cadf 79ba
00000230: e9a7 93bd 10ff 693d a1be 613d 07ec e839
00000240: 3386 82bc 6617 8cbd 66e1 8d3d 8b07 163e
00000250: 5540 c0bb 862f 253d e86e 853d 0448 933c
00000260: c15f febd 79c7 9e3d ea46 ca39 8408 0dbe
00000270: dcca 00bd fb19 5d3a 4905 a23d 00b6 13be
00000280: 79fb a93b f555 dabd ee63 b43d 661d aebd
00000290: f59d c1bd 8f2c 8dbc 7902 94bc 01bc b6bb
000002a0: 3480 ebbd 8e7e 59bd 3f04 a3b8 c301 3e3d
000002b0: 5cc1 5f3a 5ba6 c63d 886c 08bd 4e59 dab8
000002c0: 6461 663d 6a86 94bc e767 0cbe 52af 08be
000002d0: cb76 9ebd dce9 33ba 525e 03be 581c 3b39
000002e0: bd0b 19be da8e 5fbc 47b1 abbc 7909 0abe
000002f0: f183 f83d d3d1 ae3b 03a9 28bd f36c 113e
00000300: f5a5 ec3d c5b8 edba 8144 70b9 6186 d03d
00000310: 41ab 2f3a 8f08 5b3a 3c1a e9b9 8d3f 4a3c
00000320: 178b 623d 3d5c fd3d 18d2 a0bd 2aae 0cb8
00000330: 982a 143b bffe cf3c c2d3 8b3d 933b 8e3d
00000340: 706e 12be 79f2 8e3c 3013 0cba f20a 0fbb
00000350: c832 fabd 612f c93d 62ed 8c3c 24b0 f5bd
00000360: 941e ec3d 02d0 d53d 71b3 03be c2c2 24bc
00000370: acc5 13be 1fd6 51bb 0f9b 57b9 3e7e 12be
00000380: 363f 8fbd aa4f 5239 54aa 183e 66bd 883d
00000390: 0b0d 0e3e 4a81 72b9 ceba e5bd 2eb4 473d
000003a0: a377 a2ba a32a 14bb 817d 163e 41b9 81bd
000003b0: a530 9aba d3f5 06be e90a 84bc a2ee 8b3a
000003c0: 45ad 8cba 1434 df3d ffbc 123e 0cc3 e73d
000003d0: c72d 723a 1169 d23d 7f47 b2bc 1a17 bcbc
000003e0: 5e20 96bc 70c3 86bd dcc1 dabb 454e 5bba
000003f0: 58d3 54bd c6bd 203b b275 6c3c 7f9f 86bd

bias f4 [10]
-0.0077918144 0.002295148 0.008630143 0.0029186308 0.0023505979 0.0076672854 -0.0016954902 -0.001353942
0.0015074129 -0.0037706494
00000000: 7a52 ffbb 326a 163b 7165 0d3c 8046 3f3b
00000010: 7d0c 1a3b da3d fb3b 363b deba c176 b1ba
00000020: 6294 c53a 001d 77bb

weight f4 [10, 64]
0.011857058 -0.00024383339 -0.18964645 0.14304176 -0.19857329 0.031333365 -0.15574744 -0.0048439265
0.0681822 0.042283706 0.15013011 -0.043842163 0.028137334 0.064008825 -0.19620712 -0.10009184
0.083705746 0.0021283492 -0.0009320446 -0.017666461 0.05047233 0.13433202 0.14540337 0.09581767
0.021966808 -0.15607423 0.09897085 -0.06093835 0.09807799 -0.13330363 0.03310087 0.000112081085
0.14002484 -0.0020181446 0.07643498 -0.19832434 0.027268095 -0.2127964 -0.1934645 -0.21543051
-0.1391462 -0.056160092 0.018951643 -0.0013132273 -0.024440326 0.0444758 -0.1961132 0.19080067
-0.08786963 -0.05616859 0.0001809693 -0.047277268 0.04542495 0.00047894873 0.0745989 0.00021496472
-0.047673877 -0.0010095304 0.047973476 0.08897524 -0.0016880818 0.110821374 -0.08638329 -0.017181529
-0.21596685 -0.14907555 -0.17707956 -0.12850817 0.034547187 -0.101144135 -0.20991968 -0.19847035
-0.16804245 0.021968473 -0.042123448 0.0005002343 0.054438468 0.16494107 -0.109996945 0.1388089
0.06663213 -0.0007585728 -0.045247212 0.024596728 -0.00042371824 0.041982677 -0.17053251 -0.0525223
0.0011557983 -0.20971902 -0.13653062 0.023391094 -0.19359279 0.09748301 0.1950606 -7.616251e-05
-0.0030890598 0.001260326 -0.032768995 0.2061564 -0.094445914 -0.14950128 -0.056078985 0.0009810983
-0.101075046 -0.015775383 -0.027301809 0.16751379 -0.061504647 0.00013489624 0.0012212583 0.0005335947
-0.14239882 0.04419643 0.11836057 -0.00031969286 -0.01066256 0.03973541 -0.0001652325 0.0014005243
0.021975989 0.08060602 0.070251085 -0.08600545 0.015769046 -0.057039004 0.0052786637 -0.039668903
0.00039905586 0.019404437 0.00028918515 -0.17199214 -0.13985439 -0.02851264 -0.107868925 -0.20177497
-0.15348461 -0.0576386 -0.11451304 0.073737286 0.055736393 -0.20822798 0.00021208632 -1.3158605e-05
0.00016158752 0.07682408 -0.053134244 0.21480194 0.09239242 -0.21061201 0.002491595 0.07078313
-0.00013219388 0.024675073 -0.0004020191 0.08070428 -0.13405614 -0.0011815511 0.20232482 0.10346985
-0.20334531 0.08194304 -0.0011747311 -0.026079193 0.11575177 0.114301585 0.08833415 -0.1223605
-0.14048226 -0.00051555625 0.1736073 -0.08348841 0.12770987 -0.0004066371 -0.008593378 -0.09610159
0.10525595 0.042625405 -0.18258378 0.13363014 -0.055301446 -0.18716884 0.0004240462 0.15716104
0.1878752 -0.09237945 0.016831221 0.04480187 0.08324224 -0.13309087 -0.18505484 -0.10763352
0.001984435 -0.0876379 0.1236295 -0.2009654 0.1184002 -0.01920177 0.14820229 -0.2036033
0.002048276 -0.12609564 -0.21111424 0.05524133 0.18192767 -0.04235977 -0.038575273 -0.06515885
-0.18603858 0.13882005 -0.0009743134 -0.00042371466 0.06276845 0.0015666686 -0.02597291 -0.16356918
-0.046011113 0.08893989 0.054463424 0.07291729 -0.1224275 -0.20710722 -0.0023844857 -0.1847938
0.0038364737 0.06869546 0.06663742 -0.1543568 0.0101224575 0.110250086 -0.015397564 0.20083968
0.09587059 -0.12974353 0.011399429 0.17355986 -0.033995822 0.03735901 -0.00026132574 0.0492939
0.0009985082 -0.1502364 -0.001183307 0.08233518 -0.031596623 0.03965087 -0.00067251374 -0.08317437
-0.1184028 -0.08276325 0.121218204 0.0003858306 0.059083547 0.008607869 -0.08257682 0.0016604556
00000000: 1b44 423c 87ad 7fb9 ae32 42be 8a79 123e
00000010: cc56 4bbe 6a57 003d 427c 1fbe cdb9 9ebb
00000020: 1ca3 8b3d ae31 2d3d b5bb 193e d793 33bd
00000030: 4480 e63c 0f17 833d 85ea 48be f3fc ccbd
00000040: eb6d ab3d c67b 0b3b 7454 74ba 41b9 90bc
00000050: 13bc 4e3d 558e 093e 9fe4 143e 0e3c c43d
00000060: bcf3 b33c ecd1 1fbe 3bb1 ca3d 7e9a 79bd
00000070: 1ddd c83d bf80 08be c794 073d 130d eb38
00000080: ac62 0f3e d942 04bb f189 9c3d 8915 4bbe
00000090: 5761 df3c 4de7 59be 8f1b 46be d199 5cbe
000000a0: 577c 0ebe 2008 66bd 7a40 9b3c 9920 acba
000000b0: 1437 c8bc 422c 363d e6d1 48be 4061 433e
000000c0: fef4 b3bd 0911 66bd 94c2 3d39 cfa5 41bd
000000d0: 830f 3a3d 691b fb39 4fc7 983d 2768 6139
000000e0: af45 43bd 3852 84ba d67f 443d a738 b63d
000000f0: a042 ddba 51f6 e23d b9e9 b0bd 47c0 8cbc
00000100: 6a26 5dbe 43a7 18be 5854 35be a597 03be
00000110: 5a81 0d3d a824 cfbd 2ff5 56be d03b 4bbe
00000120: 5213 2cbe 3af7 b33c a389 2cbd 2822 033a
00000130: dffa 5e3d 50e6 283e 1446 e1bd ec23 0e3e
00000140: 6d76 883d f5da 46ba 2455 39bd 147f c93c
00000150: 8026 deb9 07f6 2b3d 13a0 2ebe a021 57bd
00000160: 287e 973a 95c0 56be afce 0bbe ae9e bf3c
00000170: 303d 46be 2ca5 c73d f7bd 473e 70b9 9fb8
00000180: d371 4abb 8631 a53a c838 06bd aa1a 533e
00000190: dc6c c1bd dd16 19be 14b3 65bd 3298 803a
000001a0: 6f00 cfbd 603b 81bc 0ba8 dfbc bc88 2b3e
000001b0: 4cec 7bbd ef72 0d39 a112 a03a efe0 0b3a
000001c0: ffd0 11be 5107 353d 0767 f23d 739c a7b9
000001d0: 05b2 2ebc 99c1 223d 4342 2db9 cc91 b73a
000001e0: fd06 b43c c514 a53d cddf 8f3d a023 b0bd
000001f0: 162e 813c bba1 69bd a4f8 ac3b dc7b 22bd
00000200: 5f38 d139 0ef6 9e3c c69d 9739 b51e 30be
00000210: fd35 0fbe 5793 e9bc 62ea dcbd 199e 4ebe
00000220: 122b 1dbe 7416 6cbd d085 eabd 9303 973d
00000230: d84b 643d b739 55be 7d63 5e39 c7c3 5cb7
00000240: d26f 2939 f155 9d3d 4ba3 59bd 0af5 5b3e
00000250: 3d38 bd3d adaa 57be 074a 233b bff6 903d
00000260: 869d 0ab9 6123 ca3c 17c6 d2b9 4948 a53d
00000270: 0346 09be 47de 9aba 3d2e 4f3e 00e8 d33d
00000280: c139 50be c1d1 a73d 6ff9 99ba 08a4 d5bc
00000290: 440f ed3d f316 ea3d 89e8 b43d 2498 fabd
000002a0: 95da 0fbe 6526 07ba 1dc6 313e f9fb aabd
000002b0: 60c6 023e e831 d5b9 3dcb 0cbc e9d0 c4bd
000002c0: 6e90 d73d fa97 2e3d 3ef7 3abe 57d6 083e
000002d0: c583 62bd 30a9 3fbe 8452 de39 d3ee 203e
000002e0: 5b62 403e 7031 bdbd a1e1 893c 2a82 373d
000002f0: e87a aa3d f948 08be 047f 3dbe f76e dcbd
00000300: 4b0d 023b 807b b3bd 7731 fd3d e0c9 4dbe
00000310: ce7b f23d 084d 9dbc 57c2 173e 627d 50be
00000320: 5e3c 063b 371f 01be 552e 58be bc44 623d
00000330: 3f4b 3a3e 7081 2dbd 1b01 1ebd 0172 85bd
00000340: e680 3ebe d826 0e3e 1169 7fba 0526 deb9
00000350: bf8c 803d ad58 cd3a 24c5 d4bc ae7e 27be
00000360: 2676 3cbd 1e26 b63d 0a15 5f3d a955 953d
00000370: 45bb fabd ea13 54be 0845 1cbb 963a 3dbe
00000380: 596d 7b3b 35b0 8c3d 3379 883d b50f 1ebe
00000390: aad8 253c ccca e13d 1046 7cbc eba8 4d3e
000003a0: cd57 c43d 7ddb 04be acc4 3a3c adb9 313e
000003b0: 343f 0bbd c305 193d 8c02 89b9 67e8 493d
000003c0: 60e0 823a 92d7 19be 3219 9bba 599f a83d
000003d0: 766b 01bd f368 223d a24b 30ba 5357 aabd
000003e0: 2b7d f2bd c77f a9bd 4041 f83d 4e49 ca39
000003f0: 9701 723d 0508 0d3c 091e a9bd a5a3 d93a
