ckpt/real_only_GCN-last.pt (torch, 96866 bytes, 11 tensors)

bias f4 [64]
0	0xad0ae73f	-7.895739e-12
1	0xa983d96e	-5.855287e-14
2	0x80000162	-4.96e-43
3	0x9ee3c8ea	-2.4117656e-20
4	0xa04b7c70	-1.7235942e-19
5	0xb6846654	-3.945819e-06
6	0xafac2263	-3.131105e-10
7	0x267d7491	8.7934985e-16
8	0x80000160	-4.93e-43
9	0xb4ab87cb	-3.1950034e-07
10	0xb5f32d43	-1.8118084e-06
11	0xb643c7a9	-2.9173482e-06
12	0x9b9fce40	-2.643763e-22
13	0xa9ad02a7	-7.6832034e-14
14	0x80000161	-4.95e-43
15	0x203c4e23	1.5950073e-19
16	0xa02d359f	-1.4671412e-19
17	0xb403ac9f	-1.2263125e-07
18	0xac0e0440	-2.0181773e-12
19	0xafb93ffc	-3.3696768e-10
20	0x96555b90	-1.7234895e-25
21	0xb192ef83	-4.2763886e-09
22	0x8000015f	-4.92e-43
23	0xa2ff24f2	-6.9157006e-18
24	0x9a3e644e	-3.9372105e-23
25	0x2a04c822	1.179339e-13
26	0xaf0f2db5	-1.3022013e-10
27	0x81af81f8	-6.4471343e-38
28	0xabcb6651	-1.4452416e-12
29	0x9b885c54	-2.2558978e-22
30	0xa2632746	-3.0785028e-18
31	0x97dfa883	-1.4453576e-24
32	0x80000122	-4.06e-43
33	0x8122c695	-2.9897176e-38
34	0x8000015f	-4.92e-43
35	0x80000165	-5e-43
36	0xad822db6	-1.4799589e-11
37	0xb2d9c47f	-2.5351481e-08
38	0xae7c4e78	-5.736786e-11
39	0xaba67175	-1.18265e-12
40	0x0000017b	5.31e-43
41	0xb067d72c	-8.434309e-10
42	0xaa022eec	-1.1562599e-13
43	0x2fbdbc19	3.451255e-10
44	0x2bdbbb85	1.5612933e-12
45	0x2dff33dd	2.9013176e-11
46	0x00608b8b	8.866266e-39
47	0x80000165	-5e-43
48	0x214424f9	6.6456316e-19
49	0xb633bdac	-2.6783482e-06
50	0x80000161	-4.95e-43
51	0x80000162	-4.96e-43
52	0xa98b5d14	-6.1889865e-14
53	0x03192e52	4.501583e-37
54	0xa11fbae0	-5.411862e-19
55	0xa8fae666	-2.7855495e-14
56	0x920b12d8	-4.3883893e-28
57	0xa8404b22	-1.0674433e-14
58	0xad263e5f	-9.449857e-12
59	0xab28c54d	-5.99594e-13
60	0x8384f3a6	-7.814202e-37
61	0x8000015f	-4.92e-43
62	0xa67e4dae	-8.822923e-16
63	0x24a656d2	7.2138104e-17

weight f4 [64, 1]
0	0x2d1c2531	8.8758315e-12
1	0xa9ae0d70	-7.729483e-14
2	0x00000160	4.93e-43
3	0x1e9ad764	1.6394468e-20
4	0x20417fa8	1.6389974e-19
5	0x38736183	5.802653e-05
6	0xaeadd3be	-7.904742e-11
7	0x26624a7f	7.851046e-16
8	0x00000161	4.95e-43
9	0x35fda09d	1.8896714e-06
10	0x37dcffba	2.6345126e-05
11	0x38822677	6.206048e-05
12	0x1b4d9359	1.7004813e-22
13	0xa9cf6da4	-9.211666e-14
14	0x00000161	4.95e-43
15	0xa09bad1f	-2.6372583e-19
16	0xa052ed7d	-1.786627e-19
17	0x34abf5db	3.2030115e-07
18	0x2c20f1dc	2.2871626e-12
19	0xafc3df5c	-3.5629e-10
20	0x15f9caa1	1.0088999e-25
21	0xb192429e	-4.2567327e-09
22	0x8000015f	-4.92e-43
23	0xa3096141	-7.447379e-18
24	0x1a0450c1	2.7362193e-23
25	0x2a57805f	1.9140374e-13
26	0x2f319a9e	1.6152987e-10
27	0x0191990c	5.34842e-38
28	0x2bce3ba2	1.4653732e-12
29	0x1b3a4c3d	1.5410193e-22
30	0xa37c24fa	-1.36687775e-17
31	0x97cb9938	-1.3157245e-24
32	0x00000160	4.93e-43
33	0x00bc55b0	1.7295812e-38
34	0x80000160	-4.93e-43
35	0x80000164	-4.99e-43
36	0x2daa0c6d	1.933228e-11
37	0x33aa46d2	7.929124e-08
38	0xae855ef5	-6.0650075e-11
39	0xaba8b80b	-1.19882e-12
40	0x00000169	5.06e-43
41	0xb0503bd5	-7.5754986e-10
42	0xaa0071b3	-1.1408131e-13
43	0x2fc51506	3.584903e-10
44	0x2bb41ecc	1.2798317e-12
45	0x2e054e06	3.0309998e-11
46	0x002fa8be	4.376802e-39
47	0x8000015f	-4.92e-43
48	0x213c7fac	6.386585e-19
49	0x37c90d28	2.3967194e-05
50	0x00000162	4.96e-43
51	0x00000161	4.95e-43
52	0xa8eb83d3	-2.614741e-14
53	0x825392ed	-1.5543997e-37
54	0x20d951bd	3.681532e-19
55	0xa8912fef	-1.6119022e-14
56	0x11ae22c3	2.7473783e-28
57	0xa83716bf	-1.0163473e-14
58	0xad24ac85	-9.360628e-12
59	0x2b262757	5.902964e-13
60	0x83e1c729	-1.3270036e-36
61	0x00000164	4.99e-43
62	0xa63f7a85	-6.643248e-16
63	0x24a696f3	7.224674e-17

bias f4 [64]
0	0x378b8c38	1.6635386e-05
1	0x398cf6cc	0.0002688676
2	0xb97e6d95	-0.0002426415
3	0xb226facf	-9.719499e-09
4	0x3ca39a71	0.019971104
5	0xb0f5616f	-1.7853788e-09
6	0xb305ed05	-3.1182044e-08
7	0x3a9e6363	0.0012084063
8	0x9d0b8aeb	-1.8468316e-21
9	0xb1552fc1	-3.1022724e-09
10	0xb93d1707	-0.00018033023
11	0xad1f97ee	-9.071839e-12
12	0xb3696c20	-5.434788e-08
13	0x80002d88	-1.6334e-41
14	0xa75beedf	-3.0521848e-15
15	0x8279ba9b	-1.8347184e-37
16	0xa84c0f05	-1.1327532e-14
17	0xb3d866cd	-1.0076983e-07
18	0xac884eff	-3.874123e-12
19	0xb7f276ce	-2.890397e-05
20	0xa58a2a3c	-2.3967803e-16
21	0x3cfde6e3	0.030993884
22	0xb138ae01	-2.6874434e-09
23	0xa93363a0	-3.9832395e-14
24	0x2d958fff	1.7003286e-11
25	0xb8ddce27	-0.000105765
26	0xa68ce70f	-9.77708e-16
27	0x3864a0b8	5.4509117e-05
28	0x8adc64c2	-2.122313e-32
29	0xa920b44f	-3.568353e-14
30	0x8000011d	-4e-43
31	0xad46cc91	-1.130042e-11
32	0x3c0234a6	0.007947123
33	0xa9e7456e	-1.0270505e-13
34	0x925e07c4	-7.006042e-28
35	0x20ce48d3	3.4945948e-19
36	0x847b60ee	-2.9549416e-36
37	0xb2b70a61	-2.1308724e-08
38	0x399e953f	0.00030247305
39	0xb8b743c0	-8.7387394e-05
40	0x99f4e854	-2.5322845e-23
41	0xb22fc27d	-1.0230562e-08
42	0xba49fa01	-0.0007704795
43	0x2c5990af	3.091787e-12
44	0x352ce777	6.441182e-07
45	0x320b447d	8.106437e-09
46	0xb18603d9	-3.9003507e-09
47	0x8b8db434	-5.4582364e-32
48	0x34839261	2.4507156e-07
49	0xb89c9887	-7.46707e-05
50	0xab5516b3	-7.5704303e-13
51	0x875710d7	-1.6179751e-34
52	0x3a4c84bb	0.0007801761
53	0xba973d30	-0.0011538621
54	0xb6ff01f5	-7.59982e-06
55	0x805ed7c5	-8.70994e-39
56	0xa8731e7a	-1.3495818e-14
57	0x364a7008	3.0165556e-06
58	0xa5bb577e	-3.2498616e-16
59	0x36924b3b	4.359897e-06
60	0x8004ac4d	-4.29152e-40
61	0xa572bb8b	-2.1053696e-16
62	0xb706468d	-8.003449e-06
63	0x3b2170a5	0.0024633792

weight f4 [64, 64]
0	0x246a4284	5.0797003e-17
1	0x25ebbf3e	4.0895592e-16
2	0x00000185	5.45e-43
3	0x15134561	2.9741144e-26
4	0x972d6591	-5.602751e-25
5	0x31e7939e	6.739767e-09
6	0xab7f361f	-9.0669307e-13
7	0x211e4e20	5.363588e-19
8	0x0000016f	5.14e-43
9	0x2f3d5133	1.7218298e-10
10	0x3153df33	3.0831415e-09
11	0x31f1b0e7	7.0341346e-09
12	0x116946b4	1.8402246e-28
13	0x249303fd	6.3757844e-17
14	0x000005b4	2.046e-42
15	0x9ccc6bc9	-1.3527449e-21
16	0x99bbeacd	-1.9430182e-23
17	0x2d4322bf	1.1092182e-11
18	0x2306c63a	7.306131e-18
19	0xaaff0620	-4.530135e-13
20	0x0d4aac6e	6.245361e-31
21	0x295ac924	4.8580186e-14
22	0x0000015f	4.92e-43
23	0x1b8ac30c	2.295623e-22
24	0x913276e7	-1.4078364e-28
25	0x21de680c	1.5070846e-18
26	0x26bbcb73	1.3030877e-15
27	0x80007090	-4.038e-41
28	0x23b74ef4	1.9874338e-17
29	0x12e7d8cd	1.4631595e-27
30	0x9d6c4d19	-3.1274198e-21
31	0x1209878e	4.339666e-28
32	0x0000016f	5.14e-43
33	0x80000fe8	-5.706e-42
34	0x000001a1	5.84e-43
35	0x8000016b	-5.09e-43
36	0x24fdbc68	1.1004043e-16
37	0x2ccdb37a	5.8463763e-12
38	0xa9ab5666	-7.608913e-14
39	0x271f2763	2.2087034e-15
40	0x0000015f	4.92e-43
41	0xabfd6188	-1.8003802e-12
42	0xa27521cc	-3.3221583e-18
43	0xaf769be8	-2.2428959e-10
44	0xa82c63f8	-9.569595e-15
45	0xb4c83eb4	-3.7298526e-07
46	0x800041e9	-2.3644e-41
47	0x80000174	-5.21e-43
48	0x18fc9db3	6.529971e-24
49	0x312486b6	2.3941715e-09
50	0x8000018f	-5.59e-43
51	0x8000019d	-5.79e-43
52	0x25022d7a	1.129111e-16
53	0x80011cdf	-1.02192e-40
54	0x97c30e4c	-1.2605189e-24
55	0xa14a8843	-6.8620603e-19
56	0x8849af70	-6.0692463e-34
57	0x21b4b29f	1.2244555e-18
58	0xa6956585	-1.0366469e-15
59	0x2210351b	1.9543753e-18
60	0x004ef57e	7.251235e-39
61	0x0000015f	4.92e-43
62	0x21e1f31b	1.5310943e-18
63	0x1eba4389	1.9721448e-20
64	0xa67d82f1	-8.7954467e-16
65	0x27303499	2.445342e-15
66	0x80000168	-5.04e-43
67	0x15836a18	5.3077865e-26
68	0x993144b4	-9.16456e-24
69	0xb37e9ba1	-5.9280527e-08
70	0xacb9e229	-5.283125e-12
71	0xa1131b75	-4.9841876e-19
72	0x80000170	-5.16e-43
73	0xb09c2530	-1.1361063e-09
74	0xb2b085df	-2.0549974e-08
75	0xb35da918	-5.1609362e-08
76	0x12ff3352	1.6105414e-27
77	0x26a582ed	1.1484662e-15
78	0x8000016d	-5.11e-43
79	0x1d863c28	3.5531705e-21
80	0x1cef99c8	1.5855445e-21
81	0xaf0a25e4	-1.2564488e-10
82	0xa59064d1	-2.5048334e-16
83	0x2c804883	3.6460292e-12
84	0x0dc1b711	1.1938615e-30
85	0x2c1f6efa	2.2656863e-12
86	0x80000188	-5.5e-43
87	0x20251ba2	1.3985187e-19
88	0x8ffb04a4	-2.4752298e-29
89	0x2462c353	4.9171384e-17
90	0xa8ac9222	-1.9159211e-14
91	0x00001671	8.05e-42
92	0xa4eb361b	-1.0200666e-16
93	0x119bec36	2.4600264e-28
94	0x212ce4a3	5.8578465e-19
95	0x14cc4382	2.0625363e-26
96	0x00000169	5.06e-43
97	0x00015d73	1.25359e-40
98	0x0000016e	5.13e-43
99	0x800001b5	-6.12e-43
100	0xa763c45b	-3.1609023e-15
101	0xae0269d0	-2.9652558e-11
102	0x2b1ba6a8	5.5298344e-13
103	0xa7d659eb	-5.949442e-15
104	0x000001ac	6e-43
105	0x2d546fa2	1.2075592e-11
106	0x24a4adfb	7.14184e-17
107	0xacb2bc62	-5.079979e-12
108	0xa96d6dcc	-5.2719805e-14
109	0x2a7a58d0	2.2235274e-13
110	0x0007bc94	7.10498e-40
111	0x80000161	-4.95e-43
112	0x180d6ee8	1.8279816e-24
113	0xb299265b	-1.7828986e-08
114	0x00000164	4.99e-43
115	0x80000166	-5.02e-43
116	0xa601dba3	-4.505353e-16
117	0x800941d9	-8.50141e-40
118	0x180bab5f	1.805185e-24
119	0x25fe95ff	4.4163618e-16
120	0x07965d4d	2.2624329e-34
121	0x24452a05	4.2753158e-17
122	0x2a7155b4	2.1434834e-13
123	0xa41c0b20	-3.383653e-17
124	0x027f4a62	1.8755788e-37
125	0x00000163	4.97e-43
126	0x22ace1bf	4.685971e-18
127	0x9f90dc6f	-6.135105e-20
128	0x2642139a	6.7333836e-16
129	0x28b7815d	2.0373184e-14
130	0x0000017d	5.34e-43
131	0x986df80f	-3.075677e-24
132	0x1a8b8b87	5.771447e-23
133	0x32ec6a34	2.7522312e-08
134	0x2e2cbd6f	3.9276523e-11
135	0xa170f687	-8.164144e-19
136	0x00000161	4.95e-43
137	0x3110398f	2.0987476e-09
138	0x32db2c71	2.5515165e-08
139	0x337492ee	5.694431e-08
140	0x95c0f937	-7.7941374e-26
141	0x278174bb	3.593125e-15
142	0x800000b8	-2.58e-43
143	0x2091c990	2.4697338e-19
144	0xa091d13f	-2.4702423e-19
145	0x2f46d1a5	1.8082476e-10
146	0xa69e9809	-1.1004662e-15
147	0xac037a04	-1.8683952e-12
148	0x0faf22a4	1.7269675e-29
149	0xabebcd8a	-1.6754803e-12
150	0x000001bd	6.24e-43
151	0x9f41c961	-4.1035916e-20
152	0x93eb12e1	-5.9340956e-27
153	0xaa96e0c2	-2.680131e-13
154	0x290208d4	2.8873456e-14
155	0x000f2d33	1.393747e-39
156	0x259e33e1	2.7443785e-16
157	0x93cf247b	-5.229012e-27
158	0xa1170c99	-5.1177463e-19
159	0x934b6004	-2.5669542e-27
160	0x00000163	4.97e-43
161	0x80033350	-2.93914e-40
162	0x00000183	5.42e-43
163	0x8000019b	-5.76e-43
164	0xa8540887	-1.1770213e-14
165	0x2d88a39b	1.5534065e-11
166	0xb1dfd4bc	-6.5143393e-09
167	0xaaa8e029	-2.9998337e-13
168	0x0000014b	4.64e-43
169	0xae2f5540	-3.986611e-11
170	0xa23cb9a2	-2.5577024e-18
171	0xad5276e2	-1.1963515e-11
172	0xa7729cd1	-3.3669257e-15
173	0x2bb652ca	1.2954856e-12
174	0x8014c355	-1.906782e-39
175	0x80000164	-4.99e-43
176	0x9751869e	-6.7701453e-25
177	0x32cc65aa	2.3794957e-08
178	0x80000192	-5.63e-43
179	0x80000197	-5.7e-43
180	0x2854d21e	1.1813926e-14
181	0x8057cb0a	-8.062525e-39
182	0x985e54cf	-2.8735645e-24
183	0x228ba778	3.785334e-18
184	0x0c03869a	1.0132378e-31
185	0x271c5f46	2.1700997e-15
186	0x28140a25	8.21785e-15
187	0x2571d2f1	2.0974888e-16
188	0x852fe088	-8.2697e-36
189	0x80000162	-4.96e-43
190	0x248e56ac	6.172951e-17
191	0x1e0180e5	6.855858e-21
192	0x1d62a0a3	2.9993898e-21
193	0x9e9a7260	-1.6352689e-20
194	0x00000169	5.06e-43
195	0x0f97cc3a	1.4968415e-29
196	0x102114c4	3.176765e-29
197	0x2a26e20a	1.4822185e-13
198	0xa2ea10e6	-6.344372e-18
199	0x9981c666	-1.341842e-23
200	0x80000161	-4.95e-43
201	0x27aca65e	4.7919966e-15
202	0x29a84516	7.472683e-14
203	0x2a4b4edb	1.805738e-13
204	0x0c1a52ca	1.1888642e-31
205	0x1cdebcdd	1.4739548e-21
206	0x80000185	-5.45e-43
207	0x1882e95b	3.383984e-24
208	0x17a385b2	1.0567378e-24
209	0x26256590	5.738352e-16
210	0x1c961f23	9.934216e-22
211	0xa354b652	-1.1531151e-17
212	0x86f098c9	-9.0502464e-35
213	0x21728335	8.216644e-19
214	0x00000166	5.02e-43
215	0x979b953e	-1.0054314e-24
216	0x091854a6	1.8336136e-33
217	0x9ee013cf	-2.3725115e-20
218	0x1ec5bece	2.0937101e-20
219	0x80000575	-1.958e-42
220	0x1bf119f0	3.9886867e-22
221	0x0bc2aa1f	7.498205e-32
222	0x1a914e62	6.009723e-23
223	0x0a2739a4	8.0515985e-33
224	0x00000162	4.96e-43
225	0x8000083a	-2.951e-42
226	0x00000165	5e-43
227	0x800001c2	-6.3e-43
228	0x1e824bf1	1.3795694e-20
229	0x250b6f36	1.2094008e-16
230	0xa2b9988a	-5.0305857e-18
231	0xa0c99d4e	-3.415482e-19
232	0x80000356	-1.197e-42
233	0xa508de4b	-1.1871435e-16
234	0x1ae23e9d	9.3572566e-23
235	0x23a8e383	1.8310951e-17
236	0x20118d85	1.2328803e-19
237	0xa10db955	-4.8017943e-19
238	0x800014fa	-7.525e-42
239	0x8000016d	-5.11e-43
240	0x902fcf3c	-3.4672312e-29
241	0x298c8bdc	6.241511e-14
242	0x80000160	-4.93e-43
243	0x0000016b	5.09e-43
244	0x1df33b81	6.438309e-21
245	0x80000ff3	-5.722e-42
246	0x1060f47a	4.436455e-29
247	0x1be71e5c	3.8235364e-22
248	0x01525538	3.863205e-38
249	0x1e2f73c5	9.2883634e-21
250	0x20a0ebcc	2.7261092e-19
251	0x1b2d6e1c	1.4345803e-22
252	0x8001110e	-9.7954e-41
253	0x0000016c	5.1e-43
254	0x3282aeab	1.5213422e-08
255	0x95df8236	-9.027442e-26

bias f4 [20]
0	0x3e237f55	0.15966542
1	0xb9222b7b	-0.00015465722
2	0xba8e7d8d	-0.0010871157
3	0xb8941208	-7.0605485e-05
4	0x30d17fa0	1.5243025e-09
5	0xb9c01957	-0.00036639973
6	0x38b09247	8.41958e-05
7	0xbde6bd49	-0.11266572
8	0x39580b3b	0.00020603549
9	0x39ccef40	0.00039088167
10	0x3b18b28b	0.002329978
11	0x3b597b46	0.003318505
12	0xb79678bf	-1.793762e-05
13	0xbc6a4224	-0.014297996
14	0x34fcfdd2	4.7123336e-07
15	0xb88f61e3	-6.837004e-05
16	0x39a861c5	0.000321163
17	0x3c1dedc6	0.009639209
18	0xbb8e9aef	-0.0043519656
19	0xb7cf4237	-2.4707157e-05

weight f4 [20, 64]
0	0xb76a6ea5	-1.3973248e-05
1	0x3947363e	0.00018998326
2	0x38e23eff	0.00010788254
3	0xae29b991	-3.8590967e-11
4	0xbc9309fe	-0.0179491
5	0x3116d889	2.1950959e-09
6	0x333f402a	4.452901e-08
7	0xbb43263c	-0.0029777428
8	0x1e5d6867	1.17212325e-20
9	0x3275774a	1.4288e-08
10	0x3639f18d	2.770775e-06
11	0xaa94bc8d	-2.6420915e-13
12	0x336bb271	5.4877493e-08
13	0x800024fb	-1.3266e-41
14	0x26e2ca10	1.5736669e-15
15	0x01efb8a0	8.805966e-38
16	0x28fb2e93	2.7886796e-14
17	0x309b0298	1.1278471e-09
18	0xac0682fa	-1.9115252e-12
19	0x34c651e2	3.6939952e-07
20	0x24c03856	8.3362164e-17
21	0x3c95a05a	0.018264938
22	0x2f3d0c8d	1.7193909e-10
23	0x2926053e	3.686395e-14
24	0xad5b1e98	-1.2455502e-11
25	0x39caf903	0.0003871397
26	0xa2b367e5	-4.862805e-18
27	0x3895f747	7.150933e-05
28	0x0ab00e8c	1.6953655e-32
29	0xab8091ab	-9.135378e-13
30	0x80000161	-4.95e-43
31	0xad3e6a1c	-1.0823811e-11
32	0x3b89e32e	0.00420799
33	0x2a1d3238	1.3961824e-13
34	0x8fbe3b50	-1.8758293e-29
35	0x216da88e	8.0521804e-19
36	0x047b2a00	2.9524194e-36
37	0x3283ae37	1.5329631e-08
38	0xb98a8084	-0.00026417163
39	0x35b6ee95	1.3629493e-06
40	0x1a4fa7d4	4.2942167e-23
41	0xaed73efd	-9.788257e-11
42	0x3a66e53d	0.0008807963
43	0x2e433bb9	4.439091e-11
44	0xb6d6eca1	-6.405244e-06
45	0xb18624e1	-3.904106e-09
46	0x2e8de33c	6.4523026e-11
47	0x0b90a0bb	5.570862e-32
48	0x36214cdb	2.4035605e-06
49	0x383e9a20	4.544307e-05
50	0x2ce2f1b3	6.4501403e-12
51	0x07f0343d	3.614189e-34
52	0x3a2cd580	0.0006593093
53	0x3ac1f084	0.0014796411
54	0xb380d6f5	-5.999565e-08
55	0x00e39ae0	2.0902216e-38
56	0xaab201e0	-3.1620453e-13
57	0x37943080	1.766556e-05
58	0x26d21f65	1.4580187e-15
59	0x3801cbe7	3.0945896e-05
60	0x800890dd	-7.86651e-40
61	0x264d9c2f	7.133533e-16
62	0x3705c4c6	7.973233e-06
63	0x3ab92b93	0.0014127366
64	0xb4d68142	-3.9954654e-07
65	0xb2b5f11d	-2.1180819e-08
66	0x376184e4	1.3441986e-05
67	0x2da9d2f3	1.9306756e-11
68	0xb9ff572e	-0.00048702344
69	0x2b3e32e4	6.7572185e-13
70	0x30dd4d61	1.6101859e-09
71	0x3869b0b6	5.5716104e-05
72	0x9ddbb5fc	-5.8156985e-21
73	0x2e92df4a	6.6789754e-11
74	0x35294c8f	6.3068813e-07
75	0xa8fb4176	-2.7894987e-14
76	0x2da5f1a5	1.886564e-11
77	0x00000161	4.95e-43
78	0x24cdb032	8.9203065e-17
79	0x822291a8	-1.1943682e-37
80	0x26a96c47	1.1756079e-15
81	0xb083d287	-9.59134e-10
82	0xa8780786	-1.3768397e-14
83	0xb3bd51a3	-8.815848e-08
84	0x9f7aff4b	-5.3150733e-20
85	0xb88b2820	-6.63551e-05
86	0x2e4eac99	4.6992275e-11
87	0x267b8526	8.726357e-16
88	0xaac2c06e	-3.4594848e-13
89	0x373b3613	1.1158659e-05
90	0x21ae8e5d	1.1828382e-18
91	0x34b9c7a3	3.460419e-07
92	0x873da9c7	-1.4268673e-34
93	0xa89aac8e	-1.7172268e-14
94	0x80000161	-4.95e-43
95	0x2b2863d4	5.982413e-13
96	0xb8033055	-3.1277847e-05
97	0x267be528	8.7393683e-16
98	0x8ea31d13	-4.02106e-30
99	0x9f9655d0	-6.3669436e-20
100	0x01ce9fd8	7.5901813e-38
101	0x304aa5ad	7.372261e-10
102	0xb637eea0	-2.7408023e-06
103	0x3320466d	3.7316955e-08
104	0x167d25de	2.0449126e-25
105	0xae285c90	-3.828099e-11
106	0x36537eda	3.1515287e-06
107	0x2b63ac1f	8.0885467e-13
108	0x34323f78	1.6600632e-07
109	0x2eb4d248	8.222806e-11
110	0xadd2366e	-2.3898408e-11
111	0x07c8a9f2	3.019254e-34
112	0x321b39d8	9.03534e-09
113	0x34a1ffbc	3.0174658e-07
114	0xa70e69d8	-1.9763837e-15
115	0x859ab7e1	-1.4549637e-35
116	0xb6044bc3	-1.9713632e-06
117	0x37af1edf	2.0876001e-05
118	0x3396f826	7.030057e-08
119	0x00021c79	1.93885e-40
120	0x27aede51	4.8535738e-15
121	0x3381e5ea	6.048852e-08
122	0xa045a8fa	-1.6742459e-19
123	0x34e9c795	4.3544847e-07
124	0x00005ce2	3.332e-41
125	0x1e83c77e	1.3952673e-20
126	0x351324be	5.4815234e-07
127	0xb72ddbff	-1.0362825e-05
128	0xb4e2f97a	-4.2277298e-07
129	0xb7c434d5	-2.3389623e-05
130	0xb7c35aae	-2.3288037e-05
131	0x2f9c3f74	2.842132e-10
132	0xba1c3130	-0.0005958257
133	0x2d9510ab	1.6946741e-11
134	0x30a82937	1.2235323e-09
135	0x3991668f	0.00027732967
136	0x9de82f09	-6.145852e-21
137	0xaf83cee3	-2.3975763e-10
138	0x35c5cebe	1.4737814e-06
139	0xa899706d	-1.703517e-14
140	0xb0d6aed7	-1.5620242e-09
141	0x800000bd	-2.65e-43
142	0xa310665e	-7.827933e-18
143	0x80b91f21	-1.7000734e-38
144	0xa6f34961	-1.6881402e-15
145	0x308f0533	1.0406097e-09
146	0x29af741e	7.791704e-14
147	0x350792f5	5.050527e-07
148	0xa2dc9d98	-5.979798e-18
149	0xba3ad6de	-0.00071273546
150	0x2f52ef4c	1.9184404e-10
151	0xa63f0569	-6.627377e-16
152	0xab6647e8	-8.1812205e-13
153	0xb7853920	-1.5881436e-05
154	0xa3dfdec4	-2.4272053e-17
155	0xb6b3a8f1	-5.354283e-06
156	0x88659959	-6.909244e-34
157	0x2a0c771d	1.2475824e-13
158	0x8000016d	-5.11e-43
159	0x2b20d148	5.7133855e-13
160	0xb9c09836	-0.000367345
161	0x2793f675	4.1067905e-15
162	0x0f8071e7	1.2665648e-29
163	0x9d5784c5	-2.8523653e-21
164	0x0211be30	1.0707499e-37
165	0xb005e298	-4.8707127e-10
166	0xb732404a	-1.0624595e-05
167	0x3589f951	1.0279856e-06
168	0x98007afc	-1.6605703e-24
169	0x2f030314	1.1915474e-10
170	0xb7d754b0	-2.5669433e-05
171	0xac1224c6	-2.0768261e-12
172	0x34ef7858	4.460478e-07
173	0x30929de1	1.066777e-09
174	0xaec455df	-8.928302e-11
175	0x092f5041	2.1102594e-33
176	0xb322c24a	-3.789527e-08
177	0x35b85c0c	1.3735857e-06
178	0x28666c49	1.2791045e-14
179	0x0518075e	7.148359e-36
180	0xb882ced3	-6.237407e-05
181	0x37f27f8a	2.8908038e-05
182	0x3423619a	1.5216065e-07
183	0x80006eaf	-3.9706e-41
184	0xa93854f4	-4.0929892e-14
185	0xb4ccb3df	-3.8128834e-07
186	0x22b8d80a	5.010204e-18
187	0x350a6652	5.15579e-07
188	0x800054a8	-3.0369e-41
189	0x22a8f84c	4.5799386e-18
190	0xb638feb4	-2.7566393e-06
191	0xb928bf4d	-0.00016092994
192	0xb315c2bb	-3.4868872e-08
193	0x35403f55	7.1617734e-07
194	0x3653d6d8	3.1566506e-06
195	0x2bbf3b87	1.3587888e-12
196	0xb7bea181	-2.2724971e-05
197	0xad3932aa	-1.0527282e-11
198	0x3018932b	5.5506416e-10
199	0xb91f6f15	-0.00015204803
200	0x9d5710e2	-2.8463741e-21
201	0xae145abb	-3.373189e-11
202	0x34f1cc0d	4.5038215e-07
203	0x28f2a92c	2.6940764e-14
204	0x2f939095	2.6841876e-10
205	0x00000169	5.06e-43
206	0x2389687a	1.4897817e-17
207	0x010e38f4	2.6122143e-38
208	0x25ff494c	4.4285117e-16
209	0xaf4d9078	-1.8695967e-10
210	0x266ca2e2	8.2099695e-16
211	0x33ab336f	7.972164e-08
212	0xa218e4e1	-2.0721009e-18
213	0x37b930e0	2.2076478e-05
214	0xaea9a1de	-7.7139836e-11
215	0x246ef280	5.181343e-17
216	0xaa32684c	-1.5845761e-13
217	0xb4df2c35	-4.1569152e-07
218	0xa265f4ef	-3.1164954e-18
219	0x340a6fcc	1.2892923e-07
220	0x068e11f0	5.344082e-35
221	0x294c6c7c	4.5391195e-14
222	0x0000016b	5.09e-43
223	0x296f1f5b	5.3095857e-14
224	0x375efdff	1.3291369e-05
225	0xa73be39a	-2.6074846e-15
226	0x0e94c437	3.6673765e-30
227	0x9ef88c2f	-2.6316e-20
228	0x8142e127	-3.579371e-38
229	0x2ed7f1f6	9.820049e-11
230	0xb60c485c	-2.0903744e-06
231	0xb40eb5ad	-1.3290874e-07
232	0x1658c5d7	1.7510768e-25
233	0x2e8ef017	6.500061e-11
234	0x368550b9	3.9731062e-06
235	0x2b87b31c	9.64204e-13
236	0xb482313c	-2.425021e-07
237	0x2fb6054c	3.310937e-10
238	0xad5dd1d6	-1.26089885e-11
239	0x8862b626	-6.8223516e-34
240	0xaed01dea	-9.464059e-11
241	0x34998bf1	2.8600292e-07
242	0x2669108b	8.0860534e-16
243	0x037aa11d	7.3653346e-37
244	0x35f5c82d	1.8312181e-06
245	0xb5bb7ddb	-1.3969214e-06
246	0x3351b617	4.8827214e-08
247	0x0000df34	8.007e-41
248	0x27081152	1.888318e-15
249	0x32018a3f	7.540222e-09
250	0x1f67b87a	4.9068748e-20
251	0xb489c435	-2.5660998e-07
252	0x800003d9	-1.38e-42
253	0x2054431f	1.7979307e-19
254	0xb3597f86	-5.064023e-08
255	0x36c59359	5.888211e-06

weight f4 [256, 20]
0	0x25eb208d	4.078806e-16
1	0xa3220d79	-8.7848905e-18
2	0xa31dc703	-8.5531294e-18
3	0xa1f693e7	-1.6708758e-18
4	0x1a59870f	4.4983648e-23
5	0xa273c57e	-3.3037192e-18
6	0x2114f747	5.047162e-19
7	0xa57754e9	-2.1452604e-16
8	0x21ab31ef	1.1600628e-18
9	0xa2a0aa1c	-4.3548197e-18
10	0x2465a6fe	4.9797907e-17
11	0xa25f207f	-3.0239339e-18
12	0x1fcdbc6f	8.7132614e-20
13	0xa43bc175	-4.0713026e-17
14	0x2171622d	8.178391e-19
15	0x22c066f6	5.215072e-18
16	0x223c6138	2.5530218e-18
17	0xa442a86f	-4.2209713e-17
18	0x22edc798	6.4450307e-18
19	0xa18c3e60	-9.50328e-19
20	0x16cddbda	3.3258282e-25
21	0x8e530b39	-2.6013161e-30
22	0x110896db	1.0774994e-28
23	0x907b72f6	-4.9589584e-29
24	0x898b2a57	-3.350285e-33
25	0x1048d194	3.9604498e-29
26	0x10348272	3.5599232e-29
27	0x9647eb9b	-1.6149436e-25
28	0x10f6bcf3	9.7321014e-29
29	0x90bd0efb	-7.4570437e-29
30	0x13bc45d9	4.7526747e-27
31	0x12b9e8d2	1.1732536e-27
32	0x8e348ae3	-2.2253584e-30
33	0x940172b6	-6.535458e-27
34	0x0fa33965	1.6095149e-29
35	0x907a82b9	-4.9404512e-29
36	0x1031dfe5	3.5079577e-29
37	0x916e2777	-1.878705e-28
38	0x9308da6e	-1.7273307e-27
39	0x0fab6ab7	1.6903007e-29
40	0x3633a885	2.677117e-06
41	0xb24ce443	-1.19262635e-08
42	0xb37a99a5	-5.83474e-08
43	0x2f39bb1a	1.6892124e-10
44	0xaa02efa5	-1.1629463e-13
45	0xb1f401f5	-7.101557e-09
46	0x30f94e49	1.8139384e-09
47	0xb5f7a654	-1.8451342e-06
48	0x31f89d9b	7.2356676e-09
49	0xb1738acc	-3.544005e-09
50	0x341ff74e	1.4897998e-07
51	0x3334310f	4.1954134e-08
52	0x2f33e3a1	1.6360825e-10
53	0xb4a1f558	-3.0167098e-07
54	0x313e2425	2.7669185e-09
55	0xb18d9d7c	-4.121544e-09
56	0x308dbbe3	1.0312501e-09
57	0x33c0f497	8.985187e-08
58	0xb3de86e7	-1.0362219e-07
59	0x30747c9e	8.8943775e-10
60	0x308bd59e	1.0174295e-09
61	0x2bfa8a6c	1.7801988e-12
62	0xae1c8dd9	-3.559628e-11
63	0xac128901	-2.08239e-12
64	0x1f9f0f13	6.736406e-20
65	0xad540353	-1.2051543e-11
66	0x2c47f800	2.8417269e-12
67	0xb05862f3	-7.872096e-10
68	0x2c220853	2.3026206e-12
69	0x2d4a885f	1.1512651e-11
70	0x2f0eb76c	1.2979989e-10
71	0x2eea1a19	1.0645724e-10
72	0xab21b967	-5.745599e-13
73	0xb00941cc	-4.993381e-10
74	0x2a3dad65	1.684673e-13
75	0xac2c8e04	-2.4521505e-12
76	0x2d1574f2	8.4956365e-12
77	0x2ef3ca35	1.108628e-10
78	0xaf172984	-1.374812e-10
79	0xab6fc6af	-8.5185586e-13
80	0x3d9e5203	0.07730486
81	0xb8cf9551	-9.8983415e-05
82	0xbb87a45d	-0.0041394667
83	0xb9200aa9	-0.0001526276
84	0xb125601d	-2.4065294e-09
85	0xba8ba434	-0.0010653795
86	0x398e567a	0.0002714878
87	0xbd977aec	-0.07396492
88	0x3a5117a1	0.0007976238
89	0x3a0c4cd7	0.0005352026
90	0x3ca6119a	0.020272065
91	0x3c3742d9	0.011185371
92	0xb88c6c6c	-6.695915e-05
93	0xbd1317ef	-0.035911497
94	0x3851f145	5.0054183e-05
95	0xb9ae681a	-0.00033265428
96	0x3aa7f260	0.0012813322
97	0x3d142284	0.03616573
98	0xbc5af309	-0.013363608
99	0xb8c62a2d	-9.4492316e-05
100	0x3d2da843	0.042396795
101	0xb97b8116	-0.00023985314
102	0xba85f609	-0.0010220419
103	0xb64de1f4	-3.0678902e-06
104	0xb027ec71	-6.109025e-10
105	0xba144924	-0.0005656651
106	0x3855ee67	5.1005187e-05
107	0xbd140971	-0.036141817
108	0x39001c73	0.0001221763
109	0x3854e969	5.076212e-05
110	0x3ba9a074	0.005176598
111	0x3b35b435	0.002772582
112	0xb7d1ee86	-2.5025813e-05
113	0xbc1a8317	-0.009430668
114	0x366cbee1	3.5277847e-06
115	0xb8a3e4f6	-7.815093e-05
116	0x39fda07d	0.00048375493
117	0x3c31609c	0.010826256
118	0xbb498894	-0.0030751573
119	0xb818c605	-3.6424044e-05
120	0x2f644a2e	2.0762833e-10
121	0x2c8d79af	4.0209706e-12
122	0x2d48a490	1.1405224e-11
123	0xabb4d442	-1.2848683e-12
124	0xa2e3ad90	-6.171224e-18
125	0x2b098905	4.886233e-13
126	0x2a87fdaa	2.4156832e-13
127	0xaf1311c6	-1.3375887e-10
128	0x2b806688	9.123405e-13
129	0xac0e962e	-2.026278e-12
130	0x2deb15b6	2.6726048e-11
131	0xabbf08e7	-1.3573837e-12
132	0xa9aaba50	-7.5818366e-14
133	0x2d7faea6	1.45338516e-11
134	0x2885f41b	1.487183e-14
135	0xac335e76	-2.5489866e-12
136	0x2a57165f	1.9103598e-13
137	0x2dbfefed	2.1820734e-11
138	0x2c213f97	2.2914776e-12
139	0x2aa63016	2.952089e-13
140	0x34109f76	1.3469057e-07
141	0x2ecf174c	9.4174085e-11
142	0xb00d9b06	-5.15158e-10
143	0xafbbaa55	-3.413613e-10
144	0xa63e536d	-6.6032555e-16
145	0x2ea1384d	7.3314334e-11
146	0xada5381e	-1.878325e-11
147	0xb3d0fb64	-9.7314825e-08
148	0x2f2055b4	1.4582363e-10
149	0xb01b2d03	-5.6452637e-10
150	0x31f54139	7.1378534e-09
151	0xae09c33a	-3.132359e-11
152	0xac06a3c4	-1.9133454e-12
153	0x30db5b89	1.5960363e-09
154	0x2eee19d5	1.08275756e-10
155	0x3019e8d0	5.599192e-10
156	0x2e2b03ff	3.8884448e-11
157	0x30a6c087	1.2132809e-09
158	0x308d5fe6	1.0286356e-09
159	0x2d7fb1b0	1.4534526e-11
160	0x2a90727c	2.5658978e-13
161	0x25bcceb7	3.2752877e-16
162	0x26e9f74a	1.6234651e-15
163	0x2583bbc5	2.2852115e-16
164	0x1e081384	7.203816e-21
165	0xa58ad6c0	-2.4084704e-16
166	0x236dc6c3	1.2889885e-17
167	0xaa324551	-1.5833625e-13
168	0x259c0e6a	2.7071454e-16
169	0xa6838bbc	-9.127826e-16
170	0xa81c1e9f	-8.6663795e-15
171	0xa544be61	-1.7064793e-16
172	0x2320baf3	8.7132054e-18
173	0x25b970c1	3.216879e-16
174	0x25555cd8	1.8506262e-16
175	0x25760750	2.1339576e-16
176	0xa4010238	-2.7974295e-17
177	0x26b37190	1.2451401e-15
178	0xa6fc0986	-1.7488594e-15
179	0x251ed54a	1.377658e-16
180	0x3910f73f	0.00013825017
181	0x3548262c	7.4561353e-07
182	0xb4c6e5c3	-3.7047548e-07
183	0xb40894b8	-1.272009e-07
184	0xaa17f957	-1.3498001e-13
185	0x34d0179e	3.8760203e-07
186	0xb30e8eff	-3.3192006e-08
187	0xb8c6e80c	-9.484598e-05
188	0x34eaefd5	4.3760397e-07
189	0x35122113	5.443737e-07
190	0x36d4b883	6.3395723e-06
191	0xb5bcb0df	-1.4058568e-06
192	0x325faa30	1.30190045e-08
193	0x367d11f3	3.7710386e-06
194	0x3403dcd2	1.228066e-07
195	0x33a0f92e	7.495906e-08
196	0xb1b13705	-5.157633e-09
197	0x36a81434	5.009142e-06
198	0x36463237	2.9533528e-06
199	0x32ab196f	1.9918586e-08
200	0x26dcfc3f	1.5333938e-15
201	0xa39793c1	-1.6434029e-17
202	0xa49a16b6	-6.682533e-17
203	0xa1c7b704	-1.3533208e-18
204	0x9a0b3db9	-2.8794385e-23
205	0x244e9d14	4.480218e-17
206	0xa2929ad5	-3.9737314e-18
207	0xa7058334	-1.8528583e-15
208	0x22b9ff02	5.041435e-18
209	0xa31b78f5	-8.4281805e-18
210	0xa5cedba8	-3.5884148e-16
211	0xa5472bb2	-1.7275303e-16
212	0x2220a3bd	2.1770726e-18
213	0x266720fc	8.0188927e-16
214	0x22f1db35	6.5555275e-18
215	0x23c59b0e	2.1424451e-17
216	0xa3d0b9f0	-2.2630153e-17
217	0xa6017c51	-4.4924346e-16
218	0x253a961d	1.6183789e-16
219	0x210efdeb	4.844753e-19
220	0x3d18cdd5	0.03730567
221	0x39ee680a	0.00045472413
222	0x39c62bdb	0.00037798178
223	0x37c56a2b	2.3533668e-05
224	0x304f07a2	7.531701e-10
225	0x3a07535c	0.0005162263
226	0xb8af578d	-8.360958e-05
227	0xbcca9219	-0.024727868
228	0xb965b640	-0.00021907035
229	0xb8d73973	-0.000102627
230	0xbb4c468f	-0.0031169986
231	0xbb7f2eb9	-0.003893776
232	0x37b9d80b	2.2154321e-05
233	0x3c567022	0.013088258
234	0x3847fa3a	4.767834e-05
235	0x3900c5b3	0.0001228068
236	0xb99528d3	-0.0002844991
237	0xbc1584f0	-0.009125933
238	0x3b9a9be5	0.004718291
239	0x38047a85	3.1585358e-05
240	0x3997b115	0.000289329
241	0xb5db97fa	-1.6361003e-06
242	0xb67f9c3b	-3.80889e-06
243	0xb434dfab	-1.6845176e-07
244	0x2cac5710	4.8982e-12
245	0xb5cdde0f	-1.5338318e-06
246	0x33d39a90	9.853568e-08
247	0xb95b9f18	-0.00020944735
248	0x35ac6133	1.2843287e-06
249	0x357ba027	9.373784e-07
250	0x37fc6006	3.0085455e-05
251	0xb6611392	-3.3539004e-06
252	0x2feb6eb2	4.2824905e-10
253	0xb747ff09	-1.1920704e-05
254	0x3406224f	1.2492204e-07
255	0xb5063151	-4.9990655e-07

bias f4 [256]
0	0xa2f8b2ad	-6.7409715e-18
1	0x96699c03	-1.8870819e-25
2	0xb7d13383	-2.4938729e-05
3	0x31202fe0	2.3310278e-09
4	0x3daf94e2	0.08573319
5	0x3d6b4ebf	0.057448145
6	0xaf344115	-1.6394026e-10
7	0xb4af73ae	-3.2680458e-07
8	0xaaf2563b	-4.304767e-13
9	0xba1cedd0	-0.00059863646
10	0xa81bb546	-8.643536e-15
11	0x3e774eab	0.24151103
12	0xbb492bf7	-0.003069637
13	0xa22af4ec	-2.3168957e-18
14	0x3b889762	0.004168437
15	0x93f0f90d	-6.08301e-27
16	0xbb444c28	-0.002995262
17	0xb50eb706	-5.3165456e-07
18	0xb1067252	-1.956455e-09
19	0xaa0794b4	-1.2042e-13
20	0xbb9bec99	-0.0047584292
21	0xba2ebe3e	-0.00066659215
22	0x33277ec9	3.8998028e-08
23	0xadf51b83	-2.7865493e-11
24	0xb029821e	-6.166675e-10
25	0xa348951e	-1.08735985e-17
26	0xba0dd70a	-0.00054107665
27	0xb0b09027	-1.2846656e-09
28	0xbc2c1f6a	-0.010505537
29	0x3a717666	0.0009211063
30	0x8a285e6b	-8.106664e-33
31	0xbbe078fc	-0.00685036
32	0xba8e0358	-0.0010834737
33	0xb1c538c1	-5.7399068e-09
34	0xb15bcf37	-3.1986482e-09
35	0xada59a0c	-1.8826739e-11
36	0x3e85ac5e	0.26108068
37	0x3586a727	1.0032426e-06
38	0x3858fe2a	5.173512e-05
39	0xb0afd161	-1.2792435e-09
40	0xa02ecd4a	-1.4806298e-19
41	0xa6f201f6	-1.6792655e-15
42	0x312f4d0c	2.5509648e-09
43	0xb6551885	-3.1753746e-06
44	0x29f0479a	1.0670562e-13
45	0xbc212ab1	-0.009836839
46	0x38d21bc2	0.000100187506
47	0xb2f3486f	-2.8321862e-08
48	0xa9e8ce0c	-1.0338613e-13
49	0xb8c6ce90	-9.479851e-05
50	0x386c3fea	5.632631e-05
51	0xba47c583	-0.0007620679
52	0xbb432254	-0.00297751
53	0xb24b0a8c	-1.1818553e-08
54	0xba9e20e6	-0.0012064248
55	0x25031694	1.1370089e-16
56	0x9f51c526	-4.442055e-20
57	0xacd72042	-6.114249e-12
58	0x357e02e5	9.4626586e-07
59	0x3e449a35	0.1919945
60	0xaa0f658d	-1.2736184e-13
61	0xa9bd55fb	-8.408201e-14
62	0x3a90a9b9	0.001103691
63	0xb9c586bf	-0.00037675162
64	0x33407a7a	4.4814875e-08
65	0xaf5d9ccb	-2.0155537e-10
66	0x3d467922	0.048455365
67	0xbb1e1e65	-0.0024127003
68	0x38045959	3.1554464e-05
69	0xb1bfb3b3	-5.579261e-09
70	0xb4aa00b4	-3.166548e-07
71	0xb98a92ad	-0.00026430693
72	0x3e54ae23	0.20769553
73	0xafeb1eac	-4.2768045e-10
74	0xbacd9ee8	-0.0015687617
75	0xb1a89d65	-4.907337e-09
76	0x2fae135b	3.1664169e-10
77	0xafedeba0	-4.327747e-10
78	0x98893f6a	-3.54777e-24
79	0x32b05d06	2.0531399e-08
80	0x3add0933	0.0016863703
81	0x3de993c7	0.114051394
82	0xb12496ea	-2.3950926e-09
83	0xb3a34d7c	-7.604373e-08
84	0xb64309c3	-2.9062946e-06
85	0x9a3391ec	-3.7134207e-23
86	0x26513cd3	7.2593873e-16
87	0xb2486919	-1.1665429e-08
88	0xa579d3e3	-2.1669097e-16
89	0xae0bcdc1	-3.1787687e-11
90	0x38d326dc	0.00010068502
91	0x36de2660	6.620583e-06
92	0xa6e436d8	-1.5835544e-15
93	0xb1077406	-1.9711037e-09
94	0xbaaa8ab4	-0.0013011307
95	0x2afc0d9f	4.4773644e-13
96	0xa5073c78	-1.1729871e-16
97	0x910b9a66	-1.1012744e-28
98	0xa3807214	-1.3926102e-17
99	0xa5a63a9d	-2.8836128e-16
100	0xa97b1972	-5.5755266e-14
101	0xb24229b1	-1.1301766e-08
102	0xbb006e7f	-0.001959711
103	0x34260ed7	1.5465353e-07
104	0xb829be11	-4.0469753e-05
105	0x313553dd	2.6386637e-09
106	0xbbc38596	-0.0059668524
107	0xa18e1a8d	-9.629322e-19
108	0xbb141c16	-0.0022599748
109	0xa14e596e	-6.9913874e-19
110	0xb03d5d49	-6.8890366e-10
111	0x38b76289	8.7444736e-05
112	0x3c0e6383	0.008690718
113	0x9c64218d	-7.5482235e-22
114	0xbc0ce46d	-0.008599383
115	0x358186ed	9.650518e-07
116	0xb2dc4a61	-2.5645194e-08
117	0xb5359f22	-6.7659323e-07
118	0x3d9c357a	0.07627387
119	0xb03289d8	-6.495191e-10
120	0xb7bff080	-2.2880966e-05
121	0xac27bcec	-2.3837e-12
122	0xb40761d4	-1.2608444e-07
123	0xb8b92f38	-8.8302826e-05
124	0xbb11c8bc	-0.002224489
125	0xa05b0d69	-1.8554459e-19
126	0xb1453e38	-2.870264e-09
127	0xa7547ea9	-2.9489573e-15
128	0x3b04f966	0.0020290255
129	0xb38b4089	-6.484431e-08
130	0xb894a899	-7.088594e-05
131	0xb3a6df95	-7.770647e-08
132	0x3dcc1680	0.09965229
133	0xba84780f	-0.0010106581
134	0x3e63b5f4	0.22237378
135	0xad1a8ff8	-8.785854e-12
136	0xb8673b69	-5.513002e-05
137	0x3ecd185f	0.40057656
138	0xab9c2835	-1.1095626e-12
139	0xb1126912	-2.1305522e-09
140	0xa3e5df6f	-2.4922858e-17
141	0x35b67b74	1.3595986e-06
142	0x3e3d0d65	0.18462141
143	0x24ab8c0b	7.439667e-17
144	0xb6aa983f	-5.0841186e-06
145	0x3e972529	0.29520538
146	0x39c47119	0.00037468298
147	0xb13c9088	-2.7439757e-09
148	0x14dccc26	2.2294845e-26
149	0x948fa7e2	-1.4505528e-26
150	0xb0f21e6a	-1.7616462e-09
151	0xb41eff28	-1.4807722e-07
152	0xa4092cc7	-2.9745067e-17
153	0xbc58b4d6	-0.013226708
154	0xbba9e68e	-0.005184955
155	0x3e884bf9	0.26620463
156	0xb803ea7f	-3.1451225e-05
157	0xb580ddbe	-9.601279e-07
158	0xb98dc409	-0.00027039673
159	0x3d7145ce	0.05890446
160	0xb734e8c8	-1.0783035e-05
161	0xbb10c0f1	-0.0022087658
162	0xb8e85f5b	-0.000110803834
163	0x310570be	1.9418134e-09
164	0xb696da3a	-4.4957533e-06
165	0xaea8d960	-7.678369e-11
166	0xa2b022a6	-4.774158e-18
167	0xa4866075	-5.827664e-17
168	0xb95c5a9c	-0.0002101459
169	0x2c65401b	3.2578443e-12
170	0xa8fb1b45	-2.7878424e-14
171	0x3e985d14	0.29758513
172	0xb7ed6b75	-2.830264e-05
173	0xaf730857	-2.2103684e-10
174	0xba1d5ba1	-0.00060027285
175	0x3c3f2590	0.01166667
176	0xb76e640e	-1.4209201e-05
177	0x3cf7bb1c	0.030240588
178	0xadbb83a9	-2.1317908e-11
179	0xb0e67866	-1.6768922e-09
180	0x3270f953	1.4026528e-08
181	0xbc294875	-0.0103322165
182	0xa91faeb8	-3.5456637e-14
183	0xb1b2c4be	-5.202849e-09
184	0xa45a8f01	-4.7392344e-17
185	0x2507a308	1.176462e-16
186	0x3a840d94	0.0010074847
187	0x3e8d22cc	0.2756561
188	0xba0d1393	-0.000538164
189	0x3e9015b5	0.2814156
190	0x9a920373	-6.038976e-23
191	0x354e1c6f	7.6782356e-07
192	0xb8660c82	-5.4847922e-05
193	0xa46f3ed2	-5.1878075e-17
194	0x3ad04dca	0.0015892324
195	0x30b662ec	1.3270358e-09
196	0xb81b62e9	-3.7046997e-05
197	0xbb5946c8	-0.0033153761
198	0x294b8f24	4.519921e-14
199	0xbba439b4	-0.0050117616
200	0xb9ebb701	-0.0004495904
201	0x987bc7a3	-3.254178e-24
202	0x38caec3f	9.676115e-05
203	0xb16d641b	-3.4544942e-09
204	0x3e3ff22f	0.1874473
205	0xa9d079f8	-9.258214e-14
206	0xa8cb372d	-2.2561456e-14
207	0xb33ca610	-4.3923194e-08
208	0xb3f9590f	-1.1611166e-07
209	0x3dd5ec15	0.1044542
210	0xaf02eda3	-1.1907857e-10
211	0x2ff395bc	4.4307835e-10
212	0x3c0e4fa9	0.008685985
213	0xb9e37d9d	-0.00043390403
214	0xb913fec5	-0.00014113921
215	0xad8da965	-1.610507e-11
216	0xb0128e07	-5.3316324e-10
217	0xb982d2d1	-0.00024952603
218	0x9a42fdc2	-4.0323244e-23
219	0x9fc3a56c	-8.285938e-20
220	0x2f54b032	1.9343885e-10
221	0xa86e8c97	-1.32421396e-14
222	0xa40d3cc6	-3.062598e-17
223	0xbb70f807	-0.003676893
224	0x3e61dbc8	0.22056496
225	0xb72aadbb	-1.0173239e-05
226	0xa2e34db8	-6.161076e-18
227	0xb22371eb	-9.513751e-09
228	0xa9043af4	-2.936102e-14
229	0xb3e4330c	-1.0626363e-07
230	0xb6fcea08	-7.53743e-06
231	0x39d6644c	0.00040891988
232	0xa3068754	-7.292811e-18
233	0xa8828529	-1.4490648e-14
234	0x378fd44d	1.7145789e-05
235	0x3dac31cb	0.08407935
236	0xb144ab67	-2.8619185e-09
237	0x18a70efb	4.3183615e-24
238	0x39f35199	0.00046409367
239	0xa2a15867	-4.3732737e-18
240	0xb2151b77	-8.679186e-09
241	0x3d88caab	0.06679281
242	0x3e1cafbf	0.15301417
243	0x3b05a12d	0.0020390258
244	0x3e421a46	0.18955335
245	0xb9faa8b5	-0.00047809412
246	0xb74411e7	-1.1686679e-05
247	0x1b219b8c	1.3367868e-22
248	0x3ea22088	0.31665444
249	0xb7f54334	-2.923757e-05
250	0xa87dec27	-1.4095529e-14
251	0x9994d893	-1.5390315e-23
252	0xbb052b15	-0.0020319868
253	0xb4c5e339	-3.6859436e-07
254	0x3e9bb058	0.30407977
255	0x3ea46ecd	0.32115784

weight f4 [32, 256]
0	0x223a14d3	2.5218725e-18
1	0x92165ac5	-4.7443536e-28
2	0x33d360bc	9.843049e-08
3	0xac676dcc	-3.2888024e-12
4	0xb98077f5	-0.00024503437
5	0xb96f36f2	-0.00022813285
6	0xac731c12	-3.454796e-12
7	0x3015fcb4	5.4564997e-10
8	0xa7042b93	-1.8342302e-15
9	0x36582c9b	3.2212472e-06
10	0xa2758d85	-3.3278611e-18
11	0xbabec812	-0.0014555475
12	0xb76758e4	-1.3789369e-05
13	0x9e3eed7a	-1.0107625e-20
14	0xb85c7a27	-5.256585e-05
15	0x0f00dc43	6.353308e-30
16	0xb5f1a7f7	-1.8004783e-06
17	0x3245ded1	1.1517572e-08
18	0x2d172e79	8.593675e-12
19	0x261bc4d8	5.40432e-16
20	0x37053dfb	7.941849e-06
21	0xb66674a5	-3.4340567e-06
22	0x2e257cf5	3.762764e-11
23	0xa9184712	-3.3812424e-14
24	0xad9dda90	-1.7945895e-11
25	0x9cdabaff	-1.4474367e-21
26	0xb58a7ee4	-1.0318731e-06
27	0xad7bb313	-1.4307461e-11
28	0xb8ab6d47	-8.17427e-05
29	0x3773dec9	1.45358e-05
30	0x08d0f89a	1.2576991e-33
31	0xb75b88b1	-1.3085243e-05
32	0x365ecde5	3.3200424e-06
33	0x2ddeddd6	2.5336993e-11
34	0xaad3dc5b	-3.7634032e-13
35	0x2a2e7983	1.5496462e-13
36	0xbac29c9d	-0.00148477
37	0x3220e2b5	9.364773e-09
38	0xb352e28e	-4.9100485e-08
39	0xac7001bb	-3.4107012e-12
40	0x9bec5491	-3.9097575e-22
41	0x210787d2	4.5919536e-19
42	0x2baa1176	1.2084073e-12
43	0xaf924cde	-2.6611863e-10
44	0xa58595fe	-2.317346e-16
45	0x378c1f69	1.6703927e-05
46	0xb4f38bdb	-4.5364035e-07
47	0xade232b2	-2.5715739e-11
48	0xa6a6bcb6	-1.1569714e-15
49	0x35287586	6.2755896e-07
50	0xb3a44fdf	-7.6513736e-08
51	0x367d635a	3.7757768e-06
52	0xb7299c15	-1.0109526e-05
53	0xae0bcbc3	-3.1785918e-11
54	0xb68aacb7	-4.132827e-06
55	0xa0edd4a2	-4.029007e-19
56	0x9ba3a3fc	-2.707206e-22
57	0x2aa307ff	2.8960165e-13
58	0x30d80462	1.5717314e-09
59	0xbab64c1b	-0.0013908179
60	0xa7856346	-3.702255e-15
61	0xa3c6056b	-2.1469498e-17
62	0x37c77eaf	2.378164e-05
63	0x36381801	2.7432109e-06
64	0x2e903966	6.558558e-11
65	0xac069552	-1.9125435e-12
66	0xba54ffd5	-0.000812528
67	0x373d0a2d	1.1267647e-05
68	0xb38f5a9b	-6.6754374e-08
69	0xb539718f	-6.908312e-07
70	0x3127c349	2.4412705e-09
71	0xb5b6a8b8	-1.360916e-06
72	0xbab90619	-0.0014116197
73	0x2c20728b	2.2800952e-12
74	0xb73ecfda	-1.1373277e-05
75	0x2e2249bc	3.6900025e-11
76	0x2c0a74e5	1.967587e-12
77	0x2caf246a	4.977842e-12
78	0x14956380	1.5084401e-26
79	0xae1e291e	-3.596156e-11
80	0xb795ca8f	-1.7856508e-05
81	0xbaa8668b	-0.0012847943
82	0x2d01da09	7.3812146e-12
83	0x30276e64	6.091112e-10
84	0xb220ca7e	-9.359267e-09
85	0x164a96de	1.6365035e-25
86	0xa2ad44f2	-4.6964743e-18
87	0x2eba935d	8.484478e-11
88	0xa30569dd	-7.232362e-18
89	0x2ba90f88	1.2012483e-12
90	0xb4d6cc4c	-4.0009252e-07
91	0x33fbbf05	1.17228446e-07
92	0x23a86a03	1.8259494e-17
93	0x2d1837f0	8.65262e-12
94	0x3702c03e	7.793364e-06
95	0x230ed68c	7.7432675e-18
96	0xa1353b26	-6.140347e-19
97	0x8beceae9	-9.1257347e-32
98	0x9f9ea1b0	-6.718309e-20
99	0xa0124ca9	-1.2392046e-19
100	0xa3d0e8cb	-2.2649997e-17
101	0xae030c87	-2.9797078e-11
102	0xb6c33883	-5.8180317e-06
103	0xafa76875	-3.0451344e-10
104	0xb456ed0c	-2.001654e-07
105	0xaca1b9e2	-4.5965324e-12
106	0xb82007ce	-3.815424e-05
107	0x1db9a53f	4.9139953e-21
108	0x376f71e4	1.4272027e-05
109	0x1d568834	2.839308e-21
110	0x2bf37c27	1.7300648e-12
111	0xb4e6e3a5	-4.3006472e-07
112	0xb3a6040d	-7.730714e-08
113	0x18bb567b	4.842569e-24
114	0xb7901fb3	-1.7180899e-05
115	0x31a8856d	4.9046123e-09
116	0x2f903a4d	2.6234873e-10
117	0x31b00e48	5.1238978e-09
118	0xba934ba1	-0.0011237749
119	0xac2e25e4	-2.474792e-12
120	0x3425b6d9	1.5433342e-07
121	0x298f16c3	6.354424e-14
122	0xae98e082	-6.95204e-11
123	0xb50fb03b	-5.35281e-07
124	0xb6a4a098	-4.9062764e-06
125	0x1c5efd09	7.378068e-22
126	0x2dbd8ed2	2.1550237e-11
127	0xa4e17dc3	-9.7791244e-17
128	0xb74e9e82	-1.2315462e-05
129	0x2f3abd35	1.6983821e-10
130	0x348a5b09	2.577074e-07
131	0x2fdce879	4.018295e-10
132	0xbaa02eee	-0.0012221017
133	0xb6ec0940	-7.034425e-06
134	0xbabbac42	-0.0014318305
135	0x299115c4	6.443069e-14
136	0xb528e763	-6.292159e-07
137	0xbae36d95	-0.0017351384
138	0x2797c22a	4.2121432e-15
139	0xad31bfe0	-1.010389e-11
140	0x20e66631	3.903114e-19
141	0xb118ebdb	-2.225298e-09
142	0xbab56b85	-0.0013841247
143	0xa05866b9	-1.83299e-19
144	0xb1adf611	-5.062937e-09
145	0xbac9e5a5	-0.0015403522
146	0xb70bf415	-8.341875e-06
147	0x2d8c7c93	1.597148e-11
148	0x909f934a	-6.2941377e-29
149	0x113fd7ba	1.5133719e-28
150	0x2e126bd0	3.3292313e-11
151	0xafae3bed	-3.1692995e-10
152	0xa02fef5c	-1.4902274e-19
153	0xb82abe1e	-4.070822e-05
154	0x3853bf7f	5.0484665e-05
155	0xbac3a464	-0.0014926312
156	0x33aa79cb	7.938396e-08
157	0xb207b43e	-7.8990166e-09
158	0x3562fd65	8.45603e-07
159	0xba7b3367	-0.00095825497
160	0xb336231d	-4.2407112e-08
161	0x36cf32bd	6.1749874e-06
162	0x352de182	6.477568e-07
163	0x2e284a51	3.8264784e-11
164	0xb2a202fe	-1.8860643e-08
165	0x2a8a6141	2.4581208e-13
166	0x9f6a826f	-4.965932e-20
167	0xa006b5be	-1.1410375e-19
168	0x35dd922a	1.6508322e-06
169	0xa804c511	-7.370204e-15
170	0x24c20fb7	8.416071e-17
171	0xbaca6043	-0.0015440065
172	0xb488c21e	-2.5473213e-07
173	0xab21befa	-5.7463723e-13
174	0x36a54ce5	4.926335e-06
175	0xb93481fc	-0.0001721456
176	0xb2db74fe	-2.5548157e-08
177	0xba049fe3	-0.00050592254
178	0x2a22e783	1.4468812e-13
179	0x2c37d06d	2.6121564e-12
180	0xacd7129e	-6.1127345e-12
181	0xb839a788	-4.4263463e-05
182	0xa5f8289e	-4.3048665e-16
183	0x2e5c532d	5.0096084e-11
184	0xa026b6e1	-1.4121256e-19
185	0xa0ad4917	-2.9355707e-19
186	0x3791ddad	1.7388573e-05
187	0xbac5c4b8	-0.0015088534
188	0x36727c30	3.6133097e-06
189	0xbac6e0af	-0.0015173162
190	0x12a75a40	1.056143e-27
191	0xb2298e3f	-9.869438e-09
192	0xb4d5dc8e	-3.9834816e-07
193	0xa1091031	-4.6438835e-19
194	0xb784697a	-1.5784743e-05
195	0xaf83bbe4	-2.3962266e-10
196	0xb3a7af2d	-7.808408e-08
197	0x37ae5e60	2.0786363e-05
198	0xa4b3ea1c	-7.802547e-17
199	0x37ed8765	2.831565e-05
200	0xb61f44b5	-2.373284e-06
201	0x94749e94	-1.2350126e-26
202	0x35e458f6	1.7013215e-06
203	0x2daef22f	1.9889061e-11
204	0xbab56d5a	-0.0013841793
205	0x24adbff8	7.5352e-17
206	0xa656ee5e	-7.456921e-16
207	0x2edb878c	9.983045e-11
208	0x2fb580c7	3.301521e-10
209	0xbaa4ca28	-0.0012572454
210	0xaa5203d2	-1.8653072e-13
211	0xafaf070c	-3.1837322e-10
212	0xb9002a89	-0.00012222877
213	0xb570bb8e	-8.9679895e-07
214	0xb4ccd226	-3.8150864e-07
215	0x2a105881	1.2820475e-13
216	0xad56c1f2	-1.2207556e-11
217	0x35333f89	6.677515e-07
218	0x963c3ba8	-1.5205343e-25
219	0x1c2946b4	5.600879e-22
220	0xab577580	-7.654641e-13
221	0xa3ec009c	-2.558743e-17
222	0x2006cb00	1.1417409e-19
223	0xb7278752	-9.985482e-06
224	0xbabb498b	-0.0014288885
225	0xb3069492	-3.133443e-08
226	0x2008b2c1	1.1578793e-19
227	0x2c4c5096	2.9034878e-12
228	0xa65fa7e3	-7.7596196e-16
229	0xb0759c80	-8.935288e-10
230	0x33247124	3.8287126e-08
231	0x345efeba	2.076803e-07
232	0x9edc232e	-2.3307956e-20
233	0x23e88b16	2.5212396e-17
234	0xb2ef1acf	-2.7835453e-08
235	0xba99d59d	-0.0011736635
236	0xad8b05d5	-1.580506e-11
237	0x940a0856	-6.9688635e-27
238	0xb75047b7	-1.24144635e-05
239	0x1e5d8fac	1.1729353e-20
240	0xae58d050	-4.9297733e-11
241	0xba88e721	-0.0010444858
242	0xbab045b1	-0.0013448504
243	0xb7b761e2	-2.186088e-05
244	0xbab6042a	-0.0013886739
245	0x3608b107	2.0368623e-06
246	0xb39e4cc5	-7.3714126e-08
247	0x97bae0af	-1.2076686e-24
248	0xbace791e	-0.0015752648
249	0x345183fc	1.9512657e-07
250	0x22aee3b7	4.7403897e-18
251	0x95819fa7	-5.235457e-26
252	0x371f425a	9.492587e-06
253	0x3111c052	2.1209599e-09
254	0xbacbe29f	-0.0015555209
255	0xbacfbcfd	-0.001584917

bias f4 [32]
0	0xbb79dfa1	-0.0038127678
1	0xb350c587	-4.8608424e-08
2	0x3e4a87f2	0.19778422
3	0xb1d0d1ea	-6.077461e-09
4	0x3e594c37	0.2122048
5	0x361b1234	2.3107395e-06
6	0xb7ed8225	-2.8313205e-05
7	0xb9588188	-0.0002064762
8	0xb8017946	-3.086894e-05
9	0x3eb6431c	0.35598075
10	0xb988260b	-0.00025968286
11	0x3eacce55	0.3375117
12	0xbc826e67	-0.015921785
13	0x3ea1f682	0.31633383
14	0x3e9c5dd3	0.30540332
15	0xb2a90f45	-1.9681133e-08
16	0x3e9fa0cf	0.31177375
17	0xbb8b4e84	-0.004251303
18	0x3ebbcff6	0.366821
19	0x3ecf5fbb	0.40502724
20	0xbc002c42	-0.007823052
21	0x3e7fcd67	0.24980699
22	0xb4885842	-2.539619e-07
23	0x3e96ee17	0.29478523
24	0xb38411c2	-6.149959e-08
25	0xb3603dc0	-5.2210225e-08
26	0x392774dc	0.00015969895
27	0xb8180910	-3.6248064e-05
28	0x3eb5834b	0.3545173
29	0xbaf8049c	-0.0018922272
30	0x3ec94c64	0.39316094
31	0x3b2d63a0	0.0026457086

weight f4 [1, 32]
0	0xbb2a2d5d	-0.002596698
1	0xb2bb3405	-2.1793321e-08
2	0xbe40ceca	-0.18828884
3	0x320e891f	8.296666e-09
4	0xbe52e2f4	-0.20594388
5	0x362768a9	2.494586e-06
6	0x37e23d49	2.6969838e-05
7	0xb9292467	-0.00016130657
8	0xb7c4f8c5	-2.3480863e-05
9	0xbecce469	-0.40018013
10	0x39964814	0.00028663932
11	0xbebb9a44	-0.36641133
12	0xbb7ae3ad	-0.0038282678
13	0xbeab4d37	-0.33457348
14	0xbea4f726	-0.3221981
15	0x326d0c9c	1.3798083e-08
16	0xbea98902	-0.3311234
17	0xbb476191	-0.0030423144
18	0xbed080ca	-0.40723258
19	0xbeeb6902	-0.45978552
20	0xbbeec214	-0.0072863195
21	0xbe816a01	-0.25276187
22	0xb3858503	-6.21749e-08
23	0xbea0c5a2	-0.31400782
24	0x33844054	6.15843e-08
25	0xb34eb699	-4.8129184e-08
26	0x393e16dd	0.00018128329
27	0x382837c0	4.0106243e-05
28	0xbecd1bb1	-0.4006019
29	0x3aa3518d	0.0012460217
30	0xbef33075	-0.47497907
31	0x3b3e4db2	0.002903801
