ckpt/real_only_MLP-last.pt (torch, 106402 bytes, 11 tensors)

weight f4 [256, 7]
000000 e0 21 92 b1 f3 c0 dc b2 6a fc 2a b2 96 c0 1b b1
       -4.2530104e-09 -2.5699114e-08 -9.952695e-09 -2.266494e-09
000010 e7 f2 fd b1 04 cd 64 b1 d5 9f 38 b1 cb 6e e9 3a
       -7.390884e-09 -3.3294905e-09 -2.6866378e-09 0.0017809508
000020 29 ba f6 bb 72 19 7c b9 9a a1 4c b9 63 66 3b b9
       -0.0075295162 -0.00024042072 -0.00019515157 -0.00017871852
000030 d7 ea e6 b8 d9 de df b8 d9 70 6a b7 c3 5e f8 b7
       -0.00011010997 -0.00010674977 -1.3973761e-05 -2.960803e-05
000040 5f ef 61 b7 c0 8b 92 b6 14 30 27 b7 5f e0 b9 b6
       -1.3466778e-05 -4.367408e-06 -9.96517e-06 -5.53955e-06
000050 43 58 a0 b6 e4 94 4c ad b7 fa 74 ad 8b eb 1d ad
       -4.7786466e-06 -1.1629118e-11 -1.3925464e-11 -8.976718e-12
000060 29 10 0d ac 12 7f c6 ac 2a 3b 0f ac e4 25 ed ab
       -2.0046276e-12 -5.641606e-12 -2.0354365e-12 -1.685038e-12
000070 43 82 82 39 e3 21 a5 b9 0b 94 55 b7 a5 11 f4 b6
       0.00024892585 -0.000314965 -1.2730258e-05 -7.2738208e-06
000080 c0 62 21 b7 43 90 e1 b6 23 d5 c8 b6 d9 3a cc b9
       -9.61934e-06 -6.722317e-06 -5.985277e-06 -0.00038953757
000090 5b 41 d8 b9 67 f3 9e b9 f2 a5 7a b8 1d bd 5a b9
       -0.00041247424 -0.00030317457 -5.9759193e-05 -0.0002086055
0000a0 c2 27 c4 b8 e9 e2 8d b8 7d f7 a0 b2 ea 1a 97 b2
       -9.353414e-05 -6.765669e-05 -1.8738996e-08 -1.7590953e-08
0000b0 5e 3d 9d b2 1d d0 87 b1 46 01 24 b2 a1 6b 9e b1
       -1.8305112e-08 -3.952677e-09 -9.546346e-09 -4.610641e-09
0000c0 ba df 82 b1 4f 0c 49 bc 10 0b 1c bd f6 af 1f bc
       -3.8089327e-09 -0.012271001 -0.038096488 -0.009746542
0000d0 d0 99 a3 ba 60 50 ab bc c1 92 09 3b b8 03 fe b7
       -0.0012481753 -0.02091235 0.0020992013 -3.0280891e-05
0000e0 0b 16 60 b3 73 f6 7a b3 0b 9b 18 b3 0a 61 63 b2
       -5.2174112e-08 -5.8431805e-08 -3.553127e-08 -1.3235203e-08
0000f0 bb d9 be b2 ca 67 78 b2 58 19 4a b2 72 3b 42 af
       -2.2217924e-08 -1.4459099e-08 -1.176371e-08 -1.7665316e-10
000100 48 ce 48 af 79 e3 3c af af 38 1e ae 27 59 e3 ae
       -1.826318e-10 -1.7179315e-10 -3.5975386e-11 -1.03386015e-10
000110 b9 e4 2f ae 3c 7e ea ad 1d ac d4 bc c6 67 dc bc
       -3.999354e-11 -2.665878e-11 -0.025960976 -0.026904952
000120 0e ea 75 bc d9 00 2a bb 39 0f 28 bc 4c 3c 6c bb
       -0.015009416 -0.0025940447 -0.010257536 -0.0036046682
000130 a7 2e 79 bb 80 ad 0d aa fc 59 13 aa c7 48 e0 a9
       -0.0038022192 -1.258351e-13 -1.3087442e-13 -9.960223e-14
000140 22 25 86 a8 b8 eb 7d a9 ea 87 be a8 61 0f 92 a8
       -1.4893092e-14 -5.638174e-14 -2.115318e-14 -1.6215926e-14
000150 71 51 8e 38 0c 90 a4 b8 4d ad 8c b6 d0 82 0b b6
       6.786257e-05 -7.84696e-05 -4.1925e-06 -2.0788757e-06
000160 f0 15 64 b6 84 79 08 b6 0f 5b fc b5 8c ff c9 af
       -3.3987417e-06 -2.033631e-06 -1.8801965e-06 -3.6743264e-10
000170 6e 77 d0 af a0 f8 cb af ae 31 43 ae 77 78 71 af
       -3.791984e-10 -3.7102144e-10 -4.438199e-11 -2.196162e-10
000180 f1 a0 d2 ae 91 5c ac ae 6e 80 11 bc 7b b3 0d bc
       -9.578283e-11 -7.8380975e-11 -0.008880718 -0.0086487485
000190 84 b9 97 bb 25 4e fe ba 81 6a 77 bb 01 e0 4a bb
       -0.0046302695 -0.0019401951 -0.003775269 -0.003095627
0001a0 d7 c4 c7 ba 89 0a e3 af e8 3d 02 b0 2b 50 b9 af
       -0.0015241158 -4.1298545e-10 -4.73817e-10 -3.3708267e-10
0001b0 ea e3 e3 ae a9 d4 62 af 72 d9 ee ae 6d 7b be ae
       -1.03632505e-10 -2.0630132e-10 -1.0861613e-10 -8.6621245e-11
0001c0 f2 13 ad 3a 01 a6 d1 bb 92 a5 0a b9 c3 91 02 b9
       0.0013204797 -0.006397963 -0.00013222385 -0.00012452067
0001d0 ae d5 fa b8 3e 84 9a b8 c9 7d 94 b8 4e 3d 8d a9
       -0.0001196073 -7.367924e-05 -7.080619e-05 -6.2722925e-14
0001e0 e6 b4 60 a9 2f cd 97 a9 aa 19 d7 a7 96 f0 03 a9
       -4.9894896e-14 -6.741341e-14 -5.9702313e-15 -2.9296518e-14
0001f0 0b 2a f3 a7 14 b5 de a7 6f 5c 9c 37 ac 97 bd b8
       -6.749163e-15 -6.1813703e-15 1.8639692e-05 -9.0404734e-05
000200 99 d3 e9 b7 c6 f6 e9 b6 3e 26 a6 b7 06 ac 0c b7
       -2.7874297e-05 -6.9726693e-06 -1.980655e-05 -8.384703e-06
000210 99 90 e6 b6 bc 00 9d af 96 91 a6 af 92 31 83 af
       -6.8713675e-06 -2.8558655e-10 -3.029867e-10 -2.3863983e-10
000220 00 c4 50 ae 9f 08 45 af 2f f1 98 ae b2 71 3b ae
       -4.7467807e-11 -1.7920108e-10 -6.9550025e-11 -4.261986e-11
000230 7e 61 02 36 c5 76 14 b9 8c 2a df b7 fa 81 49 b7
       1.9428257e-06 -0.00014158625 -2.6603484e-05 -1.2010796e-05
000240 7b 71 81 b7 f2 45 17 b7 ef 6d 05 b7 e6 c6 da 3a
       -1.5430842e-05 -9.016587e-06 -7.953014e-06 0.0016691356
000250 6a 93 fe bb f8 cb 82 b9 b5 d9 46 b9 21 34 42 b9
       -0.007769038 -0.000249475 -0.00018963854 -0.00018520701
000260 6a 17 f2 b8 1c 7e e9 b8 e9 76 40 a4 be e5 3b a4
       -0.000115438204 -0.000111337955 -4.1734084e-17 -4.074376e-17
000270 c1 9c 37 a4 66 a0 04 a3 80 95 f5 a3 c9 79 47 a3
       -3.9814575e-17 -7.1897e-18 -2.6626269e-17 -1.0813601e-17
000280 dd 33 37 a3 ce 22 a1 b5 ef e5 aa b5 5e 8f 94 b5
       -9.931432e-18 -1.2005564e-06 -1.2732906e-06 -1.1068585e-06
000290 c4 39 61 b4 3b be 33 b5 82 57 76 b4 48 09 57 b4
       -2.0975773e-07 -6.695952e-07 -2.294237e-07 -2.0026812e-07
0002a0 5e 6c 40 bc 76 6e 8b bc 9e 59 dd ba d4 b7 f2 ba
       -0.011744587 -0.017020445 -0.001688767 -0.001851792
0002b0 de c7 19 3b ee 29 eb ba 4d fa c7 ba ff eb ea b2
       0.0023465077 -0.0017941573 -0.001525709 -2.7348504e-08
0002c0 3d 27 c5 b3 4e 41 0f b3 48 4c 0e b2 ca a3 ce b2
       -9.180665e-08 -3.3354176e-08 -8.282832e-09 -2.4056039e-08
0002d0 f1 a7 35 b2 63 4f 1a b2 98 a5 85 bc af d4 9c 3c
       -1.0573772e-08 -8.98203e-09 -0.016314313 0.019144384
0002e0 8e e2 03 3b 8c 1f 29 3b 3d 2b a3 3a 65 2c 11 3b
       0.002012405 0.0025806157 0.0012448799 0.0022151705
0002f0 25 9c 09 3b e9 18 bc bb de 8c bb bb 38 6b 86 bb
       0.002099761 -0.005740274 -0.00572358 -0.004102137
000300 50 5f 78 ba 5a 55 36 bb d5 65 9f ba 59 7f 8c ba
       -0.0009474652 -0.002782187 -0.0012161086 -0.0010719105
000310 59 9f a8 a7 82 ae 8b a8 b8 87 20 a8 99 69 58 a7
       -4.680213e-15 -1.550778e-14 -8.9112135e-15 -3.0033266e-15
000320 a4 12 02 a8 70 27 53 a7 60 63 2a a7 a2 a4 7a b7
       -7.220492e-15 -2.9303511e-15 -2.364611e-15 -1.4939493e-05
000330 d8 af 7c b7 f7 1d 6c b7 05 d2 35 b6 dd 85 0e b7
       -1.5061312e-05 -1.4073673e-05 -2.709335e-06 -8.495027e-06
000340 c8 34 85 b6 27 63 51 b6 be 3c d3 a8 a1 fe 12 a9
       -3.9698534e-06 -3.1201141e-06 -2.3452049e-14 -3.2639368e-14
000350 29 c2 fc a8 0b 96 b7 a7 6a 0d 95 a8 f7 16 04 a8
       -2.8061824e-14 -5.095538e-15 -1.654814e-14 -7.332452e-15
000360 a4 43 a1 a7 00 53 22 38 fb d7 1f b9 04 65 f6 b7
       -4.4759813e-15 3.870111e-05 -0.0001524388 -2.9372524e-05
000370 29 fc 35 b7 d6 16 be b7 b2 52 61 b7 62 aa 3f b7
       -1.0847151e-05 -2.2660399e-05 -1.3430299e-05 -1.14241575e-05
000380 5d ce 5b b2 fe 42 6f b2 ab 4f 4a b2 a6 d7 81 b1
       -1.2794399e-08 -1.3926863e-08 -1.1776062e-08 -3.7789105e-09
000390 e9 ed 20 b2 9e b3 ce b1 0b 19 a4 b1 27 78 67 bb
       -9.36732e-09 -6.015809e-09 -4.7758753e-09 -0.003531942
0003a0 b6 62 66 bb 7e 63 5f bb 77 33 01 ba ae 24 03 bb
       -0.003515405 -0.0034086402 -0.00049286283 -0.0020010876
0003b0 7b ad 42 ba b8 bb 1e ba 95 29 84 36 af c1 0e b8
       -0.00074263633 -0.0006055194 3.9387473e-06 -3.403582e-05
0003c0 54 4e 56 b7 e0 75 51 b6 54 10 0f b7 ae a8 76 b6
       -1.2773631e-05 -3.121204e-06 -8.527266e-06 -3.675504e-06
0003d0 24 07 48 b6 c6 89 9d 2d 53 28 aa af 79 65 06 af
       -2.9806479e-06 1.7910017e-11 -3.0951472e-10 -1.222328e-10
0003e0 66 1f 11 ae a3 9d a3 ae c0 c2 2f ae 45 1e 12 ae
       -3.299707e-11 -7.440384e-11 -3.9963366e-11 -3.322344e-11
0003f0 b9 49 de 37 04 dc 4f b9 76 a3 59 b8 d0 bf 84 b7
       2.6498792e-05 -0.0001982302 -5.1889067e-05 -1.5824946e-05

bias f4 [256]
000000 7e 31 03 b2 40 da 8b b9 31 0d 49 b7 ff a6 f5 ac
       -7.636457e-09 -0.00026674755 -1.1983605e-05 -6.981859e-12
000010 c7 13 41 b7 ce c6 65 b9 ba 11 70 b2 57 7c 4c bc
       -1.1508301e-05 -0.00021913202 -1.3973869e-08 -0.012480817
000020 18 43 f4 b2 31 2f f6 ae 03 50 35 bc 3f c1 97 a9
       -2.843585e-08 -1.1195168e-10 -0.01106644 -6.73927e-14
000030 95 32 84 b6 92 92 81 af e3 2a 9f bb b9 19 9a af
       -3.939795e-06 -2.3569108e-10 -0.0048574074 -2.8030714e-10
000040 17 fc 36 b9 3a de 00 a9 32 3c ba b7 5d ec 3f af
       -0.00017450783 -2.861446e-14 -2.2200958e-05 -1.7455322e-10
000050 8d 9b b3 b7 c4 94 90 b9 87 7b 17 a4 a0 d5 4a b5
       -2.1410897e-05 -0.0002757666 -3.2847537e-17 -7.556173e-07
000060 75 73 59 38 b1 4b f1 b2 98 5e 0f 3b c5 60 4d bb
       5.184436e-05 -2.8090513e-08 0.002187645 -0.0031338197
000070 0c 6a 0c a8 d5 ce 2b b7 3a 22 a3 a8 91 77 c9 b7
       -7.794556e-15 -1.0240551e-05 -1.8111479e-14 -2.4016745e-05
000080 47 6c 14 b2 92 f9 16 bb e1 9d 1f b7 88 6e b8 ae
       -8.639353e-09 -0.002303694 -9.513898e-06 -8.3869856e-11
000090 8c c3 38 b8 1a 73 0b b5 c6 3c 41 b8 3c 79 10 b8
       -4.4051136e-05 -5.194903e-07 -4.6071385e-05 -3.4445184e-05
0000a0 71 d3 6b b7 9b ec 60 b8 e2 d6 35 b2 0f 23 45 b3
       -1.4056322e-05 -5.3626118e-05 -1.0584445e-08 -4.5899522e-08
0000b0 61 8f 35 b4 f0 22 16 ad 2a a8 86 b7 7b 32 b1 b6
       -1.69091e-07 -8.5342705e-12 -1.6052352e-05 -5.2808878e-06
0000c0 db be 83 b9 5f 74 2c af 92 33 de b6 c2 ad 29 ae
       -0.00025128465 -1.5684652e-10 -6.622119e-06 -3.858048e-11
0000d0 d3 bc 6f b9 94 ca 03 b3 64 4c 06 bb 35 77 9a b7
       -0.00022863159 -3.0685058e-08 -0.002049231 -1.841374e-05
0000e0 ec c4 8d ae d8 13 f5 b9 5a 39 83 b7 43 d6 ac b8
       -6.446918e-11 -0.00046744826 -1.5643123e-05 -8.2415085e-05
0000f0 e9 fa fb b7 16 ff 75 b7 59 fa aa bb 33 8f b5 b6
       -3.003837e-05 -1.466253e-05 -0.005217832 -5.410891e-06
000100 64 da 8b b8 48 ad 83 bb 1c 7e be b0 7e 0d 79 ac
       -6.668715e-05 -0.0040184595 -1.3860162e-09 -3.5392518e-12
000110 e6 a2 0a b8 1e 81 c0 ad fb 3e 27 bc 49 68 1a a8
       -3.3053475e-05 -2.1885212e-11 -0.010207887 -8.5713305e-15
000120 88 5a 70 bb e6 4b 6d b8 f7 2f 86 bb 2c 8c 7a b9
       -0.0036675055 -5.657589e-05 -0.0040950733 -0.00023894076
000130 85 0a 72 b7 35 6c fc b6 2d 46 9c b5 b5 ef c4 ba
       -1.4426773e-05 -7.522782e-06 -1.164333e-06 -0.0015025052
000140 fb a3 0c b0 9d e2 e4 ae cd 95 ef b7 83 78 70 b5
       -5.1164734e-10 -1.0408494e-10 -2.8560777e-05 -8.9582335e-07
000150 c6 51 1d b1 ef d0 be b7 80 f6 1e b1 bd 59 5b b9
       -2.289299e-09 -2.2747057e-05 -2.3132145e-09 -0.00020918898
000160 e7 49 84 b6 d1 29 0f 3b ff f2 12 3a 4d d4 cf a2
       -3.94251e-06 0.0021844993 0.0005605667 -5.6332245e-18
000170 ad df e6 b1 aa ed 22 b6 7a a8 0e b1 53 14 a5 b7
       -6.71931e-09 -2.427822e-06 -2.0759487e-09 -1.9678997e-05
000180 10 db 6e b0 61 38 d3 b6 90 72 ae b0 2b 68 2f bc
       -8.68952e-10 -6.2948534e-06 -1.2692727e-09 -0.010705988
000190 9f 4c 54 b5 34 f1 1f b0 d3 6e 98 ab 7a 86 d3 b1
       -7.908765e-07 -5.8186633e-10 -1.083101e-12 -6.1561964e-09
0001a0 e5 49 72 aa b9 47 3d b7 28 4f 51 b1 3d a6 cc b1
       -2.1519555e-13 -1.1281977e-05 -3.0458498e-09 -5.9560805e-09
0001b0 74 e6 15 b7 79 1c 21 b7 09 28 96 b8 4e db 9b b0
       -8.934749e-06 -9.602977e-06 -7.1600145e-05 -1.1340064e-09
0001c0 9a 49 63 bb 79 7b 4f b9 8d 9a bd b4 2c 00 18 bc
       -0.003468132 -0.00019787055 -3.5316444e-07 -0.009277385
0001d0 b7 00 ad a7 85 42 c3 b8 9f 37 0d b5 16 ce 86 ba
       -4.801792e-15 -9.310715e-05 -5.260753e-07 -0.0010284807
0001e0 b9 b0 6b b4 41 20 6f b7 a4 df e4 ab cb 03 fc b6
       -2.1950372e-07 -1.425302e-05 -1.6262447e-12 -7.510627e-06
0001f0 76 6b 2a bc 6f 34 2a b4 f6 97 e3 ad 41 4f 71 ac
       -0.010401597 -1.5851559e-07 -2.5874396e-11 -3.4292155e-12
000200 4d ac b4 ab 79 94 92 b7 79 5e 3d b3 75 dc da b3
       -1.2837592e-12 -1.7473694e-05 -4.4090914e-08 -1.0191517e-07
000210 90 65 7a bb c2 84 ba b3 48 d6 2f bb c5 eb 89 ba
       -0.0038207509 -8.6854484e-08 -0.0026830602 -0.0010522535
000220 d0 06 1a b8 3a 49 04 ad 85 d8 89 b4 46 36 03 3d
       -3.6722806e-05 -7.519591e-12 -2.5675777e-07 0.03203418
000230 44 ac 87 b7 fa 56 03 b0 16 92 40 b5 7d fd a7 b0
       -1.6173472e-05 -4.7781124e-10 -7.1738157e-07 -1.2222895e-09
000240 f0 d9 c7 bb f3 a4 89 ba 3b 10 9e ae 37 d3 4e b9
       -0.006098978 -0.0010501429 -7.187891e-11 -0.00019724375
000250 e7 fc 61 bc 46 17 fa b6 d8 71 c9 b8 bf 2e 11 b8
       -0.013793207 -7.45329e-06 -9.605632e-05 -3.461423e-05
000260 61 8e a5 b6 b6 2b 07 b6 c2 b6 1a b7 90 66 d4 b7
       -4.9339583e-06 -2.014201e-06 -9.221667e-06 -2.5320129e-05
000270 05 eb 36 b2 99 74 73 af b8 21 a3 bc 9c 5b 75 b7
       -1.06472315e-08 -2.2142145e-10 -0.01991354 -1.4624467e-05
000280 3b 50 43 b7 d7 41 a5 b4 c5 26 2a b5 87 1e d5 b6
       -1.1641586e-05 -3.078155e-07 -6.338635e-07 -6.3514485e-06
000290 47 33 ea 3a e1 4a 43 a9 e9 17 c5 b5 6b b6 00 ad
       0.0017868065 -4.3363645e-14 -1.4684603e-06 -7.3164625e-12
0002a0 95 4f 2b b2 4a 7c b0 b0 65 0e 41 b8 ce 44 cd ad
       -9.971605e-09 -1.284101e-09 -4.602819e-05 -2.3336357e-11
0002b0 ff 43 31 b7 7c 0c 48 b1 8b 8f a5 ae 1f 52 d3 ae
       -1.0565854e-05 -2.9110927e-09 -7.5288296e-11 -9.609757e-11
0002c0 57 5a 1e b2 5f a3 24 b9 0d 4e 0c b9 a5 6e d0 bb
       -9.217351e-09 -0.00015701119 -0.00013380517 -0.006360846
0002d0 a1 48 ea 9f 03 5c 32 b1 4c da 20 bc d5 93 a4 ba
       -9.922301e-20 -2.5954712e-09 -0.009817671 -0.0012556264
0002e0 8e 60 12 b6 fc 19 1d b6 14 5f 30 b6 f5 b3 7d b7
       -2.1811898e-06 -2.3409948e-06 -2.6281386e-06 -1.5121875e-05
0002f0 a1 7d 2f bc 3e 47 68 ae 25 7a db b1 8a e9 1a ba
       -0.010711105 -5.281397e-11 -6.387625e-09 -0.0005909434
000300 d0 f0 47 b8 94 b1 83 b9 6b 07 ea af aa 73 d4 af
       -4.766957e-05 -0.00025118573 -4.2569623e-10 -3.864476e-10
000310 bd 70 8f b5 b8 09 87 af f3 43 0d b8 51 f6 92 b0
       -1.0687141e-06 -2.4563263e-10 -3.3680302e-05 -1.0692905e-09
000320 3f 0e 6b b6 07 7c 44 bc b9 50 bf ab 32 1d 99 b7
       -3.502602e-06 -0.011992461 -1.3593771e-12 -1.8252616e-05
000330 01 fb cd b9 8e 5d 59 b4 b0 df 4d bc f4 d7 6f b7
       -0.0003928766 -2.0243735e-07 -0.012565538 -1.4295791e-05
000340 e8 f5 27 3c 6b 31 41 b4 41 60 46 ba 3d 98 61 b7
       0.0102515 -1.7992504e-07 -0.00075674435 -1.3446491e-05
000350 eb 22 5b b8 37 c1 f1 b2 31 63 99 b1 7d 0d 06 b9
       -5.224619e-05 -2.8143956e-08 -4.464163e-09 -0.0001278426
000360 3c c4 1c b1 19 e7 a2 a7 49 d7 a8 b6 c4 02 08 bc
       -2.2812534e-09 -4.521459e-15 -5.0318527e-06 -0.008301441
000370 68 ac 19 b5 75 e6 c0 ab a4 04 47 3b b7 f0 9f b5
       -5.7247826e-07 -1.3706385e-12 0.0030367756 -1.191648e-06
000380 68 a4 04 b9 82 1a e1 b4 b5 2e 41 b4 40 85 0c b1
       -0.00012649747 -4.1928803e-07 -1.7991518e-07 -2.0448425e-09
000390 66 86 9f b7 c4 4f 55 ba df 8d 4f b9 61 0d dd ab
       -1.9016861e-05 -0.0008137191 -0.0001979391 -1.5706708e-12
0003a0 83 f4 db b4 63 d0 05 b3 42 06 ed b8 e7 f0 3a ba
       -4.0969834e-07 -3.1156002e-08 -0.00011302206 -0.0007131234
0003b0 92 be 86 b9 f5 02 53 b4 7e d7 cb b6 31 17 a0 b8
       -0.00025700458 -1.9651982e-07 -6.074958e-06 -7.633714e-05
0003c0 4c 54 59 b3 88 d6 b4 b8 74 94 9c b3 2e 8c cd b3
       -5.0600917e-08 -8.6230284e-05 -7.2913195e-08 -9.571555e-08
0003d0 91 ed 55 ac aa ea 8c b7 95 78 84 b3 d0 f5 2a bb
       -3.0400996e-12 -1.6798575e-05 -6.168663e-08 -0.0026086457
0003e0 90 bc 23 b3 0f dc d1 b9 8f 2d 58 b7 6e 78 b8 bb
       -3.812289e-08 -0.00040027543 -1.2885211e-05 -0.0056295907
0003f0 aa be 1a b7 87 ae 12 bb cd a6 57 bb ae 97 9e b8
       -9.223508e-06 -0.0022381858 -0.0032905817 -7.56228e-05

weight f4 [32, 256]
000000 55 ef 99 2f 62 6e 21 35 ef b7 02 37 15 aa b6 2b
       2.8000594e-10 6.01378e-07 7.791429e-06 1.2979085e-12
000010 d2 03 af 35 66 cd 2b 38 ee 99 1e 31 ca 4b a0 bb
       1.3039628e-06 4.096087e-05 2.3079525e-09 -0.0048918473
000020 48 2b 84 30 e8 79 9c 2d 48 27 9a 3b 44 27 2f 27
       9.616565e-10 1.7789284e-11 0.0047043897 2.4307415e-15
000030 57 f4 3e b5 ea 87 2c 2e 1c ab b3 3a c9 8a b7 2e
       -7.1136077e-07 3.9228988e-11 0.0013707611 8.34653e-11
000040 3c af 7e b8 f5 3f bb a4 d9 dd 09 36 aa 30 ff 2d
       -6.072152e-05 -8.120667e-17 2.0543723e-06 2.9011755e-11
000050 5c 24 f0 35 cd a4 37 b7 40 db ae 22 de 96 4e 34
       1.7891975e-06 -1.0946021e-05 4.7394934e-18 1.924013e-07
000060 31 23 9b bc 7a 33 b2 af b6 db 15 bc 7e b4 34 3a
       -0.018937679 -3.2414588e-10 -0.009146621 0.00068933505
000070 75 dd 71 27 9a 08 e2 35 e2 04 5e 24 48 84 9a 37
       3.356552e-15 1.6840816e-06 4.8142712e-17 1.8419829e-05
000080 dc 0b 80 31 c2 a2 ff 39 0d 4c c3 35 4b 69 02 2e
       3.7266386e-09 0.00048758654 1.4550766e-06 2.9652097e-11
000090 07 25 2e 36 c9 88 86 33 a4 91 76 38 9b 5e 9c 36
       2.5949573e-06 6.264742e-08 5.878661e-05 4.660176e-06
0000a0 f9 bd c0 35 f9 73 9e 38 f7 25 1d 2e 68 d7 ae 32
       1.4360404e-06 7.555629e-05 3.5731387e-11 2.0354221e-08
0000b0 50 e0 1e 34 dd 88 24 2c 32 36 18 36 3f bb 01 36
       1.4796501e-07 2.3381776e-12 2.268131e-06 1.933149e-06
0000c0 e9 e6 11 3a 87 03 08 2e c9 ba a6 34 4c 34 c3 2c
       0.00055657193 3.0925953e-11 3.1055814e-07 5.5480395e-12
0000d0 52 39 e5 b8 57 42 c5 31 c6 07 2b 3a 69 7c c7 36
       -0.00010930248 5.7409966e-09 0.00065242907 5.9451454e-06
0000e0 07 89 03 2e 94 e2 41 39 52 f2 86 36 0d f2 fa 37
       2.9907656e-11 0.00018490321 4.021721e-06 2.9915036e-05
0000f0 5a 86 19 36 bd 10 9e 35 67 b7 87 b9 cd eb ce 33
       2.287698e-06 1.1776789e-06 -0.00025885852 9.6355144e-08
000100 f6 52 b3 37 b1 4e 88 b8 c4 3c 79 2e 4f 9e 93 2b
       2.1377095e-05 -6.499643e-05 5.6670016e-11 1.0488918e-12
000110 bd bd c0 36 26 c1 07 2d b7 c6 7e 3b d2 26 d7 25
       5.7441343e-06 7.716749e-12 0.0038875767 3.732286e-16
000120 01 39 8d b9 79 14 37 37 45 4f e1 b8 47 58 0b b8
       -0.00026936087 1.0912417e-05 -0.00010743601 -3.3222397e-05
000130 c9 b3 8d 35 11 bf 1e 36 b3 e5 17 34 d7 5f 3b 37
       1.0557643e-06 2.365505e-06 1.4146535e-07 1.1168383e-05
000140 04 89 96 2f 90 f4 3d 2e 9f fe 17 b7 7f ad 80 34
       2.7382197e-10 4.319084e-11 -9.059585e-06 2.3968093e-07
000150 43 a3 9c 30 56 b1 11 38 97 f7 0b af 0c 44 28 b8
       1.1396896e-09 3.473585e-05 -1.2729938e-10 -4.0117695e-05
000160 6c e1 71 34 1a d0 f6 bc 8e 0e 30 3a 39 70 a6 21
       2.2526882e-07 -0.030128527 0.0006716036 1.1278303e-18
000170 0e d5 f7 30 ae 46 09 35 2f 27 02 30 4e cd 37 36
       1.8032169e-09 5.113933e-07 4.734941e-10 2.7388628e-06
000180 89 f7 1c 2f 93 b2 ce 34 7d 78 d4 2f 55 51 44 ba
       1.427606e-10 3.850042e-07 3.8648187e-10 -0.0007488926
000190 93 0c 94 34 dc 1a b7 2e aa f4 8c 29 b9 39 f0 2d
       2.7576297e-07 8.326648e-11 6.2596914e-14 2.7310475e-11
0001a0 04 71 29 29 84 25 61 36 48 b1 1e b0 2a 49 15 32
       3.7623564e-14 3.354945e-06 -5.7731997e-10 8.689577e-09
0001b0 0d 6d 2c b5 cf df 4f 36 d0 d4 35 37 5b e3 f4 2f
       -6.4233683e-07 3.0975677e-06 1.083799e-05 4.4544887e-10
0001c0 36 3b fb b8 79 78 a1 b7 2b 70 b5 b2 61 30 d0 3a
       -0.000119796416 -1.9248795e-05 -2.1122181e-08 0.0015883559
0001d0 ca c2 2a 27 74 cc 83 37 69 11 e7 33 c0 bc e6 3a
       2.3697835e-15 1.5711623e-05 1.07599426e-07 0.0017603859
0001e0 2c cd 33 33 75 d4 e7 36 3a 4e e5 29 19 eb ba 35
       4.1863288e-08 6.9090697e-06 1.0183213e-13 1.3926502e-06
0001f0 e5 3e 60 3b 16 35 6c 32 25 bf 49 2b e2 b6 9c 2b
       0.0034217176 1.3749078e-08 7.167481e-13 1.1135227e-12
000200 76 7e db 29 9b 51 3b 36 cf 46 37 32 93 c3 58 31
       9.747491e-14 2.7912672e-06 1.0668102e-08 3.1543308e-09
000210 06 80 a8 b8 4f eb 72 33 9b 48 76 b9 68 67 ac 39
       -8.0347105e-05 5.6559028e-08 -0.00023487436 0.0003288344
000220 bb d3 24 36 8c 58 58 2b 9a 62 fe 32 b4 8a d7 3b
       2.4561148e-06 7.68615e-13 2.961433e-08 0.006577814
000230 3b 8f af 36 db 21 92 2e e2 06 8d b2 f3 5d e8 2f
       5.2320806e-06 6.645325e-11 -1.641769e-08 4.226731e-10
000240 e5 53 94 ba 45 9f dc 37 6e 14 ef 2d a6 46 01 34
       -0.0011316506 2.630021e-05 2.7180227e-11 1.2039763e-07
000250 c2 4c 8b ba ef 48 b2 35 f1 f6 b4 36 d0 c7 ba b4
       -0.0010627734 1.328326e-06 5.393166e-06 -3.4790583e-07
000260 88 ea 57 35 86 a5 a4 b4 89 ec e7 35 26 bc 15 37
       8.043503e-07 -3.0667815e-07 1.7279682e-06 8.924899e-06
000270 f7 80 48 31 26 0b 9f 2e 93 a0 23 bb da 5f e6 b5
       2.9177138e-09 7.232463e-11 -0.0024967536 -1.7164232e-06
000280 1c 84 82 36 3f 78 0e 33 5d b3 91 34 7b 11 bd b5
       3.8896815e-06 3.3171315e-08 2.713886e-07 -1.4086685e-06
000290 d9 9a 00 bd d9 83 3b 28 15 0f 80 b3 41 16 ff 2b
       -0.031397674 1.0409175e-14 -5.963208e-08 1.8125016e-12
0002a0 bd c4 22 32 0b 4d 03 2f 95 c6 3d 36 33 16 e6 aa
       9.474374e-09 1.1941752e-10 2.8278785e-06 -4.087161e-13
0002b0 55 49 26 35 ac 8e d3 2e c8 e6 e5 2d 03 66 60 2e
       6.194653e-07 9.620513e-11 2.6136773e-11 5.1022308e-11
0002c0 e7 d2 47 31 a3 42 71 38 73 dd 43 38 ac 95 c5 b9
       2.9078195e-09 5.7520938e-05 4.6697864e-05 -0.00037686282
0002d0 f6 71 02 9e 43 6e bc 30 3c bc 16 3b 4b 56 26 39
       -6.905709e-21 1.3710139e-09 0.002300038 0.0001586314
0002e0 b5 95 99 34 8d ba ee b4 39 8b 83 b3 b9 85 c2 36
       2.8607397e-07 -4.4466688e-07 -6.125487e-08 5.797218e-06
0002f0 34 52 33 3b 3d 58 c5 2c 95 ef 9b 2f 82 61 b4 38
       0.002736223 5.608873e-12 2.836457e-10 8.601231e-05
000300 88 a5 1e 36 04 51 b7 39 45 61 83 2e 4c a4 64 2f
       2.3640187e-06 0.0003496484 5.974469e-11 2.0794849e-10
000310 50 ca fe 34 63 17 c0 2e 2f a9 d3 37 9e 81 b1 2f
       4.7458389e-07 8.7353035e-11 2.5231942e-05 3.228821e-10
000320 b7 85 28 35 50 0e da ba 65 79 e6 28 74 cf 8c 37
       6.277946e-07 -0.0016636346 2.5587776e-14 1.6785903e-05
000330 15 eb 0f 38 36 58 2a 33 31 ac 98 3b e8 4d a1 35
       3.4312794e-05 3.9661437e-08 0.0046591987 1.2018108e-06
000340 1b 47 ca 3c 53 4c 5c 33 18 d8 19 39 9b 6e 30 35
       0.024692109 5.1292158e-08 0.00014671718 6.572606e-07
000350 75 b1 4f 36 17 10 04 32 59 a4 99 30 f9 6a 85 37
       3.0948697e-06 7.68707e-09 1.1178926e-09 1.5904649e-05
000360 b8 6d 86 2f 70 d5 90 26 e7 19 0f 36 c8 cb f6 3a
       2.4452418e-10 1.004986e-15 2.1323738e-06 0.0018829042
000370 a6 75 95 b3 e6 af f2 2a 27 e1 e4 bc e8 f3 03 32
       -6.959753e-08 4.310989e-13 -0.027939392 7.680661e-09
000380 ee 98 bb 37 7d 22 07 34 d9 8a 23 34 d0 cb 41 30
       2.236335e-05 1.2585402e-07 1.523107e-07 7.0502626e-10
000390 24 5a 28 35 8c bf 7e 38 ea 43 90 37 94 ef 5c 2a
       6.271605e-07 6.073671e-05 1.7197763e-05 1.9623046e-13
0003a0 54 db 3e 33 c8 0b 11 32 76 80 b8 37 be 4d 0d 39
       4.44373e-08 8.44279e-09 2.1994329e-05 0.00013475769
0003b0 9d da c8 b7 23 0e 8a 31 9a 90 9f 36 53 ed a1 36
       -2.3943658e-05 4.0179358e-09 4.755403e-06 4.825802e-06
0003c0 57 49 f7 32 ea 1f 98 37 38 a0 b1 32 1e 2f c1 31
       2.8787936e-08 1.8134673e-05 2.0678371e-08 5.622396e-09
0003d0 ed 3d 7b 2b 30 9b 4c 37 39 a3 97 32 a3 aa 82 39
       8.925905e-13 1.219548e-05 1.7652939e-08 0.00024922666
0003e0 99 a5 ec af bf 9e 0a 38 0c c2 e1 36 f9 5d f4 3a
       -4.3045814e-10 3.3049608e-05 6.7281126e-06 0.0018643729
0003f0 c8 01 95 35 fd e4 ed 39 c3 27 4b b8 28 d9 78 38
       1.1101884e-06 0.00045374772 -4.8436003e-05 5.933005e-05

bias f4 [32]
000000 48 b0 0d bc d4 65 63 ba 40 97 c3 ba a8 02 0d 3c
       -0.008647986 -0.00086745364 -0.0014922395 0.00860659
000010 b4 c2 44 ba bf e0 70 bb ee 7c 94 b9 c3 6e b3 bb
       -0.00075058197 -0.0036755053 -0.0002832184 -0.0054758503
000020 71 5f ee 3a 09 d3 e5 3c 7e d8 3e 3d 8b 1f 08 3d
       0.0018186403 0.028054731 0.04659318 0.033233207
000030 7e d7 03 3c be b1 14 3d 55 07 7d bb b9 cc 56 3d
       0.008046983 0.03630232 -0.0038609107 0.052441332
000040 0f 37 93 3d 26 ad f8 38 a4 7e 81 3b d9 67 7a 3d
       0.07188236 0.00011857813 0.0039518643 0.061134193
000050 71 39 5f 3d 2c 71 c4 3b 76 52 b3 ba 8e 7d fa bb
       0.05449814 0.0059949365 -0.0013681191 -0.007644362
000060 09 bc a0 ba 06 d6 e5 3b a4 52 62 39 86 47 48 3d
       -0.001226307 0.007014039 0.00021583826 0.048896335
000070 48 14 1f 3d 36 6b a6 3a 59 0e 1d ba 42 d2 b1 b9
       0.0388377 0.0012696746 -0.00059912127 -0.00033916725

weight f4 [20, 32]
000000 81 f5 dd 3c af 0f 4a 3b a8 e5 f7 3a 9b d2 ca bc
       0.027094604 0.0030832102 0.0018913047 -0.024758628
000010 ac 1e 4c 3b d4 02 01 bd 77 2a 1f 3a 3f 20 0a 3b
       0.0031146212 -0.031496838 0.00060716964 0.002107635
000020 93 be a4 bb ce c9 b6 bb 4b 02 e3 bb 0e 97 61 bc
       -0.005027601 -0.005578256 -0.0069277636 -0.013768924
000030 dd 69 a1 ba d5 28 e3 bb bf b4 c7 bb bf d7 57 bc
       -0.0012314875 -0.006932358 -0.0060945447 -0.0131739965
000040 86 ed 7f bc 09 be b5 bb 5a 3c a7 bb 76 ae b5 bc
       -0.015620595 -0.0055463356 -0.00510363 -0.022177916
000050 21 42 93 bc 88 b3 b3 38 36 7c b2 3a 02 da 25 39
       -0.017975869 8.5688254e-05 0.001361734 0.0001581684
000060 70 d4 38 3b 88 2d 8e bb 33 4e 62 3b 50 c4 4f bc
       0.0028202794 -0.004338924 0.0034531474 -0.012681082
000070 2b 6e b9 bc dd 86 3b bb 76 c5 54 3a 45 f1 22 3a
       -0.02263554 -0.002861432 0.0008116582 0.00062157615
000080 65 f5 e1 3c ba f2 1c 3b 29 70 e9 3a ab 87 00 bd
       0.027582834 0.0023948387 0.0017809916 -0.031379383
000090 06 d9 1d 3b f6 10 5d 3c fd 04 a9 3a 0c 00 70 3b
       0.0024085655 0.013492813 0.0012895163 0.0036621122
0000a0 a6 6c 5c bb 46 f1 7a 3b d6 4e 3d bb e3 9e 99 bc
       -0.0033634095 0.0038290783 -0.0028886101 -0.01875252
0000b0 3f 2f 70 3a 7f c6 2c 39 83 dc 4f bb d4 30 c5 bb
       0.00091623137 0.00016477144 -0.0031717129 -0.0060177837
0000c0 f8 49 33 bb ba c4 56 3c c3 86 6b bb 21 df e5 3b
       -0.0027357321 0.013108427 -0.0035938479 0.0070151244
0000d0 86 4d f9 3b 43 09 27 ba e1 b9 de 3a 6b e7 53 3b
       0.0076081185 -0.00063719245 0.0016992652 0.003233398
0000e0 78 37 0c 3b 93 45 c8 3b 85 56 23 3b 98 df a6 39
       0.0021395367 0.0061118095 0.0024923396 0.00031828578
0000f0 ea d2 d5 bc e9 cf ad 3b 4d ca 88 3a 06 10 28 3b
       -0.026101548 0.005304326 0.0010436267 0.0025644316
000100 06 24 fd bc ff af e6 ba 87 96 af ba 86 37 05 3d
       -0.030900966 -0.0017600058 -0.0013396301 0.032523654
000110 5b f8 e4 ba 2b c3 c2 bc 0d e2 d4 ba a8 68 99 bb
       -0.0017469035 -0.023774704 -0.0016241685 -0.0046816655
000120 c0 0e 44 3b d1 7d 09 bc 88 82 fd 3a e4 f4 af 3c
       0.0029916018 -0.008391813 0.001934127 0.021479078
000130 a2 4f 88 ba 69 58 e5 ba 03 f1 d6 3a e0 b1 86 3b
       -0.0010399709 -0.0017497662 0.0016398731 0.00411056
000140 e5 4c 9e ba 86 30 a7 bc e8 82 34 3b b4 a0 87 bc
       -0.001207736 -0.02040888 0.0027543847 -0.016556121
000150 da dd 8b bc 81 2f dd 3a a6 be c8 ba e8 ec 92 bb
       -0.01707356 0.0016875119 -0.0015315607 -0.004483808
000160 2e 23 bb ba 8c 25 1b bc 73 b4 ee ba 50 67 b6 bb
       -0.0014277452 -0.009469401 -0.0018211737 -0.005566515
000170 24 a6 e8 3c ef fa 02 bc bd 47 a0 ba b8 1a 68 bb
       0.028399535 -0.007994398 -0.0012228411 -0.0035416316
000180 38 ad d3 3c 51 81 4e 3b 51 9b 01 3b ad 6c e3 bc
       0.025839433 0.0031510184 0.0019776414 -0.027761782
000190 68 bf 50 3b 26 20 63 bc e2 9b 74 3a d5 64 4f 3b
       0.0031852368 -0.013862645 0.00093310897 0.0031645794
0001a0 3f bf 12 bb 47 95 56 bb 7d de b1 bb cc 88 7e bc
       -0.0022391824 -0.0032742785 -0.005428134 -0.015535545
0001b0 be b1 80 39 be 3e 5d bb 27 1e 30 bb 59 cb 4f bc
       0.0002454649 -0.003375932 -0.002687344 -0.012682759
0001c0 6b 2c 43 bc 52 79 72 3a 43 88 c8 ba f9 66 76 bc
       -0.011912446 0.00092496455 -0.0015299398 -0.015039199
0001d0 4c 8c 3f bc b0 ed ce ba 9b 5a d3 3a bd 12 b9 3a
       -0.011691164 -0.0015787389 0.0016125025 0.0014119964
0001e0 0e 63 33 3b 79 f2 a0 3a b1 5d 63 3b c9 96 20 bc
       0.0027372274 0.0012279294 0.0034693296 -0.009801575
0001f0 ba ab c8 bc 68 f4 26 3b 7b 9a 89 3a 23 fe f0 3a
       -0.024495948 0.0025475267 0.0010498309 0.0018386286
000200 67 50 df bc 85 9a 61 bb 88 6f 06 bb 83 a2 e8 3c
       -0.027260019 -0.0034424376 -0.0020513255 0.028397804
000210 6f da 60 bb 5e c7 a6 3c 05 08 74 ba 05 b3 53 bb
       -0.0034309884 0.020358738 -0.00093090563 -0.003230275
000220 92 15 90 3a 06 30 97 3b eb ef f6 3b 1e 6a 8c 3c
       0.0010992757 0.004613879 0.0075359247 0.017140444
000230 51 fe fe 39 cb db a9 3b 95 ef 05 3b d7 bc 82 3c
       0.00048636136 0.005183672 0.0020436991 0.015959186
000240 f6 a4 76 3c d8 f1 6c 39 f4 51 b6 3a 89 71 ae 3c
       0.015053978 0.00022596808 0.0013909922 0.021294372
000250 ba a8 81 3c 84 0e fb 3a cb 88 d8 ba 1d 51 af ba
       0.015827525 0.0019154106 -0.001652026 -0.0013375614
000260 1a 24 48 bb e8 67 d6 39 56 b5 7d bb d8 a4 33 3c
       -0.0030539096 0.00040894677 -0.003871282 0.010964595
000270 51 23 d6 3c 37 b0 57 ba 86 b3 7d ba 13 44 d9 ba
       0.026139887 -0.0008227857 -0.0009677935 -0.0016576074
000280 a9 c0 95 3b e0 12 32 3c d7 ca 3d 3c 79 62 03 3a
       0.004570086 0.010868758 0.011584005 0.0005011927
000290 e2 b7 67 3c 05 d2 94 3c e5 78 8e bb df 45 ad bc
       0.014142962 0.018166551 -0.004347908 -0.021151481
0002a0 c0 24 2d bd 30 a9 cc bb e8 c8 3e bc e9 ef 8c bb
       -0.042271376 -0.0062457547 -0.0116445795 -0.0043010605
0002b0 27 eb 30 ba 00 f7 aa bb 7f 70 50 bd 09 74 8e b9
       -0.00067489076 -0.005217433 -0.050888535 -0.00027170804
0002c0 27 47 6e bb 58 c9 44 3b 0b f6 37 bd 92 8a c9 3b
       -0.0036358328 0.0030027237 -0.04491238 0.006150552
0002d0 71 42 28 3b 73 a4 9d b9 18 bf b0 3b bf f7 39 3b
       0.0025674368 -0.00030067898 0.005393874 0.0028376428
0002e0 5a 75 eb 3c bd 47 d2 bc 6a d9 1c 3d cb 72 ad bb
       0.028742481 -0.025668973 0.03829328 -0.0052932254
0002f0 c1 bf e5 b9 2d 30 00 bd a8 ca 6e bc bc ef e7 bc
       -0.00043821151 -0.031295944 -0.014574684 -0.028312556
000300 31 15 03 bd b8 ff d0 39 f9 aa c9 39 1c e9 08 3d
       -0.03200263 0.00039863377 0.00038465092 0.033425435
000310 f6 a9 dd 39 5f 3d f3 bc 89 63 16 bb 0e 0b 05 bc
       0.00042279036 -0.02969235 -0.0022947511 -0.008120311
000320 ca f0 ee ba 20 13 9a bc 54 3d 60 3a 19 d9 c0 3c
       -0.001822972 -0.018807948 0.00085540605 0.02354102
000330 5c d0 f6 3b 75 5d ad bb 76 0b b2 bb 42 4c 71 ba
       0.0075321626 -0.005290682 -0.005433495 -0.0009204784
000340 c6 57 2f bc 0c df 0a bd b2 c2 0e bb f0 8c 02 bd
       -0.010702079 -0.03390412 -0.0021783528 -0.03187269
000350 52 3f f3 bc 71 5b ef 3b d0 d6 b5 b9 55 9b d9 bb
       -0.02969328 0.007304602 -0.00034683058 -0.0066408315
000360 8c a7 45 3a 75 fb 96 bc 76 fd 0a 3a 7a 18 99 bc
       0.000753992 -0.01843045 0.0005302051 -0.01868843
000370 ba d4 ec 3c eb 47 66 bc 0e ed c1 ba 37 dc b7 bb
       0.02891003 -0.0140552325 -0.0014795379 -0.0056109685
000380 2a e1 09 bd a6 24 e0 ba b3 ac a6 ba 26 00 0c 3d
       -0.033662 -0.0017100766 -0.0012716263 0.03417983
000390 1c d4 dd ba 56 f1 a9 bc 8d ba 1d bb 1c d9 f4 bb
       -0.0016924175 -0.02074496 -0.0024067492 -0.0074721705
0003a0 05 33 08 3c 2c 96 13 bc 6f 21 c1 3b 14 a8 cd 3c
       0.008312945 -0.009007972 0.005893878 0.02510456
0003b0 bf fe 01 ba 7a bb 13 3a aa 45 b8 3b d5 39 61 3c
       -0.00049589196 0.0005635541 0.005623539 0.013746698
0003c0 27 2e d9 3b db df a0 bc f0 2d 17 3c e3 e7 46 bc
       0.0066278162 -0.019637993 0.009227261 -0.012140247
0003d0 14 ab 6b bc d0 3c ac 3b 98 82 cb ba fc c8 c2 bb
       -0.01438405 0.005256273 -0.0015526591 -0.0059443694
0003e0 b7 9d c3 ba 86 74 8c bc c0 07 e3 ba 05 2c 11 b9
       -0.0014924322 -0.017145406 -0.0017321035 -0.00013844676
0003f0 ed d6 f9 3c dd 42 77 bc be c2 15 bb 88 e7 7b bb
       0.030497992 -0.015091625 -0.002285167 -0.0038437564

bias f4 [20]
000000 81 bd ae bb 25 55 09 bc 2f 82 18 3c a4 d0 de bb
       -0.005332649 -0.008382116 0.009308382 -0.0067997742
000010 08 9c eb 3b 7f b3 00 bb fd 36 71 3c 85 92 4d 3c
       0.0071902312 -0.0019638238 0.014722583 0.01254714
000020 0b 38 5b bc 27 73 b5 be 74 d3 8a bc ea 97 ff bb
       -0.013380061 -0.35439417 -0.016946532 -0.007800092
000030 f5 f5 59 3c 37 a8 f6 bb 40 ca ce 3b 45 19 fa bb
       0.01330327 -0.007527377 0.006310731 -0.007632407
000040 df 3e 12 bc d1 84 e1 3b 77 a1 ca 3b a3 73 8a bc
       -0.008926122 0.006882288 0.006183799 -0.016900843

weight f4 [256, 20]
000000 23 d7 bf 38 97 b8 69 b8 c0 00 bd 38 58 81 08 38
       9.147662e-05 -5.572344e-05 9.012362e-05 3.2545388e-05
000010 a7 79 fd b4 61 ea d2 b9 73 2f 62 ba bd 72 4a ba
       -4.7213436e-07 -0.00040228947 -0.00086282863 -0.0007722786
000020 7e f8 f0 38 ad 59 3a bc 19 66 b8 39 4f 5d 85 b8
       0.00011490377 -0.011373919 0.00035171284 -6.359314e-05
000030 80 a4 46 ba 18 0a 59 38 1f a3 af 39 7b e2 09 39
       -0.0007577613 5.1746232e-05 0.00033500136 0.00013149709
000040 03 a1 99 39 69 3f 3a b8 6a 09 64 39 c1 25 70 3a
       0.00029302397 -4.440491e-05 0.00021747281 0.0009160899
000050 96 e2 88 a8 e2 74 be a8 36 45 0d 2a e6 80 58 a9
       -1.5197299e-14 -2.1144927e-14 1.2547328e-13 -4.8073436e-14
000060 10 15 93 28 4c 4b 82 ab e9 5e ca 29 fe 4e be 29
       1.6329413e-14 -9.257955e-13 8.987066e-14 8.451398e-14
000070 ed 97 38 2a 30 2a 66 ac 96 b2 51 a9 fe 03 68 a9
       1.6395193e-13 -3.2708385e-12 -4.656222e-14 -5.151781e-14
000080 ac cd af a9 10 1d 04 a8 94 82 07 28 77 65 a3 2a
       -7.8072396e-14 -7.333774e-15 7.52232e-15 2.9025022e-13
000090 19 f2 ee 29 fc 3b 29 29 ed 6c 89 aa ea ea 63 a9
       1.06113204e-13 3.7577566e-14 -2.441167e-13 -5.060788e-14
0000a0 1c 0b 03 3c 8a 7c 01 3b 88 6b bb ba 3e 0e 0a 3c
       0.007998254 0.001975807 -0.0014299015 0.008426247
0000b0 aa 5c 32 bc ab 4a 24 3d 2b 04 c7 bb 1e 76 a1 bb
       -0.010886351 0.04011027 -0.006073495 -0.0049274107
0000c0 cc 85 0d ba 3c 9f 62 be 86 26 eb 3b cf 93 3e 3c
       -0.00053986604 -0.22131056 0.007176223 0.01163192
0000d0 1d 70 17 bb 26 61 b1 3b b6 44 74 bc 1b 68 45 3a
       -0.0023107596 0.0054131923 -0.01490896 0.00075304665
0000e0 52 fb aa 3b d1 97 f0 bb 73 30 2b bc f4 47 d3 3b
       0.005217948 -0.0073423167 -0.010448563 0.0064477865
0000f0 36 23 da 31 fe 37 c2 31 33 85 d6 b1 1f b6 33 31
       6.348638e-09 5.6525087e-09 -6.2433627e-09 2.6151452e-09
000100 b5 03 41 b2 15 35 ac b2 3e 40 9c b1 a2 77 03 b2
       -1.1234921e-08 -2.0047574e-08 -4.547501e-09 -7.652405e-09
000110 20 23 40 b2 5a e7 aa b4 a2 ea 24 31 30 51 16 32
       -1.1183857e-08 -3.1833298e-07 2.3998514e-09 8.749609e-09
000120 82 3f 95 b1 56 80 09 32 f7 c8 c5 2f bb 40 df 31
       -4.3436907e-09 8.00363e-09 3.5976885e-10 6.497513e-09
000130 9a 0a 01 32 04 23 60 b1 37 37 ea 30 b5 d7 a5 31
       7.511199e-09 -3.2616194e-09 1.7041434e-09 4.826655e-09
000140 cc 07 b0 30 af e2 3d b3 ac ed b5 b2 4c e9 f7 32
       1.2807901e-09 -4.421116e-08 -2.1179254e-08 2.8860676e-08
000150 7f 31 6c b1 64 17 10 37 14 05 b7 b4 1a b5 87 33
       -3.4370655e-09 8.588515e-06 -3.40901e-07 6.3193696e-08
000160 b4 f0 fe 32 13 71 a0 35 db 49 db 34 54 d3 d1 33
       2.967895e-08 1.1953838e-06 4.0845666e-07 9.770761e-08
000170 91 2c c5 b2 72 fe 42 b3 f4 7f 57 b4 1c 24 f7 b3
       -2.2954085e-08 -4.540056e-08 -2.0069984e-07 -1.1508402e-07
000180 47 ca a6 b3 8a fa c5 b1 f0 7e 96 b3 84 d7 42 34
       -7.7667714e-08 -5.7619376e-09 -7.008009e-08 1.8146062e-07
000190 07 0a 71 b4 74 32 99 b4 66 98 b1 34 fc 97 71 b4
       -2.2448522e-07 -2.853518e-07 3.3079704e-07 -2.2500166e-07
0001a0 62 2a 9e 34 83 36 b2 b8 96 19 03 35 0f 3b e4 34
       2.946063e-07 -8.497855e-05 4.8838535e-07 4.251128e-07
0001b0 8b 12 f6 b4 1d 8f 10 b9 39 6a ff b4 4c 18 ea b3
       -4.5834562e-07 -0.00013786224 -4.7574738e-07 -1.0900894e-07
0001c0 d4 53 e6 34 9e a0 71 b4 e8 ef ac 34 d5 b0 b3 b4
       4.290183e-07 -2.2503306e-07 3.221205e-07 -3.347001e-07
0001d0 8c 47 c3 b4 6c 8e 7b 34 a7 28 8e 34 ac 6b 00 b5
       -3.6373638e-07 2.342801e-07 2.647914e-07 -4.78404e-07
0001e0 ec 5b 06 2b 3b 0b f1 a9 81 e5 a9 2a b6 a0 30 aa
       4.773393e-13 -1.0704498e-13 3.017968e-13 -1.5687698e-13
0001f0 0a b7 10 2a 10 6d b4 2b 9e 56 46 2b e1 49 f3 aa
       1.2853274e-13 1.282004e-12 7.0463936e-13 -4.3216735e-13
000200 75 5e 3c 2b 5b 55 27 ad 72 38 7f a9 83 19 a3 aa
       6.69221e-13 -9.511804e-12 -5.6670333e-14 -2.897232e-13
000210 d6 83 2e ab a0 30 c0 2a 0c 25 8c ab 26 7e b4 2a
       -6.2000177e-13 3.4139792e-13 -9.957881e-13 3.2061956e-13
000220 b2 6b 16 2b b3 fe f5 29 35 cb 96 aa 4e 65 86 29
       5.344016e-13 1.0924369e-13 -2.6786356e-13 5.968369e-14
000230 f4 6b 4d 2d 8c 76 d7 2c db c3 5d ac e5 64 2d 2d
       1.1676871e-11 6.123829e-12 -3.151471e-12 9.8563145e-12
000240 f5 d7 85 ad 32 5a a9 ae 00 fb 66 ac e0 b6 03 2c
       -1.5216254e-11 -7.701252e-11 -3.2824299e-12 1.8717736e-12
000250 55 c0 5c ae 8f 99 99 af 97 74 23 ac b3 23 18 2d
       -5.0193034e-11 -2.7939648e-10 -2.3228414e-12 8.6481265e-12
000260 64 4b b4 2d 4d 12 39 2d 6c c6 3f ae bd 60 7c ad
       2.0497111e-11 1.0520096e-11 -4.3604606e-11 -1.4346022e-11
000270 5a b1 a3 ab a8 40 28 ad b8 24 57 ae bb 06 62 ad
       -1.1631072e-12 -9.564051e-12 -4.8917953e-11 -1.2848107e-11
000280 e4 6d 03 2d 4e 40 fe 2b 4e b0 36 2b d4 e9 a0 2c
       7.4708885e-12 1.8065634e-12 6.490406e-13 4.5734336e-12
000290 bc 68 e8 ac 6d 4d 2a ae b7 c7 98 2c d1 38 07 ad
       -6.6054644e-12 -3.8722293e-11 4.3422726e-12 -7.686477e-12
0002a0 1d a4 62 ad 39 d9 0a af 4e c6 a4 ab 7f 4f be 2c
       -1.2883053e-11 -1.26282e-10 -1.1707941e-12 5.4089506e-12
0002b0 17 cd cd ac 38 13 da 2c eb 5e 13 ae 5a 3e 29 2c
       -5.84922e-12 6.1980664e-12 -3.3508234e-11 2.4050957e-12
0002c0 ae 2e 2a 2d e4 02 ab ac b8 0e f4 ad ee 39 6b 2c
       9.673746e-12 -4.8604332e-12 -2.7746125e-11 3.3427666e-12
0002d0 2f 85 f6 37 5e 25 19 b7 80 b0 d6 b6 0c 3e 26 37
       2.9387504e-05 -9.128211e-06 -6.3982443e-06 9.908817e-06
0002e0 f5 b8 9f b7 96 c7 b3 36 cd b6 21 b6 08 f1 02 38
       -1.9040404e-05 5.3578506e-06 -2.4097274e-06 3.1218893e-05
0002f0 3b 7c 8c b8 1b 31 00 b9 90 c2 7a 36 28 f6 44 37
       -6.69886e-05 -0.00012225324 3.7366153e-06 1.1739823e-05
000300 21 88 aa 37 15 91 73 37 5e 6a 74 b7 f8 72 d1 37
       2.032897e-05 1.4517708e-05 -1.4568299e-05 2.4968278e-05
000310 6d 73 04 37 9c 4a 7a b7 68 d8 2c b8 e6 1d 33 b8
       7.894688e-06 -1.49185325e-05 -4.120954e-05 -4.270477e-05
000320 d7 7d 60 36 9d 40 a1 b4 d7 76 ef 35 bb bd 1c 37
       3.345185e-06 -3.00356e-07 1.7841475e-06 9.3425e-06
000330 13 5e e6 b6 ac f4 8d b6 98 f9 2f 38 50 49 ac 36
       -6.865486e-06 -4.230611e-06 4.1955704e-05 5.134534e-06
000340 92 56 ad b7 7f 4b 8b b8 0b f0 06 b8 25 be 89 36
       -2.066352e-05 -6.642099e-05 -3.2171647e-05 4.105054e-06
000350 48 a5 3b 37 6c eb 54 35 f9 4b e7 b7 73 38 c4 b6
       1.1184551e-05 7.931874e-07 -2.7572723e-05 -5.8478267e-06
000360 90 9b 6e b6 f1 5f ec b6 92 24 c3 b7 7d 9e ac b6
       -3.5555313e-06 -7.044517e-06 -2.326284e-05 -5.14445e-06
000370 14 14 00 b3 74 d1 d3 b2 61 07 3f 33 0a 24 13 b3
       -2.9820583e-08 -2.4658881e-08 4.4477364e-08 -3.4258882e-08
000380 8e 69 ff 32 57 20 5a b4 57 19 02 34 16 bc ec 33
       2.9733908e-08 -2.0314597e-07 1.2116412e-07 1.1023819e-07
000390 da b7 90 b3 3a a8 92 b6 2c 59 02 b4 51 fb 11 b3
       -6.738965e-08 -4.370723e-06 -1.2139634e-07 -3.3989014e-08
0003a0 a7 c9 9c 33 57 f4 9d b2 26 ae cd 32 a1 29 1f b3
       7.3009964e-08 -1.8388318e-08 2.3944335e-08 -3.7057934e-08
0003b0 76 47 f6 b2 9b f7 f4 32 1a 9d 47 b2 71 7a f4 b3
       -2.8670666e-08 2.8517936e-08 -1.1619045e-08 -1.13844074e-07
0003c0 1f 4f 01 23 22 e7 02 a2 37 8b dd 22 44 9a c4 a2
       7.0098586e-18 -1.7740646e-18 6.004957e-18 -5.328924e-18
0003d0 94 39 9b 22 4f 58 58 24 9c 53 6d 23 fd 86 82 23
       4.2073797e-18 4.6912334e-17 1.2865501e-17 1.4151798e-17
0003e0 1f d5 e9 a3 b2 16 89 a5 c4 31 b1 a3 21 4a 52 22
       -2.5352171e-17 -2.378109e-16 -1.9211455e-17 2.849955e-18
0003f0 44 6a a5 23 21 84 2c 22 a8 66 b4 a3 4c 79 42 a3
       1.7934341e-17 2.3380295e-18 -1.9559116e-17 -1.0542447e-17

bias f4 [256]
000000 e6 ed d4 ba 96 62 6a ac db ff bd 3e b7 53 c4 b3
       -0.0016245216 -3.3308126e-12 0.37109265 -9.142189e-08
000010 95 ef df b5 d6 e8 4e b6 ef 73 d1 ac 04 b7 ad af
       -1.6684522e-06 -3.083192e-06 -5.9530085e-12 -3.1598557e-10
000020 29 f5 5c af 85 1b 1d b8 94 16 17 b8 80 32 f3 b4
       -2.0095982e-10 -3.7457346e-05 -3.6022233e-05 -4.529902e-07
000030 38 ae d3 a4 eb 09 e2 b7 b9 a6 8b bb 9b 9e ec a9
       -9.18018e-17 -2.6945918e-05 -0.0042618182 -1.0508019e-13
000040 76 57 d4 b7 ac a6 41 bb 82 a0 16 ad 3e d8 97 2c
       -2.5313097e-05 -0.0029548807 -8.562153e-12 4.315686e-12
000050 9d 15 9d af 3c 6d 45 b3 e1 65 91 af 0c 56 dd bb
       -2.857349e-10 -4.5966985e-08 -2.6447736e-10 -0.0067546424
000060 56 10 48 b6 68 70 62 37 6f 6c e3 a7 98 29 cb ad
       -2.9811831e-06 1.3496821e-05 -6.312272e-15 -2.30969e-11
000070 b8 ab 83 b2 56 b4 88 b5 20 8d 17 aa 27 3a da b4
       -1.5328496e-08 -1.0185274e-06 -1.3460457e-13 -4.0647976e-07
000080 7c c9 2c a9 e4 7a 7c b7 6d ac db ba c7 c6 a4 26
       -3.8366432e-14 -1.5048983e-05 -0.0016759761 1.1433665e-15
000090 1c 31 0b ae 5f 67 72 b8 b8 80 cc bb bf ab 06 b2
       -3.164856e-11 -5.7793568e-05 -0.0062409304 -7.838877e-09
0000a0 ce 94 10 b6 e6 26 e8 b4 cd fa ee ac 01 77 44 b3
       -2.1544288e-06 -4.324167e-07 -6.7922113e-12 -4.574304e-08
0000b0 53 ae 85 aa bc bf ac b2 c2 76 65 37 61 62 73 b5
       -2.3746508e-13 -2.0110626e-08 1.3677114e-05 -9.0667714e-07
0000c0 12 37 e2 b6 b9 c1 dc 3d ee fd 83 b9 16 d1 a7 a8
       -6.741736e-06 0.10779137 -0.0002517546 -1.8631401e-14
0000d0 5b cd 11 af 80 64 75 aa be 28 95 b8 a2 f5 8b ba
       -1.326063e-10 -2.1795239e-13 -7.1124625e-05 -0.0010678063
0000e0 1c d7 02 b6 dc 96 9a bb de 64 8a 3e 9e 74 9a ba
       -1.949672e-06 -0.004717691 0.2703008 -0.0011784022
0000f0 57 a4 3e b0 1d 0b fd ab c7 56 c2 b3 0f 12 a3 3b
       -6.935514e-10 -1.7979816e-12 -9.049614e-08 0.004976518
000100 d1 da 6c bc df 78 84 b1 f3 af 29 b5 9b 4b 74 a1
       -0.014456467 -3.855447e-09 -6.3213446e-07 -8.277048e-19
000110 7a ff e0 b1 5b 21 e7 b8 29 87 b3 38 0f 59 38 bb
       -6.5483023e-09 -0.00011021151 8.560561e-05 -0.0028129255
000120 72 44 c1 35 7d 8f df b2 90 18 4a b7 54 06 74 b6
       1.4399541e-06 -2.6025868e-08 -1.2045857e-05 -3.6362517e-06
000130 8d b3 62 b4 d1 14 c3 a7 f2 84 1c ae 69 54 eb b4
       -2.111321e-07 -5.414594e-15 -3.5588373e-11 -4.3833577e-07
000140 e0 4f 55 bb 55 f2 01 ac f4 83 04 b5 af ed b8 b1
       -0.003254883 -1.8466524e-12 -4.936585e-07 -5.3821263e-09
000150 af 45 a7 b7 92 c4 69 3e 7e a3 dc a5 83 d5 65 37
       -1.99404e-05 0.22828892 -3.8274703e-16 1.3699176e-05
000160 23 56 8a b4 6e 53 7b a5 21 b6 b0 3e 5b e2 c2 b0
       -2.5767176e-07 -2.1799047e-16 0.34513953 -1.4179692e-09
000170 42 ab 82 ae 30 d8 b0 bb 91 65 7a b7 b0 31 97 b5
       -5.942137e-11 -0.0053968653 -1.4924809e-05 -1.1264838e-06
000180 55 90 11 3d 33 79 a7 b6 72 58 be b9 38 a0 ee b6
       0.035538036 -4.9910973e-06 -0.0003630552 -7.1116046e-06
000190 41 03 2e 39 7f a2 4d bb 30 45 b0 b1 33 11 d8 b7
       0.00016595145 -0.0031377373 -5.13014e-09 -2.5757216e-05
0001a0 a0 a3 86 3d fb b8 4a ba bc aa e5 b2 fe 69 81 b2
       0.06574178 -0.0007733253 -2.673675e-08 -1.5065776e-08
0001b0 dc 9f 37 ab 24 e0 94 b4 0a d3 fd b3 4b c0 53 b4
       -6.523651e-13 -2.7730232e-07 -1.1819618e-07 -1.9720862e-07
0001c0 69 b9 d6 a7 ad a6 f8 3b ca 47 12 ab 6d b3 83 b5
       -5.9597954e-15 0.0075882287 -5.1969247e-13 -9.81248e-07
0001d0 fd 88 80 ad 12 3e 11 ad bf 9c 98 aa 59 0b d1 b7
       -1.461275e-11 -8.256078e-12 -2.7109388e-13 -2.4920026e-05
0001e0 cc 08 15 b9 f6 4d 22 ac 33 26 e1 a6 00 aa 6b b1
       -0.00014213024 -2.3064862e-12 -1.5622865e-15 -3.4293635e-09
0001f0 83 3b b7 b6 e8 f7 0b 36 92 d9 08 af fb 6c 56 b4
       -5.460753e-06 2.0856914e-06 -1.2446424e-10 -1.996995e-07
000200 08 6f 7c bc c4 4d cd af 9f fc 13 b2 10 3c 2d b2
       -0.015407331 -3.7344539e-10 -8.6139655e-09 -1.0083582e-08
000210 d9 f6 ed b6 ca 0d 38 ba a2 19 8c 36 52 07 8f b4
       -7.0918873e-06 -0.00070210977 4.175309e-06 -2.6641152e-07
000220 a7 90 98 ba 04 55 18 bb 37 60 2b ba 88 02 1f b9
       -0.001163979 -0.0023244033 -0.00065374695 -0.00015164365
000230 e0 9c 84 3e 1f 04 79 b8 15 cf dc b5 10 a3 48 b0
       0.25900936 -5.9370064e-05 -1.6451546e-06 -7.29913e-10
000240 9f ad c8 b4 44 2b b4 bc 3d d5 91 2e c4 21 50 ad
       -3.737923e-07 -0.021993287 6.631715e-11 -1.1830929e-11
000250 0b 9d 49 3e 4f 50 98 b4 f8 18 8f b8 fb 76 75 b6
       0.19688813 -2.8370638e-07 -6.823422e-05 -3.65771e-06
000260 a8 18 9f b8 bf 13 24 b1 43 1d 56 b3 15 e9 8c b2
       -7.5863034e-05 -2.3876365e-09 -4.985237e-08 -1.6404138e-08
000270 b6 c2 6a ac 26 88 84 ba c2 f5 6b b6 13 c3 44 b6
       -3.3361486e-12 -0.0010111376 -3.5160779e-06 -2.9319824e-06
000280 ca d4 e6 b7 51 37 f9 b5 1d 67 f2 b4 19 a5 2b 3b
       -2.7517224e-05 -1.8568045e-06 -4.5151037e-07 0.0026190935
000290 5e 44 d3 bb 77 87 25 bc 46 ab fb b5 53 39 0f ba
       -0.006447359 -0.010103098 -1.8750804e-06 -0.0005463559
0002a0 dd 36 ad bc 11 2f dc af fa 79 6b 3e 5e 71 15 38
       -0.021144325 -4.005121e-10 0.22995749 3.562995e-05
0002b0 bc c7 84 35 9a 36 fa 3a 4a c8 8e aa 1b bb 84 3d
       9.892897e-07 0.0019089759 -2.5363246e-13 0.06481
0002c0 a3 d1 ca b4 10 fa 2e b8 b1 d2 74 b8 44 7d f3 af
       -3.7777963e-07 -4.171772e-05 -5.8370355e-05 -4.429045e-10
0002d0 af e5 44 bc 50 04 2e ae 61 88 8a b1 85 46 11 b1
       -0.012017651 -3.956685e-11 -4.031833e-09 -2.1140363e-09
0002e0 47 2b 71 38 91 41 c9 b0 ba 03 ec b7 3c 14 90 bb
       5.7499183e-05 -1.464331e-09 -2.8135128e-05 -0.0043969434
0002f0 2d bb d8 a8 d4 c4 7f 3e 88 a8 82 b4 a9 33 18 38
       -2.4061992e-14 0.24977428 -2.433701e-07 3.6287736e-05
000300 8d 1e 71 ac 1a 38 53 aa 12 cd 19 ac 83 f1 49 bc
       -3.426512e-12 -1.8760029e-13 -2.1856445e-12 -0.012325647
000310 0e 6c ae b2 c7 59 05 ba ba 9f ee a6 48 8e c4 3e
       -2.0305404e-08 -0.0005086925 -1.6557861e-15 0.38389802
000320 0e a5 ea b3 12 3b 30 b8 c8 db 07 b3 7c c6 13 ab
       -1.09264974e-07 -4.2016683e-05 -3.1632027e-08 -5.2500343e-13
000330 47 d9 cb ac e5 ec c8 3e 85 f3 c5 bc 50 79 a2 a9
       -5.7937296e-12 0.39243236 -0.02416397 -7.2152896e-14
000340 84 8e 01 b6 b1 97 19 bc bc 91 b2 b4 5f 2a d8 b8
       -1.9305453e-06 -0.009374545 -3.326112e-07 -0.00010307575
000350 bc 3a ba b5 75 8e 08 b2 70 a8 7c b3 d3 e3 b6 af
       -1.3875174e-06 -7.948633e-09 -5.8826515e-08 -3.3267486e-10
000360 9c 6a 38 b9 02 e4 5b b6 e0 55 3c b8 08 70 09 af
       -0.00017587323 -3.276626e-06 -4.490267e-05 -1.2499879e-10
000370 00 b4 45 b0 55 25 3f b9 32 db 1c ae 07 9c 06 b0
       -7.192398e-10 -0.00018229087 -3.5664978e-11 -4.8970644e-10
000380 ab e3 e5 b6 ff 31 4f b2 49 4a 7a b9 dc 7a db 3e
       -6.851236e-06 -1.2060354e-08 -0.00023869531 0.42867172
000390 90 e0 f7 a7 f1 d0 77 aa f7 c3 8c a6 8f 81 ae af
       -6.8799743e-15 -2.2010498e-13 -9.767568e-16 -3.1742473e-10
0003a0 13 28 ba bc 11 0d fa b7 dd c3 11 bb a2 c7 4d b5
       -0.022724187 -2.9808407e-05 -0.0022241988 -7.6658955e-07
0003b0 aa cd a5 2d f0 fe 3a b3 55 25 b0 b6 8d 31 00 bc
       1.8849661e-11 -4.3538364e-08 -5.2495548e-06 -0.007824314
0003c0 d5 f0 1e b1 88 12 21 a6 0f 54 9d ae f4 4d e1 aa
       -2.3128923e-09 -5.588321e-16 -7.154465e-11 -4.002212e-13
0003d0 35 9d dd b0 ad 47 aa b9 1c a5 bd b5 46 16 d0 b3
       -1.6124547e-09 -0.0003247833 -1.412965e-06 -9.689806e-08
0003e0 ce db 53 ba c4 34 eb b6 6e cd fd ad 55 20 2d aa
       -0.00080817647 -7.0096885e-06 -2.8853999e-11 -1.5376704e-13
0003f0 eb 0b 09 b4 41 94 22 b2 c2 6f 91 b4 71 9a 10 a5
       -1.2763455e-07 -9.46335e-09 -2.708967e-07 -1.2542336e-16
