ckpt/real_only_gcn-best.pt (torch, 142994 bytes, 17 tensors)

weight f4 [256, 7]
00000000: 5c73 39bb 6e9f 4f3e 1e46 9fbe d56a 8ebe
00000010: 8611 15be aa92 cf3d 9663 f5bb 3070 993e
00000020: 7063 09bd 37d4 cc3d 38ef e9bd d627 98bd
00000030: 7fe0 b8be d329 80be 868b 1fbe 1865 653c
00000040: 4102 193e ee3a 683e 9431 83be 258a 28be
00000050: f593 0c3e e2b1 a03e d34d 9fbd c8cf 903e
00000060: e988 79bd b7d0 233d cc39 af3e 4f85 b3be
00000070: 53a7 73be caf7 c3bd d1dd 16be 1533 a73e
00000080: 5dde 7abe 4c2a 32be 0a33 87be c13d b5be
00000090: a8ed 61be f858 a63e d1b3 2c3e e695 3b3e
000000a0: a5d6 a23c 416d 46be 04f6 823d c2af b4be
000000b0: 56d4 8bbe 4a87 47be 0932 743e 5ded 623e
000000c0: fca5 2bbe 5571 5fbc 6388 773e e961 c03e
000000d0: 889b 193e 9b24 513d 44c0 813e 32e3 63be
000000e0: 593e 903d 1109 96be e01f 86be adef 47be
000000f0: 891f 2f3e 81a6 1b3e f342 65be 38da e93d
00000100: c378 543e 0867 43bd 1f71 6c3c 205b b33d
00000110: 9b1b 703e 8dd0 b93e 1f21 95be 3bd6 0dbe
00000120: dc1b 183e cd56 a03e 8e66 a83e 72c0 aa3e
00000130: 2b0d 9a3d 9c47 a8be e16a 0e3d ad21 72be
00000140: 8759 b4be 6af0 ab3e a624 933e 180a c1be
00000150: 6fe2 903d 6a66 82bd 9cc3 7ebd 102b 31be
00000160: 41d6 143e 183e 65be 47e2 0d3e 20ba 433e
00000170: ad88 8a3e 89b7 103e 0988 bfbe 9d11 7bbe
00000180: b140 413e a003 a23d ccf5 96be d7dc 5ebe
00000190: 3f0d b63e 5065 823e dcc1 28be 6bd2 c2bd
000001a0: 3e58 b8be ba9c debb f6ba 91be 7145 95be
000001b0: a59a aabc 2972 683d b880 1ebe 84a8 653e
000001c0: bc86 6bbe 9f97 af3e 239e 843e b530 a3be
000001d0: 79a7 c0bd 66b6 8b3c 2be0 613d fc96 b73d
000001e0: 3be2 173e cd77 b93c 87d8 3cbe 1824 373e
000001f0: baa1 b9be 0a66 65be ecc5 c1bd bc87 3cbe
00000200: e265 07be 849c 9ebe 1ca8 a4bd 7476 a53d
00000210: f523 7cbe 3de6 9ebc a687 8a3e 4126 1fbd
00000220: f11a 2c3c 7a8e 05bd 58a8 9c3d af17 763e
00000230: 1b4f b73e 0cca 753e 7aba b73e afed dfbc
00000240: 59d7 adbe 1a7c 37be 6dc4 833e a992 20bb
00000250: e85f 40be 834b 94be a21a b5be a354 a3be
00000260: 9502 9dbd ae40 543e 523f 513e 7fa2 babe
00000270: 056d 713e f46d 97be 89a5 a3bd afee 1cbe
00000280: 1319 95bd b6fb 97bd 38a7 adbe 3217 a7be
00000290: a540 72bd b82a a03b 10d2 2fbe c7cb 113e
000002a0: 652d aebe b0f5 d0bc ee2e aa3e 65de 1dbe
000002b0: 47bf ae3e 9a2a 0c3e 6ba4 aebe 5ce0 743e
000002c0: a7a5 32bd 7dc6 2cbe 45bf 9a3e 7d61 9cbe
000002d0: 921f 263d f810 a2bd 8a31 8a3e e713 d83d
000002e0: 02f9 393e 62af 083e 0125 babd 99ca a2bd
000002f0: 7479 9fbe 86b6 513e 1ea6 993e e268 843e
00000300: d680 88be 0e18 8a3c d56a 88be 960e 55be
00000310: 1d87 61be 7a44 043e bea3 66be c61a 07bc
00000320: 4141 823c f97d 793e b448 92be 33da 84be
00000330: 98bc 60be 1873 873e 3220 0bbe e73a a33e
00000340: 7bf4 0b3e fd08 443d fb63 38bb 0405 99bd
00000350: 623d 423d 4bc1 b0bd f70b 2ebb 3e88 453d
00000360: e15e 97be 87db 4abe a443 9c3e 7a0c 9dbe
00000370: 1a55 debc 716f bf3e c5cf 0b3e 9a54 2f3c
00000380: 57b4 a7be 98ba 3f3e c9d6 89be 2dbb dbbd
00000390: 55db 01be a742 65bd e378 873b 6d9d 9f3e
000003a0: af44 413d 1f55 ad3e 27c1 6c3e 77b0 74be
000003b0: 4996 2d3e 07cc 88be 1209 24be 03ac e33d
000003c0: 9a97 ff3d b72e 913e 912f f9bd 7b9d 1e3a
000003d0: 4b41 473e 4926 bbbe dde8 8b3e 3306 a0be
000003e0: bdb2 aa3b e79a 83bd 58d7 4bbe 9d9e 4c3d
000003f0: 0406 a03e b146 e2bd e0c7 65be 0b24 0fbe
-0.002829752 0.20275661 -0.31108183 -0.2781588 -0.14557466 0.10135396 -0.007488678 0.29968405
-0.033542097 0.10001414 -0.114225805 -0.07429473 -0.36108777 -0.2503191 -0.15580568 0.014001153
0.14942266 0.2267873 -0.25623763 -0.16458948 0.13728316 0.31385714 -0.07778516 0.28283525
-0.060921583 0.039993968 0.34223783 -0.35062644 -0.23794298 -0.095687464 -0.14733054 0.3265616
-0.24498887 -0.17398947 -0.26406127 -0.35398677 -0.22063315 0.32489753 0.1686547 0.183189
0.019877741 -0.19377615 0.0639458 -0.35290343 -0.27310437 -0.19485202 0.23847212 0.2216086
-0.16762537 -0.01363786 0.24173121 0.375747 0.15000737 0.0510603 0.25342 -0.22254637
0.07043142 -0.29303792 -0.26196194 -0.19525023 0.17101873 0.15200235 -0.2238882 0.11418575
0.20749192 -0.04770568 0.014431267 0.08757615 0.2344803 0.36291924 -0.29126832 -0.13851254
0.14854378 0.31316224 0.32890743 0.3334995 0.07522043 -0.32867134 0.034769896 -0.23645659
-0.35224554 0.3358186 0.28738898 -0.37703013 0.07074439 -0.0636719 -0.062198266 -0.17301583
0.14534856 -0.22386968 0.13855849 0.1911397 0.270574 0.14132513 -0.37408474 -0.24518438
0.18872334 0.07910848 -0.29484403 -0.21763931 0.3555698 0.2546792 -0.16480201 -0.0951279
-0.36004823 -0.0067935856 -0.28462952 -0.29154542 -0.020825693 0.056749497 -0.1547879 0.22427565
-0.23000616 0.34295365 0.259019 -0.31873098 -0.09406943 0.017054748 0.055145424 0.08964345
0.14832394 0.022640133 -0.18441974 0.17884862 -0.362562 -0.22402206 -0.09461579 -0.18411154
-0.13222459 -0.30978787 -0.08039877 0.08079234 -0.24623092 -0.019396896 0.27056617 -0.03885484
0.01050447 -0.03260658 0.076492965 0.24032472 0.3580254 0.24002856 0.35884458 -0.027335016
-0.3395336 -0.17918435 0.25735798 -0.0024501479 -0.18786585 -0.2896386 -0.35371882 -0.3190051
-0.07666508 0.20727798 0.20434311 -0.364521 0.23576744 -0.29576075 -0.07990558 -0.15325426
-0.07280173 -0.07421057 -0.3391664 -0.32634884 -0.05914368 0.004887905 -0.17169976 0.14237891
-0.34019008 -0.025507778 0.3323893 -0.15416868 0.34130308 0.13688126 -0.34109816 0.23913711
-0.04361501 -0.16872592 0.30224052 -0.30543128 0.04055745 -0.07913393 0.2699092 0.10550671
0.18161395 0.13348153 -0.09089089 -0.07948799 -0.3114735 0.20479783 0.3000955 0.2586127
-0.26660794 0.016857173 -0.26644006 -0.20806345 -0.22024198 0.12916747 -0.225234 -0.008246129
0.015900256 0.24364461 -0.28571093 -0.25947723 -0.21946943 0.26454997 -0.135865 0.31880876
0.1366748 0.047860134 -0.0028135765 -0.0747166 0.04742182 -0.08630618 -0.0026557425 0.048225634
-0.29564574 -0.19810306 0.30520356 -0.3067358 -0.027140189 0.3738971 0.13653477 0.010701323
-0.32754776 0.18723524 -0.2692168 -0.1072906 -0.12681325 -0.055971768 0.004134284 0.31174794
0.047184642 0.33854005 0.23120557 -0.23895441 0.1695186 -0.2671816 -0.16019085 0.11116793
0.124800876 0.28355953 -0.12167276 0.0006050688 0.19458501 -0.36552647 0.27326098 -0.3125473
0.0052092955 -0.0642603 -0.19906366 0.049955953 0.3125459 -0.110486396 -0.22439528 -0.13978593

bias f4 [256]
00000000: f3fc 993e 2219 4b3e b2e3 1a3e 88e2 c8bd
00000010: 248f 4d3e ea1c 3a3e b5fb 053e 9dc2 32bc
00000020: e03e 673d d7cd db3a d970 8cbe 1cb1 b33d
00000030: 8343 8ebe 4bca 3b3e 7b99 66be cbd9 fcbd
00000040: 898d 37be ebbe 983e 6247 88be 2da0 453e
00000050: 2e1c 423e dcd4 883e 5bf2 c13d f2fd 523e
00000060: d0f9 983e 3e79 983d 5599 033e 7351 97be
00000070: 06a1 cfbd 7e5f 0c3d 0692 3b3d 79bd 08be
00000080: 6dd7 bfbe 224e c9bd 502c 143e eaa1 a63e
00000090: 92c0 aebe bfc8 383e be9f b7be ba0f b9be
000000a0: 0261 72be d87b 4cbd 8131 d83d 262c 93be
000000b0: 0718 953e baff ae3e c180 be3c 3885 9d3e
000000c0: 8c37 2fbe f71b 19be b2c7 47bd 8628 293d
000000d0: d1fe 86be fcf4 9abe 59e4 183e 792f df3d
000000e0: fc4f bd3e a7cc 1dbe 8aad 083e 0b2f 1cbe
000000f0: 580f 3f3e e384 abbc d074 8f3e 5e06 573e
00000100: f712 a13e 57e5 463e 74a7 683c b0c4 a63e
00000110: 7356 63be f885 b63e 641a bd3e 80dc b83e
00000120: dcca 34be f212 4dbe 8ee5 c33c 480b f13d
00000130: c625 423e 9368 1d3e 43c7 a43e 98ef c1bd
00000140: c7f3 fdbd 02bc 013e 51b5 d73d c1c4 61be
00000150: 56be 153d a9ed 92be b116 e3bd ace6 17be
00000160: 6ea2 a93e 1b33 aebe f883 64be e061 bdbe
00000170: 9439 c33d d2f2 94be 8c71 fa3d 6c6b 86be
00000180: 78ed 77be 20ba 45be 0454 683d ded1 b13e
00000190: 4045 b53e 68ec e9bc d28c bdbe ddbb ffbd
000001a0: e880 13be 42a4 a4bd c2e1 133e 16c5 423e
000001b0: 119a 2b3e a920 dd3d ceae 1cbe 4d62 83bb
000001c0: 3707 453d aeb1 45be ba7d 0abd c340 41bd
000001d0: 8dd6 b6be aa30 833e 6285 1cbd d249 a7be
000001e0: 2e1b 993e fa40 50be 1207 093e ffe9 bf3e
000001f0: bc55 8f3c ffb3 de3d c6c7 193e 5042 923e
00000200: b080 edbd d3ca 59be 354e f2bc 3f57 973e
00000210: b61c 053d 5875 863e c729 38bb 2b80 ed3d
00000220: 6b54 573c 781a 283c c327 b8be 0d2e a9be
00000230: 80b2 003d 968e 3f3e fffe 813e 6758 863c
00000240: d624 233e 66df 213e 000e a7be da16 aabe
00000250: 130b 96be 2bef d43b 9fba 74be 80b6 f7bd
00000260: ba9f 67bd aa01 173e b179 b33d 9485 b33e
00000270: 208d ae3e 77e9 76be de11 9cba dda6 7f3d
00000280: d5f0 a83e a5e6 efbd 181b 18be 8d2b 75be
00000290: 8398 8e3e e24c dbbd 60f4 10be bae3 823e
000002a0: 6c11 b23e 457b 82bc 7169 88be e9ac 9d3e
000002b0: 375e 04be 0a5b 32be 320c 88be 9623 3abe
000002c0: 708e 97be 0867 5fbe 5f49 b0be 2504 9cbd
000002d0: 0f9e 1b3e 80e7 92be d45e 0aba 54b9 0ebe
000002e0: 5d35 3b3e 239c a73e f539 4dbd 7fcb 42be
000002f0: 31b1 94be 5164 63be 047e df3d 009b b13d
00000300: 1b6e 503e a709 66bd 33df 463e d168 acbe
00000310: cb15 d03d a8dd bb3e 3686 bfbe bbeb 48be
00000320: b0c4 773e d10c 72bd 894e 4ebe e21d 6c3e
00000330: 0e8e cf3c 708b 723c a51c ebbd d1cd 913e
00000340: 04b0 563e 1cab 8a3d ab43 6c3d 2c22 483e
00000350: 8520 713e 37c3 1ebe e19d 29bd d8ea 293e
00000360: 978c 3bbe e5f2 b43e 3f8f 84be af98 323e
00000370: 9a01 8bbe 4187 f83d f329 873e bda0 3a3d
00000380: ca2a 1bbd 081f 763e 28f4 8abe 518f 82be
00000390: 3eef a4be 4b3d 6ebe 36b9 203c ea7f 2fbe
000003a0: 9373 ac3d c5f7 503c 7d0e a13e 62d2 27be
000003b0: 92c2 d3bd a8fb 7f3e 35ba c3bd df45 b93e
000003c0: 0cb9 19be 5aa4 87bb 3466 b7bd fa91 343e
000003d0: aa4c 143e 7f1b 4ebe ac08 7f3e b2be c4bc
000003e0: cabe c3bd 20d4 f9bb 8aad 863e 60d4 bd3e
000003f0: f153 3c3e ef72 873d bb97 7c3e 89d8 21be
0.30075797 0.19833806 0.15125921 -0.098088324 0.20074135 0.18175092 0.130843 -0.010910657
0.056456447 0.0016769719 -0.27429846 0.08774015 -0.27785882 0.18338887 -0.22519486 -0.12346228
-0.17925085 0.2983316 -0.2661696 0.19299383 0.18956062 0.267249 0.09470054 0.20604685
0.29878092 0.07445 0.1285146 -0.29554328 -0.10138135 0.034270756 0.045793556 -0.13353528
-0.37469044 -0.09829356 0.14470029 0.32545406 -0.34131294 0.18045329 -0.3586406 -0.3614481
-0.23669818 -0.049922794 0.10556317 -0.2874462 0.29119894 0.3417948 0.023254754 0.307657
-0.17111033 -0.14952074 -0.04877443 0.04129841 -0.26366284 -0.30265033 0.14930858 0.108977266
0.36975086 -0.154101 0.1334745 -0.1525232 0.18658197 -0.020937389 0.28018808 0.20998523
0.31459782 0.19423424 0.01420008 0.32571936 -0.22200947 0.35649085 0.36934197 0.36105728
-0.1765551 -0.20026758 0.023913171 0.1176973 0.18959722 0.15371923 0.32183275 -0.09469527
-0.124000125 0.12669376 0.1053263 -0.22047712 0.03655847 -0.28696945 -0.110883124 -0.14834088
0.33131737 -0.34023365 -0.22315967 -0.36988735 0.095324665 -0.29091507 0.122286886 -0.2625383
-0.24211681 -0.19309282 0.05672075 0.34730428 0.35404396 -0.02855511 -0.370215 -0.12487004
-0.14404643 -0.08039142 0.14441589 0.19020495 0.1675799 0.10797245 -0.15301058 -0.004009521
0.048102584 -0.1930606 -0.03381131 -0.047180902 -0.35710564 0.25623065 -0.03821314 -0.32673508
0.2990355 -0.20337287 0.13381603 0.37483212 0.017496936 0.10874175 0.15017614 0.28566217
-0.11596811 -0.21268778 -0.029578308 0.2955875 0.032498084 0.262614 -0.0028101073 0.11596712
0.013142685 0.010260217 -0.35967836 -0.33042946 0.03142023 0.18706736 0.2538986 0.016399575
0.1593202 0.15807876 -0.3262787 -0.3322056 -0.29305324 0.0064982376 -0.23899315 -0.12095356
-0.05654881 0.14746729 0.08763445 0.3506285 0.34092045 -0.24112497 -0.001190718 0.062414993
0.3299624 -0.11713914 -0.14854085 -0.23942395 0.27850732 -0.107080236 -0.14155722 0.25564367
0.34778917 -0.01592792 -0.26642945 0.30795982 -0.12926565 -0.17417541 -0.26571804 -0.18177637
-0.2960086 -0.21816647 -0.34430978 -0.07617978 0.15197013 -0.28692245 -0.0005278413 -0.13937885
0.18282075 0.3273631 -0.0501041 -0.1902294 -0.29041436 -0.22206236 0.109127074 0.08672142
0.20354502 -0.05616155 0.19421081 -0.3367372 0.10160407 0.36692548 -0.37407082 -0.19621174
0.24196124 -0.059094254 -0.20147146 0.23058274 0.025336292 0.014803752 -0.11480073 0.28477338
0.20965582 0.06770918 0.05768172 0.19544286 0.23547561 -0.15504156 -0.04141033 0.16593492
-0.1831535 0.35341564 -0.25890538 0.17441057 -0.2714966 0.12135173 0.26399192 0.04556345
-0.037882604 0.24035275 -0.271394 -0.25499967 -0.32213777 -0.23265569 0.009809783 -0.17138639
0.084204815 0.012754385 0.31456366 -0.16388848 -0.10339846 0.24998343 -0.095570005 0.3618612
-0.15011996 -0.0041394653 -0.089550406 0.1763381 0.1448237 -0.20127676 0.24905652 -0.024016712
-0.095578745 -0.007624164 0.26304275 0.37076092 0.18391396 0.06613719 0.24667256 -0.15805258

weight f4 [32, 256]
00000000: 50c9 05bd bcdb 93bc 78b0 25bd e024 dc3c
00000010: 008a c23b 3c2c afbc f0ea cfbb 006e a2ba
00000020: 9280 5b3d c885 643d c214 45bd 78a5 bb3c
00000030: 24b5 c53c b0c5 c33c 809a 0bbc 8c0b 803c
00000040: 80d6 803c 1c2a 793d 865b 75bd a44a c2bc
00000050: c03c 2cbd 205b f8bc e00c 493c 5621 1c3d
00000060: 3e97 41bd 6481 263d 5cd6 553d 505e fcbc
00000070: 40ba 323c b66c 03bd c053 5b3c f85f edbc
00000080: bc73 c7bc e25e 2bbd 7a7a 55bd aa4a 4c3d
00000090: 8050 01bc 8043 e3ba 8cce febc ca6e 323d
000000a0: 1087 12bd a815 cfbc 5cd6 47bd f243 57bd
000000b0: 6e46 633d 9eae 45bd 305f 0dbc 2034 94bc
000000c0: 108a bb3c b4f1 883c 4e3f 44bd 34e8 653d
000000d0: 8802 7fbd 308f ca3b 1019 abbb 684d 6dbc
000000e0: 9c74 2e3d 2425 583d c863 053c 80d6 b4bc
000000f0: b652 3e3d 48d6 203d 30eb 373c b009 8cbc
00000100: e0af 2c3b d82b 643d 3018 de3b 70cb 49bc
00000110: 66be 58bd 9a2f 09bd 62e4 383d 203c 10bb
00000120: f061 88bb 485a c73c e86d 28bd 1059 8abb
00000130: 9400 90bc cef1 053d c456 503d 8ebe 203d
00000140: bcdc 3e3d a6c9 64bd c0c4 b5bc 1084 f23b
00000150: 506f 59bd 40e4 8a3c a6cd 27bd fc65 db3c
00000160: b631 4f3d b6fe 5abd 6483 563d 60e6 ee3c
00000170: a0f0 28bd 9809 753d f8b7 5dbd 2058 2cbd
00000180: 34b1 febc 406a 4fbb 40e1 373c c841 96bc
00000190: 1ea6 72bd 6067 ecbb 363b 423d 9c1a 453d
000001a0: cc26 003d 68ac 143c 2070 7e3c 545a 45bd
000001b0: 3c54 cf3c c6c7 7ebd c870 d3bc 588d 86bc
000001c0: 32fd 3b3d 40cd eeba 8438 e9bc d8e6 323c
000001d0: d46b 54bd 488e 87bc accc 8d3c c0a2 87bb
000001e0: 9014 d7bb fa75 1c3d fc76 42bd ce42 01bd
000001f0: facc 773d c0c3 4b3c 00cc 25bc be9a 043d
00000200: 7001 1a3d 901c 2bbc e844 d5bc 7061 27bc
00000210: 58e9 b93c 10ba 02bc fefd 143d a4c3 50bd
00000220: 1434 fbbc b228 433d 6856 063c 6034 4e3c
00000230: f864 a83c d8f6 71bc b4c0 ccbc 7ce2 923c
00000240: 24b2 87bc 9081 d3bc d849 073c c0af 773c
00000250: d0ea b8bb b021 2dbd c0d4 1abc 0e15 11bd
00000260: b2bc 063d 22a0 29bd 3a1e 4c3d 70ec cb3c
00000270: 9837 5bbd 54fa 3d3d ec2a 7dbd 8025 6ebb
00000280: ded5 1fbd 003b 5cbd 70ea ca3b 683f f8bc
00000290: c40b 393d 7e3e 49bd 607c 543d ac71 1a3d
000002a0: 5a38 603d 18ee 95bc 9eea 1cbd d413 2abd
000002b0: cee1 543d 08a8 febc 402a fcbb f8d5 1dbc
000002c0: a82a 303c 7c11 52bd 406c 4e3d 9c6c 3dbd
000002d0: 8cca 7b3d 6856 c8bc 7491 e4bc 58c0 0cbc
000002e0: 9087 973c 48bb 3dbc 1a80 7fbd f410 343d
000002f0: a490 7d3d cc28 013d b280 7a3d b88b 8b3c
00000300: 107b a0bb 1ee7 4bbd cabe 5fbd 5641 30bd
00000310: fce7 81bc 1212 153d 343e d3bc e015 1fbb
00000320: 803a 67ba 8057 27bd 40c2 ddba 862e 773d
00000330: f29b 4c3d 7af9 423d a0fc c9bb 0049 913a
00000340: a8f3 0b3d 084e aabc b47f cfbc de07 5b3d
00000350: a0d8 693b 58da 2cbd fab4 573d f0f5 293c
00000360: 88f9 083d ae56 5ebd 8006 3e3c 2095 1c3d
00000370: 38ba 13bc f682 11bd c0d0 4c3d 5824 ee3c
00000380: 0cd2 913c 402c 723c 80cf b43a b8ce 123d
00000390: b8da 5fbc 6cb1 16bd 9881 c33c 7099 883c
000003a0: 7cf1 c23c 4079 e3bb a8e3 07bc e0c5 a2bb
000003b0: 6c01 873c 9e71 44bd 729b 6ebd 9c96 bf3c
000003c0: 3429 0cbd 9048 acbb e8f0 8d3c 28a0 0f3c
000003d0: 9208 253d c03a 063c 6084 7d3c 8051 b7bb
000003e0: 0827 173c ecbc bb3c 9ca5 2e3d 2690 72bd
000003f0: c447 d5bc f8b7 65bd a821 ccbc 680d 1c3d
-0.03266269 -0.018049113 -0.040451497 0.026873052 0.005936861 -0.021383397 -0.0063451454 -0.0012392402
0.05358941 0.055791646 -0.0481155 0.02290605 0.024134226 0.023897976 -0.008520722 0.015630506
0.015727282 0.060831174 -0.059901737 -0.023717232 -0.042050123 -0.03031689 0.012271136 0.03811773
-0.047263376 0.04065074 0.052206382 -0.03080669 0.010908663 -0.032086097 0.013386667 -0.028976426
-0.024347179 -0.041838534 -0.052118756 0.049875893 -0.007892728 -0.0017338842 -0.031104349 0.043562688
-0.035773337 -0.025278881 -0.048788413 -0.052555032 0.05548709 -0.04826223 -0.0086286515 -0.018091261
0.022892982 0.016716816 -0.047911935 0.05612965 -0.062258273 0.00618162 -0.0052214935 -0.014483787
0.042591676 0.052769795 0.0081414655 -0.022074938 0.046465598 0.039266855 0.011225507 -0.017094463
0.0026349947 0.055705875 0.0067777857 -0.01231657 -0.052915953 -0.033492662 0.045139678 -0.0022008494
-0.0041620657 0.024335042 -0.04112044 -0.004222043 -0.0175784 0.032701306 0.050863996 0.039244227
0.046597227 -0.05585637 -0.022188544 0.007400997 -0.05308467 0.016954541 -0.040967606 0.026782028
0.050584517 -0.053465568 0.052371398 0.029162586 -0.041245103 0.059823602 -0.054130524 -0.04207623
-0.031090356 -0.0031649023 0.011223137 -0.018341914 -0.059240453 -0.0072144717 0.04741975 0.04812108
0.031287 0.009074308 0.015529662 -0.048181847 0.02530872 -0.062202238 -0.025810614 -0.01642482
0.045895763 -0.0018219128 -0.028469332 0.010919295 -0.051860645 -0.016547337 0.01730951 -0.0041392744
-0.0065637305 0.03819845 -0.047476754 -0.03155785 0.060498215 0.012436807 -0.010119438 0.032374136
0.037599027 -0.010443822 -0.026033834 -0.010216102 0.022694275 -0.007978931 0.03637504 -0.050967827
-0.030664481 0.047646232 0.008199312 0.012585729 0.020555958 -0.014768325 -0.024994232 0.017930262
-0.016564436 -0.025818616 0.008257352 0.015117586 -0.005643226 -0.042268455 -0.009450138 -0.03542047
0.032894798 -0.04141248 0.049833514 0.024893016 -0.053519815 0.04638131 -0.06180851 -0.003633827
-0.03902232 -0.053767204 0.006192498 -0.030303672 0.045177236 -0.049131863 0.051876426 0.037706062
0.05474124 -0.018302009 -0.038309686 -0.041522816 0.051973157 -0.031085983 -0.0076954663 -0.009633534
0.010752358 -0.051286206 0.050396204 -0.046246156 0.06147246 -0.024455264 -0.027901389 -0.00859078
0.018497258 -0.011580296 -0.062378027 0.04396148 0.06190552 0.031533048 0.06115789 0.017034397
-0.0048974827 -0.049780957 -0.05462531 -0.04303106 -0.01585769 0.036394186 -0.025786497 -0.0024274513
-0.0008820668 -0.04085493 -0.0016918853 0.060347103 0.04995341 0.0476012 -0.0061641484 0.0011084378
0.034167916 -0.020789161 -0.025329448 0.0534743 0.0035682097 -0.042200416 0.052662827 0.0103735775
0.033441097 -0.054281883 0.011598229 0.038228154 -0.009016566 -0.035525285 0.050003767 0.029070064
0.017800353 0.014781058 0.001379475 0.035841674 -0.013662986 -0.036790296 0.023865506 0.016674727
0.02379679 -0.0069419444 -0.008294024 -0.004967436 0.01648017 -0.047959916 -0.058253713 0.023387246
-0.03421898 -0.0052576736 0.017326787 0.008766212 0.040291376 0.008192718 0.015473455 -0.0055944324
0.009225614 0.022917233 0.042638406 -0.059219502 -0.026035197 -0.05608365 -0.024918392 0.038098723

bias f4 [32]
00000000: ec30 2f3d 8026 93ba ec7d 53bd 2eea 1abd
00000010: ec0b 1c3d 9aed 59bd 0c80 3bbd daf6 22bd
00000020: 2c85 89bc a4b6 ee3c f46e 313d d44f 453d
00000030: 24ac ed3c 687e 683c dcbe 86bc c6da 1cbd
00000040: 7e5f 02bd 4021 f7ba eaa2 5d3d 243b b6bc
00000050: 687d 19bc 00e8 ddba 7869 e6bc 1877 f3bc
00000060: 7872 913c 96c0 36bd 809b 77bb 3013 77bc
00000070: 4015 633c 00dc 02bc de24 06bd 1893 9abc
0.042771265 -0.0011226684 -0.05163376 -0.037820987 0.038097307 -0.05320511 -0.045776412 -0.039786197
-0.016787134 0.029139824 0.043318704 0.048171833 0.029012747 0.014190294 -0.01644843 -0.038294576
-0.03182935 -0.0018854514 0.054110445 -0.022244997 -0.009368278 -0.0016930103 -0.028126463 -0.029719874
0.017754778 -0.044617258 -0.0037781894 -0.015080258 0.013860047 -0.007987022 -0.032750003 -0.018868968

weight f4 [10, 32]
00000000: b379 33bd 731a 9a3d fa49 253d 84ae 60bd
00000010: 84df 0d3e e38f 803c 09a7 c53d 08ab 89bd
00000020: 8b7e 19be 4693 2ebe ca66 71bd 8f2e df3d
00000030: 12a8 e33d 20a9 5c3d a6c9 4c3d 223a f3bd
00000040: af8f 55bd 8fa9 af3c 1bf9 1dbe e3ac 24be
00000050: 5454 09be 2586 603d 6cb6 b7bc b4ab ffbc
00000060: 313e e13d a127 f2bd 16ea dfbd b5a0 25bd
00000070: f60e df3d 7884 e83c 341d 1cbe 6f19 003e
00000080: 6e41 d2bd 343f 0d3e bc83 843d 3dd9 3d3d
00000090: 72ed 153e 9025 853d bb87 32be 2be3 8f3d
000000a0: ca96 2f3e a047 96bd 608f 043e 3786 123e
000000b0: 2ba1 2abd 4dee 8139 32a4 bbbc 501c 203e
000000c0: 63a9 973d 7a3a 003e a0f9 21be 9dda 92bd
000000d0: 2cbf 08be 8373 1e3d f253 8dbd a4e1 513d
000000e0: f085 bc3d 414f 3fbd 967a aa3c 0c6e 05be
000000f0: 80ff a6bc f835 ea3c 7329 013e 304a 923d
00000100: 6d86 403d 04ef bb3d 8f99 0d3e 4f03 883c
00000110: 9f5d 2e3e f4b3 dcbd 193c 753d 6b90 153a
00000120: 43fe 053e 79bc 2cbe 63b6 af3d 2bb1 1bbe
00000130: 737b 58bd 8288 69bd ad5a 72bd c4df afbd
00000140: 7395 13be e776 1ebe c3b3 13bd 4ed6 133e
00000150: e634 42bd 189c f4bd 83b8 4ebd 4f42 15be
00000160: 961c 1dbc dbb8 143e 27c1 30be 854d c33d
00000170: 0f33 063e 8986 023e 1bc2 d6bd dd61 a93c
00000180: 7910 cc3d f81f 1bbe b20c 0b3e 9b8e 54bc
00000190: 9854 1fbe a9bd 39bd 2453 a63b 1e92 93bd
000001a0: befe 92bd b8e9 94bc a407 793d 1c20 a43d
000001b0: 7bf8 30be 32d1 39bc 0a1a 333d 9713 123e
000001c0: f767 b53d 8656 f63d f1c6 563d f473 8dbc
000001d0: 8416 c8bd 2766 96bd 6d20 6a3d 9d8f 17bd
000001e0: 51a7 263e 1303 e3bd 732c f63d 98d9 e73d
000001f0: 511d ef3d 17ef 0d3e 4748 d1bd e23c d13d
00000200: b93a 33be 004a c2bd f8db e5bc d978 183e
00000210: edde 11bd b421 11be 8489 21be 97d4 583b
00000220: 6036 583c 8f23 303d c9c6 4abd b386 713d
00000230: 4acc 973c 6c2a 3ebd 706b b93d ada0 02be
00000240: 8c71 bbbd 1b03 333d 2fdb 4ebd 710f 8cbb
00000250: 11b4 81bd 2f6d ce3d bf7c 2a3e 7c07 1b3e
00000260: 96d8 3b3d 3078 e5bd ba23 7dbd abcb a4bd
00000270: 4ab4 0bbd 8972 b4bd 05c4 d73d cbb9 2bbe
00000280: 6fd6 fc3b c5cb 023e 3093 0fbe b1b7 fdbc
00000290: 4d7b c63d e9f7 7cbd cb6c abbd c8d2 c03d
000002a0: 77a9 fabd b6a1 343e 2460 223e a7a8 013c
000002b0: 7eaa e93c 0067 b8bd c0b5 283d 0dc3 08be
000002c0: 12b1 3cbd ddb7 103e 004a 533d ed29 033e
000002d0: ece8 ee3d 17e8 2c3e 7641 373d cfab 04be
000002e0: 7fd9 23be b38e e03d 5f08 133e 7f3a 323e
000002f0: 58fc f5bd 3a61 253e e601 81bd 62f7 3c3d
00000300: 5fd9 fa3d 4ab0 0bbe 83be 2dbe 9fc0 f03d
00000310: 764f 28be 9270 af3d 3a78 d13d 496d 043e
00000320: 4ec1 8b3b 7bf9 38bd 21da bc3c 8a86 c8bc
00000330: 3299 2abe b5d2 2a3d bf7b d4bd 98fc 053e
00000340: 04fa a9bd f331 0dbd 4468 0cbe 92bd 263e
00000350: 690a d23d 407f 1e3e 1047 d33d a02a dfbd
00000360: 7424 2b3e b1bb c2bc 5f8d 263e ebce ca3c
00000370: 6341 e53d b7b1 8fbd bd38 8e3d 6368 8bba
00000380: 1f79 10be 8337 0c3e 3c16 c5bd 44e6 efbd
00000390: ea32 113e 7b13 26be 750f 7a3d c335 133e
000003a0: 3ba8 e6bc ae3c 2bbe 79b5 12be 9750 0fbc
000003b0: 06d2 e5bc 0069 fb3d 8ab3 103e c5e4 dfbd
000003c0: 6857 3fbd 353f 0ebe ca2f 213d 40a4 043e
000003d0: 3992 77bd 3434 c03b 5ff7 60bc 02ff 1cbe
000003e0: 7a71 303e e63c 1c3d cccf 293e 5362 1dbe
000003f0: 06a4 53bd 93ef 3ebd 8546 6e3d e864 37bd
-0.043817233 0.07524576 0.040353753 -0.05485393 0.13854796 0.01569361 0.09651 -0.06722075
-0.14989679 -0.17048368 -0.058935918 0.10897552 0.11116041 0.053872228 0.049996994 -0.11876322
-0.05213898 0.021443157 -0.15427057 -0.16081576 -0.13411075 0.05481543 -0.022425853 -0.031209804
0.1099819 -0.11823965 -0.1093332 -0.040436465 0.108915254 0.028383479 -0.15245515 0.12509702
-0.10266386 0.13793641 0.06470439 0.046349753 0.1464136 0.06501305 -0.1743459 0.07025751
0.17147365 -0.0733788 0.12945318 0.14309011 -0.041657608 0.00024782345 -0.022905443 0.156358
0.07405355 0.12522307 -0.1581788 -0.071706034 -0.13354176 0.03868438 -0.06900777 0.05124058
0.09205234 -0.04670644 0.020810407 -0.13030261 -0.020385504 0.028590187 0.12613468 0.071430564
0.0470032 0.09176448 0.13828109 0.01660314 0.17027901 -0.10776511 0.059871767 0.0005705419
0.13085274 -0.16868772 0.085797094 -0.15204303 -0.052852105 -0.05701495 -0.059168506 -0.08587602
-0.14412479 -0.15475045 -0.036060106 0.1443722 -0.04741373 -0.11943835 -0.050468933 -0.14576076
-0.009589335 0.14523642 -0.17261182 0.0953627 0.13105415 0.12746634 -0.104862414 0.020676548
0.099640794 -0.15148914 0.13579062 -0.012973453 -0.15559614 -0.04534689 0.005075829 -0.07205604
-0.071774945 -0.018177852 0.060798302 0.08013937 -0.17282288 -0.01134138 0.043726005 0.14265285
0.0885772 0.12028222 0.05243582 -0.017267205 -0.097699195 -0.07343703 0.05715983 -0.037002195
0.16274764 -0.11084571 0.12020197 0.113207996 0.116755135 0.13860737 -0.10218864 0.102166906
-0.1750287 -0.09486771 -0.02805899 0.1488985 -0.03561299 -0.14173013 -0.15775114 0.0033085698
0.013196558 0.04300266 -0.049505983 0.05896635 0.01853003 -0.046427175 0.09053695 -0.12756605
-0.09152517 0.043704133 -0.050502 -0.0042743017 -0.06333173 0.10079419 0.1664915 0.15139574
0.04586085 -0.112045646 -0.06180165 -0.08046659 -0.034107484 -0.08810908 0.10535435 -0.16770093
0.007715992 0.12773044 -0.14020991 -0.03097138 0.096914865 -0.061759863 -0.0837036 0.09415203
-0.12239354 0.17639813 0.15856987 0.007913745 0.02852368 -0.09004021 0.041188955 -0.13355656
-0.046067305 0.14132638 0.051584244 0.12808962 0.1166552 0.1688541 0.044740163 -0.12956165
-0.16000937 0.10964718 0.14358662 0.17405127 -0.120110214 0.1615037 -0.0629919 0.04613436
0.122484915 -0.13641468 -0.16967206 0.117554896 -0.16436562 0.08566393 0.102280095 0.12932314
0.004264987 -0.045159798 0.02305323 -0.024478216 -0.16660002 0.041704852 -0.10375165 0.13084638
-0.0829964 -0.034471463 -0.13711649 0.16283253 0.10255892 0.1547823 0.103162885 -0.10896802
0.16713125 -0.023771139 0.16264866 0.02475687 0.11194112 -0.07016318 0.06944416 -0.0010635968
-0.14108704 0.13693051 -0.096233815 -0.117138416 0.14179578 -0.16218369 0.061049897 0.14375977
-0.02815639 -0.16722366 -0.14327039 -0.008747241 -0.028054249 0.122758865 0.14130989 -0.10932306
-0.046714216 -0.13891299 0.039352216 0.12953281 -0.060442183 0.005865598 -0.013730853 -0.15331653
0.17230788 0.038144015 0.16583174 -0.15369539 -0.051670097 -0.046615195 0.05817272 -0.044773966

bias f4 [10]
00000000: dac7 14be 548d 94bd ead6 20be 1b63 b73d
00000010: 1193 c4bc 56c6 8ebd 0f4b 1d3e 7f24 bf3c
00000020: 8d0e bb3c 0c4d cbbd
-0.14529362 -0.07253519 -0.15706983 0.0895445 -0.023995908 -0.06971423 0.15360664 0.023332832
0.022834087 -0.09926805

bias f4 [64]
00000000: bbb8 d43c 03ee e23b 2db6 f13a ecf5 15bd
00000010: 8c3b d73c 5bbd 263c 8b2e 6cbc 177f 243c
00000020: 4745 e03c 48ce b73a c93b 003d 1bbf 8e3b
00000030: 1052 0cbd bf1a fb3c 9ddc 363a 09f2 89bc
00000040: 3126 af3c ef24 0abc 04b6 e03c 01c1 e93c
00000050: d039 9dbb 941b fd3c 751e 90ba 5952 e23c
00000060: 44c1 a5bb 4edc 11bc 7c00 da3c f319 6e3c
00000070: 0957 613c fe4e 70bc 2084 ef3b 49f7 15bd
00000080: 4afb 0a3c 984b 8e3b a752 e0bb 4f62 e13a
00000090: 00da f63c e8ca 87bb e78e 6f3c 0dcb aebc
000000a0: de7b 31bc 2727 f93c b297 1abd 9288 47bc
000000b0: 4322 14bd 4710 bc3c 5403 c1bc e316 0ebb
000000c0: 592e 69bc db10 3fbd 17a4 1ebd f794 cd3c
000000d0: 0834 bebb e602 8fbb d46e 323a d015 5f3c
000000e0: 317c 363c d460 723c 69f1 ac3c 4dfa f43c
000000f0: 3005 f33c dd10 9c3c 8db6 39bc 7182 403c
0.025966993 0.006925346 0.0018441133 -0.036611483 0.026273511 0.010176982 -0.014415394 0.010040066
0.027376784 0.0014023269 0.031307016 0.0043562776 -0.03425795 0.030652402 0.0006975623 -0.016839044
0.021380516 -0.008431657 0.027430542 0.028534414 -0.0047981516 0.03089694 -0.0010995405 0.027627157
-0.0050584394 -0.008902622 0.02661156 0.014532554 0.013753661 -0.014667271 0.0073094517 -0.036612783
0.008482764 0.0043425076 -0.0068457904 0.0017195436 0.030133247 -0.0041440614 0.014621473 -0.021337057
-0.010832755 0.030414177 -0.037742324 -0.012178557 -0.036165487 0.02295698 -0.023561157 -0.0021681122
-0.014232242 -0.046646934 -0.038730707 0.025095446 -0.0058045425 -0.004364359 0.0006806676 0.01361604
0.011138008 0.014793593 0.021111207 0.029904509 0.02966556 0.01905101 -0.011335027 0.01174985

weight f4 [64, 1]
00000000: 3d24 7b3e 40fd 323e ed42 fbbb 6acf cd3d
00000010: d26d a0bd fe01 06be 250a 12bd 3a8a a8bd
00000020: 3b0f 993e 2e8d 05be 992a 9f3e 860c c5bb
00000030: 785c 693c cec1 943e 5301 1bbd 2500 abbd
00000040: 6c7a 0c3e d5c6 8dbc 0554 833d 0b96 573e
00000050: 277c 273b 1029 6f3e 8051 0ebd 2bc0 163e
00000060: 3d49 963c d152 02be 8182 94bb 45ce fe3d
00000070: af5e bdbd a32e 653e a4b6 a4bd ff63 eb3d
00000080: 841b 163d 12e0 7ebd 2b80 593e 2e32 1abb
00000090: a11e 72bc 0d6c 3dbc 3aa7 41be 0de8 0a3e
000000a0: 918a 8cbd c258 533e 7438 ca3d d4a7 083e
000000b0: d2bc 6d3d 9d78 eb3d 3ba8 47be 745e 92bb
000000c0: 30f4 89bd 3826 253e 3686 7c3d 8ded 013d
000000d0: 9925 22be ca3f 26be 3942 09be 172d 463e
000000e0: d1fe 3b3e cd12 25be f769 27be dddd 8c3e
000000f0: 2db5 183e 6f62 cebd b3e6 d3bc c3e0 3f3e
0.24525543 0.1747942 -0.0076678903 0.10049327 -0.078334466 -0.13086697 -0.035654206 -0.082294896
0.29894432 -0.13042137 0.31087187 -0.006013456 0.014243238 0.2905411 -0.03784306 -0.08349637
0.13718575 -0.017306725 0.0641251 0.2105333 0.0025556178 0.23355508 -0.034745693 0.14721744
0.01834547 -0.12726904 -0.004532159 0.124416865 -0.09246575 0.22381072 -0.080426484 0.11493682
0.036647335 -0.06222541 0.21240298 -0.0023528445 -0.01477781 -0.011561406 -0.18911448 0.13565083
-0.06862367 0.20639327 0.09874049 0.13345271 0.0580414 0.114976145 -0.19497769 -0.004466826
-0.06736028 0.1612786 0.06165143 0.031720687 -0.15834655 -0.16235271 -0.13404168 0.19353138
0.18358923 -0.16120453 -0.16349016 0.27513018 0.14912863 -0.100773685 -0.025866842 0.18738084

bias f4 [64]
00000000: 9816 043d 118f 7fbc de7a 26bc 1099 94bc
00000010: 2b85 c2bc c23c dabb eb69 b73c a91a ebbc
00000020: 6442 a43c d013 4bbc d672 26bc ae17 a7bb
00000030: 4bf5 953c 4e98 7d3c 8d28 093d 95bd c5bb
00000040: b0c6 e83c d61c c939 d332 203b fa42 87bc
00000050: ef4f 71bc cf00 d1bc 7d56 0a3d 2859 6cbc
00000060: 4c95 2abc 798b eb3c 8a71 ddbb cec0 9fbc
00000070: d6dd 053d 012f baba 7f05 3dbc 237d a53c
00000080: 1234 893b 102f 0d3d 247c c6bc 795e 793c
00000090: 7afd 82bc 6796 cdbc 3608 12bb 6e9a 56bc
000000a0: 33dd 73bc 2391 3dbc 2111 c33c fa02 4b3c
000000b0: 8e45 0fbd 5ad8 c33c 7bff b33c 379d 373c
000000c0: ea82 cabc 096e da3c d073 72bc ad8c 123c
000000d0: d848 2abd 9dcd c63c a2cb e03c a73a a4bc
000000e0: e257 bbbc 7784 64bc d18c ebbc 731e 633c
000000f0: 8826 11bc 4e9f 83bc 23c6 cd3b 02e5 063d
0.03224811 -0.0155980745 -0.01016113 -0.018139392 -0.02374514 -0.006660075 0.022389373 -0.028699236
0.020051189 -0.01239486 -0.010159215 -0.0050992584 0.018305441 0.015478207 0.033485938 -0.006034563
0.028415054 0.00038359192 0.0024444356 -0.01651143 -0.01472853 -0.02551308 0.033773888 -0.014425553
-0.010411572 0.02875303 -0.0067579197 -0.019501116 0.032682262 -0.0014204682 -0.011536955 0.020201271
0.0041871155 0.03446871 -0.024229117 0.015220278 -0.015990008 -0.025096131 -0.0022282726 -0.013098342
-0.014884281 -0.011570248 0.023811879 0.012390846 -0.034978442 0.023906875 0.021972409 0.0112069165
-0.024720628 0.026663797 -0.01479812 0.0089446725 -0.041573375 0.024267966 0.02744085 -0.020047499
-0.022869054 -0.013947598 -0.02875367 0.01386224 -0.008859284 -0.016067173 0.0062797233 0.032933243

weight f4 [64, 64]
00000000: a948 e63d 8a72 7b3c 2955 c33d 7a16 25ba
00000010: c646 853c 5ae4 bcbd 81fb f03a acc2 a43a
00000020: 384b 443e b5b2 123d a9f6 603e 4568 e53a
00000030: 9558 a0bb 373a 243d 74a2 48ba 53a0 353c
00000040: a740 7b3d 8b64 16bc 6469 9a3d f1f2 4a3d
00000050: 98ca 46bd e6a5 0c3d ad6f 2ebd 3fff ba3c
00000060: 7484 ee3c a3d3 cbbd afe3 713d 219f 72bd
00000070: 60a7 f8ba 9133 89bc 6775 833d a866 a0bd
00000080: 18de 0fbe 906a a3bd 2358 ec3d e49d 02bb
00000090: 45e6 3abc f9e9 873c 5a39 0dbc 72e4 443e
000000a0: 5ae4 8b3c f2fb 24be bc0a d4bd eafb 11be
000000b0: 0423 98bd 8503 a3bc b845 f2bc 2f09 afbd
000000c0: fbf7 9a3c c664 863d 1855 a33a d97e 513d
000000d0: 8f34 b0bc 8eca 80bb 7aed b0bc a4ec 053e
000000e0: 8406 2e3e b156 543b f88f 9c3d 361e c43d
000000f0: 4d9a ddbc 88d9 713d 9ba6 803b da63 893d
00000100: b30d 893b 5d84 bc3d 8c7f 04bd 75f1 59bc
00000110: 62c8 f6bc 23c1 1fbd be80 603c b3de 21bc
00000120: 6849 1f3c be9d 813d 1f0d 743d b014 a3b9
00000130: e56a 873d 2fb2 39bd 6e6e 723d a9fd a23d
00000140: 44ca b5bd 695b 183b 371d 9d3c 8d6d ce3c
00000150: 35e2 913d d18e eb3d 727f c9b9 3c5d 0e3c
00000160: b645 e53a 9433 8dbd ac0c f63b 9b84 8a3c
00000170: c451 5abb acf1 333d 9428 9cbd 10ca 37bd
00000180: f3c1 fdbc 68ad 14bb 10be 8b3d 3973 8e3c
00000190: 6c82 703d 1628 a33d 3837 84bd 92be a33c
000001a0: 26be c2bc 9b0b 95bd 2fa1 cd3d 4eb6 8dbd
000001b0: 3523 8cbd 093f 65bd d3bf db3c 0848 54bd
000001c0: a73a 133b e7c6 9bbd efcc ef3b dba4 643c
000001d0: 328f 59bd 0233 5dbb 4a24 33bd fbc4 da3d
000001e0: 5c39 9dbc 1321 54bd 927a 06bb 0c68 163d
000001f0: 6f04 6cbd a5c7 403d bd45 d2ba 4ad1 9ebd
00000200: a603 923d fa7e 9b3c d39a 8a3c 3c6c 84bb
00000210: 8573 7dbc ff08 88bc bfda 2a3b 1144 3a3d
00000220: ca60 003d ed7d 5fbc 7387 043e 90a7 ff38
00000230: 4de3 f1bc 85e8 723d 598b 973c b779 f63a
00000240: 5ef9 ebbc 37c9 e5bc 63f9 173d ae0b f03d
00000250: 1fa2 7a39 31ba 2c3d 8480 cf3c 13de 993c
00000260: faba 98bd c813 113d c7af 95bb 0196 d3bd
00000270: c8db b4bb d4c3 dcbc 159d 123d 551d c8bd
00000280: dc9c a9ba 3bd4 6ebd 4822 8e3d 3874 25bd
00000290: 513b 4cbd 21be 8aba d9e2 4aba 49d4 babc
000002a0: 5ee9 85bd b31b 77bd b6fc d9bb 8884 033d
000002b0: 1a17 94b9 300d 863d e347 d9bb 5000 d037
000002c0: 2410 a33c fca2 edbc 2e1f b2bd a318 b3bd
000002d0: f7a9 0fbd 7f65 233b 7b50 9ebd e219 ddbc
000002e0: e603 f9bd 2980 8d39 0640 d2ba caad ffbd
000002f0: 4826 b63d 9397 6c3a 6a64 23bc 305f e03d
00000300: 91bd ba3d b899 8aba 4288 6bb8 472c 873d
00000310: 3c81 47b9 594f 7aba 828f c4b9 6d2f 80b9
00000320: d63c 4e3d e7de 913d c173 91bd 85d6 58b8
00000330: 8975 a2b8 3fa2 ef3c c9bd d83c 8e3c df3c
00000340: b484 b4bd b0c8 523a d3ed 3a3b edc9 94bb
00000350: b53d 90bd 2395 9c3d b8af 113a 834b 90bd
00000360: f1b6 8a3d 741f 5f3d eac9 9dbd 371b d7bb
00000370: 2971 bdbd 0aac 20bc 1bae 0dba 31ec b4bd
00000380: c7f9 d6bc ed8a 02ba 1268 eb3d 0a81 d43c
00000390: 6d92 b03d 3cb6 10b9 5cd1 85bd 3b00 093d
000003a0: ea6b aab9 fde9 643b 5b82 d53d c3a1 02bd
000003b0: 32c3 3835 d2b4 9ebd 82e1 1fbb 8927 83b8
000003c0: 82d0 34ba 5b41 a63d c7f6 c93d a4be 883d
000003d0: febb a8ba 5b2c 583d 0d68 74bb 33ff e4bc
000003e0: e5d4 abbc 5665 e8bc 5873 05ba 5998 b0bc
000003f0: e487 ddbc 8396 d6b9 a6f3 3239 f5e5 27bd
0.112443276 0.015347132 0.095377274 -0.00062976 0.016269099 -0.09223242 0.0018385501 0.0012570224
0.19169319 0.03581496 0.21969093 0.0017502388 -0.0048933723 0.04009458 -0.0007653602 0.011085588
0.061340954 -0.009179245 0.07539633 0.049548093 -0.048533052 0.0343379 -0.04258697 0.022826789
0.029115893 -0.09952476 0.059055027 -0.05923379 -0.001897078 -0.016748222 0.06418877 -0.0783208
-0.14049566 -0.079793096 0.11540248 -0.0019930536 -0.01140744 0.016591059 -0.008619631 0.1922777
0.01707666 -0.16111735 -0.1035361 -0.14256254 -0.07428554 -0.01989914 -0.02957426 -0.085466735
0.018917074 0.0656219 0.0012461273 0.051146362 -0.021509437 -0.0039303964 -0.021597613 0.13078552
0.16994673 0.0032400305 0.07644647 0.09576075 -0.027051115 0.059045345 0.003926111 0.06708498
0.0041825413 0.09204934 -0.0323482 -0.013302197 -0.030124847 -0.03900255 0.0137025695 -0.009879756
0.009722091 0.06328915 0.059582826 -0.00031105196 0.066121854 -0.045335945 0.059187345 0.07958538
-0.0887647 0.0023247844 0.01917897 0.025198722 0.07123224 0.115018494 -0.00038432662 0.008689221
0.0017492089 -0.06894603 0.007508835 0.016908934 -0.0033312896 0.043931648 -0.07624927 -0.044870436
-0.030976271 -0.0022686366 0.06823361 0.017388927 0.05871813 0.0796663 -0.06455845 0.019988332
-0.02377231 -0.07277604 0.10040509 -0.069195375 -0.06842653 -0.055968318 0.026824867 -0.051826507
0.002246538 -0.07606297 0.007318131 0.01395532 -0.053115077 -0.0033752327 -0.04373578 0.10682102
-0.01919239 -0.051789355 -0.0020519835 0.03672032 -0.057621416 0.047065396 -0.0016042512 -0.077547625
0.07129602 0.018981446 0.016919529 -0.004041223 -0.0154694365 -0.016605852 0.0026070324 0.04547507
0.031342305 -0.013640863 0.12942295 0.000121905585 -0.02952733 0.05930378 0.018499063 0.0018804584
-0.028805431 -0.028050048 0.037103068 0.11720978 0.00023902253 0.042169753 0.025329836 0.018782651
-0.07457538 0.035419255 -0.0045680734 -0.10331345 -0.005519364 -0.026948847 0.035794336 -0.0977122
-0.0012940424 -0.058307867 0.069401324 -0.040394038 -0.049861256 -0.0010585227 -0.00077394914 -0.022806304
-0.06538652 -0.06032915 -0.00665244 0.032108814 -0.00028245972 0.06545484 -0.006630884 2.4795678e-05
0.019905157 -0.029008381 -0.08697353 -0.087449335 -0.0350742 0.0024932323 -0.07730194 -0.026989881
-0.12158947 0.00026989102 -0.0016040809 -0.124843195 0.0889402 0.0009025272 -0.009972671 0.109556556
0.09118188 -0.0010574376 -5.6155266e-05 0.06600242 -0.00019026262 -0.0009548567 -0.00037490955 -0.00024449397
0.050350986 0.071225934 -0.071021564 -5.16982e-05 -7.7466546e-05 0.02925217 0.026457684 0.027250554
-0.088143736 0.0008040769 0.0028523102 -0.004540673 -0.0704302 0.07645633 0.0005557495 -0.07045653
0.067731746 0.054473355 -0.07704528 -0.0065645236 -0.09250099 -0.009806642 -0.0005404667 -0.088341124
-0.02624215 -0.0004979808 0.11494459 0.025940437 0.086216785 -0.00013800798 -0.06534073 0.033447485
-0.0003250533 0.0034929507 0.10425254 -0.03189255 6.882939e-07 -0.077493325 -0.0024395888 -6.253931e-05
-0.0006897525 0.08117934 0.09861522 0.06676987 -0.0012873409 0.052776676 -0.0037293464 -0.02795372
-0.02097554 -0.028368633 -0.0005090735 -0.02155702 -0.027042337 -0.000409294 0.00017066169 -0.04099079

bias f4 [20]
00000000: 40e1 edbc 65d2 10bd e6e1 153d 3d8a 13bd
00000010: ac19 0a3d f062 8c3c 99ed 333c 4acc 043d
00000020: 6db9 bd3b ab4c d6bc f44a f43c 8971 08bd
00000030: 6c56 17bd 6841 0fbd 25dc 083d 71a2 03bb
00000040: dd03 103d 5e4b 133d 1898 c93c 9aec 093d
-0.029038072 -0.035356898 0.036592387 -0.036020506 0.03371589 0.01713702 0.010981941 0.032421388
0.0057899267 -0.026159605 0.029820897 -0.0333114 -0.036947653 -0.034974486 0.03341307 -0.0020085836
0.035159934 0.035960548 0.024608657 0.033672906

weight f4 [20, 64]
00000000: f44e 21be 9f23 033e 55a7 d43c b91c b6ba
00000010: 2df7 11bd 194f d63b 556e 673c 036c c73d
00000020: 2672 90bd 2f91 643c d6ff fe3c d74f 873c
00000030: 87e7 81bd 32fd fe3c a245 71bd d676 8abd
00000040: 2648 bfbd e9fc 42bb 8228 4cbb a8a7 7cbb
00000050: dadc bb3d d2a4 113d e3c9 673d bce3 bd3c
00000060: 8df0 e03d a2f4 bdbd a996 30bb 108a 90bd
00000070: 3d8a eebd ca96 693c 9fe9 c83d f28d ae3b
00000080: 1be4 5f3b 338d 06be 21dc 87bd a615 fd3c
00000090: 7680 bcbd 8175 be3d 8d0a 2b3c 955c 47bb
000000a0: 7c84 e1bc 6e18 b1bc afb1 663d 9f61 a13c
000000b0: 4330 6a3d 64fe 003e bd88 34be 2c19 f53d
000000c0: 0743 073c fdd4 2bbe 2474 2c3d 13e0 2fbd
000000d0: 3405 e43d 9581 a7bd d522 05bd 6f9a 6e3c
000000e0: 4fe8 053e 593a 9fbd 0209 0b3d 97f5 c4bd
000000f0: a0af d53d 10c1 06bb b01e 223d b3ef 1fbe
00000100: ec0b 3d3d bc66 df3d c59c c83d a7a3 a43d
00000110: dba0 9d3d 34ea 6a3b 629f 32be fbe2 4ebb
00000120: 4634 57be c86f 13be 9660 683c 81d5 b73d
00000130: ec20 eaba 344a ffbd b182 20bc c3ac 9d3d
00000140: b309 a23b e57f c3bd 1cc4 a7bb 0254 95bd
00000150: 7b95 963b 0970 16bd a6b2 83be 44b3 6aba
00000160: 2da3 4bbb 4036 1ebe 73ee e63d 23a4 cabb
00000170: 68ed 5fbe 5aec b13b bb8c c63d f3c6 f5bc
00000180: a456 e1bd 1154 68bd 0052 0a3e 3d72 3d3e
00000190: fb2c 8c3c 5b7b 02bc 7f3e 533d 9a2c 5fba
000001a0: c2e0 8639 501c 6d3b 0c27 14be 9bd6 c7bd
000001b0: 9a18 e6bd 50ec bbbd 414b 8f3c 7c00 80bb
000001c0: 6c44 f93c 988e 3a3e 3bda 1bbb d1f5 1d3d
000001d0: e52a 40bd 3179 20be 64c4 a13d 98db 093e
000001e0: 8fce 3c3d 3f56 35bb 6d0a ccbc 5a6e f4bd
000001f0: 6a32 bf3d 7d4f 973d 8091 ed3a 00e3 48bd
00000200: 8409 123e 6c2f 92bd 1326 283e a211 e0bd
00000210: fe3b 0a3e 2bc9 00bd 8702 c2bd 9a1b 583b
00000220: d70d 31bd cfab 373c cee2 54bd 9fd4 4bbc
00000230: 9a64 0b3a 723b 12bd 9a8e 1bbd 11f4 733a
00000240: 6216 a93d 9a36 253d d64c 793d 22eb 4a3d
00000250: 451d 06bd 8256 aabd 6bc3 7abd dba9 e4bd
00000260: 44d8 bcbd da52 963d df23 44bd ded4 0abb
00000270: 629b 203e 8bb9 c03d 8581 503c f2c8 d63a
00000280: d324 03bc 4192 523e e5b3 6dbc 7024 d73d
00000290: 0d82 f23c 8387 c8bc 95cb 32bc 22da 983c
000002a0: 6848 c8bd 36ea 403d 442b 213e b1a3 32be
000002b0: ed8b 443e 7472 693e 32a1 333e 9ba5 bd3c
000002c0: c4d9 bc3d 0fcc 243d e8eb 223b b4a0 5b3b
000002d0: 438a 1bbe 82a6 8cbc 6f4a 9d3d 29ef 233b
000002e0: 3e14 0dbe da51 e83b 619c 2a3d f8e7 ab3c
000002f0: 5126 083c 0d83 cf3c 61a3 3a3d 6716 e93d
00000300: db3c 24be 0eb8 09bd 8d0d 0d3e 41e2 053d
00000310: 511e acbb 38a9 883d b1dd 97bd 142f 66bc
00000320: 9e2e dabd b8ad ba3d e62e 83bd be4e 9a3c
00000330: 1530 50ba dbc1 c4bc 32a0 6cbe 0047 463d
00000340: bc07 823d 8156 333d b303 b33d a526 c1bd
00000350: 09f5 403d af43 f43b 55ed cebd 2ff5 debd
00000360: 0c2e 993d 7616 533c 7903 583d 91e6 80bc
00000370: 5b2c 03bd 7a91 ae3d e9a1 89bc 8a90 d1bb
00000380: bd73 71bb abe2 4abe 0ba2 753d c51f f4bb
00000390: 0ca9 6eb8 3113 423d fc28 cebd 6351 e5bd
000003a0: 6741 d2bd a1ea 1b3c f57a d1bd c0c1 0c3e
000003b0: 52e2 d93d 34f0 2bbe 5777 ed3a d0a9 8bbd
000003c0: de50 693d 128b 4fbb d9e7 eeba 9778 76bb
000003d0: 87d1 c6bc 0faf 40be c547 863c 547f 9b3c
000003e0: 1b6a 3abd f6b9 0b3e 1182 9fbb 59b5 06bc
000003f0: bd6f f73a 8def e2bc 8921 443b 5b94 aabd
-0.15752774 0.12806557 0.025958696 -0.0013894058 -0.035636116 0.006540191 0.014125426 0.097373985
-0.07053022 0.01395063 0.031127851 0.016517563 -0.063429885 0.031126592 -0.058904298 -0.067609474
-0.09339933 -0.0029752797 -0.0031152074 -0.003855208 0.091729835 0.035557576 0.05658902 0.023179881
0.109833814 -0.09275176 -0.002694527 -0.07057583 -0.116474606 0.014257142 0.09810185 0.00532698
0.003416306 -0.131398 -0.06633783 0.030894112 -0.092041895 0.09299756 0.010439527 -0.0030420173
-0.027528994 -0.021618094 0.056321796 0.01969987 0.057174932 0.12597042 -0.17630287 0.11967692
0.008255727 -0.16780467 0.042102948 -0.042938303 0.11133805 -0.08179013 -0.03250392 0.014563187
0.130769 -0.07774801 0.033944137 -0.09617155 0.104338884 -0.0020561852 0.039580047 -0.15618782
0.046153948 0.10908267 0.097955264 0.08039027 0.07696696 0.0035845162 -0.17443612 -0.0031568396
-0.21016034 -0.1439811 0.014183184 0.089762695 -0.0017862595 -0.12465325 -0.009796784 0.07698967
0.004945004 -0.09545878 -0.0051198136 -0.07291414 0.004595456 -0.03672794 -0.25722235 -0.0008953104
-0.0031072602 -0.15450382 0.11275949 -0.0061841174 -0.21867907 0.0054297866 0.09694811 -0.030002093
-0.110028535 -0.056720797 0.13507843 0.1850061 0.017111292 -0.007963981 0.051573273 -0.0008513421
0.0002572593 0.0036180206 -0.1446802 -0.097577296 -0.11235161 -0.091759324 0.017491939 -0.0039063077
0.030428134 0.18218458 -0.0023781199 0.038564507 -0.046915907 -0.15671231 0.07898787 0.13462675
0.046095427 -0.0027669815 -0.024907315 -0.119351104 0.093357876 0.07388208 0.0018125027 -0.04904461
0.14261442 -0.07137951 0.16420774 -0.10940863 0.13499448 -0.03144185 -0.09473138 0.0032975436
-0.04322609 0.011210396 -0.05197411 -0.01244083 0.000531742 -0.035701223 -0.037977792 0.0009306083
0.08256222 0.040335275 0.060864292 0.049540646 -0.032742757 -0.08317281 -0.06122152 -0.1116521
-0.09220937 0.073400214 -0.04788577 -0.0021184008 0.15684274 0.094103895 0.012726192 0.0016386791
-0.008004385 0.20563604 -0.014508222 0.10504997 0.029603029 -0.02447868 -0.010912796 0.018658701
-0.097794354 0.04709836 0.15739161 -0.17445256 0.19194002 0.22797567 0.1754196 0.023150256
0.09221223 0.040233668 0.002485985 0.0033512535 -0.15189461 -0.01716924 0.07680213 0.0025014377
-0.13777253 0.0070898356 0.04165304 0.020984635 0.008309917 0.025331045 0.045565967 0.11381226
-0.1603884 -0.033622794 0.137747 0.032686476 -0.0052526374 0.06672901 -0.07415331 -0.01404931
-0.10653423 0.091151655 -0.064054295 0.018836375 -0.0007941735 -0.024018219 -0.23107985 0.048407555
0.063491315 0.04378367 0.0874094 -0.09431199 0.047108684 0.0074543576 -0.10103861 -0.10886609
0.07479486 0.012883773 0.052737687 -0.015734943 -0.032024723 0.08523841 -0.016800838 -0.006395404
-0.0036842667 -0.1981303 0.05996899 -0.0074500763 -5.690106e-05 0.047381584 -0.10066411 -0.11197164
-0.10266381 0.009516389 -0.1022853 0.13745785 0.1063887 -0.16790849 0.0018117231 -0.068194985
0.056961887 -0.0031668586 -0.0018227055 -0.0037608498 -0.024269832 -0.1881678 0.016391644 0.018981613
-0.045511346 0.13645157 -0.0048678 -0.008221948 0.0018877905 -0.027702117 0.0029927215 -0.08329078
