ckpt/real_Full_model-best.pt (torch, 140478 bytes, 17 tensors)

weight f4 [256, 7]
0	0xbc0b463c	-0.008500632
1	0x3e23855f	0.15968846
2	0xbe818071	-0.25293306
3	0xbe61529c	-0.22004169
4	0xbdb79699	-0.08964271
5	0x3d4166f7	0.047217336
6	0x3a4652e1	0.00075654505
7	0x3e778513	0.24171858
8	0xbd0a47a5	-0.03375973
9	0x3d39f713	0.045401644
10	0xbd73464c	-0.059393212
11	0xbcc227fc	-0.023700707
12	0xbe9ae4e4	-0.30252755
13	0xbe45123b	-0.19245236
14	0xbdcbd52e	-0.0995277
15	0xbb5e76ab	-0.0033945243
16	0x3dbed3ec	0.09317765
17	0x3e2d314f	0.16913341
18	0xbe4b0c9a	-0.19829026
19	0xbddd13bc	-0.1079478
20	0x3da6c197	0.08142393
21	0x3e901855	0.28143564
22	0xbd93b0ca	-0.07211454
23	0x3e676971	0.22598816
24	0xbc486917	-0.012232087
25	0x3b80b18d	0.0039274157
26	0x3e914e38	0.2837999
27	0xbe95872b	-0.29204687
28	0xbe398719	-0.18117942
29	0xbd50b73f	-0.050956007
30	0xbdbad116	-0.09121911
31	0x3e8949c1	0.26814082
32	0xbe3fa65b	-0.18715803
33	0xbdefea43	-0.11714604
34	0xbe52fe96	-0.2060493
35	0xbe9782d3	-0.29591998
36	0xbe28b74c	-0.16476172
37	0x3e886e38	0.2664659
38	0x3de53706	0.111921355
39	0x3e012f31	0.12615658
40	0x39fb8922	0.00047976623
41	0xbe0bd88a	-0.13656822
42	0x3ca5ddb3	0.020247316
43	0xbe96a740	-0.29424477
44	0xbe5c2550	-0.21498609
45	0xbe0cee0c	-0.13762683
46	0x3e390bd6	0.18070921
47	0x3e27f541	0.1640215
48	0xbde323aa	-0.11090787
49	0xbc83a649	-0.016070502
50	0x3e527640	0.20552921
51	0x3ea239f2	0.31684834
52	0x3dbff08a	0.09372051
53	0x3b9d029f	0.004791572
54	0x3e48230b	0.19544618
55	0xbe28f51f	-0.16499756
56	0x3ca88aeb	0.020574054
57	0xbe708d80	-0.23491478
58	0xbe50dc03	-0.20396428
59	0xbe0d5516	-0.13801989
60	0x3de9f571	0.11423767
61	0x3dc3f654	0.09568468
62	0xbe2a41b6	-0.16626629
63	0x3da2999e	0.079394564
64	0x3e2f79f0	0.17136359
65	0xbbe91b60	-0.007113859
66	0x39cd8f03	0.000392072
67	0x3d0d4a5b	0.03449474
68	0x3e34f3ec	0.17671174
69	0x3e9bcf30	0.3043151
70	0xbe6fe18f	-0.23425888
71	0xbdb61973	-0.08891573
72	0x3dbcd077	0.09219449
73	0x3e8276ec	0.25481355
74	0x3e8a7948	0.27045655
75	0x3e8cd243	0.27504167
76	0x3cc37146	0.023857724
77	0xbe8afa99	-0.27144316
78	0x3c38e75c	0.011285629
79	0xbe371438	-0.17878807
80	0xbe966055	-0.2937037
81	0x3e8dfe58	0.2773311
82	0x3e6ab2a1	0.22919704
83	0xbea303ce	-0.3183884
84	0x3c92bf01	0.017913343
85	0xbcb4b652	-0.022059593
86	0xbc5cca77	-0.013476006
87	0xbdedf551	-0.11619056
88	0x3db6ac5b	0.08919593
89	0xbe2a3ddf	-0.16625164
90	0x3da944d6	0.082650825
91	0x3e228e63	0.15874629
92	0x3e7a695a	0.24454251
93	0x3db2b916	0.087267086
94	0xbea181ac	-0.31544244
95	0xbe3f97ff	-0.18710326
96	0x3e06d312	0.13166454
97	0x3ce03dbd	0.02737319
98	0xbe717066	-0.23578033
99	0xbe22c02c	-0.1589362
100	0x3e981a42	0.29707533
101	0x3e49781d	0.19674726
102	0xbddd6654	-0.10810533
103	0xbd2a201b	-0.041534524
104	0xbe9a59ef	-0.3014674
105	0x3b975a43	0.0046189143
106	0xbe67107b	-0.2256488
107	0xbe6edc42	-0.23326209
108	0xb9834dba	-0.00025044178
109	0x3c1aefd4	0.009456594
110	0xbdc97acc	-0.09837875
111	0x3e2aa85b	0.16665785
112	0xbe429b67	-0.19004594
113	0x3e9635b1	0.29337838
114	0x3e4d7ec9	0.20067896
115	0xbe854e51	-0.26036313
116	0xbd2a4c97	-0.041576948
117	0x39253d95	0.00015758567
118	0x3c0059e1	0.007833929
119	0x3dab89a8	0.08375865
120	0x3e0fb49d	0.14033742
121	0x3bf72fec	0.0075435545
122	0xbe028034	-0.12744218
123	0x3df8ca02	0.12147905
124	0xbe9bb304	-0.30410016
125	0xbe2a97f4	-0.16659528
126	0xbd25918b	-0.040422004
127	0xbe01b7f8	-0.12667835
128	0xbd9c68a0	-0.07637143
129	0xbe80bf14	-0.2514578
130	0xbce73146	-0.028221738
131	0x3ceb3b33	0.028714752
132	0xbe40e37e	-0.18836781
133	0xbcb1bfcd	-0.021697903
134	0x3e7158be	0.23569009
135	0xbc106c86	-0.0088149365
136	0x3799be35	1.8327593e-05
137	0xbaf977de	-0.0019032916
138	0x3cca098b	0.024662754
139	0x3e3ad71e	0.18246123
140	0x3ea51c70	0.3224826
141	0x3e678be5	0.2261196
142	0x3e9970de	0.29968923
143	0x3a67f45c	0.0008848363
144	0xbe902cf9	-0.2815931
145	0xbdfad8d0	-0.12248385
146	0x3e4c11b6	0.19928631
147	0x3bc60e38	0.0060441755
148	0xbe04ef27	-0.12981854
149	0xbe6cefa5	-0.23138292
150	0xbe972050	-0.2951684
151	0xbe856e5c	-0.2606076
152	0xbccd6f73	-0.025077557
153	0x3e197915	0.14987595
154	0x3e1b5742	0.15170005
155	0xbe9cdeb6	-0.30638665
156	0x3e367407	0.17817698
157	0xbe73372c	-0.23751515
158	0xbce34cf6	-0.027746659
159	0xbdc667b1	-0.09687746
160	0xbcb2623c	-0.021775357
161	0xbcc16411	-0.023607286
162	0xbe8f7676	-0.28020066
163	0xbe89267d	-0.26787177
164	0xbc33f83f	-0.010984479
165	0xba0da0d9	-0.00054026913
166	0xbdeb4aec	-0.114888996
167	0x3db0ddd9	0.08636064
168	0xbe902208	-0.28150964
169	0x3b8819bc	0.0041534584
170	0x3e8c4510	0.2739644
171	0xbdc84482	-0.09778692
172	0x3e90cdae	0.2828192
173	0x3da5fb0f	0.08104526
174	0xbe90b167	-0.28260347
175	0x3e490da5	0.19634111
176	0xbd5076de	-0.05089461
177	0xbde6fbef	-0.11278521
178	0x3e79ce72	0.24395159
179	0xbe7d26d1	-0.24721839
180	0xb9847e19	-0.00025270952
181	0xbce0a2ef	-0.027421443
182	0x3e6cbf16	0.23119769
183	0x3db8db5a	0.09026213
184	0x3e0141c8	0.1262275
185	0x3d9f517a	0.07779212
186	0xbd17ebe5	-0.0370902
187	0xbce061ea	-0.027390439
188	0xbe819691	-0.25310186
189	0x3e379c3e	0.17930695
190	0x3e8dc38e	0.2768826
191	0x3e4d1260	0.20026541
192	0xbe559be5	-0.2086025
193	0xbb5e5d94	-0.0033930289
194	0xbe558b16	-0.20853838
195	0xbe1a69da	-0.15079442
196	0xbe36396b	-0.1779534
197	0x3df26735	0.118360914
198	0xbe2b7158	-0.16742456
199	0xb91dbe2b	-0.0001504353
200	0x3ad449ce	0.0016196312
201	0x3e3e4b9d	0.18583532
202	0xbe68faf2	-0.22751978
203	0xbe4d7b99	-0.2006668
204	0xbe24e6f4	-0.16103727
205	0x3e5395f9	0.20662679
206	0xbda3f21a	-0.080051616
207	0x3e855a68	0.26045537
208	0x3da59664	0.08085325
209	0x3b7014b4	0.0036633434
210	0xb9896580	-0.000262063
211	0xbcdeea67	-0.027211381
212	0x3b63e8a6	0.003477612
213	0xbd097b3a	-0.033564784
214	0xb875b9ac	-5.8585472e-05
215	0x3b7a1fda	0.0038165958
216	0xbe7319b7	-0.23740278
217	0xbe29c504	-0.16579062
218	0x3e89c9cb	0.26911768
219	0xbe7f1b27	-0.24912702
220	0x3a88d344	0.0010438939
221	0x3ea15701	0.3151169
222	0x3da507ca	0.08058126
223	0x39a76bb1	0.00031932959
224	0xbe88ca5e	-0.26716894
225	0x3e1c733d	0.15278335
226	0xbe57ee4d	-0.21086998
227	0xbd585ed2	-0.052824803
228	0xbd91a567	-0.07111626
229	0xbc0caff7	-0.008586875
230	0xb9953c63	-0.00028464486
231	0x3e819bba	0.25314122
232	0x3cd8d969	0.026470857
233	0x3e8f3dfa	0.27976972
234	0x3e31a7fd	0.17349239
235	0xbe39adf7	-0.18132769
236	0x3de6d880	0.11271763
237	0xbe563054	-0.20916873
238	0xbe05eb66	-0.13078079
239	0x3db1fc9c	0.086907595
240	0x3d8d829f	0.069096796
241	0x3e66cc80	0.22538948
242	0xbd88fc98	-0.066888034
243	0x3adf675d	0.0017044354
244	0x3e0c9d13	0.13731794
245	0xbe9c3dbe	-0.30515856
246	0x3e692f67	0.22771989
247	0xbe820873	-0.2539707
248	0xb91fad78	-0.00015228044
249	0xbc6e844e	-0.014557911
250	0xbe112a30	-0.1417625
251	0x3b9e7f5a	0.004836959
252	0x3e8b2db4	0.27183306
253	0xbddf79e0	-0.10911918
254	0xbe2bc281	-0.16773416
255	0xbdabbf78	-0.08386129

bias f4 [256]
0	0x3e7843b0	0.2424457
1	0x3e105626	0.14095363
2	0x3dc27a76	0.09496014
3	0xbd33d73b	-0.04390643
4	0x3e12db35	0.14341433
5	0x3dff7931	0.12474287
6	0x3d9a1a37	0.07524531
7	0xbad7513e	-0.001642741
8	0x3c14cbce	0.009081794
9	0x3a7fafcf	0.00097536755
10	0xbe5d6970	-0.21622252
11	0x3d0e7d1e	0.03478729
12	0xbe61060a	-0.2197496
13	0x3e01b51b	0.12666743
14	0xbe2b8d96	-0.1675323
15	0xbd8b795f	-0.06810259
16	0xbdfaf922	-0.122545496
17	0x3e756ca5	0.23967226
18	0xbe551c1d	-0.20811506
19	0x3e0ada00	0.13559723
20	0x3e0724bf	0.13197611
21	0x3e563f3e	0.20922562
22	0x3d291bc9	0.041286264
23	0x3e184093	0.14868383
24	0x3e764c6e	0.24052593
25	0x3cbd79e1	0.023129405
26	0x3d969361	0.07352329
27	0xbe73584b	-0.2376415
28	0xbd415316	-0.047198378
29	0xba984919	-0.0011618464
30	0x3b2632d3	0.0025359883
31	0xbda04d2a	-0.07827218
32	0xbea1cb93	-0.31600627
33	0xbd378ee6	-0.044814013
34	0x3db51389	0.08841617
35	0x3e88c0fb	0.26709732
36	0xbe90d87c	-0.28290164
37	0x3dfce401	0.12348176
38	0xbe99a012	-0.30004936
39	0xbe9b1032	-0.30285794
40	0xbe3737dd	-0.17892404
41	0xbb9d81b7	-0.004806723
42	0x3d518283	0.051149856
43	0xbe6ac68d	-0.22927304
44	0x3e6e60ec	0.2327916
45	0x3e910d55	0.28330484
46	0xb9b3985d	-0.0003425506
47	0x3e7f5897	0.24936138
48	0xbdeaac93	-0.11458697
49	0xbdbf0372	-0.09326829
50	0xbb8c139c	-0.0042747986
51	0x3a1bed9b	0.0005948187
52	0xbe5383ec	-0.20655793
53	0xbe7a3786	-0.24435243
54	0x3dbea709	0.09309203
55	0x3d5cf242	0.053941973
56	0x3e9f4e7f	0.31114575
57	0xbdc8558c	-0.09781942
58	0x3d9e5001	0.07730103
59	0xbdc4df80	-0.09612942
60	0x3e04a1d9	0.12952365
61	0xb904b385	-0.00012655377
62	0x3e636133	0.22205047
63	0x3e1c3761	0.152555
64	0x3e832ec3	0.25621614
65	0x3e0c1c1b	0.13682596
66	0x399f3f60	0.0003037406
67	0x3e88e031	0.26733544
68	0xbe286837	-0.16446005
69	0x3e9884e9	0.29788902
70	0x3e9efe30	0.31053305
71	0x3e9aed32	0.3025909
72	0xbdf51e57	-0.119686775
73	0xbe123ea3	-0.14281707
74	0xbafca904	-0.0019276445
75	0x3d7e20fd	0.06204318
76	0x3e07a746	0.13247404
77	0x3dc76b35	0.09737245
78	0x3e86e0ef	0.26343486
79	0xbd288b5f	-0.04114854
80	0xbd8c98c6	-0.06865077
81	0x3d914863	0.07093885
82	0x3d4f47e7	0.05060568
83	0xbe26c7ad	-0.16287108
84	0xb95c26e0	-0.00020995317
85	0xbe6a46e9	-0.22878613
86	0xbd6516da	-0.055929996
87	0xbdbc97d3	-0.09208646
88	0x3e8bb3df	0.27285668
89	0xbe904071	-0.28174165
90	0xbe29758b	-0.16548745
91	0xbe9f5d7f	-0.3112602
92	0x3d28a054	0.041168526
93	0xbe6e34e6	-0.23262367
94	0x3d899be3	0.06719186
95	0xbe51782c	-0.20455998
96	0xbe3cea94	-0.1844886
97	0xbe0b240e	-0.13587973
98	0x3c197c1a	0.009367967
99	0x3e93c573	0.2886158
100	0x3e974840	0.2954731
101	0x3aaba0d6	0.0013094197
102	0xbe9f9476	-0.31167954
103	0xbd8e42e2	-0.06946351
104	0xbdb41cc6	-0.087945506
105	0xbcf53d8c	-0.029936574
106	0x3db4c397	0.08826368
107	0x3e083c39	0.13304223
108	0x3de222db	0.110418044
109	0x3d58de6e	0.0529465
110	0xbdc5e169	-0.09662134
111	0xba695a23	-0.0008901676
112	0x3b81b67f	0.003958523
113	0xbe0b8bc0	-0.13627529
114	0x3acd63de	0.0015670022
115	0xbbbbe7bf	-0.0057344134
116	0xbe98d9fa	-0.29853803
117	0x3e4b310c	0.19842929
118	0x3a0b45e4	0.0005312844
119	0xbe896055	-0.26831308
120	0x3e7649e8	0.2405163
121	0xbe15aebc	-0.14617437
122	0x3d9fec26	0.078087136
123	0x3ea1d619	0.31608656
124	0xb8f99718	-0.00011901389
125	0x3d5d7c8b	0.05407385
126	0x3dc0aea3	0.09408309
127	0x3e690f03	0.22759633
128	0xbd79fedb	-0.061034065
129	0xbe1f69ac	-0.15567654
130	0xbb0f7d22	-0.0021894653
131	0x3e731813	0.23739652
132	0xbac54621	-0.0015050807
133	0x3e51824c	0.2045986
134	0x3a5b09eb	0.0008355665
135	0x3d7a264a	0.06107167
136	0xb64dab4b	-3.0647086e-06
137	0xb9ff7f5a	-0.00048732274
138	0xbe9a2a5c	-0.30110443
139	0xbe8b423b	-0.27198967
140	0xbab58f5d	-0.001385193
141	0x3e0515bc	0.12996572
142	0x3e4886f3	0.19582729
143	0x3a31dc7f	0.00067848706
144	0x3dd2abec	0.10286698
145	0x3dcf89e3	0.10133722
146	0xbe893714	-0.26799834
147	0xbe8c59af	-0.27412173
148	0xbe707758	-0.23483026
149	0xbad9ac99	-0.0016607224
150	0xbe399207	-0.18122111
151	0xbd875bf2	-0.06609334
152	0xbc159e2b	-0.009131948
153	0x3dbc4e0b	0.09194573
154	0x3d0ba727	0.034094956
155	0x3e957eef	0.29198405
156	0x3e907e5a	0.282214
157	0xbe3bba47	-0.18332778
158	0xb9e2f62e	-0.00043289497
159	0x3c5c794a	0.013456652
160	0x3e8b0470	0.27151823
161	0xbd7dd78d	-0.061973143
162	0xbdbd1eb4	-0.09234372
163	0xbe39facd	-0.18162079
164	0x3e61b474	0.22041494
165	0xbd57b87d	-0.052666176
166	0xbdb0f4d9	-0.08640451
167	0x3e4a7993	0.1977294
168	0x3e94352c	0.28946817
169	0xba0da093	-0.00054026506
170	0xbe55c318	-0.20875204
171	0x3e7f6c8d	0.24943753
172	0xbd96f9be	-0.07371853
173	0xbdefd970	-0.11711395
174	0xbe54aba7	-0.20768605
175	0xbdff93ce	-0.124793634
176	0xbe7374b1	-0.23774983
177	0xbe2473cd	-0.160598
178	0xbe9254f7	-0.28580448
179	0xbcc963bd	-0.024583692
180	0x3dc3ff8f	0.09570228
181	0xbe6a5a9b	-0.22886126
182	0x3913c9c4	0.00014094176
183	0xbdaa513b	-0.08316275
184	0x3e00dbaf	0.12583803
185	0x3e89b5c3	0.26896486
186	0xbb8a1ce7	-0.004214871
187	0xbe08750c	-0.133259
188	0xbe6dc40f	-0.23219322
189	0xbe286464	-0.16444546
190	0x3d5fb90a	0.054619826
191	0x3d088239	0.033327315
192	0x3e15b5b4	0.14620095
193	0xbc6a72d6	-0.014309606
194	0x3e0c6478	0.13710201
195	0xbe8e62bf	-0.27809712
196	0x3d429f6c	0.047515318
197	0x3e9dcc69	0.30820015
198	0xbea17fb7	-0.3154275
199	0xbe0e705c	-0.13910049
200	0x3e3c9ac1	0.18418409
201	0xbc2f77e6	-0.010709738
202	0xbe13edb7	-0.1444615
203	0x3e3109dd	0.17288919
204	0xba11c561	-0.0005560723
205	0x39f3eb53	0.00046523902
206	0xbd750ebf	-0.059828516
207	0x3e67dfb5	0.22643931
208	0x3e1bdde7	0.15221368
209	0x3c8f7520	0.017511904
210	0x3c185b82	0.009299161
211	0x3e0d4df4	0.13799268
212	0x3e35e119	0.17761649
213	0xbdc9ef19	-0.098600574
214	0xbb2b6052	-0.002614994
215	0x3ddfb780	0.10923672
216	0xbe012a74	-0.12613851
217	0x3e96ebc9	0.29476765
218	0xbe4dc43b	-0.20094387
219	0x3df0bba8	0.117545426
220	0xbe5a88d1	-0.21341254
221	0x3d8799b4	0.066211134
222	0x3e52ed90	0.20598435
223	0x3b212bfd	0.002459287
224	0x3a9dc67e	0.0012037305
225	0x3e3ad735	0.18246157
226	0xbe5a6cee	-0.21330616
227	0xbe49d268	-0.1970917
228	0xbe870988	-0.2637446
229	0xbe3323e2	-0.17494157
230	0xbb384e31	-0.0028122778
231	0xbdea90ca	-0.114533976
232	0x3d001824	0.031273022
233	0x3a21a378	0.00061660213
234	0x3e83273d	0.25615874
235	0xbddba71e	-0.107252344
236	0xbd49bd98	-0.049253076
237	0x3e44ba01	0.1921158
238	0xbd29fdbd	-0.04150175
239	0x3e9b3ba1	0.3031893
240	0xbdc01fe3	-0.09381082
241	0x3a0cf3ca	0.00053769036
242	0xbd160599	-0.036626432
243	0x3df4b797	0.119490795
244	0x3db5c5a9	0.08875591
245	0xbe138156	-0.14404806
246	0x3e43c01e	0.19116256
247	0x3a1e602b	0.0006041552
248	0xbd2bba9b	-0.041926008
249	0xb96863ec	-0.00022162468
250	0x3e51a808	0.20474255
251	0x3e9fcfa3	0.31213102
252	0x3e01e36e	0.12684414
253	0x3c872ee2	0.016501848
254	0x3e410ddf	0.18852948
255	0xbdcff8a9	-0.1015485

weight f4 [32, 256]
0	0xbc788d69	-0.015170434
1	0xbbdd2305	-0.0067485594
2	0xba99f78d	-0.001174675
3	0x3c06800b	0.008209239
4	0xbb86e9a4	-0.0041172076
5	0xbb92f68a	-0.004484956
6	0xbbcf1d5a	-0.0063206377
7	0x3aa063e3	0.00122368
8	0x3b989060	0.0046558827
9	0x3d1fd7c7	0.03902414
10	0xbc0b5d0d	-0.008506072
11	0xbb27c558	-0.0025599804
12	0xba856aa4	-0.0010178876
13	0x3c97a6cd	0.018512154
14	0xbba58eb6	-0.005052413
15	0xbbd3a5ef	-0.00645899
16	0x3c590524	0.0132458545
17	0x3d23e49e	0.04001295
18	0xbc749140	-0.014927208
19	0xbc5a3d8c	-0.013320338
20	0xbd070b3a	-0.03296969
21	0xbb065f8c	-0.0020503728
22	0xbbe908cc	-0.0071116444
23	0xbb624d1f	-0.003453083
24	0xbbc5d008	-0.006036762
25	0x3c3afb90	0.011412516
26	0x3d0d7b23	0.03454126
27	0xbcbc85d2	-0.02301303
28	0x3c165eff	0.009177922
29	0xbb943179	-0.004522499
30	0xba4f6303	-0.0007911177
31	0xbc53ebe5	-0.01293466
32	0x3c091162	0.008365961
33	0xbcd1d2f1	-0.02561328
34	0xbb3adaed	-0.0028511838
35	0x3cb15e4e	0.021651413
36	0x3b3def42	0.002898172
37	0xbbba2710	-0.005680926
38	0x3afa840b	0.0019112838
39	0xba841df6	-0.001007973
40	0xbb8a3368	-0.004217554
41	0x399cf46b	0.00029936744
42	0xbc112f33	-0.008861351
43	0xbc1840e5	-0.009292816
44	0x3c51def3	0.012809503
45	0xbba8717e	-0.0051404824
46	0xbae95e24	-0.0017804545
47	0xbba82afd	-0.0051320777
48	0x3c9c169e	0.019053753
49	0xbb53febc	-0.0032347878
50	0xbcdf0cfe	-0.027227875
51	0x3be02324	0.0068401266
52	0xbd495401	-0.049152378
53	0xbba4b745	-0.0050267302
54	0xbb859d9c	-0.0040776264
55	0xbc35a9bf	-0.011087834
56	0xbac3a57e	-0.001492664
57	0x3d267e07	0.040647533
58	0x3be001b3	0.00683614
59	0xbb773623	-0.0037721477
60	0x39ae5324	0.0003324981
61	0xbb391eb9	-0.0028247072
62	0xbba76669	-0.005108644
63	0xbb38c124	-0.0028191293
64	0xbbe3d2c7	-0.006952617
65	0x3d081f08	0.03323272
66	0xbbd6d8a9	-0.0065565896
67	0xb9c8407f	-0.00038195026
68	0xbb67e1b7	-0.003538234
69	0xbc0000f9	-0.007812732
70	0x3c197bc1	0.009367884
71	0x3ac28553	0.0014840759
72	0xbb66e5aa	-0.0035232105
73	0xbae3050b	-0.0017320229
74	0xbc24fdec	-0.010070305
75	0x3a51b899	0.00080002245
76	0xbbb07361	-0.005384848
77	0xbb9352c1	-0.004495949
78	0x3b84ea55	0.004056255
79	0xba10166e	-0.00054965063
80	0x3a9b8a35	0.001186675
81	0xbd137216	-0.035997473
82	0xbc5e8725	-0.013582026
83	0xbbb445cf	-0.005501486
84	0xbd29bbe9	-0.04143897
85	0xbbd7e2a1	-0.0065882956
86	0xbcabc7b2	-0.020969246
87	0xbaea990f	-0.0017898398
88	0x3cdedb86	0.027204286
89	0xbc42db57	-0.011893115
90	0x3d07fc30	0.03319949
91	0xbb68b26e	-0.0035506743
92	0xbcb418e4	-0.021984525
93	0x3d2814bf	0.04103541
94	0xbb8d8e6a	-0.0043199556
95	0xbca7b584	-0.020472296
96	0xbba9889a	-0.005173755
97	0x3a21eb0d	0.0006176688
98	0xbbd8e59b	-0.006619168
99	0xbc270e19	-0.010196232
100	0xbbf9c9c4	-0.0076229293
101	0xbb156eed	-0.0022801713
102	0x3c9b544c	0.018961094
103	0x3afc618c	0.0019255145
104	0xbb6dcb5c	-0.0036284542
105	0x3b91bf3b	0.0044478453
106	0x3b0daa79	0.0021616502
107	0xbc2ca0c7	-0.010536379
108	0x3c9a9f9b	0.018874934
109	0xbd3554ea	-0.044270433
110	0xbb828608	-0.003983263
111	0xbbea32e1	-0.0071471785
112	0x39a09bd0	0.00030633667
113	0xb984bcb4	-0.00025317597
114	0x399e0450	0.00030139321
115	0x3c179b04	0.009253267
116	0xbc2311be	-0.009952961
117	0xbc4b390c	-0.012403738
118	0xbb27073a	-0.0025486485
119	0xbbc35d3b	-0.0059620417
120	0xba8a3897	-0.001054543
121	0x3ca805b3	0.02051053
122	0xbc0a1028	-0.0084267035
123	0xbcaca21b	-0.021073392
124	0x3cb1dcd9	0.021711754
125	0x3c271951	0.010198907
126	0xbb21031e	-0.0024568508
127	0xbb18a810	-0.0023293532
128	0xbb2a8020	-0.002601631
129	0xbbe91deb	-0.007114162
130	0xbc7ffa50	-0.015623644
131	0x3c133eda	0.008987153
132	0xbbd39ec5	-0.006458136
133	0xbbbe75e2	-0.0058123926
134	0xbb9e62d5	-0.004833559
135	0xbc540198	-0.012939833
136	0xbbd4c039	-0.0064926413
137	0x3a5f7bdd	0.0008525232
138	0xbb6ddb55	-0.0036294062
139	0xbb5019dd	-0.0031753697
140	0xbbb63f34	-0.0055617336
141	0xbb373a39	-0.0027958287
142	0xbc4085c4	-0.011750642
143	0xbb1ddc4f	-0.0024087613
144	0xbb2a35cc	-0.0025972007
145	0xbca0752e	-0.019587126
146	0x3c2e1c77	0.010626904
147	0x3c4dbb76	0.012556901
148	0xbb8394c6	-0.004015538
149	0xbb846ba5	-0.0040411525
150	0xbb887628	-0.004164476
151	0xbcd5c463	-0.026094621
152	0xbba680f3	-0.00508129
153	0xbc8817cd	-0.016612912
154	0x3cfc4fd3	0.030799782
155	0x3c94c999	0.018162536
156	0xbccd583d	-0.02506649
157	0x3b1f78a7	0.002433339
158	0xbca87092	-0.02056149
159	0xbbd5e0f5	-0.006527061
160	0xbbf6b966	-0.0075294254
161	0xbb8e3dd9	-0.004340869
162	0xbba51ca2	-0.0050388137
163	0xbab73c12	-0.0013979694
164	0xba43ba14	-0.00074663875
165	0xbc22db11	-0.009939925
166	0x3d155033	0.036453437
167	0xbb4f30cf	-0.0031614786
168	0x3c8cdfe5	0.017196605
169	0xbba187df	-0.004929527
170	0xbcac3528	-0.02102144
171	0xbc82634e	-0.015916493
172	0x3b839302	0.0040153274
173	0x3c163a7d	0.009169218
174	0x3b92c1f6	0.0044786884
175	0xbba80e14	-0.0051286314
176	0xbb346348	-0.0027524997
177	0xbc6d9627	-0.014501131
178	0x3b3dfd27	0.0028990002
179	0x3a8c0a45	0.0010684213
180	0x3c3d2337	0.01154404
181	0xbca43881	-0.020046474
182	0xb9d4b682	-0.0004057177
183	0x3be9a651	0.007130422
184	0xbbcf81f7	-0.0063326317
185	0x3b59183d	0.003312602
186	0xbd437da8	-0.047727257
187	0x3d0d63f2	0.034519143
188	0x3c3a3271	0.011364565
189	0xbb4e2ac8	-0.0031458605
190	0x3c292119	0.0103228325
191	0x3c01b321	0.007916243
192	0xbb26db0e	-0.0025460157
193	0xbd281b0a	-0.04104141
194	0xbce0424b	-0.027375361
195	0xbce5d44f	-0.028055338
196	0xbb3b079b	-0.0028538469
197	0x3cf1357d	0.02944445
198	0xba882b29	-0.0010388839
199	0xbaecb612	-0.0018059632
200	0xbbc4d307	-0.0060066017
201	0x3b71ce8a	0.0036896789
202	0xba0c00f8	-0.00053407205
203	0x3c235871	0.009969817
204	0x3b43b3ca	0.0029861801
205	0x3b083f88	0.002078982
206	0xbbc0f7bf	-0.0058889086
207	0x3c09237f	0.008370279
208	0xbb3701fb	-0.0027924764
209	0xbb1c1fbb	-0.0023822624
210	0xbb92420f	-0.004463441
211	0x3d19a8a6	0.03751435
212	0x3b377fb5	0.0027999703
213	0xbcde5c74	-0.027143694
214	0x3cf61545	0.030039439
215	0xbb470ea3	-0.0030373714
216	0xbb64f6f3	-0.0034937232
217	0xbce2306c	-0.02761098
218	0xbb9ac7dc	-0.004723532
219	0xba86dada	-0.0010288612
220	0xbb73d130	-0.0037203543
221	0xbbad0142	-0.005279691
222	0x3c86bf65	0.016448686
223	0xbb892c8f	-0.00418622
224	0x3c130169	0.008972504
225	0x3c24e23b	0.010063703
226	0x3c1982a6	0.009369528
227	0x3ca6717e	0.02031779
228	0xbb2660c1	-0.002538726
229	0x3a44996c	0.0007499668
230	0x3baa58c4	0.00519857
231	0xbbd2ad88	-0.006429378
232	0x3c91cac1	0.017796876
233	0xbae1c6ce	-0.0017225386
234	0xbb9b1a4d	-0.00473336
235	0xbb89dc1a	-0.0042071464
236	0xbbb72f24	-0.0055903364
237	0xbc201367	-0.009770251
238	0xbd115714	-0.035483435
239	0x3c43b9a1	0.011946113
240	0xbc0045d6	-0.00782915
241	0xbbb90c07	-0.0056471857
242	0x3c6a1b09	0.014288672
243	0x3c066432	0.008202599
244	0x3cada01b	0.021194508
245	0x3bf1a0d4	0.0073739085
246	0x3924ef0c	0.0001572931
247	0x3938f5ed	0.00017639222
248	0xbb31f7de	-0.0027155797
249	0xbb10b51f	-0.0022080613
250	0x3cffcee7	0.031226588
251	0xbc54d516	-0.012990257
252	0xb96ad3dd	-0.00022394904
253	0xbc379f18	-0.0112073645
254	0xbc9401a8	-0.018067196
255	0xbb375db3	-0.0027979433

bias f4 [32]
0	0x3b308602	0.0026935344
1	0x38d23f49	0.00010025368
2	0xbbba11a6	-0.0056783734
3	0xbb4d8373	-0.0031358867
4	0x3c5b0265	0.01336727
5	0xbbe470ce	-0.006971455
6	0xbae74afe	-0.0017646251
7	0xba4bef96	-0.00077795365
8	0xbb96bad5	-0.004599909
9	0x3b58de8f	0.003309164
10	0x3aaf5bda	0.0013378814
11	0x3ae79993	0.001766967
12	0xba0c2112	-0.0005345504
13	0x3a41a76c	0.00073873135
14	0x3a84ad07	0.0010122367
15	0xbc1daa03	-0.0096230535
16	0x3ad4be3c	0.0016231011
17	0xba3189a4	-0.0006772524
18	0x3c1907c9	0.009340235
19	0xbc016ac9	-0.007898995
20	0x39b042f5	0.00033619223
21	0x3962812d	0.00021601161
22	0xbbec9d9f	-0.0072209383
23	0xbc200fc0	-0.00976938
24	0xb9824c58	-0.00024852413
25	0xbb9b93f1	-0.0047478606
26	0x39f2d3c2	0.0004631561
27	0x3a0b47a9	0.00053131074
28	0x3a4ca9e6	0.0007807299
29	0x3a6a70b4	0.00089431857
30	0xbac69474	-0.0015150444
31	0xba57987c	-0.0008224321

weight f4 [10, 32]
0	0xbd13f814	-0.036125258
1	0x3d9c4ecb	0.07632216
2	0x3ca8dd03	0.0206132
3	0xbd44b85a	-0.048027374
4	0x3e0bc598	0.13649595
5	0xba810124	-0.0009842259
6	0x3d93e752	0.07221855
7	0xbd8b1473	-0.0679101
8	0xbe0f1bb0	-0.13975406
9	0xbe16f645	-0.14742382
10	0xbd09d18b	-0.0336471
11	0x3dd598b3	0.10429516
12	0x3dad2ee2	0.08456208
13	0x3cb14329	0.02163847
14	0x3cd6b5fb	0.026209822
15	0xbde99761	-0.11405826
16	0xbcfed597	-0.031107707
17	0xbb5da82d	-0.0033822164
18	0xbe18e31d	-0.14930387
19	0xbe1b7b29	-0.151837
20	0xbdd1b09c	-0.10238764
21	0x3d66a83c	0.056312785
22	0xbc99f3f9	-0.018793093
23	0xbcf759d2	-0.030194197
24	0x3d912c7d	0.070885636
25	0xbde3fc58	-0.11132115
26	0xbdd83b6c	-0.10558209
27	0xbd0c92fc	-0.034319863
28	0x3d9854cc	0.07438049
29	0x3bd72553	0.0065657287
30	0xbde49706	-0.11161618
31	0x3d9f435b	0.07776519
32	0xbda05499	-0.07828636
33	0x3dfd5445	0.12369589
34	0x3d4dad13	0.050213885
35	0x3d27e668	0.040991217
36	0x3e0a51cb	0.13507764
37	0x3d4dda50	0.050257027
38	0xbe0e1a23	-0.13877158
39	0x3d8a63fb	0.06757351
40	0x3e1f7819	0.15573157
41	0xbd9f565b	-0.07780143
42	0x3dc6393e	0.09678887
43	0x3e098f7b	0.1343364
44	0xbcf64e30	-0.03006658
45	0x3b94a237	0.004535939
46	0xbc3a26e4	-0.011361811
47	0x3e15ef0f	0.14641975
48	0x3d563985	0.05230095
49	0x3d9ec6f2	0.077527896
50	0xbe267afa	-0.1625785
51	0xbd9f45cf	-0.07776987
52	0xbdcffecb	-0.1015602
53	0x3cf3bd98	0.029753491
54	0xbd98f621	-0.0746882
55	0x3d36c07e	0.04461717
56	0x3d95c613	0.0731317
57	0xbd5b8760	-0.0535959
58	0x3c5e85cb	0.013581703
59	0xbdb8df2c	-0.09026942
60	0xbc081d17	-0.008307717
61	0x3cb066b8	0.021533355
62	0x3dc567ab	0.09638914
63	0x3d4b5a5b	0.049646717
64	0x3cbffcb1	0.023435922
65	0x3db18546	0.08667998
66	0x3db44e8a	0.08804043
67	0x3c23616e	0.0099719595
68	0x3e266108	0.16247952
69	0xbd7a01e1	-0.061036948
70	0x3cfa3810	0.03054431
71	0xbbe2d9d4	-0.00692294
72	0x3df59996	0.11992185
73	0xbe092ebc	-0.13396734
74	0x3d3e6664	0.046484366
75	0xbe0c9f15	-0.1373256
76	0xbd62c8d0	-0.05536729
77	0xbd124576	-0.035710774
78	0xbd679eec	-0.056548044
79	0xbda6ed81	-0.08150769
80	0xbdc0d33d	-0.094152905
81	0xbdcc5b3b	-0.09978338
82	0xbd0a0eb2	-0.03370542
83	0x3e0b4625	0.13600977
84	0xbcc805be	-0.0244168
85	0xbde31a36	-0.11088984
86	0xbd3ec7b7	-0.04657718
87	0xbe0e3697	-0.13888012
88	0xbc764670	-0.015031442
89	0x3e0bb8a9	0.13644661
90	0xbe284e24	-0.16436058
91	0x3d75bf99	0.059997175
92	0x3dd4e3fa	0.103950456
93	0x3d9c25b7	0.07624381
94	0xbd873537	-0.06601947
95	0x3c067a1f	0.008207827
96	0x3d7e8ae0	0.06214416
97	0xbe083399	-0.13300933
98	0x3da974aa	0.08274205
99	0xbc0e0f4f	-0.008670642
100	0xbe111025	-0.14166315
101	0xbcaf0450	-0.021364361
102	0xba80026f	-0.000976635
103	0xbd6ef48d	-0.05833869
104	0xbd7002c7	-0.0585964
105	0xbba77b2a	-0.005111118
106	0x3cdd59f7	0.027020438
107	0x3d98ad90	0.074549794
108	0xbe084eba	-0.13311282
109	0xbbe7ef80	-0.007078111
110	0x3c686c7b	0.01418602
111	0x3e0e5a41	0.13901617
112	0x3d35c7d3	0.04438002
113	0x3d863229	0.06552536
114	0x3d634c46	0.055492662
115	0xbc1996bc	-0.009374317
116	0xbd7f3f79	-0.06231639
117	0xbd812631	-0.063061126
118	0x3d73eab6	0.05955001
119	0xbd0182d9	-0.031618927
120	0x3ddb980c	0.1072236
121	0xbdc40d26	-0.0957282
122	0x3df70988	0.12062365
123	0x3d7d0237	0.06176969
124	0x3d8b51f3	0.0680274
125	0x3dab0505	0.08350567
126	0xbd7ab452	-0.061207123
127	0x3d46785b	0.048454624
128	0xbe0176e6	-0.12643012
129	0xbdc407b7	-0.09571784
130	0xbc45d9f5	-0.012075891
131	0x3df87111	0.12130941
132	0xbd1e5f59	-0.03866515
133	0xbdaefe18	-0.08544558
134	0xbde3314f	-0.11093389
135	0x3c1e0bba	0.0096463505
136	0x3bc31903	0.0059539094
137	0x3ca85ad5	0.020551125
138	0xbcc4fc18	-0.024045989
139	0x3d4795d0	0.048726857
140	0x3ccfc0ef	0.025360553
141	0xbc84fb80	-0.016233206
142	0x3da69c53	0.08135285
143	0xbe027890	-0.12741303
144	0xbd54b646	-0.051931642
145	0x3c292ed0	0.010326102
146	0xbd606cd7	-0.054791298
147	0xbbf2a1b4	-0.0074045304
148	0xbd14bb96	-0.03631171
149	0x3db3c9b4	0.08778706
150	0x3e1898bb	0.14902012
151	0x3e0e357e	0.13887593
152	0x3d2a86b3	0.041632365
153	0xbddcc92f	-0.1078056
154	0xbd854dbd	-0.06508968
155	0xbd3b3adf	-0.04571044
156	0xbc988bd8	-0.01862137
157	0xbd29598e	-0.04134517
158	0x3d87b5a9	0.06626446
159	0xbded4ba1	-0.11586691
160	0x3c3cd982	0.011526467
161	0x3decb97a	0.11558814
162	0xbdc4a80e	-0.096023664
163	0xbce91a8f	-0.028455047
164	0x3db53e95	0.08849827
165	0xbcd265aa	-0.025683243
166	0xbd815d82	-0.06316663
167	0x3db469ea	0.08809264
168	0xbdff26e2	-0.12458588
169	0x3e1eaa61	0.15494682
170	0x3df1c601	0.118053444
171	0x3b9e56a7	0.004832107
172	0x3d12824d	0.035768796
173	0xbd480d51	-0.048840825
174	0x3d22130e	0.039568953
175	0xbe0b6e5f	-0.13616322
176	0xbce1e036	-0.027572732
177	0x3dbbf0e6	0.09176807
178	0x3d37bb51	0.044856373
179	0x3def2e02	0.11678697
180	0x3dbcd818	0.09220904
181	0x3e21ee9e	0.15813681
182	0x3d178f30	0.03700179
183	0xbe066264	-0.1312347
184	0xbde63f41	-0.112425335
185	0x3dcade82	0.09905721
186	0x3e0af1ad	0.13568754
187	0x3e0a4555	0.1350301
188	0xbdad691f	-0.08467316
189	0x3df53dc4	0.119746715
190	0xbd2aefa6	-0.041732453
191	0x3ceafc28	0.02868469
192	0x3d8f842a	0.0700763
193	0xbdeb1e99	-0.114804454
194	0xbdeda234	-0.116032034
195	0x3da71a5e	0.08159326
196	0xbe1c4559	-0.15260829
197	0x3d012386	0.03152802
198	0x3d56acb5	0.0524108
199	0x3dc89a9f	0.09795117
200	0xbb9d6ad1	-0.0048039933
201	0xbccfd59e	-0.025370415
202	0x3bc14f7d	0.0058993683
203	0xbcd6421b	-0.026154568
204	0xbe0aa257	-0.1353849
205	0x3a4149bd	0.00073733536
206	0xbd7e9eae	-0.062163047
207	0x3ddc4f13	0.1075727
208	0xbd15f154	-0.0366071
209	0xba8553cb	-0.0010172067
210	0xbe05bb14	-0.13059646
211	0x3e078490	0.13234162
212	0x3d58c85a	0.052925445
213	0x3e036469	0.12831272
214	0x3da4b7b6	0.080428526
215	0xbdd6c960	-0.10487628
216	0x3de75f59	0.11297483
217	0xbcea3f99	-0.028594779
218	0x3e0efe5d	0.1396422
219	0xbb651e45	-0.003496067
220	0x3d8b9710	0.06815922
221	0xbcbc9e3e	-0.023024675
222	0x3c857ee5	0.01629586
223	0xba2bb6f9	-0.00065503974
224	0xbdc8cfc1	-0.09805251
225	0x3df3c300	0.11902428
226	0xbd56029a	-0.052248575
227	0xbdcc94c4	-0.09989312
228	0x3e022b24	0.1271177
229	0xbdd97266	-0.10617523
230	0x3d31dad5	0.043421585
231	0x3e002a29	0.12516083
232	0xbd103c34	-0.035213664
233	0xbe1dd971	-0.15414979
234	0xbdc2cbc2	-0.0951152
235	0xbc2c4d50	-0.01051648
236	0xbcd72f36	-0.02626763
237	0x3da4b936	0.08043139
238	0x3de91eb4	0.11382809
239	0xbde2e2a2	-0.11078383
240	0xbc8d9258	-0.017281696
241	0xbda9d4a2	-0.082925096
242	0x3cf65347	0.030069007
243	0x3de5b265	0.11215667
244	0xbd024421	-0.031803254
245	0xbb01364c	-0.0019716201
246	0xbca79302	-0.020455841
247	0xbe1c1a21	-0.15244342
248	0x3e0a4497	0.13502727
249	0x3cd3ed9c	0.025870137
250	0x3e1c8cf5	0.15288146
251	0xbde1dc16	-0.11028306
252	0xbd2d7ed1	-0.04235727
253	0xbc95174c	-0.018199585
254	0x3d0da81d	0.034584153
255	0xbc822ba1	-0.015889945

bias f4 [10]
0	0xbdc47230	-0.09592092
1	0xbd3fbe9f	-0.04681265
2	0xbdd1aeec	-0.10238442
3	0x3d3f3ccb	0.046688836
4	0xbc124090	-0.008926526
5	0xbd2f2d72	-0.04276795
6	0x3dcb0875	0.099137224
7	0x3c0eca0a	0.008715162
8	0x3baa4752	0.0051964903
9	0xbda8a911	-0.08235372

bias f4 [64]
0	0xba96a79c	-0.0011494043
1	0x381fd4b8	3.8106664e-05
2	0xb9465335	-0.00018913748
3	0x3aec0ade	0.001800861
4	0xb9ba1e9f	-0.000354995
5	0x39dd422e	0.00042201712
6	0x3954e4e1	0.0002030316
7	0x39ce583b	0.0003935712
8	0xb9715a58	-0.00023017207
9	0xb9132911	-0.00014034311
10	0xbaa62a61	-0.0012677425
11	0x390afccb	0.00013254878
12	0x3a9204d0	0.001114035
13	0xbb1a4388	-0.0023538787
14	0xb9017214	-0.00012344896
15	0x396ecd9f	0.00022774049
16	0x39c386ee	0.0003729383
17	0x3a52d849	0.0008043093
18	0x3a85a7e6	0.0010197132
19	0xbb2feec7	-0.0026845203
20	0xbaf1c937	-0.0018446808
21	0xbb115a2a	-0.0022178986
22	0xb6ef4a24	-7.131386e-06
23	0x3ac327c5	0.0014889172
24	0x3a193b53	0.0005845327
25	0xb7b4e853	-2.1565857e-05
26	0x3801e56d	3.0969666e-05
27	0x3a80689e	0.0009796803
28	0xb9cc37f6	-0.00038951606
29	0x3995919c	0.00028527982
30	0xb8a2f1ea	-7.769822e-05
31	0x3a9aae48	0.0011801207
32	0x3b105664	0.002202415
33	0xba86031a	-0.0010224313
34	0xba2adaa3	-0.0006517565
35	0x392eafce	0.00016659425
36	0x39d08bc0	0.00039776973
37	0x39532cd4	0.00020139228
38	0x386e6103	5.683397e-05
39	0x3aa0a38e	0.0012255774
40	0xba146d89	-0.0005662074
41	0x396b1789	0.00022420114
42	0xba5065b2	-0.0007949724
43	0x391c25a6	0.00014891344
44	0x39067299	0.00012821927
45	0x3b028b41	0.0019919428
46	0x38f6159b	0.000117342184
47	0xbad50150	-0.0016251002
48	0xb990d59c	-0.00027624972
49	0x3a6cdc4e	0.00090355135
50	0x39ed22c5	0.00045230068
51	0xb9d94525	-0.00041440982
52	0x39789503	0.00023706634
53	0x3a0e321c	0.0005424337
54	0x3712478b	8.7189355e-06
55	0x3a835ec4	0.0010022749
56	0x3af888ed	0.0018961706
57	0xb901a2af	-0.00012363003
58	0xb9a4a8db	-0.00031406325
59	0xb934dc9a	-0.00017248318
60	0xba821245	-0.0009923658
61	0xb9c48afb	-0.00037487582
62	0xb9396696	-0.00017681191
63	0x3aa82028	0.0012826966

weight f4 [64, 1]
0	0x3e2ef79b	0.17086641
1	0x3e0ef219	0.1395954
2	0xbb80e3c5	-0.0039334022
3	0x3db162a2	0.08661391
4	0xbdb4e082	-0.08831884
5	0xbe420755	-0.1894811
6	0xbb785699	-0.0037893413
7	0xbdfabac4	-0.12242654
8	0x3e66f683	0.22554974
9	0xbe41bdfb	-0.18920128
10	0x3e65ea45	0.22452648
11	0xbbc9ed1e	-0.0061623
12	0x3c68fd42	0.014220538
13	0x3e531a8b	0.20615594
14	0xbdad88ad	-0.084733345
15	0xbd6cfd20	-0.057858586
16	0x3d8e45e1	0.06946922
17	0xbcd17e7d	-0.02557301
18	0x3bc3cdc4	0.005975457
19	0x3e08e713	0.13369398
20	0xbb224e46	-0.0024765893
21	0x3e18a446	0.14906415
22	0xbd9e73c3	-0.077369235
23	0x3d8d0baa	0.0688699
24	0xb9f3c1d4	-0.00046492985
25	0xbe341ca7	-0.17589055
26	0x3ab41ed0	0.0013742093
27	0x3d84b7d9	0.06480379
28	0xbe054c81	-0.13017465
29	0x3e4bad47	0.19890319
30	0xbde8f435	-0.11374704
31	0x3ddf84ba	0.109139875
32	0x3b041780	0.0020155609
33	0xbdf4fd5f	-0.11962389
34	0x3e2e542c	0.17024297
35	0xbc971e69	-0.018447118
36	0xbb594e6b	-0.0033158313
37	0xbd0e1e94	-0.03469713
38	0xbe78df65	-0.24303968
39	0x3dfe620b	0.12421044
40	0xbda7d5cf	-0.08195078
41	0x3dfde3d4	0.123969704
42	0x3db92839	0.09040875
43	0x3ddc079a	0.107436374
44	0x3d5b8da7	0.053601887
45	0x3d38b3b5	0.045093257
46	0xbe4b1ac4	-0.19834429
47	0xb97d079b	-0.00024130793
48	0xbd8fd06f	-0.070221774
49	0x3e2fc458	0.17164743
50	0x3d7fdf04	0.062468544
51	0x374b4c15	1.2117457e-05
52	0xbe5e2e59	-0.21697368
53	0xbe6271f6	-0.22113785
54	0xbe48f89f	-0.19626091
55	0x3e1fe0ae	0.15613052
56	0x3e089a52	0.13340119
57	0xbe58309c	-0.21112293
58	0xbe50681f	-0.20352219
59	0x3e47abd7	0.19499145
60	0x3d8696ec	0.06571755
61	0xbe097b86	-0.13426027
62	0x3aa38fb7	0.0012478743
63	0x3e067e05	0.1313401

bias f4 [64]
0	0xb8946d7e	-7.0775845e-05
1	0xbb13587e	-0.0022483165
2	0xbac34a37	-0.0014899437
3	0xbb87f923	-0.0041495725
4	0x39de4140	0.00042391755
5	0x3a31160a	0.0006755298
6	0xbae03655	-0.0017106036
7	0xbb394396	-0.0028269044
8	0xbb20dba2	-0.0024544974
9	0xb7f449c2	-2.9121413e-05
10	0xbb1999d1	-0.002343763
11	0x39bc5032	0.00035917904
12	0xb8a27e4d	-7.748287e-05
13	0x3a506777	0.0007949988
14	0xb9fcecd9	-0.0004824165
15	0x39e1555b	0.0004297894
16	0xba0b69e5	-0.0005318209
17	0xb9638366	-0.00021697357
18	0x39fdf970	0.00048441766
19	0x395344a8	0.00020148105
20	0x39fd767d	0.000483442
21	0xbb5789f6	-0.0032888628
22	0xbaceaab2	-0.0015767424
23	0x39cf4cd3	0.00039539355
24	0xbab8f18b	-0.0014110071
25	0xb9b030ad	-0.00033605602
26	0xb987d3e8	-0.0002590709
27	0x3a80fe6f	0.0009841452
28	0xbb577ecf	-0.003288198
29	0xb8fe6411	-0.00012130303
30	0x39869175	0.00025666846
31	0x3987ba55	0.00025888035
32	0xb96a864b	-0.00022366007
33	0x3b182d0a	0.0023220205
34	0xb992745e	-0.0002793399
35	0xb98bf324	-0.000266933
36	0x3b27dd44	0.0025614062
37	0xba48f0e9	-0.0007665293
38	0x39c0bc91	0.00036761587
39	0x38e343d2	0.00010836836
40	0xbb0014cc	-0.0019543646
41	0x3967af0e	0.0002209509
42	0x3adc8fe4	0.0016827551
43	0xbb1b2960	-0.0023675784
44	0x3b69d69e	0.00356809
45	0xb9dd160c	-0.0004216883
46	0x39faf31e	0.00047864852
47	0x38e7dfdd	0.00011056636
48	0x39842134	0.0002520174
49	0x3b01ac73	0.0019786626
50	0xb95443db	-0.00020243174
51	0x3950951f	0.00019891978
52	0xbad9e8db	-0.0016625182
53	0x3a16014c	0.0005722239
54	0xb9260917	-0.0001583438
55	0x3b3f42d2	0.0029184115
56	0x37b1cf48	2.1196567e-05
57	0xbafbff32	-0.0019225834
58	0x3a377a2c	0.0006999101
59	0x3790f300	1.7279293e-05
60	0x3a946fb7	0.0011324798
61	0x39c5ab40	0.0003770236
62	0xb8e0e460	-0.000107236905
63	0x39644ffd	0.00021773572

weight f4 [64, 64]
0	0x3d1ceedf	0.038313743
1	0xb909b11b	-0.00013131315
2	0x3e1fcde1	0.1560588
3	0xb7b1b0ae	-2.1182317e-05
4	0x3d405fde	0.046966426
5	0xbe1c941e	-0.15290877
6	0x3acce2e5	0.0015631585
7	0xb97335ae	-0.00023194283
8	0x3df5dce6	0.12005024
9	0x3d7dcd69	0.061963473
10	0x3e1c9483	0.15291028
11	0xbaa095af	-0.001225164
12	0xbca6cb1a	-0.020360518
13	0x385fcf4a	5.3360396e-05
14	0x393ea16e	0.00018179949
15	0x3c78f7cd	0.015195799
16	0x39ac12a8	0.00032820296
17	0xbd3263b0	-0.0435521
18	0x3d250e9f	0.040297147
19	0xba02e1b6	-0.000499274
20	0xbdc73c3c	-0.09728286
21	0xb927d15c	-0.00016004354
22	0xbdc6854a	-0.096933916
23	0xb73a0c33	-1.1089304e-05
24	0x3c35dde2	0.011100264
25	0xbe22ab6f	-0.15885709
26	0x3dc2dcf9	0.095148034
27	0xbd359dec	-0.04434006
28	0x39741993	0.0002327918
29	0xbb97139c	-0.004610492
30	0x3de424b5	0.11139814
31	0xbda02bcb	-0.07820853
32	0xbe203532	-0.15645292
33	0xbe113e52	-0.1418393
34	0x3d373930	0.044732273
35	0xbccc3e7f	-0.024932144
36	0xbacafca1	-0.0015486666
37	0x3d4f503b	0.050613623
38	0x38c9c9ef	9.62204e-05
39	0x3e21dbbe	0.15806481
40	0x3d0bae4f	0.03410178
41	0xbe196657	-0.14980446
42	0xbde9cce7	-0.11416035
43	0xbe0ca677	-0.13735376
44	0xbdbaa4d1	-0.091134675
45	0xbbdd5fef	-0.006755821
46	0xbcedd4a9	-0.029032068
47	0xbe16d217	-0.1472858
48	0x3d19a51c	0.037510976
49	0x39ed7ce4	0.00045297213
50	0x3ab49ffe	0.0013780592
51	0x3cff5329	0.031167584
52	0xbc2d36bd	-0.010572133
53	0x3a335d8b	0.0006842247
54	0xbd1eb4ef	-0.03874677
55	0x3d77cf59	0.060500477
56	0x3dea05ce	0.114268884
57	0x39200d5b	0.00015263764
58	0x3df1ec01	0.11812592
59	0x3cadb6cb	0.021205327
60	0xbc49f72f	-0.012327
61	0x3dd4dba7	0.10393458
62	0x3aa0e622	0.0012275616
63	0x3ae1f86b	0.0017240172
64	0x38316c00	4.230067e-05
65	0x3df2fb0b	0.11864289
66	0xbda81b2b	-0.08208307
67	0xbce9e821	-0.02855307
68	0xbd9d9521	-0.0769446
69	0xbdb0e902	-0.08638193
70	0x3d689f92	0.056792803
71	0xbd2de49e	-0.042454354
72	0xbb0869fd	-0.0020815127
73	0x3dff4901	0.12465096
74	0x3d69e1af	0.057099994
75	0x3a24fce9	0.000629379
76	0x3df45673	0.119305514
77	0xbcd214a3	-0.025644606
78	0x3df285fd	0.118419625
79	0x3e116430	0.14198375
80	0xbe1ceb2c	-0.15324086
81	0x3d00001b	0.0312501
82	0x3d196da4	0.037458077
83	0x3c86b6e6	0.016444635
84	0x3e037694	0.12838203
85	0x3e115777	0.14193521
86	0xbc04a48b	-0.008095871
87	0xbabe1468	-0.0014501931
88	0xbc9e49c1	-0.019322278
89	0xbdfd8700	-0.12379265
90	0x39c49dca	0.00037501595
91	0x3c6d3b20	0.0144794285
92	0xbcc910af	-0.024544088
93	0x3d326f97	0.04356345
94	0xbe08ce21	-0.13359882
95	0xbdaff47a	-0.08591552
96	0xbdb4fe84	-0.088376075
97	0x37ede46f	2.8358974e-05
98	0x3da8f2f4	0.08249465
99	0x3d7ed6ca	0.062216558
100	0x3dec2ca2	0.115319505
101	0x3e1092e1	0.1411853
102	0xbdf0cbbb	-0.117576085
103	0x3c872cfe	0.016500946
104	0xbd898df6	-0.0671653
105	0xbdd61d6c	-0.104548305
106	0x3e139af8	0.14414585
107	0xbdfc5422	-0.123207346
108	0xbe087041	-0.13324071
109	0xbde9dab9	-0.11418671
110	0x3da52b8d	0.08064947
111	0xbddb144c	-0.10697231
112	0x3d0cb8be	0.03435587
113	0xbde2d565	-0.11075858
114	0x3c0817f2	0.00830649
115	0x3d1ef28a	0.038805522
116	0xbdd44471	-0.10364617
117	0x3a4bb9e3	0.0007771535
118	0xbdbd58d9	-0.09245462
119	0x3e09cc92	0.13456944
120	0xbba29073	-0.0049610673
121	0xbdd1c07d	-0.10241792
122	0xba6fe0a6	-0.00091506017
123	0x3ce3b45e	0.027795967
124	0xbdd6973e	-0.10478066
125	0x3dd6287e	0.10456942
126	0xbaa95ec4	-0.0012921919
127	0xbdf9ab1e	-0.12190841
128	0x3db4cbb5	0.088279165
129	0x3c962b6b	0.01833125
130	0x3d75ac4e	0.059978776
131	0x3988cbea	0.0002609187
132	0xbd6b394d	-0.057427693
133	0xbd71cec7	-0.05903509
134	0x3cdcb95a	0.026943851
135	0x3dcbe9bc	0.09956691
136	0x3ca3ba4f	0.0199863
137	0xbd5d1278	-0.05397269
138	0x3e206201	0.15662386
139	0xbacc2b7c	-0.0015576924
140	0xbda3dbea	-0.0800093
141	0x3d842524	0.064523965
142	0x3d80406a	0.06262286
143	0xba5ed0d1	-0.0008499744
144	0xbcaf2fac	-0.021385036
145	0xbd9c1fa1	-0.0762322
146	0x3d9df361	0.077124365
147	0x3e1ef557	0.15523277
148	0xbc1e9a89	-0.009680399
149	0x3d414366	0.047183417
150	0x3d955486	0.07291512
151	0x3cc04ad5	0.023473183
152	0xbe07fb3e	-0.13279435
153	0x3daf316f	0.085543506
154	0xba819a0d	-0.000988783
155	0xbe15f4d8	-0.14644182
156	0xbd1ba888	-0.03800252
157	0xba6cf7cc	-0.000903961
158	0x3db27c1d	0.08715079
159	0xbe1cb165	-0.15302046
160	0x3c10f2cc	0.00884695
161	0xbdeb8f4d	-0.11501942
162	0x3dc4f432	0.09616889
163	0xbdbec3d3	-0.09314694
164	0xbdd28cb0	-0.1028074
165	0xbcba4d3f	-0.022741912
166	0xbcc19120	-0.023628771
167	0xbc1c592c	-0.009542745
168	0xbdfce896	-0.1234905
169	0xbd78401e	-0.060608022
170	0xbb0aa1c4	-0.0021153549
171	0x3d5b4185	0.05352928
172	0x3b3a8bf4	0.0028464766
173	0x3dd79cbf	0.10527944
174	0xbd23ac50	-0.039959252
175	0xbaf0fed2	-0.0018386489
176	0x3d82a1f3	0.063785456
177	0xbcc3a69e	-0.02388316
178	0xbe1552bb	-0.1458234
179	0xbe118eef	-0.14214681
180	0xbdaed505	-0.08536724
181	0x3a0b8ac2	0.0005323106
182	0xbe0c3130	-0.13690639
183	0xbafb0694	-0.0019151741
184	0xbe22124c	-0.15827292
185	0xbc995dae	-0.018721428
186	0xbcdb75d5	-0.026789585
187	0xbe12f93c	-0.14352888
188	0x3e050143	0.12988763
189	0x3c145eac	0.009055775
190	0xbd457892	-0.048210688
191	0x3e1a524b	0.15070455
192	0x3dfe37bf	0.124129765
193	0xba81c47b	-0.0009900475
194	0x3a275bc4	0.00063842186
195	0x3de1b998	0.11021727
196	0x3a03cf79	0.0005028169
197	0x38819a52	6.179944e-05
198	0x3949b3d1	0.0001923584
199	0x3c8d4e6d	0.01724931
200	0x3d81075e	0.06300233
201	0x3e077617	0.13228641
202	0xbdb0db39	-0.086355634
203	0x379797d5	1.8071305e-05
204	0x3ba79ef1	0.005115383
205	0x3d02a304	0.031893745
206	0x3d9bd811	0.07609571
207	0x3d9e4e2a	0.07729752
208	0xbe1b5b14	-0.15171462
209	0x3cbc4109	0.02298023
210	0x3381bd10	6.041421e-08
211	0xb9b4d5ea	-0.00034491654
212	0xbe05e11a	-0.1307415
213	0x3dda5b8c	0.106619924
214	0x3cb9ead9	0.022694992
215	0xbe03928e	-0.12848875
216	0x3dfd8661	0.12379146
217	0x3de6f98d	0.11278067
218	0xbe0c883d	-0.13723846
219	0xbc6ca9f2	-0.014444815
220	0xbe1cbb6d	-0.15305872
221	0xba7f7b12	-0.0009745817
222	0xba07fae7	-0.00051872287
223	0xbe1b65ac	-0.15175503
224	0xbd9f5c6b	-0.07781299
225	0xba1d5f7a	-0.0006003302
226	0x3e21b5c8	0.15792
227	0x3d98b3cd	0.07456169
228	0x3e16f755	0.14742787
229	0x395e1574	0.00021179562
230	0xbdf71c3e	-0.12065934
231	0x3d661f53	0.056182217
232	0xbb6f8daa	-0.0036552944
233	0xba9ac63f	-0.001180835
234	0x3e1f7d64	0.15575176
235	0xbd9154c0	-0.07096243
236	0xb90a79fb	-0.00013206147
237	0xbe0fcebf	-0.14043711
238	0xbcb0aa7d	-0.02156567
239	0x3a0da0b3	0.0005402669
240	0xba4b2cad	-0.00077504927
241	0x3df0a5e3	0.117503904
242	0x3e1bb36b	0.15205161
243	0x3df92220	0.12164712
244	0x3a0de4a8	0.00054127956
245	0x3de386d5	0.111097015
246	0xbce32318	-0.027726695
247	0xbcea59c9	-0.028607266
248	0xbcc12b5f	-0.023580251
249	0xbd96b7f0	-0.07359302
250	0xbc3037e2	-0.010755511
251	0x3a29f345	0.00064830884
252	0xbd72f4bf	-0.05931544
253	0x3baad68f	0.0052135657
254	0x3ca0e8b2	0.019642208
255	0xbd964b7a	-0.07338615

bias f4 [10]
0	0xbbbb7515	-0.0057207444
1	0x3a12a126	0.0005593471
2	0x3bf285d7	0.007401209
3	0x3a721cee	0.0009235878
4	0x3b4aa441	0.0030920657
5	0x3b9af836	0.004729296
6	0xbb62aeb4	-0.0034588994
7	0xbabfd985	-0.001463697
8	0x3a990721	0.0011675098
9	0xbb63b251	-0.0034743736

weight f4 [10, 64]
0	0x3c8bfa6a	0.01708718
1	0x39961153	0.00028623137
2	0xbe4b614d	-0.19861336
3	0x3e1b7550	0.1518147
4	0xbe5494a2	-0.20759824
5	0x3d1b5cf8	0.03793046
6	0xbe288769	-0.16457905
7	0xbc0635f8	-0.008191578
8	0x3d9bd41a	0.076088145
9	0x3d4a20e7	0.049347784
10	0x3e22b962	0.1589103
11	0xbd50b94f	-0.050957974
12	0x3d0d4220	0.03448689
13	0x3d92eb1f	0.07173752
14	0xbe5224c5	-0.20521839
15	0xbdde12b8	-0.10843414
16	0x3dbc2183	0.09186079
17	0x3b9e25c9	0.0048262817
18	0xbb571b0e	-0.0032822522
19	0xbcbe5268	-0.023232654
20	0x3d6ce575	0.057836015
21	0x3e127bba	0.1430501
22	0x3e1dedf5	0.15422805
23	0x3dd53208	0.10409933
24	0x3ce48a33	0.02789793
25	0xbe28db33	-0.16489868
26	0x3ddbbc25	0.10729245
27	0xbd8c48f5	-0.06849853
28	0x3dd9d936	0.10637133
29	0xbe11600b	-0.14196794
30	0x3d22cbfb	0.039745312
31	0xb7ac960d	-2.057387e-05
32	0x3e184f5b	0.14874022
33	0xbab442bd	-0.00137528
34	0x3dace548	0.084421694
35	0xbe544d29	-0.2073256
36	0x3d09e881	0.033669
37	0xbe633608	-0.2218858
38	0xbe4f5621	-0.202477
39	0xbe65eb89	-0.22453131
40	0xbe1763f9	-0.1478423
41	0xbd8272fa	-0.06369586
42	0x3ccbf81e	0.024898585
43	0xba05190d	-0.000507728
44	0xbcf76788	-0.030200735
45	0x3d53a15c	0.051667556
46	0xbe520f48	-0.20513642
47	0x3e4c98d7	0.19980179
48	0xbdc4b98c	-0.09605703
49	0xbd82604a	-0.06366022
50	0xb9bf1d33	-0.00036452114
51	0xbd5f6e37	-0.05454847
52	0x3d57de7d	0.052702416
53	0x3ab466b4	0.0013763518
54	0x3da90cc0	0.08254385
55	0xba54f072	-0.00081229873
56	0xbd60cb53	-0.054881405
57	0xb9bab8b2	-0.00035614293
58	0x3d629bfc	0.05532454
59	0x3dc7009c	0.09716913
60	0x3a2e85f9	0.0006657537
61	0x3df44974	0.119280726
62	0xbdc19ce1	-0.094537504
63	0xbcb73556	-0.0223643
64	0xbe668470	-0.22511458
65	0xbe21aad8	-0.15787828
66	0xbe3e8789	-0.1860639
67	0xbe0c7921	-0.13718082
68	0x3d28b7c8	0.041190892
69	0xbde0414e	-0.10949956
70	0xbe6042b7	-0.2190045
71	0xbe547e83	-0.20751385
72	0xbe354573	-0.17702274
73	0x3ce4cc60	0.027929485
74	0xbd4981e8	-0.049196154
75	0xb94df8ad	-0.00019642962
76	0x3d7db65b	0.061941486
77	0x3e31fcd1	0.17381598
78	0xbdf2b321	-0.118505724
79	0x3e170f59	0.14751948
80	0x3d98454a	0.07435091
81	0xb7e05137	-2.67407e-05
82	0xbd56ad37	-0.052411284
83	0x3cfbd1f0	0.030739754
84	0x392a5c80	0.00016246922
85	0x3d48247d	0.048862923
86	0xbe37d39d	-0.17951818
87	0xbd758699	-0.059942815
88	0x3ab03448	0.0013443315
89	0xbe600b8c	-0.21879405
90	0xbe14b3bd	-0.1452169
91	0x3cef930f	0.029244928
92	0xbe4f796a	-0.2026116
93	0x3dd8a7fa	0.10578914
94	0x3e50fbbf	0.20408534
95	0xb97a7e1c	-0.00023888837
96	0xbbc97a6d	-0.0061486275
97	0x3adee4ca	0.001700544
98	0xbd216cd2	-0.03941042
99	0x3e5c5b55	0.21519215
100	0xbdd2722b	-0.10275682
101	0xbe221369	-0.15827717
102	0xbd824448	-0.0636068
103	0x3ac566cd	0.0015060544
104	0xbde02ef3	-0.10946455
105	0xbcad0043	-0.021118289
106	0xbd0b147d	-0.033955086
107	0x3e349e49	0.17638506
108	0xbd8e0528	-0.06934577
109	0xba8ac94a	-0.0010588553
110	0xb914682e	-0.0001415319
111	0x3abce9ac	0.0014412901
112	0xbe1abdc2	-0.1511145
113	0x3d5210cd	0.051285554
114	0x3e01f04a	0.12689319
115	0xb93feb01	-0.00018302725
116	0xbc81008c	-0.015747331
117	0x3d3f5602	0.046712883
118	0xb9c3ca81	-0.00037344176
119	0x3aae1e72	0.001328422
120	0x3ce42f69	0.027854638
121	0x3db593a6	0.08866052
122	0x3d9fb733	0.07798614
123	0xbdc0d3a7	-0.094153695
124	0x3cabf359	0.02099006
125	0xbd844a3e	-0.06459473
126	0x3c1327ac	0.0089816265
127	0xbd3f9dfc	-0.046781525
128	0x39d01f2b	0.00039696074
129	0x3ccde51d	0.025133664
130	0x39c3b45e	0.00037327682
131	0xbe393e50	-0.18090177
132	0xbe182145	-0.14856441
133	0xbd0f0e37	-0.034925666
134	0xbdee2793	-0.11628642
135	0xbe57e250	-0.21082425
136	0xbe262961	-0.16226722
137	0xbd858dd6	-0.06521194
138	0xbdfbea73	-0.12300577
139	0x3da73f44	0.08166364
140	0x3d818e2f	0.063259475
141	0xbe5e83da	-0.21729985
142	0x3a7a24e6	0.00095422415
143	0x3a79ad06	0.00095243787
144	0xba8c0194	-0.0010681623
145	0x3dadb41f	0.08481621
146	0xbd782430	-0.060581386
147	0x3e6545a2	0.22389844
148	0x3dce16de	0.10062955
149	0xbe60f56e	-0.21968624
150	0x3b9d7469	0.004805137
151	0x3da11920	0.0786612
152	0xba34707a	-0.00068832154
153	0x3cfc80ca	0.03082313
154	0x39bcc748	0.0003600663
155	0x3db5c638	0.08875698
156	0xbe1223da	-0.14271489
157	0xbaacdd93	-0.0013188593
158	0x3e58722d	0.21137305
159	0x3de510b9	0.1118483
160	0xbe597f14	-0.21239883
161	0x3db85ee7	0.09002476
162	0xba8211ee	-0.0009923556
163	0xbd049540	-0.0323689
164	0x3dfe7e92	0.12426485
165	0x3dfb7c95	0.122796215
166	0x3dc5a938	0.096514165
167	0xbe061336	-0.13093266
168	0xbe18c653	-0.14919405
169	0x3a4ce9da	0.0007816829
170	0x3e3aeacd	0.18253632
171	0xbdbb9782	-0.09159757
172	0x3e0b9a9f	0.13633202
173	0x3932fa85	0.00017068729
174	0xbc54b009	-0.012981423
175	0xbdd5cac1	-0.10439063
176	0x3de8c322	0.11365344
177	0x3d4b9bd7	0.049709167
178	0xbe44241e	-0.19154403
179	0x3e11b63b	0.14229672
180	0xbd808b35	-0.06276552
181	0xbe48dc7d	-0.1961536
182	0xb930f016	-0.00016874107
183	0x3e29f8ba	0.16598788
184	0x3e499571	0.19685914
185	0xbdce0d7e	-0.10061167
186	0x3cb5f3df	0.022211013
187	0x3d54e3bf	0.051975008
188	0x3dbb1130	0.09134138
189	0xbe1127c5	-0.14175327
190	0xbe46b004	-0.19403082
191	0xbdedad5d	-0.11605332
192	0x3a8eb385	0.0010887241
193	0xbdc4448f	-0.09583389
194	0x3e0753ba	0.13215533
195	0xbe57144f	-0.21003841
196	0x3e01f40a	0.1269075
197	0xbccc3d30	-0.02493152
198	0x3e20be42	0.15697578
199	0xbe59c691	-0.21267153
200	0x3acfba51	0.0015848373
201	0xbe09ed79	-0.13469495
202	0xbe617afc	-0.22019571
203	0x3d807e16	0.06274049
204	0x3e4379bb	0.19089405
205	0xbd4a7d42	-0.04943586
206	0xbd3ab29b	-0.045580488
207	0xbd9551e7	-0.07291012
208	0xbe47b98d	-0.19504376
209	0x3e1711a8	0.14752829
210	0xb9575df4	-0.00020538998
211	0x39b3ef40	0.00034319796
212	0x3d90558b	0.07047566
213	0x38c04622	9.168337e-05
214	0xbd04f50b	-0.032460254
215	0xbe309215	-0.17243226
216	0xbd5a0189	-0.05322412
217	0x3dc6ee4e	0.09713422
218	0x3d7dc40b	0.06195454
219	0x3da55f7c	0.08074853
220	0xbe0623f6	-0.13099656
221	0xbe5d5ce6	-0.21617469
222	0xbba8a014	-0.005146036
223	0xbe466abf	-0.19376658
224	0x3be9c880	0.007134497
225	0x3d9c8d86	0.07644181
226	0x3d986e4e	0.07442914
227	0xbe271e53	-0.16320162
228	0x3c6ea9e5	0.014566873
229	0x3df31d01	0.118707664
230	0xbca9a5c5	-0.020708928
231	0x3e56ec6e	0.20988628
232	0x3dd53f9f	0.104125254
233	0xbe0db290	-0.13837647
234	0x3c7c990c	0.015417349
235	0x3e3ad8c6	0.18246755
236	0xbd276c64	-0.040874854
237	0x3d34d5e6	0.044149302
238	0xbac21983	-0.0014808628
239	0x3d67ef68	0.0566248
240	0x3a7e5f79	0.00097035576
241	0xbe22dba7	-0.15904103
242	0xba6ad087	-0.00089574646
243	0x3db9332e	0.09042965
244	0xbd1d1338	-0.038348407
245	0x3d3efa6d	0.046625543
246	0x38183ce3	3.629633e-05
247	0xbdbafef1	-0.091306575
248	0xbe02027d	-0.12696262
249	0xbdba11ef	-0.09085452
250	0x3e04d42a	0.12971559
251	0xb9f06496	-0.0004585131
252	0x3d887932	0.06663741
253	0x3c54a72f	0.012979313
254	0xbdb9ade9	-0.09066374
255	0xb9f8a0df	-0.00047422104
