ckpt/real_Full_model-last.pt (torch, 140478 bytes, 17 tensors)

weight f4 [256, 7]
000000 e2 6b 55 b7 34 e6 71 b7 31 11 57 b3 27 cd 3c b5
       -1.2720908e-05 -1.4418318e-05 -5.0074224e-08 -7.0333994e-07
000010 99 b4 d4 b6 32 94 e4 b5 6e bc 07 b4 08 10 48 b4
       -6.3391167e-06 -1.7030454e-06 -1.2641405e-07 -1.8632284e-07
000020 0e 79 08 b5 e7 de 52 b4 ae 69 d1 b4 2c 88 0d b5
       -5.0840106e-07 -1.9638865e-07 -3.9006176e-07 -5.272475e-07
000030 a8 17 80 b4 1e d6 ad b4 94 43 97 ba bd 4b cd ba
       -2.385907e-07 -3.2379552e-07 -0.0011540526 -0.001566283
000040 7e ec 06 39 bc 21 6b b9 9b e3 ac 37 0a 13 23 b9
       0.00012867336 -0.00022423913 2.0609985e-05 -0.00015551984
000050 80 c5 19 b9 47 b7 73 ba f4 d8 ea bb 4e 34 78 bc
       -0.00014664792 -0.0009297025 -0.007166976 -0.015149189
000060 b9 a4 1f bb 92 e2 7c bc f4 de 06 ba 8b 8d f0 b9
       -0.0024359657 -0.015434878 -0.0005144917 -0.00045881825
000070 d0 20 b6 b6 ab eb a8 b6 53 1b 0a 37 65 14 25 33
       -5.4278426e-06 -5.0342255e-06 8.231803e-06 3.8435605e-08
000080 e5 82 1c b7 b4 5e 47 36 42 20 0f b5 38 fd d4 b9
       -9.328801e-06 2.9708435e-06 -5.331859e-07 -0.00040624454
000090 00 fc 05 ba 64 dc 29 b8 29 42 76 b9 9c 8b 82 b8
       -0.0005111098 -4.0497995e-05 -0.00023485035 -6.224887e-05
0000a0 58 d7 46 b9 97 0e 3d b9 eb 9e 97 b9 14 51 a7 b9
       -0.00018962973 -0.0001802988 -0.00028919367 -0.0003191313
0000b0 02 a0 7d 36 78 31 75 b8 98 72 4e b8 94 bb 69 b8
       3.7793075e-06 -5.8458623e-05 -4.922095e-05 -5.5726225e-05
0000c0 1d 8c ea b7 85 30 22 bd d6 9f b4 bc 31 7a 80 bb
       -2.7960219e-05 -0.039597053 -0.022048872 -0.0039208164
0000d0 ab 5a 06 3a a7 12 88 3a fe 63 00 3a 2c 15 18 3a
       0.0005125205 0.0010381535 0.00048977125 0.00058014947
0000e0 2a 5c d1 b9 be c3 31 ba cb f2 bf 38 13 57 c4 b8
       -0.00039932254 -0.0006781182 9.1528134e-05 -9.362227e-05
0000f0 c0 4a c3 37 48 47 b0 b8 1c fa 91 b8 9d 44 bb b4
       2.328062e-05 -8.405611e-05 -6.960725e-05 -3.4881387e-07
000100 d0 c8 08 b5 37 61 f8 b3 67 eb 34 b4 31 fc ec b3
       -5.095617e-07 -1.1566083e-07 -1.6849445e-07 -1.103548e-07
000110 74 74 29 b4 e9 5f 9e b3 0a 37 4d b9 e8 f0 4f b9
       -1.5781717e-07 -7.374894e-08 -0.00019570827 -0.00019830803
000120 7a 47 52 b9 3d 5f 4a b8 f6 9d f7 b8 3a d9 61 b8
       -0.00020053788 -4.824925e-05 -0.000118073 -5.384649e-05
000130 9c ca 4f b8 be 86 ea b6 17 c0 09 b8 67 31 95 b5
       -4.954134e-05 -6.9894295e-06 -3.2842243e-05 -1.1115743e-06
000140 bc 40 21 b6 a3 1d 6a b5 34 1c 49 b6 ac 7f d8 b5
       -2.402855e-06 -8.721492e-07 -2.996775e-06 -1.6130411e-06
000150 fa 87 86 bb be 50 99 bb 0f 7e 60 ba 4c bc b6 b9
       -0.004105565 -0.0046788147 -0.0008563706 -0.00034854037
000160 3b a9 79 b9 45 2e bd b9 ad e5 8d b9 81 78 9c 3c
       -0.00023809534 -0.00036083363 -0.00027064738 0.01910043
000170 bc 87 b8 3d 43 e6 9c 3c 0a 08 04 3c 16 6b f8 3b
       0.09010264 0.019152766 0.008058557 0.007581125
000180 a4 6a 92 3b 53 77 9a 3b 6b 60 32 bc 34 8e c4 3a
       0.004468279 0.0047139316 -0.010887246 0.0014995993
000190 38 71 9d bb 7b 63 98 38 e5 52 a8 39 ee 72 d8 38
       -0.0048047565 7.2664545e-05 0.00032105218 0.0001032109
0001a0 84 a7 1f 39 6e 61 91 3a fa f9 02 bb 64 f0 02 38
       0.00015225826 0.0011091658 -0.0019985423 3.1218296e-05
0001b0 e0 44 8e b6 ea 09 05 38 45 72 1d 36 e9 75 7a 36
       -4.239948e-06 3.1718904e-05 2.3461337e-06 3.7321536e-06
0001c0 03 9e a5 ba bc 5f 06 bc 73 ad 3e bc 7c be ce 38
       -0.0012635592 -0.008201536 -0.011638033 9.858326e-05
0001d0 07 52 2f bc cd 32 64 3a 4b 84 bb 39 33 3d 9f 39
       -0.010700709 0.00087050797 0.00035765985 0.0003037244
0001e0 e9 68 ea b9 f8 61 b3 36 71 38 42 b3 d0 28 74 37
       -0.00044710122 5.3460208e-06 -4.5220478e-08 1.4553036e-05
0001f0 71 94 a1 34 00 d8 2b 35 d3 57 f8 b8 d2 d5 3f b9
       3.0096592e-07 6.4016785e-07 -0.0001184192 -0.00018294834
000200 08 12 e6 b7 f5 9c 16 b8 dd de 9c b7 22 0b f6 b7
       -2.7426533e-05 -3.5908964e-05 -1.8700428e-05 -2.933067e-05
000210 80 66 ce b7 f1 15 8d b7 87 98 b9 b9 53 50 88 39
       -2.4604844e-05 -1.6818727e-05 -0.0003539959 0.00025999788
000220 a3 b1 fc b8 7f 03 c9 37 7c 74 58 b9 8a 66 70 b8
       -0.00012049384 2.3962695e-05 -0.00020642759 -5.7315956e-05
000230 f2 c2 1d 3d 26 f4 e0 bc 79 39 99 3a e3 53 f6 b8
       0.038515992 -0.027460169 0.0011690102 -0.00011745819
000240 ab be 62 b7 95 0f bf b7 f5 fe 01 37 4e 10 12 39
       -1.3515043e-05 -2.277623e-05 7.748361e-06 0.00013929719
000250 3d 4d ff b8 c0 4d 9a b6 fe 8c c9 35 6f fe 78 36
       -0.00012173734 -4.598609e-06 1.5016701e-06 3.710298e-06
000260 f0 c2 12 35 20 5c a2 33 5c c0 a8 b6 96 f6 99 b6
       5.467291e-07 7.56047e-08 -5.0291837e-06 -4.5884617e-06
000270 e4 0c be b5 83 9b b2 b4 6a be 30 b5 5f c3 1b b5
       -1.4159855e-06 -3.3268233e-07 -6.58422e-07 -5.80263e-07
000280 ed 2f 4f b5 a8 29 45 39 6f 71 6b 3b bc 54 93 3a
       -7.718325e-07 0.00018802902 0.0035925766 0.0011240463
000290 b4 26 42 3a b7 0c 2e 3a aa ab c9 39 ba 0c 9d 39
       0.000740628 0.0006639468 0.00038465607 0.00029954856
0002a0 5e 73 13 bc 33 4d d3 3a 87 08 20 bb 70 45 b8 38
       -0.008999674 0.001612103 -0.0024419145 8.7867375e-05
0002b0 44 b3 b8 39 f9 33 fe 38 1f 23 95 38 33 46 dd b9
       0.00035228778 0.000121213445 7.1114155e-05 -0.00042204707
0002c0 59 30 0c ba e1 15 50 b8 0e f4 1b b9 4e e0 aa b8
       -0.00053477805 -4.961144e-05 -0.0001487287 -8.148012e-05
0002d0 52 be 5c b9 a7 0e 55 b9 e2 a6 a5 ba 49 fd da ba
       -0.00021051735 -0.00020318721 -0.0012638236 -0.0016707565
0002e0 f1 be 00 39 b3 19 5a b9 33 3e 91 37 53 27 3b b9
       0.00012278162 -0.00020799674 1.731431e-05 -0.00017848359
0002f0 b3 48 e4 b8 dc d8 15 b9 44 a9 6c b9 ce f7 9e 36
       -0.000108854285 -0.00014290534 -0.0002256977 4.737615e-06
000300 6c c0 c9 b7 22 0d ca b6 04 0d 88 b7 a1 50 69 b7
       -2.405067e-05 -6.021598e-06 -1.6218524e-05 -1.3906655e-05
000310 78 fa 99 b4 d7 af b0 b5 e1 f5 a9 34 14 49 ce b4
       -2.868071e-07 -1.3164198e-06 3.1657603e-07 -3.842366e-07
000320 bb c6 00 35 79 ac 3e b4 d5 97 09 b4 cf de 85 b9
       4.7972907e-07 -1.7757874e-07 -1.2814355e-07 -0.00025533742
000330 10 8d 7f b9 25 c5 2f b8 89 06 a8 b8 ad ec 57 b8
       -0.00024371245 -4.1906856e-05 -8.0120815e-05 -5.1480416e-05
000340 ef 80 9d b8 13 3c 92 b8 21 69 dc b8 1b 4d f3 b8
       -7.510359e-05 -6.973012e-05 -0.00010509999 -0.00011601505
000350 a3 27 57 b8 f4 2e 85 b7 38 a3 06 b8 83 34 75 b7
       -5.129691e-05 -1.58767e-05 -3.21001e-05 -1.4615364e-05
000360 31 5a 20 b7 2f 05 b4 3c 64 45 5e 3b 8a d3 9a bc
       -9.5577425e-06 0.021975128 0.0033915872 -0.018899698
000370 72 ea 4f bc 8e ab d9 bc cf 9a c5 bb f7 b7 9b bb
       -0.012690173 -0.026571061 -0.0060304175 -0.004752155
000380 db 02 85 b7 9a 46 55 b7 df 4a b4 37 19 79 20 b7
       -1.5856165e-05 -1.27122275e-05 2.1492537e-05 -9.564938e-06
000390 52 4c 98 37 8b bf ef 35 6e 8f 1b 37 a1 bb 1a b9
       1.8155351e-05 1.7862634e-06 9.272115e-06 -0.00014756482
0003a0 32 db 38 b9 24 e7 85 36 e4 5b f7 b7 30 f9 0e b8
       -0.00017629264 3.990617e-06 -2.9487484e-05 -3.4087512e-05
0003b0 1e c0 e3 b6 e2 be a8 b6 f3 59 0c b9 18 a2 42 b9
       -6.7874926e-06 -5.029012e-06 -0.00013384949 -0.00018561666
0003c0 55 38 31 b8 41 77 6e b8 17 fa 3a b8 4d 8b a3 b8
       -4.225255e-05 -5.6854686e-05 -4.457877e-05 -7.7983925e-05
0003d0 27 b1 94 b8 62 1b 80 b9 9e be b1 b9 42 8c 96 b7
       -7.090187e-05 -0.00024434464 -0.00033902092 -1.7946706e-05
0003e0 5e b2 10 b8 3b 6f 30 37 d2 1e 51 b8 a1 32 68 b8
       -3.4498393e-05 1.0516315e-05 -4.9858187e-05 -5.5360262e-05
0003f0 12 34 a6 3b a2 f8 2e bc 8e d4 0d 3b 5d 11 18 b9
       0.0050721252 -0.010679396 0.0021641585 -0.00014502318

bias f4 [256]
000000 2e 3f b3 b6 d9 61 23 b5 ed ba 94 37 22 f2 56 bc
       -5.341971e-06 -6.086462e-07 1.7730019e-05 -0.013119252
000010 bf ae f7 b6 ab e2 d0 b8 1b 35 c7 b8 56 97 0e 3a
       -7.3815168e-06 -9.960433e-05 -9.498951e-05 0.0005439421
000020 c1 40 f1 37 90 fd 1b b4 8f 5d 29 b9 ce e3 8f b6
       2.8759592e-05 -1.4527745e-07 -0.00016151949 -4.288252e-06
000030 3b 1b c7 b9 78 46 1e 3c bf d4 13 3a eb ff 11 38
       -0.00037976526 0.009660356 0.00056393066 3.4809036e-05
000040 4c d1 d8 bb af 13 60 37 d2 a3 f6 b7 3d 7a fc b6
       -0.006616747 1.3356023e-05 -2.940177e-05 -7.5244157e-06
000050 3b b0 e9 b8 29 94 59 35 8b 5d 8f b5 5e 82 33 3a
       -0.00011143131 8.10544e-07 -1.0681555e-06 0.00068477343
000060 1a b1 84 39 d7 ff e3 b8 28 f6 d8 37 c7 51 e3 b6
       0.00025308953 -0.000108718574 2.5863832e-05 -6.7746473e-06
000070 ee 57 13 34 1e 24 7b b8 ce 6e 2b b8 f1 51 f0 bc
       1.372243e-07 -5.98767e-05 -4.0872772e-05 -0.029335948
000080 18 18 4a 37 3c 9a 46 b8 99 72 5d b8 aa a7 4c b8
       1.2045748e-05 -4.735052e-05 -5.2797233e-05 -4.879354e-05
000090 d3 6f 82 3a e0 ff de 38 d3 84 79 33 63 81 0b b8
       0.0009951539 0.00010633445 5.8095633e-08 -3.3260683e-05
0000a0 e0 94 52 3b 7e d5 be 37 91 9f 1c b8 7f b0 bf bc
       0.0032132193 2.274918e-05 -3.7341906e-05 -0.02339959
0000b0 25 90 1d b1 cb be 04 bd 25 d9 b6 b9 1a 51 81 ba
       -2.2928444e-09 -0.032408517 -0.0003487553 -0.0009866089
0000c0 60 17 15 b9 ae 49 b3 b8 2f ad 79 b7 3d 5c 74 b8
       -0.00014218455 -8.549109e-05 -1.4881879e-05 -5.8260037e-05
0000d0 5a fb 4d 39 97 a8 13 b2 30 c3 0a ba 56 16 34 b7
       0.00019643959 -8.594859e-09 -0.00052933674 -1.0734037e-05
0000e0 8a 94 5e b5 0b 4f 7f b4 95 62 2c ba 87 74 c3 3a
       -8.29176e-07 -2.3777481e-07 -0.0006575969 0.0014912047
0000f0 c5 48 4c b9 0a 25 ce 38 a6 39 0f b5 be bf 9e b4
       -0.00019482065 9.8297445e-05 -5.335554e-07 -2.9569304e-07
000100 23 ee 0f b8 09 3b a5 3b b3 dc 05 bb 47 77 61 ad
       -3.431564e-05 0.005042438 -0.0020425736 -1.2816254e-11
000110 bf 81 b4 38 18 ea 0f b4 58 95 7f b8 9f 6f 36 ba
       8.607236e-05 -1.3403076e-07 -6.0935825e-05 -0.0006959382
000120 71 03 3d b8 7e 1a 14 b7 80 28 74 bc 31 7a 8d 3b
       -4.5064317e-05 -8.827656e-06 -0.014902234 0.004317545
000130 56 ee a8 ba c8 c4 f9 3a 04 00 8e 3b 00 8c 51 bb
       -0.0012888412 0.0019055838 0.004333498 -0.0031974316
000140 99 21 af b8 7c 38 8b 3c 82 f0 a6 3a a8 0e 0d b4
       -8.350908e-05 0.016994707 0.0012736472 -1.313698e-07
000150 6e 5a 1a 38 7b 3f 32 3c 35 b2 d9 bc f2 a9 97 bc
       3.680068e-05 0.010879393 -0.026574234 -0.018513653
000160 33 79 7e bb 18 bb 21 b9 78 83 1e bb 86 4a 66 bb
       -0.0038829565 -0.00015423854 -0.0024187248 -0.0035139634
000170 11 9c 94 b3 a8 f2 05 bb 4d bc 2e b5 61 96 3e 38
       -6.9201754e-08 -0.0020438824 -6.5094065e-07 4.543958e-05
000180 62 a0 76 b8 f7 e2 18 bb b2 75 0a 3b 16 ce 86 37
       -5.880034e-05 -0.002332864 0.002112728 1.6070011e-05
000190 97 fe 71 b7 77 0a 88 b6 77 fc 89 b7 dd 8b a8 b5
       -1.4423996e-05 -4.054334e-06 -1.6449236e-05 -1.2557681e-06
0001a0 e4 a8 30 b9 ad 66 ea b8 88 d8 03 b8 a0 1f 80 bb
       -0.00016847585 -0.00011177114 -3.1434494e-05 -0.00391002
0001b0 11 a0 49 3a eb b4 b9 b5 a0 70 0e b8 32 4f e7 38
       0.0007691393 -1.3836228e-06 -3.396033e-05 0.000110296896
0001c0 b6 87 92 ba 9c 28 ca b9 9f 30 fb b7 f3 a9 7a b4
       -0.0011179361 -0.000385587 -2.9944173e-05 -2.3344892e-07
0001d0 f0 4e 23 ba 9a 14 bf 39 0a e7 a9 39 f2 d7 08 b7
       -0.0006229719 0.00036445708 0.0003240633 -8.15651e-06
0001e0 9a ea 15 b4 45 11 4d b8 b4 d3 40 b8 97 2b e7 b1
       -1.3962054e-07 -4.8891892e-05 -4.597353e-05 -6.7279404e-09
0001f0 d1 37 63 b7 d6 3b 46 b7 c0 25 d2 b9 f0 9a a3 38
       -1.354325e-05 -1.1815651e-05 -0.00040082447 7.801305e-05
000200 a2 4e 01 b8 af 51 bb b8 e6 48 8d 33 fd d7 04 b9
       -3.082923e-05 -8.9320696e-05 6.579084e-08 -0.00012668963
000210 99 82 d5 b7 1c 63 94 3c 7b 10 d3 38 cc d2 8d b2
       -2.5452393e-05 0.018113665 0.00010064334 -1.651042e-08
000220 7a 1f 69 b6 f0 2c 84 b5 8e 00 df b8 10 e4 de 36
       -3.4738027e-06 -9.847845e-07 -0.00010633572 6.6426655e-06
000230 cb 79 8a ba 2b 25 34 ba 57 bd 26 bb 0f 86 bc b8
       -0.0010564862 -0.00068719935 -0.0025442445 -8.989509e-05
000240 e8 69 71 bb 5e 22 84 38 a9 bb 74 b7 38 fa 69 37
       -0.0036836807 6.300652e-05 -1.4587226e-05 1.3946141e-05
000250 81 d1 f5 ba 02 13 05 b9 50 df 75 b7 25 47 eb b8
       -0.0018754454 -0.0001269095 -1.4655132e-05 -0.00011218925
000260 ef 38 1e b5 cb ea ad b7 3e fd 26 b8 53 c9 93 b7
       -5.8942436e-07 -2.0732541e-05 -3.9813334e-05 -1.7617514e-05
000270 81 fe 76 3c 01 ce 59 b6 c5 a7 ea b5 9b ea f8 b6
       0.015075327 -3.245543e-06 -1.7483186e-06 -7.4182876e-06
000280 81 c1 df b2 c7 23 4c b2 9a c7 a7 3a a2 c4 9b b8
       -2.6048612e-08 -1.1882498e-08 0.0012800575 -7.427602e-05
000290 80 e0 df b8 e5 6e 19 b6 67 4e 29 b6 2d f3 ae 38
       -0.00010675285 -2.2863326e-06 -2.5228599e-06 8.3422616e-05
0002a0 ef 62 fd b8 50 dd 6e b7 c1 d4 b0 b7 23 48 e1 ba
       -0.00012082408 -1.4237434e-05 -2.1079906e-05 -0.0017187636
0002b0 f1 34 b3 b8 85 ea 13 34 d0 0e a4 ba ad e3 5f b6
       -8.545246e-05 1.377576e-07 -0.0012516622 -3.3362114e-06
0002c0 f0 bd 05 38 c5 7f 3a 3b 62 6e 09 b8 4a f0 9f b7
       3.1886564e-05 0.0028457504 -3.2766147e-05 -1.906617e-05
0002d0 b0 af 55 b8 d2 2c 8a b9 a3 88 5a 3c 4d bf a0 b6
       -5.094678e-05 -0.00026354805 0.013338241 -4.790642e-06
0002e0 7b a1 21 b5 e2 5c 9d b8 7c b3 46 ba be 8b d7 b2
       -6.021216e-07 -7.503644e-05 -0.0007579846 -2.5092842e-08
0002f0 b0 42 0d b5 5c cb 64 bc 64 67 3b b8 fd 82 0d 36
       -5.2623636e-07 -0.0139645 -4.4680564e-05 2.1086882e-06
000300 83 52 da 36 ba fb 61 ba 78 0a 61 3c b9 f5 ea bc
       6.506512e-06 -0.0008620579 0.013735406 -0.028681623
000310 a3 c4 61 b8 96 f9 8b 35 bc 7e a7 35 82 b2 4f b6
       -5.3827313e-05 1.0428946e-06 1.2479354e-06 -3.094931e-06
000320 a1 27 8a 3c 44 e9 63 3c ee 3c 57 bb ed 51 13 b6
       0.0168646 0.013910595 -0.0032842713 -2.1952394e-06
000330 31 a3 dd b4 88 54 c4 b5 37 19 dc b1 15 13 a9 ba
       -4.1283195e-07 -1.462774e-06 -6.4057093e-09 -0.0012899364
000340 90 18 bf 38 31 95 ca b8 67 eb b0 38 d9 dc 82 3a
       9.112165e-05 -9.6599e-05 8.436181e-05 0.0009984031
000350 c2 ab ee b0 78 fa 9b ba 3d e7 2e b8 49 5b 95 b6
       -1.7365596e-09 -0.0011900207 -4.170019e-05 -4.451173e-06
000360 61 cb b8 3a fb d9 78 bb d1 a7 35 ba 91 b0 82 b6
       0.0014098698 -0.0037971723 -0.00069296086 -3.894857e-06
000370 14 95 08 b7 35 47 e1 bc 2e 27 27 b8 0f 9c 3a b9
       -8.140942e-06 -0.027499774 -3.985239e-05 -0.00017796479
000380 8a 90 1c 37 44 b4 5b ba a5 b0 03 b8 b6 9a 11 b7
       9.331978e-06 -0.00083810487 -3.1397347e-05 -8.678695e-06
000390 ce 2b 69 ba 33 7c ec b6 00 52 38 b7 5f 7b bc b9
       -0.0008894772 -7.047807e-06 -1.0986347e-05 -0.00035950073
0003a0 cb ef 50 b5 d5 20 0a ba 51 04 70 bb 24 38 87 37
       -7.7834983e-07 -0.00052691746 -0.0036623667 1.6119397e-05
0003b0 43 de c2 38 a9 86 e8 38 71 e4 fb ba d5 0e 8f b8
       9.29204e-05 0.000110877045 -0.0019217861 -6.821534e-05
0003c0 d4 1e 24 ba 79 0d 18 3b dd 9b ee b9 82 a7 85 b7
       -0.0006260697 0.002320139 -0.00045511025 -1.5932837e-05
0003d0 39 9b 1e b8 52 1f d4 b7 f8 ef 79 b7 c8 c5 56 b6
       -3.7814698e-05 -2.5286954e-05 -1.4897429e-05 -3.2003609e-06
0003e0 b8 6d 71 bb 42 0f 9b 37 ca 98 ab ba 31 ff ee b7
       -0.003683908 1.8484545e-05 -0.0013091799 -2.8490644e-05
0003f0 95 35 26 b7 97 02 be 38 aa 87 8f 38 2b 12 9b ba
       -9.906847e-06 9.0603884e-05 6.844041e-05 -0.0011830976

weight f4 [32, 256]
000000 33 54 9f 34 0c f1 a0 32 82 9c ad 38 12 a8 7c ba
       2.967732e-07 1.8736067e-08 8.278435e-05 -0.00096380815
000010 84 27 6e 34 bc 08 10 38 b6 fd e2 36 77 59 d8 39
       2.2179853e-07 3.434041e-05 6.7648607e-06 0.00041265387
000020 65 61 9f 37 5f 9c c4 32 fc 4b 8f 36 01 22 7a 34
       1.899963e-05 2.2888512e-08 4.270578e-06 2.3295435e-07
000030 40 21 ce 39 e3 d3 e2 ba 51 7b f6 37 36 73 1e 37
       0.00039316155 -0.0017305579 2.9382909e-05 9.4443585e-06
000040 3d e0 9d 38 48 ae 9f 36 aa 97 2a 37 82 33 41 38
       7.528111e-05 4.7588583e-06 1.0168102e-05 4.6062756e-05
000050 79 c1 b2 38 c8 2f f7 35 a5 e0 0b 34 0d 88 64 b8
       8.5237385e-05 1.841684e-06 1.3027109e-07 -5.4486143e-05
000060 c6 78 c2 35 b0 ee 72 37 6e 5f c0 38 1d f5 ef 36
       1.4489276e-06 1.4479898e-05 9.1730486e-05 7.15129e-06
000070 42 46 b8 33 8f 13 fb 36 91 1b 1f 37 38 ff c9 bb
       8.5809475e-08 7.48266e-06 9.483557e-06 -0.0061644576
000080 e4 56 6d 36 41 d6 79 36 8a 70 9a 36 4f 75 b9 36
       3.536633e-06 3.7228604e-06 4.602659e-06 5.527086e-06
000090 86 9f 23 39 94 3c c4 37 5a 6f af b1 0f 3b 40 36
       0.00015604318 2.339323e-05 -5.1058295e-09 2.8644606e-06
0000a0 2f b3 49 3a 13 13 97 b5 7f 7f d2 36 63 94 86 bb
       0.0007694242 -1.1255928e-06 6.27333e-06 -0.0041070445
0000b0 e3 7c ce 2f 4f c5 00 bc 19 3e 52 3a 13 8d b3 39
       3.755992e-10 -0.007859542 0.00080201175 0.0003424665
0000c0 b3 32 a6 38 f0 0c a9 36 3f 95 0b 39 c4 70 68 b5
       7.92494e-05 5.0380986e-06 0.00013311672 -8.659083e-07
0000d0 fa 72 48 39 65 02 2e 31 8c 73 c4 37 5d 5c 8f 36
       0.00019116318 2.5321694e-09 2.3418826e-05 4.2724846e-06
0000e0 fb a0 05 33 4e d2 c3 32 df 44 b7 38 0c 36 09 3b
       3.1112886e-08 2.2796623e-08 8.738948e-05 0.0020936755
0000f0 1e d6 84 39 b8 5f bd 37 95 b5 59 33 2f d3 28 b2
       0.00025336532 2.2575128e-05 5.0689398e-08 -9.826905e-09
000100 9c 02 e4 36 3f ce d8 b9 f4 34 23 3a 06 40 fe 2e
       6.7952333e-06 -0.00041352396 0.0006225847 1.15619556e-10
000110 7d e5 ac 37 bc b1 1a 33 98 c2 79 36 10 d6 f3 3a
       2.0610862e-05 3.6017568e-08 3.721716e-06 0.0018603224
000120 a4 36 ae 37 64 97 b9 34 ad d8 de ba 81 f6 9f b6
       2.076786e-05 3.4569086e-07 -0.001700183 -4.767266e-06
000130 c1 16 67 b9 ce cf 42 3a a9 df 13 3a 81 d8 da 39
       -0.00022038353 0.0007431478 0.0005640933 0.00041741508
000140 ee 37 14 38 fd ac a4 bb 89 b0 67 39 77 48 c2 32
       3.533804e-05 -0.0050255046 0.00022095641 2.2617526e-08
000150 99 da c4 b5 f3 89 02 bb 52 22 c4 bb 12 d9 18 bb
       -1.4666758e-06 -0.001991865 -0.0059855366 -0.0023322743
000160 56 1e 7b 3a df 52 de 38 b4 cc a2 39 a9 74 5b 3a
       0.00095794105 0.00010601221 0.00031051564 0.0008371571
000170 38 5c de 32 3e 03 d4 39 cb c6 b8 36 a2 b0 3b 39
       2.5886138e-08 0.00040438207 5.50677e-06 0.0001789951
000180 f1 a2 9e 37 a3 81 f5 39 6a 11 fa 3a 33 d1 ce 36
       1.8910943e-05 0.00046826628 0.0019078676 6.1636324e-06
000190 63 29 8d 35 c9 fa 3c 33 9a b0 84 35 c6 71 56 35
       1.0517364e-06 4.400025e-08 9.886164e-07 7.9886775e-07
0001a0 62 14 7a 37 b2 8e b5 36 7a 38 80 36 2e a9 38 3a
       1.4905907e-05 5.4108323e-06 3.821272e-06 0.00070442527
0001b0 c8 29 3d 39 2c b3 0a 38 f8 af 5a 37 4d 81 80 b6
       0.0001804001 3.306863e-05 1.30347835e-05 -3.82975e-06
0001c0 c4 4e 1c b9 cf f2 71 37 0b f6 40 38 85 ca 75 34
       -0.00014906662 1.4421253e-05 4.6005513e-05 2.2891079e-07
0001d0 08 e8 99 38 42 b0 41 b7 a3 c6 41 3a a6 67 5b 35
       7.338828e-05 -1.1544735e-05 0.0007391965 8.1734686e-07
0001e0 e5 f5 00 34 d4 0e a3 37 16 8a 8d 36 10 57 2c 2f
       1.2010385e-07 1.9438019e-05 4.218203e-06 1.567424e-10
0001f0 fa 67 33 35 21 3a d5 35 e6 1b ad 39 0a 34 a3 37
       6.6834e-07 1.5886654e-06 0.00033017917 1.9455347e-05
000200 34 e0 24 39 38 f3 13 39 2d 2d eb 31 f1 ac df 37
       0.00015723781 0.00014109618 6.844536e-09 2.6664204e-05
000210 91 b6 bd 37 c2 d1 8c bb b7 fc c5 37 f5 86 83 32
       2.261557e-05 -0.004297466 2.360191e-05 1.5311779e-08
000220 3b 83 63 34 3c 16 88 33 aa 9e 87 38 37 83 3d 39
       2.1188764e-07 6.337038e-08 6.466855e-05 0.00018073326
000230 28 72 4f 39 c6 8a 52 38 65 f0 28 3a 7e ef 81 39
       0.00019783585 5.0197144e-05 0.0006444513 0.00024783233
000240 6a 70 66 3a 68 97 5f 37 81 ad 01 35 37 a5 02 39
       0.0008790555 1.3327088e-05 4.8308726e-07 0.00012459313
000250 34 3e ef 39 52 70 9d 38 4a a6 e9 35 0f c3 9d 37
       0.00045631977 7.507265e-05 1.7408249e-06 1.880669e-05
000260 88 07 35 b2 80 54 47 38 c3 be c7 35 d8 10 8f 35
       -1.0537299e-08 4.7523994e-05 1.4882174e-06 1.0659232e-06
000270 f2 20 6e bb 27 c0 c8 34 30 9e 08 34 58 4c 20 34
       -0.0036335555 3.7392712e-07 1.2723535e-07 1.4928935e-07
000280 66 fb 23 32 f1 b3 c0 31 8c bd 26 3b ef e8 22 37
       9.54501e-09 5.6083924e-09 0.0025442569 9.7101865e-06
000290 7c b2 1d 38 6d c4 14 36 a4 ee bb 34 9d 55 9f 37
       3.7597943e-05 2.2168053e-06 3.5005098e-07 1.8994144e-05
0002a0 9e d2 1f 39 5b db a4 35 02 3e eb 36 29 ad 14 3a
       0.00015241883 1.2282793e-06 7.0107644e-06 0.0005671555
0002b0 bb 84 45 38 ea 5e c0 33 4d 3a 24 b9 b7 f9 46 34
       4.7092075e-05 8.9579615e-08 -0.00015661978 1.8531033e-07
0002c0 16 e0 0e 37 26 60 47 b8 ff 47 87 37 c2 28 32 37
       8.516034e-06 -4.7534842e-05 1.612678e-05 1.0619116e-05
0002d0 95 e7 91 37 7a 9c ff 38 fb 56 21 bb dc 86 b8 35
       1.7393186e-05 0.000121884936 -0.0024618495 1.3748318e-06
0002e0 1e de 4d 33 3c 9d a5 37 e9 30 4f 38 c3 61 87 31
       4.7932296e-08 1.974275e-05 4.9398197e-05 3.9401313e-09
0002f0 3f 55 87 33 cf 75 d1 ba c2 9f 94 36 aa 41 55 b6
       6.3019336e-08 -0.0015980544 4.429342e-06 -3.1777695e-06
000300 6b 2d a6 38 5c e7 a0 38 f8 f8 8e ba e2 4a c1 bb
       7.9239566e-05 7.6724886e-05 -0.0010907939 -0.0058988193
000310 43 24 b0 37 3f a4 e4 34 2f ab 00 36 e7 df 9c 34
       2.099772e-05 4.2587814e-07 1.9173128e-06 2.9220175e-07
000320 29 58 9b ba 54 b0 30 bb 08 3f 5e 3a b8 f8 9c 34
       -0.0011851835 -0.0026960569 0.00084780203 2.923823e-07
000330 aa 3b 74 33 b7 7e 11 36 1b 57 7b 30 3e d2 8b 39
       5.686494e-08 2.1680441e-06 9.143705e-10 0.0002666879
000340 18 fa 2e 39 9a 90 e8 37 f9 fa a7 37 fa 18 4a 39
       0.000166871 2.772389e-05 2.002482e-05 0.00019273526
000350 4e d2 92 2e 70 f8 29 38 ca b8 0d 37 ab bb 14 37
       6.676669e-11 4.0524115e-05 8.4472795e-06 8.865182e-06
000360 2c 0a f9 39 f8 3b 9c 3a 36 96 6f 39 3c a4 67 35
       0.0004750056 0.0011919728 0.00022848774 8.62932e-07
000370 bb 1e b1 34 46 ff b4 bb 49 17 8c 36 3e 31 cb 38
       3.2991179e-07 -0.005523595 4.175036e-06 9.6889664e-05
000380 88 0f 5c 36 57 92 0d 3a 64 c6 e9 35 05 e5 09 32
       3.2791595e-06 0.00054005295 1.7417592e-06 8.026523e-09
000390 a1 1d bc 38 c3 e3 b9 36 8a d0 dc 35 cf cc 21 39
       8.9700574e-05 5.5399446e-06 1.645197e-06 0.00015430454
0003a0 ce 9e e1 33 5a ad 78 38 93 00 83 3a 5d f4 e0 36
       1.05062654e-07 5.9289254e-05 0.0009994678 6.704168e-06
0003b0 81 df b8 37 95 29 ce 37 13 35 db 39 3e f4 c9 36
       2.2038586e-05 2.4576477e-05 0.00041810478 6.0187003e-06
0003c0 2e dc 06 3a f9 84 af b9 dd e7 9d 38 df db 60 b3
       0.00051445037 -0.00033477673 7.529531e-05 -5.2354036e-08
0003d0 81 f5 d9 35 72 e9 84 38 8d 8c 3f 38 ab 5d 44 35
       1.6239211e-06 6.337733e-05 4.5668847e-05 7.3151995e-07
0003e0 24 2f ea 39 88 d1 cc 36 18 fa 5e 39 44 0e c6 34
       0.0004466708 6.1040664e-06 0.00021264737 3.6890754e-07
0003f0 3a c9 df 34 11 79 b4 37 f1 58 9b 38 21 01 0d 3b
       4.1683398e-07 2.1514048e-05 7.4075426e-05 0.0021515565

bias f4 [32]
000000 d5 96 38 ba 25 ad f9 3b 91 86 72 3b 68 80 95 bb
       -0.00070415187 0.0076195174 0.0037006477 -0.0045624264
000010 9c fb de bb 7c b5 c1 3a 18 81 b2 bb d0 ce b7 3d
       -0.0068048965 0.0014778818 -0.005447518 0.08974993
000020 75 71 c2 bb cb 82 e2 3a 23 a4 e7 3a 58 c7 ed b9
       -0.0059339353 0.0017281411 0.0017672818 -0.00045352685
000030 99 96 5d 3b aa 36 90 ba 88 ee 66 3b 25 21 6f ba
       0.0033811687 -0.0011002619 0.003523739 -0.00091220654
000040 f0 de 2d 3b f8 a2 06 bb 5c 8c 28 bc ae 67 91 3b
       0.0026530586 -0.0020543914 -0.0102873705 0.0044374084
000050 d6 3a 73 bc e9 fa 1b 3b 47 5b df b9 d3 3a 43 bb
       -0.014845571 0.0023800677 -0.0004260188 -0.00297897
000060 e9 93 4e 3b 47 c8 77 bc 6e d3 01 ba 95 e9 7a bc
       0.0031521267 -0.015123433 -0.0004952465 -0.015314479
000070 55 f5 18 bc 95 aa 76 3b c8 47 1b 3c b3 25 83 3d
       -0.009335835 0.0037638296 0.009477563 0.06403675

weight f4 [10, 32]
000000 19 b9 24 bb 03 22 64 3d 5a 48 ce 3c 6e df 18 bc
       -0.002513474 0.0556965 0.025180984 -0.009330614
000010 ef 4b 04 bd e1 fc 2f 3c b1 6b b6 bc 69 12 e9 3d
       -0.03229898 0.010741443 -0.022268148 0.113804646
000020 c1 f6 76 bb 67 a8 88 3c db 9a 89 3c 76 c8 ea 3c
       -0.0037683698 0.016681863 0.016797474 0.02866004
000030 16 98 c9 3c cd 8f 92 3c b1 01 b6 3c 68 42 21 bb
       0.024608653 0.017890835 0.022217603 -0.0024606232
000040 ed f9 83 3c 73 fc 12 3a 33 e8 8a be f9 83 07 3d
       0.016110385 0.0005607076 -0.2713028 0.033084843
000050 d3 34 1f be 44 f1 8a 3c 37 67 70 ba 9b 0d aa 3c
       -0.15547495 0.016960748 -0.00091706536 0.02075844
000060 d1 bb 76 3c 17 aa 20 be 3f 76 19 ba 7b 11 02 be
       0.015059427 -0.15689884 -0.0005854107 -0.12701981
000070 57 a4 29 bc f9 7b e3 3c a1 24 06 3d 54 14 a6 3d
       -0.010354123 0.027769076 0.032749776 0.08109346
000080 7f 26 bb bb ad f7 01 bc bd cf 1a bb 06 47 68 bb
       -0.005711376 -0.007932586 -0.0023622357 -0.0035442724
000090 1e bd fd bc e5 af 11 3c 97 fc 25 bc 8f f5 43 bc
       -0.030973967 0.008892034 -0.010131023 -0.011960401
0000a0 b9 5e 89 bc b1 fd 27 bc 08 31 9e bc 6f 14 15 bd
       -0.0167688 -0.010253356 -0.01931049 -0.03639644
0000b0 4e 91 d9 bb 00 51 94 bc 75 f3 9e ba 18 40 5f 3a
       -0.006639636 -0.01810503 -0.0012126999 0.00085163256
0000c0 d1 b2 18 bb e6 68 02 bd 92 7c fd bc 61 b5 0b bc
       -0.0023299942 -0.03183832 -0.030943189 -0.008527131
0000d0 f0 06 e3 bc d3 59 92 ba da b2 e3 3a 3f 77 19 bc
       -0.027713269 -0.0011165686 0.0017372028 -0.009366809
0000e0 39 1d aa 3a 3e e3 e1 bc 61 9e 59 ba c5 e2 02 bd
       0.001297868 -0.027574178 -0.00083014934 -0.031954546
0000f0 ac 56 c8 bc e5 4b bc bb 45 d1 f7 bb d2 cc 13 bd
       -0.02445539 -0.005746352 -0.0075627887 -0.036084004
000100 24 b4 20 bb ef 5b 3a bc b0 80 a2 bc b4 c0 0e 3c
       -0.0024521435 -0.011374458 -0.019836754 0.008712936
000110 e4 77 a1 bc 02 bc 89 38 ba 81 e5 ba 8b c7 86 bc
       -0.019710489 6.567688e-05 -0.0017509975 -0.016452571
000120 f1 28 8a bc e7 80 ee bb e1 c6 48 bd d0 bf f0 bc
       -0.016865226 -0.00727855 -0.04901779 -0.029388338
000130 c6 2d a3 bb 10 35 ad bc 3a c9 0a bc f9 4d 9f bb
       -0.004979822 -0.021143466 -0.008470828 -0.00486159
000140 39 25 f4 3a 10 4a 65 bd 2b 9e f2 39 d4 8a 00 bc
       0.0018626816 -0.055978835 0.0004627568 -0.007845599
000150 0e 20 2b b9 12 0b 1d bb 29 ca 31 bb 8a 8f 2c bc
       -0.00016319772 -0.0023962897 -0.0027128553 -0.010532269
000160 21 a7 63 3b f4 1d 05 39 0d ed 2e ba 55 f3 62 bb
       0.0034737068 0.00012695027 -0.00066728966 -0.00346299
000170 64 71 82 bc fd 78 a6 bc fb e1 1e bd 62 35 a7 3c
       -0.01592321 -0.020321364 -0.03878973 0.020411197
000180 bd 3a 00 3a b1 df 66 bc 6b 5d d1 bc fd 2e 55 3c
       0.0004891565 -0.014091418 -0.02555724 0.013011691
000190 37 8a c9 ba 73 a0 e4 bb 66 b0 0a 3c 57 aa 5e bc
       -0.0015376274 -0.006977135 0.008464908 -0.013590417
0001a0 28 6f 6b bc 9f fe 11 bc 9a 66 28 bd f0 c2 a1 bc
       -0.014369763 -0.008910804 -0.041113473 -0.019746274
0001b0 de 68 e9 bb 8e 89 a3 bc 9f 48 22 bc 86 43 67 3b
       -0.007123097 -0.019963052 -0.0099050095 0.003528805
0001c0 98 4e 57 bb 1c df 46 bd f4 75 bc 3c 39 b2 e9 bb
       -0.0032853242 -0.048552617 0.023005463 -0.0071318415
0001d0 0b 33 92 3c 42 19 aa bb 42 82 d1 3a 7a c7 02 bc
       0.017846605 -0.0051909992 0.0015984254 -0.007982129
0001e0 9d 60 96 bc 49 ff 90 3c 75 bb dc b8 2a 40 79 3c
       -0.018356616 0.017699854 -0.00010525334 0.015213052
0001f0 6b 25 14 bc 29 a7 c5 bc 38 98 10 bd 47 cb b0 3c
       -0.009042124 -0.02412756 -0.035301417 0.021581305
000200 31 4f b4 3a d8 f5 24 3c 7e df c2 3c 4f 2d ca bb
       0.0013756511 0.010068379 0.02378821 -0.006169952
000210 56 78 84 3c f0 b8 22 bb 0b 71 b5 3a ec 79 35 3c
       0.016170662 -0.002482947 0.0013842894 0.011076432
000220 96 eb 86 3c 86 6b 45 3c bc 81 29 3d cc 4c ca 3c
       0.016469758 0.012049561 0.04138349 0.024694823
000230 c1 95 47 3c f5 a6 94 3c 08 07 5e 3c fb 02 2c b9
       0.0121817 0.018146018 0.013551481 -0.00016404309
000240 25 6c 2c 3b 2e 8d 51 3d 3d ef bb bb 7b d8 31 3c
       0.0026309576 0.05116003 -0.0057353065 0.010854836
000250 fb 8e 1a bb 22 07 05 3c 32 d1 9b ba b4 20 0b 3c
       -0.0023583758 0.008119376 -0.0011887907 0.008491684
000260 9d a0 a6 3c 1c bb 1b bb 77 2a cc 39 1e 5b a2 39
       0.020340258 -0.002376265 0.0003894155 0.00030966935
000270 f3 97 9c 3c 87 90 cc 3c 74 b9 24 3d 43 db b1 bc
       0.019115424 0.02497126 0.040215924 -0.021710997
000280 02 27 6a 3b 2f a8 03 3b 0d 03 59 3b bc ba 0e 3c
       0.0035728817 0.002008926 0.003311339 0.008711513
000290 58 c2 85 3d 9e 40 5f bc 56 24 8c 3c 9c ab d2 bc
       0.06531209 -0.013626246 0.01710717 -0.025716595
0002a0 b4 05 d3 3c 18 28 82 3c 85 3e a6 3c e6 dd 3f 3d
       0.025759555 0.015888259 0.020293484 0.04684248
0002b0 9c 8f 11 3c cd 79 b8 3c c0 c3 3c 3b a3 d2 2a 3a
       0.008884337 0.022519017 0.00288032 0.00065163727
0002c0 7e 30 62 3b 2a 26 3e 3d 3a b7 31 3d b4 27 38 3c
       0.0034513767 0.046423115 0.04338763 0.011239935
0002d0 f0 17 37 3d 09 be 0a 3b 03 0e 96 3a 0d 9b 14 3c
       0.044700563 0.0021170399 0.0011448268 0.00907017
0002e0 f1 64 4c bc cc b1 37 3d d7 74 a1 3a bb 67 48 3d
       -0.012475238 0.044847295 0.0012318146 0.04892705
0002f0 e7 a8 03 3d f8 d3 1c 3c 21 46 61 3c 43 e8 8e bb
       0.0321435 0.009572022 0.01374963 -0.004361184
000300 0d f7 1e bb d9 10 1e bc 4d e1 a7 bc d5 be 9c 3b
       -0.002425614 -0.0096475715 -0.020493174 0.004783491
000310 93 da 49 bc 3f 4b b9 39 8c 4f 2b bb 31 50 0d bc
       -0.012320179 0.00035342012 -0.0026139943 -0.008625076
000320 94 71 84 bc e9 fc 2c bc ed 5b 46 bd 96 4f d0 bc
       -0.01616744 -0.010558345 -0.04842751 -0.025428575
000330 8b bc 1a bc 14 36 8c bc 2a bf 31 bc d8 69 a2 3a
       -0.009444366 -0.01711563 -0.0108488 0.0012391163
000340 12 93 0b bb 82 5b 42 bd 66 d4 7a 3b ef 49 27 bc
       -0.0021297378 -0.04745055 0.0038273572 -0.010210498
000350 cd 95 df b9 2f b6 e3 bb c1 57 8e ba 29 f7 03 bc
       -0.00042645485 -0.006949208 -0.0010859893 -0.008054533
000360 3a 98 1a 3b f6 f3 4d ba e2 ba 2d ba b2 41 81 bb
       0.002358927 -0.00078564824 -0.0006627274 -0.003944599
000370 82 14 a1 bc 0a 90 b4 bc eb 3d 15 bd ba 16 84 3c
       -0.0196631 -0.02204134 -0.036436003 0.016124118
000380 63 1f 28 3b fb f1 9f 3c 4f 32 ab bc ea 07 08 bc
       0.0025653474 0.019524565 -0.020898012 -0.008302668
000390 cf 61 5b bd a2 a8 bd bc 37 20 65 bc 55 ba f4 3b
       -0.053560074 -0.0231517 -0.013984731 0.0074685016
0003a0 f2 9b ae bb 8b 3d e4 bc 64 2a 3a 3c 29 41 24 bc
       -0.0053286487 -0.027861377 0.011362646 -0.010025301
0003b0 48 03 d0 bc 7f fc 22 bb 73 05 a9 bc 9e 5e 07 bc
       -0.02539219 -0.0024869738 -0.020632481 -0.008262305
0003c0 1c cc 98 bc 60 57 80 3b 70 46 1c bc a0 22 e1 bc
       -0.018652014 0.003916666 -0.009538278 -0.02748233
0003d0 24 07 49 bc 13 aa 8b bc 11 5d b6 bb 00 1a 16 bc
       -0.012269769 -0.017048871 -0.0055652936 -0.009161472
0003e0 82 e9 26 ba 93 93 8f bc f3 ba 7e ba 4c 5a 21 bd
       -0.0006367193 -0.017526424 -0.00097171887 -0.039392754
0003f0 f6 c7 bd bb 73 9a cf bc b9 e2 e0 bc 31 18 a3 3b
       -0.0057916595 -0.025342202 -0.02745186 0.004977249

bias f4 [10]
000000 74 69 cc be cf 0b d8 3c 7e 0a 45 bd 56 ae 56 bd
       -0.39924204 0.026372818 -0.04810571 -0.052412353
000010 38 1d 22 3d 96 ba ad bc f3 bb 10 bd 67 f3 38 3c
       0.039578646 -0.021207135 -0.035335492 0.0112885
000020 53 7f a6 3b 6a a6 99 bc
       0.005081096 -0.01875611

bias f4 [64]
000000 a7 01 00 80 6a 01 00 80 2a fc 36 b2 88 01 00 80
       -5.93e-43 -5.07e-43 -1.065113e-08 -5.5e-43
000010 cf 8d 8b 30 23 bd e9 ae cf c1 b0 2b 60 01 00 80
       1.0153886e-09 -1.0629211e-10 1.2559345e-12 -4.93e-43
000020 d8 81 fe b4 e5 b5 9d 2f 68 01 00 80 3d aa 6d b1
       -4.740566e-07 2.8687377e-10 -5.04e-43 -3.4584808e-09
000030 90 33 18 26 96 01 00 00 9c 27 eb ad b3 59 dd ad
       5.2805474e-16 5.69e-43 -2.6733997e-11 -2.5164626e-11
000040 69 01 00 80 51 01 2e ad 06 9b 04 ae 11 cf d3 2f
       -5.06e-43 -9.891047e-12 -3.0151014e-11 3.8527806e-10
000050 04 1d 11 ac 9b 01 00 80 44 d4 9e b2 ac 01 00 80
       -2.0621846e-12 -5.76e-43 -1.8490148e-08 -6e-43
000060 d8 f0 c2 ae 14 e1 5e 37 d8 45 d9 2a ea 60 bd 31
       -8.864881e-11 1.3284636e-05 3.8595407e-13 5.511642e-09
000070 bf 01 00 80 86 01 00 00 5f a4 58 b3 cc 3c 0c a8
       -6.26e-43 5.47e-43 -5.0440914e-08 -7.784744e-15
000080 60 0c e5 2d 53 ef 8a b5 e3 bf 6b b7 65 e9 40 ae
       2.6039781e-11 -1.0351454e-06 -1.4051769e-05 -4.386304e-11
000090 db d0 eb 33 96 be db b3 19 93 6f 31 8d 01 00 00
       1.0981031e-07 -1.02326496e-07 3.4862693e-09 5.56e-43
0000a0 25 c8 7b b5 74 01 00 80 7e 83 b9 30 a9 e8 5c b0
       -9.3796035e-07 -5.21e-43 1.3497894e-09 -8.0366164e-10
0000b0 69 94 01 a5 ae 85 57 b6 55 4e 5d ac 1b 89 c9 30
       -1.123925e-16 -3.2115308e-06 -3.1449472e-12 1.4663643e-09
0000c0 38 52 44 ac 82 01 00 80 ef c1 4d b3 46 24 b9 af
       -2.7898916e-12 -5.41e-43 -4.7906664e-08 -3.3677078e-10
0000d0 15 9c 63 32 4e 4d 94 31 69 9d 3f 30 10 9d 15 ae
       1.3248628e-08 4.3161554e-09 6.970909e-10 -3.4018177e-11
0000e0 87 01 00 80 17 5c aa 32 7a f9 de b5 a2 01 00 80
       -5.48e-43 1.9832482e-08 -1.6612896e-06 -5.86e-43
0000f0 23 a0 4c a7 6b aa 07 30 e8 c2 e5 28 53 da a9 2b
       -2.8397497e-15 4.935489e-10 2.5508634e-14 1.2068769e-12

weight f4 [64, 1]
000000 5f 01 00 00 91 01 00 00 23 15 4d af 64 01 00 00
       4.92e-43 5.62e-43 -1.865215e-10 4.99e-43
000010 66 d2 54 2c bc 1d da ac 62 03 52 ab 62 01 00 00
       3.0243807e-12 -6.199234e-12 -7.461168e-13 4.96e-43
000020 84 e0 47 2c 2b 6c 39 ad 60 01 00 80 07 eb 3b b2
       2.8404232e-12 -1.0540051e-11 -4.93e-43 -1.0938272e-08
000030 f6 ee ad 26 62 01 00 00 d2 8b a5 ad 02 fb 44 2c
       1.2069057e-15 4.96e-43 -1.8820421e-11 2.7992613e-12
000040 67 01 00 80 3a 44 3d ab f5 9b 00 ad b9 8e 80 ad
       -5.03e-43 -6.724097e-13 -7.310587e-12 -1.4615297e-11
000050 08 52 2f ad 5f 01 00 00 f6 e7 ba ac 61 01 00 00
       -9.965813e-12 4.92e-43 -5.312191e-12 4.95e-43
000060 e2 0c 74 30 e0 1d 8d a9 63 8c 2c 2b 64 79 a7 a9
       8.878499e-10 -6.2668403e-14 6.13015e-13 -7.437348e-14
000070 61 01 00 80 63 01 00 80 98 97 9b 2f bf 30 0e 28
       -4.95e-43 -4.97e-43 2.830205e-10 7.893154e-15
000080 f7 4a 47 a6 db 97 b6 ac de fa cc ad a1 87 9e aa
       -6.914359e-16 -5.1896105e-12 -2.3303522e-11 -2.816055e-13
000090 29 96 08 af c3 d8 b6 ad 8d 80 4d 2f 63 01 00 00
       -1.2422476e-10 -2.0787266e-11 1.8690312e-10 4.97e-43
0000a0 7d 77 9b ab 62 01 00 80 26 4c bb 29 12 37 a0 2e
       -1.1046577e-12 -4.96e-43 8.317678e-14 7.28574e-11
0000b0 6f 2c aa a5 60 e5 07 32 ea b7 ee 2d 3a 24 31 36
       -2.9520408e-16 7.910188e-09 2.7139142e-11 2.6396142e-06
0000c0 ca bd 02 2a 5f 01 00 00 18 12 6e 29 78 52 e3 32
       1.1612166e-13 4.92e-43 5.286231e-14 2.646378e-08
0000d0 e1 7f 13 30 8c 76 49 ae f6 d8 8a aa 1e 66 86 2c
       5.3660015e-10 -4.58074e-11 -2.466427e-13 3.8198463e-12
0000e0 63 01 00 80 01 42 93 29 43 7a bd 29 5f 01 00 80
       -4.97e-43 6.539561e-14 8.414495e-14 -4.92e-43
0000f0 ac c3 9d a5 6f 83 01 ae 78 90 4e a7 fa e9 b1 a9
       -2.736775e-16 -2.944794e-11 -2.866656e-15 -7.9009675e-14

bias f4 [64]
000000 eb 4f db ae 12 19 ec ab 75 37 5a b2 92 8a f4 ae
       -9.973163e-11 -1.6775767e-12 -1.27018795e-08 -1.11204504e-10
000010 ac 60 99 ad 30 c1 34 36 17 a3 81 ad a1 6b c0 2d
       -1.7437017e-11 2.693454e-06 -1.4738029e-11 2.187567e-11
000020 7f 5f ac 2b 87 a9 8b 34 52 21 ae a7 5b 3f 18 34
       1.2247841e-12 2.6014115e-07 -4.8330828e-15 1.4179152e-07
000030 fe d6 28 2f 5a 5a 8b ab 21 2a c7 2d 8e 5c 9f ab
       1.5355892e-10 -9.901622e-13 2.264239e-11 -1.1323319e-12
000040 96 74 8e ac 3c ee 62 ae ef 15 7e 30 8d 1c 35 2d
       -4.0488264e-12 -5.1598045e-11 9.243583e-10 1.0294998e-11
000050 83 7a 96 35 bf f7 b5 2b a1 d1 89 30 ab 15 67 33
       1.1211526e-06 1.2929587e-12 1.0027642e-09 5.3803586e-08
000060 5c e0 20 b2 0e 45 a9 39 ae 80 53 33 47 c1 f4 32
       -9.364239e-09 0.00032285642 4.92443e-08 2.849323e-08
000070 3e b4 e8 2f bd a2 fa 30 a4 d5 47 35 36 bf 22 34
       4.2328624e-10 1.8236147e-09 7.4444165e-07 1.5156988e-07
000080 ef 5e 1f 35 40 e7 19 b1 f9 86 2e 2d 66 6c 23 b0
       5.937026e-07 -2.239588e-09 9.920725e-12 -5.94531e-10
000090 3a 2b 9f 2c 7c 56 d8 32 34 4a 17 af 7d 13 1f 39
       4.523851e-12 2.5185038e-08 -1.3759732e-10 0.00015170682
0000a0 81 36 38 2e 88 60 4a af cc 66 6a 2f e6 48 13 a8
       4.1885165e-11 -1.8406088e-10 2.1318697e-10 -8.1759466e-15
0000b0 2b ef ba 2c 8e e4 28 38 9d 47 e5 2e 72 bd fc 36
       5.312991e-12 4.026718e-05 1.04264354e-10 7.5322396e-06
0000c0 6d 08 99 2e 43 0c 31 27 f5 9b 14 2d 28 1e 1a b6
       6.959131e-11 2.4570332e-15 8.447455e-12 -2.2965341e-06
0000d0 ca 11 83 27 3a f1 67 2f cc e7 85 31 35 4f cb 29
       3.637909e-15 2.1095029e-10 3.8971617e-09 9.028751e-14
0000e0 19 dd f2 2d 17 ed 5a 2d 3d e5 23 2a b9 36 db ae
       2.7610402e-11 1.244451e-11 1.4556841e-13 -9.968688e-11
0000f0 19 1d 12 b4 4d e9 7e b3 47 71 ad 2d d7 c4 8a 2e
       -1.3607895e-07 -5.935117e-08 1.9718128e-11 6.310479e-11

weight f4 [64, 64]
000000 6d 01 00 80 a9 01 00 00 ea 1e bf a6 74 01 00 80
       -5.11e-43 5.96e-43 -1.3261667e-15 -5.21e-43
000010 0d b0 d0 25 dc 45 7c 1d bf 13 5c a4 ae 01 00 80
       3.6201545e-16 3.3388039e-21 -4.772162e-17 -6.03e-43
000020 5e 59 fc a7 a4 d4 ac 21 b8 01 00 80 10 e3 aa 34
       -7.0040943e-15 1.1711459e-18 -6.17e-43 3.1830177e-07
000030 74 2d 35 1c b7 01 00 80 b6 ca 13 31 c5 1c 28 22
       5.9946623e-22 -6.15e-43 2.1506543e-09 2.2783476e-18
000040 62 01 00 00 25 f3 12 a1 a0 f5 2c 1f c9 6b 82 b3
       4.96e-43 -4.9788523e-19 3.6625593e-20 -6.073203e-08
000050 1a f3 94 20 c0 01 00 80 81 22 c5 26 a2 01 00 00
       2.5233046e-19 -6.28e-43 1.3678973e-15 5.86e-43
000060 4e 47 51 a3 85 26 5e a7 26 3f 8d 1a f8 5f 27 a7
       -1.1345012e-17 -3.082957e-15 5.8418255e-23 -2.322793e-15
000070 6e 01 00 80 5f 01 00 80 55 af 47 28 37 a1 d7 1a
       -5.13e-43 -4.92e-43 1.1084738e-14 8.918237e-23
000080 ad 81 db a1 8e 74 d0 26 ec cb a3 28 12 6e 3a 24
       -1.4874342e-18 1.4464492e-15 1.8185072e-14 4.0425554e-17
000090 83 9b d6 a8 22 e5 9f 1f 87 88 ac a9 62 01 00 80
       -2.3826215e-14 6.771819e-20 -7.662018e-14 -4.96e-43
0000a0 9b 20 38 27 61 01 00 80 6c b7 7c 24 7d 2c 24 23
       2.5552805e-15 -4.95e-43 5.4799154e-17 8.8998786e-18
0000b0 c8 f2 5e 99 11 11 55 29 0d 33 3a 21 92 14 a0 a8
       -1.152616e-23 4.7310304e-14 6.3086816e-19 -1.777249e-14
0000c0 8a 15 90 9e 7b 01 00 00 3c 03 4a aa 78 8b 65 27
       -1.5255501e-20 5.31e-43 -1.7942326e-13 3.185574e-15
0000d0 4e ec a5 24 b0 b6 ab 2a 04 5b d0 24 4e d1 e5 1e
       7.195766e-17 3.0502467e-13 9.035981e-17 2.4332885e-20
0000e0 65 01 00 00 23 d9 34 29 db ab f2 a7 69 01 00 00
       5e-43 4.0156365e-14 -6.735482e-15 5.06e-43
0000f0 51 29 a3 19 ac 77 da 20 ef 8b 50 95 82 95 19 1f
       1.6870493e-23 3.7009829e-19 -4.2115654e-26 3.252268e-20
000100 84 01 00 00 61 01 00 80 ed 4d 96 21 65 01 00 80
       5.44e-43 -4.95e-43 1.0185022e-18 -5e-43
000110 8d a1 35 a1 3b e9 d6 9c b4 7b 13 1a 6b 01 00 00
       -6.1538996e-19 -1.4221621e-21 3.0498814e-23 5.09e-43
000120 6f fb b8 af 32 a3 54 9e 60 01 00 80 32 95 c0 b5
       -3.364806e-10 -1.12569346e-20 -4.93e-43 -1.4348536e-06
000130 66 43 b2 97 6c 01 00 00 97 62 20 9c d9 ca 2b 1e
       -1.1519994e-24 5.1e-43 -5.3066984e-22 9.0946125e-21
000140 aa 01 00 00 66 3a a0 9d 5e a3 24 1d dc ae 01 1b
       5.97e-43 -4.241203e-21 2.1789678e-21 1.072713e-22
000150 02 0a d9 1d 62 01 00 80 cf 1d c5 a3 ab 01 00 00
       5.744977e-21 -4.96e-43 -2.1371407e-17 5.98e-43
000160 2a f2 63 a0 e3 f5 4e 24 e7 de bd 99 1d ed 02 21
       -1.9307773e-19 4.4877404e-17 -1.9632172e-23 4.435953e-19
000170 64 01 00 00 5f 01 00 80 c8 0d d9 22 c7 6d e5 18
       4.99e-43 -4.92e-43 5.883256e-18 5.930596e-24
000180 ea 38 f9 1c b8 e1 1b ab a0 05 19 a5 54 ea ab 9e
       1.649215e-21 -5.538031e-13 -1.327254e-16 -1.8202245e-20
000190 a1 36 34 22 f5 65 b9 9e 93 55 9f 1e 73 01 00 80
       2.442347e-18 -1.9629805e-20 1.6870172e-20 -5.2e-43
0001a0 9c aa 82 24 65 01 00 00 e3 36 e4 20 2a 36 fa 9f
       5.6667536e-17 5e-43 3.8661023e-19 -1.05968725e-19
0001b0 a3 ee af 96 f7 53 8b 25 50 0a 4d 1d 3d 31 68 25
       -2.8423376e-25 2.4169553e-16 2.7136856e-21 2.0139475e-16
0001c0 c6 74 93 1a 65 01 00 80 02 9c 17 25 d1 d1 95 a3
       6.098643e-23 -5e-43 1.315002e-16 -1.6243473e-17
0001d0 18 97 89 20 b1 8b 14 2c 61 ce d4 9f 02 d0 c3 1b
       2.3308688e-19 2.110961e-12 -9.012692e-20 3.2394466e-22
0001e0 84 01 00 00 2b 78 19 22 57 aa 44 a7 9a 01 00 80
       5.44e-43 2.0798983e-18 -2.7292806e-15 -5.75e-43
0001f0 6f ce 4a 16 2b 02 4a 1e f3 e6 fd 14 08 3b ff 99
       1.6382569e-25 1.0694239e-20 2.5637565e-26 -2.6390225e-23
000200 61 01 00 00 ba 01 00 80 df 9c 6e a6 87 01 00 80
       4.95e-43 -6.2e-43 -8.278544e-16 -5.48e-43
000210 9b 3f 67 27 a7 da 45 a1 f2 f5 8d 9d 64 01 00 00
       3.209217e-15 -6.703558e-19 -3.757669e-21 4.99e-43
000220 da bb 5e 26 5c 98 71 21 63 01 00 80 08 8e b9 aa
       7.727631e-16 8.185562e-19 -4.97e-43 -3.2961156e-13
000230 03 52 1d 1c 67 01 00 80 ef b9 c8 9d 48 e2 c3 21
       5.205294e-22 -5.03e-43 -5.313181e-21 1.327361e-18
000240 71 01 00 00 6d 5d eb 22 9d a2 d1 9f d5 24 0d 9f
       5.17e-43 6.3795796e-18 -8.8783964e-20 -2.9888378e-20
000250 8f 11 54 25 66 01 00 00 89 9c d4 28 6e 01 00 80
       1.8394018e-16 5.02e-43 2.3604614e-14 -5.13e-43
000260 48 d9 95 26 f9 26 53 a8 c4 b5 b6 1d 58 46 4e a8
       1.0397846e-15 -1.1721304e-14 4.836294e-21 -1.14505505e-14
000270 65 01 00 00 e3 07 00 80 84 52 2d a7 3f f0 f7 9c
       5e-43 -2.829e-42 -2.4053305e-15 -1.6407191e-21
000280 37 0e 1d a5 2b f9 4e 26 6f 08 b4 a7 d3 78 9d 24
       -1.3622395e-16 7.1808293e-16 -4.996918e-15 6.829258e-17
000290 d9 c1 b1 a6 ec a5 06 a4 c2 85 94 a1 64 01 00 80
       -1.2334385e-15 -2.919716e-17 -1.0064275e-18 -4.99e-43
0002a0 fd e9 83 27 67 01 00 00 ef e4 02 29 32 70 dc 23
       3.6613495e-15 5.03e-43 2.9064367e-14 2.3899964e-17
0002b0 86 35 2d 9d 3e ed ab a7 75 ef 07 20 c7 01 3a a9
       -2.292403e-21 -4.7719253e-15 1.1514174e-19 -4.1301838e-14
0002c0 86 d7 f6 a0 60 01 00 80 57 f6 32 a6 3c 64 cf a8
       -4.1816642e-19 -4.93e-43 -6.209001e-16 -2.3025086e-14
0002d0 14 82 ff a1 6c 60 0c 26 33 99 ca 26 f9 2a 16 a0
       -1.7313904e-18 4.8702933e-16 1.405809e-15 -1.2719713e-19
0002e0 5f 01 00 00 04 1b 04 29 f0 d5 4a 27 61 01 00 80
       4.92e-43 2.933332e-14 2.8149107e-15 -4.95e-43
0002f0 5b 1f 0e 9b 27 f8 3d 21 18 37 6b 17 40 e9 46 1e
       -1.1756096e-22 6.436412e-19 7.6002133e-25 1.0530268e-20
000300 5f 01 00 00 7b 01 00 00 4f 7a 10 2d 5f 01 00 00
       4.92e-43 5.31e-43 8.21261e-12 4.92e-43
000310 ba ed 9f ac 1e ce 9b b2 a0 a5 5e 32 6d 01 00 80
       -4.5454447e-12 -1.8138106e-08 1.29597595e-08 -5.11e-43
000320 17 84 9d 24 70 7c 08 9f 64 01 00 80 93 cd 5c 36
       6.8311665e-17 -2.8902052e-20 -4.99e-43 3.2902215e-06
000330 ce f0 11 98 6f 01 00 00 44 76 30 9d b1 c9 14 9f
       -1.8862386e-24 5.14e-43 -2.3354548e-21 -3.1507054e-20
000340 5f 01 00 80 0a a1 22 1e de cf 84 9f 9b d0 1f 33
       -4.92e-43 8.609511e-21 -5.624806e-20 3.7209798e-08
000350 00 49 01 9f 63 01 00 80 6f 7e 4d 24 60 01 00 80
       -2.7377197e-20 -4.97e-43 4.4559382e-17 -4.93e-43
000360 51 73 5f 21 c5 6f 09 a7 33 56 56 9c 9e 5c bb a1
       7.570796e-19 -1.907316e-15 -7.091807e-22 -1.2696128e-18
000370 a5 01 00 00 8f 01 00 80 cb 19 49 b6 28 43 67 9a
       5.9e-43 -5.59e-43 -2.9966347e-06 -4.782393e-23
000380 d7 55 8f 9d 7d 0a 18 2d 12 83 2c 27 39 dd 63 20
       -3.794054e-21 8.6425285e-12 2.3940848e-15 1.9300844e-19
000390 53 74 9f a4 ff 26 af ac 79 56 9c a0 64 01 00 00
       -6.915232e-17 -4.9781286e-12 -2.648465e-19 4.99e-43
0003a0 3f 17 0d a8 69 01 00 80 74 72 d6 21 6c 6a 25 20
       -7.832113e-15 -5.06e-43 1.45315e-18 1.4011256e-19
0003b0 98 9e 6f 16 1a 5b aa a6 cb 0a 9c 1e 57 5f 0d b9
       1.935631e-25 -1.1820813e-15 1.6521606e-20 -0.00013482325
0003c0 1d 1b 14 37 60 01 00 80 67 2e 5d a4 4a 7b c0 23
       8.8278e-06 -4.93e-43 -4.796104e-17 2.0868897e-17
0003d0 c8 2a b4 2d 04 7b 73 a0 cc bc 83 9f 70 d4 1a 9e
       2.048263e-11 -2.0623603e-19 -5.5792996e-20 -8.196623e-21
0003e0 64 01 00 00 8e f4 94 23 40 68 ab 25 b6 01 00 80
       4.99e-43 1.6149765e-17 2.9734414e-16 -6.14e-43
0003f0 cb 68 49 17 79 3b 0c 21 7a 73 b8 18 7a 1d fe 1a
       6.507887e-25 4.7512556e-19 4.7679487e-24 1.0509956e-22

bias f4 [10]
000000 60 fa 2c bc 04 0a 2f 3c 7f bc 23 3c 56 41 39 bc
       -0.010557741 0.01068354 0.009993671 -0.011307081
000010 c0 10 cd bb 01 25 2f bc 80 3c e9 b6 87 c7 4a bc
       -0.0062581003 -0.010689975 -6.9509842e-06 -0.012376673
000020 88 05 b7 37 a7 d9 a4 b8
       2.1817876e-05 -7.86067e-05
