ckpt/TC1-best.pt (torch, 140150 bytes, 17 tensors)

weight f4 [256, 7]
000000 e6 10 34 b6 41 4f fb 3d 0a 6b 5d be 44 88 3c be
       -2.6831926e-06 0.12270976 -0.21622863 -0.18411356
000010 4c 70 72 bd 3e 36 bc 3c d5 67 08 38 7c e4 52 3e
       -0.059189126 0.022975083 3.2521628e-05 0.20594972
000020 69 06 3b bc b6 45 b4 3c 60 48 06 bd d3 3c cc bb
       -0.0114151025 0.022005897 -0.032783866 -0.0062328367
000030 f0 d6 87 be a7 e9 20 be e6 d1 8b bd 80 f1 60 b9
       -0.26531172 -0.15714131 -0.06827144 -0.0002145227
000040 37 30 80 3d 04 c2 09 3e 3d c4 26 be 4a 20 9c bd
       0.06259196 0.13452917 -0.16285796 -0.07623346
000050 e3 ce 54 3d 17 2b 60 3e 45 a4 75 bc c6 30 41 3e
       0.051955115 0.21891437 -0.014992778 0.18866262
000060 25 ec a5 ba 7b e9 42 b9 ab b2 7c 3e fa 91 82 be
       -0.0012658878 -0.0001858826 0.24677531 -0.25501996
000070 c9 b5 14 be 16 8e 9b bc f4 c8 78 bd 7e f1 6c 3e
       -0.1452247 -0.01898865 -0.06073852 0.23138997
000080 74 a6 1b be 1f c0 ad bd 3b 85 2e be a4 43 84 be
       -0.15200216 -0.0848391 -0.17043011 -0.25832856
000090 a8 da 03 be d7 45 6b 3e 08 b9 a3 3d 83 2e bf 3d
       -0.1287638 0.2297586 0.07994276 0.09335043
0000a0 8b 62 89 b8 bf 6d d3 bd 59 bc 0a 3b 51 c7 83 be
       -6.551024e-05 -0.10323667 0.0021169393 -0.25738004
0000b0 c3 80 37 be 02 7f d5 bd c0 3a 15 3e 2d b1 04 3e
       -0.17920212 -0.104246154 0.14573193 0.12958212
0000c0 a0 cb a1 bd ad eb 2e 39 ef 34 19 3e 70 3b 8f 3e
       -0.079001665 0.00016681729 0.14961599 0.27975035
0000d0 76 40 81 3d 4a 27 ae b9 75 fa 23 3e c8 9b 05 be
       0.06311123 -0.0003321714 0.1601351 -0.13047707
0000e0 8b f1 92 3b 78 a7 4b be 25 70 2c be f9 42 d6 bd
       0.0044843606 -0.19888103 -0.16839655 -0.10461993
0000f0 97 28 a8 3d bb e3 84 3d a1 eb 06 be 4a 7b 0f 3d
       0.08210867 0.06488749 -0.13175823 0.035029687
000100 80 a6 04 3e 23 51 f2 39 9d 41 fa 37 91 e7 5e 3c
       0.1295414 0.00046218288 2.9832876e-05 0.013605014
000110 ee 4d 11 3e 3b c3 88 3e 7e 91 49 be a0 79 59 bd
       0.14189884 0.2671145 -0.19684407 -0.053094506
000120 1a 2f 7d 3d b6 80 5f 3e 88 4c 6f 3e 88 e9 73 3e
       0.061812498 0.21826443 0.23369038 0.23819554
000130 0c d6 da 3b 54 0d 6f be 91 23 1c 39 34 3f 13 be
       0.0066783484 -0.23344928 0.00014890569 -0.14379579
000140 a9 62 83 be 36 3e 76 3e 22 bb 45 3e 34 e1 8f be
       -0.2566121 0.24047169 0.19309667 -0.28101504
000150 f1 f9 97 3b b4 a7 13 bb 32 d4 d2 ba 64 ea ab bd
       0.0046379496 -0.0022530379 -0.0016084968 -0.08394316
000160 8c 9f 71 3d ff e6 06 be b1 53 59 3d 56 47 ce 3d
       0.058990046 -0.13174056 0.05305833 0.100722
000170 13 4c 36 3e cc 2d 63 3d ba 64 8e be d6 d7 1b be
       0.17802458 0.055463597 -0.27811223 -0.15219054
000180 2d be c9 3d c0 0f 0e 3c 44 30 4d be d4 f0 00 be
       0.09850726 0.008670747 -0.20037943 -0.12591869
000190 3c 0f 85 3e 56 39 25 3e b4 85 9c bd b4 1a 98 bc
       0.25988185 0.16135153 -0.07642689 -0.01856742
0001a0 d0 50 87 be 4e 57 e3 b6 3b f8 42 be 15 e1 49 be
       -0.26428843 -6.775291e-06 -0.19040005 -0.19714768
0001b0 29 42 d1 38 31 62 bd 39 b2 fd 89 bd aa 4c 07 3e
       9.97822e-05 0.00036122047 -0.06737842 0.13212839
0001c0 9a 84 0d be 26 9c 81 3e 66 85 29 3e dd 15 65 be
       -0.13820115 0.25314444 0.16554794 -0.22371621
0001d0 e2 2e 92 bc 98 07 89 38 82 7f d7 38 b9 a1 be 3c
       -0.017844621 6.5340835e-05 0.00010275749 0.023270475
0001e0 97 e4 c0 3d 05 e0 ef b8 95 86 c1 bd e4 ef b6 3d
       0.094186 -0.00011438135 -0.094494976 0.08932474
0001f0 25 95 88 be 25 0d 07 be fa 86 95 bc e9 7a c1 bd
       -0.26676288 -0.13188608 -0.018252838 -0.094472714
000200 f3 09 43 bd 40 1f 5c be 07 90 19 bc 27 22 1d 3c
       -0.04761691 -0.21496296 -0.009372718 0.009590662
000210 26 e0 1c be 55 af ea 37 c7 11 38 3e 24 ac e8 38
       -0.15319881 2.797662e-05 0.17975532 0.00011094686
000220 6b f7 3c 37 cc 56 46 b9 27 83 ef 3b a6 0d 17 3e
       1.126328e-05 -0.00018915086 0.0073093357 0.147513
000230 a6 5f 86 3e 25 47 1b 3e 8d b5 86 3e 17 82 a9 b8
       0.2624485 0.15163858 0.26310387 -8.082779e-05
000240 62 fa 79 be d0 92 b7 bd 31 e0 27 3e 33 a5 4d b7
       -0.2441192 -0.08963549 0.16394116 -1.2257416e-05
000250 05 2d c8 bd c9 f9 47 be 91 20 84 be 4b 5c 65 be
       -0.09774212 -0.19528879 -0.25806096 -0.22398488
000260 99 5c f2 bb 07 7d ed 3d f8 d7 e7 3d 78 a1 89 be
       -0.0073962924 0.11596113 0.1132049 -0.26881003
000270 c0 91 12 3e da 16 4e be 09 21 15 bc e4 2d 87 bd
       0.14313412 -0.20125905 -0.0091021145 -0.0660055
000280 f0 82 b5 bb d0 64 cb bb 3e a6 79 be c7 ba 6c be
       -0.0055392906 -0.006207086 -0.24379823 -0.23118125
000290 98 1c 5c ba 65 a7 84 b7 5a 70 a9 bd 3d f3 66 3d
       -0.0008396595 -1.5813575e-05 -0.082733825 0.056384314
0002a0 74 a3 7a be 51 c2 71 37 ed cb 72 3e d6 da 88 bd
       -0.24476415 1.4409962e-05 0.23710604 -0.06682365
0002b0 01 c2 7b 3e 24 63 53 3d 34 8d 7b be c9 5f 17 3e
       0.24585725 0.05160822 -0.24565583 0.14782633
0002c0 d8 d8 50 bc 3f db a3 bd 4d 91 54 3e 9c c2 57 be
       -0.012747012 -0.08000802 0.20758553 -0.21070331
0002d0 3c f1 68 b9 10 49 0e bc e3 66 34 3e 0c 39 03 3d
       -0.00022215111 -0.008684412 0.17617373 0.032036826
0002e0 92 2f bc 3d 1f 6e 47 3d 23 d3 80 bc 45 69 11 bc
       0.09188761 0.048689004 -0.015725678 -0.008875196
0002f0 8e cf 5d be a3 12 eb 3d 9e c5 5a 3e 6f 1e 29 3e
       -0.21661207 0.11478164 0.21364447 0.16515516
000300 3e 0c 31 be 81 ec 93 38 98 e1 30 be e2 02 ef bd
       -0.17289826 7.0535585e-05 -0.17273557 -0.11670472
000310 fe 9e 03 be 66 1c 4c 3d b8 3c 08 be 9d 16 55 37
       -0.1285362 0.04983177 -0.13304412 1.2701054e-05
000320 f1 59 a3 38 17 53 1a 3e b1 0e 44 be 32 f9 29 be
       7.7891986e-05 0.15070759 -0.1914623 -0.16598967
000330 6e a8 02 be 5c 01 2f 3e 1b cd 4f bd da 29 65 3e
       -0.12759563 0.17090362 -0.050732713 0.22379246
000340 77 a8 52 3d a2 57 f1 b9 e0 84 ac 35 5a a2 fd bb
       0.05143019 -0.00046032394 1.285367e-06 -0.007740301
000350 81 97 f3 b9 43 05 52 bc 6a e5 3a 37 54 3f ee b9
       -0.0004646145 -0.012818637 1.1139879e-05 -0.0004544208
000360 76 f9 4d be cf 21 dc bd fa e5 57 3e f0 10 59 be
       -0.20114693 -0.10748636 0.21083823 -0.21197867
000370 18 25 95 b8 7d 4c 8e 3e e0 29 52 3d 38 74 2d b3
       -7.111783e-05 0.2779273 0.051309466 -4.03854e-08
000380 36 0f 6e be 1f d1 cc 3d 90 a3 33 be 55 6d e0 bc
       -0.2324799 0.10000824 -0.17542863 -0.027395884
000390 c0 54 30 bd 0b d3 70 b9 91 6a 76 37 9b 34 5e 3e
       -0.043049574 -0.00022966803 1.46875545e-05 0.21699755
0003a0 32 bc aa 3b a4 fa 78 3e c9 16 0e 3e 48 b4 15 be
       0.005210423 0.24314362 0.1387588 -0.14619553
0003b0 a0 57 a5 3d 14 9e 31 be 83 f3 94 bd f3 c2 3b 3d
       0.08073354 -0.17345458 -0.07273009 0.045840215
0003c0 7b 76 29 3d 93 e9 41 3e 44 e3 1e bd 99 42 3c 35
       0.041372757 0.18936758 -0.038790956 7.013237e-07
0003d0 9e fb d4 3d 69 16 8a be 2d fc 39 3e f3 e2 5e be
       0.10399555 -0.26970223 0.18162604 -0.21766262
0003e0 87 50 ad b7 e8 cb 11 bb dc 9a dd bd 27 d7 cf b9
       -2.0660706e-05 -0.0022246782 -0.10820553 -0.00039642418
0003f0 7e e5 5e 3e 97 bc f7 bc 9c 6a 07 be 9b b0 5d bd
       0.21767232 -0.030241294 -0.13224262 -0.054123502

bias f4 [256]
000000 b1 15 53 3e c9 34 dc 3d 6e 88 83 3d e4 02 a9 bc
       0.20613743 0.107522555 0.06422506 -0.020631261
000010 7c d7 e0 3d 38 72 bc 3d 44 3b 3e 3d bc b0 4d 37
       0.109786004 0.09201473 0.04644324 1.2260101e-05
000020 92 ab a2 39 90 10 9c 35 c9 b0 38 be 18 96 60 3c
       0.00031026878 1.1627726e-06 -0.18036188 0.01370766
000030 c8 3b 3c be eb 8f bf 3d e7 32 08 be cb eb 24 bd
       -0.1838218 0.09353622 -0.13300668 -0.040263932
000040 17 b3 b7 bd aa a8 50 3e dd 9c 30 be 2d ed d1 3d
       -0.089697056 0.2037684 -0.17247339 0.10250316
000050 5e 58 cb 3d 39 af 31 3e 95 b4 95 3c 35 1a eb 3d
       0.09928964 0.17351998 0.018274585 0.11479608
000060 a0 1b 51 3e 12 a9 ce 3b 48 2d 36 3d 37 df 4d be
       0.20420694 0.006306776 0.044476777 -0.20104681
000070 11 60 bc bc 9b e0 17 39 8d d1 ee b9 4b 9e 47 bd
       -0.022995027 0.00014484154 -0.00045551025 -0.048734944
000080 f6 b2 8e be 90 33 aa bc 99 49 6f 3d cf d4 6b 3e
       -0.2787091 -0.02077654 0.058419798 0.23030399
000090 8a c4 7b be 29 fb b9 3d 40 9b 86 be 6d 05 88 be
       -0.24586692 0.09081108 -0.2629032 -0.2656664
0000a0 05 7c 13 be 2d ad d0 39 34 ba d5 3c c4 c9 45 be
       -0.14402778 0.00039801878 0.026089765 -0.19315249
0000b0 81 88 49 3e 98 40 7c 3e e5 49 d7 b8 ff fc 59 3e
       0.19680978 0.24634016 -0.00010265763 0.21287917
0000c0 a4 54 a8 bd d8 5d 80 bd 46 77 e7 39 d5 8b 8c b9
       -0.08219269 -0.06267899 0.0004414862 -0.00026807064
0000d0 ff 1f 2e be 3b fa 54 be 2c f6 7f 3d 4b fe ea 3c
       -0.17004393 -0.2079858 0.062490627 0.02868571
0000e0 0b 35 8c 3e 16 bb 88 bd dd 67 47 3d 76 d7 85 bd
       0.2738422 -0.06676309 0.048683036 -0.065352365
0000f0 7d a6 c5 3d 63 67 d7 38 92 8d 3e 3e c0 bd f2 3d
       0.09650896 0.00010271256 0.18608692 0.11852598
000100 0a f1 60 3e 04 4f d4 3d 61 91 93 37 02 19 6c 3e
       0.21966949 0.103666335 1.7591463e-05 0.23056415
000110 74 15 05 be 01 86 85 3e 41 00 8c 3e fd d2 87 3e
       -0.12996465 0.260788 0.27343944 0.2652816
000120 52 98 b2 bd 61 ed df bd b7 66 ae b8 9f a5 11 3d
       -0.08720459 -0.10933948 -8.316099e-05 0.03555834
000130 4a 6a cb 3d e7 07 88 3d 6c 32 68 3e 03 ad 95 bc
       0.099323824 0.06642132 0.22675484 -0.018270975
000140 2e be 26 bd f6 eb 2f 3d 0b 45 d4 3c 48 96 03 be
       -0.040708713 0.04294964 0.025911829 -0.12850296
000150 70 8e 0e 38 05 50 45 be 32 11 f7 bc 7c 72 7c bd
       3.3988093e-05 -0.19268806 -0.030159567 -0.06163262
000160 37 b8 71 3e 93 ae 7a be 43 35 06 be aa 46 8c be
       0.23605429 -0.24480657 -0.13106255 -0.27397662
000170 69 36 99 3c ef 3f 49 be 05 f4 20 3d 75 02 2d be
       0.018702703 -0.19653295 0.039295215 -0.16895469
000180 98 d1 18 be d8 1d d2 bd 91 b9 ba 39 e4 e5 80 3e
       -0.14923704 -0.102595985 0.00035614942 0.25175393
000190 7f 4a 84 3e 3f 3d 0e b9 fb 70 8c be 74 b2 29 bd
       0.25838086 -0.00013564991 -0.27429947 -0.04142995
0001a0 43 ef 6c bd 12 7f 19 bc 81 43 6e 3d 31 94 cc 3d
       -0.057845365 -0.009368675 0.058169845 0.09989203
0001b0 e2 b5 a1 3d 63 af e4 3c af bb 86 bd 36 b1 e7 b6
       0.078960195 0.027915662 -0.065787666 -6.9049665e-06
0001c0 1f 6a ef b9 f9 0d d2 bd 57 69 28 b9 96 2c f4 39
       -0.000456647 -0.10256571 -0.0001606097 0.00046572526
0001d0 44 d5 85 be 78 c2 26 3e 00 30 90 38 11 1e 6d be
       -0.2613927 0.16285121 6.875396e-05 -0.23156
0001e0 c3 5c 51 3e 2e ed e5 bd fe 99 48 3d 43 c5 8e 3e
       0.20445542 -0.11226879 0.048974983 0.27884874
0001f0 2e 51 52 38 bc 82 e9 3c 18 8f 81 3d 3b 02 44 3e
       5.0143506e-05 0.028504722 0.06326121 0.19141476
000200 37 f6 0b bd 39 fe f7 bd 8d 70 32 b9 8d ea 4d 3e
       -0.034170356 -0.12109036 -0.00017017331 0.20109005
000210 f6 06 48 39 b0 15 2d 3e 03 9a 9f 36 63 f5 0b 3d
       0.0001907608 0.16902804 4.7564986e-06 0.034169566
000220 ba 0e 1a b8 e6 cb c9 37 18 21 87 be d8 d3 70 be
       -3.6730176e-05 2.4056015e-05 -0.26392436 -0.23518312
000230 fb 17 4f 39 cc 93 c6 3d ab 73 24 3e 43 64 a3 38
       0.00019749992 0.09696159 0.16059749 7.791121e-05
000240 ca 57 92 3d 97 0c 90 3d c0 a8 6c be a6 9c 72 be
       0.07145651 0.07033651 -0.23111248 -0.23692569
000250 7c 62 4b be ad 18 a0 37 0b be 15 be be 79 1c bd
       -0.19861788 1.9084977e-05 -0.14623277 -0.03820204
000260 35 ff aa b9 b8 47 79 3d ab 80 5f 3c 3f 92 82 3e
       -0.0003261507 0.060859412 0.013641517 0.25502202
000270 79 5f 7b 3e 65 d7 17 be 94 28 56 36 cd d7 da 3a
       0.24548139 -0.1482826 3.1912105e-06 0.0016696394
000280 c7 5b 70 3e 7e ce 0f bd 4a 2c 7d bd 9a 2a 16 be
       0.2347251 -0.035109036 -0.061809815 -0.14664689
000290 19 e1 3c 3e 07 1e df bc 6a 02 64 bd b7 2d 26 3e
       0.18445243 -0.027235998 -0.055666365 0.16228376
0002a0 55 24 81 3e dd e4 a3 b8 e6 de 30 be 9a 4a 5a 3e
       0.25223032 -7.815075e-05 -0.17272529 0.2131752
0002b0 b0 c4 38 bd e3 19 ae bd 1a 2a 30 be 9f 7e bc bd
       -0.04510945 -0.08501031 -0.1720356 -0.092038386
0002c0 4d 56 4e be 0a 55 01 be 52 c8 7e be 28 5c ea bb
       -0.20150109 -0.12630096 -0.24881104 -0.007152099
0002d0 ad d4 84 3d 03 44 45 be 80 18 04 35 d2 3d 5c bd
       0.06485877 -0.19264226 4.9209484e-07 -0.053769894
0002e0 1b 7b be 3d 7c bf 6d 3e ae fb cb 39 2e a0 cc bd
       0.09300824 0.23217577 0.00038906693 -0.09991489
0002f0 fe bf 48 be b1 22 05 be e8 ef eb 3c b9 34 56 3c
       -0.19604489 -0.13001515 0.02880092 0.0130740935
000300 6f 42 e6 3d fa aa 88 b9 7a 43 d4 3d 97 2a 77 be
       0.1124314 -0.0002606733 0.10364433 -0.2413734
000310 58 b4 bd 3c 4c c8 8a 3e f1 62 8e be 7d 1c d8 bd
       0.023157284 0.2710594 -0.2780986 -0.10552309
000320 52 aa 18 3e fa 3b 59 ba 69 40 e2 bd 57 7a 0d 3e
       0.14908722 -0.000828683 -0.110474415 0.138162
000330 d2 24 b6 b7 c9 3b 48 38 b2 26 08 bd 5e 1f 43 3e
       -2.1713236e-05 4.7739395e-05 -0.033240028 0.19054934
000340 ff 19 f2 3d 4a 3a 60 3b 81 15 0c 3a d3 a1 d6 3d
       0.118213646 0.003421443 0.00053437805 0.10480084
000350 4e 48 12 3e f7 74 8a bd bd 0f 90 39 c2 a2 9e 3d
       0.14285395 -0.067605905 0.00027477546 0.07745887
000360 3a 1d bf bd 7c f9 83 3e 91 68 29 be 75 8b ae 3d
       -0.093317464 0.2577628 -0.16543795 0.08522693
000370 88 e7 35 be 5e cf 1d 3d 99 73 2e 3e 16 94 ec b9
       -0.17764103 0.03852784 0.17036285 -0.0004512376
000380 a8 a4 46 38 b4 14 17 3e 68 cd 35 be 8d 8a 25 be
       4.7360227e-05 0.14753991 -0.17754138 -0.16166134
000390 cc 80 68 be 26 83 0f be 8c 3c 28 38 7c d9 a8 bd
       -0.22705382 -0.14014873 4.011071e-05 -0.08244607
0003a0 7e 42 3d 3c f0 19 52 b8 3d e8 60 3e 02 d2 9a bd
       0.0115514975 -5.0092058e-05 0.21963592 -0.07559587
0003b0 af 80 c8 bc be 94 20 3e dc 98 9a bc bb 3a 88 3e
       -0.024475424 0.1568174 -0.018871717 0.26607308
0003c0 e8 74 81 bd 2e 7f 7a b7 14 69 73 bc 4e 2f b2 3d
       -0.06321126 -1.49307725e-05 -0.014856596 0.08700429
0003d0 58 bb 6f 3d 28 e0 e1 bd 4e aa 1f 3e 50 bd a6 38
       0.058528274 -0.110290825 0.1559231 7.950759e-05
0003e0 81 a5 9a bc b4 87 0c 38 8f 82 2d 3e 79 b7 8c 3e
       -0.018877747 3.3504984e-05 0.16944335 0.2748373
0003f0 e6 8f c0 3d d7 d5 3a 3b c2 4f 1d 3e 3b 00 90 bd
       0.094024464 0.0028508806 0.15362456 -0.07031294

weight f4 [32, 256]
000000 c2 ef 53 b9 43 7a ff b8 b8 77 67 39 81 7b 83 38
       -0.00020211845 -0.000121821206 0.00022074475 6.269571e-05
000010 86 50 1f 38 6a 47 8d 33 10 20 06 b9 8d da c1 3a
       3.7983547e-05 6.578814e-08 -0.0001279118 0.0014789865
000020 99 3c 4e 38 b8 61 0e 3c fc ec ec 39 d2 35 00 b9
       4.9170663e-05 0.00869029 0.00045189995 -0.00012227081
000030 86 bd a8 b8 73 ef 2f 3b 6e 0a ff b8 9b 24 33 b9
       -8.046166e-05 0.0026845604 -0.0001216129 -0.00017084407
000040 1e 1f 97 3a 24 f2 cd 3b 35 b2 8c ba a1 d3 a8 3a
       0.0011529659 0.006284969 -0.0010734262 0.0012880453
000050 79 08 8c bb a8 0c 19 b9 00 bf 1f b9 aa f7 1d b9
       -0.004273471 -0.00014595932 -0.00015234575 -0.00015064949
000060 6e 22 f6 39 9b aa a0 b9 b6 3b 64 3b 21 9c 44 ba
       0.00046946428 -0.0003064469 0.003482563 -0.00075000717
000070 dd d4 1d b9 e9 d5 92 b8 63 75 a3 37 bd a5 f6 38
       -0.00015051985 -7.0016664e-05 1.9485777e-05 0.00011761065
000080 f2 67 76 39 dc 88 15 39 20 82 d6 b9 23 b3 c0 3b
       0.00023499111 0.00014260731 -0.0004091421 0.0058807298
000090 45 25 db 36 2b f4 99 b8 fa e8 e7 38 94 68 c8 b9
       6.5310473e-06 -7.341088e-05 0.000110583336 -0.0003822489
0000a0 83 3b 82 38 57 ab 52 37 93 52 da 39 d5 67 3d 39
       6.209968e-05 1.2556869e-05 0.00041641723 0.00018063125
0000b0 11 e2 20 39 d5 2a ee 39 ad 93 8b b8 70 21 ff 37
       0.00015343005 0.0004542681 -6.655543e-05 3.041394e-05
0000c0 f8 3e 62 3b e6 e0 be b8 b6 0e b5 bb 1f 1f c5 39
       0.0034522396 -9.1017966e-05 -0.0055254353 0.00037597955
0000d0 57 db 7c bc 03 10 5e b8 a6 75 ef 3a b1 19 24 3b
       -0.015433154 -5.2943837e-05 0.0018269315 0.0025039727
0000e0 5b 84 b6 b9 a3 b7 39 3c 83 30 04 3b 8e 40 bf b6
       -0.00034812358 0.011335286 0.0020170517 -5.6997587e-06
0000f0 eb 75 e2 b9 5d e9 24 b9 a8 d6 a8 38 bc 2c 0f b8
       -0.00043193935 -0.00015727193 8.050847e-05 -3.413552e-05
000100 b2 d8 00 b9 ed e2 7d 3a ea 6f ce b8 c4 c2 f9 39
       -0.00012287757 0.00096849987 -9.843691e-05 0.00047638093
000110 ea 05 bd ba 99 78 2c b9 d9 4b f1 b9 93 24 0b 3b
       -0.0014421318 -0.00016448124 -0.00046023613 0.0021231517
000120 ce f8 96 b5 a1 25 98 b8 4f ba 93 39 9b 53 f2 3a
       -1.1248283e-06 -7.254934e-05 0.00028176836 0.0018488051
000130 fe 6b 21 38 e3 02 4f 39 02 54 b1 b9 c8 e0 20 b9
       3.8485967e-05 0.00019742134 -0.00033822661 -0.00015342527
000140 09 7f d9 b9 a9 46 13 bc 0d b7 ec 3a 7a de 04 b8
       -0.00041484114 -0.008989015 0.0018059924 -3.167845e-05
000150 ba cb 1f bc 2a 5d 2a b9 d5 8f 81 bb 20 41 5f 38
       -0.009753162 -0.0001624717 -0.0039539137 5.3227996e-05
000160 e7 0a 9b 39 58 bb b5 38 41 45 35 3b 9c c9 70 39
       0.00029572027 8.665648e-05 0.0027659687 0.00022963289
000170 d5 c0 88 bb 58 d1 63 3c 62 03 a8 ba 25 aa b7 39
       -0.004173378 0.013904892 -0.0012818391 0.00035031248
000180 80 ad 68 39 51 68 10 3b 1c 8e 13 b9 f8 e7 60 b9
       0.00022189878 0.0022034834 -0.00014071952 -0.0002144872
000190 0f 84 1c bb ac fe fb b7 6f 8f f3 b9 83 ab e8 b9
       -0.0023882424 -3.0040123e-05 -0.00046455438 -0.00044378274
0001a0 1a 62 65 39 fc c4 6b 38 b6 27 b4 38 65 59 d4 39
       0.00021875688 5.6211822e-05 8.5904656e-05 0.00040502395
0001b0 3b 51 1e 3b 88 ff fc bb 56 9d 84 b8 df d9 4f 3b
       0.0024157304 -0.0077208914 -6.3235566e-05 0.0031715555
0001c0 22 73 e5 b9 f1 38 1f 3b ba 27 08 b9 12 6d c3 3a
       -0.00043764064 0.0024295414 -0.0001298477 0.0014909825
0001d0 80 f3 5f 39 48 2f 6d 3b 5a 1e 12 b8 82 5c fc b8
       0.00021357648 0.0036191512 -3.483738e-05 -0.00012033527
0001e0 aa 4d b2 3a b3 f5 ba b9 40 06 e6 39 c7 ae 75 39
       0.0013603468 -0.00035659745 0.00043873675 0.0002343013
0001f0 aa 69 f8 3a 3b 5a 85 3a a3 35 35 3b b1 90 59 39
       0.0018952389 0.0010173986 0.0027650378 0.00020748634
000200 e9 4b cd b7 c7 31 3a 3b eb c0 0b 3a 15 5d 80 b8
       -2.4473253e-05 0.0028411017 0.0005331176 -6.1208535e-05
000210 e9 b8 04 38 4b 98 fe 37 64 7f c2 b7 7d d2 48 39
       3.1643463e-05 3.0350076e-05 -2.3185923e-05 0.000191519
000220 ea ca 20 b7 5b 0a d4 b9 02 b8 76 38 79 f0 bd 38
       -9.583988e-06 -0.00040443506 5.882234e-05 9.057014e-05
000230 3a c7 a5 38 35 e2 6a b8 c7 d2 7e b9 20 1b 30 37
       7.904922e-05 -5.600062e-05 -0.00024301848 1.0496733e-05
000240 a0 8f 5a b8 98 89 5e 3a 5e 8c 11 39 be 6c 9c 3a
       -5.210901e-05 0.0008489131 0.00013880568 0.0011934263
000250 1d f9 6e b6 fc 47 0b ba cb c1 39 38 91 c9 1e bb
       -3.5609767e-06 -0.00053131557 4.428792e-05 -0.002422903
000260 77 b0 32 39 db 02 b1 ba e4 69 ee 39 2a 38 cc 3a
       0.00017041141 -0.0013504879 0.00045473792 0.0015580703
000270 98 22 a9 bb 18 2f f2 b9 77 2f ee ba dd bf f4 b8
       -0.0051615946 -0.00046192924 -0.0018172105 -0.00011670564
000280 b0 61 a0 39 b3 1a 93 ba de af f5 37 f7 36 1c b9
       0.0003059036 -0.0011223167 2.928817e-05 -0.00014897795
000290 01 bb d9 b9 4f d3 d5 39 fc ed 2d 3c da d8 2f b8
       -0.00041528794 0.00040783963 0.010615822 -4.192521e-05
0002a0 6e 71 8c 38 ec b1 93 37 29 0b c7 ba 81 60 94 ba
       6.696848e-05 1.7606617e-05 -0.0015185821 -0.0011320264
0002b0 05 fa 4f b9 4a 13 7a 39 0f 83 ee 38 9a 86 9e b8
       -0.00019834198 0.00023849044 0.00011373136 -7.5590986e-05
0002c0 3b 68 a3 37 68 73 1f 39 ed c6 a2 b9 75 dc 30 ba
       1.947965e-05 0.00015206414 -0.0003104726 -0.0006746718
0002d0 9c 96 ba 3a 6a 8a aa 3a e4 43 ec b8 b5 46 d9 38
       0.0014235559 0.0013011221 -0.000112660025 0.000103605365
0002e0 62 52 22 b9 87 34 84 b9 88 1a 62 bc 19 ad 2f 3c
       -0.00015480214 -0.00025216138 -0.013800271 0.010722422
0002f0 b4 a7 f1 3a 2e aa 1f 39 92 2f d8 3a 8c 0b f6 b8
       0.001843682 0.00015226819 0.0016493669 -0.00011732345
000300 f0 c7 86 b8 cc 57 1c bc c5 fd b1 ba 73 c2 1e bb
       -6.426859e-05 -0.009542417 -0.0013579658 -0.0024224787
000310 8b a1 78 b8 d8 53 06 3c eb de 11 b8 80 2f 28 3b
       -5.9278256e-05 0.008198701 -3.4778303e-05 0.0025663078
000320 bd 88 9a b8 74 26 25 39 c8 b0 43 b9 93 58 a4 3a
       -7.368762e-05 0.00015749951 -0.00018662505 0.0012538604
000330 37 2e 65 b9 93 49 f0 b9 94 6e 05 b9 e5 e5 94 3a
       -0.00021856358 -0.00045831184 -0.00012725062 0.0011360018
000340 b5 cb 24 39 3f c8 81 38 ab 90 7c b9 4e 23 38 3c
       0.00015716146 6.188498e-05 -0.00024086486 0.011238886
000350 ba be 22 3b 83 2a 27 bb 6c 4a 1e 3a ec e1 5b 38
       0.002483292 -0.0025507517 0.00060383114 5.2424075e-05
000360 74 d6 ab 38 35 b3 cc bb 46 d7 91 38 71 b8 8c b8
       8.1938604e-05 -0.006246949 6.9542366e-05 -6.710075e-05
000370 4c b2 50 37 fb 20 5d 38 1a 49 bc 39 2d 05 45 39
       1.2439279e-05 5.272122e-05 0.0003591262 0.00018789312
000380 dd 6a 8f 38 c6 57 90 39 c4 a8 80 b6 a0 39 df 3a
       6.838676e-05 0.00027531217 -3.834344e-06 0.0017030723
000390 e7 ac 98 36 cc 2e 9d b7 3b 57 98 b8 ee 2a 2e b9
       4.5500815e-06 -1.873765e-05 -7.264173e-05 -0.00016609926
0003a0 78 19 0b 3b 1e fc d7 3a 61 68 29 b8 5d 05 ac 38
       0.0021224897 0.0016478335 -4.038995e-05 8.202598e-05
0003b0 c7 be 2e b9 dd dc d8 39 c5 0f 37 bc dd 44 f9 b8
       -0.00016665003 0.00041363286 -0.011173193 -0.00011886072
0003c0 87 29 77 ba 0b 3a 1f b8 85 76 e5 3a 50 5e bf 38
       -0.00094284903 -3.796261e-05 0.0017506635 9.125157e-05
0003d0 f0 42 dc 3a 70 14 f8 3a d7 02 a4 38 a2 9d fe b7
       0.0016804617 0.0018926989 7.820658e-05 -3.0352563e-05
0003e0 6f 1e d3 37 18 00 02 b9 8d 6b eb 3b 23 ca 65 ba
       2.5167332e-05 -0.00012397801 0.007184452 -0.00087657775
0003f0 e5 25 3d b8 17 f7 8a b9 1f 9b 91 3a a8 b7 81 b8
       -4.5096403e-05 -0.00026505507 0.0011108852 -6.185408e-05

bias f4 [32]
000000 18 82 b7 b9 3b de 87 b6 12 18 98 39 24 a5 36 38
       -0.00035001407 -4.0491846e-06 0.00029009633 4.354598e-05
000010 98 e2 7f b8 ad 4c 16 39 06 a9 ee 39 9f 76 34 39
       -6.100777e-05 0.00014333679 0.0004552083 0.00017210327
000020 86 31 97 b8 57 a8 24 39 0d 3d c5 b9 be d3 ee b9
       -7.2094655e-05 0.0001570297 -0.00037620254 -0.00045552658
000030 17 f4 1f 39 e5 ef 8e 37 85 70 a2 b8 75 ea 9a 38
       0.00015254352 1.7039429e-05 -7.74572e-05 7.386963e-05
000040 71 82 4e b9 1b 0e 50 b5 83 42 1c b8 d8 e5 f4 38
       -0.00019694284 -7.7506564e-07 -3.7255242e-05 0.000116776384
000050 d5 bc 2e b8 a0 89 44 b6 27 13 f7 b8 53 14 36 b9
       -4.1660696e-05 -2.9286384e-06 -0.00011781445 -0.00017364444
000060 82 28 25 38 8a b9 df 39 35 b6 26 37 df 20 77 b8
       3.937679e-05 0.00042672112 9.936794e-06 -5.8920003e-05
000070 28 f7 98 b5 6a 46 da 37 3d d6 43 b9 bf 7d 86 37
       -1.1396814e-06 2.6020414e-05 -0.00018676459 1.60326e-05

weight f4 [10, 32]
000000 d9 64 2a bb 08 60 d7 3c d0 0c 87 b8 dd 9d 60 bc
       -0.0026000051 0.026290908 -6.439688e-05 -0.013709513
000010 59 5b a8 3d 10 c8 5d b8 92 f4 a6 3c 22 60 a8 bc
       0.08220548 -5.287683e-05 0.020380292 -0.020553652
000020 af e6 9c bd 59 4d a7 bd 44 01 ec ba 23 ad 83 3d
       -0.07661187 -0.0816905 -0.0018005748 0.064295076
000030 cc 11 9d 3d 20 79 4d 39 38 a5 68 3b 3d a8 81 bd
       0.0766941 0.00019595446 0.0035498869 -0.06330917
000040 fc f6 7a bb ca 74 c4 b8 c4 a8 ae bd 2c 6c d8 bd
       -0.0038294187 -9.367762e-05 -0.08528283 -0.10567507
000050 a1 06 50 bd a6 27 25 3b 86 a4 9c 3b 93 b2 a3 39
       -0.05078757 0.0025200634 0.004780355 0.0003122283
000060 ca 46 f3 3c 17 86 89 bd 6b 2f 00 bd 0b 96 d8 39
       0.02969684 -0.06715029 -0.03129522 0.0004131052
000070 98 81 96 3d 5d 7c 98 39 9b c2 87 bd 09 d9 2f 3d
       0.07348937 0.00029084357 -0.06628915 0.04293159
000080 1e 72 f3 bc d6 87 89 3d b8 de cb 3b 6e 3a ac 3c
       -0.029717501 0.06715362 0.0062216185 0.021023955
000090 ef 91 bb 3d 30 3e 28 3b 4c bb ae bd 6b d4 09 3d
       0.09158694 0.0025671832 -0.08531818 0.033649843
0000a0 83 d4 cd 3d ab f4 c3 bb 5e b8 3e 3d 96 e2 c5 3d
       0.10050299 -0.0059800944 0.046562545 0.096623585
0000b0 63 33 18 bc 39 11 5f 38 08 94 a1 3a 43 80 db 3d
       -0.009289595 5.3183383e-05 0.0012327442 0.10717823
0000c0 ae 20 46 3c c2 56 2c 3d 17 ca b6 bd 9a 0b 08 bd
       0.012092752 0.042074926 -0.08925264 -0.03321419
0000d0 d7 df 51 bd c7 34 b7 b8 ff c8 ed bc dc c7 b8 3c
       -0.05123886 -8.7359505e-05 -0.029026506 0.022556238
0000e0 d6 cb 89 3c 97 66 47 bc 96 60 13 36 e8 cd 3c bd
       0.01682083 -0.012170455 2.1960927e-06 -0.046094805
0000f0 52 ee d0 3b 33 4b 9b 39 1f ef 3a 3d d2 cc f9 3b
       0.0063760662 0.00029619932 0.0456382 0.0076232934
000100 32 47 58 3a e2 7e e9 3c ad cf 5b 3d d9 1e f8 ba
       0.0008250355 0.028502885 0.053664852 -0.0018930092
000110 d9 7f cd 3d 7c 83 e4 bc 74 22 a4 3a e3 12 0b bb
       0.10034151 -0.027894728 0.0012522475 -0.0021220974
000120 8c 0c 65 3d 7a fe a3 bd 8d d6 55 3c 3a d2 a5 bd
       0.05592017 -0.08007522 0.013051641 -0.08096738
000130 40 28 cb bc ed 6e 0a ba 99 77 f7 bb 16 ed 20 bd
       -0.024799466 -0.00052808115 -0.007552099 -0.039288603
000140 4c b4 72 bd 44 ee 89 bd e1 7c 15 bc a7 1e b9 3d
       -0.059253976 -0.06734899 -0.009124012 0.090390496
000150 0c 6a 9e b9 9d ca 23 bd f9 60 9b bc e3 ac 8d bd
       -0.0003021512 -0.03998815 -0.018967139 -0.06917741
000160 8c 12 eb 37 04 01 b4 3d 2c c4 b0 bd d8 78 9a 3c
       2.802282e-05 0.08789256 -0.08631167 0.01885645
000170 11 a0 99 3d 3d c8 33 3d 79 64 de bc 5a d1 77 b7
       0.07501233 0.043892134 -0.027147518 -1.4771091e-05
000180 2a f0 c1 3c 57 20 91 bd 86 a5 52 3d 51 1d fa b9
       0.02367409 -0.070862465 0.051427387 -0.00047705558
000190 b0 06 b6 bd 98 5f e4 39 97 9d dd 38 b5 f5 d7 bc
       -0.08887994 0.00043558772 0.000105674546 -0.02636228
0001a0 2d 57 98 bc b1 7b 17 39 c3 b8 e1 3a 78 2d ef 3c
       -0.018596256 0.00014446561 0.0017221201 0.029196486
0001b0 cc c3 f0 bd ff 1c 5a b7 5a 1d e5 3a b0 4a 9c 3d
       -0.11756095 -1.3000564e-05 0.0017480061 0.07631433
0001c0 72 ea 85 3c c4 64 1a 3d 60 a3 5e 3c ca 19 0b bb
       0.016347144 0.037693754 0.013588756 -0.0021225088
0001d0 3a 3b b4 bc c7 fd 21 bc 96 33 9c 3c d9 a1 d1 bb
       -0.022000898 -0.009887165 0.019067567 -0.0063974676
0001e0 90 ba 98 3d 63 8b 83 bd 0e a7 2d 3d 66 43 03 3d
       0.07457459 -0.0642307 0.042395644 0.032046698
0001f0 e8 73 82 3d 05 7c 5a 3d d3 68 ce bc 69 48 c5 3c
       0.063697636 0.05334093 -0.025196468 0.02408238
000200 3f 77 b9 bd 3e 40 3c bd 97 62 ff b9 87 b5 b8 3d
       -0.090559475 -0.045959704 -0.00048710845 0.090189986
000210 f6 00 35 bc 08 98 65 bd bf 2b 91 bd 00 ca 07 ba
       -0.011047592 -0.05605319 -0.07088422 -0.00051799417
000220 19 ea 96 bb db cd c5 b9 19 01 b9 ba 5c f9 c3 3c
       -0.0046055433 -0.00037728142 -0.0014114707 0.023922615
000230 16 4c 2a bb 25 7f 8d 39 a6 a7 14 3d f8 67 b1 bd
       -0.0025985292 0.00026988346 0.036292695 -0.086624086
000240 18 89 d1 bc 4e 42 01 ba 7c 6c af bc 89 8e ef ba
       -0.025578067 -0.00049308396 -0.021414034 -0.0018276732
000250 06 af 18 bc 39 9c 19 3d b0 53 f1 3d 04 7d b6 3d
       -0.009319073 0.0375025 0.1178354 0.089105636
000260 5f b4 f8 b9 f3 72 9e bd 9a 31 8e bc 1f 07 2a bc
       -0.00047436633 -0.077367686 -0.017357636 -0.010377674
000270 28 10 5b bc b6 37 83 bc 7d b7 07 3d 3f b2 a5 bd
       -0.013370551 -0.016017776 0.033133972 -0.08090638
000280 f5 db fa b8 64 fb 44 3d d7 e0 61 bd 75 86 86 ba
       -0.00011961899 0.048091307 -0.055146065 -0.001026346
000290 df e3 1e 3d e1 11 d3 ba 2f 58 3a bc 11 6b 02 3d
       0.038791534 -0.0016103351 -0.011373564 0.031840388
0002a0 de c5 2e bd 61 3f b2 3d 4c fd 90 3d bc bd 31 ba
       -0.04266917 0.08703495 0.070795625 -0.0006780287
0002b0 10 4c b9 3a 48 8f 79 bc f2 1b 8d 3a f7 3d 7e bd
       0.0014137048 -0.015231915 0.0010765775 -0.062070813
0002c0 68 94 57 39 da 4e 63 3d 9f a5 34 3c 7a 55 8f 3d
       0.00020559283 0.05549512 0.011025815 0.06998725
0002d0 5a 96 0f 3d 00 8a a7 3d 9d f3 04 3c 37 9e 45 bd
       0.035055496 0.08180618 0.008114723 -0.04824659
0002e0 6d 9e 93 bd ca 62 5b 3d de 02 7b 3d 40 d9 ad 3d
       -0.07207952 0.05356101 0.06128203 0.08488703
0002f0 3e 37 68 bd 2e d4 96 3d 62 43 36 bb 98 f8 eb b9
       -0.056693308 0.07364689 -0.002781116 -0.0004500791
000300 60 e4 3f 3d 0d fd 89 bd 44 d2 aa bd 03 0c 9c 3d
       0.046848655 -0.06737719 -0.08340886 0.076194786
000310 6c dd d5 bd f0 89 4d 3c 58 0b d2 3c 7d c5 a4 3d
       -0.104426235 0.012545094 0.025640175 0.080454804
000320 e1 cb bb 3b 59 52 e7 39 a4 e6 9e b9 a2 bb 6a 3b
       0.0057310914 0.00044121107 -0.0003030795 0.0035817404
000330 a7 2e f6 bd aa cd aa b9 5e 4a 06 bd 8b af be 3d
       -0.12020617 -0.00032578158 -0.032785766 0.09310826
000340 84 c9 b2 bc b4 91 94 39 b5 7f 9d bd 75 63 01 3e
       -0.021824606 0.00028337317 -0.07690374 0.12635596
000350 c9 7c f8 3c bc c9 8b 3d ab 8d 93 3d eb 5c 68 bd
       0.03033294 0.06825587 0.072047554 -0.05672924
000360 88 72 a1 3d 30 a6 7d 3b 74 91 9a 3d 4e df a0 39
       0.07883173 0.0038703792 0.07547274 0.00030683953
000370 4e 0d ab 3d 9f 43 a9 bb ad 92 2e 3c 21 c8 3c ba
       0.08352147 -0.0051655318 0.010655087 -0.00072014524
000380 14 7a 6a bd cd 60 7d 3d 97 4d b7 bc 30 a8 41 bd
       -0.05724533 0.061859895 -0.022375865 -0.047279537
000390 68 af ab 3d 5f 24 98 bd 27 89 c4 3a 4d 06 a2 3d
       0.083830655 -0.07428812 0.0014994488 0.07911358
0003a0 75 ff 41 bb e2 2c a1 bd 16 7c 6c bd 7a a0 40 ba
       -0.0029601727 -0.07869889 -0.057735525 -0.00073481316
0003b0 20 10 0c bc 99 9d 22 3d 99 1d 84 3d c0 8c 72 bd
       -0.008548766 0.039701078 0.06450958 -0.05921626
0003c0 e8 28 7b ba 05 69 5a bd 88 bf fa 3b e1 00 a9 3d
       -0.00095809856 -0.05332281 0.007652227 0.08252121
0003d0 88 26 61 bb 8b 36 bb ba ff 43 53 ba 01 c4 95 bd
       -0.0034355242 -0.0014283223 -0.00080591434 -0.073127754
0003e0 5b 96 aa 3d 56 a0 07 3c 09 04 b0 3d 57 34 88 bd
       0.08329459 0.008277973 0.0859452 -0.06650608
0003f0 be d9 b7 bc 92 5e 9f 39 9f 5a 5c 3b 2a e7 5d 39
       -0.022442695 0.00030397304 0.003362335 0.00021162318

bias f4 [10]
000000 7a 6e 71 bd a8 9d b1 bb f0 2f 8e bd 8b 5c 73 3c
       -0.05894325 -0.0054204054 -0.06942737 0.014853607
000010 41 84 a6 38 4a dc 89 bb e9 d1 87 3d 2e aa d4 b8
       7.940131e-05 -0.0042071687 0.06631834 -0.00010140646
000020 28 0d ee b8 7c e6 af bc
       -0.00011351175 -0.021472208

bias f4 [64]
000000 02 32 3e b6 70 07 1c b7 f9 eb 3c 36 58 09 9d b6
       -2.8341315e-06 -9.300056e-06 2.8151537e-06 -4.6800524e-06
000010 6a e3 8c b5 5d 07 a0 35 10 85 7a 35 72 8f f1 36
       -1.0496999e-06 1.1923072e-06 9.332589e-07 7.199059e-06
000020 38 26 c5 b6 d4 e8 c5 36 14 82 5f 37 39 eb 2f b5
       -5.8755068e-06 5.8981623e-06 1.3322122e-05 -6.5534874e-07
000030 05 80 06 37 5c 69 50 b6 b3 b1 94 36 dc 22 dd b6
       8.016829e-06 -3.1055743e-06 4.4314306e-06 -6.5903714e-06
000040 0d 63 ab b6 64 db 35 36 a1 f9 38 b7 8c 21 21 37
       -5.107728e-06 2.7098804e-06 -1.1025376e-05 9.604159e-06
000050 33 96 04 37 ff 0d c0 b6 f2 76 84 36 1f 3e 16 b7
       7.902784e-06 -5.7236753e-06 3.9477536e-06 -8.95516e-06
000060 23 d2 49 b7 33 5f 67 36 34 31 05 37 f2 7c 7c b7
       -1.202946e-05 3.4477096e-06 7.938874e-06 -1.5049462e-05
000070 f8 4c 24 37 d0 2a d8 b6 5e 48 9b 36 90 d6 74 37
       9.793082e-06 -6.4422857e-06 4.6277846e-06 1.459349e-05
000080 91 02 5f b4 db 11 ae 36 1a e7 28 36 6f 2d 03 b6
       -2.0769427e-07 5.1876827e-06 2.516847e-06 -1.9546967e-06
000090 72 09 bf b6 ef c1 a5 b6 54 7b d8 b6 4e 66 07 b7
       -5.693343e-06 -4.93996e-06 -6.451659e-06 -8.070447e-06
0000a0 b8 6b cb b6 05 5c 8a 36 6b 04 a0 b6 4f ae 30 b6
       -6.0624116e-06 4.123433e-06 -4.768886e-06 -2.6327505e-06
0000b0 1b 4a 2d 37 e5 26 f3 35 16 0d d6 35 18 d7 00 b2
       1.0328858e-05 1.8116231e-06 1.5948051e-06 -7.499487e-09
0000c0 f3 12 ec 36 59 43 64 b5 39 10 a1 b6 82 b7 2f 37
       7.035554e-06 -8.503462e-07 -4.8000625e-06 1.0473539e-05
0000d0 69 85 1b b6 d7 c2 d5 b6 ec 79 53 b6 06 cf d0 36
       -2.3174455e-06 -6.370577e-06 -3.1512418e-06 6.2229838e-06
0000e0 03 0b 9c b6 68 21 0f 37 c4 4c bf b6 e6 87 85 b7
       -4.650444e-06 8.531242e-06 -5.7011803e-06 -1.5918118e-05
0000f0 2f 99 5a 37 80 3f 6c 36 1f f8 01 37 89 f5 94 36
       1.3029478e-05 3.5203702e-06 7.746769e-06 4.4393278e-06

weight f4 [64, 1]
000000 a7 93 0c 3e 8d b7 d7 3d ad 05 ee 39 27 c2 60 3d
       0.137282 0.105330564 0.00045399126 0.054872658
000010 79 13 6e bd 40 ee 1d be b1 af f2 39 b4 16 b8 bd
       -0.05812404 -0.15422916 0.00046288737 -0.08988705
000020 1a 92 41 3e be b4 1d be ce f0 41 3e 6e 74 a2 39
       0.1890339 -0.15400979 0.18939516 0.00030985795
000030 23 34 ac 38 ec 03 2f 3e 46 86 60 bd 30 f0 00 bd
       8.21131e-05 0.1709134 -0.054815553 -0.03147906
000040 a0 85 2c 3d 58 81 f7 bb dc 5e b3 b8 51 ed ce 3d
       0.042119622 -0.007553261 -8.553054e-05 0.10103858
000050 1a 68 25 38 83 95 ec 3d bb 1e 46 bd 26 22 25 3d
       3.9436018e-05 0.115519546 -0.04836915 0.04031577
000060 65 5c 2d 39 6b 86 10 be a7 35 25 b9 68 0b 15 3d
       0.00016532985 -0.14113776 -0.00015755613 0.03638783
000070 0f 84 c6 bd 53 5f 28 3e d3 2b a7 bd 93 04 9e 3d
       -0.09693157 0.16442613 -0.08162656 0.07715716
000080 56 36 15 39 62 7d b2 bd b6 fd 0b 3e 0c 2e 83 bb
       0.00014229989 -0.08715321 0.13671002 -0.004003292
000090 60 36 f4 39 0e 51 5c bc 52 99 53 be c9 28 b8 3d
       0.0004657982 -0.013447059 -0.20663956 0.08992154
0000a0 cd 18 56 bd 61 1e bd 3d 1d 90 6e 3d af 3d 9c 3d
       -0.052269746 0.0923431 0.058242906 0.07628953
0000b0 fb 8b e7 3c 8d 5a a7 3c 95 b6 26 be 5c d3 88 b8
       0.02826499 0.02042892 -0.16280587 -6.524354e-05
0000c0 70 a4 2c bd ea a9 0c 3e f4 07 11 3d 73 9e 06 b8
       -0.042149007 0.13736692 0.035407975 -3.2095657e-05
0000d0 32 8b 39 be f6 a0 3d be 07 d0 24 be c3 b8 f7 3d
       -0.18119505 -0.18518433 -0.16094981 0.120957874
0000e0 6e 68 cc 3d 0e 99 33 be 1f 03 2c be 0a 88 23 3e
       0.09980856 -0.17538854 -0.16798066 0.15969864
0000f0 8c c5 21 3d c9 f9 ce bd c8 0c e6 b8 be 0b c7 3d
       0.039495036 -0.101062365 -0.00010969635 0.097190365

bias f4 [64]
000000 f9 76 d0 36 1d b0 80 b6 7c 60 86 37 d4 ca f2 b6
       6.2127333e-06 -3.8351995e-06 1.6018974e-05 -7.2357743e-06
000010 4d b1 d9 36 9c c1 3a 37 fb 3d 06 36 c0 e6 89 b6
       6.4877445e-06 1.1131542e-05 2.0003633e-06 -4.109781e-06
000020 db 6f 6c 37 d2 2a 5f b6 f5 ef 5f b7 01 ef 0a b7
       1.409274e-05 -3.3254514e-06 -1.3347705e-05 -8.281088e-06
000030 bd 9d 1d b7 91 82 0d b7 f0 87 99 b6 2d 0a bb b6
       -9.3946555e-06 -8.434655e-06 -4.5755805e-06 -5.574219e-06
000040 28 af 34 37 b4 3a e9 b6 d9 73 da 36 9c 03 6f 35
       1.0769618e-05 -6.950775e-06 6.5103927e-06 8.903969e-07
000050 d6 ca 0b b7 bd 67 20 37 7b ac 03 36 35 ec 12 37
       -8.332272e-06 9.560897e-06 1.9620918e-06 8.757274e-06
000060 c5 88 bc 36 97 37 22 b7 6a 5c 9b b6 5b 69 94 35
       5.6187587e-06 -9.6688955e-06 -4.6301184e-06 1.1057522e-06
000070 ad 85 07 37 43 8d 97 b6 c6 ae 62 b6 b6 a7 e1 33
       8.077751e-06 -4.5165957e-06 -3.3778356e-06 1.05078854e-07
000080 c7 7c 29 b7 0b f6 b1 b6 1f c5 75 36 06 3b 18 b7
       -1.0102237e-05 -5.3036542e-06 3.6622585e-06 -9.0736485e-06
000090 8c b0 68 37 84 6a 10 b7 54 dc fa 36 24 7b 02 37
       1.3869383e-05 -8.607869e-06 7.47623e-06 7.777275e-06
0000a0 f1 d0 60 37 bd dd d6 36 79 93 3a b7 33 7a af 37
       1.3400088e-05 6.4035107e-06 -1.11208e-05 2.091853e-05
0000b0 b6 4b 7d b7 03 0e 5b b3 7d 9d 6d 36 ed 06 d2 34
       -1.5097603e-05 -5.1002655e-08 3.5407422e-06 3.9120587e-07
0000c0 71 9d 31 37 26 39 c5 36 d2 15 78 36 e0 d3 94 b6
       1.0586679e-05 5.8777105e-06 3.696758e-06 -4.435409e-06
0000d0 3f 85 5e 37 be c4 7e b4 80 cf 34 b6 9f 35 77 37
       1.3263255e-05 -2.3727168e-07 -2.694287e-06 1.4734832e-05
0000e0 a2 29 61 b6 85 68 6b b7 dd 43 58 37 6d ec da b6
       -3.3551846e-06 -1.4031427e-05 1.2890404e-05 -6.52443e-06
0000f0 ae f3 18 b7 56 c0 a8 36 6c dc 2a 36 ea a3 4b 37
       -9.116642e-06 5.029181e-06 2.5460276e-06 1.2137907e-05

weight f4 [64, 64]
000000 f4 20 84 3c 2a dd 04 37 ba ac f9 3d 30 b2 45 39
       0.016128995 7.919307e-06 0.12191148 0.00018853764
000010 e9 12 ba 3c 86 76 f3 bd f5 d7 4d b9 ab ab e5 b8
       0.022714095 -0.11887841 -0.00019630774 -0.000109515466
000020 35 47 b3 3d 93 3b 0f 3d 8f 68 f3 3d 65 e5 ac 38
       0.08753816 0.034968924 0.11885177 8.244327e-05
000030 4c 74 9c bb 1d e5 27 b8 2b 5b 6b 37 56 64 1a 3b
       -0.004774606 -4.002928e-05 1.4028318e-05 0.002355834
000040 e1 06 7e b9 40 70 a4 bc 59 5e 90 3c 33 40 d3 b8
       -0.0002422589 -0.020073056 0.017623113 -0.00010073222
000050 35 e7 87 bd cf e4 df 37 dc 3d 87 bd 8b 7e 2d b7
       -0.06635896 2.6690219e-05 -0.066035956 -1.0341067e-05
000060 b5 78 63 3a 79 30 ff bd 71 e3 83 3d 6c 82 a9 bc
       0.00086773495 -0.12460417 0.064398654 -0.020692073
000070 56 01 14 39 fe 36 d9 39 55 b9 a2 3d 68 21 49 bd
       0.00014114878 0.00041430438 0.079455055 -0.049104124
000080 ab 75 fa bd 75 ba dd bd e9 7f ab 3c 78 04 ef bb
       -0.12229475 -0.108265795 0.020935016 -0.007294234
000090 8f f8 4b 39 87 ba d1 3c b0 f0 5f 37 86 97 fd 3d
       0.00019452184 0.025601638 1.3347875e-05 0.123824164
0000a0 0e 17 58 3c b5 63 ed bd d6 0b a8 bd f0 fc d4 bd
       0.01318909 -0.11591283 -0.082053825 -0.103998065
0000b0 dc cb 78 bd 07 1c 26 39 2d b4 20 bc 50 69 e8 bd
       -0.06074129 0.00015841435 -0.009808582 -0.11348212
0000c0 73 7f 7f 3c 1c 6f 87 b9 ad 17 17 b9 94 7f 37 3c
       0.015594351 -0.0002583199 -0.00014409302 0.011199851
0000d0 78 9f 3a ba c7 ea 16 38 96 0a 87 bc ca 01 0a 3d
       -0.00071190996 3.598144e-05 -0.01648454 0.033693112
0000e0 d8 2c a8 3d c4 08 61 b9 18 a6 af 3d 36 38 a9 3b
       0.08211678 -0.00021460938 0.08576602 0.0051641716
0000f0 21 10 a7 ba 33 7d 94 3d 5e 81 c0 b9 a1 9a d6 b9
       -0.0012745896 0.07250442 -0.0003671748 -0.00040932468
000100 c5 88 e5 b8 47 36 b1 3d c4 42 57 bd 8b df 16 bc
       -0.00010945046 0.08652931 -0.052553907 -0.00920857
000110 f7 92 44 bd 3f 41 67 bd a5 e5 fa 3c 52 f1 9d bc
       -0.04799172 -0.056458708 0.030627081 -0.01928011
000120 ae 95 3c 39 3d 2d bc 3d 6d d4 00 3d 3b 37 7c 35
       0.00017984837 0.09188316 0.031452585 9.3957686e-07
000130 33 11 b2 3d ee 02 ea bb 01 2b b0 3d 36 fc dd 3d
       0.08694687 -0.0071414625 0.08601952 0.10839121
000140 5f cd f3 bd 6a 29 38 3c d4 21 80 3c 98 5f 52 3b
       -0.11904406 0.011240343 0.01564113 0.0032100435
000150 7b 88 c3 3d 5b 76 de 3d c6 e2 d3 b8 8a 69 8b 38
       0.09547516 0.10862418 -0.00010103504 6.647695e-05
000160 f1 71 89 bb d7 a7 ba bd f2 8f 04 38 21 1d 13 3b
       -0.004194491 -0.09114044 3.1605312e-05 0.0022447782
000170 f3 dc e8 bb e0 ec a8 3c 59 ae cd bd 68 25 64 bd
       -0.0071064173 0.020620763 -0.1004302 -0.055699736
000180 a5 43 6e bd 31 e4 fa b6 9d 61 5a 3d 02 0b 10 3d
       -0.05816998 -7.4771456e-06 0.053315748 0.035166748
000190 df 3a aa 3d e9 6d dc 3d f0 ac ae bd 8e 69 52 3b
       0.0831201 0.10763151 -0.08529079 0.0032106373
0001a0 d6 88 21 bd 8f 0c 95 bd 10 9f e2 3d 1a f7 b8 bd
       -0.039437138 -0.07277786 0.11065495 -0.09031506
0001b0 b9 a2 cc bd 63 c5 a7 bd 5b c8 51 3d aa 44 9a bd
       -0.099919744 -0.081919454 0.051216464 -0.07532628
0001c0 af 7e 5a 3c d2 c1 a0 bd 7b 44 7d 39 62 8d 87 3c
       0.013335868 -0.07849468 0.00024153471 0.016546909
0001d0 e4 06 94 bd 92 4c ef 37 36 db 7d bd 78 19 d0 3d
       -0.07227877 2.8526676e-05 -0.061976634 0.10161108
0001e0 eb 0a e8 39 e0 b1 91 bd 36 5d b4 39 02 68 1c 3c
       0.00044258623 -0.07114005 0.00034401723 0.009546282
0001f0 cd b1 95 bd 07 a1 95 3d db 26 ff 38 ca 62 b6 bd
       -0.073093034 0.07306104 0.00012166585 -0.08905561
000200 6e 35 6e 3d 0c cf 77 3b b2 5d 08 3d 69 0a c8 38
       0.058156423 0.0037812619 0.03329248 9.538682e-05
000210 46 4b ff bc e6 23 05 bd 8d 52 0b 3c 11 35 8c 3d
       -0.031163823 -0.03250494 0.008503568 0.06846059
000220 00 2d 97 3b 6a 00 e8 bc f9 d3 fa 3d be 94 4e 39
       0.0046135187 -0.02832051 0.12247462 0.00019701102
000230 30 a0 4f bd c7 44 18 3d be 80 11 3d c5 4a a9 39
       -0.050689876 0.037174966 0.03552317 0.000322899
000240 a7 46 ad bb af e2 41 bd ec 22 45 3d 32 12 f8 3d
       -0.0052879634 -0.047335323 0.048129007 0.121128455
000250 75 5f f3 b9 88 ab bb 3c d8 e8 35 3d 34 ec d3 3b
       -0.00046419693 0.02290894 0.04441151 0.0064673666
000260 7c 11 cc bd 6c f7 63 3d ba 1a b2 39 de bd e6 bd
       -0.099642724 0.05565588 0.00033970719 -0.11266683
000270 83 a9 82 bc ba aa 9f 39 8f eb 69 3d 6d aa f3 bd
       -0.01594997 0.00030454044 0.05710941 -0.118977405
000280 a0 ad 86 39 5a ab a9 bd a8 d9 85 3d cc 22 80 bd
       0.00025687832 -0.08284636 0.06535655 -0.06256637
000290 69 58 92 bd bd 0e c6 bb a1 85 d6 bb 84 a2 d7 b9
       -0.07145769 -0.0060442374 -0.0065466915 -0.0004112908
0002a0 12 01 ba bd 3f 6f 0a bd 2c a3 e3 39 c9 2a e5 3c
       -0.090822354 -0.0337975 0.00043418386 0.027974503
0002b0 ed 7d f3 b9 87 0d 97 3d c6 63 8e bc ff bf dc 39
       -0.00046442394 0.07375627 -0.01738156 0.00042104718
0002c0 a2 8d 15 3d 29 d3 d9 bb 14 87 e5 bd ba 55 de bd
       0.036512025 -0.0066474867 -0.11207405 -0.10856195
0002d0 7c 56 63 bd 22 e8 8f b9 1a 17 d4 bd 9a cb da 39
       -0.0555024 -0.00027448038 -0.10355969 0.00041731895
0002e0 e3 03 fe bd 07 64 81 bb f5 d7 09 bc fd ff e0 bd
       -0.12403085 -0.0039486918 -0.008413305 -0.10986326
0002f0 4c 6d c6 3d 27 26 a0 39 8d 10 c2 bc 7e 27 ef 3d
       0.096888155 0.00030546004 -0.023689533 0.116774544
000300 6e 30 ba 3d 7c 7e cc 37 76 d4 86 38 6f c8 9f 3d
       0.090912685 2.4377594e-05 6.429192e-05 0.078019015
000310 cb e3 a5 b8 13 04 f0 b8 9a 5d ef 38 f9 a2 57 3b
       -7.910243e-05 -0.00011444851 0.00011413843 0.0032903536
000320 e1 24 0f 3d 60 2d cb 3d d7 70 69 bd a5 c6 de 37
       0.03494728 0.09920764 -0.056992378 2.6556963e-05
000330 9c 37 d1 b9 3f a6 30 3c aa 8a 41 3d 62 df 45 3d
       -0.0003990502 0.010781824 0.04725138 0.048308738
000340 99 94 f1 bd 18 1b cb 3b 21 fd e3 35 ac 22 db 37
       -0.11795921 0.006198298 1.6986488e-06 2.612298e-05
000350 92 24 c8 bd 54 91 98 3d 31 5c c6 3b 79 30 c4 bd
       -0.097726 0.07449594 0.0060534705 -0.09579558
000360 ae 73 ba 3d 1f 79 a5 3d 20 b8 d4 bd f0 a6 14 bb
       0.091040954 0.08079743 -0.103866816 -0.002268251
000370 90 b1 f3 bd 59 df fe b7 7c eb 63 33 4b ca f1 bd
       -0.11899102 -3.0383164e-05 5.3066728e-08 -0.118061624
000380 ff 03 48 bd f1 7a a4 b8 fd 74 fc 3d 90 ec 3b 3d
       -0.048831936 -7.843029e-05 0.12327001 0.0458799
000390 c6 b5 e8 3d 43 24 8c 37 77 66 b4 bd 81 29 f2 3c
       0.113627955 1.6706186e-05 -0.08808606 0.029560806
0003a0 5d 8e f1 39 38 d2 31 39 f6 83 f8 3d bc 9c 30 bd
       0.0004607317 0.00016958348 0.121345446 -0.043118224
0003b0 49 ff 5b 37 c3 5f db bd c1 ca ae bb 6a be 93 38
       1.3112855e-05 -0.107116245 -0.0053342287 7.0449736e-05
0003c0 a9 40 d2 b7 30 5a ad 3d 74 52 f1 3d 80 65 b6 3d
       -2.506406e-05 0.084644675 0.11783305 0.08906078
0003d0 de 4f c2 b8 71 44 a2 3d 04 0e 12 bc bf 56 24 bc
       -9.265517e-05 0.079232104 -0.008914474 -0.0100304475
0003e0 6c 5c e3 bb 4a 0e 38 bd be 90 3e ba e5 45 0a b8
       -0.006938508 -0.044935502 -0.0007269493 -3.296686e-05
0003f0 d1 75 07 bd b8 93 b8 b9 40 87 90 3b 76 73 39 bd
       -0.033071343 -0.00035205274 0.0044106543 -0.045276128

bias f4 [10]
000000 42 bd 9c 36 10 36 3c 37 eb e8 4e 37 67 cb 49 36
       4.671195e-06 1.1218261e-05 1.2332787e-05 3.006973e-06
000010 82 54 b3 37 87 95 02 b6 b0 da 08 37 72 49 b2 36
       2.1377815e-05 -1.9458546e-06 8.157149e-06 5.3133635e-06
000020 aa 20 26 37 47 ba ac 37
       9.901976e-06 2.059074e-05
