ckpt/TC1-last.pt (torch, 140150 bytes, 17 tensors)

weight f4 [256, 7]
6.7903834e-06 -5.5029363e-05 2.8449514e-07 1.7283208e-10 -1.2765693e-06 6.210202e-06 -1.7404864e-09 4.9888904e-10
-1.7857557e-09 1.4838042e-12 2.5091504e-10 2.7965712e-06 -6.2656797e-13 -2.8218896e-15 7.747608e-07 -2.106291e-06
8.326138e-08 -1.6036925e-11 2.53986e-09 8.578271e-09 -5.339856e-10 3.0623164e-07 -0.0011161265 4.9018413e-06
1.299896e-07 9.3958164e-08 -1.1223057e-07 -1.0685996e-07 -2.1172581e-11 -4.2579337e-10 1.2155071e-11 2.2926395e-15
-1.7632813e-12 3.979569e-05 3.2106381e-13 2.0177715e-09 -4.5484305e-09 3.793916e-11 -4.172194e-07 9.856657e-12
4.730243e-12 -3.2830252e-13 6.3576766e-07 2.561389e-07 2.0797435e-08 3.537074e-11 1.4502503e-10 2.3401522e-10
6.962971e-08 -0.0002212285 -0.0044587865 1.5326104e-06 5.902771e-08 -3.758487e-06 -5.365191e-07 6.504281e-07
5.330252e-06 -3.7740756e-05 1.5073955e-06 5.2375393e-10 -4.3529454e-07 -3.5415755e-07 -2.603435e-08 -0.00036590287
-0.00078448793 -1.36796825e-05 1.1836804e-07 -2.5268448e-06 -6.816219e-08 -7.131868e-08 -9.0792845e-11 -1.1135798e-10
2.9913572e-13 1.6096073e-17 2.9495351e-13 3.8266526e-14 -2.3803093e-10 -9.759615e-10 -1.527073e-08 1.4006696e-11
-2.7061432e-14 -6.105598e-13 -1.5145982e-12 -1.4605098e-12 -5.920672e-10 -1.0953227e-09 -3.1371943e-12 -2.351864e-05
7.483438e-07 -3.749844e-13 -3.637943e-05 -7.5020597e-07 -1.5182562e-06 5.4784277e-08 -1.6558176e-12 -3.3804077e-09
-8.5168345e-10 0.00014218535 5.9138706e-08 -8.7557455e-06 -9.061979e-09 -2.8944351e-12 2.6573599e-09 -2.463514e-07
-8.415554e-10 1.0582559e-07 -1.4845524e-08 -3.840965e-10 -1.4876185e-05 -4.5803418e-08 -0.00012802405 -2.7797051e-11
-4.413027e-10 -2.1984722e-10 -2.4270922e-11 1.6479915e-15 3.0007867e-09 4.464007e-08 -1.0822691e-10 -4.633488e-06
-0.0002564726 1.7703424e-06 -1.8593138e-09 -9.366665e-09 -5.441039e-08 2.9467953e-08 2.1787684e-10 -9.083181e-11
-1.3265171e-12 2.4908552e-16 1.9816313e-09 -3.638454e-08 -4.8582977e-14 -4.847516e-10 -5.2414326e-09 -2.1019544e-11
2.3786828e-10 7.202521e-08 -8.427762e-09 -1.027818e-12 -6.182698e-08 -9.509206e-08 -4.8541754e-10 2.8537647e-10
4.5380987e-11 1.6625796e-09 3.034806e-14 9.661721e-07 -4.6580766e-07 1.0101802e-08 2.641717e-12 -7.3412876e-10
-2.3028077e-09 1.0453785e-10 1.713948e-06 -1.8859313e-06 1.0297056e-07 -2.2151274e-12 -4.687278e-09 1.837018e-05
5.8249034e-06 -6.992259e-07 -1.5699958e-06 -1.665768e-08 3.2576974e-10 -6.332181e-07 9.6378635e-06 -6.726833e-06
-0.0019513674 -0.002842317 2.5877055e-06 8.213388e-06 4.1789494e-07 -4.9976944e-07 8.159873e-08 -1.028242e-11
-4.2466622e-10 -4.1006625e-12 -4.891826e-16 8.643139e-14 -5.8517604e-09 -0.00012131328 -5.1353363e-11 -3.0171108e-09
-2.6121012e-11 1.9581557e-11 -3.4558095e-06 1.0872134e-07 -1.8339301e-13 -2.5943094e-09 -5.21541e-09 2.5354607e-10
2.2728081e-14 6.0935916e-05 3.505647e-12 -1.2935041e-13 4.188795e-05 -0.00011590775 -1.0009821e-06 2.897406e-06
1.9638692e-06 3.4963595e-08 3.8536965e-09 -0.0008537958 -0.00077605766 2.6682406e-08 9.1654535e-08 5.8250106e-07
-1.2056217e-06 -3.7680354e-07 1.1765064e-08 -2.100192e-08 3.8120003e-08 -1.6768634e-08 1.6300524e-09 -1.1079949e-05
-1.2422722e-11 -0.0005258644 0.028321214 -0.00046978146 -6.1035857e-06 -0.000109689936 -1.8079892e-05 -2.5396806e-05
-7.9125646e-05 -0.0007207775 -2.9165733e-06 2.435475e-07 -6.5343147e-07 -4.986767e-07 1.6194614e-05 -2.9743226e-09
-2.8210354e-09 -4.2891513e-11 7.465642e-16 6.3164144e-12 5.0614636e-07 -5.963403e-13 6.62912e-12 -1.1622214e-11
-5.6970745e-14 -3.0801892e-18 9.1537034e-10 -6.7929236e-08 1.089553e-14 3.0114753e-09 2.3410138e-09 9.848631e-11
8.592344e-06 1.0394967e-10 1.663384e-11 2.6187357e-05 -6.981447e-10 -2.0179365e-09 1.7492085e-12 2.1703225e-05
00000000: f3d8 e336 54cf 66b8 b7bc 9834 e807 3e2f
00000010: 9656 abb5 3b61 d036 ec35 efb0 3222 0930
00000020: b16e f5b0 aed3 d02b 27f1 892f baac 3b36
00000030: fb5c 30ab ad56 4ba7 28f9 4f35 ce59 0db6
00000040: 6dcd b233 f20f 8dad b189 2e31 a35f 1332
00000050: e5c7 12b0 2868 a434 fe4a 92ba 7f7a a436
00000060: 4593 0b34 0cc6 c933 6903 f1b3 e27a e5b3
00000070: 6a3c baad 1715 eaaf 93d5 552d bc33 2527
00000080: e728 f8ab 4cea 2638 2cbe b42a 03a9 0a31
00000090: 6b48 9cb1 b2db 262e 33fe dfb4 7066 2d2d
000000a0: 3e6e a62c 61d1 b8aa 9fa9 2a35 7683 8934
000000b0: 0ba6 b232 ea8f 1b2e eb74 1f2f b7a6 802f
000000c0: 5787 9533 93f9 67b9 031b 92bb 18b4 cd35
000000d0: a785 7d33 513a 7cb6 5005 10b5 1499 2e35
000000e0: 84da b236 d44b 1eb8 b751 ca35 e8f7 0f30
000000f0: 6db2 e9b4 0b23 beb4 24a2 dfb2 a7d6 bfb9
00000100: 18a6 4dba ca81 65b7 8531 fe33 dd92 29b6
00000110: 8f60 92b3 dc27 99b3 d4a7 c7ae f8e0 f4ae
00000120: 0066 a82a c775 9423 480b a62a 4d56 2c29
00000130: e0db 82af 9822 86b0 b12c 83b2 8d68 762d
00000140: 6abf f3a8 78db 2bab 2729 d5ab 698c cdab
00000150: 06bf 22b0 3e8a 96b0 abc2 5cac e549 c5b7
00000160: cbe1 4835 f318 d3aa 1e96 18b8 c361 49b5
00000170: e3c6 cbb5 f34b 6b33 1e09 e9ab c34c 68b1
00000180: e51b 6ab0 9717 1539 b2ff 7d33 a4e5 12b7
00000190: 01af 1bb2 82ad 4bac c59c 3631 4742 84b4
000001a0: 3253 67b0 3c42 e333 4e0b 7fb2 c728 d3af
000001b0: ba94 79b7 64b9 44b3 323e 06b9 6581 f4ad
000001c0: d59b f2af 7eb9 71af 427d d5ad 2880 ed26
000001d0: 6636 4e31 47ba 3f33 55fe edae 5c79 9bb6
000001e0: 2b77 86b9 809c ed35 ca8a ffb0 07eb 20b2
000001f0: dbb0 69b3 b720 fd32 e18e 6f2f c3bd c7ae
00000200: d1b0 baab 8996 8f25 3a2d 0831 3a45 1cb3
00000210: 5ccc 5aa9 5d3f 05b0 2118 b4b1 cee3 b8ad
00000220: fcc4 822f 47ac 9a33 b0c9 10b2 0ca7 90ab
00000230: bec5 84b3 6a35 ccb3 396e 05b0 2be3 9c2f
00000240: 7396 472e d280 e430 eeac 0829 6cad 8135
00000250: 1e14 fab4 328c 2d32 f1e4 392c b8cb 49b0
00000260: 6c3f 1eb1 94e1 e52e ce0a e635 1b20 fdb5
00000270: aa20 dd33 30e0 1bac bc0d a1b1 a919 9a37
00000280: 8a73 c336 70b2 3bb5 a5b8 d2b5 a016 8fb2
00000290: 0418 b32f 6bfa 29b5 4fb2 2137 0eb7 e1b6
000002a0: 06c5 ffba 2b46 3abb 71a8 2d36 3ccc 0937
000002b0: 0b5b e034 e527 06b5 603b af33 e7e3 34ad
000002c0: 7576 e9af 7c47 90ac 4eff 0ca6 4ea0 c229
000002d0: a110 c9b1 9269 feb8 bfda 61ae 9355 4fb1
000002e0: 4ac3 e5ad bf3d ac2d 5bea 67b6 307a e933
000002f0: 707b 4eaa 9347 32b1 3b33 b3b1 7063 8b2f
00000300: 63b7 cc28 7195 7f38 1fb0 762c b8a2 11aa
00000310: d8b0 2f38 8013 f3b8 7c59 86b5 0e71 4236
00000320: 04cb 0336 e12a 1633 7969 8431 44d1 5fba
00000330: 5970 4bba 3b33 e532 9dd3 c433 2b5d 1c35
00000340: d9d0 a1b5 7c4b cab4 4c1f 4a32 b667 b4b2
00000350: 63b9 2333 9e0a 90b2 5f08 e030 05e4 39b7
00000360: f78a 5aad 2ada 09ba e401 e83c 004d f6b9
00000370: 67cd ccb6 5609 e6b8 46aa 97b7 3a0b d5b7
00000380: 42f0 a5b8 8ff2 3cba 59ba 43b6 eac0 8234
00000390: 7867 2fb5 cddc 05b5 abd9 8737 d664 4cb1
000003a0: 2edc 41b1 8da3 3cae b72e 5726 343d de2c
000003b0: 1dde 0735 d9da 27ab ce3d e92c cc75 4cad
000003c0: 6649 80a9 2147 63a2 769d 7b30 7ee0 91b3
000003d0: c346 4428 6ff2 4e31 8ddf 2031 dd92 d82e
000003e0: d627 1037 7696 e42e 1450 922d ecac db37
000003f0: 91e7 3fb0 eaab 0ab1 e12d f62b 520f b637

bias f4 [256]
2.959967e-08 1.05418105e-11 3.1345587e-07 8.5780904e-08 4.9836814e-12 2.8203691e-11 2.8172591e-08 -3.5932924e-06
-1.3698641e-06 6.833368e-05 -2.2636741e-13 -1.8661902e-07 -6.088687e-13 -9.527727e-10 6.892875e-09 -2.2110799e-08
-2.2404367e-11 -7.612153e-08 6.085843e-14 -6.0738525e-11 -7.87966e-10 1.461307e-09 -3.1771634e-09 2.240433e-09
-2.671673e-06 7.92256e-11 -3.155683e-06 9.987271e-12 1.9623303e-06 -2.9058383e-06 2.5779426e-07 -0.0001108417
-5.331572e-07 5.430445e-07 1.6239827e-11 5.1577605e-12 -3.1084895e-13 -1.5997675e-07 3.7411056e-08 8.354851e-06
5.3640076e-10 -6.2372255e-06 4.5879296e-09 1.1283043e-08 -6.1662275e-13 -4.1965493e-09 1.406549e-05 -2.79712e-08
1.2647849e-06 -2.1986407e-05 6.187673e-07 -1.075714e-10 -8.680758e-05 -1.1937396e-07 -0.000109111585 2.1430377e-09
1.909213e-12 5.985981e-12 -5.0136123e-08 2.417849e-06 5.040157e-07 -4.467525e-06 3.6713897e-07 -0.00013965656
7.1214684e-10 2.7475907e-11 -7.49241e-07 8.837225e-09 3.3217003e-17 -1.3652096e-05 5.036839e-13 -2.2453488e-20
2.7047711e-11 7.10765e-12 -0.0002900743 2.4750773e-06 -3.7980342e-07 8.269948e-06 -5.3824506e-12 -3.5244077e-05
5.8565556e-06 3.1864093e-07 1.6700504e-05 -2.8591655e-14 -0.000116590134 4.5513064e-09 1.04335395e-05 -5.8951915e-08
9.577184e-11 -3.41618e-09 7.9956486e-08 -3.6237473e-08 1.6872193e-10 -1.1944658e-12 4.4450363e-08 -2.4386227e-12
2.0946703e-07 5.184901e-12 8.474789e-07 5.658662e-07 -2.2176093e-06 -1.2252249e-10 -2.6450084e-07 9.717384e-07
4.772971e-08 -7.218104e-09 -4.228133e-06 -1.3228271e-06 -5.4417626e-09 -9.337986e-08 -1.5099058e-05 -3.4470613e-06
-2.8778097e-06 -1.6933916e-08 9.481442e-10 0.00021802945 -1.4976299e-09 -1.5533801e-12 2.4000505e-07 9.7603745e-11
-1.5592551e-13 5.6323736e-16 1.8563563e-07 -1.1196272e-08 1.2649217e-07 -2.7332311e-10 -7.2141565e-06 -1.08955605e-11
-1.1784242e-07 5.2962426e-09 -1.8785701e-06 -6.996054e-08 -2.584453e-09 1.2490518e-10 -1.2717135e-07 0.00026372357
2.4937892e-05 -2.8282484e-06 -1.1759087e-10 9.1714924e-18 -8.117677e-06 -1.9497012e-10 1.8577063e-12 -1.8542779e-06
1.8957029e-06 3.3455776e-11 2.3827063e-09 -9.733742e-05 5.728921e-07 2.0226516e-06 -3.7058e-12 6.6663497e-06
1.33968e-09 -1.4590106e-06 1.1530851e-06 2.2159115e-11 3.2611792e-11 -2.9191287e-13 9.182948e-06 -9.415651e-06
6.753981e-13 4.338959e-08 -4.9712142e-08 -3.443238e-05 2.9859798e-08 2.2038441e-06 -5.522824e-11 6.9594797e-13
1.928478e-11 1.4005647e-07 -5.0314206e-08 1.6530652e-15 -4.7197473e-09 -2.6019226e-05 -3.5840605e-11 9.535405e-11
-1.7130272e-08 1.09655835e-11 -1.2815662e-09 3.9393053e-05 4.5192448e-07 -4.4923876e-08 0.00030871484 3.472851e-05
7.849118e-08 3.3095294e-08 -6.5844165e-06 1.5689524e-06 -1.4698824e-07 -3.1065013e-09 1.7891917e-07 1.5261897e-07
4.549846e-13 0.00013012614 -5.7174434e-06 3.207241e-08 1.4143352e-08 -4.0739433e-06 2.5277322e-10 1.0196752e-07
2.0446708e-15 -3.2055553e-11 -3.9870085e-09 -1.5499859e-13 -3.5642354e-06 1.20287975e-08 2.942834e-09 7.281918e-10
-3.263688e-10 -2.0024846e-08 -2.3334687e-06 2.8567985e-13 -5.0305484e-09 -5.2731953e-06 -2.082566e-09 4.892729e-09
-1.4159748e-11 -4.398826e-07 -5.7338124e-11 -4.760408e-06 -6.1806084e-08 4.0493205e-07 -3.5200806e-10 4.9130827e-10
-0.00023979103 -1.6382187e-09 1.0036338e-09 1.4410746e-09 -1.894564e-15 -4.833945e-10 -7.457525e-10 4.9325826e-07
8.509382e-05 -1.4808829e-05 -2.1897712e-08 6.244565e-08 7.797019e-09 2.5728455e-09 1.8113174e-06 3.3414594e-07
3.37102e-09 -1.5579686e-09 4.1651598e-05 -1.3929328e-11 3.5572008e-08 -1.2733827e-06 2.4816382e-09 4.238942e-07
4.7856203e-09 -2.5418527e-07 1.5387186e-12 -3.3349418e-10 -1.6584241e-11 5.2435917e-05 -7.4862954e-12 -3.838696e-07
00000000: 5d42 fe32 1874 392d 0c49 a834 8d36 b833
00000010: 0359 af2c 1115 f82d 2f00 f232 4b24 71b6
00000020: 2cdc b7b5 5d4e 8f38 f7dd 7eaa 7261 48b4
00000030: 9d61 2bab b6f2 82b0 5fd6 ec31 29ee bdb2
00000040: 2612 c5ad 4178 a3b3 7f0a 8929 c090 85ae
00000050: 2e98 58b0 2bd7 c830 4055 5ab1 1df6 1931
00000060: fe4a 33b6 0c38 ae2e 39c6 53b6 acb2 2f2d
00000070: 94b0 0336 ec01 43b6 f966 8a34 af73 e8b8
00000080: 491e 0fb5 bcc5 1135 d7d8 8e2d fa78 b52c
00000090: 0efe aeaa 13c6 2bb4 e4ad 2033 d02b 0c37
000000a0: d971 1330 5c49 d1b6 dba3 9d31 59d7 4132
000000b0: 5a90 2dab 3d31 90b1 d2fa 6b37 5245 f0b2
000000c0: aec1 a935 736f b8b7 5d19 2635 518d ecae
000000d0: 770c b6b8 442d 00b4 d6d2 e4b8 b844 1331
000000e0: 5359 062c ec9c d22c 4055 57b3 5442 2236
000000f0: b24b 0735 bfe7 95b6 321b c534 c670 12b9
00000100: e1c0 4330 3eae f12d 731f 49b5 87d2 1732
00000110: b72f 1924 4e0b 65b7 40c6 0d2b 3411 d49e
00000120: 08ea ed2d 0514 fa2c 1d15 98b9 8119 2636
00000130: c9e7 cbb4 28bf 0a37 ce60 bdac 0ad3 13b8
00000140: 6e83 c436 ad11 ab34 0f18 8c37 efc3 00a9
00000150: da81 f4b8 b761 9c31 b60b 2f37 5132 7db3
00000160: c19a d22e 13c2 6ab1 8bb4 ab33 86a3 1bb3
00000170: 0083 392f 2a1b a8ab b1e9 3e33 529a 2bac
00000180: dce9 6034 706d b62c 4e7e 6335 07e6 1735
00000190: 3dd2 14b6 04b7 06af b800 8eb4 ad6c 8235
000001a0: 5fff 4c33 1d03 f8b1 63df 8db6 fe8b b1b5
000001b0: 40fa bab1 1f88 c8b3 f651 7db7 1054 67b6
000001c0: 6520 41b6 1376 91b2 dc4f 8230 d69e 6439
000001d0: 2bd5 cdb0 6b9e daab 0bda 8034 06a2 d62e
000001e0: 788e 2faa 9557 2226 2253 4734 ba59 40b2
000001f0: e7d1 0734 cf42 96af 2211 f2b6 3ead 3fad
00000200: 8e10 fdb3 3efa b531 2d23 fcb5 373d 96b3
00000210: 2e9a 31b1 af55 092f 988c 08b4 6144 8a39
00000220: b731 d137 f0cc 3db6 e34a 01af 262f 2923
00000230: 2831 08b7 365f 56af 76b9 022c 81e0 f8b5
00000240: db6f fe35 db23 132e 03bd 2331 a121 ccb8
00000250: d8c8 1935 e4bc 0736 e162 82ac 82af df36
00000260: cd1f b830 39d3 c3b5 b4c3 9a35 e4e9 c22d
00000270: 9d6d 0f2e 1455 a4aa 7610 1a37 eaf7 1db7
00000280: 901b 3e2b 5c5b 3a33 1483 55b3 7d6b 10b8
00000290: 323f 0033 c1e5 1336 78e5 72ae 56e4 432b
000002a0: 77a1 a92d 6e62 1634 0e19 58b3 573b ee26
000002b0: 562b a2b1 dd43 dab7 efa0 1dae 8faf d12e
000002c0: de25 93b2 99e8 402d 1a23 b0b0 f839 2538
000002d0: 07a0 f234 53f2 40b3 01db a139 74a9 1138
000002e0: fc8e a833 a924 0e33 b5ef dcb6 cb94 d235
000002f0: d2d3 1db4 267a 55b1 ed1c 4034 95df 2334
00000300: 1811 002b 7872 0839 77d8 bfb6 fdbf 0933
00000310: 1ffb 7232 e8b2 88b6 abf6 8a2f 3df9 da33
00000320: 8555 1327 58fb 0cae 19fe 88b1 4d83 2eaa
00000330: 1931 6fb6 36a7 4e32 e23a 4a31 f129 4830
00000340: 536c b3af 1a03 acb2 b098 1cb6 ced2 a02a
00000350: 2cd9 acb1 67f0 b0b6 e31c 0fb1 e61c a831
00000360: d619 79ad 0129 ecb4 fd2c 7cae 98bb 9fb6
00000370: 41ba 84b3 7065 d934 bb84 c1af bf0c 0730
00000380: 6a70 7bb9 b227 e1b0 3af0 8930 4e0f c630
00000390: 8a84 08a7 dddf 04b0 abfd 4cb0 7368 0435
000003a0: 6674 b238 7073 78b7 9419 bcb2 dc19 8633
000003b0: a7f3 0532 facd 3031 641c f335 ab64 b334
000003c0: 9ca7 6731 2620 d6b0 10b3 2e38 1e0c 75ad
000003d0: d6c7 1833 19e9 aab5 7189 2a31 9393 e334
000003e0: c36e a431 f576 88b4 2e8e d82b 2257 b7af
000003f0: 64e0 91ad a3ee 5b38 47b3 03ad a316 ceb4

weight f4 [32, 256]
-1.292778e-10 -4.5233965e-15 2.9034557e-12 6.9866437e-09 -4.5667945e-16 7.044162e-14 1.239572e-11 2.2309809e-08
-4.9076843e-11 4.8862594e-09 -9.07439e-16 -2.84014e-14 -1.4249159e-15 -6.827291e-12 -4.6759523e-11 3.0707967e-13
-9.104125e-16 -6.2132804e-10 3.1276938e-16 -2.9765253e-14 1.2664197e-13 -1.09041266e-11 -1.6767877e-11 -2.635959e-12
7.0088766e-09 9.017802e-16 -5.5658073e-15 -2.5057188e-14 -2.535473e-10 1.7157408e-09 8.7745187e-13 1.9273976e-07
-1.839042e-09 -7.08556e-15 -5.8893235e-17 -8.642652e-14 6.5923626e-15 -2.0798554e-11 -1.2018129e-09 -3.5112535e-08
1.1637144e-05 1.8839665e-07 -6.205912e-06 -9.060222e-11 -1.4993302e-15 -1.99479e-11 -1.0751445e-08 -9.224203e-11
2.2195704e-12 7.7531636e-14 1.3635999e-10 1.88936e-13 3.1707097e-07 -5.109029e-10 2.413687e-07 1.0246505e-12
-1.3759211e-14 2.3214728e-17 3.3650455e-17 2.0959551e-13 4.7548393e-10 3.41923e-11 -2.887408e-09 1.2085115e-05
-1.6149111e-12 -2.227235e-14 9.018289e-10 -3.7699097e-10 -1.1231584e-19 -4.857959e-09 -2.2696392e-15 3.9098382e-23
-1.5129713e-14 1.5645188e-15 2.996156e-07 1.7306262e-09 -3.3500203e-10 6.9724866e-09 -6.328911e-14 -3.8396258e-10
-3.6637005e-09 -4.300368e-16 -2.503013e-09 -6.9316767e-16 5.509901e-07 -1.9720309e-10 8.6982e-10 4.9550377e-12
-1.34831915e-08 -1.287435e-11 -7.058298e-11 -6.111679e-11 -1.1573896e-13 -1.7827793e-15 -2.7351665e-09 1.6049939e-15
6.5289785e-10 -2.0784046e-15 3.5512756e-11 2.4218556e-09 -2.0121629e-09 8.0305474e-15 3.7259547e-09 -2.0896843e-12
-1.9280894e-10 -4.4269906e-14 -7.380147e-14 2.9145548e-08 -2.326705e-12 4.4520734e-09 -3.6766355e-13 3.3270275e-09
-2.79262e-10 -1.676305e-11 -1.443803e-14 -5.5156033e-08 -4.714739e-13 -6.62642e-15 -5.1958155e-16 9.4609206e-08
-1.1182663e-15 -1.1177123e-18 -3.9992716e-09 -2.0046147e-05 1.081183e-11 -5.909429e-14 3.9705053e-12 -1.5178943e-13
-4.2065755e-09 -2.803216e-10 2.5322429e-09 -5.949861e-10 -5.4855743e-15 -1.464711e-13 -6.610001e-10 4.930132e-09
7.058335e-10 1.214181e-09 -2.2816545e-12 1.725842e-20 -2.8664614e-13 1.5879535e-13 2.912612e-14 4.5655874e-10
2.0655648e-10 3.1834503e-15 -1.0835177e-10 3.4459597e-07 -2.2433981e-09 -7.930949e-11 -5.601592e-15 -1.4126212e-11
-1.2230308e-11 -4.6891613e-10 -2.2710397e-14 -1.0786581e-13 8.8309134e-13 3.6058513e-16 -1.856468e-09 -3.2628964e-09
4.224031e-09 -1.8330428e-15 -3.401788e-10 5.7995175e-07 -2.826408e-10 -2.18394e-12 2.605301e-15 -1.1237496e-14
-9.278512e-14 -6.783592e-10 -1.0643116e-09 6.258846e-17 -2.9320872e-11 4.900627e-15 -1.4858598e-13 -2.610377e-14
1.7524547e-10 2.9752473e-13 7.8863045e-12 -3.0334665e-10 1.2437897e-07 -2.201783e-10 -4.4752153e-07 8.5102606e-11
1.3629134e-11 -8.152491e-11 -7.617723e-15 1.5445493e-09 3.4108487e-11 6.9463576e-12 -9.649045e-11 4.5418627e-15
3.230525e-15 -1.2090088e-06 2.782384e-09 1.494099e-11 -5.8019995e-14 -1.109249e-08 -1.0707779e-12 2.9892626e-09
1.417037e-15 8.458713e-14 -7.406953e-12 -3.297995e-16 -4.7704635e-14 -1.0497693e-12 -1.6385016e-15 -3.1974635e-11
-3.2355412e-12 -2.5106292e-14 2.2876627e-07 -1.2258271e-16 -4.0693546e-11 2.6569282e-08 -1.4248821e-09 -2.0186786e-12
4.9115026e-14 -3.8641226e-10 -3.5154334e-14 -9.354118e-14 -1.0988008e-10 -2.830688e-09 -6.2649885e-13 -3.939331e-12
5.0856625e-07 -4.4020725e-12 6.490399e-11 -7.917908e-11 -2.848597e-17 -3.5867455e-11 -5.499239e-16 -8.390622e-12
-6.897651e-09 5.9691674e-09 -1.5693962e-09 1.5860661e-15 6.3706466e-14 -1.9743202e-12 -1.5071485e-09 1.8825446e-09
-1.1319466e-11 -1.0200797e-14 -2.3373277e-15 -2.6157927e-14 -4.2613343e-12 -2.3466726e-09 8.127401e-12 -5.2580124e-10
9.916126e-14 -1.6578995e-09 -1.1784087e-14 -1.1924174e-12 -7.8642494e-15 2.628028e-14 2.2269408e-14 2.1075966e-11
00000000: 7724 0eaf f8f8 a2a7 0250 4c2c 2b0f f031
00000010: ffa0 03a6 d49e 9e29 5c11 5a2d caa3 bf32
00000020: 9dd7 57ae fee3 a731 97c6 82a6 2bd1 ffa8
00000030: 1e5a cda6 c536 f0ac 8ba6 4dae d8de ac2a
00000040: 4b34 83a6 13ca 2ab0 9d4c b425 000d 06a9
00000050: 1096 0e2a d2d3 3fad e77d 93ad 377d 39ac
00000060: bbd2 f031 d1f5 8126 8387 c8a7 f1b1 e1a8
00000070: 9c63 8baf 43cf eb30 12fb 762b e7f3 4e34
00000080: 8ac1 fcb0 c248 ffa7 6ecc 87a4 7f9d c2a9
00000090: d083 ed27 2ef2 b6ad 082d a5b0 a4ce 16b3
000000a0: 273d 4337 144a 4a34 613c d0b6 843c c7ae
000000b0: 8513 d8a6 ad76 afad 5bb5 38b2 a6d7 caae
000000c0: 3a30 1c2c f295 ae29 eded 152f 18b9 542a
000000d0: e739 aa34 986f 0cb0 7695 8134 ed34 902b
000000e0: 29dd 77a8 3a1e d623 722f 1b24 cbfb 6b2a
000000f0: 35b3 0230 1b61 162e d26b 46b1 2cc1 4a37
00000100: 4e47 e3ab 8b9c c8a8 91e4 7730 c340 cfaf
00000110: 6199 04a0 0feb a6b1 748b 23a7 7411 3d1a
00000120: be46 88a8 8e78 e126 dbda a034 ffda ed30
00000130: 582b b8af a492 ef31 b083 8ea9 ee15 d3af
00000140: 80c4 7bb1 3be6 f7a5 7801 2cb1 bfca 47a6
00000150: c0e7 1335 bcd3 58af 2418 6f30 0357 ae2c
00000160: b4a3 67b2 eb7c 62ad af36 9bae b265 86ae
00000170: 7c4f 02aa 7976 00a7 8ff5 3bb1 d34d e726
00000180: 9a77 3330 ccc3 15a7 cf2f 1c2e bc6d 2631
00000190: 5846 0ab1 5daa 1028 d805 8031 680c 13ac
000001a0: e4fe 53af ba5f 47a9 a72f a6a9 bd5b fa32
000001b0: 31ba 23ac daf8 9831 e7f9 ceaa b0a1 6431
000001c0: a286 99af 0873 93ad d50b 82a8 b3e4 6cb3
000001d0: 46b5 04ab f0bd eea7 5ac2 15a6 f62b cb33
000001e0: bf28 a1a6 faf1 a4a1 f769 89b1 c628 a8b7
000001f0: 2734 3e2d 8a11 85a9 22b3 8b2c 53e6 2aaa
00000200: 6e89 90b1 c21b 9aaf b003 2e31 6d8c 23b0
00000210: 7ea3 c5a7 6ce9 24aa bfb1 35b0 e665 a931
00000220: 9e04 4230 32e0 a630 a28e 20ac 4d00 a31e
00000230: 105e a1aa a5c9 322a 212c 0329 eefe fa2f
00000240: 7b1c 632f 4b64 6527 a044 eeae e900 b934
00000250: 472a 1ab1 4667 aeae 91d1 c9a7 ce82 78ad
00000260: 6928 57ad 0ae5 00b0 9c8e cca8 68e4 f2a9
00000270: 7091 782b f9dc cf25 a926 ffb0 7b39 60b1
00000280: f822 9131 ac15 04a7 e903 bbaf fbad 1b35
00000290: 2862 9baf 5eae 19ac 52bb 3b27 ce6f 4aa8
000002a0: fbee d0a9 4977 3ab0 2347 92b0 b551 9024
000002b0: 5ef4 00ae 4e90 b027 fe4a 27aa 321f eba8
000002c0: 37af 402f d57d a72a c2bc 0a2d 3fc4 a6af
000002d0: 088d 0534 af16 72af e442 f0b4 8224 bb2e
000002e0: 2ac4 6f2d 7246 b3ae 8c3a 09a8 ff47 d430
000002f0: be02 162e 3a67 f42c 4b2f d4ae 4aa3 a327
00000300: abc8 6827 3a45 a2b5 3834 3f31 1e6c 832d
00000310: 40a6 82a9 4991 3eb2 d7b2 96ab aa6b 4d31
00000320: 7037 cc26 2979 be29 f34d 02ad d11d bea5
00000330: b3d7 56a9 edbd 93ab 0a22 eca6 3da0 0cae
00000340: 54ae 63ac 2b23 e2a8 cba2 7534 0854 0da5
00000350: dcf8 32ae 783a e432 95d5 c3b0 480d 0eac
00000360: c531 5d29 b16e d4af 3052 1ea9 d2a2 d2a9
00000370: fca0 f1ae fd85 42b1 0058 30ab 579a 8aac
00000380: 6884 0835 58e2 9aac b3b9 8e2e dc1d aeae
00000390: 4c5e 03a4 2abf 1dae 3981 1ea6 019c 13ad
000003a0: 6100 edb1 5a19 cd31 38b2 d7b0 8393 e426
000003b0: 4774 8f29 31ee 0aac 1324 cfb0 135e 0131
000003c0: 5822 47ad dfc2 37a8 166c 28a7 139c eba8
000003d0: b0ee 95ac 1a43 21b1 8ffa 0e2d f987 10b0
000003e0: 934a df29 27dc e3b0 8248 54a8 5dd1 a7ab
000003f0: 73ab 0da8 33b6 ec28 c295 c828 db62 b92d

bias f4 [32]
-5.7959865e-10 -5.3356184e-06 -9.397289e-06 -2.3977933e-07 -2.1335488e-10 -1.0696778e-07 -7.264882e-10 4.717994e-06
6.5613e-06 -1.5168505e-06 1.18056e-11 -1.1486925e-07 -8.795661e-06 -6.5686884e-10 2.252763e-07 -0.0019184741
-2.6767571e-05 -2.0820528e-06 4.8185907e-06 -5.92859e-07 -1.07326905e-05 -5.210016e-06 -1.34350785e-05 1.5068393e-05
-8.3083484e-07 9.4931454e-07 1.1278968e-06 -6.968213e-06 -1.6601796e-05 -1.0546517e-07 3.0210367e-05 5.6031668e-06
00000000: a151 1fb0 9d08 b3b6 0da9 1db7 05bb 80b4
00000010: 0f96 6aaf 29b6 e5b3 10b2 47b0 434f 9e36
00000020: 2329 dc36 9696 cbb5 b2af 4f2d 0aae f6b3
00000030: 1491 13b7 098f 34b0 7ae3 7134 4f75 fbba
00000040: ec8a e0b7 65b9 0bb6 61af a136 f624 1fb5
00000050: 8e10 34b7 b2d1 aeb6 3967 61b7 41ce 7c37
00000060: 8906 5fb5 66d4 7e35 3d62 9735 7ed0 e9b6
00000070: 1644 8bb7 177c e2b3 456c fd37 d602 bc36

weight f4 [10, 32]
-3.508253e-08 1.2286416e-05 -6.404211e-05 1.1781914e-05 -4.070805e-09 -3.5706582e-06 -3.5241797e-08 -5.289648e-05
9.253019e-05 -2.7319845e-06 -2.2069177e-10 5.416017e-08 -1.8960445e-05 -3.3432475e-09 3.3299445e-06 0.00013806889
-0.00063158403 0.000120863384 -1.1310172e-05 1.7462984e-06 -0.000113482674 8.649366e-07 -1.9978293e-06 3.6756235e-05
8.275402e-06 -2.4454653e-06 -5.06864e-05 -0.00011901659 -7.205486e-05 1.1951532e-07 -1.4649662e-05 -5.1925435e-05
3.3015983e-08 -3.6950112e-06 5.431843e-05 -1.5690497e-05 -2.145016e-09 -3.9033742e-07 1.217589e-07 7.063261e-05
2.6894328e-05 1.2184117e-05 2.3776967e-10 -1.4759317e-07 -1.4973169e-05 5.93812e-09 2.8881635e-07 -8.366973e-05
4.2618693e-05 4.7690224e-05 -3.4262741e-06 1.8762961e-06 0.00017018964 -6.103674e-06 -1.3207311e-06 -8.7815664e-05
-3.2138337e-07 1.13601345e-05 4.3534314e-05 7.632291e-05 -1.1909216e-05 -1.4871145e-07 0.0002599767 2.8906037e-05
-9.127255e-13 5.0334037e-08 2.1903273e-09 -7.784428e-09 9.775711e-12 -1.9739073e-09 1.611646e-11 4.6853422e-08
1.6940368e-07 -1.0169037e-08 1.1363908e-12 -3.166366e-11 7.4697965e-08 2.0695093e-11 5.9049556e-09 4.4860478e-08
5.0062124e-07 -1.0792771e-07 1.46666395e-08 5.8753002e-09 8.8373633e-07 1.0857657e-08 7.1792016e-08 2.5571762e-07
2.350132e-09 3.1456995e-08 -1.1292174e-07 -7.97966e-08 1.0970754e-07 6.438928e-11 6.54908e-08 -5.3116775e-08
1.6678346e-09 1.8932128e-06 4.1014036e-06 -1.02044915e-07 -2.1182496e-10 -2.5969346e-08 -1.6266853e-08 1.5392017e-08
7.651161e-06 -1.5811968e-06 -3.3424671e-12 3.68844e-09 4.810113e-06 -2.8156519e-11 -5.787565e-09 -9.46856e-07
-4.8361585e-07 3.631125e-06 -2.8390412e-05 7.655952e-08 3.5544137e-05 4.650848e-07 7.8154855e-08 1.0558408e-06
1.5517948e-06 3.2022588e-06 -6.821689e-07 -9.586128e-07 1.3733645e-05 1.2460709e-10 1.0338958e-05 6.54415e-07
-3.5076786e-09 -6.604962e-07 -1.31683955e-05 5.8837276e-07 1.480893e-11 -6.8543784e-09 -7.701052e-09 -7.65902e-06
-4.9304795e-06 -9.634597e-07 2.6996615e-11 -2.3802071e-10 -1.2746079e-06 -6.491919e-10 4.2282548e-07 -7.717967e-06
-9.962124e-06 -3.1447064e-06 1.2772166e-06 -3.4888922e-07 -1.6560984e-05 -3.4534798e-07 -2.3757816e-06 -6.966194e-06
1.9417502e-08 -1.127321e-06 -2.4792434e-06 1.4196426e-05 2.772001e-06 -2.6866762e-09 -1.2823112e-05 3.1138268e-06
-8.457737e-10 3.2096443e-07 1.9506706e-06 1.804728e-07 -1.2235894e-10 -3.6987387e-08 -1.791237e-09 -5.095892e-06
-2.8255652e-06 -3.486446e-07 -1.6291907e-11 -3.0070664e-09 -1.1243254e-06 -8.663313e-10 -5.4160896e-08 -4.1097856e-08
-2.8004654e-06 -4.287674e-06 -2.6592716e-07 8.370697e-09 -1.8010553e-05 -4.6292706e-07 -2.5168574e-06 4.837072e-07
-5.341528e-08 -8.5210377e-07 -6.4904675e-08 -4.0360983e-06 -5.595824e-07 -2.0477577e-09 -1.3336521e-06 -1.8353746e-06
-5.7415438e-08 -7.564775e-06 0.0031718377 1.085539e-05 2.6778714e-08 2.8236946e-07 -2.2372915e-07 0.0010685228
0.0020696379 -8.180014e-05 1.5703767e-09 1.7815295e-06 0.00027667734 -2.126591e-08 7.4262134e-06 0.100957096
-0.0028122403 0.0017955959 -0.00012616439 4.5340817e-05 0.0049711703 1.6753971e-05 0.00010243396 -8.332057e-05
1.3062517e-05 0.00015258088 0.00019910767 0.0003571122 0.00075165764 1.7046167e-06 0.007868239 -0.00012219303
-6.099641e-10 -1.124737e-06 -1.8007117e-05 5.464526e-07 -3.4109122e-11 -1.8260812e-08 -4.991767e-09 2.2897414e-06
-7.4344075e-06 5.2645326e-08 -8.972138e-12 -5.4158273e-09 -7.5493e-07 -5.184525e-10 -2.2960754e-07 1.8030852e-06
-1.1914647e-05 -5.425748e-06 7.6001726e-07 -1.5932169e-07 -2.1733551e-05 -1.2341422e-06 -2.541174e-07 -4.3430398e-07
-4.1673378e-08 -2.723819e-07 1.3366947e-07 -4.362283e-07 -2.026497e-06 -2.1937522e-08 4.2965312e-05 -2.1146357e-06
00000000: a6ad 16b3 c121 4e37 594e 86b8 efaa 4537
00000010: 2edf 8bb1 719f 6fb6 c45c 17b3 2add 5db8
00000020: c40c c238 2357 37b6 36a7 72af bd9d 6833
00000030: 3f0d 9fb7 08bf 65b1 0378 5f36 96c6 1039
00000040: e390 25ba 0978 fd38 d2c0 3db7 5b62 ea35
00000050: 8cfd edb8 fe2d 6835 7212 06b6 b52a 1a38
00000060: 95d6 0a37 c61c 24b6 1c98 54b8 8c98 f9b8
00000070: 291c 97b8 1f54 0034 d2c7 75b7 83ca 59b8
00000080: 75cd 0d33 cff7 77b6 f8d3 6338 169f 83b7
00000090: 8567 13b1 918f d1b4 d5bc 0234 9820 9438
000000a0: 219b e137 626a 4c37 1bb7 822f 1a7a 1eb4
000000b0: 4535 7bb7 4208 cc31 9e0e 9b34 d877 afb8
000000c0: 79c1 3238 fd06 4838 f1ee 65b6 0bd5 fb35
000000d0: ef74 3239 29ce ccb6 fa43 b1b5 ad29 b8b8
000000e0: 988a acb4 6897 3e37 9d98 3638 8d0f a038
000000f0: b1cd 47b7 7ead 1fb4 7b4d 8839 3e7b f237
00000100: 6774 80ab dc2e 5833 a584 1631 47bc 05b2
00000110: e3f9 2b2d 58a5 07b1 0bc3 8d2d e23b 4933
00000120: 54e5 3534 e6b3 2eb2 cbee 9f2b 1d42 0bae
00000130: a469 a033 3509 b62d 8ae4 ca31 9eac 4033
00000140: 6e62 0635 e3c5 e7b3 90f8 7b32 b0df c931
00000150: e639 6d35 7b88 3a32 142c 9a33 9049 8934
00000160: f67f 2131 551b 0733 627f f2b3 a55c abb3
00000170: 5c98 eb33 f197 8d2e f3a3 8c33 8322 64b3
00000180: b739 e530 4c1a fe35 ca9e 8936 c923 dbb3
00000190: 6de7 68af 3213 dfb2 30bb 8bb2 6737 8432
000001a0: 7c5d 0037 8239 d4b5 8934 6bac b977 7d31
000001b0: 8e66 a136 d8aa f7ad f6db c6b1 732b 7eb5
000001c0: d4d1 01b5 41ae 7336 f227 eeb7 0b69 a433
000001d0: 3a15 1538 c5b0 f934 16d6 a733 6ab6 8d35
000001e0: 4347 d035 63e6 5636 4a1e 37b5 afa9 80b5
000001f0: 8e69 6637 c701 092f 7d75 2d37 0eab 2f35
00000200: bc0b 71b1 f44c 31b5 d4ed 5cb7 abf0 1d35
00000210: bf42 822d c083 ebb1 964d 04b2 3e7f 00b7
00000220: 7f70 a5b6 3950 81b5 f976 ed2d 70da 82af
00000230: 3213 abb5 d272 32b0 b100 e334 6a7c 01b7
00000240: ff22 27b7 a509 53b6 d46c ab35 f84e bbb4
00000250: 71ec 8ab7 4468 b9b4 9e6f 1fb6 27bf e9b6
00000260: 8acb a632 744e 97b5 1461 26b6 2f2d 6e37
00000270: 9d06 3a36 82a0 38b1 d922 57b7 23f7 5036
00000280: 087c 68b0 0451 ac34 44e8 0236 fcc7 4134
00000290: fb88 06af 10dc 1eb3 8d2f f6b0 61fd aab6
000002a0: d79e 3db6 592d bbb4 1d4e 8fad dfa4 4eb1
000002b0: 87e7 96b5 a522 6eb0 899e 68b3 9283 30b3
000002c0: a1ef 3bb6 d7de 8fb6 c0c4 8eb4 b7ce 0f32
000002d0: 5e15 97b7 3688 f8b4 48e7 28b6 1bd8 0135
000002e0: b96a 65b3 20bc 64b5 b961 8bb3 d26d 87b6
000002f0: 3636 16b5 89b8 0cb1 f0ff b2b5 fe56 f6b5
00000300: f198 76b3 ecd4 fdb6 9bde 4f3b 8c1f 3637
00000310: 0407 e632 9098 9734 333a 70b4 ad0d 8c3a
00000320: c3a2 073b 1e8c abb8 b8d4 d730 e31c ef35
00000330: 010f 9139 3bac b6b2 b02e f936 98c2 ce3d
00000340: 904d 38bb 335a eb3a ff4a 04b9 552c 3e38
00000350: 33e5 a23b e18a 8c37 d0d1 d638 64bc aeb8
00000360: 1527 5b37 1efe 1f39 8fc7 5039 ca3a bb39
00000370: e40a 453a 2fca e435 c9e9 003c f120 00b9
00000380: 68aa 27b0 abf5 96b5 fd0d 97b7 f0af 1235
00000390: 7503 16ae f3db 9cb2 0c84 abb1 75a9 1936
000003a0: 1375 f9b6 261c 6233 ebd6 1dad 1f16 bab1
000003b0: 65a6 4ab5 da82 0eb0 0a8a 76b4 8901 f235
000003c0: 05e5 47b7 d20e b6b6 fd03 4c35 0312 2bb4
000003d0: 7250 b6b7 cea4 a5b5 a16d 88b4 492a e9b4
000003e0: 5dfc 32b3 e23b 92b4 c986 0f34 c332 eab4
000003f0: f4fe 07b6 1f71 bcb2 a735 3438 2ae9 0db6

bias f4 [10]
-0.00019900981 -5.9741746e-05 3.827131e-08 -1.1468486e-05 -3.5219668e-06 -1.971222e-06 -0.0015722706 4.7437093e-06
-0.00010411614 0.0009132365
00000000: 4aad 50b9 3693 7ab8 c05f 2433 c668 40b7
00000010: ee5a 6cb6 5649 04b6 a614 ceba 272c 9f36
00000020: ed58 dab8 4466 6f3a

bias f4 [64]
2.5412007e-06 -2.1476343e-10 4.5517063e-05 4.0396117e-10 4.7708016e-07 -6.953922e-05 -3.593589e-11 2.2197756e-12
-9.0968416e-07 1.6310203e-10 1.049571e-11 -3.12806e-07 -3.18975e-08 2.1079888e-06 -4.2484694e-06 9.103115e-06
-4.4552955e-05 2.157722e-12 -3.9463863e-11 -6.476384e-10 7.7231666e-11 -1.04139e-06 9.75467e-08 -4.860951e-06
-2.6644903e-11 3.0056633e-09 5.567368e-13 1.4764119e-11 -1.5189015e-11 4.608596e-09 -8.35502e-09 2.480398e-07
2.0915347e-09 9.937804e-11 1.9014646e-08 -1.0422619e-07 8.882273e-08 -1.871338e-05 -1.7036035e-08 2.8761112e-11
2.3660614e-06 -4.0761523e-05 1.6702357e-06 -2.7480657e-13 -5.0931525e-12 1.7331274e-11 2.1224988e-09 -1.0836933e-06
1.11252015e-11 8.774962e-10 5.86593e-05 3.8968927e-05 1.0190735e-06 2.0926975e-11 1.3259396e-11 1.3410532e-10
1.0072352e-12 5.240813e-05 4.022544e-06 -6.4509164e-05 -0.0001417588 -2.4961582e-06 -2.9369005e-08 9.393053e-09
00000000: 7f89 2a36 8822 6caf 93e9 3e38 7b14 de2f
00000010: b310 0035 96d5 91b8 370c 1eae ec33 1c2c
00000020: 0531 74b5 2455 332f 7aa4 382d bbef a7b4
00000030: acff 08b3 f976 0d36 138e 8eb6 95b9 1837
00000040: 5fde 3ab8 10d6 172c 5c90 2dae 8005 32b0
00000050: 90d5 a92e e3c5 8bb5 de7a d133 401b a3b6
00000060: fd5e eaad 308c 4e31 1db5 1c2b d7dd 812d
00000070: 9f9a 85ad a459 9e31 c489 0fb2 552a 8534
00000080: abba 0f31 dd88 da2e a655 a332 f4d2 dfb3
00000090: d0be be33 adfa 9cb7 a356 92b2 44fc fc2d
000000a0: a0c8 1e36 5af7 2ab8 dd2c e035 cdb3 9aaa
000000b0: 0a33 b3ac 8f72 982d 65db 1131 6b73 91b5
000000c0: 74b7 432d 4e34 7130 f208 7638 9172 2338
000000d0: 19c7 8835 5c13 b82d 0343 692d 4b73 132f
000000e0: 79c1 8d2b cdd0 5b38 64f9 8636 1849 87b8
000000f0: 17a5 14b9 ac83 27b6 2047 fcb2 155f 2132

weight f4 [64, 1]
2.3969828e-14 -4.0853473e-14 -8.754859e-08 2.1702948e-09 2.8335036e-08 -2.6849542e-14 -6.411101e-10 3.562973e-12
-1.8706664e-13 3.204766e-14 2.6268792e-14 -4.07321e-07 3.5267456e-09 3.4912736e-14 2.2957516e-10 4.399569e-05
1.8205907e-07 1.1279248e-10 9.0436365e-12 -4.0072126e-14 4.198082e-05 2.9580627e-13 1.6693803e-11 1.6768219e-08
-9.448125e-13 -2.7251904e-13 -1.889542e-09 -6.9551818e-09 9.252142e-13 -1.3042277e-13 1.1308781e-06 2.5209879e-08
5.9305307e-08 9.662871e-08 -1.4774031e-13 4.8766255e-05 -1.7913528e-08 4.980693e-07 -2.7950915e-14 1.0615395e-12
-3.242775e-11 1.6522031e-12 2.7938218e-09 1.0638259e-08 -3.4382649e-07 6.724639e-13 -4.039357e-14 -1.4172263e-05
2.1286822e-10 -1.1438527e-13 5.390079e-12 8.7836544e-11 1.3115606e-13 1.1951106e-13 -1.5243249e-14 -2.8819682e-13
-1.548917e-14 -2.1288953e-13 -5.401784e-15 -5.839527e-14 1.3919669e-09 3.6910094e-13 5.219158e-06 3.008742e-13
00000000: a9e6 d728 d9fc 37a9 5902 bcb3 3b24 1531
00000010: 6765 f332 d4d6 f1a8 1d3a 30b0 d1b8 7a2c
00000020: 4a9e 52aa 7054 1029 b69b ec28 c6ad dab4
00000030: 2a5b 7231 a53b 1d29 aa6b 7c2f 0388 3838
00000040: 047c 4334 8508 f82e eb18 1f2d 0478 34a9
00000050: 9014 3038 2d86 a62a 1ad7 922d b409 9032
00000060: 75f8 84ab 226a 99aa 2dd9 01b1 6dfa eeb1
00000070: 5b36 822b ced7 12aa adc8 9735 1c8d d832
00000080: e0b6 7e33 3282 cf33 3f57 26aa 5e8a 4c38
00000090: 44e0 99b2 10b3 0535 6cc2 fba8 fe65 952b
000000a0: 679e 0eae e486 e82b 6ffd 3f31 8fc3 3632
000000b0: 2797 b8b4 2148 3d2b 9eea 35a9 68c5 6db7
000000c0: 140d 6a2f 4fc9 00aa 84a5 bd2c 9427 c12e
000000d0: 29ab 132a b88e 062a 8a4c 89a8 8a3d a2aa
000000e0: 9883 8ba8 3bb1 6faa aa9e c2a7 957e 83a9
000000f0: 7b4f bf30 0dc9 cf2a 3a20 af36 8b60 a92a

bias f4 [64]
1.1158638e-06 2.3066494e-08 -2.4024825e-08 -2.4141444e-10 -1.9633378e-08 1.0566408e-05 1.8243429e-07 2.109692e-06
-1.7485943e-06 6.3438655e-08 2.6615181e-08 1.460894e-07 -1.2576568e-07 9.346745e-08 1.0374323e-08 5.759196e-08
1.087686e-06 -5.7606553e-10 5.355082e-08 2.5628756e-07 1.7978442e-08 3.087387e-05 -5.8220735e-09 9.332204e-06
-1.6375792e-05 4.308369e-08 -2.372559e-08 -1.7159285e-06 -2.6690013e-05 -3.2092072e-07 7.2002115e-10 1.6382967e-06
-1.3042168e-07 -8.145245e-09 -2.0318942e-06 -7.246491e-08 -3.1424108e-07 2.0975086e-09 -1.6791322e-05 -1.2161345e-07
9.519143e-09 -3.9803076e-09 -4.285082e-05 -1.3162476e-07 1.4211957e-07 1.6644354e-07 -1.8200282e-08 -2.891886e-06
-3.4737577e-09 -3.5622818e-09 3.697679e-09 -3.2163695e-07 2.2252559e-07 5.2569903e-05 8.656546e-05 8.798356e-08
2.0348109e-05 8.099709e-05 -2.104275e-09 -3.2487335e-06 -2.243347e-06 8.13406e-10 -2.381323e-09 1.7694818e-09
00000000: cac4 9535 c223 c632 265f ceb2 10b8 84af
00000010: 41a6 a8b2 6046 3137 28e3 4334 3c94 0d36
00000020: 3eb1 eab5 c53b 8833 679f e432 c0dc 1c34
00000030: 350a 07b4 46b8 c833 c13a 3232 085b 7733
00000040: 9bfc 9135 0259 1eb0 c0ff 6533 e597 8934
00000050: 036f 9a32 917e 0138 800b c8b1 8391 1c37
00000060: bf5e 89b7 050b 3933 20cd cbb2 db4e e6b5
00000070: 5ee4 dfb7 024b acb4 fcea 4530 72e3 db35
00000080: 0a0a 0cb4 2bef 0bb2 ad5b 08b6 019e 9bb3
00000090: f7b4 a8b4 c323 1031 17db 8cb7 da94 02b4
000000a0: a289 2332 28c3 88b1 b8ba 33b8 bd54 0db4
000000b0: 8899 1834 a7b7 3234 d856 9cb2 3912 42b6
000000c0: feb6 6eb1 53cc 74b1 421a 7e31 72ad acb4
000000d0: 5eef 6e34 817e 5c38 7a8a b538 79f1 bc33
000000e0: 3bb1 aa37 fbdc a938 cc9a 10b1 d104 5ab6
000000f0: 688c 16b6 5c96 5f30 ada4 23b1 1b32 f330

weight f4 [64, 64]
5.4493694e-11 2.1667308e-12 1.30919665e-14 -4.6163535e-05 7.997495e-05 1.2905454e-14 -6.866158e-07 1.3101017e-10
-2.8341098e-16 1.1892294e-05 -3.0873438e-21 5.3542174e-11 -1.3522123e-11 -6.49753e-06 3.8964115e-10 -3.69111e-12
-7.56965e-09 -2.666985e-10 1.9059553e-10 3.569679e-08 9.400857e-14 4.168315e-09 -4.2515497e-14 -2.2872836e-13
-1.5566622e-08 5.7806864e-18 2.1981958e-15 -1.0165579e-07 -1.4717824e-05 5.6103295e-07 -9.1161365e-07 -3.0013023e-09
1.1188738e-15 -2.9577878e-17 9.00149e-12 1.214401e-08 -3.0543686e-11 4.8392945e-15 -2.0930482e-08 1.4431342e-19
-5.8040697e-11 -1.7403977e-15 -6.1116333e-07 9.012708e-19 -7.1303884e-13 -3.130983e-09 -4.745673e-08 -4.8838395e-16
-5.3353073e-12 5.6631533e-13 -6.2517548e-12 -3.8168764e-07 2.4443577e-06 1.73675e-10 -3.108751e-05 -2.9185406e-07
-1.5886148e-05 1.763883e-11 2.4944313e-06 2.075863e-07 -6.592268e-05 3.8025105e-10 3.0638647e-09 1.04516955e-08
1.52496095e-05 6.8730376e-11 1.8085851e-09 -4.7643134e-10 -8.451607e-11 -5.175409e-05 1.7200756e-08 0.000209976
4.704792e-13 8.722751e-18 -3.26606e-07 6.0505545e-07 -5.074579e-09 2.5939935e-08 0.00016611426 7.4888793e-16
-8.82712e-15 -4.14427e-10 -3.1218e-10 1.1991304e-07 9.303266e-16 -1.8733775e-14 -1.8187254e-07 7.5855875e-12
3.715914e-11 -2.5220909e-17 2.1366061e-07 -9.58311e-14 -1.03152655e-13 -0.00020141342 -4.375105e-14 -1.7437724e-05
9.325713e-13 -4.7364298e-07 1.2487593e-10 -4.447834e-08 -1.4240321e-05 2.3188628e-14 0.00023766607 1.7363956e-11
4.569372e-08 6.2657124e-10 1.5974757e-14 -4.3766007e-16 2.1483921e-15 7.177078e-06 -2.9492005e-06 1.6953356e-08
4.705593e-13 -6.964142e-08 4.2248047e-08 -1.3058154e-06 5.171971e-10 -2.372731e-12 5.6024902e-15 3.2927067e-19
9.698649e-09 6.24563e-11 4.2658576e-07 5.981155e-14 -9.85316e-10 -2.9761807e-10 -2.6419912e-12 2.5462524e-19
3.718417e-15 -2.8457395e-08 5.7070723e-11 1.4924685e-06 8.832949e-12 1.8922202e-09 8.2241925e-14 -1.11615795e-11
4.2083895e-05 -5.8534402e-15 1.3263602e-21 -6.518813e-05 5.9177157e-09 -3.5138806e-14 -1.9757044e-06 5.4016518e-12
4.591471e-12 2.1754179e-10 9.0482814e-08 -2.8949808e-18 1.8203822e-12 -7.335649e-05 -1.3931046e-12 -2.090301e-09
3.224802e-20 -1.5371009e-07 -3.6104606e-08 -1.8855698e-17 -2.4404073e-11 -1.4993727e-13 7.410865e-05 1.0774794e-15
-8.912011e-05 1.6565543e-06 -1.00122364e-13 4.89311e-13 -2.4143537e-10 -4.575652e-12 -4.034245e-12 -7.512846e-13
8.479885e-14 3.8112513e-11 6.020063e-05 1.10787074e-10 1.9002924e-09 7.8560625e-10 1.4399418e-11 -4.491537e-12
7.9159865e-05 2.6822364e-10 2.0819089e-13 -1.8413581e-17 -0.00017109686 1.2915067e-12 -4.4937563e-20 4.192021e-06
-1.2063624e-21 -8.073842e-05 2.0437968e-12 3.9494569e-13 -4.552745e-14 7.243451e-06 -5.854246e-08 6.402394e-19
2.4373393e-14 0.00011737369 -4.4841736e-06 -2.6640456e-07 9.017591e-13 -1.8955381e-08 1.1019157e-12 -2.1855213e-08
1.5837184e-06 4.691505e-19 6.207549e-05 -2.8367728e-07 3.6055862e-13 5.1512727e-09 1.00762254e-11 2.4523363e-12
7.60425e-15 2.946038e-13 -7.377831e-11 6.117643e-05 7.551728e-17 6.59796e-09 0.00021810022 4.3690796e-16
-3.1533088e-21 5.317011e-07 2.457835e-18 -3.575551e-07 9.879927e-22 -2.0663542e-13 3.8816424e-12 4.1492674e-16
5.8795e-11 4.27113e-07 -5.820016e-20 1.2438073e-10 1.0163868e-16 6.033401e-07 -1.4390199e-12 -4.3169915e-10
-1.0829804e-12 6.5024847e-07 -4.76773e-16 -4.7804392e-11 -1.9778236e-05 -3.522599e-20 -2.3695125e-07 -3.0922696e-09
-1.8723023e-07 -0.00018754393 -2.8624407e-15 -1.5188056e-16 -4.2096744e-05 -6.435842e-07 1.762782e-08 4.614565e-07
1.8901361e-13 3.225299e-09 -5.550343e-09 -5.2670753e-11 -2.9463817e-07 -4.282999e-11 5.536912e-08 -2.5225994e-08
00000000: 72aa 6f2e 5a78 182c 0ad8 6b28 b89f 41b8
00000010: 39b8 a738 e77b 6828 e14f 38b5 160c 102f
00000020: 1460 a3a5 0485 4737 ea45 699d 217b 6b2e
00000030: 3ae2 6dad 5c05 dab6 1e35 d62f 90de 81ac
00000040: ac0b 02b2 7a9e 92af df8f 512f 0951 1933
00000050: 40b0 d329 e338 8f31 0879 3fa9 3bc3 80aa
00000060: 5db7 85b2 0a45 d522 8e65 1e27 dd4d dab3
00000070: 93ec 76b7 e499 1635 9db5 74b5 783f 4eb1
00000080: 283f a126 6567 08a4 1b5b 1e2d eca1 5032
00000090: 2255 06ae 9d5a ae27 9eca b3b2 0e60 2a20
000000a0: 0444 7fae 58d1 faa6 d30e 24b5 0c01 8521
000000b0: ddb3 48ab d628 57b1 3ad3 4bb3 60c4 0ca6
000000c0: 2db8 bbac 5267 1f2b cdf6 dbac c0ea ccb4
000000d0: bf09 2436 2bf5 3e2f f663 02b8 1eb0 9cb4
000000e0: 3e43 85b7 1d27 9b2d 0166 2736 e3e4 5e34
000000f0: f83f 8ab8 940b d12f 148c 5231 0b8f 3332
00000100: 93d8 7f37 c323 972e ee91 f830 e0f5 02b0
00000110: 51da b9ae 8812 59b8 ddc0 9332 012d 5c39
00000120: 996d 042b 07e8 2023 6358 afb4 186b 2235
00000130: 785c aeb1 85d2 de32 f52e 2e39 2dda 5726
00000140: e803 1fa8 6ad5 e3af 6e9f abaf 72c1 0034
00000150: fe12 8626 25bd a8a8 be48 43b4 7372 052d
00000160: 796d 232e 309f e8a3 956a 6534 deca d7a9
00000170: 7547 e8a9 8132 53b9 8709 45a9 3a47 92b7
00000180: 6c3f 832b ff48 feb4 734d 092f 7408 3fb3
00000190: b7e9 6eb7 56dd d028 0036 7939 27bc 982d
000001a0: c740 4433 083b 2c30 48e3 8f28 3a4b fca5
000001b0: d7ce 1a27 a1d2 f036 e1ea 45b6 d3a0 9132
000001c0: 5f73 042b c78d 95b3 3874 3533 7a43 afb5
000001d0: 832a 0e30 52f7 26ac dad9 c927 fa5d c220
000001e0: 1c9f 2632 c557 892e 8005 e534 03af 8629
000001f0: ba6b 87b0 059e a3af e2e9 39ac e14d 9620
00000200: 58f8 8527 7972 f4b2 ecff 7a2e d450 c835
00000210: 1164 1b2d 4a08 0231 3e31 b929 495b 44ad
00000220: 3d83 3038 75e4 d2a7 136f c81c 9cb5 88b8
00000230: c754 cb31 4940 1ea9 5896 04b6 c10d be2c
00000240: 4b8c a12c 9230 6f2f 744f c233 a49c 55a2
00000250: 1719 002c f7d6 99b8 e20f c4ab f7a4 0fb1
00000260: 7749 181f 820b 25b4 6f11 1bb3 c2e9 ada3
00000270: 16a9 d6ad 7ad0 28aa c76a 9b38 f947 9b26
00000280: ffe5 bab8 c656 de35 9d74 e1a9 93ba 092b
00000290: 02bb 84af cffd a0ac 40f1 8dac c377 53ab
000002a0: 35f3 be29 e09e 272e ef7f 7c38 949f f32e
000002b0: 4c96 0231 20f2 5730 3751 7d2d 2b08 9eac
000002c0: a102 a638 1f75 932f f066 6a2a d7d5 a9a3
000002d0: 7768 33b9 6fc3 b52b 2e36 549f 30a9 8c36
000002e0: e34c b69c 1c52 a9b8 c5d1 0f2c ac55 de2a
000002f0: 9309 4da9 c50c f336 1e70 7bb3 1ff7 3c21
00000300: 3889 db28 8526 f638 c276 96b6 5d06 8fb4
00000310: 97d2 7d2b 53d3 a2b2 b214 9b2b 1fbc bbb2
00000320: 2690 d435 0278 0a21 862e 8238 4f4c 98b4
00000330: f9f9 ca2a 13ff b031 4943 312d 5d91 2c2c
00000340: 6afc 0828 e2d8 a52a 7f3d a2ae d94b 8038
00000350: 8921 ae24 45b4 e231 d5b1 6439 3cdc fb25
00000360: dd41 6e9d 39ba 0e35 315b 3522 00f6 bfb4
00000370: 1e4d 951c 9ba6 68aa ba92 882c 6130 ef25
00000380: a44a 812e f74d e534 d76b 899f 10c2 082f
00000390: e35c ea24 37f5 2135 2886 caab 4154 edaf
000003a0: 7b6a 98ab bc8c 2e35 a36b 09a6 f63e 52ae
000003b0: 70e9 a5b7 9c59 269f aa6c 7eb4 c87f 54b1
000003c0: 7409 49b4 71a7 44b9 b642 4ea7 3b1b 2fa5
000003d0: 0991 30b8 c5c2 2cb5 fc6b 9732 19be f734
000003e0: 77cf 542a 0fa4 5d31 55b5 beb1 ffa5 67ae
000003f0: c32e 9eb4 485e 3cae fece 6d33 8cb0 d8b2

bias f4 [10]
-2.3051578e-05 -1.5613741e-06 -4.6501023e-07 1.030696e-05 3.7148686e-07 -1.5004271e-05 -7.773837e-05 4.6622317e-06
-8.7703e-07 -1.0630916e-06
00000000: e35e c1b7 6890 d1b5 85a6 f9b4 0eec 2c37
00000010: c470 c734 daba 7bb7 7807 a3b8 4470 9c36
00000020: 0b6d 6bb5 8daf 8eb5

weight f4 [10, 64]
-3.5807497e-09 -8.571926e-07 -3.0090142e-13 3.446074e-14 1.7679654e-12 -4.143213e-07 -1.1756374e-10 1.8088391e-09
6.8602303e-06 -6.161222e-07 -2.0541003e-11 -2.6686393e-09 -8.945741e-09 -6.2383333e-06 7.132939e-13 -8.620062e-09
-2.0105345e-07 -9.050099e-07 -2.1049704e-09 -3.0562653e-05 1.3909826e-10 -2.8797886e-09 3.4261877e-12 -2.6047022e-05
2.189712e-06 -6.433158e-12 3.891696e-09 -3.6347376e-06 -1.125495e-08 -4.359331e-10 -1.4128516e-05 -4.2656865e-08
2.1458033e-11 -1.1206607e-06 -2.6075506e-07 1.5403989e-11 -1.2607149e-05 8.362905e-14 -1.3144263e-09 1.0225804e-11
-2.7950988e-12 -2.2666706e-09 -5.1373235e-08 3.6683103e-09 -3.608656e-10 -3.4731697e-06 3.1824722e-13 4.039814e-10
7.061595e-08 6.4292535e-06 1.21962085e-11 6.648532e-11 -3.9683428e-08 -9.346449e-07 -2.39177e-10 9.542208e-05
1.8802763e-07 1.1411445e-05 1.8053341e-06 -1.6062773e-05 -2.639864e-07 6.26196e-07 1.1882883e-08 -1.1276439e-09
-3.205733e-11 -1.8595535e-12 -4.187221e-14 -1.22204925e-14 -4.4772516e-10 -1.47246775e-08 -7.167333e-12 4.3560065e-11
-2.3089688e-11 7.888835e-10 7.938027e-06 1.3542172e-09 -2.9454299e-05 5.783554e-14 -8.52642e-05 -8.44059e-13
6.9707133e-09 6.1210926e-07 2.2766841e-10 2.605291e-12 -6.074474e-08 1.6728644e-09 -1.5249073e-13 -5.2953017e-11
-9.8223964e-11 -3.1367278e-13 -1.0377916e-12 -4.169716e-09 -2.537581e-11 8.109355e-10 3.8648887e-14 2.6700406e-09
-4.3157905e-10 6.0384693e-05 9.671012e-07 1.5117716e-12 -1.2780008e-11 -3.927155e-14 -3.3739258e-09 -1.102495e-07
5.6272672e-08 6.010966e-05 4.6633586e-10 -3.0183595e-13 4.8919652e-08 1.09498896e-10 -4.681565e-07 -3.249378e-08
-2.4929476e-14 2.5978938e-10 -4.1946064e-13 1.9466269e-08 -1.0987275e-08 -2.7445677e-09 5.1792288e-08 3.2254056e-07
3.427607e-08 8.761114e-09 1.2619499e-11 -4.569431e-08 4.620574e-09 1.14623595e-10 1.0549181e-07 -6.1321295e-11
-4.7072646e-07 1.3655999e-07 -1.787501e-11 -6.604831e-15 -3.0972948e-12 1.4784075e-07 9.037542e-06 -1.6389956e-10
8.6080275e-11 8.318787e-10 -1.5882582e-11 -1.06120666e-07 -7.879377e-06 -5.618325e-13 -5.6436404e-11 3.124373e-05
3.0811083e-05 -2.5213658e-11 -3.5080248e-09 -1.1662539e-11 -6.978705e-05 -6.074848e-11 -1.0430361e-05 -1.583837e-05
-3.0312938e-07 -4.271049e-09 2.5935169e-08 4.646129e-06 6.794448e-11 -1.135784e-05 -6.7787784e-13 1.282554e-07
-8.459774e-13 7.5688845e-08 -1.9514866e-06 -4.2496937e-10 6.5373207e-10 1.8864042e-11 9.295562e-06 -2.855075e-11
-3.0606323e-12 -3.5499725e-06 -1.4096048e-09 2.82102e-07 3.2153138e-11 4.4156728e-10 -1.2166549e-08 -9.833246e-10
4.234504e-07 -2.4635173e-07 8.318087e-13 -1.933838e-11 5.838788e-05 -4.2932152e-10 1.3581545e-09 1.038488e-11
-2.986974e-10 4.6402854e-10 -4.74546e-06 4.8595582e-05 6.918096e-10 -3.4481118e-13 -1.2182516e-13 -6.7233514e-06
1.3370489e-05 -1.6340141e-07 -1.1814161e-13 -1.280568e-14 -8.1183156e-13 1.6694457e-07 -3.8677245e-11 -1.5003516e-11
-6.4058505e-09 -2.9195567e-12 1.8045156e-13 -1.1453126e-06 3.3564376e-13 6.7533776e-08 -2.392476e-07 -3.7115021e-06
-5.7091134e-11 -7.0025815e-15 1.1433644e-09 -1.3174374e-09 6.178676e-10 -0.000112495014 2.6448048e-05 -2.1847936e-10
0.00010251967 5.085181e-06 -9.441074e-08 1.957619e-06 -1.924524e-09 9.197945e-12 2.1224821e-07 7.006802e-12
4.706196e-07 1.3170477e-05 5.34884e-09 7.443608e-13 4.7926378e-08 0.00016335581 2.7394323e-08 4.696833e-12
-1.3292639e-11 -1.7173941e-13 -1.0326006e-08 6.6900404e-12 -1.5263565e-10 -1.0786662e-06 1.7644252e-12 -5.775145e-07
4.7934725e-05 -1.4754716e-14 -2.8136797e-09 -8.8325756e-08 5.3343924e-10 -4.015885e-08 5.360691e-10 1.1677308e-07
-4.714635e-11 -6.0203897e-06 -2.7502612e-13 -1.5263851e-09 8.8823974e-05 1.3570274e-10 6.344762e-06 5.218726e-07
00000000: 3711 76b1 d419 66b5 7764 a9aa 8732 1b29
00000010: abd1 f82b e36f deb4 4043 01af de9a f830
00000020: ee30 e636 9863 25b5 3aae b4ad 3363 37b1
00000030: c9af 19b2 e052 d1b6 3ec6 482b 6f17 14b2
00000040: 27e1 57b4 cfef 72b5 08a7 10b1 6630 00b8
00000050: aef0 182f c7e5 45b1 b618 712c 8e7f dab7
00000060: f7f2 1236 bc58 e2ac b8b7 8531 51ec 73b6
00000070: cb5b 41b2 21a8 efaf 8409 6db7 b835 37b3
00000080: 32bf bc2d 9c69 96b5 e7fd 8bb4 b37e 872d
00000090: 4b83 53b7 dd50 bc29 44a7 b4b0 ede4 332d
000000a0: 06b0 44ac b1c3 1bb1 78a5 5cb3 9915 7c31
000000b0: 5163 c6af 9a14 69b6 4228 b32a 5417 de2f
000000c0: 87a5 9733 deba d736 d78e 562d e833 922e
000000d0: 6470 2ab3 4fe4 7ab5 2c7d 83af 571d c838
000000e0: a4e4 4934 c873 3f37 cf4e f235 8bbe 86b7
000000f0: 04ba 8db4 dd17 2835 7925 4c32 71fb 9ab0
00000100: 58fd 0cae bdda 02ac 5f93 3ca9 1325 5ca8
00000110: b723 f6af d1f7 7cb2 992d fcac 4694 3f2e
00000120: 5b19 cbad bed8 5830 912d 0537 481f ba30
00000130: a014 f7b7 eb3b 8229 decf b2b8 dc94 6dab
00000140: 0b83 ef31 d44f 2435 f652 7a2f c054 372c
00000150: c672 82b3 afea e530 76b0 2baa cce3 68ae
00000160: 2dff d7ae 0395 b0aa 620e 92ab 3645 8fb1
00000170: 3f35 dfad 83e8 5e30 220f 2e29 da7b 3731
00000180: 5a43 edaf 9245 7d38 58cd 8135 50c3 d42b
00000190: 0ad4 60ad 04dd 30a9 bbda 67b1 4ec2 ecb3
000001a0: 75b0 7133 421e 7c38 782f 0030 25eb a9aa
000001b0: ba1b 5233 66ca f02e f056 fbb4 4a8f 0bb3
000001c0: 758b e0a8 1bd2 8e2f a622 ecaa c736 a732
000001d0: 8cc2 3cb2 f29a 3cb1 3972 5e33 a329 ad34
000001e0: f036 1333 c983 1632 2c01 5e2d 6d41 44b3
000001f0: 00c3 9e31 590f fc2e bc8a e233 d2d8 86ae
00000200: 27b8 fcb4 53a1 1234 f23a 9dad d0f6 eda7
00000210: e7f3 59ac 28be 1e34 f39f 1737 a035 34af
00000220: e34a bd2e 42aa 6430 65b4 8bad 74e4 e3b3
00000230: ab31 04b7 4c24 1eab be35 78ae b30b 0338
00000240: 263b 0138 1cc8 ddad d311 71b1 682b 4dad
00000250: a35a 92b8 5b96 85ae 0ffe 2eb7 a4dc 84b7
00000260: c9bd a2b4 8bc0 92b1 0ac8 de32 f2e5 9b36
00000270: 5869 952e 8d8d 3eb7 3fce 3eab 93b6 0934
00000280: 191f 6eab 628a a233 49f6 02b6 1fa1 e9af
00000290: 4eb2 3330 0cee a52d 23f4 1b37 9322 fbad
000002a0: 735f 57ac 103c 6eb6 0fbc c1b0 ce73 9734
000002b0: 3769 0d2e 12c1 f22f 0c05 51b2 a925 87b0
000002c0: 9456 e334 5342 84b4 2222 6a2b 291a aaad
000002d0: 82e5 7438 a205 ecaf d0a9 ba30 57b1 362d
000002e0: ec35 a4af 361a ff2f 313b 9fb6 1cd3 4b38
000002f0: c629 3e30 871c c2aa b629 09aa 2699 e1b6
00000300: d051 6037 7073 2fb4 0004 05aa c7af 66a8
00000310: a182 64ab 6041 3334 b51a 2aae eaf8 83ad
00000320: 751a dcb1 0f72 4dac 9f2b 4b2a a4b8 99b5
00000330: 5df3 bc2a 1607 9133 f171 80b4 1f13 79b6
00000340: e716 7bae 6a4b fca7 8f24 9d30 3511 b5b0
00000350: 91d6 2930 4deb ebb8 c0dc dd37 7938 70af
00000360: d4ff d638 5fa1 aa36 dabe cab3 a35f 0336
00000370: 9640 04b1 ddcf 212d 58e6 6334 a987 f62c
00000380: 77a9 fc34 c5f6 5c37 e5c8 b731 d984 512b
00000390: 9cd7 4d33 7e4a 2b39 c150 eb32 5041 a52c
000003a0: b9d8 69ad 845c 41aa 4166 31b2 8762 eb2c
000003b0: 1ed3 27af b0c6 90b5 1e52 f82b 7f06 1bb5
000003c0: 850d 4938 0fe6 84a8 c75a 41b1 99ad bdb3
000003d0: 73a1 1230 1f7b 2cb3 825a 1330 aec4 fa33
000003e0: 125a 4fae c102 cab6 71d3 9aaa e7c8 d1b0
000003f0: 0247 ba38 ed34 152f 17e5 d436 d016 0c35
