ckpt/TC1_only_mlp-best.pt (torch, 141692 bytes, 17 tensors)

weight f4 [256, 7]
-2.9926741e-05 0.11452386 -0.21622892 -0.18411356 -0.05918921 0.022975063 3.2508433e-05 0.20507437
-0.00011294233 0.022005316 -0.032783862 -0.006232886 -0.2653117 -0.15714131 -0.06832835 -5.1453626e-06
0.06259187 0.13452917 -0.16285795 -0.07623346 0.051955104 0.21906333 -0.014781972 0.18866274
-0.0012658878 -0.0001858743 0.24677531 -0.25501996 -0.14521533 -0.018933887 -0.06073852 0.23138997
-0.15200216 -0.0848391 -0.17043011 -0.25832224 -0.1286365 0.2297586 0.07994276 0.09335043
-6.551014e-05 -0.10323667 0.0021166408 -0.25734058 -0.17920214 -0.104246154 0.14573193 0.12958212
-0.079001665 0.00013038123 0.15218085 0.2797505 0.06311123 -0.00033215966 0.1601351 -0.13047707
0.0045403973 -0.19855934 -0.1683965 -0.10461993 0.082108684 0.064887494 -0.13175823 0.03511685
0.12807664 0.0004623139 2.983291e-05 0.01360507 0.14189884 0.2671145 -0.19688165 -0.053063013
0.06181237 0.21826443 0.2336904 0.23819554 0.006678346 -0.23345461 0.00012943 -0.14379579
-0.2566121 0.24047166 0.19309668 -0.28101504 0.0046304683 -0.0020833798 -0.0016084994 -0.08394316
0.058990046 -0.13174056 0.05305833 0.10084072 0.17716043 0.055463925 -0.27811223 -0.15219048
0.09850727 0.008670749 -0.20036983 -0.12583597 0.25988185 0.16135153 -0.076426886 -0.018567422
-0.26428843 1.0068908e-05 -0.19039686 -0.1971477 9.97822e-05 0.00036121914 -0.06737842 0.13212839
-0.1382483 0.25075758 0.16554771 -0.22371621 -0.017844664 6.53393e-05 0.000102755665 0.01753579
0.07713131 -0.00011413772 -0.094494976 0.08932474 -0.26676288 -0.13188607 -0.0181941 -0.09419374
-0.047616877 -0.21496296 -0.009372715 0.009590662 -0.15319881 6.1540486e-05 0.17910121 0.00011094798
1.1263265e-05 -0.00018914985 0.0073093357 0.147513 0.2624115 0.14935605 0.2631039 -8.082779e-05
-0.2441192 -0.08963549 0.16394116 7.90445e-08 -0.09769937 -0.1952888 -0.25806096 -0.22398488
-0.0073962905 0.11596112 0.113161996 -0.26880774 0.14313407 -0.20125905 -0.009102119 -0.0660055
-0.005539289 -0.006199591 -0.24377508 -0.23118125 -0.0008396595 -1.581613e-05 -0.08273384 0.056384306
-0.24476287 8.670609e-06 0.23710604 -0.06682365 0.24585725 0.05160822 -0.24565583 0.14646351
-0.00082919974 -0.080007814 0.20758553 -0.21070325 -0.0002221489 -0.008684409 0.17615543 0.044699978
0.09188732 0.048689004 -0.015725715 -0.008875201 -0.21661207 0.11357657 0.20553195 0.16515477
-0.17289826 7.0499846e-05 -0.17273557 -0.11670472 -0.12859978 0.052789845 -0.13304414 1.2701077e-05
7.789281e-05 0.15070759 -0.1914623 -0.16600055 -0.12760524 0.17090361 -0.050732713 0.22379246
0.05143019 -0.00046032396 6.996889e-05 -0.007279159 -0.0004646332 -0.012818637 1.1155738e-05 -0.00045442104
-0.20114693 -0.10758443 0.21596666 -0.21197836 -7.111781e-05 0.2779274 0.05130948 -4.3884278e-08
-0.2323152 0.10205641 -0.17542847 -0.027395884 -0.04304953 -0.00022966616 1.4694222e-05 0.21686284
-0.00041044402 0.24314354 0.1387588 -0.14619558 0.08073354 -0.17345458 -0.072996154 0.044508755
0.041372243 0.18936758 -0.03879102 7.0550965e-07 0.10399555 -0.26976115 0.17980415 -0.2176627
-2.0660702e-05 -0.002224695 -0.10820553 -0.00039642467 0.21765801 -0.029893532 -0.13224262 -0.054123502
00000000: 300b fbb7 7c8b ea3d 1d6b 5dbe 4488 3cbe
00000010: 6370 72bd 3336 bc3c aa59 0838 04ff 513e
00000020: 74db ecb8 7e44 b43c 5f48 06bd 3d3d ccbb
00000030: efd6 87be a7e9 20be bcef 8bbd 54a6 acb6
00000040: 2b30 803d 04c2 093e 3cc4 26be 4a20 9cbd
00000050: e0ce 543d 2352 603e 1630 72bc ce30 413e
00000060: 25ec a5ba 41e7 42b9 abb2 7c3e fa91 82be
00000070: 54b3 14be 3d1b 9bbc f4c8 78bd 7ef1 6c3e
00000080: 74a6 1bbe 1fc0 adbd 3b85 2ebe d042 84be
00000090: 49b9 03be d745 6b3e 08b9 a33d 832e bf3d
000000a0: 7d62 89b8 bf6d d3bd 57b7 0a3b 25c2 83be
000000b0: c480 37be 027f d5bd c03a 153e 2db1 043e
000000c0: a0cb a1bd f2b6 0839 4cd5 1b3e 753b 8f3e
000000d0: 7640 813d b725 aeb9 75fa 233e c89b 05be
000000e0: 9dc7 943b 2453 4bbe 2270 2cbe f942 d6bd
000000f0: 9928 a83d bce3 843d a1eb 06be b0d6 0f3d
00000100: 8626 033e b962 f239 b041 fa37 cde7 5e3c
00000110: ee4d 113e 3bc3 883e 589b 49be 9a58 59bd
00000120: f82e 7d3d b680 5f3e 894c 6f3e 88e9 733e
00000130: 07d6 da3b ba0e 6fbe 9ab7 0739 343f 13be
00000140: a962 83be 343e 763e 23bb 453e 34e1 8fbe
00000150: 2fbb 973b 5089 08bb 49d4 d2ba 64ea abbd
00000160: 8c9f 713d ffe6 06be b153 593d 9485 ce3d
00000170: 8b69 353e 242e 633d ba64 8ebe d2d7 1bbe
00000180: 2ebe c93d c20f 0e3c c02d 4dbe 25db 00be
00000190: 3c0f 853e 5639 253e b385 9cbd b51a 98bc
000001a0: d050 87be a1ed 2837 65f7 42be 16e1 49be
000001b0: 2942 d138 0362 bd39 b2fd 89bd aa4c 073e
000001c0: f690 0dbe 4c63 803e 5785 293e dd15 65be
000001d0: f92e 92bc c506 8938 877e d738 38a7 8f3c
000001e0: 05f7 9d3d 395d efb8 9586 c1bd e4ef b63d
000001f0: 2595 88be 240d 07be cb0b 95bc a6e8 c0bd
00000200: ea09 43bd 401f 5cbe 0490 19bc 2722 1d3c
00000210: 26e0 1cbe 4c0f 8138 4f66 373e beac e838
00000220: 5bf7 3c37 8756 46b9 2783 ef3b a60d 173e
00000230: cd5a 863e cbf0 183e 8eb5 863e 1782 a9b8
00000240: 62fa 79be d092 b7bd 31e0 273e 2cbf a933
00000250: 9b16 c8bd caf9 47be 9120 84be 4b5c 65be
00000260: 955c f2bb 067d ed3d 7ac1 e73d 2ba1 89be
00000270: bd91 123e da16 4ebe 0e21 15bc e42d 87bd
00000280: ed82 b5bb f025 cbbb 2da0 79be c7ba 6cbe
00000290: 981c 5cba e1ac 84b7 5c70 a9bd 3bf3 663d
000002a0: 1ea3 7abe fb77 1137 edcb 723e d6da 88bd
000002b0: 01c2 7b3e 2463 533d 348d 7bbe 88fa 153e
000002c0: a75e 59ba 23db a3bd 4d91 543e 98c2 57be
000002d0: a4f0 68b9 0d49 0ebc 1762 343e 5317 373d
000002e0: 6b2f bc3d 1f6e 473d 37d3 80bc 4b69 11bc
000002f0: 8ecf 5dbe d59a e83d f876 523e 551e 293e
00000300: 3e0c 31be 51d9 9338 98e1 30be e202 efbd
00000310: a9af 03be 2a3a 583d b93c 08be b616 5537
00000320: 625a a338 1753 1a3e b10e 44be 0cfc 29be
00000330: f3aa 02be 5b01 2f3e 1bcd 4fbd da29 653e
00000340: 77a8 523d a357 f1b9 43bc 9238 0386 eebb
00000350: 039a f3b9 4305 52bc 8829 3b37 5c3f eeb9
00000360: 76f9 4dbe 3a55 dcbd 5d26 5d3e db10 59be
00000370: 1525 95b8 804c 8e3e e429 523d 467b 3cb3
00000380: 09e4 6dbe f302 d13d 85a3 33be 556d e0bc
00000390: b454 30bd 8ad2 70b9 3487 7637 4b11 5e3e
000003a0: dd30 d7b9 9ffa 783e c916 0e3e 4bb4 15be
000003b0: a057 a53d 149e 31be 027f 95bd d04e 363d
000003c0: f175 293d 93e9 413e 55e3 1ebd 4162 3d35
000003d0: 9efb d43d 221e 8abe 941e 383e f9e2 5ebe
000003e0: 8550 adb7 30cc 11bb dc9a ddbd 38d7 cfb9
000003f0: bee1 5e3e 48e3 f4bc 9c6a 07be 9bb0 5dbd

bias f4 [256]
0.20613733 0.10752252 0.06422504 -0.020631226 0.10978602 0.09201473 0.04644324 1.2235688e-05
0.00031027358 8.268028e-07 -0.1803619 0.013707666 -0.1838218 0.09353626 -0.13300668 -0.040263936
-0.08969707 0.20376837 -0.17247339 0.10250314 0.09928964 0.17351998 0.018274585 0.11479607
0.20420694 0.0063067917 0.04447674 -0.20104687 -0.02299502 0.00014484125 -0.00045551194 -0.048734903
-0.27870908 -0.020776547 0.058419764 0.23030399 -0.24586692 0.09081108 -0.2629032 -0.26566637
-0.14402777 0.00039801735 0.026089765 -0.19315249 0.19680978 0.24634016 -0.000102658065 0.21287917
-0.08219259 -0.06267899 0.00044147894 -0.0002680709 -0.17004392 -0.2079858 0.062490657 0.02868569
0.2738422 -0.06676311 0.048682988 -0.06535236 0.09650896 0.00010271027 0.18608692 0.11852597
0.21966949 0.10366634 1.7595443e-05 0.23056415 -0.12996466 0.26078793 0.27343947 0.2652816
-0.08720459 -0.10933948 -8.318862e-05 0.035558343 0.099323824 0.06642132 0.22675484 -0.018270968
-0.04070871 0.042949643 0.025911888 -0.12850295 3.3991622e-05 -0.19268806 -0.030159554 -0.061632626
0.23605427 -0.24480657 -0.13106255 -0.27397662 0.018702678 -0.196533 0.039295275 -0.16895472
-0.14923702 -0.102595925 0.00035614576 0.25175396 0.25838086 -0.00013564785 -0.27429947 -0.041429963
-0.057845343 -0.009368683 0.058169845 0.09989202 0.07896019 0.027915582 -0.065787666 -7.0172655e-06
-0.00045664667 -0.10256571 -0.0001606126 0.00046571103 -0.26139274 0.16285121 6.875472e-05 -0.23156
0.20445542 -0.11226885 0.048974983 0.27884874 5.0143382e-05 0.02850475 0.063261196 0.19141476
-0.034170356 -0.12109034 -0.00017018264 0.20109005 0.00019075883 0.16902804 4.7652716e-06 0.034169573
-3.6726717e-05 2.406001e-05 -0.26392436 -0.23518312 0.0001974989 0.09696159 0.16059749 7.790839e-05
0.07145651 0.07033655 -0.23111248 -0.23692566 -0.19861783 1.9078258e-05 -0.14623277 -0.03820203
-0.00032614986 0.060859464 0.013641506 0.25502193 0.2454813 -0.1482826 3.2171913e-06 0.0016696373
0.2347251 -0.03510909 -0.061809815 -0.14664689 0.18445243 -0.027235998 -0.055666372 0.16228376
0.25223032 -7.81481e-05 -0.1727253 0.21317518 -0.045109443 -0.08501033 -0.1720356 -0.09203838
-0.20150109 -0.12630096 -0.2488111 -0.0071521113 0.06485877 -0.1926423 5.3962566e-07 -0.0537699
0.09300824 0.23217578 0.00038904577 -0.09991484 -0.19604489 -0.13001515 0.028800923 0.013074104
0.112431414 -0.00026068155 0.103644386 -0.24137343 0.023157276 0.27105936 -0.2780986 -0.10552304
0.14908722 -0.0008286819 -0.11047442 0.13816202 -2.1714355e-05 4.7740734e-05 -0.03324003 0.19054933
0.118213646 0.0034214407 0.0005343621 0.10480083 0.14285398 -0.06760589 0.00027478163 0.07745889
-0.093317464 0.2577628 -0.16543795 0.085226946 -0.17764103 0.038527846 0.1703629 -0.0004512372
4.7367546e-05 0.14754 -0.17754139 -0.16166134 -0.22705382 -0.14014871 4.017752e-05 -0.08244606
0.011551467 -5.0071743e-05 0.21963596 -0.07559587 -0.024475437 0.15681739 -0.018871738 0.26607314
-0.06321131 -1.4924308e-05 -0.014856601 0.087004304 0.058528315 -0.11029083 0.15592308 7.9510224e-05
-0.018877747 3.3493114e-05 0.16944332 0.2748373 0.094024464 0.0028508788 0.15362453 -0.07031294
00000000: aa15 533e c434 dc3d 6b88 833d d102 a9bc
00000010: 7ed7 e03d 3872 bc3d 443b 3e3d e147 4d37
00000020: 37ac a239 75f1 5d35 cab0 38be 1e96 603c
00000030: c83b 3cbe f08f bf3d e732 08be cceb 24bd
00000040: 19b3 b7bd a8a8 503e dd9c 30be 2bed d13d
00000050: 5e58 cb3d 39af 313e 95b4 953c 341a eb3d
00000060: a01b 513e 34a9 ce3b 3e2d 363d 3bdf 4dbe
00000070: 0d60 bcbc 87e0 1739 c7d1 eeb9 409e 47bd
00000080: f5b2 8ebe 9433 aabc 9049 6f3d cfd4 6b3e
00000090: 8ac4 7bbe 29fb b93d 409b 86be 6c05 88be
000000a0: 047c 13be fcac d039 34ba d53c c4c9 45be
000000b0: 8188 493e 9840 7c3e 214a d7b8 fffc 593e
000000c0: 9754 a8bd d85d 80bd 4d76 e739 de8b 8cb9
000000d0: fe1f 2ebe 3bfa 54be 34f6 7f3d 41fe ea3c
000000e0: 0b35 8c3e 19bb 88bd d067 473d 75d7 85bd
000000f0: 7da6 c53d 2866 d738 928d 3e3e bebd f23d
00000100: 0af1 603e 054f d43d ed99 9337 0219 6c3e
00000110: 7515 05be ff85 853e 4200 8c3e fdd2 873e
00000120: 5298 b2bd 61ed dfbd 8d75 aeb8 a0a5 113d
00000130: 4a6a cb3d e707 883d 6c32 683e ffac 95bc
00000140: 2dbe 26bd f7eb 2f3d 2b45 d43c 4796 03be
00000150: 3a92 0e38 0550 45be 2b11 f7bc 7e72 7cbd
00000160: 36b8 713e 93ae 7abe 4335 06be aa46 8cbe
00000170: 5c36 993c f23f 49be 15f4 203d 7702 2dbe
00000180: 97d1 18be d01d d2bd 13b9 ba39 e5e5 803e
00000190: 7f4a 843e b13c 0eb9 fb70 8cbe 77b2 29bd
000001a0: 3def 6cbd 1b7f 19bc 8143 6e3d 3094 cc3d
000001b0: e1b5 a13d 38af e43c afbb 86bd da75 ebb6
000001c0: 146a efb9 f90d d2bd 1e6a 28b9 ad2a f439
000001d0: 45d5 85be 78c2 263e 6930 9038 111e 6dbe
000001e0: c35c 513e 36ed e5bd fe99 483d 43c5 8e3e
000001f0: 0c51 5238 cb82 e93c 168f 813d 3b02 443e
00000200: 37f6 0bbd 36fe f7bd 0e73 32b9 8dea 4d3e
00000210: 6f06 4839 b015 2d3e 5fe5 9f36 65f5 0b3d
00000220: 030b 1ab8 7ad4 c937 1821 87be d8d3 70be
00000230: b517 4f39 cc93 c63d ab73 243e c062 a338
00000240: ca57 923d 9c0c 903d c0a8 6cbe a49c 72be
00000250: 7962 4bbe 3f0a a037 0bbe 15be bb79 1cbd
00000260: 18ff aab9 c647 793d a080 5f3c 3c92 823e
00000270: 735f 7b3e 65d7 17be ede6 5736 bbd7 da3a
00000280: c75b 703e 8dce 0fbd 4a2c 7dbd 9a2a 16be
00000290: 19e1 3c3e 071e dfbc 6c02 64bd b72d 263e
000002a0: 5524 813e 71e3 a3b8 e7de 30be 984a 5a3e
000002b0: aec4 38bd e519 aebd 1a2a 30be 9e7e bcbd
000002c0: 4d56 4ebe 0a55 01be 56c8 7ebe 425c eabb
000002d0: add4 843d 0644 45be cbda 1035 d43d 5cbd
000002e0: 1b7b be3d 7dbf 6d3e d7f8 cb39 27a0 ccbd
000002f0: febf 48be b122 05be eaef eb3c c434 563c
00000300: 7142 e63d 16ac 88b9 8243 d43d 992a 77be
00000310: 54b4 bd3c 4bc8 8a3e f162 8ebe 771c d8bd
00000320: 52aa 183e e73b 59ba 6a40 e2bd 587a 0d3e
00000330: 3927 b6b7 393d 4838 b326 08bd 5d1f 433e
00000340: ff19 f23d 403a 603b 6f14 0c3a d1a1 d63d
00000350: 5048 123e f574 8abd 9110 9039 c4a2 9e3d
00000360: 3a1d bfbd 7cf9 833e 9168 29be 778b ae3d
00000370: 88e7 35be 60cf 1d3d 9d73 2e3e 0894 ecb9
00000380: 84ac 4638 ba14 173e 69cd 35be 8d8a 25be
00000390: cc80 68be 2583 0fbe 4984 2838 7bd9 a8bd
000003a0: 5d42 3d3c 2004 52b8 40e8 603e 02d2 9abd
000003b0: b680 c8bc bd94 203e e798 9abc bd3a 883e
000003c0: ee74 81bd 6a63 7ab7 1a69 73bc 502f b23d
000003d0: 63bb 6f3d 29e0 e1bd 4daa 1f3e babe a638
000003e0: 81a5 9abc f57a 0c38 8d82 2d3e 79b7 8c3e
000003f0: e68f c03d cfd5 3a3b c04f 1d3e 3b00 90bd

weight f4 [32, 256]
-9.661495e-05 4.545042e-05 0.00021633822 5.825467e-05 1.3560311e-05 8.6387365e-05 -3.098911e-05 -7.795083e-05
-8.349516e-05 0.0005620233 0.0004608214 -0.00011387955 -7.688333e-05 -0.00016417011 -6.8771784e-05 0.00010028631
-0.00014235402 0.0014143293 -0.001007228 -0.00026263885 0.0002885409 -0.00018153618 -2.0278965e-05 -5.9781538e-05
0.00046739876 -0.00023838325 -0.00015455142 5.6269735e-05 -2.9670135e-05 -0.00018313807 -2.1533588e-05 -0.0001409418
-3.493305e-05 0.00030639098 0.00020161884 -0.00026503424 3.1293082e-05 -2.9125858e-05 -0.00021694953 -0.00038315242
-6.398425e-05 2.2633465e-05 0.0004463687 0.00021428526 0.00015297064 0.00045713256 -1.5751373e-05 -1.1359565e-05
-8.258457e-05 7.862523e-05 0.00012771481 0.00027028492 -0.0034557837 1.7427028e-05 -0.00020337455 -0.00020074594
-0.00033672803 0.00042816126 -0.0002139418 9.198984e-05 -0.0004576136 -0.00013475785 -5.2024086e-05 -5.624279e-05
6.2965504e-05 0.00019569673 2.1392912e-06 0.0001402002 7.2502575e-05 -0.00017609546 -0.00044587374 -0.0002132625
2.3607825e-05 -6.9219575e-05 0.00025364058 -0.0002156068 -2.6461044e-05 0.00019324495 -0.00034325302 -0.00013814584
-0.00045637556 -0.0010200033 -0.00026563532 -3.1906842e-05 -0.0008591831 6.146167e-05 0.0002968051 5.275703e-05
-0.00036110452 0.00011916844 -0.00016200234 0.00017112712 0.00028973073 0.0017994215 -5.5096374e-05 0.00030927907
-0.00021780313 -0.00023677832 -5.7522364e-05 0.0001561209 -0.000976112 4.836654e-05 -0.00046489437 -0.00045332924
0.00020193907 3.2506277e-06 7.517599e-05 0.0004618263 -9.8812314e-05 -0.0021349506 -1.9334102e-05 -0.00031664642
-0.00045236186 -0.00020395471 -0.00013149562 -1.10352585e-05 0.00027693599 -0.00022150982 5.749172e-05 5.1056246e-05
-6.6538145e-05 -0.00010575366 0.00047083866 -0.00019721885 0.0011621293 -0.00016603536 -0.00023863709 0.00019675541
-2.7314043e-05 -0.00026097405 -0.00019731694 -5.357458e-05 -0.00012991637 -2.936518e-05 4.8737005e-05 0.00034378524
-0.00017932334 -0.00045407732 1.291327e-05 -4.6557583e-05 -0.00013562563 -3.70919e-05 2.2886397e-05 3.0503676e-05
-6.833526e-05 -7.318842e-05 7.050581e-05 -0.00012406553 -3.9132985e-05 0.00033735388 -5.4046952e-05 0.00022015789
0.00019149433 0.0003193137 -0.00039947327 -1.00936295e-05 -0.0002558766 -0.00046275495 -0.0014941319 4.750024e-05
0.00014030101 -1.7058962e-06 1.7288421e-05 -0.00018162602 -0.00043587558 0.00043537279 0.00023223784 -3.2794633e-05
4.0880852e-05 -5.762716e-06 0.00021614731 0.00031931052 -0.00025308508 -0.00021771099 -5.6052195e-06 -4.1673207e-05
-2.0704525e-05 0.00032149846 -0.0003643759 0.00042304595 0.0014137077 -8.1285994e-05 -0.00010756324 1.5406011e-06
-2.2938624e-05 -8.320922e-05 -0.0030855604 -7.469145e-05 0.0015614955 0.00020972402 0.001360941 2.8694189e-05
9.977483e-06 -0.0006395954 -0.0001275592 0.00035969517 -6.6610526e-05 -0.00023420092 -5.3356093e-06 -0.00024044652
-3.6013233e-05 0.00025283635 -2.3306864e-05 0.001139261 -0.00037823996 -0.00046176047 -2.3247521e-05 6.70501e-05
0.00015109526 8.924493e-05 1.6184432e-06 0.0004651425 -0.00021515672 0.00034470853 -0.00019102829 -5.5669298e-06
0.00017916936 -0.00045137253 -5.6736782e-05 -6.914657e-05 -5.9789396e-05 -7.611012e-05 -0.0003933187 0.00015843117
1.4628475e-05 4.8886955e-05 -5.8980157e-05 -0.00014720435 1.4893954e-05 -2.0050227e-05 -8.2830535e-05 7.395137e-05
-0.00010357643 -0.0001360985 -2.4135232e-05 -4.0900068e-05 8.126492e-05 0.00046561385 -0.0017512799 3.6849194e-06
4.536161e-05 3.3055454e-05 -3.954838e-05 5.5334513e-05 -0.0003385266 -0.00022810878 7.279145e-05 -5.5781e-06
3.2248172e-05 -0.00011571855 -0.0004103804 -0.00085137476 -1.7562881e-05 -0.0002434055 -0.00018220951 -5.846824e-05
00000000: c29d cab8 04a2 3e38 d9d8 6239 7a56 7438
00000010: 1881 6337 dd2a b538 4efa 01b8 8879 a3b8
00000020: 1f1a afb8 bf54 133a 679a f139 9ed2 eeb8
00000030: 6c3c a1b8 1425 2cb9 9239 90b8 cd50 d238
00000040: de44 15b9 0461 b93a f704 84ba cab2 89b9
00000050: 4e47 9739 bf5a 3eb9 bf1c aab7 f0bd 7ab8
00000060: 330d f539 84f6 79b9 150f 22b9 2b03 6c38
00000070: 21e4 f8b7 c008 40b9 07a3 b4b7 c7c9 13b9
00000080: 1485 12b8 1aa3 a039 a569 5339 4bf4 8ab9
00000090: b140 0338 4e53 f4b7 f27c 63b9 d9e1 c8b9
000000a0: 482f 86b8 ffdc bd37 9806 ea39 c3b1 6039
000000b0: be66 2039 4bab ef39 d121 84b7 f694 3eb7
000000c0: 4131 adb8 99e3 a438 2feb 0539 07b5 8d39
000000d0: 6e7a 62bb 4230 9237 f140 55b9 547f 52b9
000000e0: df8a b0b9 d57a e039 9155 60b9 abea c038
000000f0: dceb efb9 c94d 0db9 7034 5ab8 3ce6 6bb8
00000100: 590c 8438 f133 4d39 be90 0f36 b402 1339
00000110: 860c 9838 44a6 38b9 29c4 e9b9 379f 5fb9
00000120: 6b09 c637 fa29 91b8 10fb 8439 8214 62b9
00000130: a9f8 ddb7 cca1 4a39 a4f6 b3b9 3edb 10b9
00000140: b145 efb9 a2b1 85ba f844 8bb9 b6d3 05b8
00000150: cd3a 61ba fce4 8038 829c 9b39 6e47 5d38
00000160: a152 bdb9 12ea f938 2cdf 29b9 9670 3339
00000170: 00e7 9739 91da eb3a 4817 67b8 bc26 a239
00000180: 1562 64b9 b247 78b9 2b44 71b8 63b4 2339
00000190: c4e1 7fba 2ddd 4a38 11bd f3b9 d2ac edb9
000001a0: 9bbf 5339 5c25 5a36 cda7 9d38 4721 f239
000001b0: 7539 cfb8 87ea 0bbb ab2f a2b7 9003 a6b9
000001c0: fb2a edb9 addc 55b9 16e2 09b9 1324 39b7
000001d0: b831 9139 1745 68b9 4423 7138 3a25 5638
000001e0: 658a 8bb8 10c8 ddb8 e5da f639 88cc 4eb9
000001f0: 9752 983a c719 2eb9 a83a 7ab9 2150 4e39
00000200: 7620 e5b7 58d3 88b9 dde6 4eb9 44b5 60b8
00000210: 293a 08b9 3e55 f6b7 f66a 4c38 133e b439
00000220: be08 3cb9 3a11 eeb9 13a6 5837 d346 43b8
00000230: ba36 0eb9 2093 1bb8 2afc bf37 25e2 ff37
00000240: 374f 8fb8 bc7c 99b8 85dc 9338 9617 02b9
00000250: b922 24b8 dfde b039 79b0 62b8 2fda 6639
00000260: decb 4839 8f69 a739 6570 d1b9 cf57 29b7
00000270: 2d27 86b9 eb9d f2b9 bfd6 c3ba ff3a 4738
00000280: c41d 1339 26f6 e4b5 9a06 9137 dd72 3eb9
00000290: 3b86 e4b9 bf42 e439 df84 7339 f88c 09b8
000002a0: 7b77 2b38 5a5d c1b6 9aa5 6239 2269 a739
000002b0: 81b0 84b9 5949 64b9 7814 bcb6 44ca 2eb8
000002c0: a1ae adb7 cb8e a839 b509 bfb9 44cc dd39
000002d0: 294c b93a 1678 aab8 9393 e1b8 a7c6 ce35
000002e0: 526c c0b7 9c80 aeb8 1d37 4abb aba3 9cb8
000002f0: 18ab cc3a 5de9 5b39 9a61 b23a 4db4 f037
00000300: f764 2737 85aa 27ba 69c1 05b9 7895 bc39
00000310: 41b1 8bb8 d593 75b9 8908 b3b6 5f20 7cb9
00000320: ea0c 17b8 1f8f 8439 1c83 c3b7 4153 953a
00000330: 824e c6b9 7118 f2b9 ac03 c3b7 409d 8c38
00000340: 536f 1e39 0229 bb38 4939 d935 5fde f339
00000350: b19b 61b9 ffb9 b439 c44e 48b9 90cb bab6
00000360: 69df 3b39 32a6 ecb9 a8f8 6db8 c802 91b8
00000370: 60c6 7ab8 4f9d 9fb8 5836 ceb9 8b20 2639
00000380: d26c 7537 f80b 4d38 7661 77b8 de5a 1ab9
00000390: 0ce1 7937 8931 a8b7 4eb5 adb8 5716 9b38
000003a0: 2c37 d9b8 aab5 0eb9 0476 cab7 1d8c 2bb8
000003b0: c66c aa38 a21d f439 348b e5ba 6f4a 7736
000003c0: a842 3e38 06a5 0a38 c0e0 25b8 fb16 6838
000003d0: 457c b1b9 7c30 6fb9 9da7 9838 842b bbb6
000003e0: 3642 0738 ecad f2b8 5328 d7b9 cb2e 5fba
000003f0: 0054 93b7 ab3a 7fb9 7e0f 3fb9 cb3b 75b8

bias f4 [32]
-0.00034999583 -3.1640918e-06 0.0002900814 4.3586333e-05 -6.103687e-05 0.00014333663 0.00045520262 0.0001723709
-7.182432e-05 0.00015689773 -0.00037619256 -0.0004553405 0.00015254441 1.7071265e-05 -7.7422825e-05 7.414669e-05
-0.00019691931 -1.6851164e-06 -3.763806e-05 0.00011694195 -4.1694286e-05 -1.8430947e-06 -0.000117830285 -0.0001739541
3.936801e-05 0.00042665252 1.0237521e-05 -5.8966758e-05 -1.117828e-06 2.5363468e-05 -0.00018675858 1.6033508e-05
00000000: a57f b7b9 af56 54b6 1116 9839 78d0 3638
00000010: ec00 80b8 a24c 1639 43a8 ee39 76be 3439
00000020: 63a0 96b8 ea84 2439 b63b c5b9 c4ba eeb9
00000030: 54f4 1f39 4334 8f37 105e a2b8 337f 9b38
00000040: 207c 4eb9 292c e2b5 8fdd 1db8 bb3e f538
00000050: e6e0 2eb8 4060 f7b5 a71b f7b8 7367 36b9
00000060: 141f 2538 55b0 df39 d1c1 2b37 1353 77b8
00000070: 4708 96b5 a2c3 d437 a0d4 43b9 b27f 8637

weight f4 [20, 32]
-0.00015793862 0.018487126 -0.00017106025 -0.006807426 0.08037115 -0.00017828266 0.019766824 -0.02067423
-0.06817629 -0.08158968 -0.0011378805 0.041338984 0.07026489 2.8417153e-06 0.008245104 -0.056594044
-0.0010902043 -9.065254e-05 -0.08669623 -0.10309456 -0.049747054 0.006556532 0.0030420816 8.361234e-05
0.029484948 -0.066131964 -0.03839172 0.00026530187 0.058484003 -3.8783655e-05 -0.06580735 0.042229477
-0.026472393 0.061350886 0.005050037 0.004948327 0.085270524 0.002641937 -0.08534111 0.024439925
0.08806376 -0.005886915 0.045445796 0.068160616 -0.019589813 -9.732236e-05 -0.0026274829 0.088766105
0.008761918 0.041757897 -0.09714657 -0.042798992 -0.05018997 0.0014880513 -0.03313617 0.0058006654
0.01647305 -0.022705061 -0.0024895298 -0.04612598 -0.0043609394 0.00018075891 0.043685596 0.0057173753
-0.00047758396 0.017199015 0.05278537 0.00012709254 0.08375822 -0.027791101 0.000999645 -3.9542214e-05
0.04696511 -0.07998135 0.012488165 -0.065157406 -0.0086111305 -0.00041881576 -0.001349343 -0.01558197
-0.058038335 -0.06734045 -0.0010186769 0.06426025 0.00043347612 -0.037056085 -0.0025414238 -0.059413265
-3.928085e-05 0.06382377 -0.083652884 0.018715207 0.04978804 0.04365357 -0.025721269 -5.9129077e-05
0.021916715 -0.06498743 0.050807502 -8.7172586e-05 -0.070883505 0.00045390223 4.09468e-05 -0.008336341
-0.005858533 -1.8936682e-05 0.001282461 0.010219259 -0.08862107 3.990402e-05 -0.00043003133 0.05802051
0.014420206 0.037648745 0.0034953672 0.0023847544 -0.020342538 -0.0064174794 0.0042542024 0.00014976005
0.07456339 -0.037057295 0.03791123 0.031998992 0.037960712 0.053071298 -0.023573643 0.023647258
-0.0862074 -0.02234179 -0.00020562849 0.06450989 -0.008427705 -0.05591233 -0.070115134 -0.0023070646
-0.00030403343 -0.00036988145 0.0003287475 0.0059574908 -0.0046141683 0.00045146144 0.019638974 -0.054610774
-0.016959982 -0.00038996365 -0.013552268 -0.004454054 -0.0025229047 0.025079092 0.086765155 0.0662464
-0.00045958738 -0.055876758 -0.0066292137 -0.009474268 -0.0076143174 -0.013991561 0.02621271 -0.079255566
-7.281571e-05 0.0444431 -0.05461588 0.0001327578 0.024101052 -0.0015109403 -0.011284524 0.020557703
-0.03952141 0.087052524 0.07075209 0.00020323906 -0.0005183776 -0.015190322 -0.00032477328 -0.05014597
0.00043390083 0.05546979 0.002192438 0.05083174 0.034692273 0.08040065 0.0007668734 -0.045451142
-0.07208281 0.03560074 0.058031242 0.084884405 -0.04016094 0.07347667 -0.001969173 -0.00047206588
0.039639503 -0.051971372 -0.080836244 0.035783954 -0.07912958 0.012468508 0.023687314 0.046977304
-0.00010778084 0.00044501238 -0.000118385 -0.00015284555 -0.08415202 -0.00028885395 -0.025702441 0.048604425
-0.010876306 -0.00013926458 -0.055257432 0.0806401 0.024021307 0.06742093 0.028183997 -0.029407255
0.07855459 0.001403946 0.07465285 -5.314424e-05 0.03524062 -0.00446712 0.004297865 -5.0125742e-05
-0.056549206 0.05847112 -0.021285443 -0.042375386 0.07795268 -0.074219145 0.001370266 0.073621266
-0.0024264127 -0.07868034 -0.057565633 -0.0019854333 -0.009297679 0.039653007 0.061607618 -0.053540166
-0.00020940248 -0.053346924 0.005942591 0.07700483 -0.0025212504 -0.00094935927 -0.0021453786 -0.06974589
0.08327794 0.006516221 0.08318744 -0.06649304 -0.021332193 0.00041873756 0.0021493365 0.00034263948
00000000: 539c 25b9 5072 973c a35e 33b9 d410 dfbb
00000010: a199 a43d 63f1 3ab9 09ee a13c 015d a9bc
00000020: 03a0 8bbd 7d18 a7bd ef24 95ba 1153 293d
00000030: 0ae7 8f3d 4cb4 3e36 7916 073c 28cf 67bd
00000040: 30e5 8eba b61c beb8 cb8d b1bd 3e23 d3bd
00000050: 91c3 4bbd 2dd8 d63b a95d 473b 0959 af38
00000060: 6b8a f13c 3270 87bd a340 1dbd 3718 8b39
00000070: ec8c 6f3d a2ab 22b8 01c6 86bd d1f8 2c3d
00000080: a2dc d8bc 114b 7b3d c87a a53b 9325 a23b
00000090: 50a2 ae3d 5924 2d3b 52c7 aebd 3d36 c83c
000000a0: c65a b43d 06e7 c0bb 5f25 3a3d cb97 8b3d
000000b0: d17a a0bc 8b19 ccb8 d931 2cbb 01cb b53d
000000c0: 268e 0f3c 540a 2b3d c8f4 c6bd ff4d 2fbd
000000d0: ff93 4dbd b70a c33a cbb9 07bd 8213 be3b
000000e0: 7df2 863c f7ff b9bc 6127 23bb 98ee 3cbd
000000f0: 36e6 8ebb 1a8a 3d39 abef 323d d258 bb3b
00000100: 3c64 fab9 f3e4 8c3c 7935 583d 2544 0539
00000110: 6e89 ab3d 2aaa e3bc 8506 833a 21da 25b8
00000120: 7d5e 403d 43cd a3bd 299b 4c3c 3f71 85bd
00000130: b315 0dbc 8094 dbb9 70dc b0ba 854b 7fbc
00000140: 9bb9 6dbd cae9 89bd 2085 85ba e19a 833d
00000150: 2e44 e339 1fc8 17bd 048e 26bb 535b 73bd
00000160: 7ec1 24b8 09b6 823d 3452 abbd a250 993c
00000170: 8bee 4b3d 16ce 323d 69b5 d2bc 5d01 78b8
00000180: af8a b33c 2118 85bd 871b 503d 6dd0 b6b8
00000190: 5f2b 91bd baf9 ed39 4bbe 2b38 2695 08bc
000001a0: f0f8 bfbb 37da 9eb7 4018 a83a ae6e 273c
000001b0: f77e b5bd 9d5e 2738 d475 e1b9 eaa6 6d3d
000001c0: ba42 6c3c 9235 1a3d 8812 653b 8a49 1c3b
000001d0: 65a5 a6bc b849 d2bb d666 8b3b e808 1d39
000001e0: b1b4 983d 64c9 17bd ce48 1b3d 6011 033d
000001f0: b17c 1b3d 4a61 593d 831d c1bc e5b7 c13c
00000200: 818d b0bd 2106 b7bc fa9d 57b9 c31d 843d
00000210: 5b14 0abc 5404 65bd 8698 8fbd 1f32 17bb
00000220: ad66 9fb9 a6ec c1b9 be5b ac39 0e37 c33b
00000230: 7332 97bb 21b2 ec39 eae1 a03c 8caf 5fbd
00000240: a9ef 8abc 0974 ccb9 550a 5ebc 50f3 91bb
00000250: 5157 25bb ab72 cd3c eeb1 b13d 31ac 873d
00000260: c6f4 f0b9 07df 64bd e039 d9bb f639 1bbc
00000270: 8681 f9bb dc3c 65bc 0abc d63c be50 a2bd
00000280: a3b4 98b8 f809 363d e7b4 5fbd e734 0b39
00000290: 926f c53c be0a c6ba b9e2 38bc a168 a83c
000002a0: 34e1 21bd 9848 b23d 79e6 903d 921c 5539
000002b0: bbe3 07ba d4e0 78bc 5546 aab9 dc65 4dbd
000002c0: 2f7d e339 4a34 633d 02af 0f3b f134 503d
000002d0: 7c19 0e3d 19a9 a43d 0108 493a fa2a 3abd
000002e0: 27a0 93bd 15d2 113d 2bb2 6d3d e0d7 ad3d
000002f0: cc7f 24bd f07a 963d 3e0d 01bb 9c7f f7b9
00000300: 085d 223d efdf 54bd 798d a5bd 3292 123d
00000310: b00e a2bd b748 4c3c e60b c23c 466b 403d
00000320: 6608 e2b8 8d50 e939 7745 f8b8 2a45 20b9
00000330: e557 acbd 5271 97b9 ed8d d2bc 6f15 473d
00000340: 8932 32bc 8d07 12b9 9e55 62bd a326 a53d
00000350: 55c8 c43c fc13 8a3d 20e2 e63c 7ce7 f0bc
00000360: 3be1 a03d 9c04 b83a 98e3 983d 31e7 5eb8
00000370: 7858 103d eb60 92bb 1bd5 8c3b 1b3e 52b8
00000380: 24a0 67bd 6a7f 6f3d cf5e aebc d091 2dbd
00000390: a8a5 9f3d 3500 98bd 7f9a b33a bfc6 963d
000003a0: 7304 1fbb 2823 a1bd f1c9 6bbd 0b1e 02bb
000003b0: 4b55 18bc 316b 223d 4558 7c3d ef4c 5bbd
000003c0: 0d93 5bb9 4e82 5abd 11ba c23b b5b4 9d3d
000003d0: 903b 25bb 6cde 78ba 7b99 0cbb efd6 8ebd
000003e0: a08d aa3d 0686 d53b 2d5e aa3d 812d 88bd
000003f0: dac0 aebc 018a db39 e2db 0c3b 4ba4 b339

bias f4 [20]
0.06111679 -0.0014921325 0.00016455266 0.006173527 0.056113068 -0.08106156 -0.007916448 -0.045252617
-0.043787915 -0.024178004 0.00051820214 0.051423244 -4.5771016e-05 5.2288477e-05 4.662659e-06 -0.08184519
0.08621619 0.0043527223 -0.06430632 -0.00025441614
00000000: 9955 7a3d a993 c3ba c58b 2c39 4c4b ca3b
00000010: d1d6 653d 9a03 a6bd fdb3 01bc cf5a 39bd
00000020: f55a 33bd f310 c6bc f5d7 073a 2ea1 523d
00000030: 41fa 3fb8 5350 5b38 f073 9c36 739e a7bd
00000040: 1d92 b03d 48a1 8e3b 08b3 83bd 2863 85b9

bias f4 [64]
0.0 0.0 0.0 0.0 0.0 0.0 0.0 0.0
0.0 0.0 0.0 0.0 0.0 0.0 0.0 0.0
0.0 0.0 0.0 0.0 0.0 0.0 0.0 0.0
0.0 0.0 0.0 0.0 0.0 0.0 0.0 0.0
0.0 0.0 0.0 0.0 0.0 0.0 0.0 0.0
0.0 0.0 0.0 0.0 0.0 0.0 0.0 0.0
0.0 0.0 0.0 0.0 0.0 0.0 0.0 0.0
0.0 0.0 0.0 0.0 0.0 0.0 0.0 0.0
00000000: 0000 0000 0000 0000 0000 0000 0000 0000
00000010: 0000 0000 0000 0000 0000 0000 0000 0000
00000020: 0000 0000 0000 0000 0000 0000 0000 0000
00000030: 0000 0000 0000 0000 0000 0000 0000 0000
00000040: 0000 0000 0000 0000 0000 0000 0000 0000
00000050: 0000 0000 0000 0000 0000 0000 0000 0000
00000060: 0000 0000 0000 0000 0000 0000 0000 0000
00000070: 0000 0000 0000 0000 0000 0000 0000 0000
00000080: 0000 0000 0000 0000 0000 0000 0000 0000
00000090: 0000 0000 0000 0000 0000 0000 0000 0000
000000a0: 0000 0000 0000 0000 0000 0000 0000 0000
000000b0: 0000 0000 0000 0000 0000 0000 0000 0000
000000c0: 0000 0000 0000 0000 0000 0000 0000 0000
000000d0: 0000 0000 0000 0000 0000 0000 0000 0000
000000e0: 0000 0000 0000 0000 0000 0000 0000 0000
000000f0: 0000 0000 0000 0000 0000 0000 0000 0000

weight f4 [64, 1]
-0.004151206 -0.25565016 -0.20283376 0.1874938 0.14573316 -0.14346804 0.2176029 0.14750533
0.1331229 0.015930329 0.1443347 -0.06919949 -0.26054558 -0.078578316 0.061374653 -0.15290152
0.12232704 0.27824837 0.1215235 0.19780947 -0.029137688 -0.012907833 -0.08672032 0.26506168
-0.22744869 0.1322567 0.12207905 0.2798065 -0.036698237 -0.1318105 0.29487252 -0.21468717
0.0034346615 -0.18638961 0.21767925 0.20232196 -0.16171381 -0.021586336 -0.0029465102 -0.2834344
0.27944958 0.12647535 -3.7884427e-05 0.25678742 0.15274313 0.13629563 0.12509894 -0.10554905
-0.244692 0.11269284 -0.023369113 0.15393163 -0.21923265 0.02862096 0.22697216 0.05242886
-0.21378478 0.09043828 0.3007021 -0.09140777 -0.050503347 0.17827335 0.19630648 0.11102346
00000000: d706 88bb 94e4 82be a7b3 4fbe 60fe 3f3e
00000010: 133b 153e 49e9 12be 4bd3 5e3e a30b 173e
00000020: 5f51 083e 5280 823c 7acc 133e 76b8 8dbd
00000030: 3b66 85be abed a0bd fd63 7b3d 3792 1cbe
00000040: 9986 fa3d 9276 8e3e 50e1 f83d 918e 4a3e
00000050: 29b2 eebc 607b 53bc 6c9a b1bd 2ab6 873e
00000060: 4fe8 68be 4d6e 073e 9504 fa3d cc42 8f3e
00000070: e450 16bd 55f9 06be 88f9 963e f4d6 5bbe
00000080: 0f18 613b ebdc 3ebe 4fe7 5e3e 7d2d 4f3e
00000090: 4e98 25be d4d5 b0bc 3d1a 41bb 501e 91be
000000a0: 0414 8f3e c182 013e 18e6 1eb8 a479 833e
000000b0: b268 1c3e 1591 0b3e f019 003e 1a2a d8bd
000000c0: 8a90 7abe 81cb e63d 9570 bfbc 41a0 1d3e
000000d0: 867e 60be 8176 ea3c 646b 683e a5bf 563d
000000e0: 66ea 5abe b437 b93d a0f5 993e ff33 bbbd
000000f0: 99dc 4ebd 4a8d 363e 9104 493e 4560 e33d

bias f4 [64]
0.0 0.0 0.0 0.0 0.0 0.0 0.0 0.0
0.0 0.0 0.0 0.0 0.0 0.0 0.0 0.0
0.0 0.0 0.0 0.0 0.0 0.0 0.0 0.0
0.0 0.0 0.0 0.0 0.0 0.0 0.0 0.0
0.0 0.0 0.0 0.0 0.0 0.0 0.0 0.0
0.0 0.0 0.0 0.0 0.0 0.0 0.0 0.0
0.0 0.0 0.0 0.0 0.0 0.0 0.0 0.0
0.0 0.0 0.0 0.0 0.0 0.0 0.0 0.0
00000000: 0000 0000 0000 0000 0000 0000 0000 0000
00000010: 0000 0000 0000 0000 0000 0000 0000 0000
00000020: 0000 0000 0000 0000 0000 0000 0000 0000
00000030: 0000 0000 0000 0000 0000 0000 0000 0000
00000040: 0000 0000 0000 0000 0000 0000 0000 0000
00000050: 0000 0000 0000 0000 0000 0000 0000 0000
00000060: 0000 0000 0000 0000 0000 0000 0000 0000
00000070: 0000 0000 0000 0000 0000 0000 0000 0000
00000080: 0000 0000 0000 0000 0000 0000 0000 0000
00000090: 0000 0000 0000 0000 0000 0000 0000 0000
000000a0: 0000 0000 0000 0000 0000 0000 0000 0000
000000b0: 0000 0000 0000 0000 0000 0000 0000 0000
000000c0: 0000 0000 0000 0000 0000 0000 0000 0000
000000d0: 0000 0000 0000 0000 0000 0000 0000 0000
000000e0: 0000 0000 0000 0000 0000 0000 0000 0000
000000f0: 0000 0000 0000 0000 0000 0000 0000 0000

weight f4 [64, 64]
-0.11615312 0.07258224 -0.20559728 -0.061334915 0.014086475 0.2154276 -0.08399917 -0.13136329
-0.1311587 -0.098201044 -0.030148001 0.161654 -0.008067425 -0.1098369 -0.0010135934 -0.19356342
-0.0024462051 -0.14324611 0.18678856 0.18213618 -0.12562412 0.053553406 -0.058683757 -0.07266834
0.1911159 0.19092478 0.16485195 -0.20709546 0.046788357 0.11388923 0.1011431 -0.14773606
0.09498796 -0.07295526 0.018762136 -0.054186672 0.024711836 -0.10680131 0.095769346 -0.066219404
-0.06623215 0.08569936 0.08326249 0.10395139 0.070179775 -0.10186559 -0.04223803 0.10891312
-0.21458903 0.11859984 0.1445428 0.057893183 0.13985322 0.20290504 -0.04490816 -0.11866524
-0.13895528 0.08456745 -0.13223901 0.018346783 -0.03083149 -0.15396102 0.056155037 -0.11478748
0.037073765 0.10615393 -0.06343553 -0.058836292 -0.03329117 -0.014222879 0.04884582 0.14318927
-0.2037579 0.19105197 0.21621609 -0.11853986 0.11643385 0.05337243 -0.1492301 0.009826141
-0.0529809 0.17699513 -0.09162755 -0.042383984 0.17632018 -0.11905641 -0.19860633 0.18058886
0.026401717 0.08111906 0.039482858 -0.090976715 0.058056608 0.09052928 0.0061122477 0.10709528
-0.16137166 0.05660002 0.18273398 -0.016284056 0.20183472 -0.03313352 -0.096531264 0.0094391005
0.138432 0.007421412 -0.14913356 0.13104387 0.06887972 -0.15137854 0.03153609 0.020511432
0.045191288 -0.022538695 0.16743831 -0.17017187 -0.014103587 0.039354198 -0.09533964 -0.015721304
-0.20876835 7.719642e-05 0.009150679 -0.03755496 -0.21143903 0.0951686 -0.08844653 0.20508708
0.2051467 0.18696637 0.1753048 0.16922686 0.0019448542 0.097850785 -0.0637087 -0.003632232
-0.1540725 -0.026833279 0.014966556 -0.034553874 -0.19983706 0.040571067 -0.022867715 -0.08868049
-0.08838801 -0.089560725 0.1300084 0.051388606 -0.025107315 -0.079517804 0.001870058 -0.14254196
0.2160394 -0.15475436 0.09639417 -0.18807311 -0.1546954 -0.21239349 -0.113326095 -0.18640852
-0.122002006 -0.046497434 0.069738746 -0.094378054 0.12828596 -0.15399913 -0.18206203 -0.17239279
-0.1786028 0.07962678 0.15677609 0.081046894 0.019128142 0.18107298 -0.027485821 0.12205938
-0.10299202 0.03625852 -0.024927035 0.17999557 -0.08971871 0.133126 -0.016960138 -0.14809363
-0.0923131 -0.19733456 0.1438026 0.083909616 -0.16317362 -0.12198505 0.12338806 0.15638518
0.13695447 0.13603865 -0.06526318 0.19860129 -0.20310496 -0.072217986 0.09498076 0.09835007
-0.053051747 -0.10833532 0.078089684 0.1160256 0.0960789 0.012489508 0.05340952 -0.17342065
-0.20526458 -0.1790928 0.15027474 -0.027451908 0.059748556 0.120766275 -0.13507931 0.010778876
0.18053274 0.08082751 0.1745397 0.10263825 -0.1564216 -0.18802291 -0.033451498 -0.18016472
0.08423022 0.15592463 0.14115857 0.20834237 -0.087852076 0.16887699 -0.18657522 -0.09997741
0.011603079 0.14477617 -0.14425159 -0.20532654 -0.19477668 0.04213048 0.11856097 0.198023
0.15836029 0.21103908 0.17595622 -0.20670904 -0.21627313 0.054865565 -0.15352416 0.06075634
0.1833612 0.03454923 -0.046386376 -0.08044163 -0.11442468 0.17457767 -0.067657046 0.16942206
00000000: b0e1 edbd ffa5 943d 1888 52be 523a 7bbd
00000010: f5ca 663c 0e99 5c3e c207 acbd 1984 06be
00000020: 774e 06be a11d c9bd f1f8 f6bc a088 253e
00000030: 3c2d 04bc 2bf2 e0bd 8dda 84ba 7d35 46be
00000040: 8350 20bb 1caf 12be 8045 3f3e e881 3a3e
00000050: 9ca3 00be d15a 5b3d 615e 70bd 23d3 94bd
00000060: e3b3 433e c981 433e f3ce 283e d510 54be
00000070: 26a5 3f3d c23e e93d 1d24 cf3d 1f48 17be
00000080: 0c89 c23d 9169 95bd 0db3 993c d8f2 5dbd
00000090: 7a70 ca3c a5ba dabd b822 c43d 0a9e 87bd
000000a0: b9a4 87bd 2583 af3d 8685 aa3d 77e4 d43d
000000b0: 6aba 8f3d e89e d0bd c901 2dbd d80d df3d
000000c0: 3abd 5bbe 79e4 f23d 0703 143e 6721 6d3d
000000d0: af35 0f3e 57c6 4f3e 9ef1 37bd c306 f3bd
000000e0: 4b4a 0ebe b331 ad3d aa69 07be fe4b 963c
000000f0: 5292 fcbc f5a7 1dbe d302 663d b315 ebbd
00000100: a9da 173d 3b67 d93d 7dea 81bd 53fe 70bd
00000110: 525c 08bd 1407 69bc 8e12 483d 35a0 123e
00000120: e9a5 50be 21a3 433e c067 5d3e 07c5 f2bd
00000130: df74 ee3d 0d9d 5a3d c6cf 18be d3fd 203c
00000140: 8002 59bd 363e 353e 3aa7 bbbd d49a 2dbd
00000150: 478d 343e d9d3 f3bd 755f 4bbe 49ec 383e
00000160: 6a48 d83c c021 a63d c7b8 213d 0052 babd
00000170: c4cc 6d3d 6a67 b93d 4049 c83b c554 db3d
00000180: 9d3e 25be 6cd5 673d 9e1e 3b3e 2466 85bc
00000190: c3ad 4e3e 04b7 07bd 2fb2 c5bd 75a6 1a3c
000001a0: 1ec1 0d3e 512f f33b 78b6 18be 5d30 063e
000001b0: d010 8d3d fa02 1bbe fd2b 013d 9707 a83c
000001c0: 801a 393d 12a3 b8bc f374 2b3e 8941 2ebe
000001d0: bb12 67bc de31 213d 6e41 c3bd f7c9 80bc
000001e0: 5fc7 55be 83e4 a138 bbec 153c 3bd3 19bd
000001f0: 7983 58be c1e7 c23d 7423 b5bd 5902 523e
00000200: fa11 523e 1d74 3f3e 1a83 333e ce49 2d3e
00000210: 7aea fe3a fe65 c83d b579 82bd be0a 6ebb
00000220: 2ec5 1dbe 77d1 dbbc 4936 753c 5d88 0dbd
00000230: 16a2 4cbe d92d 263d 1355 bbbc 1e9e b5bd
00000240: c604 b5bd 9d6b b7bd ec20 053e dc7c 523d
00000250: dbad cdbc 3bda a2bd bc1c f53a 85f6 11be
00000260: 6f39 5d3e ed77 1ebe 4e6a c53d 3d96 40be
00000270: 7968 1ebe ae7d 59be 8317 e8bd e0e1 3ebe
00000280: 30dc f9bd 1874 3ebd 30d3 8e3d 4849 c1bd
00000290: 655d 033e f3b1 1dbe 786e 3abe bc87 30be
000002a0: a7e3 36be 5d13 a33d e989 203e eafb a53d
000002b0: 9fb2 9c3c 326b 393e f229 e1bc 45fa f93d
000002c0: 7bed d2bd d083 143d c833 ccbc c250 383e
000002d0: 71be b7bd 2f52 083e fdef 8abc dba5 17be
000002e0: a70e bdbd 1212 4abe fd40 133e ced8 ab3d
000002f0: fc16 27be 4cd3 f9bd e1b2 fc3d 7023 203e
00000300: cb3d 0c3e b74d 0b3e b4a8 85bd 235e 4b3e
00000310: bffa 4fbe 06e7 93bd 4685 c23d c36b c93d
00000320: ca4c 59bd e9de ddbd 7ced 9f3d d49e ed3d
00000330: 04c5 c43d cba0 4c3c f1c3 5a3d 2f95 31be
00000340: e130 52be 1a64 37be 9fe1 193e d3e2 e0bc
00000350: e7ba 743d 4f54 f73d 3b52 0abe e299 303c
00000360: 93dd 383e e588 a53d 89ba 323e 0134 d23d
00000370: fc2c 20be 1489 40be 7004 09bd 1a7d 38be
00000380: e580 ac3d b5aa 1f3e df8b 103e b457 553e
00000390: caeb b3bd 17ee 2c3e 930d 3fbe f5c0 ccbd
000003a0: d71a 3e3c 3440 143e b0b6 13be 1f41 52be
000003b0: 8a73 47be 0391 2c3d 18d0 f23d 8bc6 4a3e
000003c0: 3329 223e a11a 583e de2d 343e 89ab 53be
000003d0: b476 5dbe b7ba 603d 7035 1dbe a4db 783d
000003e0: 0ac3 3b3e 7e83 0d3d a4ff 3dbd 95be a4bd
000003f0: 7d57 eabd 7dc4 323e c78f 8abd fa7c 2d3e

bias f4 [10]
0.0 0.0 0.0 0.0 0.0 0.0 0.0 0.0
0.0 0.0
00000000: 0000 0000 0000 0000 0000 0000 0000 0000
00000010: 0000 0000 0000 0000 0000 0000 0000 0000
00000020: 0000 0000 0000 0000

weight f4 [10, 64]
-0.116521776 -0.16296214 -0.122713804 0.024928188 -0.17012393 0.27699816 0.08514002 0.11037547
0.080210835 -0.18791491 -0.0061569274 -0.24654336 -0.15383056 0.1222733 -0.2209922 0.24956283
0.11980024 0.017894642 0.0081071425 -0.098247536 0.048045468 0.11780712 -0.11462954 -0.13946736
-0.069806695 -0.11864474 -0.22047342 -0.21609467 -0.09590811 0.18913718 0.1894975 -0.12155768
0.2694761 -0.14323643 0.012765046 0.26630762 0.061277114 -0.14116599 0.06351766 -0.23957424
0.0926105 -0.22028607 0.2136578 -0.08733107 -0.012261139 -0.053515833 -0.26144478 0.24566658
0.16233128 0.20471483 0.25775465 0.27424696 0.26003394 0.12081888 0.08576881 -0.26519263
0.08210677 0.010467204 -0.037245166 0.03570225 -0.08291716 0.26704577 -0.030649504 -0.26629928
0.064579 0.25990212 -0.17334245 -0.033642158 -0.029019624 -0.26530203 0.09577145 -0.18826155
-0.07417665 -0.09425684 0.1657128 -0.2601558 0.060401175 0.17635456 0.12571266 -0.14037001
0.05897418 0.09860371 0.24346167 0.106084205 0.016342731 -0.17265983 0.117920086 0.04333892
0.23675716 0.25698876 0.18187553 0.03737809 -0.17460158 0.26912192 -0.22686647 -0.023871154
-0.120407715 0.18232054 0.23599088 -0.19117908 0.097236395 0.22552219 -0.19479097 -0.13157244
-0.23373157 -0.09666249 -0.1280115 0.19870159 0.032235768 -0.13350657 -0.2096351 0.05296746
0.0512112 -0.1521931 0.07155497 -0.1957579 -0.2746897 -0.17090014 -0.25936207 0.18079515
0.27241457 0.2373498 -0.14901482 -0.0044861096 -0.1594273 -0.102024406 0.08042119 0.23974831
0.098349944 0.034379702 -0.05786837 0.120154046 -0.037571304 -0.23599967 0.022542125 0.24192938
0.19930452 -0.023919865 -0.18198934 -0.11158712 -0.010073753 -0.11526023 -0.1280729 0.16279401
-0.2593887 -0.03178403 0.22271332 0.09924024 -0.028247012 0.21247517 -0.16526541 0.02886049
0.2807213 0.006947971 -0.2640286 -0.21345851 -0.24991418 -0.14907695 0.09156433 -0.13226162
0.013037009 -0.27956372 -0.05530481 0.11100335 0.119715855 0.23953626 0.13129596 -0.21305494
0.17260714 -0.20296364 -0.047301877 0.14694534 0.2311559 0.040659 0.11503494 0.15847068
0.28059116 0.21238321 -0.105167024 0.08922606 -0.25723785 -0.07506919 0.09167404 0.16493656
0.17779543 0.032798704 -0.043053515 0.20625684 0.21518992 -0.10677423 0.040368944 -0.04869795
0.13685478 -0.18581738 -0.17463115 -0.055450536 0.23550871 0.058174685 0.093768075 0.10818666
0.27014118 -0.1374421 -0.016410213 0.11478575 0.025296926 0.2335515 -0.2521114 -0.057018533
-0.18500711 0.06553247 0.12174272 -0.16389334 0.24815257 0.030652491 -0.2604716 -0.2742031
0.092567764 0.072714694 -0.18074657 0.10182206 0.18500188 0.21300875 -0.039415274 -0.09251661
0.102578245 -0.1589962 -0.25873128 -0.067958415 0.03417254 0.08596773 0.22258046 -0.040557813
-0.17761953 0.0047335653 0.0792519 0.26471046 0.19199172 -0.25906488 0.056238152 0.15369155
-0.095733464 0.13338338 -0.020869711 -0.117813736 -0.12235474 0.16279602 0.23641193 0.25055408
0.046324987 -0.008475203 0.17430128 0.22516274 -0.020643301 -0.082201615 -0.17742951 0.12406812
00000000: f8a2 eebd 8cdf 26be 6051 fbbd 3336 cc3c
00000010: f834 2ebe b4d2 8d3e e45d ae3d 890c e23d
00000020: 9445 a43d c46c 40be 0dc0 c9bb dd75 7cbe
00000030: c285 1dbe 6d6a fa3d c74b 62be 668d 7f3e
00000040: d459 f53d c997 923c d2d3 043c 0136 c9bd
00000050: 53cb 443d dc44 f13d e4c2 eabd 88d0 0ebe
00000060: d0f6 8ebd 03fc f2bd c9c3 61be ec47 5dbe
00000070: 796b c4bd 2dad 413e a20b 423e 3cf3 f8bd
00000080: c5f8 893e 92ac 12be 7c24 513c 7959 883e
00000090: b6fd 7a3d d18d 10be 8c15 823d f352 75be
000000a0: 93aa bd3d ac92 61be 1cc9 5a3e a2da b2bd
000000b0: f2e2 48bc 6b33 5bbd 17dc 85be 0590 7b3e
000000c0: 2c3a 263e c4a0 513e 6bf8 833e 196a 8c3e
000000d0: 2b23 853e e46f f73d 8fa7 af3d 54c7 87be
000000e0: 9827 a83d a37e 2b3c 638e 18bd 863c 123d
000000f0: 79d0 a9bd 39ba 883e ab14 fbbc 6158 88be
00000100: ff41 843d e411 853e af80 31be 5ccc 09bd
00000110: 90ba edbc abd5 87be d223 c43d a3c7 40be
00000120: ede9 97bd bb09 c1bd 9eb0 293e 2433 85be
00000130: 3967 773d 4a96 343e d2ba 003e 28bd 0fbe
00000140: e98e 713d bef0 c93d 044e 793e ad42 d93d
00000150: 31e1 853c bdcd 30be 1680 f13d 2784 313d
00000160: 7870 723e 0894 833e 943d 3a3e c519 193d
00000170: c2ca 32be 59ca 893e af4f 68be 708d c3bc
00000180: 5298 f6bd 3cb2 3a3e 98a7 713e 73c4 43be
00000190: e023 c73d 4aef 663e 4977 47be edba 06be
000001a0: 5457 6fbe fcf6 c5bd 7215 03be 6e78 4b3e
000001b0: a709 043d f2b5 08be 95aa 56be 68f4 583d
000001c0: d6c2 513d 82d8 1bbe 6a8b 923d c274 48be
000001d0: 21a4 8cbe 7200 2fbe 1bcb 84be 5d22 393e
000001e0: ec79 8b3e d30b 733e 5797 18be 3700 93bb
000001f0: e940 23be 2cf2 d0bd ddb3 a43d 9580 753e
00000200: b26b c93d bbd1 0c3d 6207 6dbd 5313 f63d
00000210: 5ee4 19bd e6a9 71be 43aa b83c 56bc 773e
00000220: 7c16 4c3e 98f3 c3bc 6a5b 3abe ca87 e4bd
00000230: 620c 25bc 8e0d ecbd 8b25 03be 79b3 263e
00000240: 98ce 84be f92f 02bd f60e 643e 783e cb3d
00000250: 4766 e7bc 1793 593e 563b 29be d66c ec3c
00000260: b4ba 8f3e ceab e33b c22e 87be de94 5abe
00000270: 81e9 7fbe a1a7 18be 1486 bb3d 976f 07be
00000280: 2e99 553c fa22 8fbe 4c87 62bd b955 e33d
00000290: 962d f53d fe48 753e 7372 063e 132b 5abe
000002a0: edbf 303e b3d5 4fbe 9dbf 41bd d778 163e
000002b0: 22b4 6c3e 0d8a 263d 7097 eb3d 2346 223e
000002c0: a5a9 8f3e fc7a 593e cf61 d7bd 27bc b63d
000002d0: aeb4 83be e0bd 99bd 99bf bb3d 21e5 283e
000002e0: 0110 363e ef57 063d e258 30bd fe34 533e
000002f0: bf5a 5c3e 73ac dabd e859 253d 8077 47bd
00000300: a923 0c3e e946 3ebe 82d2 32be 1a20 63bd
00000310: 3229 713e 9448 6e3d 7a09 c03d f890 dd3d
00000320: f24f 8a3e 9fbd 0cbe b66e 86bc cb14 eb3d
00000330: 803b cf3c 2028 6f3e bf14 81be 448c 69bd
00000340: 8172 3dbe e335 863d 3f54 f93d a8d3 27be
00000350: b51b 7e3e ef1a fb3c 895c 85be 5964 8cbe
00000360: 2b94 bd3d 71eb 943d a115 39be 1688 d03d
00000370: 2271 3d3e f71e 5a3e e971 21bd 5979 bdbd
00000380: 8b14 d23d e6cf 22be 6d78 84be c82d 8bbd
00000390: 81f8 0b3d d90f b03d 22ec 633e f31f 26bd
000003a0: e5e1 35be 061c 9b3b d24e a23d 2188 873e
000003b0: 7a99 443e 27a4 84be fa59 663d 5161 1d3e
000003c0: e80f c4bd a795 083e f5f6 aabc 5448 f1bd
000003d0: 1f95 fabd 00b4 263e f815 723e a048 803e
000003e0: 45bf 3d3d 94db 0abc 097c 323e 1091 663e
000003f0: 241c a9bc 5259 a8bd 15b0 35be 6d17 fe3d

weight f4 [256, 20]
7.361852e-05 -0.041959904 -0.05701867 0.12150305 -0.049563434 -0.13010281 0.09968877 0.10622629
0.011501481 -0.00017967768 -0.04471305 0.00018595182 2.4741135e-05 -0.029502407 0.10931451 -0.025539862
-0.12043118 -0.00024951124 -4.151439e-05 0.081105836 0.04740238 0.00012719557 -0.005150979 3.2781703e-05
-0.0045576603 0.09283343 0.009414521 0.0030186058 -0.08379307 0.1276794 -0.024786817 0.069712035
0.00014417229 0.12065823 0.00013975662 -7.873189e-05 -0.029159123 0.004750886 -0.09620463 0.0844128
0.1136114 -0.02893862 0.09876768 0.075979054 0.10815772 -0.12848623 -0.08811151 -0.12980333
0.0005677736 -0.013242932 -9.2799026e-05 0.056645192 0.010261151 2.9003528e-05 0.008300848 -0.0030719028
-9.366964e-05 -0.08462876 -0.046328206 0.07672285 -0.053152714 0.096605994 0.043031238 -0.00025128364
0.0016617829 0.10030599 -0.050929215 -0.042918403 0.00012089057 -0.080254935 -0.05007335 4.0759904e-05
0.051443875 -0.06261963 -0.009794607 -0.052329462 0.08693471 -0.097149074 -7.00361e-05 0.084874414
0.10436268 0.00012407509 -0.070538305 -0.0004603323 0.09582832 0.00011682822 0.08250081 0.08986794
0.021532964 -0.043282915 -0.055407654 -0.022280116 -0.10469024 -0.11074915 0.011385872 -0.07119281
-0.00015699296 0.0022774776 0.040353883 0.0952956 -0.10568674 -0.020917395 -0.05941575 0.0010369994
-0.114488974 0.024991548 0.009444784 -0.041578762 0.09235168 -0.012404508 0.120142676 0.12265866
-0.07051468 0.120681606 0.07548719 -0.06724103 -0.092134126 -0.044655524 0.11033474 0.11245373
0.033316623 0.10546582 -0.037944607 0.00097033475 -0.03415012 -0.015985414 0.0033810355 -0.05718273
0.028639246 -0.00013148942 -0.091051325 -0.006350803 -0.0049722204 -2.6651795e-05 0.02428626 -0.04786212
-0.047354944 -0.016966518 0.036701214 0.048320755 -0.1285034 0.023505112 0.037479583 0.02890556
0.11290577 -0.008004227 0.065105386 -0.0066679665 0.08648746 0.060504194 1.8368897e-05 0.029734666
-0.06372244 0.048399054 -0.04598534 -0.038845006 -0.012235119 0.08296412 -0.070386216 0.08435582
0.043948095 0.107118055 -0.022353042 0.0016689094 -0.1143056 0.12214905 0.00023503663 0.056248184
0.004436263 -0.05933427 -0.044655856 9.962334e-05 -0.024797944 0.002940395 0.0009086167 0.012080309
0.00025245166 -0.012292568 0.004163657 0.108641535 -0.07394355 0.01750995 -0.087718785 0.07708221
0.008675383 -0.09789047 0.09972414 0.052161835 0.102321126 0.00016380429 -0.09000041 -0.000290384
0.024436453 0.016343584 0.06099391 -0.0074233757 -0.005010924 0.00021029015 -0.13150816 0.1157714
0.12620552 3.635707e-05 -7.887998e-05 -0.04488514 -0.06538978 0.06320219 0.03323437 -0.0002770664
0.003793383 0.0002660311 0.033603255 -0.12579557 -0.11439791 -0.017075246 -0.00013829698 0.1286743
-0.03729202 -0.063720115 -0.033086564 -0.0006339392 3.805107e-05 -0.06475336 0.0004684107 -0.00019585501
-0.09018696 -0.010713367 -0.12706499 -0.12046701 0.07219889 0.036485605 0.07603951 -1.698828e-05
-0.13110548 0.07386581 0.06794276 -0.109495595 -0.011711171 -0.004070083 0.0002806303 0.02329395
-0.009941242 0.00032950775 0.050756373 0.025919368 -0.0048478157 0.006828465 0.07718506 -0.018097376
0.0001324588 -0.1303864 0.036284078 0.027540494 0.09359777 0.121749476 0.038001135 0.12814525
00000000: a463 9a38 26de 2bbd 698c 69bd 97d6 f83d
00000010: 0703 4bbd ac39 05be a029 cc3d 2b8d d93d
00000020: b570 3c3c dc67 3cb9 0825 37bd 10fc 4239
00000030: 2f8b cf37 08af f1bc 49e0 df3d f938 d1bc
00000040: 9fa4 f6bd d5d0 82b9 bd1f 2eb8 d11a a63d
00000050: ff28 423d cd5f 0539 8bc9 a8bb 167f 0938
00000060: 6d58 95bb 741f be3d 5d3f 1a3c cdd3 453b
00000070: b39b abbd 63be 023e b90d cbbc 2fc5 8e3d
00000080: f42c 1739 a91b f73d a28b 1239 dd1c a5b8
00000090: 1ddf eebc 52ad 9b3b ef06 c5bd 9ee0 ac3d
000000a0: 18ad e83d af10 edbc b646 ca3d e89a 9b3d
000000b0: cb81 dd3d e591 03be cf73 b4bd 2aeb 04be
000000c0: a4d6 143a e2f8 58bc 199d c2b8 ca04 683d
000000d0: 631e 283c 9a4c f337 4800 083c fa51 49bb
000000e0: 8170 c4b8 d851 adbd a5c2 3dbd df20 9d3d
000000f0: a9b6 59bd 5dd9 c53d 8641 303d b8be 83b9
00000100: 2ed0 d93a 3a6d cd3d 279b 50bd 35cb 2fbd
00000110: a186 fd38 b35c a4bd b719 4dbd 9df5 2a38
00000120: d0b6 523d b83e 80bd 8f79 20bc 6b57 56bd
00000130: d30a b23d 18f6 c6bd 58e0 92b8 a3d2 ad3d
00000140: 1abc d53d 271a 0239 6376 90bd c158 f1b9
00000150: a341 c43d ac01 f538 2ff6 a83d af0c b83d
00000160: e665 b03c 6d49 31bd 23f3 62bd ca84 b6bc
00000170: d667 d6bd 73d0 e2bd cf8b 3a3c 89cd 91bd
00000180: 7a9e 24b9 bc41 153b 1d4a 253d 572a c33d
00000190: 4a72 d8bd f55a abbc ee5d 73bd edeb 873a
000001a0: 3279 eabd 13bb cc3c 4cbe 1a3c 7e4e 2abd
000001b0: e122 bd3d 473c 4bbc 5d0d f63d 7734 fb3d
000001c0: 006a 90bd eb27 f73d 0799 9a3d aab5 89bd
000001d0: d1b0 bcbd b6e8 36bd 2ef7 e13d 244e e63d
000001e0: 0377 083d 77fe d73d ce6b 1bbd 105e 7e3a
000001f0: ffe0 0bbd d8f3 82bc 5d94 5d3b 7038 6abd
00000200: da9c ea3c 6ce0 09b9 1e79 babd 661a d0bb
00000210: 02ee a2bb 4b92 dfb7 fbf3 c63c 120b 44bd
00000220: 42f7 41bd 5efd 8abc 0354 163d fceb 453d
00000230: 6596 03be cb8d c03c 3184 193d 5acb ec3c
00000240: 243b e73d 2924 03bc f955 853d f57e dabb
00000250: 5620 b13d 3fd3 773d e816 9a37 1d96 f33c
00000260: e980 82bd 163e 463d 205b 3cbd f11b 1fbd
00000270: cf75 48bc 18e9 a93d a626 90bd bfc2 ac3d
00000280: eb02 343d b660 db3d ba1d b7bc 4fbf da3a
00000290: 0e19 eabd 4829 fa3d 2a74 7639 7f64 663d
000002a0: 125e 913b 7e08 73bd 0fe9 36bd e0ec d038
000002b0: 0f25 cbbc a4b3 403b 3c30 6e3a 7dec 453c
000002c0: 7d5b 8439 c466 49bc 496f 883b 747f de3d
000002d0: b76f 97bd 0771 8f3c e8a5 b3bd 47dd 9d3d
000002e0: 3223 0e3c cc7a c8bd 2b3c cc3d a6a7 553d
000002f0: bd8d d13d e1c2 2b39 2352 b8bd ae3e 98b9
00000300: f52e c83c fbe2 853c c0d4 793d ca3f f3bb
00000310: ad32 a4bb 5581 5c39 13aa 06be 8e19 ed3d
00000320: 053c 013e 1b7e 1838 5e6c a5b8 7bd9 37bd
00000330: 14eb 85bd 2670 813d c320 083d 3943 91b9
00000340: 689a 783b 177a 8b39 91a3 093d 8ed0 00be
00000350: 7449 eabd 63e1 8bbc d003 11b9 32c3 033e
00000360: 84bf 18bd b17f 82bd c785 07bd f12e 26ba
00000370: 0699 1f38 699d 84bd 0595 f539 6e5e 4db9
00000380: f1b3 b8bd 1e87 2fbc 531d 02be 68b7 f6bd
00000390: 03dd 933d ee71 153d 9aba 9b3d 0e82 8eb7
000003a0: 8440 06be f546 973d 9325 8b3d 3a3f e0bd
000003b0: 36e0 3fbc 555e 85bb 9021 9339 f4d2 be3c
000003c0: 97e0 22bc c8c1 ac39 eae5 4f3d db54 d43c
000003d0: 6dda 9ebb 51c1 df3b 3313 9e3d f340 94bc
000003e0: a3e4 0a39 0384 05be 9d9e 143d 9a9c e13c
000003f0: 30b0 bf3d ca57 f93d 14a7 1b3d 8238 033e
