ckpt/TC1_only_MLP-last.pt (torch, 106386 bytes, 11 tensors)

weight f4 [256, 7]
000000 fa 39 70 b3 95 a0 4b b3 8b f1 8d 31 7e e4 5f 2b
       -5.5932084e-08 -4.741067e-08 4.1311004e-09 7.954261e-13
000010 30 5e a8 b2 db c4 e3 38 38 ea 93 34 77 7b 38 31
       -1.9600606e-08 0.00010860871 2.75513e-07 2.6845706e-09
000020 26 2d 93 b2 b3 00 d9 2e 6e 3b 53 b2 1e 12 63 b4
       -1.7133583e-08 9.868142e-11 -1.2295329e-08 -2.1147613e-07
000030 e7 e8 bb 2b 61 8a db 2a da bf 28 37 b8 47 d4 b8
       1.3351793e-12 3.8998234e-13 1.0058249e-05 -0.000101223064
000040 a1 f4 7d 33 3c 89 4c ad ca 37 bd 32 5f cb 8b 33
       5.912864e-08 -1.162653e-11 2.2027866e-08 6.509685e-08
000050 a2 3b cf b2 12 55 0f ad 60 23 1c ad 97 3d 40 ad
       -2.412509e-08 -8.147498e-12 -8.875428e-12 -1.0927612e-11
000060 ff c5 bc af 4a 01 ed 35 2b e4 0f aa 2a d9 90 a9
       -3.4337685e-10 1.7658251e-06 -1.2780113e-13 -6.4325566e-14
000070 f4 69 18 b1 f7 9b 93 b0 74 0f 01 b0 18 5e f5 28
       -2.2179139e-09 -1.0739986e-09 -4.6951887e-10 2.724127e-14
000080 3e 2f 83 ae 60 03 33 b9 e9 91 94 ac 02 65 e2 39
       -5.965582e-11 -0.00017072028 -4.2226123e-12 0.00043181336
000090 3f 30 9d bb 15 03 c8 36 0f 63 03 b4 36 29 b8 35
       -0.004797011 5.9608233e-06 -1.2236363e-07 1.3721062e-06
0000a0 8b 79 0f b7 fc b2 83 b6 db d3 c0 ae 8f a3 31 af
       -8.551763e-06 -3.9249408e-06 -8.768782e-11 -1.6156164e-10
0000b0 1c 7a de ac 6d 1e 80 26 07 85 63 2b 2b 1a fa 29
       -6.3231764e-12 8.890031e-16 8.0831213e-13 1.110677e-13
0000c0 2c 2a 61 33 93 82 46 ba 84 6c 5a ba 0f 98 35 b6
       5.242525e-08 -0.00075725577 -0.000833221 -2.7059612e-06
0000d0 ea a0 01 33 e9 c1 78 36 93 7a cf 34 6b d2 b2 b4
       3.0181504e-08 3.706775e-06 3.864594e-07 -3.3308183e-07
0000e0 1a 61 2d 34 ce ad c9 b5 1e b4 e9 b0 67 5a af aa
       1.6147206e-07 -1.5026251e-06 -1.7004174e-09 -3.1148974e-13
0000f0 eb 9a 27 b0 a2 df 49 b2 44 a1 cf ae c2 ab 7b 2d
       -6.09744e-10 -1.1750588e-08 -9.441917e-11 1.4305836e-11
000100 96 3a b4 ad b6 2d 24 2a 80 33 6c b4 f6 bc 69 af
       -2.0489648e-11 1.4581985e-13 -2.1997948e-07 -2.1258359e-10
000110 7a b0 8a a8 4f 84 7d 27 dc 28 9b 2f ad 43 f2 af
       -1.5397612e-14 3.5182528e-15 2.8223368e-10 -4.406763e-10
000120 86 c3 22 ac 5a 15 4e a6 c7 0f a5 29 96 b1 d8 29
       -2.3130122e-12 -7.1499544e-16 7.330209e-14 9.623133e-14
000130 3e 57 b5 37 9e 5a 7f b1 3c 00 08 b2 60 c9 3e af
       2.1617507e-05 -3.7158894e-09 -7.916295e-09 -1.7351942e-10
000140 af 5f d0 28 aa 5c 51 2d 05 bb fc ab 07 4b bb 2b
       2.3134135e-14 1.190085e-11 -1.7957585e-12 1.3307973e-12
000150 84 34 63 ba ad d9 8d ba 2e 48 8d b9 68 bc b6 36
       -0.0008667188 -0.0010822319 -0.00026947394 5.445956e-06
000160 e1 04 ad b8 05 8a b6 34 aa 68 53 b6 9b 9c ed 2d
       -8.2501916e-05 3.4000564e-07 -3.1502373e-06 2.7013327e-11
000170 40 97 fa ae 4c 21 de a7 d1 ad 58 a2 2a ed b7 a8
       -1.1395551e-10 -6.165348e-15 -2.9365476e-18 -2.0419935e-14
000180 2e 82 22 a9 ec 33 4d 31 7f d0 a4 36 99 b8 b1 b7
       -3.608414e-14 2.986094e-09 4.911853e-06 -2.1186004e-05
000190 9e 1a 9f b3 6b 2f 82 2d ed 73 ed 32 86 b2 18 b6
       -7.408856e-08 1.4800347e-11 2.7643148e-08 -2.275368e-06
0001a0 56 7f ef 30 20 5d 1c b1 7e 1a 52 b1 a4 7f 14 2f
       1.742573e-09 -2.2753923e-09 -3.057408e-09 1.3505869e-10
0001b0 c3 48 ae ad 8a c1 6f b8 60 0f cb ac b9 02 83 aa
       -1.9813822e-11 -5.7162288e-05 -5.771314e-12 -2.3272164e-13
0001c0 d9 f0 5b 34 1a 95 09 b6 d8 1d 27 b0 fe 64 2d aa
       2.0483584e-07 -2.050138e-06 -6.0796657e-10 -1.5400525e-13
0001d0 12 46 5e b6 c0 b2 1e b4 ba 7b 03 b6 9e 48 3b 34
       -3.3121364e-06 -1.4779926e-07 -1.959254e-06 1.744215e-07
0001e0 fd a7 93 b5 2e 69 61 30 a8 32 0a ad 9b 8f 3e b1
       -1.1001245e-06 8.200399e-10 -7.85564e-12 -2.773027e-09
0001f0 8d fc 08 2e a1 96 39 ad ca 17 62 3a 53 de bc ba
       3.114713e-11 -1.0549479e-11 0.00086247607 -0.001440952
000200 e3 31 19 36 13 c1 04 b1 06 97 32 36 cb d3 7d 38
       2.2827815e-06 -1.9318278e-09 2.6611974e-06 6.0517148e-05
000210 55 52 19 b3 56 63 33 3b e0 f3 e8 bb 27 64 4f b8
       -3.569797e-08 0.0027372441 -0.0071091503 -4.944592e-05
000220 e4 2d 16 37 8d 9d ef b7 66 82 fd b7 2b 12 47 b5
       8.9513815e-06 -2.8564386e-05 -3.0220672e-05 -7.4159715e-07
000230 67 be 91 b7 df c7 af b8 09 45 f2 35 4d 25 1c 30
       -1.737401e-05 -8.381879e-05 1.8050497e-06 5.6805477e-10
000240 48 c5 89 33 aa 74 77 b4 ab 9c ad b1 21 be 53 36
       6.415445e-08 -2.304611e-07 -5.0527738e-09 3.155212e-06
000250 d7 40 20 b5 29 cd da 33 ac 1e 11 2c 73 c1 92 31
       -5.9699e-07 1.01887345e-07 2.0622766e-12 4.271152e-09
000260 c1 e7 0e 36 38 79 a6 30 f9 43 04 ba bb f4 90 ba
       2.1294547e-06 1.2112542e-09 -0.0005045529 -0.0011059263
000270 06 2f 62 38 b0 38 0c b2 9f bd 83 37 f9 9b d5 37
       5.3926393e-05 -8.161962e-09 1.5704716e-05 2.546421e-05
000280 55 f3 1e b6 86 72 33 36 d2 da e9 b6 29 d4 e3 34
       -2.3685473e-06 2.673974e-06 -6.969415e-06 4.2436412e-07
000290 df a6 18 b5 d0 6e 9b b6 77 e9 44 b5 81 c9 d8 36
       -5.686724e-07 -4.6322602e-06 -7.3355426e-07 6.46076e-06
0002a0 43 60 bc 33 d8 d9 e3 b3 7d 84 03 31 70 69 6e b8
       8.771942e-08 -1.0610137e-07 1.913832e-09 -5.6841818e-05
0002b0 2f c5 19 2e e1 bf 8f 36 53 dc cd 2d 4c 71 4b b9
       3.4963307e-11 4.2840697e-06 2.3403645e-11 -0.00019401795
0002c0 e5 66 e5 b9 c5 08 72 b8 8c 88 c1 30 82 06 60 35
       -0.00043754946 -5.7705463e-05 1.4081407e-09 8.345597e-07
0002d0 56 9c ae b5 2e 67 0c b4 7f 90 54 35 a9 9f 60 b5
       -1.300951e-06 -1.3076053e-07 7.9186424e-07 -8.367884e-07
0002e0 a5 41 a7 b4 30 3c 1f ae 9a 38 f2 b7 18 1d ac 31
       -3.1153937e-07 -3.620587e-11 -2.8875005e-05 5.0091664e-09
0002f0 76 08 03 b1 73 c1 14 b2 34 35 a9 b3 f6 df 4d 32
       -1.9067818e-09 -8.658719e-09 -7.879353e-08 1.1983493e-08
000300 12 b7 9f 2b 7f 3b 2e b2 63 14 4c 2f b7 7e 2b af
       1.1348442e-12 -1.0141661e-08 1.8560935e-10 -1.5597378e-10
000310 8e c0 bf 31 6d 87 22 b2 cf 0e d0 ae 43 01 18 b7
       5.5807226e-09 -9.460433e-09 -9.4613754e-11 -9.0602e-06
000320 83 2c 83 af c4 5d bf 2d 30 8a a4 2c c5 84 fa 32
       -2.386039e-10 2.1755826e-11 4.6765022e-12 2.9164207e-08
000330 f1 0c c5 b2 34 3f 12 31 d8 e6 a1 34 1f 14 10 2e
       -2.2939703e-08 2.1281723e-09 3.0156548e-07 3.275968e-11
000340 4d 3f a2 33 d9 0a fe 30 17 e6 58 ad fc 40 3b ad
       7.555227e-08 1.8484015e-09 -1.2329269e-11 -1.0644149e-11
000350 91 cd a9 2a 31 82 d1 b0 d9 fb c2 af ee 03 4c 30
       3.016307e-13 -1.5243754e-09 -3.5467343e-10 7.422035e-10
000360 01 45 13 a7 1c e6 bb 2e 6f 39 b2 ad d5 c5 c7 2b
       -2.0437755e-15 8.544651e-11 -2.0261763e-11 1.419471e-12
000370 74 89 1e b6 87 cc d0 a9 2b 29 e5 ad 55 50 ba 2e
       -2.3623843e-06 -9.2725354e-14 -2.6052568e-11 8.4725706e-11
000380 3d d2 26 3a e2 a1 08 bb 22 7c 77 b7 ad 9c e6 b7
       0.00063637254 -0.0020848443 -1.4751249e-05 -2.7491094e-05
000390 58 a8 3d b5 9b da c2 33 32 97 09 35 54 c3 48 3c
       -7.065296e-07 9.073593e-08 5.1256495e-07 0.012253601
0003a0 54 ee 34 3c a1 4c 2a 39 da a2 02 33 4a cf 27 b7
       0.01104315 0.0001624101 3.0416096e-08 -1.0002239e-05
0003b0 a4 ea 8d 39 ca fc e9 36 d1 01 38 2f 40 73 47 af
       0.00027068437 6.9733696e-06 1.6735348e-10 -1.813989e-10
0003c0 47 d6 be aa 79 9d 32 26 82 18 cb 2e 8d e3 8a 31
       -3.3899465e-13 6.196957e-16 9.235725e-11 4.042198e-09
0003d0 12 64 c4 a8 48 93 c1 34 d2 93 1c b6 e2 30 82 b1
       -2.180377e-14 3.6056213e-07 -2.3331854e-06 -3.7890553e-09
0003e0 76 8f 97 31 13 06 5a b4 82 f6 d3 b0 85 9c 32 b8
       4.410988e-09 -2.0305042e-07 -1.5422332e-09 -4.2584277e-05
0003f0 d4 d8 07 38 52 01 c2 b8 c4 a0 9e b4 b9 e1 cd 33
       3.2388445e-05 -9.250887e-05 -2.9546766e-07 9.587115e-08

bias f4 [256]
000000 8a dc 0e 30 a0 6d d8 ad d7 63 e0 b0 13 58 07 34
       5.1972704e-10 -2.460504e-11 -1.6326521e-09 1.2604896e-07
000010 cc 39 2a 2d 15 31 8f 35 ef e8 88 2b 54 3c 7e b7
       9.676215e-12 1.0668615e-06 9.728033e-13 -1.5153626e-05
000020 65 15 10 b6 70 03 6f af 45 13 55 2a 64 8a 69 2e
       -2.1470125e-06 -2.1738145e-10 1.8924886e-13 5.3100982e-11
000030 95 ec a8 36 7a 14 01 ab 95 1b e3 b1 d3 21 9c 33
       5.034332e-06 -4.5858423e-13 -6.6097052e-09 7.270469e-08
000040 ae 7a 0c b0 f8 1a 9a af a3 86 0b 35 bb 64 6f b7
       -5.110604e-10 -2.80316e-10 5.197746e-07 -1.4268963e-05
000050 0e 7d 98 34 0b b4 1f 32 89 9e 60 37 a9 f0 ff b4
       2.8403196e-07 9.295955e-09 1.3388352e-05 -4.7672555e-07
000060 77 04 ed 2f 85 62 96 b7 89 e0 07 37 88 14 f7 2f
       4.311322e-10 -1.792727e-05 8.098906e-06 4.4943627e-10
000070 32 3a 99 af 6e c5 e6 b2 ad b1 92 2e b0 ec d9 2f
       -2.7871888e-10 -2.6865305e-08 6.670873e-11 3.9640247e-10
000080 e1 26 98 b6 05 40 c3 b9 50 d5 98 b3 2e a6 1a b0
       -4.534479e-06 -0.00037240997 -7.116853e-08 -5.626103e-10
000090 98 7c bd 32 09 00 46 b0 86 60 99 2f b9 05 80 2f
       2.2059155e-08 -7.203203e-10 2.7899122e-10 2.328713e-10
0000a0 ba 73 8c 32 b3 ef 83 37 cc 32 0c 35 38 88 81 2d
       1.6350771e-08 1.5728036e-05 5.2227983e-07 1.4726095e-11
0000b0 bd 1f da ab 38 28 33 32 18 73 c7 b4 fa 05 83 ad
       -1.5498641e-12 1.0428316e-08 -3.715038e-07 -1.489563e-11
0000c0 70 63 bf b8 0e 2b e7 b8 66 77 08 b0 72 a0 1d 32
       -9.1261114e-05 -0.00011022958 -4.9646187e-10 9.175084e-09
0000d0 21 d6 a3 b0 be 38 3d b6 47 92 04 38 6b 21 85 37
       -1.192067e-09 -2.8196223e-06 3.1607484e-05 1.5870397e-05
0000e0 af a7 7b 36 27 7f 93 36 f9 70 5f 38 8a 3f bf ae
       3.749952e-06 4.395744e-06 5.3272557e-05 -8.696961e-11
0000f0 3b fa 17 a6 8c 07 20 34 18 03 70 b5 69 a8 7b 2f
       -5.2727774e-16 1.4903907e-07 -8.941147e-07 2.2888148e-10
000100 5c 99 46 2e 9a d3 99 2a 8c 72 3c b5 59 27 41 ad
       4.5156198e-11 2.7325088e-13 -7.0202145e-07 -1.0979517e-11
000110 2e 07 dc 30 20 6f db 2b c8 4d a3 ad 73 d6 b6 2a
       1.6009147e-09 1.5591729e-12 -1.8565496e-11 3.2478499e-13
000120 05 01 d4 ac c4 0a d6 2f 33 a2 31 38 98 7e a5 36
       -6.0255156e-12 3.8934023e-10 4.235115e-05 4.9321206e-06
000130 09 69 0d b0 81 6c 23 36 6c 50 7a 9e 54 b3 b4 b9
       -5.1444765e-10 2.435205e-06 -1.3251521e-20 -0.00034465885
000140 8a 9e bf 37 16 3b 02 34 e1 90 cc 32 b4 78 6a 2f
       2.28428e-05 1.2128689e-07 2.3814609e-08 2.1325058e-10
000150 93 a1 5d b5 61 47 b3 35 eb 89 a9 37 b8 4c 03 36
       -8.2564037e-07 1.3357313e-06 2.0210593e-05 1.9565177e-06
000160 1e 6f 15 28 1e 2c 50 b6 b9 ad ca 2c 04 ef 35 b5
       8.295256e-15 -3.1020095e-06 5.7604724e-12 -6.777557e-07
000170 0a 7c f5 b8 f6 41 20 2d c4 05 73 38 db 82 66 b6
       -0.000117056145 9.109593e-12 5.7941084e-05 -3.4348839e-06
000180 40 16 1b 2c 97 b5 3c 37 7b 09 63 33 06 08 a2 33
       2.2039176e-12 1.1247953e-05 5.286118e-08 7.545172e-08
000190 5e 73 77 30 b0 8b 1e b4 e5 0f c7 23 2b cc d8 b1
       9.0022023e-10 -1.4765715e-07 2.1582355e-17 -6.3096386e-09
0001a0 6b f1 89 b5 54 f5 c6 b0 74 79 2a b8 bb f7 3b ab
       -1.0277557e-06 -1.4476123e-09 -4.064427e-05 -6.677954e-13
0001b0 b1 55 80 b4 e2 93 5a b7 a2 b7 c8 38 40 b8 77 b6
       -2.3904207e-07 -1.3028244e-05 9.5709474e-05 -3.6913116e-06
0001c0 45 b2 a2 2f dd f5 a6 b8 6b 9b 16 b0 8f b5 db b8
       2.9594296e-10 -7.9612924e-05 -5.4790544e-10 -0.00010476552
0001d0 b1 c0 84 28 68 8b 79 b9 e8 5d f8 37 3e 12 a5 b5
       1.473851e-14 -0.00023798423 2.9607632e-05 -1.2298767e-06
0001e0 3a 9b 8c b2 fd 37 ba af ef ff 37 b8 cd 23 12 b6
       -1.6368734e-08 -3.3872985e-10 -4.3868957e-05 -2.1776534e-06
0001f0 e4 8a 22 38 e3 59 ee 31 01 ed 18 b9 b3 33 3f 35
       3.875316e-05 6.9369306e-09 -0.0001458414 7.1228277e-07
000200 cb 9f e7 b3 36 96 c8 2e 75 64 c0 b6 99 0e 04 35
       -1.0785842e-07 9.12163e-11 -5.7337406e-06 4.9195074e-07
000210 fd 59 00 b5 44 ea 84 b5 6a b5 5e b5 b6 e7 52 34
       -4.7814666e-07 -9.902947e-07 -8.2965437e-07 1.964207e-07
000220 b0 16 11 b0 95 0f 45 b7 7f bf 4f b5 22 73 e0 37
       -5.2782934e-10 -1.1745743e-05 -7.739217e-07 2.6756494e-05
000230 40 ec de b1 40 71 d8 2f 61 c5 31 32 e9 60 8a b5
       -6.487909e-09 3.937064e-10 1.0347635e-08 -1.0310006e-06
000240 ae 8a 4b b7 70 f1 ec b8 7c 41 ee 32 53 80 b5 aa
       -1.2132032e-05 -0.00011298328 2.7736625e-08 -3.2241102e-13
000250 65 d7 04 b5 34 1d 97 30 06 7f 03 35 0e 4d e2 b2
       -4.948727e-07 1.0994996e-09 4.8986146e-07 -2.6344903e-08
000260 36 90 57 35 99 74 fe 33 02 25 11 b7 77 54 8e 2f
       8.0303596e-07 1.1849006e-07 -8.65129e-06 2.5889665e-10
000270 51 5b 18 a9 40 4e af 31 b0 0c 58 36 90 9f ef 36
       -3.3829984e-14 5.1020663e-09 3.2193893e-06 7.1413306e-06
000280 96 b5 6f a7 95 df f1 b0 aa 55 ad 36 53 20 1d 28
       -3.326635e-15 -1.7598604e-09 5.1657744e-06 8.72226e-15
000290 6c ac 81 28 5e e2 2a b8 70 90 5a 32 d4 84 50 b2
       1.4396653e-14 -4.074198e-05 1.2722111e-08 -1.2137395e-08
0002a0 eb 69 c5 2d f0 14 bf b6 31 c0 0a 35 09 07 1b b0
       2.2443344e-11 -5.694681e-06 5.168868e-07 -5.639867e-10
0002b0 e7 73 0a b8 1b 1a c5 b3 5c 8c d5 b3 1b ff fd 36
       -3.3009706e-05 -9.178276e-08 -9.9441166e-08 7.5696857e-06
0002c0 60 f3 97 30 4b 02 6b 31 08 d0 4e 2e 01 90 b9 34
       1.1055867e-09 3.4198304e-09 4.7023746e-11 3.4563712e-07
0002d0 76 0c a8 ae 11 2f ec a4 96 cf 36 b6 20 a6 de b7
       -7.641969e-11 -1.0242842e-16 -2.7240944e-06 -2.654182e-05
0002e0 17 6f 42 34 4e 4b 96 34 08 4f 3b 38 64 f1 f6 b8
       1.8108072e-07 2.799447e-07 4.4657878e-05 -0.000117751566
0002f0 ee 75 a6 31 db 14 68 2d 3c 5e f5 37 4c 4c 9f b3
       4.844643e-09 1.3192304e-11 2.9250157e-05 -7.417893e-08
000300 ad 69 8a 34 00 34 9c b8 76 bc f3 b2 9a cc 5d 33
       2.5781392e-07 -7.4483454e-05 -2.8374625e-08 5.1641656e-08
000310 ae ff e0 38 5a 6c d6 b8 88 7f f1 b4 5a 52 a7 37
       0.000107287764 -0.00010224497 -4.498254e-07 1.99463e-05
000320 74 39 ea ac b4 90 93 af 57 0e d2 b0 dc 7d 9d 30
       -6.6570586e-12 -2.6841962e-10 -1.5283587e-09 1.1459025e-09
000330 43 31 78 b6 49 a7 07 b7 83 f2 94 b7 9e b4 1d 34
       -3.6983554e-06 -8.085576e-06 -1.7755903e-05 1.4687473e-07
000340 55 fe a4 2f da 68 dc 2e 15 78 c7 36 c2 ed 3d 33
       3.001214e-10 1.0023067e-10 5.9446415e-06 4.422123e-08
000350 b6 85 4d 34 9c 65 55 b3 3c f0 0f b8 63 2e ce b6
       1.9140757e-07 -4.968534e-08 -3.4317593e-05 -6.1446785e-06
000360 37 ab a5 b4 d6 cd f1 33 9e bc 0d b3 8a b3 d1 37
       -3.085822e-07 1.12598784e-07 -3.3000667e-08 2.4998346e-05
000370 aa e4 91 b5 94 68 14 34 f6 48 28 2b b3 a4 cd 34
       -1.0869892e-06 1.382162e-07 5.9786843e-13 3.830406e-07
000380 9b 26 37 32 42 c9 a6 ac 50 49 f1 b0 ef 00 7c 2e
       1.066078e-08 -4.740348e-12 -1.7555895e-09 5.7298995e-11
000390 49 3a e1 b5 14 d2 69 ab 1e 39 16 b6 95 b8 ac b5
       -1.678077e-06 -8.306977e-13 -2.2384988e-06 -1.2868719e-06
0003a0 d7 d6 9d b8 b1 c2 36 b5 e4 01 2e 30 a6 e6 2c 38
       -7.5263604e-05 -6.8083597e-07 6.330352e-10 4.1222804e-05
0003b0 8b b4 6a b3 f9 15 8b b0 60 10 3b 34 63 e1 83 b0
       -5.4646573e-08 -1.0119826e-09 1.742169e-07 -9.595563e-10
0003c0 c0 87 dc b6 80 c1 01 ae fd a2 a2 b8 15 70 5e 38
       -6.5723143e-06 -2.9503067e-11 -7.755121e-05 5.303331e-05
0003d0 d3 c9 94 b3 4a cf 38 b1 8d 29 08 ab 1d 98 4c b3
       -6.928499e-08 -2.6893354e-09 -4.837457e-13 -4.7635798e-08
0003e0 36 29 59 b3 b9 4b ed af 06 09 78 2b 1d ec bb 2a
       -5.056173e-08 -4.3163853e-10 8.811982e-13 3.338171e-13
0003f0 b1 07 19 34 62 21 1e b1 f9 4d db b3 bf 81 80 b4
       1.4252034e-07 -2.3011002e-09 -1.0212165e-07 -2.393626e-07

weight f4 [32, 256]
000000 bb 91 42 ac 75 5a 19 af f6 1c 32 b5 6d 80 26 a8
       -2.7649955e-12 -1.3947406e-10 -6.635231e-07 -9.242699e-15
000010 73 57 c9 2e 0f 36 10 38 83 06 94 2d 6b 19 6d b8
       9.155956e-11 3.438262e-05 1.6828544e-11 -5.6528876e-05
000020 4f 6a 23 b2 e7 67 50 a9 fa d5 c5 ab 27 41 e0 ad
       -9.5120205e-09 -4.62754e-14 -1.4057082e-12 -2.5494785e-11
000030 54 a5 40 36 35 a8 95 2c f8 c5 90 33 98 db f5 ac
       2.8706463e-06 4.2535094e-12 6.741533e-08 -6.9876986e-12
000040 cb 62 7a b2 f6 27 c1 b0 92 b3 17 37 f2 47 6f b7
       -1.4574378e-08 -1.4053956e-09 9.042111e-06 -1.4262261e-05
000050 f9 68 8c 34 81 51 96 b2 ec 1f 75 b6 7d 72 c0 b5
       2.615341e-07 -1.7499362e-08 -3.6526426e-06 -1.4338435e-06
000060 d8 93 8f b0 5f e8 6a b5 a6 02 d7 b2 32 81 e4 30
       -1.0446639e-09 -8.750994e-07 -2.5030499e-08 1.6625903e-09
000070 23 e5 b8 ae a9 67 d6 af e8 bc 98 a8 40 7d d1 2b
       -8.408054e-11 -3.9000028e-10 -1.6957315e-14 1.4885107e-12
000080 bd 17 8f b7 e5 4e e7 38 2f 4c 18 ad cc 1b 3f b1
       -1.7057982e-05 0.000110296336 -8.657116e-12 -2.7809959e-09
000090 db 62 c6 b5 82 41 6f b1 a3 ac 4a b0 ce da df af
       -1.478092e-06 -3.4816314e-09 -7.3732503e-10 -4.0718934e-10
0000a0 f0 7d b4 30 07 e4 80 aa 4a 6e 9a b2 ca c2 2d ae
       1.3132517e-09 -2.2895593e-13 -1.7978113e-08 -3.9508653e-11
0000b0 a8 0e 2b ad 10 f0 c4 b5 78 bb 7a b5 7d 06 14 30
       -9.723479e-12 -1.4673005e-06 -9.340506e-07 5.3851307e-10
0000c0 6c 8c 03 b9 5c 94 fb 37 2b 76 d4 ab 73 96 a7 ad
       -0.00012545445 2.9990617e-05 -1.5096304e-12 -1.9052515e-11
0000d0 38 ca 95 af 77 53 ee 37 8b 95 60 2d 2f 57 2d af
       -2.7246627e-10 2.8410677e-05 1.2766131e-11 -1.5765232e-10
0000e0 67 a2 bd b5 08 5b d8 30 d5 96 2d 2e cf c4 0a 2c
       -1.4128863e-06 1.5741941e-09 3.946961e-11 1.972023e-12
0000f0 8a 6c 4c 29 8d 4f 1d b7 fd 15 81 37 0b 24 25 b0
       4.5391242e-14 -9.376451e-06 1.5388237e-05 -6.007787e-10
000100 c4 03 0d b1 82 68 0a ac 92 81 83 33 23 26 34 ac
       -2.052034e-09 -1.9668993e-12 6.1237316e-08 -2.5600709e-12
000110 f8 ef 2d 2e ca 74 fa ad 6a 95 bf ad 57 79 11 ad
       3.954878e-11 -2.8473574e-11 -2.178054e-11 -8.269239e-12
000120 f6 26 70 ae 8e ac 1d 30 41 95 4e 37 6d 5f 14 35
       -5.4604286e-11 5.736148e-10 1.2313308e-05 5.527316e-07
000130 2a eb fd b0 cb 28 3a 38 08 78 63 a0 87 3d 14 39
       -1.847501e-09 4.4383847e-05 -1.9267363e-19 0.000141373
000140 1c f8 18 b7 9f 63 0d b2 e4 d6 b5 b0 af 99 43 af
       -9.1176735e-06 -8.229931e-09 -1.3230559e-09 -1.7789746e-10
000150 c3 9a 90 33 1b c8 bd 38 d1 af ce ab 0a 23 f4 b0
       6.7336735e-08 9.049495e-05 -1.4685979e-12 -1.7763295e-09
000160 4e d0 dc aa c2 b1 df b7 82 61 42 2c 58 a3 87 b6
       -3.922439e-13 -2.6666447e-05 2.7623186e-12 -4.0423292e-06
000170 64 50 c3 39 db b1 74 ad 2e 3b ef 33 a8 7c b4 b5
       0.00037253194 -1.3909286e-11 1.11400695e-07 -1.3447325e-06
000180 4b ae 22 ac 97 9e 21 39 be 02 c1 ab 94 2f 0a 35
       -2.3118337e-12 0.00015413236 -1.3714236e-12 5.147824e-07
000190 8d e5 a9 b2 80 c2 05 34 44 d1 02 26 cb dd fb b0
       -1.9778577e-08 1.2457349e-07 4.538642e-16 -1.8325691e-09
0001a0 97 fd 95 35 0c 56 6c ab 8f ae 3f 36 40 67 14 2b
       1.117517e-06 -8.3963457e-13 2.8562824e-06 5.272345e-13
0001b0 80 2f e0 b4 13 9d 3c b4 c7 0a 02 b4 7e f9 14 34
       -4.1757812e-07 -1.7566008e-07 -1.2111114e-07 1.3874339e-07
0001c0 13 f9 0a ae d5 24 b6 39 86 7e 86 ad 61 77 a4 38
       -3.159879e-11 0.00034741187 -1.5290224e-11 7.8423654e-05
0001d0 ce 25 c6 2a 12 cc 9a ba 32 f1 44 2f 7f 7c ca 37
       3.5198098e-13 -0.0011810085 1.7911786e-10 2.413825e-05
0001e0 63 62 59 b3 11 d0 96 b0 36 4d 68 b1 79 0c 11 b5
       -5.0613732e-08 -1.0973072e-09 -3.3804333e-09 -5.403486e-07
0001f0 7c 80 85 b8 7e 72 64 2d d6 70 24 ae 89 e3 ec b7
       -6.365866e-05 1.2985722e-11 -3.73895e-11 -2.8239347e-05
000200 0e 36 ae 29 f6 f2 1d 2e 06 af 17 ad 64 ea 04 b6
       7.736529e-14 3.591346e-11 -8.622219e-12 -1.9805966e-06
000210 52 86 be 34 37 3f 5e 34 02 16 ac b2 5e 60 2b b7
       3.548799e-07 2.0698359e-07 -2.0033443e-08 -1.02148315e-05
000220 3f 10 11 b0 53 aa 39 b3 1b 97 d2 b6 8c 41 94 37
       -5.277378e-10 -4.3228578e-08 -6.2760787e-06 1.7673497e-05
000230 0b b2 b9 b0 98 92 cb 2e 96 c1 88 b3 20 2e da b2
       -1.3511124e-09 9.2574115e-11 -6.3682066e-08 -2.5399515e-08
000240 64 b9 55 b5 96 8b ca 39 b3 91 43 b4 90 07 e9 ac
       -7.961846e-07 0.00038632442 -1.8213795e-07 -6.623098e-12
000250 f3 eb a1 33 d9 cc 12 31 f2 1f 64 37 cd e1 39 32
       7.5400656e-08 2.1362239e-09 1.3597297e-05 1.0819758e-08
000260 72 11 8c ad 3b 74 c3 b2 fc f8 40 2e cc b9 3c b2
       -1.5923905e-11 -2.2753843e-08 4.3876888e-11 -1.0985286e-08
000270 55 8b e6 ab 90 91 8a 32 25 1a 8a af 19 f4 0b b4
       -1.6381155e-12 1.6131509e-08 -2.512063e-10 -1.3034186e-07
000280 09 29 3d 29 40 48 ef 2c b1 54 51 36 e0 61 ed ab
       4.2002023e-14 6.80081e-12 3.1192724e-06 -1.6867029e-12
000290 e6 c8 12 ab d3 c5 7b b6 77 05 41 2c 1a 06 d5 b2
       -5.214842e-13 -3.7517063e-06 2.7429983e-12 -2.4799238e-08
0002a0 1d 6e c6 ae 4c 7d f0 ac 92 51 e7 b4 dd d4 3a b0
       -9.0235576e-11 -6.835121e-12 -4.3086453e-07 -6.79689e-10
0002b0 7b 88 59 35 31 50 24 b3 84 97 8e b6 ec 57 98 b6
       8.1037405e-07 -3.825716e-08 -4.2495685e-06 -4.5401885e-06
0002c0 22 4a 2d b2 bc 51 a5 b2 6e 43 a6 b1 7e 21 a1 af
       -1.0086781e-08 -1.9245697e-08 -4.8389017e-09 -2.9309527e-10
0002d0 24 6c be ad e3 90 09 a7 a0 78 4f af 01 cb 7f b6
       -2.1648523e-11 -1.9091113e-15 -1.8869395e-10 -3.8116125e-06
0002e0 3b 76 38 b5 6e d7 b1 36 b5 0e 5d b1 f2 53 b6 39
       -6.871739e-07 5.3000904e-06 -3.2168093e-09 0.0003477629
0002f0 bc 7e 78 b3 de e8 97 2d 5e 53 34 b7 54 63 6f 36
       -5.7857264e-08 1.7270126e-11 -1.07482465e-05 3.5671592e-06
000300 42 5f c9 b4 a1 08 9f 39 94 52 10 b4 a2 fb 0e b7
       -3.7508477e-07 0.00030333272 -1.3441087e-07 -8.522447e-06
000310 9f 44 05 b7 01 d4 e5 38 1f fc 91 b5 44 5f ab b4
       -7.943395e-06 0.0001095906 -1.0876719e-06 -3.1920547e-07
000320 51 83 66 2e c2 92 b3 ad 2f b0 22 b1 9a 34 5d 2f
       5.2412578e-11 -2.0415118e-11 -2.3674251e-09 2.0118521e-10
000330 55 94 ff 34 fb 11 fb b5 ca 3c 51 37 0e 41 1b b5
       4.7605377e-07 -1.870619e-06 1.2471524e-05 -5.7836667e-07
000340 7d fd d5 2d d1 f6 f5 ac b2 93 18 b2 af b0 80 34
       2.4327868e-11 -6.990721e-12 -8.8811465e-09 2.3970412e-07
000350 fe 99 eb 36 27 0c 5f b4 36 6a 33 2d 7e 24 b2 34
       7.021473e-06 -2.0772914e-07 1.01985555e-11 3.3181635e-07
000360 6f 4d da 35 75 da 11 34 db 1d ac b3 58 17 59 b6
       1.6264802e-06 1.3583652e-07 -8.014805e-08 -3.2349108e-06
000370 a0 d7 2f b7 e5 df 8e 37 b4 69 bc 2a b0 2a 5d ab
       -1.0481017e-05 1.7031978e-05 3.3468855e-13 -7.8574213e-13
000380 b1 de 82 2b b6 11 25 ad 26 41 39 b0 9a 35 70 af
       9.298865e-13 -9.383097e-12 -6.739519e-10 -2.1846916e-10
000390 02 40 ef b8 dc 08 1d aa 76 66 e4 35 86 0a 82 2c
       -0.000114083305 -1.3947475e-13 1.7017144e-06 3.6959906e-12
0003a0 05 84 d2 ac e7 91 0c 37 2c 2a 48 b1 f1 8c 89 b6
       -5.983216e-12 8.378621e-06 -2.9127802e-09 -4.099326e-06
0003b0 64 74 51 af c2 32 45 34 4a f6 af b3 d7 71 a5 33
       -1.904979e-10 1.836552e-07 -8.193872e-08 7.7041186e-08
0003c0 aa f6 a4 b7 00 9e 73 2a 32 29 8c 39 c7 10 ed af
       -1.9665185e-05 2.1637553e-13 0.00026733574 -4.312197e-10
0003d0 71 2d 85 34 8f 1b 84 b1 92 6f b6 2c ea 90 a6 b1
       2.4806243e-07 -3.8448387e-09 5.185138e-12 -4.8477107e-09
0003e0 fc df b9 ad da 14 cc a9 f7 46 40 2b 13 02 9e ac
       -2.1131534e-11 -9.063037e-14 6.8310586e-13 -4.4908604e-12
0003f0 64 c9 06 37 b1 e5 72 b1 01 16 8c b5 03 8a 25 b3
       8.033912e-06 -3.53462e-09 -1.0437217e-06 -3.8542577e-08

bias f4 [32]
000000 6b 9a 69 b6 45 5a 0e 36 6a 6f 14 b9 e6 d8 f5 31
       -3.4809589e-06 2.1212193e-06 -0.00014155885 7.155097e-09
000010 05 c7 db 38 c1 93 a9 38 e6 f9 0f b6 13 1d 30 ba
       0.00010479804 8.086069e-05 -2.145412e-06 -0.00067181996
000020 d9 54 51 b6 fa 9c 8c 39 fb 23 2c 36 70 08 81 38
       -3.1192815e-06 0.00026819838 2.565094e-06 6.152771e-05
000030 df 4c 87 b8 a4 ea 78 36 97 a8 55 b4 51 55 d8 b7
       -6.45162e-05 3.7091459e-06 -1.9898503e-07 -2.5788935e-05
000040 f1 1d a2 b5 38 57 ae b9 cf c7 30 b3 ec 87 83 2e
       -1.2078655e-06 -0.0003325285 -4.1159918e-08 5.981335e-11
000050 69 f1 98 36 93 83 a4 31 84 9d a4 b7 d8 ba d9 b8
       4.558057e-06 4.7879865e-09 -1.9623672e-05 -0.00010382169
000060 8d 41 ad 33 10 e8 00 b6 9a ff 48 b3 ca e0 9e b9
       8.067864e-08 -1.9208564e-06 -4.6798597e-08 -0.0003030359
000070 f2 fc 1b 37 ce 9f 88 35 0c e7 3c b4 ae af 9c 38
       9.297613e-06 1.0179299e-06 -1.7592919e-07 7.4713826e-05

weight f4 [20, 32]
000000 f5 0c c9 b8 82 5c fc b8 a8 1d e4 3b 54 3b be 34
       -9.58684e-05 -0.00012033527 0.006961543 3.5433425e-07
000010 0c 33 c9 3b 36 5f a6 3b 36 1a e2 b9 bf 43 18 b8
       0.0061401185 0.005077268 -0.00043125608 -3.6302717e-05
000020 7d fe 8c b9 e9 17 04 bb f2 6a dd b9 1a d9 73 39
       -0.0002689249 -0.0020155853 -0.00042232085 0.00023255163
000030 9a 09 06 3b b1 27 3d b9 f9 ef c7 b5 e8 fd 3a 3b
       0.00204525 -0.00018039231 -1.4896497e-06 0.0028532688
000040 03 8b 43 ba 3b 21 54 ba ed 30 20 b6 9e 31 6c b2
       -0.0007459374 -0.000809211 -2.3870336e-06 -1.374829e-08
000050 a9 e7 55 b9 c4 f0 10 35 28 31 0d bb 97 b5 a8 3b
       -0.00020399563 5.399454e-07 -0.0021544192 0.0051486003
000060 06 16 15 39 88 40 1e 3a ef 8b 2d b8 65 aa 69 ba
       0.00014217952 0.00060368376 -4.1376737e-05 -0.00089136354
000070 7a 64 5c ba ba c7 2e b9 13 ed 25 b8 08 1d ec 3a
       -0.0008407306 -0.00016668337 -3.9559858e-05 0.0018014023
000080 4e 3f a5 b8 63 32 4f b8 98 95 d1 bb d9 a0 91 b4
       -7.8796045e-05 -4.9399572e-05 -0.006396007 -2.7125387e-07
000090 a5 12 19 bc 92 09 6e bb ee d9 24 b9 7a 9f 22 3a
       -0.009342824 -0.0036321622 -0.00015721444 0.00062035734
0000a0 bb 60 99 38 84 89 04 3b 6e c5 6e 39 a1 c4 98 b8
       7.313626e-05 0.0020223567 0.00022770997 -7.28455e-05
0000b0 52 7a e3 ba a3 6e e6 39 2d f0 34 35 f2 79 06 bb
       -0.001735518 0.0004395145 6.7404727e-07 -0.0020519462
0000c0 9f 3c 1a 3a 79 50 65 3a 6a 25 63 b4 33 1c 08 32
       0.0005883667 0.0008747648 -2.1154634e-07 7.922654e-09
0000d0 25 0d 1e b9 07 36 c2 b4 7a 43 96 3a eb ab 86 bb
       -0.00015072951 -3.6174626e-07 0.0011464201 -0.0041098497
0000e0 db 3d 5a b8 b9 45 f2 b9 d3 71 d0 37 bd 9b 78 3a
       -5.2032858e-05 -0.00046209784 2.4848536e-05 0.0009483656
0000f0 3f 83 01 3a c7 0d f4 39 90 36 5d b8 2d dd ec ba
       0.00049405167 0.00046549572 -5.274132e-05 -0.0018071287
000100 f2 86 7a b8 90 8b f8 b8 43 04 c0 3b 68 f1 f2 33
       -5.9730322e-05 -0.00011851557 0.005859883 1.1312915e-07
000110 ec ba ab 3b a0 b8 9c 3b 93 6c b6 b9 b0 5e 54 3b
       0.0052407887 0.004782751 -0.0003479464 0.003240507
000120 e6 23 4f b9 a3 c2 be ba ef 62 07 ba 64 ce 61 b9
       -0.00019754432 -0.0014553856 -0.00051645836 -0.00021534559
000130 3c 18 87 ba 42 29 2e ba 5c cb 1c b6 23 59 1b 3b
       -0.0010306905 -0.0006643721 -2.3364182e-06 0.0023704253
000140 a7 b3 f6 ba 7b cb d6 b9 13 20 46 b6 72 19 da b2
       -0.0018821851 -0.00040968866 -2.9522969e-06 -2.5390111e-08
000150 0c 4a 8d b9 57 f4 bb 34 18 65 9f bb 4d 21 8d 3b
       -0.00026948785 3.5009245e-07 -0.0048643462 0.0043069483
000160 08 e2 a9 38 25 2a 97 39 d2 d9 44 b8 c5 de fb b9
       8.1006496e-05 0.00028832364 -4.6932902e-05 -0.00048040427
000170 fc 11 94 b8 b5 90 62 b9 e2 a6 54 b8 30 ab 6f ba
       -7.06054e-05 -0.00021606947 -5.070016e-05 -0.00091426354
000180 54 3a 19 b7 e1 c5 72 b7 28 21 96 3b ab b9 87 35
       -9.133091e-06 -1.4470396e-05 0.0045815893 1.011232e-06
000190 e6 41 cc ba 2f 18 a2 ba 19 e3 8b b8 3e ce 1f bb
       -0.0015583604 -0.0012366826 -6.670337e-05 -0.0024384405
0001a0 9c e5 52 39 ac 61 fe 39 13 9e 09 39 f0 6b 94 39
       0.00020112697 0.00048519426 0.00013124225 0.0002830918
0001b0 3b f6 97 3b 82 26 53 39 d5 31 d0 35 0d 89 84 38
       0.0046375073 0.00020136873 1.5511711e-06 6.319778e-05
0001c0 d3 5c 5c 3b ba dc 7b 39 b3 4c 3f b3 86 80 77 32
       0.0033624663 0.00024019452 -4.454041e-08 1.4406515e-08
0001d0 b9 0a d8 38 e5 bd d4 32 85 30 c3 3a 17 7f cc b8
       0.0001030168 2.4766402e-08 0.0014891779 -9.75115e-05
0001e0 78 57 5f 38 b7 d1 b7 39 45 85 b1 37 7e 52 86 39
       5.3248805e-05 0.0003506073 2.1162103e-05 0.00025619933
0001f0 0c 93 b6 b8 bd bd 49 38 c9 d0 ce b6 8f 32 c7 3b
       -8.705826e-05 4.8098842e-05 -6.163584e-06 0.006079025
000200 53 b8 a0 38 e7 eb 82 38 a7 c5 dd 3b 5e 88 0b b4
       7.6637276e-05 6.242823e-05 0.0067679468 -1.2994994e-07
000210 dc 39 4e 3c e4 ef 13 3b f6 ec d1 39 fb 95 0e ba
       0.012587037 0.0022573406 0.00040040136 -0.0005439219
000220 47 50 ec b8 7e 84 1f bb 7d a9 8d b9 c9 12 58 3a
       -0.0001126831 -0.0024340446 -0.00027019894 0.00082425453
000230 6d 48 37 3b 05 0b 9a b9 5c 35 91 35 05 97 b4 3a
       0.0027966753 -0.0002938138 1.0818871e-06 0.0013777917
000240 4e 93 f6 b8 4b 13 af ba 96 06 25 35 6b 72 05 b1
       -0.00011757632 -0.001335719 6.1476874e-07 -1.9419086e-09
000250 05 87 ab 37 84 0b 6b 35 95 bf 8b b8 bc 4d 72 3b
       2.0447662e-05 8.756108e-07 -6.6637214e-05 0.0036972603
000260 60 ab 09 b8 50 23 01 39 1f 40 06 37 de 10 b9 ba
       -3.282295e-05 0.00012315554 8.001952e-06 -0.0014119407
000270 11 30 02 ba 15 6b c5 39 aa 9c 18 38 7d 00 4f 3b
       -0.0004966269 0.0003765455 3.638553e-05 0.0031585984
000280 ac 06 b6 37 09 f5 91 37 aa 43 b1 bb 72 39 d1 b6
       2.1699198e-05 1.739945e-05 -0.0054096775 -6.235373e-06
000290 17 dd 56 3c b2 5d 3d 3c 93 7f 32 b9 a0 d7 51 3c
       0.013114235 0.011557983 -0.00017022928 0.012807757
0002a0 ac 26 47 b9 18 f5 f3 3d 6a 77 08 ba 76 a5 6a 38
       -0.00018992525 0.11911982 -0.00052057824 5.5944045e-05
0002b0 8d f0 72 bb ed a0 c5 b7 42 df 2d b7 0a 42 4e bb
       -0.003706965 -2.3559167e-05 -1.0363585e-05 -0.0031472468
0002c0 b0 02 a0 ba 09 57 a2 3d 44 e0 be b7 e9 50 22 b7
       -0.0012207832 0.07926757 -2.2754197e-05 -9.674791e-06
0002d0 28 24 c2 b9 45 d5 e7 b7 d2 be 2f bb a0 1c 23 3b
       -0.00037029502 -2.7636657e-05 -0.0026816619 0.0024888888
0002e0 c2 a1 01 b8 03 c8 4a 37 14 b3 aa b6 3f 7e a4 3d
       -3.0906645e-05 1.2086707e-05 -5.0872422e-06 0.08031892
0002f0 10 4f 2e 3a 7c 1c 05 b9 15 87 8c b6 12 66 24 bb
       0.00066493545 -0.0001269448 -4.1880508e-06 -0.0025085253
000300 e0 7f e8 37 f9 cb ba 37 f4 31 12 ba fc 4e 61 b5
       2.7716102e-05 2.226791e-05 -0.00055769016 -8.393397e-07
000310 02 4d bc 37 f1 58 98 3a c7 7e c0 38 f2 74 59 3b
       2.2447206e-05 0.0011623186 9.1788876e-05 0.0033181277
000320 34 4f 10 38 71 3c 8a b9 cd 9d 3e b9 82 65 00 ba
       3.440604e-05 -0.00026366443 -0.00018178597 -0.00048979383
000330 a5 c6 b8 bb be 76 94 b9 1f 2d 6e b5 c7 8a a8 39
       -0.0056389146 -0.0002831723 -8.872757e-07 0.00032146854
000340 a4 ff a7 ba f0 f3 b8 38 b4 11 0e 34 4f 79 a4 b2
       -0.0012817276 8.8192406e-05 1.3231221e-07 -1.9147278e-08
000350 2a b1 8c ba 92 12 0d 34 c0 34 4b bb c0 8d d4 3a
       -0.0010733951 1.3138404e-07 -0.0031006783 0.0016216561
000360 96 d2 87 b8 2b 95 29 b9 fc 0b 0b b7 66 9f 74 38
       -6.476526e-05 -0.00016172665 -8.287836e-06 5.8322585e-05
000370 a2 02 8f 36 32 fb 87 b9 eb 24 67 37 eb 09 d4 ba
       4.2620386e-06 -0.00025936362 1.3777269e-05 -0.0016177272
000380 e7 6b 59 b9 e9 c8 4c b9 37 ea b0 3b d4 be ba b6
       -0.0002073493 -0.00019529801 0.0053990143 -5.5654473e-06
000390 f8 00 58 bc ee 39 40 bc f9 a9 0f 39 b5 06 52 bc
       -0.013183825 -0.0117325615 0.00013700862 -0.012818982
0003a0 40 e6 26 39 cd d5 f9 bd f8 ed 02 3a b2 10 c5 b8
       0.00015916768 -0.121989824 0.00049945666 -9.396802e-05
0003b0 aa e1 71 3b 65 62 97 b6 45 26 48 36 5e c6 4d 3b
       0.0036908188 -4.5116053e-06 2.9824598e-06 0.0031398754
0003c0 c8 86 9d 3a d9 df a8 bd 19 3e c2 b7 86 8b 1c b7
       0.0012018317 -0.082458206 -2.3155519e-05 -9.33081e-06
0003d0 65 2f c5 39 23 bb d9 b7 0a c7 2f 3b ef ee 29 bb
       0.0003761008 -2.5955558e-05 0.0026821517 -0.002592977
0003e0 34 3b a2 b7 02 7f c6 b7 5a 6b 15 b6 d2 4b af bd
       -1.9339474e-05 -2.3662582e-05 -2.2265217e-06 -0.085593835
0003f0 7f 96 32 ba f7 55 c8 38 a7 5e de b8 75 f4 21 3b
       -0.0006812587 9.5527554e-05 -0.00010603415 0.0024712358

bias f4 [20]
000000 3e b0 73 b9 04 36 ff 38 0d 49 44 39 2c 21 8e 39
       -0.00023239941 0.00012169409 0.0001871923 0.00027109066
000010 e2 9f af b9 f0 1c 83 3a 6d 1c 36 39 de 02 81 ba
       -0.00033497723 0.0010003131 0.00017367462 -0.0009842773
000020 2e bc 49 36 e0 9f f6 38 47 a3 63 39 ff 32 0d 39
       3.006087e-06 0.00011759973 0.00021709233 0.00013465805
000030 9d 8b 4f 38 b6 9d 86 37 98 c2 a5 b9 f7 0d 64 b9
       4.948267e-05 1.6047485e-05 -0.00031616236 -0.00021748977
000040 f6 a3 38 35 31 0a 87 b6 98 c4 26 35 ad ad cf 37
       6.8783936e-07 -4.0245e-06 6.21259e-07 2.4757197e-05

weight f4 [256, 20]
000000 86 91 14 a4 46 9b ba a3 eb ac 7f a3 ac 93 b1 21
       -3.2215647e-17 -2.0231921e-17 -1.38601945e-17 1.2033075e-18
000010 9b 5e cf a2 de 15 49 23 e9 8f bb 22 d4 9d 65 a3
       -5.620763e-18 1.0900862e-17 5.0838822e-18 -1.2447536e-17
000020 bc 86 70 9e 9f 73 cb 21 d0 ad b4 a2 2a 88 83 20
       -1.2733357e-20 1.378642e-18 -4.897313e-18 2.228237e-19
000030 05 35 4a a0 51 85 d0 1f 22 41 fd 23 bb c3 1d a3
       -1.7127608e-19 8.831198e-20 2.74579e-17 -8.552435e-18
000040 d0 a5 1b 9d 06 cd 62 1f f7 94 0e 9e 85 5d bd 1f
       -2.0599802e-21 4.8026953e-20 -7.548223e-21 8.019933e-20
000050 42 5c c5 ab 27 69 39 2d 5b 9d a9 2b 1f 7e 0a 2b
       -1.4023299e-12 1.0539381e-11 1.2051847e-12 4.9202477e-13
000060 a9 79 05 2c df 43 a0 2c a2 89 f8 2c df 7c a8 ac
       1.8967972e-12 4.5550087e-12 7.0638643e-12 -4.7887107e-12
000070 dd f2 87 29 57 c4 88 ac 36 91 fb ac 11 c0 1a aa
       6.0373344e-14 -3.8871506e-12 -7.1499707e-12 -1.3744584e-13
000080 ab 21 e9 2a 51 c6 3f 2a 66 5d 23 2b 5f f5 9a a9
       4.1412476e-13 1.7033013e-13 5.803885e-13 -6.881539e-14
000090 a4 cd a3 26 96 fb b3 a8 b2 ec 0a a7 f7 33 83 2a
       1.1366136e-15 -1.99821e-14 -1.927966e-15 2.3306332e-13
0000a0 02 2c 9f 37 5c 92 6f 36 c1 d0 fb b7 bc 28 a5 b7
       1.897477e-05 3.5698968e-06 -3.001874e-05 -1.9688501e-05
0000b0 fb cf d1 36 b1 0d 86 39 7f 28 01 b8 a6 a5 8c b9
       6.2528975e-06 0.00025568673 -3.079371e-05 -0.000268263
0000c0 b2 22 0e b3 55 b8 02 37 64 46 da b7 fb d6 bd b7
       -3.3093507e-08 7.791522e-06 -2.6020403e-05 -2.2630664e-05
0000d0 b5 e0 17 35 08 4e 83 36 65 72 ea 36 30 1a 10 37
       5.6578875e-07 3.9131883e-06 6.9870607e-06 8.589166e-06
0000e0 29 d5 09 33 ad cb c7 34 b1 f4 28 34 9c 60 53 b4
       3.2091666e-08 3.7214832e-07 1.5735237e-07 -1.9686053e-07
0000f0 ac 8f 2f a6 5d be 04 28 62 7b 9d a7 e3 68 0d a8
       -6.0910033e-16 7.36875e-15 -4.3710026e-15 -7.849816e-15
000100 82 b0 23 27 bb fd e4 ab 32 b0 b1 a7 9a 51 e7 ab
       2.271648e-15 -1.6270799e-12 -4.93184e-15 -1.6436186e-12
000110 f1 8f 07 24 d5 19 35 28 81 5b 69 a7 a3 e8 2c a7
       2.9395382e-17 1.005312e-14 -3.238485e-15 -2.3995908e-15
000120 df 6d bb 25 3e c3 14 a5 25 ae 0e a8 49 43 c5 24
       3.251378e-16 -1.2903104e-16 -7.920345e-15 8.5549117e-17
000130 01 24 9c 22 f1 60 d9 a4 aa 20 94 23 4b 9e 67 25
       4.2322005e-18 -9.4272974e-17 1.6060026e-17 2.0089688e-16
000140 48 22 e8 28 38 4b f0 a8 7b 60 4a 28 29 08 05 2a
       2.5772041e-14 -2.6677974e-14 1.1234173e-14 1.1815604e-13
000150 fa 74 36 a9 8d b5 6a ad 80 10 f5 28 7f 8f 68 ad
       -4.051358e-14 -1.3341672e-11 2.720762e-14 -1.3219536e-11
000160 53 da 9d a4 50 0d ce 29 29 e9 e5 a7 9c 6c 2b a8
       -6.845775e-17 9.150547e-14 -6.381306e-15 -9.515958e-15
000170 03 7c b2 27 55 de f2 26 5e 37 ea a8 5e 1b cc a9
       4.953938e-15 1.6852386e-15 -2.600323e-14 -9.064167e-14
000180 35 cc c6 23 d6 66 70 25 ea 5e 2f 24 52 cd f7 25
       2.1553688e-17 2.0851524e-16 3.802747e-17 4.29868e-16
000190 25 b9 61 2d 0b da 15 2d 7e ce 9e ac 1f bd d7 2d
       1.283088e-11 8.518085e-12 -4.5135553e-12 2.4526657e-11
0001a0 64 54 13 ad 12 42 99 30 81 64 20 af 06 0e 9b b0
       -8.374721e-12 1.1150993e-09 -1.4587621e-10 -1.128172e-09
0001b0 13 b3 ba 2a 7c 9b 55 af 00 d7 34 af ae c9 44 2d
       3.3164495e-13 -1.9427476e-10 -1.6447288e-10 1.1186092e-11
0001c0 e1 1d 12 ac 08 d5 a1 2d 04 f4 6e ad d6 89 b6 2e
       -2.0764434e-12 1.8398186e-11 -1.3582916e-11 8.3008864e-11
0001d0 77 fc 45 27 6d 1c c4 aa 39 f3 c3 27 08 b1 6e 2c
       2.7476103e-15 -3.4836318e-13 5.4387075e-15 3.3920106e-12
0001e0 22 9f e4 b4 ca 2f 83 b6 ef 92 41 37 75 28 be 36
       -4.2584094e-07 -3.9096676e-06 1.1537907e-05 5.667151e-06
0001f0 d8 5a 64 b6 16 10 69 37 b7 b0 52 35 62 90 73 b7
       -3.4027526e-06 1.38916275e-05 7.848825e-07 -1.4517545e-05
000200 61 1d 6b 31 01 4b f2 b6 6a 97 2c 37 a8 ff 41 35
       3.42137e-09 -7.2208936e-06 1.0287253e-05 7.227013e-07
000210 60 86 3c 34 8e 23 04 34 7f a1 92 36 e7 7d f6 36
       1.755775e-07 1.2306393e-07 4.3699397e-06 7.3460283e-06
000220 43 e5 1c 31 af 0b b6 b2 19 58 42 31 c8 e4 e1 33
       2.2831308e-09 -2.1192902e-08 2.8280793e-09 1.0518994e-07
000230 4d bb 38 36 d8 0b 08 b5 bc a6 54 36 75 49 39 b8
       2.752716e-06 -5.0681183e-07 3.1687514e-06 -4.417585e-05
000240 f2 76 25 b7 0c 4d 33 39 ac c0 a9 b7 9f fa 35 b9
       -9.8624605e-06 0.00017099472 -2.023609e-05 -0.00017354869
000250 78 b5 a9 33 31 3e 22 b7 44 10 fa b5 06 7f 1f 37
       7.902685e-08 -9.6704325e-06 -1.8631185e-06 9.5067135e-06
000260 09 14 c5 b2 5d ef 5b b4 4c 16 60 b6 3d 30 22 37
       -2.294293e-08 -2.0483044e-07 -3.339158e-06 9.667184e-06
000270 ea 99 d8 b1 e5 5e 65 33 1e 96 f8 31 87 95 eb 34
       -6.3039254e-09 5.3404523e-08 7.2348163e-09 4.3880956e-07
000280 b5 bd 1e 38 b8 4c bd 38 cf d5 95 38 bd f5 31 b8
       3.7846814e-05 9.026512e-05 7.1446986e-05 -4.242895e-05
000290 3e df 0e 38 0a a1 bb 3a 98 e7 c3 b8 e5 56 be ba
       3.406335e-05 0.0014314961 -9.341462e-05 -0.0014521746
0002a0 71 3b 41 36 61 a7 4f b9 08 1c 94 39 e0 28 a7 38
       2.879384e-06 -0.00019803412 0.00028249645 7.970794e-05
0002b0 dd b9 52 37 93 b6 56 37 92 95 d5 b8 72 d9 80 37
       1.256025e-05 1.2797903e-05 -0.00010184491 1.5360045e-05
0002c0 14 78 7c b3 43 49 c3 b6 61 65 47 35 0a a6 6a 37
       -5.8782533e-08 -5.8199817e-06 7.42808e-07 1.3986146e-05
0002d0 ef 79 e4 ab b0 4c 55 2c 55 33 4e 2c a5 f4 57 ac
       -1.6234218e-12 3.031169e-12 2.9302856e-12 -3.0689143e-12
0002e0 3b 57 1c 2c fe 02 0f b0 67 c6 4d 2a 9b 7d 1c b0
       2.2217356e-12 -5.202735e-10 1.8276492e-13 -5.6930965e-10
0002f0 0c 2d 38 a8 28 e7 c9 ab c9 39 8c 2c cb a3 29 ab
       -1.022382e-14 -1.4346068e-12 3.9854548e-12 -6.026817e-13
000300 f4 50 ab 29 60 de 1e 2a 6f d8 eb 2b 2b 4d 56 2b
       7.6079686e-14 1.4110371e-13 1.6757827e-12 7.6135165e-13
000310 34 0e 5a a4 97 25 26 27 be cf 98 27 d4 aa 82 29
       -4.7283245e-17 2.3057505e-15 4.241371e-15 5.802794e-14
000320 70 a2 77 b9 32 e9 6b b9 88 71 ad b9 f8 37 02 ba
       -0.00023616268 -0.00022498218 -0.0003308172 -0.00049674464
000330 de 8b 59 38 91 12 30 3a 09 72 89 b9 f0 86 37 ba
       5.1867093e-05 0.0006716634 -0.0002621564 -0.0007001003
000340 6e a1 11 b6 ed 60 d6 b9 b8 e8 83 b9 3c 94 92 b9
       -2.1700648e-06 -0.00040889476 -0.00025159656 -0.00027957733
000350 55 c6 0f b8 bb e8 81 36 6c bd be 39 3d 34 11 39
       -3.4278568e-05 3.871593e-06 0.00036380754 0.00013847738
000360 79 d6 1e 32 b8 13 b4 36 6c f7 bf b5 d9 0a 79 b7
       9.245576e-09 5.3667136e-06 -1.4302618e-06 -1.4844082e-05
000370 ab 44 98 b3 7e ef fa 32 22 5a fa 33 a4 fb 9a 33
       -7.090542e-08 2.9212739e-08 1.1657927e-07 7.216957e-08
000380 89 0a 44 34 bf d1 86 35 e6 00 9c b2 dd f1 89 b5
       1.8257755e-07 1.0044822e-06 -1.8161199e-08 -1.0277687e-06
000390 86 a6 4d b0 ac bd 45 34 34 9e c2 32 a3 f1 da 33
       -7.481521e-10 1.8416057e-07 2.2656515e-08 1.01953695e-07
0003a0 b7 7c 87 b2 f4 67 9a 31 36 0a ef b3 de 25 59 35
       -1.5772782e-08 4.493808e-09 -1.1131162e-07 8.0893903e-07
0003b0 2d 6b 80 2f 1b e0 98 31 f1 10 31 b0 42 3b 60 b0
       2.3359217e-10 4.44926e-09 -6.44163e-10 -8.1574936e-10
0003c0 f0 cf 89 b8 fc a6 f9 b8 36 bd 6e 38 d1 4f 17 ba
       -6.5714004e-05 -0.000119043485 5.691984e-05 -0.00057720864
0003d0 d5 98 36 b9 91 95 1b 3b 04 af e5 3a ed 44 1d bb
       -0.00017413807 0.0023740272 0.0017523472 -0.0023997382
0003e0 3f 43 79 b7 4a f1 e5 36 87 82 11 3a a0 53 b8 39
       -1.48572135e-05 6.8528216e-06 0.0005550761 0.0003515752
0003f0 a4 bf ce b7 60 34 4b 38 33 44 b1 b7 67 f5 31 39
       -2.4646353e-05 4.844775e-05 -2.1131802e-05 0.00016971455

bias f4 [256]
000000 6e 28 47 a2 d0 52 9f 2b 3a a6 c0 b6 d3 9b bd a6
       -2.6990932e-18 1.1320615e-12 -5.741397e-06 -1.3156746e-15
000010 7b 35 b6 a8 6a 07 ea 2e 29 21 35 36 a3 4a 80 36
       -2.0229253e-14 1.0642405e-10 2.6990404e-06 3.823386e-06
000020 de 54 64 b8 19 87 0a ab 7b 59 cc 39 7b 38 0f 34
       -5.4438475e-05 -4.9214934e-13 0.0003897658 1.333846e-07
000030 63 3e 90 b9 2f 1d 68 b9 8c c4 50 31 75 43 0d 33
       -0.00027512302 -0.00022136116 3.0379708e-09 3.2890473e-08
000040 af de 8e b7 1c 88 5b b9 08 72 91 35 7b a9 a2 3b
       -1.7031414e-05 -0.00020936172 1.0836529e-06 0.0049640513
000050 12 7b 07 b6 c9 a4 df 1d cd ba 7e b6 e1 ca 2a b9
       -2.0188204e-06 5.9197992e-21 -3.7957682e-06 -0.00016288042
000060 59 af 79 26 c6 0c 12 a2 d6 8a 50 2a 88 a6 82 ba
       8.662687e-16 -1.9793452e-18 1.852228e-13 -0.0009967843
000070 09 c6 4c 32 a0 b0 47 2a 69 f0 6f a9 a5 2b 24 b5
       1.1919391e-08 1.773603e-13 -5.3277183e-14 -6.115827e-07
000080 ef d5 b1 34 2e ad 34 31 71 54 5a 38 e5 04 eb b4
       3.3124476e-07 2.6291889e-09 5.2053892e-05 -4.3775722e-07
000090 b5 a4 5c ac f0 b2 53 29 d1 27 0a ac 06 7f 71 32
       -3.1355311e-12 4.7006615e-14 -1.9633082e-12 1.4056928e-08
0000a0 64 9a 0e b8 0d 43 71 a4 82 f5 4e a1 a8 d6 f0 b8
       -3.3999226e-05 -5.231534e-17 -7.012044e-19 -0.00011484075
0000b0 2e c3 af 35 0a ef 13 ac 4d 73 d6 2d a0 28 f2 b4
       1.3095321e-06 -2.102265e-12 2.4380187e-11 -4.510557e-07
0000c0 6d c9 e5 ac 1b 73 ba b7 02 67 ec b9 b9 b2 27 b8
       -6.530934e-12 -2.2226528e-05 -0.00045090175 -3.998235e-05
0000d0 c7 c6 87 a3 f7 31 94 2e f8 ca 0b a0 e8 ea 56 23
       -1.4720915e-17 6.739136e-11 -1.1840915e-19 1.16507066e-17
0000e0 92 84 ec b3 1b b9 69 b1 c9 e6 9a 1e d5 86 23 a8
       -1.1013721e-07 -3.4011183e-09 1.6400835e-20 -9.077555e-15
0000f0 4a 17 38 28 e1 bd 2f ae 98 c4 a5 aa 14 64 7e 38
       1.0219102e-14 -3.995904e-11 -2.9446302e-13 6.0651524e-05
000100 6c 48 8f 24 b0 c8 97 9f e2 93 ca 2f 6f 60 06 38
       6.213905e-17 -6.4283e-20 3.6848663e-10 3.20379e-05
000110 2a a5 d4 b4 43 28 82 b9 f1 d9 07 a6 3d ea 4d 38
       -3.960825e-07 -0.0002482553 -4.71329e-16 4.909396e-05
000120 89 63 5d 31 e8 d6 f4 31 f4 18 b4 a7 1c 1b da 28
       3.2216312e-09 7.1257666e-09 -4.998709e-15 2.4214619e-14
000130 a9 ca 4f 20 b7 20 22 b0 fe 17 1c b9 0a ce eb b9
       1.7600637e-19 -5.898175e-10 -0.00014886257 -0.00044976204
000140 8f 0d d6 34 9a be 21 ba 97 98 22 b8 be fa 9d b1
       3.987047e-07 -0.00061700644 -3.876592e-05 -4.5978075e-09
000150 30 85 cd 2b 25 91 43 30 56 62 35 aa df b8 fe b9
       1.4603093e-12 7.114685e-10 -1.6110147e-13 -0.00048584395
000160 a2 b4 19 b4 22 12 5c a2 c5 3b 0c 26 c3 fc 28 b8
       -1.4314949e-07 -2.982516e-18 4.865326e-16 -4.0289724e-05
000170 2a 88 25 30 9c 11 d3 3a ca c9 af 2f 9f 95 5a b6
       6.022015e-10 0.001610327 3.1975694e-10 -3.2571622e-06
000180 7b d6 ec b0 8c 91 95 20 51 07 19 36 be 81 1d a3
       -1.7232219e-09 2.5337897e-19 2.2803035e-06 -8.538461e-18
000190 35 06 2e b6 2c f0 82 b7 63 49 60 37 9e 4b 09 b9
       -2.5931633e-06 -1.5609046e-05 1.3368527e-05 -0.00013093508
0001a0 d4 35 29 b9 bc 67 0b ba f5 0b 3d b2 6e 01 2f 99
       -0.00016137148 -0.0005317887 -1.1003967e-08 -9.047577e-24
0001b0 dc 1c c0 21 33 3f 82 a8 0a e4 e3 35 82 b9 61 20
       1.3018065e-18 -1.4460308e-14 1.6979186e-06 1.9119621e-19
0001c0 a6 92 10 1b 7f bf 19 31 7e 11 b6 26 8f b7 a7 38
       1.1958785e-22 2.2373283e-09 1.2633528e-15 7.997371e-05
0001d0 80 97 eb b8 f4 c1 33 2f 2b 09 f9 b5 c7 5a f7 31
       -0.00011233892 1.6348861e-10 -1.8554614e-06 7.1989663e-09
0001e0 9b 0a 8b b5 3e 38 41 9d 27 7d b6 35 37 37 bf 39
       -1.0359394e-06 -2.5572414e-21 1.3596481e-06 0.00036471497
0001f0 5b 5f d5 a6 16 62 cb 23 de c9 09 2c 04 e6 d0 2b
       -1.480569e-15 2.2050845e-17 1.958093e-12 1.4843131e-12
000200 85 b3 20 39 f1 86 ef a7 40 34 d3 36 59 ab 13 af
       0.00015325665 -6.648213e-15 6.2943727e-06 -1.3430447e-10
000210 01 ad 3f ba d0 ae 88 2c 39 3e d4 29 4d 26 b3 2c
       -0.00073118514 3.8847606e-12 9.425485e-14 5.0917382e-12
000220 74 28 1a 22 ab 96 38 b7 6f 89 35 ba 14 17 1a a9
       2.0892308e-18 -1.1002335e-05 -0.0006925081 -3.4214886e-14
000230 52 c4 01 24 2f 38 21 a4 ab 41 a4 b3 85 7d b1 b6
       2.8138706e-17 -3.49589e-17 -7.64879e-08 -5.2896235e-06
000240 e3 7e 31 9f a5 ac f1 1e 9f 02 db 8d 7d a9 89 af
       -3.7586166e-20 2.5588272e-20 -1.3497548e-30 -2.5040583e-10
000250 bf 9a 04 aa 77 a3 8d 1e 16 47 d7 aa 95 a8 1d 28
       -1.1777643e-13 1.4996563e-20 -3.8240998e-13 8.751806e-15
000260 ea 12 5d 34 be 0d 0e 3a 71 49 9b 34 00 6b a8 22
       2.058911e-07 0.0005418918 2.8924435e-07 4.564978e-18
000270 9a a6 20 32 de 96 42 aa 4f 88 23 1c a4 8b 15 2a
       9.3511066e-09 -1.7283004e-13 5.410835e-22 1.3282306e-13
000280 cf 47 a0 3b e8 1b fb 9f a9 55 97 b8 29 3c c7 3b
       0.0048913728 -1.063488e-19 -7.2161965e-05 0.0060801697
000290 1b 9b f2 b9 80 cd 4e 37 a5 bc 48 b8 1e 9e 0f 2e
       -0.000462734 1.23264035e-05 -4.7859405e-05 3.2654872e-11
0002a0 d1 44 1b 25 fc 6d 1d 30 cf 29 8c b8 44 a0 21 35
       1.3467423e-16 5.7272564e-10 -6.683508e-05 6.021039e-07
0002b0 d0 75 8a ad e7 cd 2c 3b 02 f1 12 b5 ef 83 92 21
       -1.5741103e-11 0.0026367845 -5.473995e-07 9.928267e-19
0002c0 9c 00 41 3b 34 82 74 2b d5 31 eb 9f c9 24 f1 36
       0.0029449826 8.6866907e-13 -9.960881e-20 7.186642e-06
0002d0 f0 e3 8c 37 a9 00 69 3a da 38 4d 2c 42 ef 90 20
       1.6795442e-05 0.0008888343 2.9163811e-12 2.4552876e-19
0002e0 55 84 93 a1 9b 13 11 a8 e3 f5 b4 b9 29 78 74 38
       -9.996135e-19 -8.053368e-15 -0.00034515475 5.828604e-05
0002f0 30 67 c5 1f d9 b2 c5 a7 64 cd 1e 8f 6a 54 ed 32
       8.3603455e-20 -5.487239e-15 -7.829558e-30 2.7628818e-08
000300 4d 4c 79 a8 55 6c 15 39 a0 2c 18 21 77 a5 21 1e
       -1.3838822e-14 0.00014250104 5.1558664e-19 8.557486e-21
000310 8b 40 12 31 4e 03 cb a6 33 ae 09 35 9e 18 43 b6
       2.1282485e-09 -1.408685e-15 5.128997e-07 -2.9071593e-06
000320 14 e1 c5 b1 e6 f6 b3 a4 b7 3a b8 1e 65 92 20 b8
       -5.759043e-09 -7.804714e-17 1.9506042e-20 -3.8283313e-05
000330 88 d1 16 b8 a0 fa 46 2a d7 e1 9c 38 d7 70 49 b7
       -3.5957928e-05 1.7672886e-13 7.4807256e-05 -1.2006806e-05
000340 fb 7a 1e ba b1 0f 97 36 5c f4 bb 38 a4 26 a6 ae
       -0.0006045547 4.5019774e-06 8.96237e-05 -7.55567e-11
000350 32 fa 28 b4 7e 81 62 25 16 ed 74 2e 41 21 74 30
       -1.573724e-07 1.9646249e-16 5.568975e-11 8.881394e-10
000360 65 cd 07 a9 03 ee 87 34 81 ec 96 39 74 0f 4a 27
       -3.0154173e-14 2.5318886e-07 0.0002878644 2.8041509e-15
000370 cc d7 89 bb 0c 3f 39 a8 10 ef ea b3 81 e5 4e b7
       -0.004206633 -1.0283234e-14 -1.0939959e-07 -1.2331992e-05
000380 64 54 bf 24 c1 3e 21 b7 b1 38 b2 b9 a2 5d 9c 37
       8.297601e-17 -9.610959e-06 -0.00033993044 1.864025e-05
000390 63 0e 37 a4 db 67 05 b6 43 97 eb b6 00 dd 35 38
       -3.9693986e-17 -1.9878996e-06 -7.021155e-06 4.3359585e-05
0003a0 fa ad 0a 28 56 28 a8 a4 7f 8e d9 a5 19 e4 cb 1f
       7.698264e-15 -7.292672e-17 -3.7740059e-16 8.63512e-20
0003b0 e6 d1 3f ad 51 48 01 ac 75 c0 02 29 f2 3b df af
       -1.09037e-11 -1.8372146e-12 2.903273e-14 -4.0606057e-10
0003c0 e1 e0 16 32 e7 31 8b 23 f0 71 27 38 05 f2 b1 b0
       8.782281e-09 1.5091545e-17 3.9922015e-05 -1.2947231e-09
0003d0 ff ce 82 ba 02 0c 5c 21 5e bf 33 a5 c2 f4 29 34
       -0.0009979903 7.455479e-19 -1.5590613e-16 1.5828394e-07
0003e0 0c 15 1b 39 bc a7 6d a2 66 0a 07 ab 1b f6 c6 38
       0.00014789792 -3.2208287e-18 -4.7976065e-13 9.4872164e-05
0003f0 10 3a 04 ac a7 84 47 a9 ed 21 e9 36 5f 4e 92 a5
       -1.879056e-12 -4.4301934e-14 6.9478906e-06 -2.538007e-16
