ckpt/TC1_only_gcn-best.pt (torch, 142972 bytes, 17 tensors)

weight f4 [256, 7]
000000 5c 73 39 bb 6e 9f 4f 3e 1e 46 9f be d5 6a 8e be
       -0.002829752 0.20275661 -0.31108183 -0.2781588
000010 86 11 15 be aa 92 cf 3d 96 63 f5 bb 30 70 99 3e
       -0.14557466 0.10135396 -0.007488678 0.29968405
000020 70 63 09 bd 37 d4 cc 3d 38 ef e9 bd d6 27 98 bd
       -0.033542097 0.10001414 -0.114225805 -0.07429473
000030 7f e0 b8 be d3 29 80 be 86 8b 1f be 18 65 65 3c
       -0.36108777 -0.2503191 -0.15580568 0.014001153
000040 41 02 19 3e ee 3a 68 3e 94 31 83 be 25 8a 28 be
       0.14942266 0.2267873 -0.25623763 -0.16458948
000050 f5 93 0c 3e e2 b1 a0 3e d3 4d 9f bd c8 cf 90 3e
       0.13728316 0.31385714 -0.07778516 0.28283525
000060 e9 88 79 bd b7 d0 23 3d cc 39 af 3e 4f 85 b3 be
       -0.060921583 0.039993968 0.34223783 -0.35062644
000070 53 a7 73 be ca f7 c3 bd d1 dd 16 be 15 33 a7 3e
       -0.23794298 -0.095687464 -0.14733054 0.3265616
000080 5d de 7a be 4c 2a 32 be 0a 33 87 be c1 3d b5 be
       -0.24498887 -0.17398947 -0.26406127 -0.35398677
000090 a8 ed 61 be f8 58 a6 3e d1 b3 2c 3e e6 95 3b 3e
       -0.22063315 0.32489753 0.1686547 0.183189
0000a0 a5 d6 a2 3c 41 6d 46 be 04 f6 82 3d c2 af b4 be
       0.019877741 -0.19377615 0.0639458 -0.35290343
0000b0 56 d4 8b be 4a 87 47 be 09 32 74 3e 5d ed 62 3e
       -0.27310437 -0.19485202 0.23847212 0.2216086
0000c0 fc a5 2b be 55 71 5f bc 63 88 77 3e e9 61 c0 3e
       -0.16762537 -0.01363786 0.24173121 0.375747
0000d0 88 9b 19 3e 9b 24 51 3d 44 c0 81 3e 32 e3 63 be
       0.15000737 0.0510603 0.25342 -0.22254637
0000e0 59 3e 90 3d 11 09 96 be e0 1f 86 be ad ef 47 be
       0.07043142 -0.29303792 -0.26196194 -0.19525023
0000f0 89 1f 2f 3e 81 a6 1b 3e f3 42 65 be 38 da e9 3d
       0.17101873 0.15200235 -0.2238882 0.11418575
000100 c3 78 54 3e 08 67 43 bd 1f 71 6c 3c 20 5b b3 3d
       0.20749192 -0.04770568 0.014431267 0.08757615
000110 9b 1b 70 3e 8d d0 b9 3e 1f 21 95 be 3b d6 0d be
       0.2344803 0.36291924 -0.29126832 -0.13851254
000120 dc 1b 18 3e cd 56 a0 3e 8e 66 a8 3e 72 c0 aa 3e
       0.14854378 0.31316224 0.32890743 0.3334995
000130 2b 0d 9a 3d 9c 47 a8 be e1 6a 0e 3d ad 21 72 be
       0.07522043 -0.32867134 0.034769896 -0.23645659
000140 87 59 b4 be 6a f0 ab 3e a6 24 93 3e 18 0a c1 be
       -0.35224554 0.3358186 0.28738898 -0.37703013
000150 6f e2 90 3d 6a 66 82 bd 9c c3 7e bd 10 2b 31 be
       0.07074439 -0.0636719 -0.062198266 -0.17301583
000160 41 d6 14 3e 18 3e 65 be 47 e2 0d 3e 20 ba 43 3e
       0.14534856 -0.22386968 0.13855849 0.1911397
000170 ad 88 8a 3e 89 b7 10 3e 09 88 bf be 9d 11 7b be
       0.270574 0.14132513 -0.37408474 -0.24518438
000180 b1 40 41 3e a0 03 a2 3d cc f5 96 be d7 dc 5e be
       0.18872334 0.07910848 -0.29484403 -0.21763931
000190 3f 0d b6 3e 50 65 82 3e dc c1 28 be 6b d2 c2 bd
       0.3555698 0.2546792 -0.16480201 -0.0951279
0001a0 3e 58 b8 be ba 9c de bb f6 ba 91 be 71 45 95 be
       -0.36004823 -0.0067935856 -0.28462952 -0.29154542
0001b0 a5 9a aa bc 29 72 68 3d b8 80 1e be 84 a8 65 3e
       -0.020825693 0.056749497 -0.1547879 0.22427565
0001c0 bc 86 6b be 9f 97 af 3e 23 9e 84 3e b5 30 a3 be
       -0.23000616 0.34295365 0.259019 -0.31873098
0001d0 79 a7 c0 bd 66 b6 8b 3c 2b e0 61 3d fc 96 b7 3d
       -0.09406943 0.017054748 0.055145424 0.08964345
0001e0 3b e2 17 3e cd 77 b9 3c 87 d8 3c be 18 24 37 3e
       0.14832394 0.022640133 -0.18441974 0.17884862
0001f0 ba a1 b9 be 0a 66 65 be ec c5 c1 bd bc 87 3c be
       -0.362562 -0.22402206 -0.09461579 -0.18411154
000200 e2 65 07 be 84 9c 9e be 1c a8 a4 bd 74 76 a5 3d
       -0.13222459 -0.30978787 -0.08039877 0.08079234
000210 f5 23 7c be 3d e6 9e bc a6 87 8a 3e 41 26 1f bd
       -0.24623092 -0.019396896 0.27056617 -0.03885484
000220 f1 1a 2c 3c 7a 8e 05 bd 58 a8 9c 3d af 17 76 3e
       0.01050447 -0.03260658 0.076492965 0.24032472
000230 1b 4f b7 3e 0c ca 75 3e 7a ba b7 3e af ed df bc
       0.3580254 0.24002856 0.35884458 -0.027335016
000240 59 d7 ad be 1a 7c 37 be 6d c4 83 3e a9 92 20 bb
       -0.3395336 -0.17918435 0.25735798 -0.0024501479
000250 e8 5f 40 be 83 4b 94 be a2 1a b5 be a3 54 a3 be
       -0.18786585 -0.2896386 -0.35371882 -0.3190051
000260 95 02 9d bd ae 40 54 3e 52 3f 51 3e 7f a2 ba be
       -0.07666508 0.20727798 0.20434311 -0.364521
000270 05 6d 71 3e f4 6d 97 be 89 a5 a3 bd af ee 1c be
       0.23576744 -0.29576075 -0.07990558 -0.15325426
000280 13 19 95 bd b6 fb 97 bd 38 a7 ad be 32 17 a7 be
       -0.07280173 -0.07421057 -0.3391664 -0.32634884
000290 a5 40 72 bd b8 2a a0 3b 10 d2 2f be c7 cb 11 3e
       -0.05914368 0.004887905 -0.17169976 0.14237891
0002a0 65 2d ae be b0 f5 d0 bc ee 2e aa 3e 65 de 1d be
       -0.34019008 -0.025507778 0.3323893 -0.15416868
0002b0 47 bf ae 3e 9a 2a 0c 3e 6b a4 ae be 5c e0 74 3e
       0.34130308 0.13688126 -0.34109816 0.23913711
0002c0 a7 a5 32 bd 7d c6 2c be 45 bf 9a 3e 7d 61 9c be
       -0.04361501 -0.16872592 0.30224052 -0.30543128
0002d0 92 1f 26 3d f8 10 a2 bd 8a 31 8a 3e e7 13 d8 3d
       0.04055745 -0.07913393 0.2699092 0.10550671
0002e0 02 f9 39 3e 62 af 08 3e 01 25 ba bd 99 ca a2 bd
       0.18161395 0.13348153 -0.09089089 -0.07948799
0002f0 74 79 9f be 86 b6 51 3e 1e a6 99 3e e2 68 84 3e
       -0.3114735 0.20479783 0.3000955 0.2586127
000300 d6 80 88 be 0e 18 8a 3c d5 6a 88 be 96 0e 55 be
       -0.26660794 0.016857173 -0.26644006 -0.20806345
000310 1d 87 61 be 7a 44 04 3e be a3 66 be c6 1a 07 bc
       -0.22024198 0.12916747 -0.225234 -0.008246129
000320 41 41 82 3c f9 7d 79 3e b4 48 92 be 33 da 84 be
       0.015900256 0.24364461 -0.28571093 -0.25947723
000330 98 bc 60 be 18 73 87 3e 32 20 0b be e7 3a a3 3e
       -0.21946943 0.26454997 -0.135865 0.31880876
000340 7b f4 0b 3e fd 08 44 3d fb 63 38 bb 04 05 99 bd
       0.1366748 0.047860134 -0.0028135765 -0.0747166
000350 62 3d 42 3d 4b c1 b0 bd f7 0b 2e bb 3e 88 45 3d
       0.04742182 -0.08630618 -0.0026557425 0.048225634
000360 e1 5e 97 be 87 db 4a be a4 43 9c 3e 7a 0c 9d be
       -0.29564574 -0.19810306 0.30520356 -0.3067358
000370 1a 55 de bc 71 6f bf 3e c5 cf 0b 3e 9a 54 2f 3c
       -0.027140189 0.3738971 0.13653477 0.010701323
000380 57 b4 a7 be 98 ba 3f 3e c9 d6 89 be 2d bb db bd
       -0.32754776 0.18723524 -0.2692168 -0.1072906
000390 55 db 01 be a7 42 65 bd e3 78 87 3b 6d 9d 9f 3e
       -0.12681325 -0.055971768 0.004134284 0.31174794
0003a0 af 44 41 3d 1f 55 ad 3e 27 c1 6c 3e 77 b0 74 be
       0.047184642 0.33854005 0.23120557 -0.23895441
0003b0 49 96 2d 3e 07 cc 88 be 12 09 24 be 03 ac e3 3d
       0.1695186 -0.2671816 -0.16019085 0.11116793
0003c0 9a 97 ff 3d b7 2e 91 3e 91 2f f9 bd 7b 9d 1e 3a
       0.124800876 0.28355953 -0.12167276 0.0006050688
0003d0 4b 41 47 3e 49 26 bb be dd e8 8b 3e 33 06 a0 be
       0.19458501 -0.36552647 0.27326098 -0.3125473
0003e0 bd b2 aa 3b e7 9a 83 bd 58 d7 4b be 9d 9e 4c 3d
       0.0052092955 -0.0642603 -0.19906366 0.049955953
0003f0 04 06 a0 3e b1 46 e2 bd e0 c7 65 be 0b 24 0f be
       0.3125459 -0.110486396 -0.22439528 -0.13978593

bias f4 [256]
000000 f3 fc 99 3e 22 19 4b 3e b2 e3 1a 3e 88 e2 c8 bd
       0.30075797 0.19833806 0.15125921 -0.098088324
000010 24 8f 4d 3e ea 1c 3a 3e b5 fb 05 3e 9d c2 32 bc
       0.20074135 0.18175092 0.130843 -0.010910657
000020 e0 3e 67 3d d7 cd db 3a d9 70 8c be 1c b1 b3 3d
       0.056456447 0.0016769719 -0.27429846 0.08774015
000030 83 43 8e be 4b ca 3b 3e 7b 99 66 be cb d9 fc bd
       -0.27785882 0.18338887 -0.22519486 -0.12346228
000040 89 8d 37 be eb be 98 3e 62 47 88 be 2d a0 45 3e
       -0.17925085 0.2983316 -0.2661696 0.19299383
000050 2e 1c 42 3e dc d4 88 3e 5b f2 c1 3d f2 fd 52 3e
       0.18956062 0.267249 0.09470054 0.20604685
000060 d0 f9 98 3e 3e 79 98 3d 55 99 03 3e 73 51 97 be
       0.29878092 0.07445 0.1285146 -0.29554328
000070 06 a1 cf bd 7e 5f 0c 3d 06 92 3b 3d 79 bd 08 be
       -0.10138135 0.034270756 0.045793556 -0.13353528
000080 6d d7 bf be 22 4e c9 bd 50 2c 14 3e ea a1 a6 3e
       -0.37469044 -0.09829356 0.14470029 0.32545406
000090 92 c0 ae be bf c8 38 3e be 9f b7 be ba 0f b9 be
       -0.34131294 0.18045329 -0.3586406 -0.3614481
0000a0 02 61 72 be d8 7b 4c bd 81 31 d8 3d 26 2c 93 be
       -0.23669818 -0.049922794 0.10556317 -0.2874462
0000b0 07 18 95 3e ba ff ae 3e c1 80 be 3c 38 85 9d 3e
       0.29119894 0.3417948 0.023254754 0.307657
0000c0 8c 37 2f be f7 1b 19 be b2 c7 47 bd 86 28 29 3d
       -0.17111033 -0.14952074 -0.04877443 0.04129841
0000d0 d1 fe 86 be fc f4 9a be 59 e4 18 3e 79 2f df 3d
       -0.26366284 -0.30265033 0.14930858 0.108977266
0000e0 fc 4f bd 3e a7 cc 1d be 8a ad 08 3e 0b 2f 1c be
       0.36975086 -0.154101 0.1334745 -0.1525232
0000f0 58 0f 3f 3e e3 84 ab bc d0 74 8f 3e 5e 06 57 3e
       0.18658197 -0.020937389 0.28018808 0.20998523
000100 f7 12 a1 3e 57 e5 46 3e 74 a7 68 3c b0 c4 a6 3e
       0.31459782 0.19423424 0.01420008 0.32571936
000110 73 56 63 be f8 85 b6 3e 64 1a bd 3e 80 dc b8 3e
       -0.22200947 0.35649085 0.36934197 0.36105728
000120 dc ca 34 be f2 12 4d be 8e e5 c3 3c 48 0b f1 3d
       -0.1765551 -0.20026758 0.023913171 0.1176973
000130 c6 25 42 3e 93 68 1d 3e 43 c7 a4 3e 98 ef c1 bd
       0.18959722 0.15371923 0.32183275 -0.09469527
000140 c7 f3 fd bd 02 bc 01 3e 51 b5 d7 3d c1 c4 61 be
       -0.124000125 0.12669376 0.1053263 -0.22047712
000150 56 be 15 3d a9 ed 92 be b1 16 e3 bd ac e6 17 be
       0.03655847 -0.28696945 -0.110883124 -0.14834088
000160 6e a2 a9 3e 1b 33 ae be f8 83 64 be e0 61 bd be
       0.33131737 -0.34023365 -0.22315967 -0.36988735
000170 94 39 c3 3d d2 f2 94 be 8c 71 fa 3d 6c 6b 86 be
       0.095324665 -0.29091507 0.122286886 -0.2625383
000180 78 ed 77 be 20 ba 45 be 04 54 68 3d de d1 b1 3e
       -0.24211681 -0.19309282 0.05672075 0.34730428
000190 40 45 b5 3e 68 ec e9 bc d2 8c bd be dd bb ff bd
       0.35404396 -0.02855511 -0.370215 -0.12487004
0001a0 e8 80 13 be 42 a4 a4 bd c2 e1 13 3e 16 c5 42 3e
       -0.14404643 -0.08039142 0.14441589 0.19020495
0001b0 11 9a 2b 3e a9 20 dd 3d ce ae 1c be 4d 62 83 bb
       0.1675799 0.10797245 -0.15301058 -0.004009521
0001c0 37 07 45 3d ae b1 45 be ba 7d 0a bd c3 40 41 bd
       0.048102584 -0.1930606 -0.03381131 -0.047180902
0001d0 8d d6 b6 be aa 30 83 3e 62 85 1c bd d2 49 a7 be
       -0.35710564 0.25623065 -0.03821314 -0.32673508
0001e0 2e 1b 99 3e fa 40 50 be 12 07 09 3e ff e9 bf 3e
       0.2990355 -0.20337287 0.13381603 0.37483212
0001f0 bc 55 8f 3c ff b3 de 3d c6 c7 19 3e 50 42 92 3e
       0.017496936 0.10874175 0.15017614 0.28566217
000200 b0 80 ed bd d3 ca 59 be 35 4e f2 bc 3f 57 97 3e
       -0.11596811 -0.21268778 -0.029578308 0.2955875
000210 b6 1c 05 3d 58 75 86 3e c7 29 38 bb 2b 80 ed 3d
       0.032498084 0.262614 -0.0028101073 0.11596712
000220 6b 54 57 3c 78 1a 28 3c c3 27 b8 be 0d 2e a9 be
       0.013142685 0.010260217 -0.35967836 -0.33042946
000230 80 b2 00 3d 96 8e 3f 3e ff fe 81 3e 67 58 86 3c
       0.03142023 0.18706736 0.2538986 0.016399575
000240 d6 24 23 3e 66 df 21 3e 00 0e a7 be da 16 aa be
       0.1593202 0.15807876 -0.3262787 -0.3322056
000250 13 0b 96 be 2b ef d4 3b 9f ba 74 be 80 b6 f7 bd
       -0.29305324 0.0064982376 -0.23899315 -0.12095356
000260 ba 9f 67 bd aa 01 17 3e b1 79 b3 3d 94 85 b3 3e
       -0.05654881 0.14746729 0.08763445 0.3506285
000270 20 8d ae 3e 77 e9 76 be de 11 9c ba dd a6 7f 3d
       0.34092045 -0.24112497 -0.001190718 0.062414993
000280 d5 f0 a8 3e a5 e6 ef bd 18 1b 18 be 8d 2b 75 be
       0.3299624 -0.11713914 -0.14854085 -0.23942395
000290 83 98 8e 3e e2 4c db bd 60 f4 10 be ba e3 82 3e
       0.27850732 -0.107080236 -0.14155722 0.25564367
0002a0 6c 11 b2 3e 45 7b 82 bc 71 69 88 be e9 ac 9d 3e
       0.34778917 -0.01592792 -0.26642945 0.30795982
0002b0 37 5e 04 be 0a 5b 32 be 32 0c 88 be 96 23 3a be
       -0.12926565 -0.17417541 -0.26571804 -0.18177637
0002c0 70 8e 97 be 08 67 5f be 5f 49 b0 be 25 04 9c bd
       -0.2960086 -0.21816647 -0.34430978 -0.07617978
0002d0 0f 9e 1b 3e 80 e7 92 be d4 5e 0a ba 54 b9 0e be
       0.15197013 -0.28692245 -0.0005278413 -0.13937885
0002e0 5d 35 3b 3e 23 9c a7 3e f5 39 4d bd 7f cb 42 be
       0.18282075 0.3273631 -0.0501041 -0.1902294
0002f0 31 b1 94 be 51 64 63 be 04 7e df 3d 00 9b b1 3d
       -0.29041436 -0.22206236 0.109127074 0.08672142
000300 1b 6e 50 3e a7 09 66 bd 33 df 46 3e d1 68 ac be
       0.20354502 -0.05616155 0.19421081 -0.3367372
000310 cb 15 d0 3d a8 dd bb 3e 36 86 bf be bb eb 48 be
       0.10160407 0.36692548 -0.37407082 -0.19621174
000320 b0 c4 77 3e d1 0c 72 bd 89 4e 4e be e2 1d 6c 3e
       0.24196124 -0.059094254 -0.20147146 0.23058274
000330 0e 8e cf 3c 70 8b 72 3c a5 1c eb bd d1 cd 91 3e
       0.025336292 0.014803752 -0.11480073 0.28477338
000340 04 b0 56 3e 1c ab 8a 3d ab 43 6c 3d 2c 22 48 3e
       0.20965582 0.06770918 0.05768172 0.19544286
000350 85 20 71 3e 37 c3 1e be e1 9d 29 bd d8 ea 29 3e
       0.23547561 -0.15504156 -0.04141033 0.16593492
000360 97 8c 3b be e5 f2 b4 3e 3f 8f 84 be af 98 32 3e
       -0.1831535 0.35341564 -0.25890538 0.17441057
000370 9a 01 8b be 41 87 f8 3d f3 29 87 3e bd a0 3a 3d
       -0.2714966 0.12135173 0.26399192 0.04556345
000380 ca 2a 1b bd 08 1f 76 3e 28 f4 8a be 51 8f 82 be
       -0.037882604 0.24035275 -0.271394 -0.25499967
000390 3e ef a4 be 4b 3d 6e be 36 b9 20 3c ea 7f 2f be
       -0.32213777 -0.23265569 0.009809783 -0.17138639
0003a0 93 73 ac 3d c5 f7 50 3c 7d 0e a1 3e 62 d2 27 be
       0.084204815 0.012754385 0.31456366 -0.16388848
0003b0 92 c2 d3 bd a8 fb 7f 3e 35 ba c3 bd df 45 b9 3e
       -0.10339846 0.24998343 -0.095570005 0.3618612
0003c0 0c b9 19 be 5a a4 87 bb 34 66 b7 bd fa 91 34 3e
       -0.15011996 -0.0041394653 -0.089550406 0.1763381
0003d0 aa 4c 14 3e 7f 1b 4e be ac 08 7f 3e b2 be c4 bc
       0.1448237 -0.20127676 0.24905652 -0.024016712
0003e0 ca be c3 bd 20 d4 f9 bb 8a ad 86 3e 60 d4 bd 3e
       -0.095578745 -0.007624164 0.26304275 0.37076092
0003f0 f1 53 3c 3e ef 72 87 3d bb 97 7c 3e 89 d8 21 be
       0.18391396 0.06613719 0.24667256 -0.15805258

weight f4 [32, 256]
000000 50 c9 05 bd bc db 93 bc 78 b0 25 bd e0 24 dc 3c
       -0.03266269 -0.018049113 -0.040451497 0.026873052
000010 00 8a c2 3b 3c 2c af bc f0 ea cf bb 00 6e a2 ba
       0.005936861 -0.021383397 -0.0063451454 -0.0012392402
000020 92 80 5b 3d c8 85 64 3d c2 14 45 bd 78 a5 bb 3c
       0.05358941 0.055791646 -0.0481155 0.02290605
000030 24 b5 c5 3c b0 c5 c3 3c 80 9a 0b bc 8c 0b 80 3c
       0.024134226 0.023897976 -0.008520722 0.015630506
000040 80 d6 80 3c 1c 2a 79 3d 86 5b 75 bd a4 4a c2 bc
       0.015727282 0.060831174 -0.059901737 -0.023717232
000050 c0 3c 2c bd 20 5b f8 bc e0 0c 49 3c 56 21 1c 3d
       -0.042050123 -0.03031689 0.012271136 0.03811773
000060 3e 97 41 bd 64 81 26 3d 5c d6 55 3d 50 5e fc bc
       -0.047263376 0.04065074 0.052206382 -0.03080669
000070 40 ba 32 3c b6 6c 03 bd c0 53 5b 3c f8 5f ed bc
       0.010908663 -0.032086097 0.013386667 -0.028976426
000080 bc 73 c7 bc e2 5e 2b bd 7a 7a 55 bd aa 4a 4c 3d
       -0.024347179 -0.041838534 -0.052118756 0.049875893
000090 80 50 01 bc 80 43 e3 ba 8c ce fe bc ca 6e 32 3d
       -0.007892728 -0.0017338842 -0.031104349 0.043562688
0000a0 10 87 12 bd a8 15 cf bc 5c d6 47 bd f2 43 57 bd
       -0.035773337 -0.025278881 -0.048788413 -0.052555032
0000b0 6e 46 63 3d 9e ae 45 bd 30 5f 0d bc 20 34 94 bc
       0.05548709 -0.04826223 -0.0086286515 -0.018091261
0000c0 10 8a bb 3c b4 f1 88 3c 4e 3f 44 bd 34 e8 65 3d
       0.022892982 0.016716816 -0.047911935 0.05612965
0000d0 88 02 7f bd 30 8f ca 3b 10 19 ab bb 68 4d 6d bc
       -0.062258273 0.00618162 -0.0052214935 -0.014483787
0000e0 9c 74 2e 3d 24 25 58 3d c8 63 05 3c 80 d6 b4 bc
       0.042591676 0.052769795 0.0081414655 -0.022074938
0000f0 b6 52 3e 3d 48 d6 20 3d 30 eb 37 3c b0 09 8c bc
       0.046465598 0.039266855 0.011225507 -0.017094463
000100 e0 af 2c 3b d8 2b 64 3d 30 18 de 3b 70 cb 49 bc
       0.0026349947 0.055705875 0.0067777857 -0.01231657
000110 66 be 58 bd 9a 2f 09 bd 62 e4 38 3d 20 3c 10 bb
       -0.052915953 -0.033492662 0.045139678 -0.0022008494
000120 f0 61 88 bb 48 5a c7 3c e8 6d 28 bd 10 59 8a bb
       -0.0041620657 0.024335042 -0.04112044 -0.004222043
000130 94 00 90 bc ce f1 05 3d c4 56 50 3d 8e be 20 3d
       -0.0175784 0.032701306 0.050863996 0.039244227
000140 bc dc 3e 3d a6 c9 64 bd c0 c4 b5 bc 10 84 f2 3b
       0.046597227 -0.05585637 -0.022188544 0.007400997
000150 50 6f 59 bd 40 e4 8a 3c a6 cd 27 bd fc 65 db 3c
       -0.05308467 0.016954541 -0.040967606 0.026782028
000160 b6 31 4f 3d b6 fe 5a bd 64 83 56 3d 60 e6 ee 3c
       0.050584517 -0.053465568 0.052371398 0.029162586
000170 a0 f0 28 bd 98 09 75 3d f8 b7 5d bd 20 58 2c bd
       -0.041245103 0.059823602 -0.054130524 -0.04207623
000180 34 b1 fe bc 40 6a 4f bb 40 e1 37 3c c8 41 96 bc
       -0.031090356 -0.0031649023 0.011223137 -0.018341914
000190 1e a6 72 bd 60 67 ec bb 36 3b 42 3d 9c 1a 45 3d
       -0.059240453 -0.0072144717 0.04741975 0.04812108
0001a0 cc 26 00 3d 68 ac 14 3c 20 70 7e 3c 54 5a 45 bd
       0.031287 0.009074308 0.015529662 -0.048181847
0001b0 3c 54 cf 3c c6 c7 7e bd c8 70 d3 bc 58 8d 86 bc
       0.02530872 -0.062202238 -0.025810614 -0.01642482
0001c0 32 fd 3b 3d 40 cd ee ba 84 38 e9 bc d8 e6 32 3c
       0.045895763 -0.0018219128 -0.028469332 0.010919295
0001d0 d4 6b 54 bd 48 8e 87 bc ac cc 8d 3c c0 a2 87 bb
       -0.051860645 -0.016547337 0.01730951 -0.0041392744
0001e0 90 14 d7 bb fa 75 1c 3d fc 76 42 bd ce 42 01 bd
       -0.0065637305 0.03819845 -0.047476754 -0.03155785
0001f0 fa cc 77 3d c0 c3 4b 3c 00 cc 25 bc be 9a 04 3d
       0.060498215 0.012436807 -0.010119438 0.032374136
000200 70 01 1a 3d 90 1c 2b bc e8 44 d5 bc 70 61 27 bc
       0.037599027 -0.010443822 -0.026033834 -0.010216102
000210 58 e9 b9 3c 10 ba 02 bc fe fd 14 3d a4 c3 50 bd
       0.022694275 -0.007978931 0.03637504 -0.050967827
000220 14 34 fb bc b2 28 43 3d 68 56 06 3c 60 34 4e 3c
       -0.030664481 0.047646232 0.008199312 0.012585729
000230 f8 64 a8 3c d8 f6 71 bc b4 c0 cc bc 7c e2 92 3c
       0.020555958 -0.014768325 -0.024994232 0.017930262
000240 24 b2 87 bc 90 81 d3 bc d8 49 07 3c c0 af 77 3c
       -0.016564436 -0.025818616 0.008257352 0.015117586
000250 d0 ea b8 bb b0 21 2d bd c0 d4 1a bc 0e 15 11 bd
       -0.005643226 -0.042268455 -0.009450138 -0.03542047
000260 b2 bc 06 3d 22 a0 29 bd 3a 1e 4c 3d 70 ec cb 3c
       0.032894798 -0.04141248 0.049833514 0.024893016
000270 98 37 5b bd 54 fa 3d 3d ec 2a 7d bd 80 25 6e bb
       -0.053519815 0.04638131 -0.06180851 -0.003633827
000280 de d5 1f bd 00 3b 5c bd 70 ea ca 3b 68 3f f8 bc
       -0.03902232 -0.053767204 0.006192498 -0.030303672
000290 c4 0b 39 3d 7e 3e 49 bd 60 7c 54 3d ac 71 1a 3d
       0.045177236 -0.049131863 0.051876426 0.037706062
0002a0 5a 38 60 3d 18 ee 95 bc 9e ea 1c bd d4 13 2a bd
       0.05474124 -0.018302009 -0.038309686 -0.041522816
0002b0 ce e1 54 3d 08 a8 fe bc 40 2a fc bb f8 d5 1d bc
       0.051973157 -0.031085983 -0.0076954663 -0.009633534
0002c0 a8 2a 30 3c 7c 11 52 bd 40 6c 4e 3d 9c 6c 3d bd
       0.010752358 -0.051286206 0.050396204 -0.046246156
0002d0 8c ca 7b 3d 68 56 c8 bc 74 91 e4 bc 58 c0 0c bc
       0.06147246 -0.024455264 -0.027901389 -0.00859078
0002e0 90 87 97 3c 48 bb 3d bc 1a 80 7f bd f4 10 34 3d
       0.018497258 -0.011580296 -0.062378027 0.04396148
0002f0 a4 90 7d 3d cc 28 01 3d b2 80 7a 3d b8 8b 8b 3c
       0.06190552 0.031533048 0.06115789 0.017034397
000300 10 7b a0 bb 1e e7 4b bd ca be 5f bd 56 41 30 bd
       -0.0048974827 -0.049780957 -0.05462531 -0.04303106
000310 fc e7 81 bc 12 12 15 3d 34 3e d3 bc e0 15 1f bb
       -0.01585769 0.036394186 -0.025786497 -0.0024274513
000320 80 3a 67 ba 80 57 27 bd 40 c2 dd ba 86 2e 77 3d
       -0.0008820668 -0.04085493 -0.0016918853 0.060347103
000330 f2 9b 4c 3d 7a f9 42 3d a0 fc c9 bb 00 49 91 3a
       0.04995341 0.0476012 -0.0061641484 0.0011084378
000340 a8 f3 0b 3d 08 4e aa bc b4 7f cf bc de 07 5b 3d
       0.034167916 -0.020789161 -0.025329448 0.0534743
000350 a0 d8 69 3b 58 da 2c bd fa b4 57 3d f0 f5 29 3c
       0.0035682097 -0.042200416 0.052662827 0.0103735775
000360 88 f9 08 3d ae 56 5e bd 80 06 3e 3c 20 95 1c 3d
       0.033441097 -0.054281883 0.011598229 0.038228154
000370 38 ba 13 bc f6 82 11 bd c0 d0 4c 3d 58 24 ee 3c
       -0.009016566 -0.035525285 0.050003767 0.029070064
000380 0c d2 91 3c 40 2c 72 3c 80 cf b4 3a b8 ce 12 3d
       0.017800353 0.014781058 0.001379475 0.035841674
000390 b8 da 5f bc 6c b1 16 bd 98 81 c3 3c 70 99 88 3c
       -0.013662986 -0.036790296 0.023865506 0.016674727
0003a0 7c f1 c2 3c 40 79 e3 bb a8 e3 07 bc e0 c5 a2 bb
       0.02379679 -0.0069419444 -0.008294024 -0.004967436
0003b0 6c 01 87 3c 9e 71 44 bd 72 9b 6e bd 9c 96 bf 3c
       0.01648017 -0.047959916 -0.058253713 0.023387246
0003c0 34 29 0c bd 90 48 ac bb e8 f0 8d 3c 28 a0 0f 3c
       -0.03421898 -0.0052576736 0.017326787 0.008766212
0003d0 92 08 25 3d c0 3a 06 3c 60 84 7d 3c 80 51 b7 bb
       0.040291376 0.008192718 0.015473455 -0.0055944324
0003e0 08 27 17 3c ec bc bb 3c 9c a5 2e 3d 26 90 72 bd
       0.009225614 0.022917233 0.042638406 -0.059219502
0003f0 c4 47 d5 bc f8 b7 65 bd a8 21 cc bc 68 0d 1c 3d
       -0.026035197 -0.05608365 -0.024918392 0.038098723

bias f4 [32]
000000 ec 30 2f 3d 80 26 93 ba ec 7d 53 bd 2e ea 1a bd
       0.042771265 -0.0011226684 -0.05163376 -0.037820987
000010 ec 0b 1c 3d 9a ed 59 bd 0c 80 3b bd da f6 22 bd
       0.038097307 -0.05320511 -0.045776412 -0.039786197
000020 2c 85 89 bc a4 b6 ee 3c f4 6e 31 3d d4 4f 45 3d
       -0.016787134 0.029139824 0.043318704 0.048171833
000030 24 ac ed 3c 68 7e 68 3c dc be 86 bc c6 da 1c bd
       0.029012747 0.014190294 -0.01644843 -0.038294576
000040 7e 5f 02 bd 40 21 f7 ba ea a2 5d 3d 24 3b b6 bc
       -0.03182935 -0.0018854514 0.054110445 -0.022244997
000050 68 7d 19 bc 00 e8 dd ba 78 69 e6 bc 18 77 f3 bc
       -0.009368278 -0.0016930103 -0.028126463 -0.029719874
000060 78 72 91 3c 96 c0 36 bd 80 9b 77 bb 30 13 77 bc
       0.017754778 -0.044617258 -0.0037781894 -0.015080258
000070 40 15 63 3c 00 dc 02 bc de 24 06 bd 18 93 9a bc
       0.013860047 -0.007987022 -0.032750003 -0.018868968

weight f4 [10, 32]
000000 b3 79 33 bd 73 1a 9a 3d fa 49 25 3d 84 ae 60 bd
       -0.043817233 0.07524576 0.040353753 -0.05485393
000010 84 df 0d 3e e3 8f 80 3c 09 a7 c5 3d 08 ab 89 bd
       0.13854796 0.01569361 0.09651 -0.06722075
000020 8b 7e 19 be 46 93 2e be ca 66 71 bd 8f 2e df 3d
       -0.14989679 -0.17048368 -0.058935918 0.10897552
000030 12 a8 e3 3d 20 a9 5c 3d a6 c9 4c 3d 22 3a f3 bd
       0.11116041 0.053872228 0.049996994 -0.11876322
000040 af 8f 55 bd 8f a9 af 3c 1b f9 1d be e3 ac 24 be
       -0.05213898 0.021443157 -0.15427057 -0.16081576
000050 54 54 09 be 25 86 60 3d 6c b6 b7 bc b4 ab ff bc
       -0.13411075 0.05481543 -0.022425853 -0.031209804
000060 31 3e e1 3d a1 27 f2 bd 16 ea df bd b5 a0 25 bd
       0.1099819 -0.11823965 -0.1093332 -0.040436465
000070 f6 0e df 3d 78 84 e8 3c 34 1d 1c be 6f 19 00 3e
       0.108915254 0.028383479 -0.15245515 0.12509702
000080 6e 41 d2 bd 34 3f 0d 3e bc 83 84 3d 3d d9 3d 3d
       -0.10266386 0.13793641 0.06470439 0.046349753
000090 72 ed 15 3e 90 25 85 3d bb 87 32 be 2b e3 8f 3d
       0.1464136 0.06501305 -0.1743459 0.07025751
0000a0 ca 96 2f 3e a0 47 96 bd 60 8f 04 3e 37 86 12 3e
       0.17147365 -0.0733788 0.12945318 0.14309011
0000b0 2b a1 2a bd 4d ee 81 39 32 a4 bb bc 50 1c 20 3e
       -0.041657608 0.00024782345 -0.022905443 0.156358
0000c0 63 a9 97 3d 7a 3a 00 3e a0 f9 21 be 9d da 92 bd
       0.07405355 0.12522307 -0.1581788 -0.071706034
0000d0 2c bf 08 be 83 73 1e 3d f2 53 8d bd a4 e1 51 3d
       -0.13354176 0.03868438 -0.06900777 0.05124058
0000e0 f0 85 bc 3d 41 4f 3f bd 96 7a aa 3c 0c 6e 05 be
       0.09205234 -0.04670644 0.020810407 -0.13030261
0000f0 80 ff a6 bc f8 35 ea 3c 73 29 01 3e 30 4a 92 3d
       -0.020385504 0.028590187 0.12613468 0.071430564
000100 6d 86 40 3d 04 ef bb 3d 8f 99 0d 3e 4f 03 88 3c
       0.0470032 0.09176448 0.13828109 0.01660314
000110 9f 5d 2e 3e f4 b3 dc bd 19 3c 75 3d 6b 90 15 3a
       0.17027901 -0.10776511 0.059871767 0.0005705419
000120 43 fe 05 3e 79 bc 2c be 63 b6 af 3d 2b b1 1b be
       0.13085274 -0.16868772 0.085797094 -0.15204303
000130 73 7b 58 bd 82 88 69 bd ad 5a 72 bd c4 df af bd
       -0.052852105 -0.05701495 -0.059168506 -0.08587602
000140 73 95 13 be e7 76 1e be c3 b3 13 bd 4e d6 13 3e
       -0.14412479 -0.15475045 -0.036060106 0.1443722
000150 e6 34 42 bd 18 9c f4 bd 83 b8 4e bd 4f 42 15 be
       -0.04741373 -0.11943835 -0.050468933 -0.14576076
000160 96 1c 1d bc db b8 14 3e 27 c1 30 be 85 4d c3 3d
       -0.009589335 0.14523642 -0.17261182 0.0953627
000170 0f 33 06 3e 89 86 02 3e 1b c2 d6 bd dd 61 a9 3c
       0.13105415 0.12746634 -0.104862414 0.020676548
000180 79 10 cc 3d f8 1f 1b be b2 0c 0b 3e 9b 8e 54 bc
       0.099640794 -0.15148914 0.13579062 -0.012973453
000190 98 54 1f be a9 bd 39 bd 24 53 a6 3b 1e 92 93 bd
       -0.15559614 -0.04534689 0.005075829 -0.07205604
0001a0 be fe 92 bd b8 e9 94 bc a4 07 79 3d 1c 20 a4 3d
       -0.071774945 -0.018177852 0.060798302 0.08013937
0001b0 7b f8 30 be 32 d1 39 bc 0a 1a 33 3d 97 13 12 3e
       -0.17282288 -0.01134138 0.043726005 0.14265285
0001c0 f7 67 b5 3d 86 56 f6 3d f1 c6 56 3d f4 73 8d bc
       0.0885772 0.12028222 0.05243582 -0.017267205
0001d0 84 16 c8 bd 27 66 96 bd 6d 20 6a 3d 9d 8f 17 bd
       -0.097699195 -0.07343703 0.05715983 -0.037002195
0001e0 51 a7 26 3e 13 03 e3 bd 73 2c f6 3d 98 d9 e7 3d
       0.16274764 -0.11084571 0.12020197 0.113207996
0001f0 51 1d ef 3d 17 ef 0d 3e 47 48 d1 bd e2 3c d1 3d
       0.116755135 0.13860737 -0.10218864 0.102166906
000200 b9 3a 33 be 00 4a c2 bd f8 db e5 bc d9 78 18 3e
       -0.1750287 -0.09486771 -0.02805899 0.1488985
000210 ed de 11 bd b4 21 11 be 84 89 21 be 97 d4 58 3b
       -0.03561299 -0.14173013 -0.15775114 0.0033085698
000220 60 36 58 3c 8f 23 30 3d c9 c6 4a bd b3 86 71 3d
       0.013196558 0.04300266 -0.049505983 0.05896635
000230 4a cc 97 3c 6c 2a 3e bd 70 6b b9 3d ad a0 02 be
       0.01853003 -0.046427175 0.09053695 -0.12756605
000240 8c 71 bb bd 1b 03 33 3d 2f db 4e bd 71 0f 8c bb
       -0.09152517 0.043704133 -0.050502 -0.0042743017
000250 11 b4 81 bd 2f 6d ce 3d bf 7c 2a 3e 7c 07 1b 3e
       -0.06333173 0.10079419 0.1664915 0.15139574
000260 96 d8 3b 3d 30 78 e5 bd ba 23 7d bd ab cb a4 bd
       0.04586085 -0.112045646 -0.06180165 -0.08046659
000270 4a b4 0b bd 89 72 b4 bd 05 c4 d7 3d cb b9 2b be
       -0.034107484 -0.08810908 0.10535435 -0.16770093
000280 6f d6 fc 3b c5 cb 02 3e 30 93 0f be b1 b7 fd bc
       0.007715992 0.12773044 -0.14020991 -0.03097138
000290 4d 7b c6 3d e9 f7 7c bd cb 6c ab bd c8 d2 c0 3d
       0.096914865 -0.061759863 -0.0837036 0.09415203
0002a0 77 a9 fa bd b6 a1 34 3e 24 60 22 3e a7 a8 01 3c
       -0.12239354 0.17639813 0.15856987 0.007913745
0002b0 7e aa e9 3c 00 67 b8 bd c0 b5 28 3d 0d c3 08 be
       0.02852368 -0.09004021 0.041188955 -0.13355656
0002c0 12 b1 3c bd dd b7 10 3e 00 4a 53 3d ed 29 03 3e
       -0.046067305 0.14132638 0.051584244 0.12808962
0002d0 ec e8 ee 3d 17 e8 2c 3e 76 41 37 3d cf ab 04 be
       0.1166552 0.1688541 0.044740163 -0.12956165
0002e0 7f d9 23 be b3 8e e0 3d 5f 08 13 3e 7f 3a 32 3e
       -0.16000937 0.10964718 0.14358662 0.17405127
0002f0 58 fc f5 bd 3a 61 25 3e e6 01 81 bd 62 f7 3c 3d
       -0.120110214 0.1615037 -0.0629919 0.04613436
000300 5f d9 fa 3d 4a b0 0b be 83 be 2d be 9f c0 f0 3d
       0.122484915 -0.13641468 -0.16967206 0.117554896
000310 76 4f 28 be 92 70 af 3d 3a 78 d1 3d 49 6d 04 3e
       -0.16436562 0.08566393 0.102280095 0.12932314
000320 4e c1 8b 3b 7b f9 38 bd 21 da bc 3c 8a 86 c8 bc
       0.004264987 -0.045159798 0.02305323 -0.024478216
000330 32 99 2a be b5 d2 2a 3d bf 7b d4 bd 98 fc 05 3e
       -0.16660002 0.041704852 -0.10375165 0.13084638
000340 04 fa a9 bd f3 31 0d bd 44 68 0c be 92 bd 26 3e
       -0.0829964 -0.034471463 -0.13711649 0.16283253
000350 69 0a d2 3d 40 7f 1e 3e 10 47 d3 3d a0 2a df bd
       0.10255892 0.1547823 0.103162885 -0.10896802
000360 74 24 2b 3e b1 bb c2 bc 5f 8d 26 3e eb ce ca 3c
       0.16713125 -0.023771139 0.16264866 0.02475687
000370 63 41 e5 3d b7 b1 8f bd bd 38 8e 3d 63 68 8b ba
       0.11194112 -0.07016318 0.06944416 -0.0010635968
000380 1f 79 10 be 83 37 0c 3e 3c 16 c5 bd 44 e6 ef bd
       -0.14108704 0.13693051 -0.096233815 -0.117138416
000390 ea 32 11 3e 7b 13 26 be 75 0f 7a 3d c3 35 13 3e
       0.14179578 -0.16218369 0.061049897 0.14375977
0003a0 3b a8 e6 bc ae 3c 2b be 79 b5 12 be 97 50 0f bc
       -0.02815639 -0.16722366 -0.14327039 -0.008747241
0003b0 06 d2 e5 bc 00 69 fb 3d 8a b3 10 3e c5 e4 df bd
       -0.028054249 0.122758865 0.14130989 -0.10932306
0003c0 68 57 3f bd 35 3f 0e be ca 2f 21 3d 40 a4 04 3e
       -0.046714216 -0.13891299 0.039352216 0.12953281
0003d0 39 92 77 bd 34 34 c0 3b 5f f7 60 bc 02 ff 1c be
       -0.060442183 0.005865598 -0.013730853 -0.15331653
0003e0 7a 71 30 3e e6 3c 1c 3d cc cf 29 3e 53 62 1d be
       0.17230788 0.038144015 0.16583174 -0.15369539
0003f0 06 a4 53 bd 93 ef 3e bd 85 46 6e 3d e8 64 37 bd
       -0.051670097 -0.046615195 0.05817272 -0.044773966

bias f4 [10]
000000 da c7 14 be 54 8d 94 bd ea d6 20 be 1b 63 b7 3d
       -0.14529362 -0.07253519 -0.15706983 0.0895445
000010 11 93 c4 bc 56 c6 8e bd 0f 4b 1d 3e 7f 24 bf 3c
       -0.023995908 -0.06971423 0.15360664 0.023332832
000020 8d 0e bb 3c 0c 4d cb bd
       0.022834087 -0.09926805

bias f4 [64]
000000 af 86 99 bb 62 cf e3 3b 64 72 f9 39 2e 99 6f 3c
       -0.004685245 0.006952212 0.0004757821 0.014623923
000010 1d f9 80 ba 28 54 3a 3a e4 0a a5 3a 80 89 f2 3a
       -0.0009839867 0.0007107877 0.0012591747 0.0018504113
000020 41 38 8a 3b a8 63 0a bc 1e a4 86 bc 82 14 8e 3b
       0.004218132 -0.008446611 -0.016435679 0.004335941
000030 d1 9e 43 3c b8 34 6d bc 7c 55 84 3b 9e dc 3e 3c
       0.01193972 -0.014477901 0.004038511 0.011649279
000040 d3 3e 16 3c bd 37 9a 3b 48 92 47 b9 77 0b 9f 3b
       0.009170252 0.0047063516 -0.00019032613 0.0048536616
000050 c6 0c 59 3c 1a 4b 71 bc 2e 80 54 bb a0 ab 81 bc
       0.013247674 -0.014727378 -0.0032425034 -0.015828907
000060 cc 88 76 3c 48 9d 31 3a 45 35 0c bc 29 3d 69 3c
       0.015047263 0.0006775451 -0.008557622 0.014235773
000070 8b ec d2 3a f4 e1 47 3c 88 7d db 3b 3f 5b 92 3b
       0.0016092224 0.0121998675 0.006698314 0.004466444
000080 96 43 6d bc 83 93 eb 3b 5c ce 58 3c 90 f4 b6 bb
       -0.014481446 0.0071892156 0.013232794 -0.0055833533
000090 e0 ee ed ba af 71 c9 bb a3 e8 b7 ba f6 dd 77 3c
       -0.0018152855 -0.0061475853 -0.0014031123 0.015128603
0000a0 fd c2 82 bb ea 31 68 bc eb e8 20 3c 3e 57 81 3c
       -0.0039905296 -0.014172057 0.009821157 0.01578867
0000b0 3e 7a 28 bb 10 30 7f 3c 47 f4 3e ba 64 d8 4d 3c
       -0.0025707628 0.015575424 -0.0007284325 0.012563799
0000c0 93 77 40 bb 69 d8 73 3c f4 c1 45 3c 29 0e f3 3b
       -0.0029368147 0.014883139 0.012070168 0.0074174595
0000d0 3f ba 2e 3a 3c 49 d8 37 81 a1 a4 39 57 ed 6c bc
       0.0006665326 2.5783309e-05 0.00031400847 -0.014460883
0000e0 6d e8 77 bc 58 23 0f bc b5 8e 13 bc ec c7 2a 3c
       -0.015131098 -0.008736454 -0.009006192 0.010423642
0000f0 79 3a c6 bb fa 92 d9 b9 1e f3 86 3b 5f cf 77 3c
       -0.006049451 -0.0004149897 0.0041183373 0.015125125

weight f4 [64, 1]
000000 6e 5b 3e 3e 77 3c 2f 3e 25 10 98 bb ab b7 12 3e
       0.18589565 0.1711291 -0.0046405965 0.14327876
000010 7d cd 66 bd 32 21 1f be 34 35 a2 bb 9d 9e b6 bd
       -0.056348313 -0.15540007 -0.00495019 -0.08916972
000020 46 5c 80 3e 7c 34 23 be 2b 45 6c 3e 1e 02 59 bc
       0.250704 -0.1593799 0.2307326 -0.013245134
000030 dd c0 76 3d 7c 8c 52 3e 7b 4f 85 bd ec b8 88 bd
       0.060242523 0.20561403 -0.065093 -0.06675896
000040 95 5f db 3d 48 85 d0 bc 8f 2b c6 3c ca ad 34 3e
       0.1071159 -0.025454178 0.024190692 0.1764442
000050 17 45 db 3c bc ad 21 3e 5c 22 50 bd d1 ad c3 3d
       0.026766343 0.1578893 -0.050814018 0.09554637
000060 ad f9 29 3d 2d 60 12 be ed 86 b5 bc 6e 11 fe 3d
       0.041497875 -0.142945 -0.022159064 0.12405668
000070 43 e9 c7 bd 22 6a 77 3e 4d bd bf bd 36 1a f5 3d
       -0.09761288 0.2416158 -0.09362278 0.1196789
000080 30 df 81 3c 4f 7c cc bd db 58 61 3e 02 b8 ac bc
       0.015853494 -0.099846475 0.22006552 -0.021083836
000090 07 10 a3 bb 7d 9a 04 bd a8 ea 53 be 62 67 3f 3e
       -0.004976276 -0.032373894 -0.20694983 0.18691781
0000a0 e6 ba 6e bd d7 4e 15 3e a3 e2 0a 3e 72 20 31 3e
       -0.05828371 0.14580856 0.13563018 0.17297533
0000b0 01 8b 95 3d 16 40 ca 3d ec 01 27 be 08 cc 08 3b
       0.073019035 0.09875505 -0.16309327 0.0020873565
0000c0 6a ba 4a bd 69 e8 66 3e 88 d4 f3 3d 7a 2e 5d 3c
       -0.049494185 0.22549595 0.119057715 0.01349985
0000d0 f2 df 3b be 94 2a 3d be 99 a2 25 be da 3e 14 3e
       -0.18347147 -0.18473274 -0.16175307 0.14477101
0000e0 32 9e 26 3e 6d 1e 3a be ee 86 33 be 67 1a 7f 3e
       0.16271284 -0.18175669 -0.1753194 0.24912415
0000f0 0d 37 9e 3d cd a7 cd bd 2b 14 05 bc 30 52 40 3e
       0.07725344 -0.10041771 -0.008122484 0.18781352

bias f4 [64]
000000 f2 d0 7d bc 18 e7 90 bc bc 3d 4a bc 53 1d f8 3b
       -0.015491711 -0.01768832 -0.01234382 0.007571855
000010 db 79 c0 3b 93 60 03 bb 06 62 97 bc 69 72 02 3b
       0.0058739013 -0.0020046576 -0.018479358 0.001990462
000020 4d 35 5e bc 9d a8 6a 3b 7e 8d 82 bb b0 4c 4d bc
       -0.013562513 0.0035806068 -0.0039841523 -0.012530491
000030 22 99 9d 39 25 63 8b 3a e8 e4 42 3b 63 f0 35 bb
       0.00030059466 0.0010634406 0.002973849 -0.002776169
000040 dc 97 66 3c 1e 4e 32 b9 1b d7 f5 ba b3 7f ab 3b
       0.014074292 -0.00017004504 -0.0018756123 0.005233729
000050 d9 0e a6 bb 50 a7 5d 3c b1 20 a8 3a 23 84 13 bc
       -0.005067688 0.01352866 0.0012827126 -0.009003672
000060 eb d9 b6 bb d7 8c 17 bc 07 78 24 bc 78 23 15 bc
       -0.005580177 -0.009249887 -0.010038382 -0.009102695
000070 ca ec 22 bc 99 54 84 3c 6a 84 06 3c d4 63 00 bc
       -0.00994415 0.01615362 0.008210281 -0.007836301
000080 36 62 1b ba 85 fb 92 bc 5c 31 88 39 1a 19 82 3c
       -0.00059274153 -0.0179422 0.00025976717 0.01588111
000090 45 65 8a bb ce 2c 84 3a 25 51 46 ba 37 6d 1d 3c
       -0.004223498 0.0010084154 -0.0007565192 0.009608558
0000a0 0a 15 61 3c ee 8a 41 3b f6 46 7e 3c 3e 67 5a 3c
       0.013737926 0.0029532271 0.015519848 0.013330279
0000b0 7b 8c 6e 3c af 30 81 3c 1e 6d 80 bc af 88 90 bb
       0.01455986 0.015770284 -0.015677031 -0.004410825
0000c0 e5 db 9f bb f1 ae 20 bc 51 41 69 3c 7b 69 c6 bb
       -0.0048785084 -0.009807334 0.014236764 -0.0060550547
0000d0 80 c2 e6 3b 3a cd 8c ba 8c 99 c1 3a 39 c5 34 3c
       0.007042229 -0.0010742315 0.0014770492 0.01103335
0000e0 d2 9f c1 ba 65 ef c1 bb f3 bf 76 3c 97 5c f3 bb
       -0.0014772362 -0.0059184306 0.015060413 -0.007426809
0000f0 bb 7e 72 3c 2e c0 3b bb 74 e0 20 3c 24 d2 8f bc
       0.014800723 -0.0028648484 0.009819139 -0.017556258

weight f4 [64, 64]
000000 e9 68 59 3d c7 87 a7 bc 94 17 f9 3d 24 8d 0c bd
       0.053078566 -0.020450486 0.121627 -0.03431429
000010 26 e1 b5 3c 45 87 f7 bd 01 06 26 b9 c6 9d 62 b8
       0.022202086 -0.120863475 -0.0001583323 -5.4029537e-05
000020 f8 86 01 3e 6e f4 0f 3d 06 6d 1c 3e e3 68 29 b6
       0.12649143 0.035145216 0.15275964 -2.5244015e-06
000030 17 cb d0 bc 0a 2e 92 bb f2 ab 4c b8 ce 5f 0d 3b
       -0.025487466 -0.0044610547 -4.8797527e-05 0.0021571997
000040 2b e1 52 3c a8 9b aa bc 52 61 c4 3c 3c 5f 7d 3b
       0.012871067 -0.020826176 0.023972187 0.00386615
000050 ee dc 8b bd 02 36 f5 bb 72 ec 89 bd 92 93 26 bc
       -0.06829248 -0.007483245 -0.067345515 -0.010167019
000060 6e 29 4c 3c 47 52 01 be c6 5e 83 3d 01 dd 6f bd
       0.0124610495 -0.12629043 0.06414561 -0.058560375
000070 7c 8e 96 39 8b b3 49 bd 4e 3f a1 3d 11 b1 b3 bd
       0.0002871639 -0.04924349 0.078734025 -0.08774007
000080 13 e3 f7 bd 3f 4f e0 bd d1 b3 77 3d 5d ac 05 bc
       -0.12103858 -0.10952615 0.06047422 -0.00815877
000090 61 fa 42 39 4d d9 cd 3c 7e e5 2d 3a 8e 59 1b 3e
       0.00018594555 0.025128031 0.0006633623 0.15170881
0000a0 03 ac 52 3c 82 68 0c be af c2 e1 bd 33 cb 09 be
       0.012858394 -0.13711742 -0.11023461 -0.1345642
0000b0 f3 4a a4 bd c8 a4 08 bd a6 1d 6d bc 5b 2b e9 bd
       -0.08022108 -0.033360273 -0.014472401 -0.113852225
0000c0 e6 70 78 3c b0 b2 8f 3c 95 28 ce bc 9d 8f 66 3c
       0.015163636 0.01754126 -0.025165835 0.014072326
0000d0 ff ee 95 bb 37 62 ea 39 05 e0 ab bc 6d 70 8a 3d
       -0.0045756097 0.00044705134 -0.020980844 0.06759725
0000e0 12 eb df 3d 29 ba 64 3a e9 a9 ae 3d 2d 42 29 3d
       0.10933508 0.000872525 0.085285015 0.041322876
0000f0 d5 22 0c bd 37 18 93 3d f5 9b a3 b9 0f eb 97 3c
       -0.034212906 0.07182353 -0.0003120598 0.018544702
000100 60 4c 9c 37 1b 39 d1 3d 1d da 58 bd 41 fc 00 bd
       1.8632214e-05 0.1021597 -0.052942384 -0.031490568
000110 dd 79 49 bd 5f 74 6f bd 90 5a f8 3c 36 55 ac bc
       -0.049188484 -0.05846059 0.030316621 -0.021036725
000120 88 f1 bd 3b 49 6d b9 3d 78 1c 6a 3d f3 79 f9 b5
       0.005796615 0.090540476 0.057156056 -1.8587438e-06
000130 b0 98 bc 3d 3f 18 39 bd 59 90 ae 3d b5 d8 dc 3d
       0.0920881 -0.04518914 0.08523626 0.10783521
000140 1d 3c f0 bd ff ef 2e 3c 57 cc 9b 3c 62 55 ae 3c
       -0.11730216 0.010677337 0.019018335 0.021280948
000150 86 fb c6 3d ff 55 fb 3d 90 06 42 ba 13 0d 24 3b
       0.09715943 0.12272262 -0.00074014906 0.0025032207
000160 2a ca 8e bb dc ad bd bd ee 69 a8 b9 b8 e3 7e 3c
       -0.004357596 -0.09261677 -0.0003212238 0.015557222
000170 6c a3 10 bc 69 86 3f 3d bc b3 cf bd 8b 52 86 bd
       -0.008828025 0.046759043 -0.101417035 -0.065587126
000180 c9 5b 67 bd 8d bc ab b9 c3 a5 99 3d 87 c1 0d 3d
       -0.056484018 -0.00032756143 0.0750232 0.03460839
000190 95 8d a9 3d dc 70 db 3d 49 f7 b2 bd eb f7 b1 3c
       0.08278958 0.107148856 -0.08738572 0.021724662
0001a0 be 72 26 bd 18 ed 9e bd cb 67 f9 3d 48 8e c2 bd
       -0.04063677 -0.07760066 0.12178 -0.09499794
0001b0 31 ff c8 bd f2 01 a6 bd d4 29 4b 3d 64 30 9a bd
       -0.09814299 -0.0810584 0.049600437 -0.07528761
0001c0 d3 f3 4a 3c 35 11 ca bd e6 6e 3b 3c 57 b0 8e 3c
       0.012387234 -0.09866563 0.0114400145 0.01741807
0001d0 0a 18 98 bd 0b d4 07 b9 c3 07 83 bd 0e 50 ee 3d
       -0.0742646 -0.00012953595 -0.06397965 0.11636363
0001e0 9a 16 b9 bc 7a e2 95 bd 30 8b 0a 39 29 cc 0b 3d
       -0.022593785 -0.073185876 0.00013212557 0.03413025
0001f0 22 96 92 bd 82 3e 93 3d d5 f7 25 39 56 f3 c5 bd
       -0.07157542 0.07189657 0.00015827951 -0.09665553
000200 16 25 89 3d e5 98 61 3c f9 d0 07 3d 51 db 10 bb
       0.06696527 0.013769363 0.033158276 -0.002210338
000210 48 6b 01 bd a4 4f 08 bd ce 91 09 3c ed 6e 8b 3d
       -0.031596452 -0.033279076 0.008396579 0.06808267
000220 ad c3 9d 3c 81 a4 ee bc 9c 03 05 3e 49 d8 4a 39
       0.019258345 -0.029131176 0.12989658 0.00019344794
000230 60 77 4c bd 7f 41 48 3d 5f 17 10 3d 94 c3 ad 39
       -0.049918532 0.048890587 0.03517854 0.00033142848
000240 78 28 fc bb a6 a5 42 bd 1e 1e 49 3d 3c 1b 01 3e
       -0.007695254 -0.047521256 0.049100988 0.12608045
000250 c0 e6 d5 b9 d3 39 05 3d 0c 97 34 3d 90 17 3c 3c
       -0.00040798448 0.03252585 0.044089362 0.011480227
000260 94 00 cb bd 90 e7 61 3d fb 8d b1 39 91 d7 e4 bd
       -0.0991222 0.055152476 0.00033865854 -0.111739285
000270 08 9c 87 bc 9b ab 59 bc 6f 66 68 3d ae 72 f1 bd
       -0.016553894 -0.013285543 0.056738313 -0.117894515
000280 c7 4e 3b 3a dd 6e aa bd 36 e3 98 3d fa 7a 80 bd
       0.00071452226 -0.08321927 0.07465212 -0.06273456
000290 c6 95 92 bd 32 5f ce bb 1f e2 f7 bb 4f fe 10 bc
       -0.07157473 -0.0062979693 -0.0075647975 -0.008849694
0002a0 a5 98 ba bd d3 17 0d bd 42 23 4f bb 09 ba 17 3d
       -0.09111146 -0.03444655 -0.0031606709 0.03704265
0002b0 8b e7 fb 3a 24 2c 9e 3d f5 79 95 bc 32 cc e6 39
       0.0019218785 0.07723263 -0.01824663 0.00044021156
0002c0 03 48 14 3d 48 ad 9c bc d5 92 e3 bd 96 1f de bd
       0.03620149 -0.019125596 -0.1111199 -0.10845868
0002d0 28 56 66 bd a3 cf 9e b9 aa 27 d5 bd a4 48 c8 bb
       -0.05623451 -0.0003029081 -0.10407956 -0.006112175
0002e0 13 43 fb bd 7e 40 9d bb eb a7 18 bc d6 9a e2 bd
       -0.12268653 -0.004798948 -0.0093173785 -0.11064689
0002f0 8c 90 cc 3d 42 59 b8 38 0a b3 c2 bc 8f 85 fa 3d
       0.09988508 8.790429e-05 -0.023767013 0.122325055
000300 c9 e7 d3 3d 5b d3 26 3c 52 91 52 39 60 80 b2 3d
       0.10346944 0.010182227 0.00020081297 0.08715892
000310 1e ec f5 39 42 5a d4 39 de 3e 2f 39 23 d0 81 3b
       0.00046905963 0.00040503038 0.0001671272 0.0039615794
000320 1e 3a 85 3d 06 67 cc 3d 60 d1 a4 bd 3c f4 10 3a
       0.065052256 0.09980588 -0.080477476 0.0005529558
000330 4c c5 8f 3b 11 e9 2d 3d e2 fc 42 3d 03 eb 46 3d
       0.0043875333 0.042458598 0.04760445 0.04856397
000340 15 98 fe bd 6c 90 d0 3b 17 21 99 b9 cf a0 c0 3b
       -0.12431351 0.0063648727 -0.00029207088 0.005878545
000350 95 1c ca bd a8 3c af 3d 22 c9 d5 3b a1 56 ce bd
       -0.09868733 0.08556491 0.006524221 -0.10075117
000360 b8 c9 bb 3d 31 a2 a6 3d fe 98 d4 bd a7 28 94 bc
       0.09169334 0.08136404 -0.103807434 -0.01808579
000370 34 50 f3 bd 46 bf 11 b8 45 ce 7e 3a 97 14 02 be
       -0.11880532 -3.474883e-05 0.00097200676 -0.12703167
000380 15 8e 4a bd c3 10 8d 3a 69 5d 0a 3e 1c ad 3c 3d
       -0.049451906 0.0010762442 0.13512196 0.046063527
000390 fe e5 e8 3d 0d b9 6b 3a 89 0a b4 bd 21 60 52 3d
       0.113719925 0.0008992113 -0.08791072 0.051361207
0003a0 9d e3 f4 39 8c 4b 4d 3c 6f a8 01 3e ea c6 7d bd
       0.00046708892 0.012530219 0.12661909 -0.061957277
0003b0 91 1a 2f 3b d8 8d e7 bd 62 7f b8 bb 61 a7 be b9
       0.0026718716 -0.113063514 -0.0056304196 -0.0003636433
0003c0 f5 7a c1 b8 cc b5 d1 3d ce aa f9 3d f2 95 b6 3d
       -9.22586e-05 0.10239753 0.121907815 0.089153185
0003d0 48 92 b7 39 25 e6 a3 3d b2 27 15 bc b1 bc fd bc
       0.00035013468 0.08002881 -0.009103702 -0.030973764
0003e0 b2 d2 d6 bc 74 d1 37 bd 2a d9 95 ba d1 e0 5b bc
       -0.026223514 -0.044877484 -0.0011432518 -0.0134203
0003f0 27 8a 2e bd e2 32 c7 b7 46 d4 91 3b ca 15 87 bd
       -0.04261222 -2.3746343e-05 0.004450354 -0.06595953

bias f4 [20]
000000 95 53 84 3c 71 2f 45 3c 20 89 5c 3b 20 dd ea bb
       0.016153136 0.012035237 0.0033651069 -0.0071674734
000010 3f 28 49 3b d7 8b 89 3c ef 6d 3b bb 79 4a 8a bc
       0.0030694155 0.016790314 -0.002859946 -0.016881214
000020 5f f7 8d bc 9a 15 c5 3b e3 9a 8d 3c 40 65 24 3c
       -0.01732987 0.006014538 0.01728577 0.0100339055
000030 66 29 9c bb 5a b6 89 3c f4 ea 05 bc 3f 83 82 bc
       -0.0047656773 0.016810585 -0.008173693 -0.015931724
000040 b2 00 87 bc 8e e5 c1 ba ad c3 7b bc 8f ee 8f 3b
       -0.016479824 -0.0014793144 -0.015366477 0.004392452

weight f4 [20, 64]
000000 90 7a c6 bd df fe 17 3e cb 0a 0f 3d c7 de ec bc
       -0.09691346 0.1484332 0.034922402 -0.028914822
000010 a4 94 c2 bd 77 99 69 3b 28 6b 58 39 fc a8 01 3e
       -0.09501007 0.003564445 0.00020639284 0.12662119
000020 d0 83 fc bc 62 a5 0b 3d 5a 25 4e 3d 69 fd 80 3c
       -0.030824572 0.03409327 0.05032859 0.015745835
000030 8a 14 af bd 4c 71 ab 3c 54 ad 98 bc e4 1d b9 bd
       -0.085488394 0.020928048 -0.018637337 -0.09038904
000040 c7 4c 75 bd 0e 81 c4 bb b3 c8 ff bb f2 5f fd ba
       -0.059887674 -0.00599683 -0.0078059076 -0.0019330962
000050 fd 5d fb 3d 30 d0 e5 3d 84 6b 94 3d 37 d2 41 3d
       0.12273786 0.11221349 0.072470695 0.047319617
000060 0b 83 0d 3e fd 0f c2 bd 0a a0 ad 39 cc 62 fe bd
       0.1381952 -0.09475706 0.0003311637 -0.12421188
000070 a9 e1 54 bd 37 d1 9a 3d c5 01 06 3e 3f de 9d 3c
       -0.05197302 0.07559436 0.13086613 0.019271014
000080 40 32 b1 ba 97 4f 79 bd ed 3f b6 bd 98 69 67 3d
       -0.0013519004 -0.06086692 -0.088989116 0.056497186
000090 d4 61 13 be 0f 47 fe 3d 1d d8 3c 39 59 ad e2 b9
       -0.14392787 0.12415897 0.00018009586 -0.00043235233
0000a0 de f2 c4 bd 24 99 fe bc 82 90 be 3d 4f 16 15 3d
       -0.09616636 -0.031078883 0.093049064 0.03639823
0000b0 a8 f4 04 3e c9 e5 17 3e 9a fb fb bd 28 eb 19 3e
       0.12983954 0.1483375 -0.123038486 0.15031111
0000c0 6a bc 5f ba 47 81 0a be f8 76 ba 3d 3a b4 81 bd
       -0.0008534851 -0.13525878 0.09104723 -0.063332036
0000d0 e0 c9 41 3e bc fe 35 bd e2 87 07 bd 1d c0 61 3d
       0.18924665 -0.044432387 -0.033088572 0.055114854
0000e0 5c 06 26 3e 60 cd e1 bd db 1e e2 3d 45 a5 f5 bd
       0.16213363 -0.110255 0.110410415 -0.11994413
0000f0 53 d4 2d 3e 5a 78 43 3a 90 6a 87 3d cf 98 ae bd
       0.16975527 0.00074565934 0.06612122 -0.0852524
000100 18 3a 1d 3c 42 dd fb 3d b6 de 70 3d 78 56 c0 3d
       0.00959637 0.12298061 0.058806144 0.093914926
000110 f3 2f c4 3d a3 f4 29 ba f0 16 05 be 99 11 1e 39
       0.09579458 -0.0006483292 -0.12997031 0.0001507461
000120 34 fe f9 bd b4 27 2b be 40 6a f7 3c 36 62 d2 3d
       -0.122066885 -0.16714364 0.030202031 0.102726385
000130 8b ae 87 3a 31 32 0d be b1 92 90 3a d6 a7 db 3d
       0.00103517 -0.13788678 0.0011030046 0.107253715
000140 6d b5 92 3a c4 cb f4 bd f6 ef 9e 37 66 30 c2 bd
       0.0011192985 -0.11952928 1.8946808e-05 -0.094818875
000150 e4 a1 56 39 0e c5 59 bd 89 af 27 be ea e4 9b 3b
       0.0002046894 -0.05316644 -0.16375555 0.0047575133
000160 f5 66 bb bb 1a 9d 1b be a2 29 13 3e 2d 27 2e bc
       -0.0057190605 -0.15196648 0.1437135 -0.010629457
000170 b9 84 0d be d4 a2 a0 3c 3b a8 04 3e 98 8c 3f bd
       -0.13820161 0.019608893 0.129548 -0.04676494
000180 91 ad 09 be 95 8a c7 39 2a b8 2a 3e 24 75 2e 3e
       -0.13445117 0.0003805949 0.16671816 0.17036873
000190 9f d5 d7 3c b1 8d c4 ba b8 da 96 3d dc 76 ba 39
       0.02634698 -0.0014995841 0.07365936 0.00035565242
0001a0 6e 25 1d 3b 91 08 a7 b7 5b 77 7a bd 24 90 0f bd
       0.0023978609 -1.991194e-05 -0.061148982 -0.035049573
0001b0 a1 9f 91 bd 2b a7 bb bc 14 3c cc 3b 7c a7 83 38
       -0.07110525 -0.02290686 0.006232748 6.277763e-05
0001c0 44 b5 80 3a 48 db 0e 3e 41 f0 b0 39 68 db 81 3d
       0.0009819646 0.13950837 0.0003374834 0.063406765
0001d0 38 94 e2 bb 97 68 d5 bd 12 31 35 3d 5a e1 28 3e
       -0.0069146417 -0.104203396 0.04423625 0.16492215
0001e0 f2 8a 92 3d 37 7a 8c 38 0f f0 1d bc dc 33 12 be
       0.07155408 6.6984845e-05 -0.009639754 -0.14277595
0001f0 ae 29 ea 3d f5 a8 d0 3d df 8c 53 39 35 eb 98 38
       0.11433731 0.10188476 0.00020175007 7.2917355e-05
000200 89 e7 4f 3d 09 29 9f bd 1c 9b be 3d e6 c3 18 be
       0.05075792 -0.07771499 0.093069285 -0.1491848
000210 88 6c 3d 3e 4b 4a 49 bd 72 95 54 bd c7 92 ba b9
       0.18498433 -0.049143117 -0.051900335 -0.00035586042
000220 30 cc 58 bd e0 aa bd 3b 56 63 9d bd 7e 2e 3e bc
       -0.052929103 0.005788192 -0.076849625 -0.011607764
000230 24 b4 4b b9 b9 9a 43 bc 3d 95 2f bd 30 4a 96 39
       -0.00019426696 -0.011938744 -0.042866934 0.00028665503
000240 53 c7 11 3d 45 b5 67 3d 6c d6 91 3d b8 33 9a 3d
       0.03559048 0.056569356 0.07120976 0.07529396
000250 63 d7 33 bd ac c6 04 be f2 49 7a bd 0c 83 13 be
       -0.04390658 -0.12966412 -0.061105676 -0.14405459
000260 a6 35 f8 bd 45 82 49 3d ab d3 95 bd 23 b5 e1 3a
       -0.121196076 0.0491965 -0.07315763 0.0017220121
000270 e7 71 86 3d da 67 15 3e 4e 64 53 3c 86 6c 6f b9
       0.06564694 0.14590397 0.0129023325 -0.00022833244
000280 5c 65 ca bb b3 3d d9 3d 1b ce ed bc c0 1a e1 3d
       -0.0061766338 0.10607471 -0.029028943 0.1099143
000290 16 c4 9a 3d 79 a0 1b bd ce f8 83 39 c8 e0 ab 3c
       0.07556932 -0.037994836 0.0002517164 0.020981207
0002a0 55 87 1a be 46 b3 63 3d e7 de ec 3d f6 1d 21 be
       -0.15090688 0.05559089 0.11565953 -0.15734085
0002b0 f5 8c 4f 3e 15 cb 49 3e e9 d9 d2 3d 22 6d 1d 3d
       0.20268615 0.19706376 0.10295469 0.038434155
0002c0 ea 40 be 3d 4c 80 27 3b 97 e4 0b 3c 96 52 03 3a
       0.09289725 0.0025558649 0.008538387 0.00050095597
0002d0 e5 5b 40 be 82 0d 40 39 02 05 91 3d ca dd bc ba
       -0.18785055 0.00018315579 0.07081033 -0.001440936
0002e0 56 fa 2d be e5 25 67 3c 3a 84 89 3d 98 1b ba 3c
       -0.16990027 0.014108156 0.06714673 0.022718236
0002f0 62 7f 90 3d 61 a4 1e 3d dc 3a 61 3d 83 be a7 3c
       0.07055546 0.038730983 0.054987773 0.020476585
000300 0c 2d 8d bd 57 b8 27 bd ff d0 e2 3d 7f 79 7a 3d
       -0.06893358 -0.040947285 0.11075019 0.061151024
000310 98 4f 93 bc 01 82 bd 3d ee 82 ca bb d0 cb 9d bc
       -0.01798229 0.09253312 -0.006180159 -0.019262224
000320 8b eb 7d bd 8d 1d fa 3d 56 79 b3 bd 74 25 92 3c
       -0.06199221 0.122126676 -0.08763377 0.017840125
000330 f7 fd 84 b8 52 5d f6 bb be 25 1b be 6c 5c 9c 3d
       -6.341555e-05 -0.007518449 -0.15151116 0.076348156
000340 e7 81 59 3d 82 65 91 3d 06 a9 f5 3d 44 56 f6 bd
       0.0531024 0.07099439 0.11995129 -0.120281726
000350 b8 2e 89 3d c2 43 fb 3c e5 55 37 bd f3 22 08 be
       0.06698364 0.030671958 -0.04475965 -0.13294582
000360 67 3b d3 3d ab d5 9f b9 07 9f a1 3d d6 90 df bc
       0.103140645 -0.00030486038 0.0789166 -0.027290743
000370 74 ab 60 b9 15 11 09 3e ea 7f 99 bc 5d e6 62 bc
       -0.00021426176 0.13385423 -0.018737752 -0.013848868
000380 38 f6 45 bb 4e bb d3 bd 5d 7e b0 3d 20 e4 7a 3b
       -0.0030206572 -0.1033846 0.08617852 0.0038282946
000390 c7 16 3e 3c 22 19 90 3d a5 57 03 be 3a 1d 09 be
       0.01160211 0.07036044 -0.12826402 -0.13390055
0003a0 d7 a9 24 be 52 2c 10 3c 8e 62 8b bd ab 37 ef 3d
       -0.16080414 0.008799629 -0.06805907 0.1168054
0003b0 50 a2 0e 3e c7 5a 03 be d9 6f 57 3c 82 b7 bb bd
       0.13929105 -0.12827598 0.013149225 -0.09165861
0003c0 bd 0a ef 3c 44 a6 8f ba 77 f1 6c 3c ac 05 04 ba
       0.029179925 -0.0010959585 0.014461867 -0.00050362456
0003d0 2c 45 8e bb 8a 04 0a be 52 67 35 b9 9a f7 52 3d
       -0.004341742 -0.13478294 -0.00017299995 0.051505663
0003e0 33 13 78 bd fa c6 2c 3e e1 ed 25 3c 2b a9 de bb
       -0.060565185 0.16872779 0.0101275155 -0.0067950687
0003f0 50 6b 53 bc 5a 40 2c bd 1d d6 41 b9 e0 0c 0a bc
       -0.012904003 -0.042053558 -0.00018485678 -0.008425921
