ckpt/TC1_only_GCN-last.pt (torch, 96850 bytes, 11 tensors)

bias f4 [64]
-4.93e-43 -4.97e-43 -5.11e-43 4.95e-43 4.92e-43 4.95e-43 -5.4e-43 5.03e-43
-4.93e-43 4.92e-43 -4.95e-43 4.95e-43 4.92e-43 -4.95e-43 -4.93e-43 4.99e-43
5.5e-43 -4.93e-43 -4.92e-43 -4.93e-43 -4.93e-43 -5.13e-43 5.42e-43 -4.99e-43
4.96e-43 -5.83e-43 -4.92e-43 -4.92e-43 -4.95e-43 4.93e-43 -6.15e-43 -4.93e-43
-4.92e-43 4.93e-43 -4.92e-43 5.27e-43 -4.92e-43 4.92e-43 -5.17e-43 -4.97e-43
5.11e-43 -5.1e-43 -4.96e-43 5.16e-43 4.96e-43 -4.93e-43 -4.95e-43 -5e-43
5e-43 5.02e-43 5.79e-43 -5.25e-43 -4.92e-43 -4.92e-43 -4.95e-43 4.92e-43
5.13e-43 -4.95e-43 -4.95e-43 5.65e-43 -5.03e-43 -4.97e-43 -6.07e-43 5.09e-43
00000000: 6001 0080 6301 0080 6d01 0080 6101 0000
00000010: 5f01 0000 6101 0000 8101 0080 6701 0000
00000020: 6001 0080 5f01 0000 6101 0080 6101 0000
00000030: 5f01 0000 6101 0080 6001 0080 6401 0000
00000040: 8801 0000 6001 0080 5f01 0080 6001 0080
00000050: 6001 0080 6e01 0080 8301 0000 6401 0080
00000060: 6201 0000 a001 0080 5f01 0080 5f01 0080
00000070: 6101 0080 6001 0000 b701 0080 6001 0080
00000080: 5f01 0080 6001 0000 5f01 0080 7801 0000
00000090: 5f01 0080 5f01 0000 7101 0080 6301 0080
000000a0: 6d01 0000 6c01 0080 6201 0080 7001 0000
000000b0: 6201 0000 6001 0080 6101 0080 6501 0080
000000c0: 6501 0000 6601 0000 9d01 0000 7701 0080
000000d0: 5f01 0080 5f01 0080 6101 0080 5f01 0000
000000e0: 6e01 0000 6101 0080 6101 0080 9301 0000
000000f0: 6701 0080 6301 0080 b101 0080 6b01 0000

weight f4 [64, 1]
-4.93e-43 -4.95e-43 5.1e-43 4.97e-43 -5.35e-43 -4.93e-43 -4.96e-43 -4.97e-43
-4.95e-43 4.92e-43 -4.96e-43 -4.92e-43 4.92e-43 -4.96e-43 -4.92e-43 -4.95e-43
4.93e-43 -4.95e-43 4.95e-43 -4.92e-43 4.96e-43 -5.13e-43 -5.25e-43 -4.96e-43
-4.95e-43 -4.95e-43 -4.92e-43 -4.93e-43 4.92e-43 -4.92e-43 4.97e-43 -4.95e-43
-4.93e-43 -4.95e-43 4.92e-43 -6e-43 -4.95e-43 -4.95e-43 4.92e-43 -5e-43
4.95e-43 5.14e-43 5.6e-43 4.96e-43 -5.04e-43 -4.92e-43 -4.96e-43 -6.26e-43
-4.92e-43 -4.95e-43 4.96e-43 4.96e-43 5.02e-43 -4.95e-43 -4.93e-43 -4.96e-43
-4.95e-43 -4.96e-43 -4.97e-43 -4.92e-43 -4.97e-43 4.92e-43 4.97e-43 5e-43
00000000: 6001 0080 6101 0080 6c01 0000 6301 0000
00000010: 7e01 0080 6001 0080 6201 0080 6301 0080
00000020: 6101 0080 5f01 0000 6201 0080 5f01 0080
00000030: 5f01 0000 6201 0080 5f01 0080 6101 0080
00000040: 6001 0000 6101 0080 6101 0000 5f01 0080
00000050: 6201 0000 6e01 0080 7701 0080 6201 0080
00000060: 6101 0080 6101 0080 5f01 0080 6001 0080
00000070: 5f01 0000 5f01 0080 6301 0000 6101 0080
00000080: 6001 0080 6101 0080 5f01 0000 ac01 0080
00000090: 6101 0080 6101 0080 5f01 0000 6501 0080
000000a0: 6101 0000 6f01 0000 9001 0000 6201 0000
000000b0: 6801 0080 5f01 0080 6201 0080 bf01 0080
000000c0: 5f01 0080 6101 0080 6201 0000 6201 0000
000000d0: 6601 0000 6101 0080 6001 0080 6201 0080
000000e0: 6101 0080 6201 0080 6301 0080 5f01 0080
000000f0: 6301 0080 5f01 0000 6301 0000 6501 0000

bias f4 [64]
5.2e-43 4.97e-43 5.4e-43 -4.96e-43 4.93e-43 -4.97e-43 -5.63e-43 -5.04e-43
-5.11e-43 -5.13e-43 5.02e-43 -2.9472405e-10 4.96e-43 -4.92e-43 -5e-43 4.95e-43
5.51e-43 -4.92e-43 4.92e-43 -5.06e-43 4.92e-43 4.92e-43 -4.99e-43 5.07e-43
-5.13e-43 -4.92e-43 4.92e-43 4.95e-43 -4.96e-43 4.93e-43 5.06e-43 -5e-43
-4.96e-43 4.95e-43 4.96e-43 4.96e-43 5.69e-43 4.92e-43 -4.97e-43 5.02e-43
4.95e-43 -5.14e-43 -4.92e-43 4.99e-43 4.92e-43 -4.92e-43 -4.96e-43 -5.02e-43
4.95e-43 -4.99e-43 4.92e-43 4.96e-43 -4.92e-43 -5.54e-43 4.99e-43 5.91e-43
4.93e-43 4.92e-43 4.93e-43 5.41e-43 -4.97e-43 -4.92e-43 -5.16e-43 4.92e-43
00000000: 7301 0000 6301 0000 8101 0000 6201 0080
00000010: 6001 0000 6301 0080 9201 0080 6801 0080
00000020: 6d01 0080 6e01 0080 6601 0000 b906 a2af
00000030: 6201 0000 5f01 0080 6501 0080 6101 0000
00000040: 8901 0000 5f01 0080 5f01 0000 6901 0080
00000050: 5f01 0000 5f01 0000 6401 0080 6a01 0000
00000060: 6e01 0080 5f01 0080 5f01 0000 6101 0000
00000070: 6201 0080 6001 0000 6901 0000 6501 0080
00000080: 6201 0080 6101 0000 6201 0000 6201 0000
00000090: 9601 0000 5f01 0000 6301 0080 6601 0000
000000a0: 6101 0000 6f01 0080 5f01 0080 6401 0000
000000b0: 5f01 0000 5f01 0080 6201 0080 6601 0080
000000c0: 6101 0000 6401 0080 5f01 0000 6201 0000
000000d0: 5f01 0080 8b01 0080 6401 0000 a601 0000
000000e0: 6001 0000 5f01 0000 6001 0000 8201 0000
000000f0: 6301 0080 5f01 0080 7001 0080 5f01 0000

weight f4 [64, 64]
-4.99e-43 4.99e-43 4.99e-43 4.99e-43 4.95e-43 5.2e-43 4.93e-43 -5.97e-43
4.99e-43 5.1e-43 -4.97e-43 4.95e-43 4.92e-43 4.95e-43 -5.69e-43 5e-43
5.14e-43 5.27e-43 -5.83e-43 4.96e-43 -6.01e-43 5.23e-43 5.27e-43 -5.13e-43
-4.93e-43 4.97e-43 5.14e-43 5.02e-43 -4.97e-43 5.94e-43 -5.1e-43 6.14e-43
6.28e-43 -5.24e-43 5.09e-43 -5.06e-43 4.99e-43 4.97e-43 5.32e-43 -5.04e-43
5.66e-43 -5.24e-43 6.12e-43 1.8367929e-12 -5.37e-43 3.5363718e-10 5.4e-43 -5.11e-43
-5.21e-43 4.95e-43 -4.95e-43 5.06e-43 4.95e-43 4.96e-43 4.95e-43 -5.48e-43
-4.99e-43 -5.13e-43 4.96e-43 4.92e-43 -4.96e-43 -5e-43 4.96e-43 -5.6e-43
5.07e-43 -6.2e-43 -4.99e-43 6.29e-43 4.99e-43 -5.06e-43 5.27e-43 5.21e-43
-6.12e-43 5.03e-43 5.06e-43 -5.2e-43 5.51e-43 -4.99e-43 -5.37e-43 -5.73e-43
-5.02e-43 -4.95e-43 -5.13e-43 -5.11e-43 -4.95e-43 -4.93e-43 5.75e-43 4.96e-43
4.95e-43 5.52e-43 5.14e-43 -4.92e-43 -5.2e-43 -5.1e-43 5.03e-43 -5e-43
5.02e-43 5.06e-43 -5.84e-43 5.58e-43 -5.13e-43 4.95e-43 -4.97e-43 -4.97e-43
5.55e-43 -4.99e-43 4.92e-43 4.95e-43 4.99e-43 6.14e-43 -4.92e-43 -4.96e-43
5.02e-43 -4.97e-43 5.13e-43 -5e-43 -5e-43 -5.31e-43 -5.07e-43 4.99e-43
-4.92e-43 5.04e-43 4.95e-43 5e-43 5.34e-43 5.28e-43 -5.13e-43 -5.11e-43
5.09e-43 5.79e-43 -4.96e-43 5.73e-43 -4.97e-43 5.62e-43 4.99e-43 4.95e-43
-5.04e-43 -4.96e-43 4.92e-43 5.52e-43 4.97e-43 5.83e-43 5.17e-43 -5.28e-43
-5.56e-43 -5.09e-43 5.84e-43 -4.96e-43 -4.97e-43 4.96e-43 4.96e-43 5e-43
5.04e-43 -4.97e-43 5.03e-43 4.92e-43 -4.99e-43 5.2e-43 -4.99e-43 4.96e-43
-4.92e-43 -4.93e-43 -4.99e-43 4.99e-43 -5.77e-43 -4.93e-43 9.3918396e-05 -5.38e-43
-5.14e-43 -4.99e-43 4.92e-43 -5.87e-43 4.93e-43 4.99e-43 -4.92e-43 -4.92e-43
4.95e-43 5.14e-43 -5.02e-43 5.04e-43 -4.97e-43 -4.96e-43 -5.21e-43 5.14e-43
5.94e-43 -5e-43 4.92e-43 -6e-43 -4.96e-43 5e-43 5.02e-43 -5.17e-43
5e-43 4.99e-43 -5.27e-43 -5.06e-43 5.04e-43 -4.92e-43 5.31e-43 4.96e-43
-5.02e-43 -4.92e-43 -5.03e-43 5e-43 4.92e-43 -5.16e-43 -4.96e-43 -4.95e-43
-4.92e-43 -4.97e-43 5.03e-43 4.93e-43 -5.45e-43 9.692056e-13 5.42e-43 4.93e-43
-5.23e-43 5.02e-43 5.25e-43 -5.02e-43 -4.93e-43 5.27e-43 -4.97e-43 5.02e-43
5.1e-43 -5.07e-43 5.04e-43 -5.37e-43 -5.04e-43 -5.11e-43 5.03e-43 4.95e-43
5.28e-43 -4.96e-43 -4.97e-43 5.02e-43 5.03e-43 4.93e-43 -5.03e-43 6.04e-43
-5.62e-43 -4.96e-43 4.93e-43 4.93e-43 5e-43 4.97e-43 -5.02e-43 5.03e-43
4.97e-43 -4.92e-43 4.99e-43 4.97e-43 -5.4e-43 5.65e-43 -6.01e-43 -4.95e-43
00000000: 6401 0080 6401 0000 6401 0000 6401 0000
00000010: 6101 0000 7301 0000 6001 0000 aa01 0080
00000020: 6401 0000 6c01 0000 6301 0080 6101 0000
00000030: 5f01 0000 6101 0000 9601 0080 6501 0000
00000040: 6f01 0000 7801 0000 a001 0080 6201 0000
00000050: ad01 0080 7501 0000 7801 0000 6e01 0080
00000060: 6001 0080 6301 0000 6f01 0000 6601 0000
00000070: 6301 0080 a801 0000 6c01 0080 b601 0000
00000080: c001 0000 7601 0080 6b01 0000 6901 0080
00000090: 6401 0000 6301 0000 7c01 0000 6801 0080
000000a0: 9401 0000 7601 0080 b501 0000 b840 012c
000000b0: 7f01 0080 026a c22f 8101 0000 6d01 0080
000000c0: 7401 0080 6101 0000 6101 0080 6901 0000
000000d0: 6101 0000 6201 0000 6101 0000 8701 0080
000000e0: 6401 0080 6e01 0080 6201 0000 5f01 0000
000000f0: 6201 0080 6501 0080 6201 0000 9001 0080
00000100: 6a01 0000 ba01 0080 6401 0080 c101 0000
00000110: 6401 0000 6901 0080 7801 0000 7401 0000
00000120: b501 0080 6701 0000 6901 0000 7301 0080
00000130: 8901 0000 6401 0080 7f01 0080 9901 0080
00000140: 6601 0080 6101 0080 6e01 0080 6d01 0080
00000150: 6101 0080 6001 0080 9a01 0000 6201 0000
00000160: 6101 0000 8a01 0000 6f01 0000 5f01 0080
00000170: 7301 0080 6c01 0080 6701 0000 6501 0080
00000180: 6601 0000 6901 0000 a101 0080 8e01 0000
00000190: 6e01 0080 6101 0000 6301 0080 6301 0080
000001a0: 8c01 0000 6401 0080 5f01 0000 6101 0000
000001b0: 6401 0000 b601 0000 5f01 0080 6201 0080
000001c0: 6601 0000 6301 0080 6e01 0000 6501 0080
000001d0: 6501 0080 7b01 0080 6a01 0080 6401 0000
000001e0: 5f01 0080 6801 0000 6101 0000 6501 0000
000001f0: 7d01 0000 7901 0000 6e01 0080 6d01 0080
00000200: 6b01 0000 9d01 0000 6201 0080 9901 0000
00000210: 6301 0080 9101 0000 6401 0000 6101 0000
00000220: 6801 0080 6201 0080 5f01 0000 8a01 0000
00000230: 6301 0000 a001 0000 7101 0000 7901 0080
00000240: 8d01 0080 6b01 0080 a101 0000 6201 0080
00000250: 6301 0080 6201 0000 6201 0000 6501 0000
00000260: 6801 0000 6301 0080 6701 0000 5f01 0000
00000270: 6401 0080 7301 0000 6401 0080 6201 0000
00000280: 5f01 0080 6001 0080 6401 0080 6401 0000
00000290: 9c01 0080 6001 0080 0ef6 c438 8001 0080
000002a0: 6f01 0080 6401 0080 5f01 0000 a301 0080
000002b0: 6001 0000 6401 0000 5f01 0080 5f01 0080
000002c0: 6101 0000 6f01 0000 6601 0080 6801 0000
000002d0: 6301 0080 6201 0080 7401 0080 6f01 0000
000002e0: a801 0000 6501 0080 5f01 0000 ac01 0080
000002f0: 6201 0080 6501 0000 6601 0000 7101 0080
00000300: 6501 0000 6401 0000 7801 0080 6901 0080
00000310: 6801 0000 5f01 0080 7b01 0000 6201 0000
00000320: 6601 0080 5f01 0080 6701 0080 6501 0000
00000330: 5f01 0000 7001 0080 6201 0080 6101 0080
00000340: 5f01 0080 6301 0080 6701 0000 6001 0000
00000350: 8501 0080 5067 882b 8301 0000 6001 0000
00000360: 7501 0080 6601 0000 7701 0000 6601 0080
00000370: 6001 0080 7801 0000 6301 0080 6601 0000
00000380: 6c01 0000 6a01 0080 6801 0000 7f01 0080
00000390: 6801 0080 6d01 0080 6701 0000 6101 0000
000003a0: 7901 0000 6201 0080 6301 0080 6601 0000
000003b0: 6701 0000 6001 0000 6701 0080 af01 0000
000003c0: 9101 0080 6201 0080 6001 0000 6001 0000
000003d0: 6501 0000 6301 0000 6601 0080 6701 0000
000003e0: 6301 0000 5f01 0080 6401 0000 6301 0000
000003f0: 8101 0080 9301 0000 ad01 0080 6101 0080

bias f4 [20]
-2.7898518e-06 2.162023e-06 3.2218222e-06 2.0028508e-06 -7.752597e-06 -5.7392144e-06 3.1344327e-06 -9.995322e-07
-1.0423352e-06 6.655373e-07 -1.6210977e-05 -1.3863654e-05 4.2984984e-06 -1.1938424e-06 2.1589985e-06 9.740261e-06
-3.6569368e-06 2.145686e-06 6.9622884e-06 -8.4267725e-07
00000000: 4a39 3bb6 4617 1136 7c36 5836 b768 0636
00000010: 2711 02b7 7a93 c0b6 2559 5236 aa27 86b5
00000020: 5de6 8bb5 60a7 3235 cffc 87b7 f197 68b7
00000030: d23b 9036 1d3c a0b5 50e3 1036 1a6a 2337
00000040: b269 75b6 9bfe 0f36 9a9d e936 5734 62b5

weight f4 [20, 64]
-5.27e-43 -4.96e-43 -5.04e-43 4.93e-43 -5.03e-43 6.25e-43 -5.23e-43 -4.92e-43
5.04e-43 4.97e-43 -5.2e-43 -1.0885034e-13 -4.96e-43 4.95e-43 5.09e-43 4.92e-43
-5.51e-43 5.2e-43 5.37e-43 4.93e-43 -4.95e-43 4.96e-43 -5.07e-43 5.03e-43
-5.4e-43 4.97e-43 5.21e-43 4.92e-43 4.95e-43 5e-43 4.95e-43 4.96e-43
4.96e-43 4.92e-43 5.03e-43 4.92e-43 -4.93e-43 -4.99e-43 -5.34e-43 -4.99e-43
5.98e-43 4.96e-43 -4.99e-43 5.02e-43 -5.06e-43 4.96e-43 -4.97e-43 5.6e-43
4.93e-43 -4.92e-43 4.96e-43 4.95e-43 4.95e-43 -5.13e-43 4.99e-43 -5.13e-43
4.96e-43 4.97e-43 -4.92e-43 -5.02e-43 -4.95e-43 -4.92e-43 5.4e-43 -4.93e-43
5.51e-43 -4.97e-43 5.1e-43 5.1e-43 4.99e-43 -4.93e-43 -4.92e-43 4.95e-43
4.93e-43 -5.04e-43 4.95e-43 4.1191057e-12 -4.97e-43 4.92e-43 4.92e-43 -4.96e-43
5.76e-43 5.97e-43 5.04e-43 -4.95e-43 -5.16e-43 5.03e-43 4.95e-43 4.93e-43
-4.93e-43 5.32e-43 5.14e-43 4.55e-43 4.96e-43 5.09e-43 -4.95e-43 5.1e-43
4.96e-43 -4.99e-43 4.99e-43 4.99e-43 4.95e-43 5.06e-43 -5.16e-43 -4.95e-43
5.11e-43 -4.95e-43 -5.02e-43 -4.96e-43 5.1e-43 -6.29e-43 -5.97e-43 -4.92e-43
4.99e-43 4.92e-43 -4.97e-43 5.84e-43 -6.6e-44 4.99e-43 -4.96e-43 4.97e-43
5e-43 4.97e-43 4.96e-43 4.92e-43 4.99e-43 4.92e-43 -5.28e-43 -4.97e-43
-5.13e-43 -5.02e-43 4.97e-43 5.77e-43 5.07e-43 -4.96e-43 -4.95e-43 5.03e-43
4.99e-43 5.07e-43 -5.25e-43 1.2575096e-13 -5.04e-43 4.97e-43 5.27e-43 -5.11e-43
4.93e-43 4.99e-43 -5.1e-43 4.97e-43 5.02e-43 -5.11e-43 5.1e-43 -4.95e-43
5.21e-43 5e-43 -4.93e-43 5.1e-43 5.04e-43 5.1e-43 4.96e-43 -5.07e-43
-4.92e-43 5.18e-43 -5.16e-43 -4.93e-43 4.97e-43 -4.93e-43 -5e-43 4.92e-43
5.5e-43 5.96e-43 -5.35e-43 -4.92e-43 5.5e-43 -4.97e-43 -5.44e-43 -5.96e-43
4.95e-43 -5.23e-43 5.04e-43 5e-43 -4.95e-43 -6.05e-43 -4.97e-43 -4.93e-43
4.95e-43 4.95e-43 -5e-43 -4.92e-43 5.98e-43 5.07e-43 -4.97e-43 5.02e-43
-5.04e-43 -5.02e-43 -5.11e-43 -4.92e-43 -5.3e-43 4.93e-43 -4.92e-43 -4.93e-43
-5.06e-43 -4.95e-43 4.93e-43 -2.7450117e-10 -5.02e-43 -5.03e-43 4.99e-43 5.21e-43
4.95e-43 -4.95e-43 -5.75e-43 5.24e-43 -4.95e-43 -5.5e-43 5e-43 5e-43
-5.75e-43 4.95e-43 -4.92e-43 -5.47e-43 -5e-43 -4.99e-43 -4.92e-43 -4.97e-43
5.18e-43 -4.92e-43 5.89e-43 5.37e-43 -4.93e-43 -4.99e-43 -5.06e-43 -5.11e-43
-4.92e-43 -5.77e-43 -4.99e-43 -5.47e-43 6.01e-43 -5.07e-43 5.34e-43 -4.93e-43
-5.03e-43 -5.18e-43 -5.66e-43 -4.96e-43 5.56e-43 5.14e-43 -4.92e-43 4.95e-43
4.96e-43 5.17e-43 -5.24e-43 4.93e-43 4.93e-43 5.35e-43 5.07e-43 -5.24e-43
00000000: 7801 0080 6201 0080 6801 0080 6001 0000
00000010: 6701 0080 be01 0000 7501 0080 5f01 0080
00000020: 6801 0000 6301 0000 7301 0080 f31b f5a9
00000030: 6201 0080 6101 0000 6b01 0000 5f01 0000
00000040: 8901 0080 7301 0000 7f01 0000 6001 0000
00000050: 6101 0080 6201 0000 6a01 0080 6701 0000
00000060: 8101 0080 6301 0000 7401 0000 5f01 0000
00000070: 6101 0000 6501 0000 6101 0000 6201 0000
00000080: 6201 0000 5f01 0000 6701 0000 5f01 0000
00000090: 6001 0080 6401 0080 7d01 0080 6401 0080
000000a0: ab01 0000 6201 0000 6401 0080 6601 0000
000000b0: 6901 0080 6201 0000 6301 0080 9001 0000
000000c0: 6001 0000 5f01 0080 6201 0000 6101 0000
000000d0: 6101 0000 6e01 0080 6401 0000 6e01 0080
000000e0: 6201 0000 6301 0000 5f01 0080 6601 0080
000000f0: 6101 0080 5f01 0080 8101 0000 6001 0080
00000100: 8901 0000 6301 0080 6c01 0000 6c01 0000
00000110: 6401 0000 6001 0080 5f01 0080 6101 0000
00000120: 6001 0000 6801 0080 6101 0000 9bed 902c
00000130: 6301 0080 5f01 0000 5f01 0000 6201 0080
00000140: 9b01 0000 aa01 0000 6801 0000 6101 0080
00000150: 7001 0080 6701 0000 6101 0000 6001 0000
00000160: 6001 0080 7c01 0000 6f01 0000 4501 0000
00000170: 6201 0000 6b01 0000 6101 0080 6c01 0000
00000180: 6201 0000 6401 0080 6401 0000 6401 0000
00000190: 6101 0000 6901 0000 7001 0080 6101 0080
000001a0: 6d01 0000 6101 0080 6601 0080 6201 0080
000001b0: 6c01 0000 c101 0080 aa01 0080 5f01 0080
000001c0: 6401 0000 5f01 0000 6301 0080 a101 0000
000001d0: 2f00 0080 6401 0000 6201 0080 6301 0000
000001e0: 6501 0000 6301 0000 6201 0000 5f01 0000
000001f0: 6401 0000 5f01 0000 7901 0080 6301 0080
00000200: 6e01 0080 6601 0080 6301 0000 9c01 0000
00000210: 6a01 0000 6201 0080 6101 0080 6701 0000
00000220: 6401 0000 6a01 0000 7701 0080 3f95 0d2a
00000230: 6801 0080 6301 0000 7801 0000 6d01 0080
00000240: 6001 0000 6401 0000 6c01 0080 6301 0000
00000250: 6601 0000 6d01 0080 6c01 0000 6101 0080
00000260: 7401 0000 6501 0000 6001 0080 6c01 0000
00000270: 6801 0000 6c01 0000 6201 0000 6a01 0080
00000280: 5f01 0080 7201 0000 7001 0080 6001 0080
00000290: 6301 0000 6001 0080 6501 0080 5f01 0000
000002a0: 8801 0000 a901 0000 7e01 0080 5f01 0080
000002b0: 8801 0000 6301 0080 8401 0080 a901 0080
000002c0: 6101 0000 7501 0080 6801 0000 6501 0000
000002d0: 6101 0080 b001 0080 6301 0080 6001 0080
000002e0: 6101 0000 6101 0000 6501 0080 5f01 0080
000002f0: ab01 0000 6a01 0000 6301 0080 6601 0000
00000300: 6801 0080 6601 0080 6d01 0080 5f01 0080
00000310: 7a01 0080 6001 0000 5f01 0080 6001 0080
00000320: 6901 0080 6101 0080 6001 0000 9be8 96af
00000330: 6601 0080 6701 0080 6401 0000 7401 0000
00000340: 6101 0000 6101 0080 9a01 0080 7601 0000
00000350: 6101 0080 8801 0080 6501 0000 6501 0000
00000360: 9a01 0080 6101 0000 5f01 0080 8601 0080
00000370: 6501 0080 6401 0080 5f01 0080 6301 0080
00000380: 7201 0000 5f01 0080 a401 0000 7f01 0000
00000390: 6001 0080 6401 0080 6901 0080 6d01 0080
000003a0: 5f01 0080 9c01 0080 6401 0080 8601 0080
000003b0: ad01 0000 6a01 0080 7d01 0000 6001 0080
000003c0: 6701 0080 7201 0080 9401 0080 6201 0080
000003d0: 8d01 0000 6f01 0000 5f01 0080 6101 0000
000003e0: 6201 0000 7101 0000 7601 0080 6001 0000
000003f0: 6001 0000 7e01 0000 6a01 0000 7601 0080

weight f4 [256, 20]
-3.3344515e-11 1.1522424e-11 1.2041463e-11 -1.8190707e-10 1.5649043e-12 3.6605285e-12 -2.890418e-12 -2.6918684e-11
-5.348896e-12 4.2265523e-12 3.091856e-11 -5.6466103e-12 6.1345902e-12 -8.80454e-13 3.727283e-12 -1.9874652e-11
5.7010824e-10 2.9127876e-12 2.0235149e-11 -3.5399645e-11 3.0593611e-12 -1.0123182e-13 3.6910546e-13 9.964996e-11
2.3541963e-12 -1.8926724e-12 1.919522e-12 -4.2038543e-13 -6.061876e-13 1.3101134e-13 -3.9639073e-11 9.8104155e-12
-1.06721906e-11 -1.9601231e-13 -6.6024015e-13 5.9150923e-05 6.943338e-13 4.2889124e-13 5.167681e-12 2.3363295e-12
4.99e-43 5.14e-43 -5.09e-43 -4.3e-43 -4.96e-43 -4.95e-43 5.25e-43 -5.04e-43
1.86e-43 5.07e-43 3.18e-43 -1.7e-43 4.97e-43 6.3e-44 5e-43 6e-45
-3.52e-43 4.95e-43 -5.3e-43 4.99e-43 -7.832851e-08 -6.477561e-08 9.0444715e-08 -5.6906345e-08
-4.9127102e-09 5.4093977e-08 -3.9531676e-07 5.93744e-10 -6.5091875e-08 1.3683574e-09 2.3537004e-07 -1.0325063e-07
-1.9225156e-07 -6.8268925e-08 -9.1686054e-08 -2.7809764e-07 1.1778437e-07 6.820068e-08 -1.4530056e-07 1.9909615e-08
-1.4384508e-11 2.4541535e-11 2.8485722e-11 -1.3842698e-07 -1.4315275e-10 -1.1709279e-08 3.6290584e-10 3.9735147e-12
5.2044764e-11 6.2576563e-12 -1.6959271e-10 -1.9829656e-08 2.3480606e-10 3.5417721e-12 5.4594183e-11 -9.050333e-11
-4.0319272e-11 -3.351514e-11 1.2014853e-10 5.2216613e-11 4.6831764e-11 5.1782013e-11 3.54589e-11 3.531352e-10
1.06571085e-10 4.6813064e-11 -9.128586e-11 -4.0252777e-11 6.879174e-11 -7.925146e-12 4.411414e-12 1.9755249e-10
-4.2356008e-10 1.3019825e-11 -3.1447425e-11 -1.2689112e-11 4.4898595e-11 -8.6484e-11 -4.016295e-10 1.5563653e-10
-7.9223724e-07 6.803169e-05 2.653592e-08 3.3069203e-09 3.9081666e-10 -1.0474071e-08 -1.7717806e-09 2.645241e-08
9.344109e-11 -2.6291538e-08 -4.9211572e-05 -3.254147e-07 2.066103e-09 3.7959022e-10 8.469812e-10 6.934667e-09
-1.0083787e-09 7.110932e-08 -2.7706477e-09 -4.9022617e-09 -5.92139e-08 -1.2088404e-07 -1.1854777e-07 4.50888e-08
2.7046328e-08 9.701576e-08 2.9747738e-07 1.4023536e-07 -1.6058282e-08 -8.693709e-08 1.2220117e-07 5.7882264e-08
4.2932488e-08 -5.4204566e-08 1.8249649e-08 1.8866129e-09 -1.4219984e-07 -1.0254917e-08 -9.7907986e-08 1.8593504e-08
-3.5436171e-06 1.2486638e-07 6.4068795e-10 5.235696e-07 -1.4933568e-10 6.472999e-08 7.135691e-07 -6.7290453e-06
-1.5484206e-05 -2.3268777e-07 -4.4388098e-09 4.255981e-09 -5.5186547e-06 6.683429e-12 4.997044e-11 5.0260843e-07
-3.0516052e-08 -1.927828e-10 -2.3327607e-09 -1.13774e-07 -1.7848424e-11 3.1119497e-12 3.9392352e-12 -1.3947073e-10
-2.5034162e-11 1.2413237e-10 1.1014514e-11 -1.688606e-12 -5.640772e-12 1.1202567e-12 3.9421613e-10 -4.6498735e-11
1.9252516e-11 -1.0178519e-11 8.276186e-12 -2.8314914e-10 -1.0656463e-12 8.7162005e-12 2.7569376e-11 -5.2315766e-11
-1.5334763e-10 1.0996305e-10 3.5340744e-11 5.383786e-11 2.4162455e-11 -1.479908e-11 -2.886619e-12 -2.7502813e-12
-4.6207166e-12 1.7484653e-11 -2.186341e-10 -5.6775744e-11 3.912461e-11 -2.7853353e-11 1.3957269e-11 3.5870293e-11
-3.468655e-11 2.1857685e-12 4.1062112e-11 4.7231618e-11 -1.3222979e-34 -1.086202e-34 5.5058904e-35 -4.633207e-34
7.116692e-35 3.7418885e-34 1.7155716e-34 -4.129099e-34 -1.6367796e-34 1.9376498e-35 -3.3297078e-34 -1.9604045e-34
-2.0034308e-34 -6.919666e-37 1.982675e-34 3.4099856e-34 -2.3543244e-34 -1.751177e-35 -1.688738e-34 4.3129985e-34
-1.0377511e-09 -1.6726402e-07 -3.480371e-05 2.937567e-11 2.035629e-11 -1.925858e-06 4.3212484e-07 5.584526e-07
6.4880516e-07 -6.4982896e-06 0.00016383073 7.35635e-11 2.4138108e-05 -8.777933e-05 -2.7853433e-10 1.3843377e-11
00000000: 96a6 12ae 62b4 4a2d eed5 532d 4a02 48af
00000010: 9f3d dc2b 1ccb 802c 2465 4bac 7dc7 ecad
00000020: 9232 bcac 66b5 942c 34fb 072e 25ac c6ac
00000030: 7ad7 d72c 66d3 77ab 6124 832c bdd1 aead
00000040: cdb5 1c30 1ef8 4c2c 81fd b12d 75b0 1bae
00000050: 8d48 572c 2cf4 e3a9 b4c9 cf2a f121 db2e
00000060: 6ea9 252c 5b2f 05ac 0913 072c eda7 ecaa
00000070: 6ca0 2aab 7381 132a a155 2eae 2f96 2c2d
00000080: 46bf 3bad b4b0 5caa 51d7 39ab d218 7838
00000090: 0670 432b be71 f12a 55d2 b52c 9267 242c
000000a0: 6401 0000 6f01 0000 6b01 0080 3301 0080
000000b0: 6201 0080 6101 0080 7701 0000 6801 0080
000000c0: 8500 0000 6a01 0000 e300 0000 7900 0080
000000d0: 6301 0000 2d00 0000 6501 0000 0400 0000
000000e0: fb00 0080 6101 0000 7a01 0080 6401 0000
000000f0: 8e35 a8b3 c51a 8bb3 823a c233 3069 74b3
00000100: a8cc a8b1 f554 6833 ec3b d4b4 0535 2330
00000110: a3c8 8bb3 cc10 bc30 06ba 7c34 a2ba ddb3
00000120: b56d 4eb4 3d9b 92b3 f1e4 c4b3 734d 95b4
00000130: a4f0 fc33 b875 9233 ea03 1cb4 b505 ab32
00000140: 110e 7dad a0de d72d 2590 fa2d 85a2 14b4
00000150: eb65 1daf f429 49b2 7582 c72f 3dce 8b2c
00000160: 32e5 642e f52b dc2c 1b78 3aaf e055 aab2
00000170: 0416 812f e53a 792c 961b 702e d804 c7ae
00000180: 7753 31ae b166 13ae ce1a 042f aea6 652e
00000190: e1f7 4d2e 5dbd 632e 2cf3 1b2e 5c23 c22f
000001a0: 305a ea2e d3e2 4d2e 5fbd c8ae 9908 31ae
000001b0: 4f46 972e af6b 0bad 7c36 9b2c 1536 592f
000001c0: c8da e8af 140c 652d a74e 0aae ae3a 5fad
000001d0: 5377 452e 2a2e beae 54cc dcaf ca1f 2b2f
000001e0: 21aa 54b5 3cac 8e38 1bf1 e332 f53f 6331
000001f0: 8eda d62f 74f1 33b2 fd82 f3b0 7739 e332
00000200: a87a cd2e b4d7 e1b2 8668 4eb8 a8b4 aeb4
00000210: 45fb 0d31 93ae d02f 01d1 6830 fa45 ee31
00000220: 2c97 8ab0 c3b4 9833 c065 3eb1 c070 a8b1
00000230: 5f52 7eb3 5acc 01b4 5394 feb3 a9a7 4133
00000240: 8153 e832 fa56 d033 fbb4 9f34 9a93 1634
00000250: 89f0 89b2 2cb2 bab3 6736 0334 399a 7833
00000260: c564 3833 8dce 68b3 67c3 9c32 a5a5 0131
00000270: 98af 18b4 9a2d 30b2 7c41 d2b3 8cb7 9f32
00000280: e1ce 6db6 0213 0634 681c 3030 6e8b 0c35
00000290: 4232 24af b001 8b33 188c 3f35 0fca e1b6
000002a0: 14e4 81b7 bad8 79b4 2f84 98b1 013c 9231
000002b0: e22c b9b6 fa26 eb2c b7c5 5b2e fdea 0635
000002c0: c110 03b3 89f7 53af 5c4e 20b1 eb53 f4b3
000002d0: 14ff 9cad e7fb 5a2c 7a99 8a2c 8559 19af
000002e0: ec33 dcad 287c 082f f6c4 412d 71a6 edab
000002f0: 8f77 c6ac 80a9 9d2b fdb8 d82f ec80 4cae
00000300: d058 a92d f90f 33ad a198 112d b3a9 9baf
00000310: f4f9 95ab 4756 192d b780 f22d 5116 66ae
00000320: 859b 28af b2cf f12e 246e 1b2e 0bc8 6c2e
00000330: 0389 d42d 912c 82ad b420 4bac aa88 41ac
00000340: b793 a2ac f0cb 992d 0764 70af ceb3 79ae
00000350: 6512 2c2e 2d00 f5ad f489 752d 5cc2 1d2e
00000360: 958d 18ae 4ecf 192c d497 342e 13ba 4f2e
00000370: 77c3 2f87 8a61 1087 265f 9206 f7f6 1988
00000380: b231 bd06 efb0 f807 e009 6407 7d36 0988
00000390: b990 5987 d80b ce05 0b4c dd87 8e4a 8287
000003a0: 9c26 8587 cb76 6b83 78c5 8307 e6a1 e207
000003b0: c178 9c87 9337 ba85 c778 6087 ef52 0f08
000003c0: 9fa0 8eb0 2f99 33b4 33fa 11b8 1032 012e
000003d0: 4a0e b32d fd3d 01b6 c9fe e734 92e8 1535
000003e0: 8d29 2e35 e20b dab6 fac9 2b39 92c4 a12e
000003f0: 317c ca37 2b16 b8b8 3920 99af 0789 732d

bias f4 [256]
-6.487159e-10 -2.2737131e-08 -1.93e-43 -7.910512e-05 -1.6490849e-07 7.25204e-08 -1.8729581e-06 1.9343266e-05
-2.5096924e-07 2.5694643e-08 3.966211e-08 -6.4938253e-31 5.4153597e-09 -2.097653e-09 -9.967591e-06 -5.692588e-06
-3.091258e-08 -1.38856885e-05 7.579575e-09 -3.126658e-10 5.092635e-08 -7.104143e-07 -8.213883e-08 -1.89558e-07
-0.020560756 9.610989e-31 4.503253e-08 -2.336196e-08 -6.564252e-08 -2.2362519e-08 -4.561639e-06 -5.24e-42
-1.2522004e-07 -7.6819604e-05 -5.0984407e-05 -0.0077307425 -3.2e-44 -2.9892008e-06 -5.071123e-07 -1.3532166e-05
-6.7e-44 -4.20745e-07 -1.4200533e-21 -4.2223377e-08 -4.7241117e-10 3.3744194e-10 3.577114e-06 -1.5993103e-06
-2.0504946e-07 -1.401137e-06 -7.2491965e-16 -2.26e-43 -5.1288152e-05 -5.382368e-07 -0.00026456785 -0.003027925
-6.257131e-08 -1.1489965e-08 -1.3639234e-06 -2.297868e-11 -2.3988669e-09 -7.6e-44 -1.2388076e-08 -5.1258677e-09
-3.7092952e-06 -4.063771e-09 -1.61e-43 -0.00087546004 2.7058894e-08 3.6563828e-09 -8.8633817e-07 -5.4355667e-09
-6.4e-44 -6.153421e-06 -6.8432705e-08 -2.347057e-08 7.872228e-06 2.7510612e-08 -0.0007010353 -0.0058762264
8.509793e-07 9.69578e-10 -1.01914965e-08 -8.6313116e-07 2.4464738e-05 8.374708e-08 -7.513004e-09 -9.537987e-08
-2.19027e-07 -1.0007927e-05 -6.681439e-10 -1.4422304e-09 -0.00036420682 -1.4654741e-08 -3.633951e-05 -0.00023302014
-1.2876792e-18 -5.3e-44 -4.042128e-08 -1.5141e-41 -3.334895e-08 0.0005521287 -6.3481156e-07 -1.4523681e-05
-0.0019480829 -4.7178996e-06 -6.102876e-09 6.2901945e-10 -1.833932e-08 -1.9310608e-07 0.002471617 2.5956123e-07
-3.607761e-09 -0.0025644358 -0.000118937955 -2.2561386e-05 -5.6326337e-07 -2.7106933e-05 -1.0972367e-09 -0.0023369186
-4.2292927e-06 -3.116858e-08 -2.1534861e-08 -0.0043566073 -0.0016641268 -7.4620266e-10 0.00023580893 -0.004613162
-5.1439386e-08 -2.7542875e-09 4.0116397e-08 -0.000775077 -1.81e-43 -3.4515114e-08 -2.6553553e-09 -1.596554e-08
-0.00065223506 0.00011076739 4.3303487e-08 -1.6515116e-05 -1.71e-43 -3.185188e-39 -0.0014607161 4.741991e-10
-4.420061e-07 2.1213447e-09 -1.2688384e-05 3.5442145e-09 -5.6639133e-09 -3.102678e-08 -9.529372e-08 -0.0005275094
2.2333961e-09 -1.3197663e-07 -4.274218e-09 -7.094766e-08 -4.5918508e-08 -3.6516787e-05 -0.00640337 -2.7005605e-08
-0.00086981413 -5.76165e-08 -0.0030734537 -1.8978424e-06 -4.937572e-07 -0.00011573971 -6.6153284e-06 -2.5290306e-10
-1.2501971e-07 7.7166534e-10 -6.886423e-27 -6.972489e-21 -0.0018623245 -8.1410185e-09 -0.000113351605 -0.000354877
-1.3218201e-07 -8.8e-44 -1.3209825e-17 -3.766497e-07 -1.5366383e-07 -2.1048716e-10 -0.00031285555 -2.7779968e-06
-1.0989801e-19 -1.8372649e-16 -6.3e-44 -0.01575042 -0.001003278 -3.4456647e-08 -3.1052342e-15 -1.05945634e-08
8.258409e-09 -6.501968e-07 1.2409187e-07 1.04227034e-07 -3.013556e-08 -3.385541e-05 -7.101866e-08 -2.311046e-08
-7.831664e-08 -1.4031518e-09 -4.171022e-08 -1.6230963e-09 -2.1782634e-34 -9.7381205e-09 3.1712967e-05 -0.0012174209
-3.8255092e-09 -1.6754842e-06 -1.1157219e-08 -2.6640575e-05 -0.0064803213 1.3278465e-08 -0.012297732 -4.3318826e-10
-0.00027552532 -4.617703e-07 -8.8e-44 -4e-44 -7.1282513e-10 -8.823513e-08 -1.061084e-07 -0.00024520344
1.3822947e-07 -2.1517255e-05 -0.0005038843 -1.47e-43 -5.9651666e-06 1.3399126e-07 -5.1957896e-09 -1.3890408e-07
-2.5184995e-16 -5.2e-44 -8.5260244e-21 -2.3514538e-06 -1.9440239e-07 2.871013e-08 -2.8345678e-06 -2.1090936e-09
-5.0177063e-09 -1.5519598e-05 1.7058837e-09 4.5789543e-06 -1.0255095e-25 -1.77e-43 -1.4687381e-05 -3.9135477e-09
-2.0174104e-05 -1.0863113e-05 -0.00010848663 -9.8920235e-20 -0.0013345445 -4.719387e-08 2.465975e-08 -7.863581e-27
00000000: 5351 32b0 7b4f c3b2 8a00 0080 3de5 a5b8
00000010: b311 31b4 83bc 9b33 5a62 fbb5 5943 a237
00000020: f3bc 86b4 1eb7 dc32 f358 2a33 97bc 528d
00000030: 0212 ba31 4d26 10b1 7a3a 27b7 f502 bfb6
00000040: bec4 04b3 94f6 68b7 5337 0232 cde3 abaf
00000050: 1dba 5a33 4db3 3eb5 4d64 b0b3 4e89 4bb4
00000060: 086f a8bc 7df2 9b0d ca69 4133 7ead c8b2
00000070: 5bf7 8cb3 b317 c0b2 2e10 99b6 9b0e 0080
00000080: 3974 06b4 361a a1b8 17d8 55b8 2b52 fdbb
00000090: 1700 0080 149a 48b6 7e20 08b5 3608 63b7
000000a0: 3000 0080 c1e2 e1b4 a797 d69c 1859 35b3
000000b0: fbda 01b0 bb82 b92f 5a0e 7036 e2a7 d6b5
000000c0: 912b 5cb4 b30e bcb5 a1f1 50a6 a100 0080
000000d0: 3c1e 57b8 5a7b 10b5 b2b5 8ab9 2770 46bb
000000e0: f15e 86b3 6765 45b2 0d10 b7b5 631f caad
000000f0: 50d9 24b1 3600 0080 56d3 54b2 9c1f b0b1
00000100: 35ed 78b6 4fa1 8bb1 7300 0080 217f 65ba
00000110: 236f e832 c443 7b31 b2ec 6db5 c0c3 bab1
00000120: 2e00 0080 7c79 ceb6 47f5 92b3 549c c9b2
00000130: f612 0437 7a50 ec32 afc5 37ba 5c8d c0bb
00000140: da6e 6435 fe41 8530 ad16 2fb2 ecb1 67b5
00000150: a039 cd37 72d8 b333 8b12 01b2 a3d3 ccb3
00000160: af2d 6bb4 b8e7 27b7 72a8 37b0 f937 c6b0
00000170: 03f3 beb9 3cc4 7bb2 406b 18b8 de56 74b9
00000180: 2507 bea1 2600 0080 ab9b 2db3 352a 0080
00000190: 8f3b 0fb3 bbbc 103a eb67 2ab5 bcaa 73b7
000001a0: d156 ffba 734e 9eb6 77b1 d1b1 4fe7 2c30
000001b0: 9788 9db2 9858 4fb4 dafa 213b d359 8b34
000001c0: 67ec 77b1 1810 28bb 546e f9b8 3542 bdb7
000001d0: 2a33 17b5 b263 e3b7 96cd 96b0 fd26 19bb
000001e0: 59e9 8db6 37de 05b3 a9fb b8b2 dfc1 8ebb
000001f0: d41e daba 581d 4db0 7a43 7739 022a 97bb
00000200: 34ee 5cb3 f045 3db1 724c 2c33 892e 4bba
00000210: 8100 0080 c53d 14b3 8179 36b1 9824 89b2
00000220: c1fa 2aba ca4b e838 b0fc 3933 f189 8ab7
00000230: 7a00 0080 02af 2280 8075 bfba cc58 0230
00000240: db4c edb4 17c7 1131 32e0 54b7 7b8e 7331
00000250: 4f9c c2b1 4e42 05b3 47a4 ccb3 8e48 0aba
00000260: 527a 1931 76b5 0db4 6bdc 92b1 e35b 98b3
00000270: ef37 45b3 9a29 19b8 5cd3 d1bb f4f9 e7b2
00000280: 3d04 64ba 0376 77b3 ff6b 49bb 5eb9 feb5
00000290: bd8a 04b5 49b9 f2b8 3df9 ddb6 f108 8baf
000002a0: 283d 06b4 1f1d 5430 5066 0894 e3b4 039e
000002b0: 3e19 f4ba 94dc 0bb2 2eb7 edb8 c90e bab9
000002c0: eaed 0db4 3f00 0080 a3ad 73a3 5736 cab4
000002d0: cbfe 24b4 de6e 67af c306 a4b9 9f6d 3ab6
000002e0: a3be 01a0 7dd2 53a5 2d00 0080 0607 81bc
000002f0: 6c80 83ba 7cfd 13b3 76c1 5fa7 6203 36b2
00000300: dee0 0d32 2f89 2eb5 1d3e 0534 6bd3 df33
00000310: 666e 01b3 f8ff 0db8 ec82 98b3 7084 c6b2
00000320: 072f a8b3 04d9 c0b0 df24 33b3 a013 dfb0
00000330: 3bc5 9087 b54c 27b2 8a03 0538 de91 9fba
00000340: 8971 83b1 33e1 e0b5 f8ad 3fb2 337a dfb7
00000350: e058 d4bb 4f1f 6432 6d7c 49bc d425 eeaf
00000360: 6274 90b9 3ae9 f7b4 3f00 0080 1d00 0080
00000370: 9cf0 43b0 c77b bdb3 b6dd e3b3 a68e 80b9
00000380: 3a6c 1434 f47f b4b7 1a17 04ba 6900 0080
00000390: 6428 c8b6 3ddf 0f34 a686 b2b1 aa25 15b4
000003a0: 7e2e 91a5 2500 0080 530d 219e abcd 1db6
000003b0: ecbc 50b4 3e9e f632 8139 3eb6 91ef 10b1
000003c0: 3668 acb1 1530 82b7 7274 ea30 eba4 9936
000003d0: 63e7 fd95 7e00 0080 d269 76b7 ee77 86b1
000003e0: 8f3b a9b7 b740 36b7 5183 e3b8 9d91 e99f
000003f0: e2eb aeba 35b2 4ab3 5dd3 d332 18c1 1b94

weight f4 [32, 256]
-2.5096039e-09 1.0216255e-08 -6.4e-44 0.00015243016 3.2625824e-08 6.975724e-08 4.4650156e-07 -8.894775e-06
2.8997937e-07 -2.5823281e-08 -2.436661e-08 -1.204351e-31 1.1281306e-08 8.5808666e-10 6.3489542e-06 2.526516e-07
1.8831091e-08 9.615122e-06 -1.3727262e-08 1.0361562e-08 -3.5998966e-08 1.3057122e-06 -6.326599e-08 1.0719015e-07
0.00918001 3.632867e-32 -1.8168505e-08 1.1213438e-07 -5.8794225e-08 9.53239e-09 -2.3943862e-06 1.439e-42
5.7513823e-08 -1.2740773e-07 0.0025101271 0.0012277745 4.2e-44 9.4092667e-07 1.1189897e-07 5.22763e-06
-3.8e-44 1.9779765e-07 -1.0628598e-22 2.2989276e-08 1.0436969e-09 -2.426283e-11 1.9677561e-06 6.097997e-07
1.3383077e-07 8.8911145e-07 -1.3317513e-16 8.1e-44 1.213944e-06 -2.4382422e-07 0.00022945038 0.004628495
7.704014e-08 7.138662e-09 2.4625677e-07 -4.8363213e-11 3.6096787e-10 -5.6e-44 9.704806e-09 1.5015972e-09
4.5162335e-07 5.6657734e-10 -1.7e-44 -0.000697903 -4.1993276e-09 4.9384745e-08 4.6871965e-06 1.5114278e-08
3.73e-43 1.8907427e-05 1.6760291e-08 2.0736673e-08 -7.169475e-06 -7.854168e-09 -1.1608143e-05 0.00016333832
-7.1112004e-07 -2.972438e-11 1.2126255e-08 4.2265535e-07 -1.5668536e-05 -9.713714e-09 -5.296728e-09 2.4667345e-08
3.6810988e-08 4.680981e-06 3.1639394e-10 6.8798356e-10 6.19307e-05 1.2064433e-07 5.1161216e-05 2.9161492e-05
-7.3873316e-20 3.21e-43 3.005588e-08 2.576e-42 -1.1340984e-09 -0.0005343069 1.3077944e-06 3.5670357e-05
0.0016799446 1.4692075e-06 6.8212227e-09 -1.9822624e-10 1.0907265e-08 1.406891e-07 0.0058109458 -1.9586538e-07
3.3058267e-09 -6.5706176e-05 1.9454976e-05 4.404834e-06 -1.1421954e-07 6.3845664e-06 7.686961e-10 0.0029000286
4.1636508e-08 9.302323e-09 1.2193455e-08 0.00135419 -0.0013694285 5.506285e-09 5.909547e-05 0.0057599703
4.450793e-08 8.70938e-08 1.747205e-08 -0.00024960114 -4e-44 1.0042817e-07 3.880576e-10 2.3814158e-08
9.395056e-05 -5.581228e-06 -6.3289746e-10 3.4818956e-06 4.6e-44 -5.14576e-40 -1.3649167e-05 -1.3274752e-10
9.658608e-08 -7.0786293e-10 7.907487e-06 2.0236117e-09 6.533814e-10 2.4924372e-08 4.3188326e-08 0.0002227645
-5.467118e-10 1.09459855e-08 1.1045779e-09 1.887723e-07 9.770563e-08 1.3155794e-05 0.0009241989 1.6402158e-08
0.00030621912 1.3321652e-08 0.005879623 3.207687e-06 9.809032e-07 -1.4815819e-05 3.7382986e-06 8.311082e-11
1.669535e-07 1.4402597e-08 -8.31422e-28 -5.045256e-22 -8.14364e-05 3.6204642e-09 0.00034037448 8.522787e-06
9.330181e-08 -3.67e-43 -3.083133e-19 6.539887e-08 4.3791303e-07 3.0539418e-11 -1.6330889e-05 1.5863307e-06
-7.050262e-21 -3.6379867e-17 -1.5e-44 0.007822336 0.00033937374 5.1658553e-09 -1.6570872e-16 2.4125304e-08
1.4971805e-09 4.0716673e-06 -4.8539363e-08 2.1524313e-08 8.23496e-11 8.333596e-06 4.2130182e-08 8.293157e-09
1.6495807e-07 -1.6024613e-09 1.6234772e-08 2.176715e-08 -4.9279174e-35 7.8115187e-10 -1.4124313e-05 -1.4652662e-05
6.1490653e-09 7.665201e-07 6.5495906e-09 -1.43047655e-05 0.001698028 -3.6704628e-09 0.0077634505 6.1489085e-11
-3.849821e-05 8.327722e-08 4e-45 -1.12e-43 1.3643542e-10 3.584356e-08 -7.035846e-08 3.306834e-05
-4.7515908e-08 3.887874e-06 0.00021234351 -8e-45 -7.315636e-08 6.376617e-08 2.317463e-08 1.536398e-08
-1.21967624e-17 -7e-44 -6.0845586e-22 6.334945e-07 9.775648e-08 -2.3123354e-08 1.8466334e-06 5.2576916e-09
1.072009e-09 3.8108e-06 -4.9001313e-11 -2.8359982e-06 -1.1043591e-26 2.23e-43 -5.0521626e-06 7.593243e-10
-1.8619725e-07 7.475149e-06 0.0002001943 -6.426953e-21 0.0008438997 1.23257475e-08 -1.7926444e-08 -1.0144956e-27
00000000: 6b75 2cb1 9183 2f32 2e00 0080 a9d5 1f39
00000010: 7920 0c33 73cd 9533 b5b6 ef34 c53a 15b7
00000020: 76ae 9b34 ffd1 ddb2 be4e d1b2 6d55 1c8c
00000030: b5cf 4132 7bde 6b30 1a09 d536 2ca4 8734
00000040: 02c2 a132 a250 2137 23d5 6bb2 a202 3232
00000050: 489d 1ab3 ee3f af35 d9dc 87b3 6830 e633
00000060: c167 163c 16a1 3c0b f710 9cb2 87ce f033
00000070: ef84 7cb3 e5c3 2332 3eaf 20b6 0304 0000
00000080: 1e05 7733 92cd 08b4 f280 243b 47ed a03a
00000090: 1e00 0000 fd93 7c35 1c4d f033 0069 af36
000000a0: 1b00 0080 3462 5434 eb7d 009b f479 c532
000000b0: d271 8f30 096b d5ad cb0d 0436 1eb1 2335
000000c0: 1fb3 0f34 46ab 6e35 5c8a 19a5 3a00 0000
000000d0: ccee a235 f2e6 82b4 9e98 7039 a1aa 973b
000000e0: 4471 a533 5648 f531 4635 8434 23b4 54ae
000000f0: b671 c62f 2800 0080 30ba 2632 c160 ce30
00000100: a476 f234 56bd 1b30 0c00 0080 7af3 36ba
00000110: ad49 90b1 1a1b 5433 b646 9d36 a6d4 8132
00000120: 0a01 0000 649b 9e37 45f8 8f32 6d20 b232
00000130: 5291 f0b6 ffee 06b2 98c0 42b7 cc45 2b39
00000140: cce3 3eb5 adba 02ae d553 5032 4fe9 e234
00000150: ed6f 83b7 5ee1 26b2 83fe b5b1 11e4 d332
00000160: 1c1a 1e33 5211 9d36 7df0 ad2f 8a1c 3d30
00000170: cbe0 8138 768a 0134 f095 5638 d49f f437
00000180: ae6d ae9f e500 0000 ca16 0133 2e07 0000
00000190: 8ade 9bb0 bb10 0cba 7987 af35 c19c 1538
000001a0: 9631 dc3a 9631 c535 1c60 ea31 baf3 59af
000001b0: a962 3b32 5310 1734 bf69 be3b 114f 52b4
000001c0: b82c 6331 bccb 89b8 3e33 a337 3ccd 9336
000001d0: db48 f5b3 023b d636 2e4c 5330 680e 3e3b
000001e0: d3d3 3233 0dd0 1f32 627b 5132 147f b13a
000001f0: 657e b3ba cc31 bd31 47dd 7738 22be bc3b
00000200: fd28 3f33 5308 bb33 7215 9632 e6dc 82b9
00000210: 1d00 0080 f8aa d733 4156 d52f e38f cc32
00000220: 5307 c538 6246 bbb6 33f8 2db0 83aa 6936
00000230: 2100 0000 6e9a 0580 bafe 64b7 1bf5 11af
00000240: c26a cf33 6d93 42b0 66aa 0437 c10f 0b31
00000250: a199 3330 4619 d632 117e 3933 e495 6939
00000260: 6c47 16b0 f40c 3c32 e1cf 9730 56b1 4a34
00000270: 3dd2 d133 b4b7 5c37 f045 723a bae4 8c32
00000280: 098c a039 3fdd 6432 daa9 c03b a543 5736
00000290: 94a7 8335 7591 78b7 7bdf 7a36 3bc3 b62e
000002a0: d443 3334 4b6f 7732 7cbe 8392 c77b 189c
000002b0: d6c8 aab8 e1cb 7831 4a74 b239 17fd 0e37
000002c0: 365d c833 0601 0080 fdfe b5a0 6971 8c33
000002d0: 4f1a eb34 5450 062e 51fe 88b7 e8e9 d435
000002e0: fa2c 059e c4c5 27a4 0b00 0080 4129 003c
000002f0: f9ed b139 587f b131 950c 3fa5 1b3c cf32
00000300: 5bc5 cd30 5b9f 8836 9879 50b3 77e4 b832
00000310: b416 b52e 86d0 0b37 a0f2 3433 b179 0e32
00000320: 541f 3134 983d dcb0 a474 8b32 78fa ba32
00000330: ab01 8386 adb8 5630 76f7 6cb7 b4d4 75b7
00000340: c047 d331 dcc2 4d35 cf0a e131 80fe 6fb7
00000350: 5d90 de3a 773b 7cb1 8b64 fe3b 4737 872e
00000360: 2379 21b8 23d6 b233 0300 0000 5000 0080
00000370: 2803 162f 69f2 1933 f917 97b3 dcb2 0a38
00000380: 4b14 4cb3 9574 8236 87a8 5e39 0600 0080
00000390: 221a 9db3 d3ef 8833 8d11 c732 c0f9 8332
000003a0: 95fd 60a3 3200 0080 fee4 379c 690d 2a35
000003b0: 31ee d133 cba0 c6b2 d7d9 f735 25a7 b431
000003c0: f755 9330 0cbd 7f36 9382 57ae 1452 3eb6
000003d0: a9bd 5a94 9f00 0000 bf85 a9b6 b3b8 5030
000003e0: 83ed 47b4 0ad3 fa36 40eb 5139 adcd f29d
000003f0: 2639 5d3a 36c1 5332 abfc 99b2 d5c0 a092

bias f4 [32]
0.14697452 0.16652253 0.0004780749 0.09661697 -7.483299e-08 0.14013043 0.15209205 0.11682531
1.8300473e-07 -5.7852745e-08 0.10035139 -5.8235923e-07 0.14973448 4.9532555e-06 -4.639488e-07 0.17601696
-3.4817955e-08 -2.27172e-07 -1.1540712e-08 -2.2434197e-07 -4.4294982e-08 -0.0003774867 0.13393858 1.16689904e-07
0.08744742 4.0019953e-05 0.14798097 0.15194245 1.2488164e-06 0.0690385 1.0249668e-05 0.09371461
00000000: 7d80 163e e284 2a3e 20a6 fa39 1edf c53d
00000010: dfb3 a0b3 5a7e 0f3e 05be 1b3e 1c42 ef3d
00000020: f57f 4434 c479 78b3 0885 cd3d 6c53 1cb5
00000030: ff53 193e 2434 a636 a314 f9b4 ca3d 343e
00000040: bf8a 15b3 90ec 73b4 9744 46b2 a7e2 70b4
00000050: d93e 3eb3 68e9 c5b9 3227 093e f496 fa33
00000060: a217 b33d 19db 2738 5388 173e cd96 1b3e
00000070: 019d a735 0f64 8d3d fdf5 2b37 72ed bf3d

weight f4 [1, 32]
0.16578612 0.17277262 0.0008579208 0.09572294 -9.536429e-09 0.1415815 0.15816715 0.11765621
-3.074833e-08 6.893244e-08 0.1013174 9.604786e-07 0.17144853 -2.0156951e-05 4.5285097e-07 0.18970595
3.8392265e-08 2.7017248e-07 -1.690603e-07 -6.702865e-07 -8.463817e-08 -0.00026705576 0.13976343 -1.3916835e-07
0.08699624 -2.2838465e-05 0.15607312 0.15803576 -1.7250069e-06 0.06799936 -1.1043592e-05 0.09387828
00000000: d6c3 293e 4eeb 303e 17e6 603a 640a c43d
00000010: a9d5 23b2 befa 103e 92f6 213e bdf5 f03d
00000020: 2510 04b3 0208 9433 7f7f cf3d cbe9 8035
00000030: 3490 2f3e b916 a9b7 5d1f f334 4742 423e
00000040: bee4 2433 390c 9134 f186 35b4 bded 33b5
00000050: 53c2 b5b3 9e03 8cb9 251e 0f3e 4e6e 15b4
00000060: 162b b23d 3b95 bfb7 a2d1 1f3e 20d4 213e
00000070: c986 e7b5 4043 8b3d de47 39b7 4143 c03d
