ckpt/TC1_only_GCN-best.pt (torch, 96850 bytes, 11 tensors)

bias f4 [64]
000000 a8 5d 93 3b 3b 6c a7 3b c2 a4 63 bb e2 75 8a bb
       0.0044972487 0.0051093376 -0.0034735654 -0.0042254785
000010 4d ff 2f bc 64 33 65 3b 0f 8f 44 ba 40 08 c4 3a
       -0.010742021 0.0034973258 -0.0007498124 0.0014956072
000020 cf c0 50 3b 06 da d8 bb 15 2d fe 3a 74 7a fe 3b
       0.0031853204 -0.0066177873 0.0019392098 0.0077660624
000030 4a d9 3c ba 9b 49 d0 3a fd e2 57 bc cf df b1 bb
       -0.00072040095 0.0015891077 -0.013176677 -0.0054282914
000040 8a c2 14 bb 68 b0 ce 3b c7 66 f2 3b 1c da c6 bb
       -0.0022698962 0.0063076504 0.007397506 -0.006068481
000050 6f 90 ab 3b 39 f3 63 ba ec 6d 51 ba e4 9d b8 bb
       0.0052357237 -0.0008695606 -0.0007989097 -0.0056340564
000060 ef 81 23 bc d0 da e2 3a d0 4d aa bb 9e ff 0f 3c
       -0.009979709 0.0017307643 -0.0051972643 0.008788971
000070 22 f6 2d bc 4f 3e f9 3b 73 ff 8c 39 36 6e a7 bb
       -0.010617765 0.0076063047 0.00026893205 -0.0051095737
000080 6b af e0 bb dc c7 24 bc c9 d2 21 3b 50 3d 05 3a
       -0.006856849 -0.010057416 0.0024692288 0.00050826836
000090 81 54 1a 3c 73 20 31 bc 32 f3 1c 3a aa 11 89 bb
       0.009419561 -0.010810959 0.00059871667 -0.004183014
0000a0 b0 36 06 3b 96 c7 2d bb 24 d4 6f bb d2 c9 ce 3a
       0.0020479374 -0.0026516668 -0.0036594952 0.00157767
0000b0 45 20 8c b9 f1 0b 98 3a f2 34 81 bb 15 ae 5a 3b
       -0.00026726924 0.0011600239 -0.003943079 0.003336792
0000c0 de 31 c4 bb c1 6a 08 3c 45 a8 78 3c 8b b7 9c b9
       -0.00598739 0.008326233 0.015176837 -0.0002989139
0000d0 7d 7d 25 bb ce 07 0e 3c a4 e1 0d bb 5d d3 0e bc
       -0.0025251799 0.008668853 -0.0021649385 -0.008717385
0000e0 80 d0 24 bc 40 35 86 ba 32 21 9c 3b 43 23 15 3c
       -0.010059476 -0.0010239258 0.0047646994 0.009102645
0000f0 14 64 67 bb 5f 2c f9 3b 8e 70 a7 3b 06 d8 93 b8
       -0.0035307454 0.0076041664 0.005109853 -7.049744e-05

weight f4 [64, 1]
000000 38 73 24 3e 59 de 97 bc 2a 60 1c ba c3 97 44 3d
       0.16059577 -0.01853864 -0.00059652573 0.047996294
000010 b9 16 18 3e ce 83 90 3e 24 bb 13 be 98 6e 5e bd
       0.14852418 0.2822556 -0.14426857 -0.05430469
000020 2f 01 dc 3d d4 25 5f 3e 58 a2 79 3e a2 26 88 3e
       0.10742413 0.21791774 0.24378335 0.26591974
000030 bd 73 39 3d 9d 1a 32 be 58 6c cb 3b 2d 9a ef bd
       0.045276392 -0.17392965 0.006207984 -0.116993286
000040 c2 d8 43 be f8 47 85 3e 81 65 54 3e bc f6 5f be
       -0.19125655 0.2603147 0.20741846 -0.21871465
000050 19 d7 69 3d f0 bb 99 bb 6b dc cd ba e3 42 9e bd
       0.0570899 -0.0046915933 -0.0015705948 -0.077276014
000060 17 13 a6 3d 9c fc bb bd 56 d2 bf 3d f9 c8 1f 3e
       0.0810911 -0.09179041 0.0936629 0.15604009
000070 de dd 40 3e 74 02 d3 3d a2 83 55 be b2 99 f8 bd
       0.18834636 0.10303202 -0.20850995 -0.1213869
000080 6d b1 fb 3d b9 88 1b 3d c3 d1 1a be 2a 52 b5 bd
       0.12289701 0.037972186 -0.1511908 -0.08853562
000090 f4 5b 90 3e dc 16 25 3e 0f 35 61 bd f4 91 16 bd
       0.28195155 0.16122001 -0.05498224 -0.036760285
0000a0 df f0 4d be 56 86 6f bb 45 2c 0e be a6 cc 16 be
       -0.20111416 -0.0036548576 -0.13884075 -0.14726505
0000b0 8a 62 7e bb 0d af 28 3d 2d ec 71 bd 20 32 12 3e
       -0.0038816058 0.041182566 -0.059063125 0.14276934
0000c0 f0 6c f6 bd 7c e2 8b 3e 63 d8 21 3e 70 54 26 be
       -0.12032497 0.2732123 0.15805201 -0.16243148
0000d0 da 2e b9 bc f1 dc af 3c 8a 30 08 3d c6 19 76 3d
       -0.022605348 0.021467658 0.033249415 0.060083173
0000e0 60 a2 57 3d f6 a9 60 3c de 04 a4 bd d8 78 16 3e
       0.052645087 0.013712397 -0.08008741 0.14694536
0000f0 28 bf 50 be 58 5e ec bd b2 54 2e bd 95 71 86 bd
       -0.2038542 -0.11541432 -0.04256124 -0.06564633

bias f4 [64]
000000 a8 4e 4b ba 07 6e e0 bb 44 e8 d8 b9 43 84 aa bb
       -0.0007755556 -0.006849054 -0.00041371782 -0.005203755
000010 f1 31 29 bc 39 0c a4 3b ab 6b d9 ba 4a 95 c9 ba
       -0.010326848 0.00500634 -0.0016587874 -0.0015379575
000020 4a 77 40 3b cb e9 b4 3a 03 d8 ba 3b aa ec 76 bc
       0.0029367977 0.0013802586 0.00570202 -0.015071074
000030 44 05 5f bb 7b 03 8e 3b af a8 e0 bb 74 00 fc bb
       -0.0034030238 0.004333911 -0.006856046 -0.0076904837
000040 43 35 cb 3b ad 8f dd ba 53 a0 1d 3c 7b b9 30 bb
       0.0062014177 -0.0016903781 0.009620744 -0.0026966024
000050 e5 3f d4 ba 2e 1d 08 3c dc d3 86 bb ac 49 18 3b
       -0.0016193358 0.008307738 -0.004114611 0.0023237271
000060 4b 1c 9a ba 4b ab 32 ba 72 ab 85 bb 7a 62 a2 3b
       -0.00117577 -0.0006815686 -0.0040792758 0.004955587
000070 11 22 a1 3b 78 7a a8 ba 74 16 17 ba 43 7b ca 3a
       0.004917391 -0.0012853881 -0.00057635386 0.0015448112
000080 9e 0b 0a bc 46 c7 9f 3b f9 55 20 3c 72 c1 19 3c
       -0.008425621 0.00487605 0.0097861225 0.0093845
000090 18 34 45 3b 0a d1 a0 3a 15 8a cb bb 7c 89 c8 ba
       0.0030090865 0.001226933 -0.006211529 -0.0015299763
0000a0 fe 91 23 bc 17 52 27 ba 18 ed c0 3a e7 50 a6 b8
       -0.009983538 -0.0006382777 0.0014719097 -7.930566e-05
0000b0 82 de b7 3b 2d 18 8b bb 62 f9 27 bb 28 55 94 3b
       0.005611242 -0.0042448253 -0.0025630821 0.004526753
0000c0 c0 e4 31 bc dc be 44 bb 45 86 12 3c e9 d5 94 bc
       -0.010857761 -0.0030020988 0.008943145 -0.018168407
0000d0 46 92 24 3b d7 44 1f ba 6f 86 10 3b fe ec 13 3b
       0.00251116 -0.00060756266 0.0022052785 0.0022571678
0000e0 08 15 aa ba 6b 4b d9 bb cc 7d 02 3c f0 ba 3a ba
       -0.0012976239 -0.006631305 0.007964563 -0.0007123193
0000f0 a1 1c 1d 3b cb a4 e9 3b d2 18 95 ba d5 c4 0d 3c
       0.0023973363 0.0071302406 -0.0011375195 0.008652885

weight f4 [64, 64]
000000 8b bf 9d 3c 8f 70 aa 3d 3c 3a ec 3d fd 86 c5 3d
       0.019256374 0.0832225 0.11534545 0.096448876
000010 e6 60 15 bd 83 49 23 ba 48 4a 50 bd 80 55 85 b9
       -0.036469363 -0.00062289106 -0.05085209 -0.0002543144
000020 b1 5f b8 3d 40 00 e2 3c e5 a8 de bd 63 07 8c bc
       0.09002627 0.02758801 -0.10872058 -0.017093366
000030 5c 07 be bd 57 8d bf 3c 18 10 ba b8 c0 79 90 bd
       -0.092787474 0.023382826 -8.872169e-05 -0.07054472
000040 54 50 84 bb 57 1c b3 3b b9 2e c6 ba 0d 68 e5 3d
       -0.004037896 0.005466025 -0.0015120126 0.11201487
000050 d9 74 17 bb da 32 69 3b de 13 2f bb 5e e2 c0 38
       -0.0023110418 0.0035583288 -0.0026714723 9.1974376e-05
000060 bd b6 0d bb 80 6e c4 3d 95 08 82 3c 4d d3 23 bd
       -0.0021623813 0.09591389 0.015873233 -0.039996434
000070 38 2c d0 bd 2e b7 ea bd 49 d6 0a bc 96 18 6c 39
       -0.10164684 -0.1146072 -0.008473941 0.00022515873
000080 c1 06 e7 3d af 63 ec b9 4f ce 40 3c da 57 f1 3c
       0.11280585 -0.00045087698 0.011767938 0.029460836
000090 3f d7 9d bd d8 d8 b6 bd 36 20 28 3c d1 77 b9 3c
       -0.077070706 -0.089280784 0.010261586 0.02264014
0000a0 9f 8b b9 bc c4 32 2a 39 0a b1 f6 bd 07 6d 52 ba
       -0.022649584 0.00016231375 -0.12045486 -0.00080271106
0000b0 38 dd 23 b9 31 ad 74 ba 32 30 c7 b8 9d ca 80 3c
       -0.00015627302 -0.0009333669 -9.4980365e-05 0.015721614
0000c0 9b 0b 74 ba 60 fa 96 3d ad eb c4 bd bf 10 26 bd
       -0.00093095907 0.07371974 -0.09615264 -0.040543314
0000d0 61 90 ba bd 22 50 d7 bd d6 b0 94 3d 15 22 9c 38
       -0.09109569 -0.10513331 0.07260291 7.445008e-05
0000e0 08 f8 a5 bd e8 6a ec b9 0b fe 9a bd c3 d1 0a bb
       -0.08103949 -0.0004509308 -0.07567986 -0.0021182157
0000f0 a9 21 c5 3c af 69 fe 39 10 95 f9 3c 1e 3a cf b9
       0.024063902 0.00048525396 0.030466586 -0.00039525417
000100 3e f4 b3 bd a0 ed a8 b9 9a 35 5e 3d 21 7a 61 ba
       -0.0878682 -0.000322205 0.054250337 -0.00086012675
000110 c4 ae dc 3a fe 3a e1 3b 55 fb 2b b9 44 45 37 39
       0.0016836752 0.0068734875 -0.0001640146 0.00017478043
000120 6f be ed bd f9 f6 b6 3d ab 1d 20 3d cd f9 c9 3b
       -0.11608588 0.08933825 0.039090794 0.006163812
000130 60 8c c9 b8 46 61 b0 bd 04 dc 93 ba de 55 53 b9
       -9.610574e-05 -0.086123034 -0.001128078 -0.00020154516
000140 c3 17 9d b9 4a 80 73 bd 4b 40 77 3b 35 27 92 bb
       -0.00029963077 -0.059448518 0.003772753 -0.0044602402
000150 64 bc 93 3d 83 77 c4 bd c1 5a f7 b8 25 2b 75 3d
       0.07213667 -0.095931076 -0.00011794782 0.0598556
000160 fb a7 a2 bd 52 fe 89 b9 cf f8 ed 3c 9d b2 d8 3c
       -0.07942196 -0.0002632016 0.029049305 0.026452357
000170 b0 64 70 3b 8a 60 b7 3c 06 e3 84 bd e2 fe b8 3d
       0.0036681108 0.0223849 -0.06488614 0.0903299
000180 14 31 30 ba 75 3b 68 3d d9 fa ed b9 bf 01 24 b9
       -0.00067211804 0.056697328 -0.0004539106 -0.00015640909
000190 ed 33 26 3d 2f 25 fa 3d 79 39 f9 3d 8c be bd bd
       0.040576864 0.122141235 0.12169165 -0.092648596
0001a0 2b ab f1 b8 db 63 8b bd 6c 1b 2c 3d 4c 38 8a 3d
       -0.00011523658 -0.06806155 0.04201834 0.06749019
0001b0 d6 07 85 bd 58 b4 90 37 58 55 80 3d 72 95 8b 3d
       -0.06495635 1.7250117e-05 0.06266278 0.06815614
0001c0 f8 d2 99 bd 09 d2 9d 3d 22 a7 4f bc b3 54 c2 bd
       -0.07510942 0.07706077 -0.012674125 -0.09488811
0001d0 d4 38 b2 b9 e9 7d bf 3c ee d8 41 3d ca 4c 75 bd
       -0.00033993146 0.023375468 0.04732602 -0.059887685
0001e0 67 0b 8e bd 65 59 70 bd 03 d5 20 3d 2d 01 ce bd
       -0.069357686 -0.058679003 0.039265644 -0.10058818
0001f0 0c 43 30 b9 6b ea 27 bb 6a ee 92 3c f3 ec 9a b9
       -0.00016809645 -0.0025621902 0.01793595 -0.0002954971
000200 f1 ee ea bc cc 50 29 b8 7c fc dd 3d 72 60 cd 35
       -0.02867839 -4.0367988e-05 0.10839173 1.530176e-06
000210 0f b5 dd bc c9 7a 2e ba d7 c1 dc bd 91 a8 5a bd
       -0.027063875 -0.00066558697 -0.107791595 -0.053383414
000220 2c f7 b9 38 2c ef 4a bd 02 5e c0 3d 38 bd 0a ba
       8.867527e-05 -0.0495445 0.093929306 -0.0005292478
000230 24 20 a2 3d 06 d7 db 39 67 01 3e b9 e3 24 67 37
       0.079162866 0.0004193114 -0.00018120334 1.3777261e-05
000240 7b 4a 17 bb ef 09 bb bb 9c e5 f6 bd a3 43 99 3d
       -0.0023085165 -0.0057079713 -0.12055513 0.07483604
000250 98 c0 d7 3d 7d 46 fb bd 78 c3 a4 bb d3 a1 9a bd
       0.10534781 -0.12269304 -0.0050281845 -0.07550397
000260 a8 5f 5e bc 6d 83 9c 3d b1 7a 0c 3d 09 b0 21 ba
       -0.013572611 0.07642255 0.034296695 -0.0006167894
000270 30 25 8e 3c ba 3c 28 3b db 30 13 3d 93 cd ad bd
       0.017351717 0.0025670961 0.035935264 -0.08486476
000280 d7 3d 62 3b ec 00 e9 bd a6 29 67 bd 1e c2 1c bc
       0.0034521723 -0.11377129 -0.056436203 -0.0095677655
000290 a1 fd 07 ba ee 42 e7 bd 73 06 e5 b7 9a e2 14 39
       -0.0005187635 -0.11292063 -2.730193e-05 0.00014198796
0002a0 28 43 4f bc 0a bb 90 3b 55 91 ca 3d aa 68 8f 37
       -0.012650289 0.004416828 0.09891001 1.7095666e-05
0002b0 9f d0 09 bd fa 7b cf bd 65 1e 90 bd 48 42 17 bd
       -0.033646222 -0.101310685 -0.07037047 -0.036928445
0002c0 e2 c4 93 bd 2c 65 40 bc 5d e5 18 3d 62 60 5e 3b
       -0.07215287 -0.011742871 0.037328113 0.003393196
0002d0 76 08 d6 3d 18 71 fc 3d c8 b6 02 bc e4 8b 40 bc
       0.104508325 0.123262584 -0.007978149 -0.0117521025
0002e0 31 ff eb 38 50 b2 aa bd b3 bc 11 3d 7a f5 53 b8
       0.00011253206 -0.08334792 0.03558035 -5.0534938e-05
0002f0 2f a7 bb bd 6c 14 9a bd c5 93 7f bd fb dc 6c 3a
       -0.09162747 -0.075234264 -0.062396783 0.0009035614
000300 91 82 9f 3d 01 1c a9 3d 43 5f 73 ba 97 3c 2d bd
       0.077885754 0.082572944 -0.00092839095 -0.04229411
000310 9b a8 aa bc 6e aa 82 bd 70 89 f2 b8 b6 cf d6 bd
       -0.02083235 -0.06380163 -0.00011565059 -0.104888365
000320 f3 67 0c 3d 7c 81 e8 bd 3c 7b 55 bd 6d b6 77 3d
       0.03427882 -0.11352822 -0.05211948 0.06047671
000330 4b 74 97 bd ba ff 02 b9 6a ae 97 3d a4 6d f9 3d
       -0.07395228 -0.00012493032 0.07406314 0.121791154
000340 12 31 ef 3c 94 f1 c1 bb dc 50 2b 3d fd 01 79 3a
       0.029198203 -0.005918691 0.04182516 0.00094988925
000350 a8 f1 79 bb d0 09 9b 38 3e ef e6 b9 4e 0d 71 3d
       -0.0038138423 7.392804e-05 -0.00044047268 0.05885058
000360 57 8b 82 3c 25 a3 c8 3c b7 b6 23 ba 84 5f aa ba
       0.015935583 0.024491856 -0.0006245183 -0.0012998437
000370 00 99 8b 3c de 4d 07 ba 11 47 ed bd 81 63 36 39
       0.01704073 -0.00051614444 -0.115858205 0.0001739394
000380 2b e1 a6 bc f3 a9 08 bd 98 ed 39 3c 7c 34 b5 b9
       -0.02037104 -0.0333652 0.011348151 -0.00034562114
000390 48 a2 c2 ba ca 1b d3 bc c6 8d b4 3c 6c 8e e5 3d
       -0.0014849389 -0.025770087 0.02204026 0.112088054
0003a0 fd af 0f 39 b5 a9 6d 3c 0c 13 cc bd 92 fd 36 3d
       0.00013703103 0.014505793 -0.099645704 0.044675417
0003b0 43 d2 da 3b a8 c3 a5 3c 70 b6 7b 3c d6 7c 4d bb
       0.006677897 0.020234898 0.015363321 -0.0031354926
0003c0 91 9a 04 3a f5 4f f3 3d 62 26 92 3d 68 b6 8a bd
       0.00050584326 0.11880485 0.07136227 -0.067730725
0003d0 c1 98 a9 3d 76 56 fd 3d 6e ee e0 b6 2b 59 a4 bd
       0.082810886 0.12370007 -6.703477e-06 -0.0802482
0003e0 73 40 46 ba 5f a7 b0 39 f0 9d 8b 3d d3 f2 ef bd
       -0.0007562704 0.00033694037 0.068172336 -0.11716237
0003f0 ae 8b ad 39 fd 76 91 38 53 04 32 39 43 a4 7e 3d
       0.000331012 6.936302e-05 0.00016977014 0.06216837

bias f4 [20]
000000 0b d2 dd 39 4e bb 28 bc 97 96 15 bc bc a8 63 ba
       0.000423089 -0.010298563 -0.009130142 -0.0008684506
000010 48 09 8e bb e9 b4 39 3c 8e 7d a9 3b e9 71 1e bc
       -0.0043346025 0.011334636 0.005172438 -0.009670713
000020 63 b3 43 3a 37 e6 2e 3c 45 5d b9 bb b8 ed 2c 3c
       0.00074653904 0.010675005 -0.0056568705 0.010554723
000030 e5 19 0a 3b d3 15 12 3b b9 f7 08 3c 75 4e b1 3b
       0.0021072563 0.002229084 0.008359843 0.005410964
000040 ba c0 35 3c 9d 47 1b 3c 7e 58 33 3c 8a c9 27 bc
       0.011093313 0.009477523 0.010946391 -0.010240922

weight f4 [20, 64]
000000 65 cb 13 3e 12 ef 0f 3d d6 8f 01 bb 9c 62 e8 3d
       0.14433058 0.035140105 -0.001976957 0.11346933
000010 29 a7 23 3c a4 57 c9 3a 72 05 03 3a 38 28 a2 bd
       0.009988585 0.0015361202 0.0004998065 -0.07917827
000020 9a ad 58 bc a2 1f 1b be c7 d2 18 ba b0 4d 28 be
       -0.013224984 -0.15148786 -0.0005829748 -0.16435885
000030 4b c5 d7 3c 43 21 41 ba e0 1c 9c 3c 4b b6 be bd
       0.026339194 -0.0007367322 0.019056737 -0.093121134
000040 c1 13 84 3a cc 88 00 bc 69 35 14 be 1d bb fc 3d
       0.0010076688 -0.007845115 -0.144735 0.123403765
000050 ed eb 30 be 72 91 26 3e ca ad 79 bb 41 78 8a bd
       -0.17277499 0.1626642 -0.003809797 -0.06761218
000060 6a 57 2a be dd be 24 be 29 f6 8c bc 1c 31 13 3e
       -0.16634908 -0.16088434 -0.017207222 0.14374202
000070 27 62 35 3d 21 1a d6 bd b6 36 0a 3e 90 d2 05 3e
       0.04428306 -0.104542024 0.13497433 0.13068604
000080 8a 7c 9c 3d 8f 91 2d 3e a7 da 0a 3e 16 9c 00 3d
       0.076409414 0.16950057 0.13559972 0.031398855
000090 94 96 d3 3d 08 bc b6 bd 58 f8 bc 3a 36 cb 73 bd
       0.10331455 -0.08922583 0.0014417274 -0.05951997
0000a0 3f 8c ac bc 3c ff f5 bd 59 7a bc 3d 21 b0 e1 bc
       -0.021062968 -0.12011573 0.092030235 -0.027549805
0000b0 de ef 82 3c 70 8e 1b 3e 7b d7 90 3c 19 d4 ff 3a
       0.015983518 0.15191054 0.017680874 0.0019518166
0000c0 52 82 30 3e f6 d7 2e be 09 b8 4c 3e 7c d7 0f be
       0.17237213 -0.1707457 0.19992079 -0.14047045
0000d0 88 39 4c 3e 40 b1 b7 3a 45 0b 9b bd ac 64 87 bc
       0.19943821 0.0014014617 -0.07570509 -0.016527496
0000e0 7b 7e 54 bd e7 b4 08 3e a0 0b 5a 3e 8d 52 97 3d
       -0.051878434 0.13350259 0.21293497 0.07388792
0000f0 3a 1e d9 3d c3 a6 63 3e bb d3 13 be 01 11 ca 3d
       0.106014684 0.22231583 -0.14436238 0.098665245
000100 72 74 c2 ba 64 89 d2 3d 69 96 d5 3b 0a 10 55 ba
       -0.0014835729 0.102801114 0.0065181744 -0.0008127695
000110 ec d7 f4 3d 1a ed e8 bc d9 22 e7 bd 92 6d d3 bd
       0.11955246 -0.028433371 -0.112859435 -0.10323633
000120 39 d8 cd 3d 82 cd 33 39 6e 62 02 be 9b f9 83 3c
       0.10051007 0.00017147328 -0.1273286 0.016110232
000130 9d 78 10 bc e2 fc 05 be 9e 85 12 3e 41 dc a3 3d
       -0.008817819 -0.13084748 0.14308783 0.080009945
000140 78 f0 08 3e 3b 5b fc b9 f9 f4 1a be 0e b4 0c be
       0.13372982 -0.00048133158 -0.15132512 -0.1374056
000150 03 9a 07 3b be c6 1f be 68 2b 91 3d 77 60 1b be
       0.0020691163 -0.15603158 0.07088357 -0.15173517
000160 6d dc cf bd b1 fd e1 ba 72 ee 08 3b 7d 7e 06 bd
       -0.10149465 -0.0017241744 0.0020894078 -0.032835472
000170 fb bd 4a bd 7b ea 4e bd fe 37 3d bc d4 ea 00 b9
       -0.049497586 -0.050516587 -0.011548994 -0.00012294512
000180 e1 44 26 be 0b 48 da ba e8 fe ff bc 97 69 fb ba
       -0.16237213 -0.001665355 -0.031249478 -0.0019181248
000190 92 c5 dc 3d 54 7e 0b be 84 a0 83 3c 4b 77 c3 3c
       0.10779871 -0.13622409 0.01606775 0.023860594
0001a0 bb 92 dd 3c 23 b0 17 bc 98 00 8a 3d 6e a9 cc bd
       0.027047506 -0.009258303 0.067383945 -0.09993254
0001b0 03 bf e8 bc 5b 33 01 3b d1 29 99 b9 e1 16 2f be
       -0.028411394 0.0019714448 -0.0002921359 -0.17098571
0001c0 5d 4c 7a 3d 20 97 8e 3d a1 73 2f be c4 d7 9d ba
       0.061107982 0.069624186 -0.17133953 -0.0012042453
0001d0 e6 5f 16 be 01 3f 2d bb aa b9 ef ba 06 f5 0e 3e
       -0.1468502 -0.0026435258 -0.0018289585 0.13960657
0001e0 d9 d3 c7 3d 18 2d ce 3d 7c 44 bc 3c 8f 63 1d be
       0.097572036 0.10067195 0.022981875 -0.1537001
0001f0 87 5c 7a bc 09 fb 40 3e 65 e1 ba ba c7 79 6b bd
       -0.015280849 0.18845762 -0.0014257847 -0.057489183
000200 14 fc 94 bc 43 03 79 3d 2a 8f a1 3d 60 c6 f0 b7
       -0.018186606 0.060794126 0.078886345 -2.8702605e-05
000210 15 27 f4 3c 51 f5 d8 3d 7f be b6 3d 39 bd 56 3d
       0.029803792 0.105936654 0.08923053 0.05242655
000220 3c 84 bc 3d ea 9e 9d 3c 03 47 a7 3b d8 92 2d be
       0.09204909 0.019240815 0.005104901 -0.16950548
000230 9d b1 1b bc 74 ea 46 bd a3 ab 11 3b c8 39 3a bc
       -0.0095027955 -0.048563436 0.0022227548 -0.011366315
000240 7f ad 1a be 6e 5e 06 3e 22 d8 b5 bd 99 81 25 be
       -0.15105246 0.1312196 -0.08879115 -0.16162719
000250 22 8f 08 bd a6 70 f2 3c 8e 3a 86 bc b1 3d 32 be
       -0.033339627 0.02959473 -0.016385343 -0.17406346
000260 99 a3 61 3c be 8d c0 3c 7e 39 1f 3e f7 c4 36 be
       0.013771915 0.023505088 0.15549275 -0.17848574
000270 2a 1b f2 bc 67 7d bf bc 7e bb 94 bc ed 04 8b ba
       -0.029553968 -0.023375226 -0.01815581 -0.0010606326
000280 75 2c 28 3e f4 09 30 ba 8f 75 15 3e ef df 8e 3c
       0.16423209 -0.00067153503 0.14595626 0.017440764
000290 15 a6 66 bd 26 2c 99 ba 19 f2 53 3d 66 e7 8f 3d
       -0.056310732 -0.0011686131 0.051744554 0.070265576
0002a0 7f bf b4 bc 8c b0 38 ba 67 ae 06 be 5e 92 a7 bd
       -0.022063969 -0.00070453505 -0.13152467 -0.08182214
0002b0 8b 12 8d bb 60 11 92 3d dc fb 62 ba 73 f5 61 3d
       -0.004305189 0.0713222 -0.0008658746 0.05516572
0002c0 70 ca 04 be 37 73 50 b9 56 7a 06 be f4 0d f0 bb
       -0.12967849 -0.00019879347 -0.13132605 -0.007325882
0002d0 93 bf 08 3e bb 2d 70 ba a0 2a e0 bd 1c db 2d be
       0.1335433 -0.0009162088 -0.1094563 -0.16978115
0002e0 ee 7c 21 bc 6c 20 7c bd c1 94 4d be fd 92 74 3d
       -0.009856446 -0.061554357 -0.20076276 0.05971049
0002f0 8a 49 d3 ba 1e ba e4 bc 31 84 ea 3d df b3 39 be
       -0.0016119939 -0.027920779 0.11450995 -0.18135022
000300 4d c3 48 3c 9c 59 de 3d 55 41 11 3a b7 33 6a 3d
       0.012253595 0.108569354 0.0005541046 0.057178225
000310 eb 67 b3 bc af 40 22 be 6b 4a 20 3e 21 c7 2f be
       -0.021900138 -0.15844987 0.15653388 -0.17165805
000320 dc 5a ec bc 99 d9 18 3e 08 80 34 bd b1 b0 c6 39
       -0.028851919 0.14926757 -0.044067413 0.00037897148
000330 38 98 58 bd 0f 35 18 3c ce a8 9c bc 7c d7 bd 3c
       -0.052879542 0.009289994 -0.019123461 0.02317404
000340 29 13 2b 3e 48 f2 e0 bd d0 24 cb 3d a5 50 64 bb
       0.16706528 -0.109837115 0.09919131 -0.0034838107
000350 58 e7 30 be 30 0b 3a 3d 6d d8 b6 bd ae 76 8e 3d
       -0.1727575 0.045420825 -0.08927999 0.0695623
000360 b3 44 2c 3a 3a 36 96 bd 40 95 0f be 91 60 1d 3c
       0.0006571516 -0.07334562 -0.14021778 0.009605543
000370 38 23 29 be bf 1e 77 3d 8a e6 c0 3c 85 d6 09 be
       -0.16517341 0.060332056 0.02354743 -0.13460739
000380 0c 64 66 3d b5 36 f4 bd ee c5 4f ba e5 74 af bc
       0.056247756 -0.11924497 -0.0007925917 -0.021418044
000390 6f 9a b6 3d 2e 08 09 be dd 7d 3c bc 7c e2 93 bc
       0.089161746 -0.13382027 -0.0115046175 -0.018052332
0003a0 4d 65 c7 39 73 7f 0d 3a 04 07 a1 bd 33 6e cf 39
       0.00038031713 0.00053977146 -0.07862666 0.00039564222
0003b0 dd 57 2e bb 45 6b 4f bd ec d5 03 3b fe 50 d8 3d
       -0.0026602664 -0.05063941 0.002011652 0.10562323
0003c0 d3 cd 57 3d 13 4f 50 3c 22 99 2a bd ef 56 d2 bd
       0.052686524 0.012714165 -0.041649945 -0.102704875
0003d0 51 bf 95 3d be d8 c3 b8 0c c4 54 3a 81 ad 50 3d
       0.07311881 -9.338696e-05 0.00081163715 0.050946716
0003e0 68 c3 23 bd c5 96 31 be 1a b1 e5 bd 28 e1 20 be
       -0.039981276 -0.1734267 -0.1121542 -0.1571089
0003f0 52 56 9f 3d 82 b6 a5 3d 6a ff 21 bd ff 25 95 bc
       0.07780136 0.08091451 -0.039550222 -0.018206595

weight f4 [256, 20]
000000 5f 91 81 3d fc d4 66 ba 5d 99 14 3d b5 4f 41 39
       0.063265555 -0.0008805541 0.03627907 0.00018435607
000010 05 68 cb bd 62 05 0e 39 ee e7 83 ba 20 cb 75 bd
       -0.099319495 0.0001354418 -0.0010063627 -0.06000817
000020 fe 7e c9 bc 7f ac cc 3d 49 a6 3f 3d bf ee f2 3d
       -0.024596687 0.099938385 0.04678944 0.118619435
000030 ad 1c f1 3d 33 0b 0d 3b 56 ca 91 bb 37 8b df 3c
       0.117730476 0.0021521568 -0.004449169 0.027288062
000040 c1 f2 15 bd 96 7d b2 3d 92 46 e0 3d e5 5d c0 3d
       -0.03660846 0.0871536 0.1095096 0.09392909
000050 5e 73 fb 3d 58 7c 55 bd 22 0a 94 bd 44 ff ed bc
       0.12277864 -0.052120537 -0.07228495 -0.029052384
000060 f1 fc 1e be 8c 60 f7 3d c0 51 9b bd 47 14 90 bb
       -0.15526177 0.12078962 -0.07583952 -0.0043969485
000070 a0 ce 10 bd cb 7a 51 3d 41 9f c7 bd ea 0a ae 39
       -0.035353303 0.051142495 -0.09747172 0.00033195998
000080 49 13 05 3e 1d b9 4f bd c5 4c ee 3c 68 3e dc 3c
       0.12995638 -0.050713647 0.029089341 0.026885226
000090 fe 15 15 3e 43 61 12 be c8 9e 5f bd bb 7d bf bd
       0.1455917 -0.14294915 -0.054594785 -0.09350153
0000a0 79 e1 d0 bd c9 74 5b bd 75 22 22 3d 51 1c a9 3d
       -0.101992555 -0.053578172 0.039583642 0.08257354
0000b0 d1 90 ba ba c8 aa 51 b7 79 d8 b4 ba 2d f8 07 be
       -0.0014233832 -1.2497134e-05 -0.0013797424 -0.13278265
0000c0 1b f4 0c 3e b1 43 2f 3d fe 83 d1 bd ab 5a 68 3a
       0.13764994 0.042789165 -0.10230254 0.0008863608
0000d0 55 21 a7 3d 5e 8a 89 3d c8 e5 f0 3d b9 14 d9 3d
       0.081606545 0.067158446 0.11762577 0.10599656
0000e0 f2 33 e1 3d 66 55 f1 bb 60 9a ce 3b be ef 4a 3c
       0.10996236 -0.0073649166 0.006305024 0.012386261
0000f0 8f 0f 09 be 93 79 fe 3c 7e fa af bd f1 eb 02 3e
       -0.13384841 0.03106383 -0.085926995 0.12785317
000100 08 51 c4 3d 19 07 e1 3d 3a 5c e9 3d 9e 18 09 3e
       0.09585768 0.10987682 0.11394544 0.13388297
000110 f0 20 0f be 5f 54 0b be 11 87 cb bd 7e 27 bb 3d
       -0.13977408 -0.13606404 -0.09937871 0.09138392
000120 7e af 74 bd 37 95 aa 3d 3a 48 12 3d aa 4b 03 3e
       -0.059737675 0.08329242 0.035713412 0.12821832
000130 87 75 8f bd b1 e4 25 3c 81 a9 d5 bd 54 8c c6 bd
       -0.070048384 0.010125325 -0.10432721 -0.09694734
000140 78 73 23 be c8 03 9a 3d c5 97 51 bd 82 33 75 ba
       -0.15962017 0.075202525 -0.05117013 -0.00093536836
000150 25 23 0a 3e 79 58 1b 3d 58 cb 0b 3d ed 23 a4 bd
       0.13489969 0.03792617 0.03412947 -0.08014665
000160 e5 54 a2 3d c2 fd 2f 3e 14 c5 e9 bd 68 3a a9 bb
       0.079263486 0.17186645 -0.11414543 -0.0051644333
000170 37 8c e9 bd dd 50 f2 bc ee c0 fa 3c 08 3a f9 bd
       -0.11403697 -0.029579574 0.030609574 -0.12169272
000180 e3 b2 e7 bd 50 1c 19 3d 09 c0 d4 3d 6e 22 06 bd
       -0.11313417 0.037380517 0.1038819 -0.03274768
000190 56 56 b0 3d aa 47 d3 bd 38 a2 6d bd e4 79 ab 3d
       0.08610217 -0.10316403 -0.058016032 0.08372858
0001a0 73 19 76 bc e3 06 a8 3c 8e f5 91 bd e4 ed 2c 3d
       -0.015020716 0.020511096 -0.07126914 0.042219058
0001b0 d0 67 ae bc b6 af b7 ba 52 63 7e 3c 43 a8 1e 3c
       -0.021289736 -0.0014014158 0.0155266095 0.009683671
0001c0 56 0d bb 3d e4 e2 85 bb 25 45 03 bd 9f 4b a2 3d
       0.09133403 -0.0040858854 -0.032048363 0.0792458
0001d0 8c 00 84 39 98 e5 e2 bd 0d 83 a5 bd 4d d9 8c 3d
       0.0002517741 -0.11078948 -0.080816366 0.06877384
0001e0 12 12 d3 3c 79 09 d3 bc c0 e4 98 3d b1 96 ee 3c
       0.025765453 -0.025761353 0.074655056 0.02912459
0001f0 a9 5c 9d 3c 64 b2 2f b9 6c 3b ec 3c 33 50 88 38
       0.019209223 -0.00016755756 0.028836928 6.4999236e-05
000200 79 fc d1 bd db 2c 57 bb b9 6c 02 ba 00 48 01 bd
       -0.102532335 -0.0032833132 -0.00049753074 -0.031562805
000210 a4 80 93 3c e7 74 e6 3d 0a 72 61 3c 1c 34 72 3d
       0.018005677 0.11252766 0.013760099 0.059131727
000220 7a 6d 0c 3a 84 96 38 38 09 b9 0a bb ee b4 d5 3d
       0.00053568895 4.4009197e-05 -0.0021167418 0.104349
000230 29 e3 a3 bd 31 8c aa 3c 7b ac 99 3c e6 29 ea 3d
       -0.08002312 0.020818802 0.018759003 0.11433773
000240 32 dc 1e ba c9 4c a2 bc 37 f2 fe 3d 9b 63 96 bd
       -0.00060600333 -0.019812005 0.124485426 -0.07343217
000250 69 f2 b4 3a e4 30 63 bd 5b 75 93 3d b9 8d 7e 3d
       0.0013805154 -0.055466548 0.07200118 0.062146876
000260 00 c8 25 bd 2d 0f 92 3a 08 b8 a5 3a 58 de ef bd
       -0.040473938 0.0011143439 0.0012643347 -0.117123306
000270 f4 61 f2 3d 4d fc 9e 3c 72 ce cb 3a 4a 75 ca 3d
       0.11835089 0.019407416 0.0015549196 0.09885652
000280 80 9c f9 3c 31 67 b6 3c 12 00 90 3c 27 19 fa bb
       0.030470133 0.022266002 0.017578159 -0.007632393
000290 1a ac ba bd 75 23 30 3c f9 42 f0 ba 36 ad 04 3d
       -0.09114857 0.010750641 -0.0018330506 0.03239175
0002a0 65 2b 97 bd 4c 09 42 3b ee e5 a0 3d da 79 ef b9
       -0.07381324 0.0029607592 0.078563556 -0.0004567642
0002b0 d5 30 8d bd 9b fd 3d 3b 24 15 04 3e 27 f4 51 bb
       -0.068940796 0.0028990272 0.1289869 -0.0032036395
0002c0 08 a2 e1 3a bc 78 3e 3d 77 d0 6e 3d e0 3b 20 3c
       0.0017214427 0.04650186 0.058304276 0.0097799
0002d0 d0 d9 35 3d b9 b3 e9 3d 31 50 29 3e 2f 91 ec bd
       0.044397175 0.114112325 0.16534497 -0.11551129
0002e0 6f be f1 3d 99 19 aa 3d 11 21 a6 3d f8 f3 7e 3d
       0.118039005 0.083056636 0.08111776 0.062244385
0002f0 70 f7 5f 3d d5 e8 17 3e e7 0a 8a 3b 3b 3f f3 3d
       0.054679334 0.14834912 0.0042127254 0.11877295
000300 44 a2 01 bd d6 81 bb 3d 33 04 fe 3d 67 52 29 3a
       -0.03164889 0.091556236 0.12403145 0.0006459117
000310 43 c9 11 3e 89 9e b3 3d 00 50 41 3d 92 42 23 bd
       0.14236932 0.087704726 0.047195435 -0.03985841
000320 cc e5 bd bd f7 df 8b 3c 29 e0 74 3d 51 b7 e4 bd
       -0.09272346 0.017074568 0.05978409 -0.11167777
000330 5d cd 18 bc 8b 55 ec ba 8a e1 80 bb ad a1 46 3d
       -0.009326306 -0.0018030865 -0.0039331364 0.04849403
000340 1e 8e da 3d fb 4f 08 bd 04 6c 78 3c b9 94 a1 3d
       0.10671638 -0.0332794 0.015162472 0.07889695
000350 b6 71 10 3b ab 89 3d 3d fb 04 04 3e 7e ee 85 bb
       0.0022040433 0.04627387 0.12892525 -0.0040872684
000360 30 0c f6 bd 0f 4e d8 bd 01 79 bf 3d 3b 0c 67 bd
       -0.12014043 -0.105617635 0.093492515 -0.05640815
000370 c5 bf 33 3e 86 b6 c1 3c 87 09 12 be 6e 12 0a 3e
       0.17553623 0.023646604 -0.14261447 0.13483593
000380 e3 0f 0e 3e 8e ce 21 bc ae f6 07 bd d5 7c c0 bd
       0.13873248 -0.009875907 -0.033194236 -0.0939881
000390 58 7a 9b bd 41 ed 64 3d a2 e7 03 3b 2b aa 95 bd
       -0.075916946 0.055890325 0.0020127078 -0.073078476
0003a0 72 a3 29 bd 33 b8 8a 3d a9 92 2a 3d bd ff 07 3c
       -0.04141564 0.067734145 0.041643772 0.008300719
0003b0 58 04 e7 bd ae c6 6e bd a2 38 0a 3d 51 8b b2 3d
       -0.112801254 -0.058294944 0.033745416 0.08717979
0003c0 34 2b 38 3a ae fc a6 bd cd af 5d 3c be 84 5d bd
       0.0007025481 -0.081536636 0.013530684 -0.05408167
0003d0 eb 73 f3 bd c3 0e 91 3d 34 08 49 3d 5c 67 b5 39
       -0.11887344 0.07082894 0.04908009 0.0003460002
0003e0 7a ae 59 3d ba ac 8d bc 99 7a 9e 3b b0 72 01 be
       0.05314491 -0.017294277 0.004836392 -0.12641406
0003f0 f4 20 da bc d6 e5 4e 38 7c 6e c5 b9 17 b0 cc 3c
       -0.026627041 4.932828e-05 -0.00037657085 0.02498631

bias f4 [256]
000000 6d 7f 9d bd 57 8a cc 3d aa 98 93 bc 2a e7 03 3e
       -0.0769032 0.09987324 -0.018017132 0.12881151
000010 21 ef 0a 3e 16 28 dc 3d ac 5f e7 bd 26 65 b6 bd
       0.13567783 0.10749833 -0.11297545 -0.08906011
000020 42 57 04 be 62 6f 8d 3c 1a cd 63 3d b8 a6 13 3e
       -0.12923911 0.017265026 0.055615522 0.14419067
000030 43 ba 8e bd 6b c5 5b 3b b9 b6 f5 3d de ec df 3d
       -0.0696912 0.0033534418 0.11997742 0.10933851
000040 8b 5d 00 3e 60 aa 32 bc c1 1a f2 bd a4 ca 0f 3d
       0.12535684 -0.010904878 -0.11821509 0.035105363
000050 d9 6c 4b 3d 0f 23 9d 3d bb 6a 8d bd b6 75 c8 bd
       0.049664352 0.076727025 -0.06905123 -0.097880766
000060 fa 61 2e bd 43 5a 04 3e 67 c3 27 3e 3a 84 e9 bd
       -0.042573906 0.12925057 0.16383134 -0.11402173
000070 fe e6 2c bc 00 ee 16 3d 57 76 e3 3d 04 96 47 3e
       -0.01055312 0.03684807 0.11106556 0.1949082
000080 89 ee 02 3e 02 2d 2b bd 5f 1b 0d 3e f8 6c 12 3b
       0.12786306 -0.04179097 0.13779972 0.0022342782
000090 8d bc f9 3d a7 b8 c9 bd 96 f6 bf ba bd 08 e9 bd
       0.12194166 -0.09849673 -0.0014645632 -0.1137862
0000a0 33 91 a6 3d 07 1d 0c 3d 69 db 25 3e 6d b9 85 bc
       0.08133163 0.03420737 0.1619698 -0.01632377
0000b0 88 6b 02 3e e9 d3 12 3e 49 5d 62 3e e9 88 80 bd
       0.12736332 0.1433865 0.22105898 -0.062761135
0000c0 af d5 9d 3c e4 18 3d 3d 91 19 26 3e 67 b1 03 3d
       0.019266931 0.046166316 0.1622069 0.032151606
0000d0 56 cf 08 be 46 f9 22 3e a2 64 3b 3b 53 a4 03 bd
       -0.13360342 0.15915403 0.0028593917 -0.032139134
0000e0 fb d7 11 bc 05 c2 6f bd 87 06 71 3d 86 9e 5f 3e
       -0.008901591 -0.05853464 0.058844116 0.21837816
0000f0 0f d8 db 3d 65 c7 a8 3b d2 99 20 be 24 30 d4 bd
       0.10734569 0.005150723 -0.15683678 -0.103607446
000100 7c a7 93 bd 71 26 99 bd 08 41 1b 3e 35 b6 8e bd
       -0.072096795 -0.07478035 0.15161526 -0.06968347
000110 84 37 c9 3d 4d 68 26 bc 26 e3 15 3b 85 c1 06 be
       0.09825042 -0.010156703 0.0022870987 -0.1315976
000120 59 2f 65 3d 88 93 04 3e 35 81 bf bd 5c 86 b2 bc
       0.055953357 0.12946904 -0.09350816 -0.021792583
000130 56 4d 40 bd 31 83 12 3e 1d 8b 86 3d 65 1d 18 bd
       -0.046948753 0.14307858 0.065695025 -0.037137408
000140 a6 27 15 3e 12 9c 9a 3c 13 38 dd bc 91 42 87 bd
       0.14565906 0.018873248 -0.027004277 -0.066044934
000150 52 23 2c 3d 86 f6 12 3e f9 41 13 3e 58 fa df 3d
       0.04202587 0.14351854 0.14380635 0.10936421
000160 05 b2 1f 3d 6e a4 e7 bd 24 d6 99 3c 44 9d 2f bc
       0.038988132 -0.11310659 0.018778868 -0.010718647
000170 42 af 09 bc e4 77 62 3d af 24 18 bc 9e 92 12 bc
       -0.008403601 0.055290118 -0.00928609 -0.008946089
000180 29 3d 35 3e 52 71 64 3d 67 d1 b8 3d e9 5b 1a 3e
       0.17699112 0.055772133 0.09024315 0.15074123
000190 d0 4c ce bc dd d1 89 3b 63 de d6 bd 3f c8 4c bc
       -0.025183111 0.004205926 -0.10491636 -0.012498914
0001a0 e4 3b 98 bd f0 a9 9b 3d 70 f5 f2 bc a4 64 1a 3e
       -0.07433298 0.076007724 -0.02965805 0.15077454
0001b0 ef c9 ad bd a5 4c 28 3c 47 b9 56 3d d8 78 ff 3c
       -0.084857814 0.01027218 0.052422788 0.031185552
0001c0 08 52 b4 bd 3b c9 a2 bd 52 8a 10 3e cb 37 82 3d
       -0.08804709 -0.07948538 0.14115265 0.06358298
0001d0 91 a8 0f bd 20 36 73 3d 90 e4 15 3e 34 17 3b 3d
       -0.035072867 0.05937779 0.14637971 0.045676425
0001e0 18 05 34 bd 68 ed 54 3d 4a 8f ef bd c2 f0 e2 3d
       -0.04395017 0.05198422 -0.11697252 0.11081077
0001f0 b6 26 45 bd ad 1f fd bd 0a 0d 47 3a 84 cb 8b bd
       -0.04813262 -0.12359557 0.00075931905 -0.06825927
000200 8d 97 a6 bc 27 43 fa bc 51 10 c8 3b 13 ae d0 bc
       -0.020335937 -0.030549599 0.0061054607 -0.02547363
000210 a3 41 34 3e eb 00 51 bd df 9b 11 3e a4 4a 6e 3c
       0.17603163 -0.051026266 0.14219616 0.014544163
000220 79 8b 2c 3a 3d 87 1c 3e 87 32 f5 3d 4f a4 a3 bd
       0.00065820623 0.15285964 0.11972528 -0.07990324
000230 c9 b3 aa 3d 95 3c 1b 3e 8e d8 8e bb 04 9b 10 3e
       0.083350725 0.15159829 -0.0043593114 0.14121634
000240 a7 da af 3d 52 a7 27 3e d4 a6 a5 bd e1 48 01 be
       0.085866265 0.16372421 -0.080884606 -0.12625457
000250 bc b2 50 3b 17 8e 3f bb f1 32 e8 bd f6 2e ba bd
       0.0031844815 -0.002922898 -0.11337841 -0.09090988
000260 63 01 22 3e 1f dd c1 bd 1c 69 03 3e fa 21 fa 3d
       0.15820841 -0.094660036 0.12833065 0.12213512
000270 91 16 a3 bc b0 f3 04 bd e3 2a e2 bc ac 70 11 3e
       -0.019908221 -0.03245896 -0.02760834 0.14203137
000280 db 29 e4 3d 5f 2d de bd f5 05 c4 bd f7 bf b8 3d
       0.11140796 -0.108484976 -0.09571449 0.090209894
000290 4c c2 b4 bd ac dc c7 bc 7f 73 8e bc e2 02 13 3e
       -0.08826122 -0.024397217 -0.017389057 0.14356568
0002a0 f9 88 b4 bd 80 3f a8 bc 5e 68 34 3e 3b 7c 25 3e
       -0.08815188 -0.020538092 0.17617938 0.16160671
0002b0 af a2 0a be 21 70 e2 bd c7 53 e9 3d 77 c5 9c bd
       -0.13538621 -0.11056543 0.113929324 -0.07654851
0002c0 28 2e 12 3e 1c 59 3a 3d de c8 1e 3e d5 0b fa bc
       0.1427542 0.045495138 0.15506312 -0.03052322
0002d0 18 c8 2b 3d af 50 b6 bd 3f 9a d9 bd ec cf 62 bd
       0.04193887 -0.08902108 -0.10625123 -0.05537407
0002e0 0d 12 52 3e 73 2e 26 3e 7b 97 96 3d dd 27 11 3e
       0.20514698 0.16228656 0.07353111 0.14175363
0002f0 72 95 fc bd 2e 23 f6 3d 41 64 3a 3e b6 a9 13 bd
       -0.12333192 0.12018429 0.18202306 -0.03605052
000300 3e 97 c9 bd 10 a4 48 bd 49 21 27 3e c2 a8 83 bd
       -0.098433 -0.048984587 0.16321291 -0.064286724
000310 4d d9 c6 bc 2c bd 96 bd 51 bd 3e bd 7d 32 08 bd
       -0.024273539 -0.073603004 -0.046567265 -0.033251274
000320 c5 a9 0c 3d a0 dd e2 3d 02 17 3f bb 4c 9b d0 bd
       0.034341592 0.11077428 -0.0029158 -0.101858705
000330 50 0d 23 3e ff 2a 6b 3c 67 d6 bc bc de fd b3 bd
       0.15923047 0.014353513 -0.023051454 -0.08788656
000340 6c af c2 3b fb d6 48 3d 62 3a ec bd de 6c c1 bd
       0.005941322 0.049033146 -0.11534573 -0.09444593
000350 64 4d f6 3d 61 f7 a8 3d b8 0b d0 3a 76 73 3d bb
       0.1202648 0.08250309 0.0015872633 -0.0028907931
000360 d2 65 e3 bc 1d 83 f3 3c 2e 58 0a 3d b6 07 45 3d
       -0.027758513 0.029725606 0.0337755 0.048103057
000370 8c 6e 58 3d 9c db f4 3b de d4 8e 3d 45 6b 67 bd
       0.0528398 0.0074724685 0.06974195 -0.056498785
000380 6e ec 3c 3e 0c 7f c5 3d 80 1e f8 bc 17 4f 78 3c
       0.18449566 0.09643373 -0.030287981 0.015155575
000390 68 b6 fe bd 51 1a 4b bd 87 c0 6b bd 7e 87 d8 3d
       -0.12437135 -0.049585644 -0.057556655 0.10572718
0003a0 17 8c 60 3e ad d7 51 bd 0f 3f 40 3e 1a bf eb 3c
       0.2192844 -0.051231075 0.18774055 0.028777648
0003b0 c3 00 53 bd 34 ec 88 bd 5a 5c 84 3a 51 06 97 b9
       -0.0515144 -0.06685677 0.0010098324 -0.0002880567
0003c0 91 d2 16 bd bc 9a ad 3d a1 df 3a 3e a6 13 95 3d
       -0.036821906 0.08476779 0.1824937 0.07279138
0003d0 41 d8 28 3e 76 3d 0a 3d ca 1f 68 bc c5 40 20 3e
       0.16488744 0.03375002 -0.014167735 0.15649708
0003e0 d6 1b 2e 3e 35 50 63 bd 3e 15 32 bd 61 c0 3e 3e
       0.17002806 -0.055496413 -0.04347729 0.18628074
0003f0 79 d0 d2 3d b1 e9 28 3e 08 58 ee 3d ee b1 4b 3e
       0.10293669 0.16495396 0.116378844 0.19892094

weight f4 [32, 256]
000000 83 89 08 bc a5 bf 71 3c c6 a4 ec bc aa 72 ac 3c
       -0.008333567 0.014755164 -0.028887164 0.02105077
000010 e0 cd 47 3d 49 37 bd 3a a2 54 58 bb c2 fa f4 bc
       0.048780322 0.0014436032 -0.003300943 -0.029904727
000020 3b d5 ba 3c fc 64 2d bd 49 01 5e 3b 1e 8d 86 3d
       0.022806754 -0.042332634 0.0033875278 0.06569885
000030 75 1d 5d bc 9f b5 b9 bc 60 11 42 3b 2d 5e 82 bc
       -0.013495793 -0.022669611 0.0029612407 -0.015914047
000040 a2 b7 a8 bc 14 bc 12 39 cc cc 8a 3b bb 59 0f 3d
       -0.020595375 0.0001399371 0.0042358395 0.034997683
000050 86 0e 20 bd d8 70 ee 3c 69 a1 c6 bb d6 ef 8d bc
       -0.03907635 0.029106542 -0.006061722 -0.017326277
000060 8f 40 8e bc 66 88 6c 3d 71 54 f3 bc 71 77 84 bc
       -0.017364768 0.057747267 -0.02970335 -0.016170235
000070 71 d1 b6 bc e8 f6 17 3b 54 80 78 3d 6d cc 02 3d
       -0.022316666 0.002318794 0.06066926 0.031933237
000080 98 61 75 3d 1d 70 22 bb 2b 73 da 3b 59 57 59 3c
       0.059907526 -0.0024786063 0.006666561 0.013265454
000090 f6 ff 81 3d 7a c4 8f 3c ee cd 94 3b d1 2b 7c 3c
       0.06347649 0.017549742 0.0045411503 0.015391306
0000a0 96 11 2e 3d 9d 3e 07 bc 88 d3 9c bc f0 42 35 bb
       0.04249724 -0.008254674 -0.019143835 -0.0027658306
0000b0 bf 1d 1b bc be 8c d4 bc a4 0c 1f 3d 77 79 16 3c
       -0.009467541 -0.025946017 0.038830414 0.009184233
0000c0 d5 6b db bb 44 4a 57 bc 7a 44 40 3d f1 01 34 bd
       -0.006696204 -0.013140265 0.046940304 -0.043947164
0000d0 d7 a0 54 bd 92 1d 09 3d c4 5b 59 bc 5b 7c 82 3a
       -0.0519112 0.033475466 -0.013266508 0.0009955274
0000e0 94 fa 00 bd 0e ef ae ba 2c 91 1e bd 7c a8 91 3d
       -0.03148897 -0.001334639 -0.038712665 0.07112214
0000f0 04 9a b2 3b b3 ce 21 3d 81 57 40 bc e3 66 a6 b9
       0.005450489 0.039503764 -0.011739613 -0.00031738644
000100 76 2d b1 3b c5 8c 90 bc 31 13 0d bc be 46 eb bb
       0.0054070307 -0.01764525 -0.008610533 -0.007180064
000110 8a 3f 5c 3d 56 4a ed 37 64 90 d7 3b e0 40 ea 3c
       0.053771533 2.8287217e-05 0.006578492 0.028595388
000120 d9 7f 2b 3d 50 85 2a bd ef 08 91 bc 5c 5c 56 bc
       0.041869972 -0.041631043 -0.017704455 -0.013083544
000130 d8 f0 11 bd b1 bd 10 3c 9f 74 89 3d 3c 65 bf 3a
       -0.035630077 0.008834288 0.06711697 0.0014602314
000140 b7 54 c5 3c 8c 07 24 bc 61 85 83 bc b1 cd 09 bc
       0.024088247 -0.010011565 -0.016054811 -0.008410857
000150 fb 91 4f 3b 10 57 37 3c 0e e7 e8 bc 66 ef 0e 3d
       0.0031672704 0.011190191 -0.028430488 0.034896277
000160 0f 45 9a bc 53 c5 34 bb 1c 9d d1 bb f3 f9 ca 3c
       -0.018831758 -0.0027583435 -0.0063969027 0.024777388
000170 7c 74 0c bd 3a d3 5c 3d 85 82 2b bc 05 42 bb bc
       -0.034290776 0.05391238 -0.01046813 -0.022858629
000180 99 76 ab bb 18 79 04 3b be be 11 3c 44 e5 f8 3c
       -0.005232644 0.002021378 0.008895574 0.03038276
000190 35 48 68 3d fa 12 d7 39 44 35 66 3c df b8 02 bb
       0.056709487 0.00041022134 0.014050785 -0.0019946618
0001a0 90 07 60 bc dc eb f1 bc ee 2a 8c 3a 68 cc 85 3d
       -0.013673678 -0.029531412 0.0010693946 0.06533128
0001b0 e8 4a f2 bc 7b a1 c7 b8 8e 5c 92 3b 84 2a b6 bc
       -0.029576734 -9.5191375e-05 0.0044666 -0.02223707
0001c0 e3 ef 11 bd 7f a8 9d 3c 69 94 c9 bb 1c 5a bb bc
       -0.035629164 0.019245384 -0.006151725 -0.022870116
0001d0 b9 8a 72 bc bc db 37 bc e0 a1 84 3d 9b 86 e4 38
       -0.014803582 -0.011221822 0.06476188 0.000108969594
0001e0 f7 9b 33 bc 49 27 b8 3c c6 a4 88 3c f9 24 c7 3b
       -0.010962478 0.02247967 0.016680133 0.0060774055
0001f0 62 c0 11 3c db a7 71 bc 04 46 96 3b ae ac 93 3c
       0.008895965 -0.0147494925 0.004585983 0.018026676
000200 da e8 bd bc 6d 1c 11 3b 93 38 46 3b cb 80 11 bc
       -0.023182321 0.0022142187 0.0030246123 -0.008880804
000210 6f 07 95 3d 69 c3 52 3b 5f 9b fb bc fd 35 a9 3c
       0.072768085 0.003215993 -0.030713735 0.020655626
000220 16 7c 24 ba 23 5f 38 bd 5e 56 53 3d a9 eb ac b8
       -0.0006274594 -0.045012604 0.051596038 -8.245494e-05
000230 66 4c c5 bc 14 1c 29 3d 9d ae 84 bc 7d 57 68 3d
       -0.024084281 0.041286543 -0.016196543 0.05672406
000240 69 4f a0 3b a7 09 95 3b 4f 91 0b bd 03 e2 fc bc
       0.004892279 0.00454827 -0.034074124 -0.03086949
000250 6b c2 bf 3b f9 14 1e b8 19 8d d6 bc 78 05 88 bb
       0.005852034 -3.7689668e-05 -0.026190327 -0.0041510426
000260 19 6e 30 ba b7 e2 f3 bc d5 a5 fa 3c 19 c4 63 bc
       -0.0006730273 -0.029771192 0.030596653 -0.013901734
000270 b6 2d 5f 3c e9 e6 ea bb aa 51 1e 3b 1d 4d b7 3b
       0.013621738 -0.00716864 0.0024157562 0.0055939094
000280 2b d6 85 3c af 89 c3 3c 9d ed ab bc 7b 78 a9 3c
       0.016337475 0.023869364 -0.020987326 0.020687332
000290 75 eb 27 3b 68 5e 87 bb 83 26 ae 39 14 8a 85 3c
       0.002562252 -0.004131127 0.0003321656 0.016301192
0002a0 7c d3 ce bc 3a 3e 29 3d 00 1a 90 bc f6 b2 82 3d
       -0.025247328 0.04131911 -0.017590523 0.0638179
0002b0 d5 68 54 3c 23 cc 31 bb fc 11 cc bb 2c c9 96 3c
       0.012964447 -0.0027129732 -0.00622773 0.018406473
0002c0 ad 23 ad bc b7 ed 96 bc c8 55 b0 bc e5 d4 7d ba
       -0.021135176 -0.018423898 -0.021525279 -0.0009682908
0002d0 5a 5f 29 3d b9 3e 54 bc 07 84 68 ba 2b 78 80 3b
       0.0413507 -0.012954407 -0.0008869771 0.003920575
0002e0 db 37 01 3c 07 1a 34 3d 63 92 63 3b 04 25 a2 bc
       0.007886852 0.043970134 0.0034724704 -0.019793041
0002f0 c9 bb 0b 3c 8a 68 a5 3a 8c fa 14 3c b5 71 8e bb
       0.008528658 0.0012619656 0.009092938 -0.004347051
000300 d0 6c a1 3c 26 f3 5e 3c 21 b1 21 3d 45 73 97 bc
       0.019705206 0.013607776 0.039475564 -0.018487582
000310 90 40 eb ba 5e c7 3a 3b b5 e1 75 ba b6 3b c8 bc
       -0.0017948318 0.002850018 -0.0009379641 -0.024442535
000320 02 13 af 3c c7 a6 79 3d c7 ed 1d 3a 92 33 29 3c
       0.021371368 0.060950067 0.00060245063 0.010327237
000330 88 1f 5a 3d 02 dc fb bc d2 74 4f bc 91 cb a0 3c
       0.053252727 -0.030744556 -0.0126621295 0.019628318
000340 5c fa 86 bb 72 84 36 bd 04 1b 2d bd 06 ce 4b 3c
       -0.0041192006 -0.044559903 -0.042262092 0.0124392565
000350 4e 9d 85 3c 03 54 28 3d 9a 66 c2 bc 3c a2 26 ba
       0.01631036 0.041095745 -0.023730565 -0.0006356572
000360 f8 c4 7b bb 35 14 e7 3c 8f 07 da bc af 66 a1 bc
       -0.0038416963 0.028207878 -0.026614932 -0.019702284
000370 9c 2e 74 bc f4 b2 d2 3a 0f 94 a7 3b 86 2c 61 3a
       -0.014903691 0.0016075061 0.0051140855 0.00085897034
000380 a3 e3 5a 3d c6 c6 90 3d dc 0e 03 bc 16 30 bf 3c
       0.053439748 0.07069163 -0.007999148 0.023338359
000390 7e 08 a9 bc 9b 51 57 bc 7d 93 bc bb 7d ac 6c 3d
       -0.020633932 -0.013142015 -0.0057548867 0.057781685
0003a0 21 11 09 3d 2c f3 6a bb d1 a9 12 bd e3 fe 8b bc
       0.0334636 -0.0035850508 -0.03580648 -0.017089313
0003b0 51 e7 10 3a aa dc f3 3c d3 89 a8 3a 47 46 cc b9
       0.0005527633 0.029768307 0.0012858458 -0.00038962273
0003c0 69 a8 db 3b 4a 38 61 3c 47 e2 22 3d 05 13 82 3b
       0.0067034257 0.0137463305 0.039766576 0.0039695525
0003d0 92 a1 3d 3d c0 5b 16 3d 74 53 44 bc 11 b6 ca 3c
       0.046296664 0.036708593 -0.011982787 0.02474502
0003e0 a8 8b c0 3c a0 56 55 3c 17 a0 f1 bc 09 ad 64 3d
       0.023504093 0.013021141 -0.029495282 0.05582908
0003f0 fe 5b 80 3c e7 9d ae 3c ca bd ee 3c ee a8 19 bd
       0.015668865 0.021315528 0.029143233 -0.03751462

bias f4 [32]
000000 14 57 cb bb d7 3e 8e 3d 83 aa c0 bc c3 65 2a 3d
       -0.006205449 0.069455795 -0.023518806 0.041600954
000010 2c 3b 95 bc 63 31 78 3d 58 b3 49 3d 1e 0f 0a 3d
       -0.018216692 0.060593974 0.0492433 0.033705823
000020 a5 fb 55 3c ed a8 ad bc e9 e8 82 3b 8c 6c 82 3c
       0.013060485 -0.021198714 0.00399505 0.0159209
000030 35 b0 04 bc 5c 7e 44 3d 44 e8 c2 3c 1c 03 6c 3d
       -0.008098652 0.04797207 0.023792394 0.057620153
000040 80 35 b3 3c 26 5e af bc 86 97 a0 3c a0 ae 3a 3d
       0.021876097 -0.021407198 0.019603502 0.04557669
000050 2d 31 3f bb c2 60 b7 bb de 56 a0 3c 2a 39 07 bd
       -0.0029173598 -0.005596251 0.019572672 -0.0330135
000060 39 33 8a 3c 25 e4 0e bd e6 f4 04 3d b5 8a 44 3d
       0.016870128 -0.034885544 0.032460116 0.047983844
000070 e1 34 0d bd a7 f3 64 3d dc ca 6b bd de dc e5 3b
       -0.034474257 0.055896427 -0.05756651 0.007014855

weight f4 [1, 32]
000000 b3 25 2f 3e 5a ff 04 3e d4 d8 48 bd 0c 46 85 3d
       0.17104225 0.12988034 -0.04903491 0.06507501
000010 d1 08 25 bd a3 85 cb 3d ec db 00 3e 1e b2 b4 3d
       -0.04029161 0.099375986 0.12583894 0.08823036
000020 8e 8a 84 3c f7 41 f9 bd 0b 26 b5 3d 54 1c a1 bd
       0.01617935 -0.12170785 0.08845147 -0.07866731
000030 01 87 3a 3e 67 93 81 bd 6f e2 70 bd aa a1 21 3e
       0.18215562 -0.06326943 -0.058809694 0.15784326
000040 41 04 85 bd c2 35 8a 3b 09 c9 ea bd bc 52 02 be
       -0.06494952 0.004217834 -0.11464126 -0.12726873
000050 53 54 1a 3c a1 ec 30 bd a6 f5 f0 3d d9 d7 b1 bd
       0.0094195185 -0.043194417 0.11765604 -0.08683748
000060 f7 03 8f 3d 5d ab 2c 3d 2a 40 06 3e 02 3c fc 3d
       0.06983178 0.042155612 0.13110414 0.12316133
000070 67 17 ca bd 66 93 37 3d cf bd 28 be 06 29 9c 3d
       -0.09867745 0.044818304 -0.16478656 0.07625012
