ckpt/TC1_only_MLP-best.pt (torch, 106386 bytes, 11 tensors)

weight f4 [256, 7]
0	0xbbf6dee5	-0.0075338953
1	0x3de23a1c	0.1104624
2	0xbe5d6b26	-0.21622905
3	0xbe3c8844	-0.18411356
4	0xbd72706d	-0.05918925
5	0x3cbc3630	0.022975057
6	0x38084f80	3.2498967e-05
7	0x3e51e099	0.20495833
8	0xbb8a9965	-0.004229712
9	0x3cb44381	0.022004845
10	0xbd06485f	-0.032783862
11	0xbbcc3deb	-0.006232967
12	0xbe87d6f0	-0.26531172
13	0xbe20e9a7	-0.15714131
14	0xbd8bd941	-0.06828547
15	0x39df43e4	0.00042584457
16	0x3d803035	0.06259195
17	0x3e09c204	0.13452917
18	0xbe26c43c	-0.16285795
19	0xbd9c204a	-0.07623346
20	0x3d54cee1	0.051955108
21	0x3e6021f4	0.21887952
22	0xbc239ead	-0.009986562
23	0x3e4130c7	0.18866263
24	0xbaa5ec25	-0.0012658878
25	0xb9430965	-0.00018600149
26	0x3e7cb2ab	0.24677531
27	0xbe8291fa	-0.25501996
28	0xbe14b380	-0.14521599
29	0xbc99d060	-0.018776119
30	0xbd78c8ee	-0.060738496
31	0x3e6cf17e	0.23138997
32	0xbe1ba674	-0.15200216
33	0xbdadc01f	-0.0848391
34	0xbe2e853b	-0.17043011
35	0xbe84421f	-0.25831696
36	0xbe03aef1	-0.12859704
37	0x3e6b45d7	0.2297586
38	0x3da3b908	0.07994276
39	0x3dbf2e83	0.09335043
40	0xb8896038	-6.550591e-05
41	0xbdd36dbf	-0.10323667
42	0x3b143a56	0.0022617779
43	0xbe83b0fa	-0.2572096
44	0xbe3780c3	-0.17920212
45	0xbdd57f02	-0.104246154
46	0x3e153ac0	0.14573193
47	0x3e04b12d	0.12958212
48	0xbda1cba0	-0.079001665
49	0xbbb2929c	-0.005449606
50	0x3e16e400	0.14735413
51	0x3e8f3b66	0.27975005
52	0x3d814076	0.06311123
53	0xb9ae4987	-0.00033242648
54	0x3e23fa75	0.1601351
55	0xbe059bc9	-0.13047709
56	0x3b96a599	0.0045973775
57	0xbe4b4ed9	-0.19854297
58	0xbe2c7021	-0.16839649
59	0xbdd642f9	-0.10461993
60	0x3da82898	0.08210868
61	0x3d84e3bc	0.064887494
62	0xbe06eba1	-0.13175823
63	0x3d056dc3	0.03257538
64	0x3dec5920	0.11540437
65	0x39f16055	0.00046038875
66	0x37fa3f95	2.983193e-05
67	0x3c5ee77c	0.013604995
68	0x3e114df0	0.14189887
69	0x3e88c33b	0.2671145
70	0xbe4997f7	-0.19686876
71	0xbd58b5e7	-0.05290785
72	0x3d7d2f02	0.06181241
73	0x3e5f80b6	0.21826443
74	0x3e6f4c89	0.2336904
75	0x3e73e988	0.23819554
76	0x3bdad60b	0.006678348
77	0xbe6f0d89	-0.23345007
78	0x3a8112bb	0.0009847501
79	0xbe133f33	-0.14379577
80	0xbe8362a9	-0.2566121
81	0x3e763e34	0.24047166
82	0x3e45bb23	0.19309668
83	0xbe8fe134	-0.28101504
84	0x3b9854e9	0.004648794
85	0xbb017a08	-0.0019756574
86	0xbad2d35d	-0.001608472
87	0xbdabea64	-0.08394316
88	0x3d719f8e	0.058990054
89	0xbe06e6ff	-0.13174056
90	0x3d5953b1	0.05305833
91	0x3dcd9856	0.100388214
92	0x3e33b83a	0.17550746
93	0x3d632d2d	0.055463005
94	0xbe8e64ba	-0.27811223
95	0xbe1bd7d6	-0.15219054
96	0x3dc9be2d	0.09850726
97	0x3c0e0fb4	0.008670736
98	0xbe4d2865	-0.2003494
99	0xbe00b88c	-0.12570399
100	0x3e850f3e	0.2598819
101	0x3e253956	0.16135153
102	0xbd9c85b4	-0.07642689
103	0xbc981ab5	-0.018567422
104	0xbe8750d0	-0.26428843
105	0x3987bc9e	0.00025889737
106	0xbe42ec33	-0.19035415
107	0xbe49e114	-0.19714767
108	0x38d1422f	9.978224e-05
109	0x39bd638f	0.00036123066
110	0xbd89fdb2	-0.06737842
111	0x3e074caa	0.13212839
112	0xbe0d5eb9	-0.13805665
113	0x3e7ca403	0.2467194
114	0x3e298550	0.16554761
115	0xbe6515dd	-0.22371621
116	0xbc922f31	-0.017844768
117	0x3888c663	6.521938e-05
118	0x38d76fd2	0.00010272827
119	0x3c776539	0.015099817
120	0x3d8c834b	0.0686098
121	0xb8f116d1	-0.000114960254
122	0xbdc18695	-0.094494976
123	0x3db6efe4	0.08932474
124	0xbe889525	-0.26676288
125	0xbe070d24	-0.13188607
126	0xbc94e0fa	-0.018173683
127	0xbdc0c69b	-0.09412881
128	0xbd4309f1	-0.047616903
129	0xbe5c1f40	-0.21496296
130	0xbc199003	-0.009372714
131	0x3c1d2226	0.009590661
132	0xbe1ce026	-0.15319881
133	0xbaccd8b6	-0.001562855
134	0x3e36a9b0	0.17838168
135	0x38e9b19d	0.00011143389
136	0x373cf9ca	1.1263832e-05
137	0xb946aa11	-0.00018946106
138	0x3bef8328	0.007309336
139	0x3e170da6	0.147513
140	0x3e8635f9	0.26213053
141	0x3e15c98c	0.14627665
142	0x3e86b584	0.2631036
143	0xb8a9829e	-8.082877e-05
144	0xbe79fa64	-0.24411923
145	0xbdb792d2	-0.089635506
146	0x3e27e030	0.16394114
147	0xb9c4e7f4	-0.00037556852
148	0xbdc7f864	-0.097641736
149	0xbe47f9ca	-0.1952888
150	0xbe842091	-0.25806096
151	0xbe655c4b	-0.22398488
152	0xbbf25c94	-0.00739629
153	0x3ded7d06	0.11596112
154	0x3de7da4e	0.11320935
155	0xbe898bba	-0.26864415
156	0x3e1291c3	0.14313416
157	0xbe4e16da	-0.20125905
158	0xbc152102	-0.009102108
159	0xbd872de3	-0.06600549
160	0xbbb582ea	-0.005539288
161	0xbbc7fff4	-0.00610351
162	0xbe79921b	-0.24372141
163	0xbe6cbac6	-0.23118123
164	0xba5c1c98	-0.0008396595
165	0xb7850167	-1.5855489e-05
166	0xbda9705c	-0.08273384
167	0x3d66f33c	0.05638431
168	0xbe7aa0d3	-0.24475412
169	0x3ab17646	0.0013539277
170	0x3e72cbeb	0.23710601
171	0xbd88dad6	-0.06682365
172	0x3e7bc201	0.24585725
173	0x3d536324	0.05160822
174	0xbe7b8d34	-0.24565583
175	0x3e15ce2e	0.14629433
176	0xbb6885c3	-0.0035480119
177	0xbda3db52	-0.080008164
178	0x3e54914d	0.20758553
179	0xbe57c29b	-0.2107033
180	0xb968f48a	-0.00022216342
181	0xbc0e4917	-0.008684418
182	0x3e341133	0.17584686
183	0x3ce61b4c	0.028089188
184	0x3dbc2f5a	0.09188719
185	0x3d476e1f	0.048689004
186	0xbc80d362	-0.015725795
187	0xbc116957	-0.008875213
188	0xbe5dcf8e	-0.21661207
189	0x3de757cf	0.11296045
190	0x3e509603	0.20369725
191	0x3e291e34	0.16515428
192	0xbe310c3e	-0.17289826
193	0x3891297b	6.921865e-05
194	0xbe30e199	-0.17273559
195	0xbdef02e3	-0.116704725
196	0xbe0389d3	-0.12845545
197	0x3d390e3c	0.04517959
198	0xbe083cbd	-0.1330442
199	0x37551465	1.2700538e-05
200	0x38a22bbb	7.7329074e-05
201	0x3e1a5317	0.15070759
202	0xbe440eb1	-0.1914623
203	0xbe29f631	-0.16597821
204	0xbe0287d9	-0.12747134
205	0x3e2f015e	0.17090365
206	0xbd4fcd1b	-0.050732713
207	0x3e6529da	0.22379246
208	0x3d52a877	0.05143019
209	0xb9f1576e	-0.00046032242
210	0x35584976	8.057317e-07
211	0xbbd42bb5	-0.006474937
212	0xb9f39626	-0.0004646044
213	0xbc520543	-0.012818637
214	0x373a93b3	1.1120853e-05
215	0xb9ee3f4c	-0.00045442057
216	0xbe4df976	-0.20114693
217	0xbddd3576	-0.108012125
218	0x3e55fe4c	0.20897788
219	0xbe591110	-0.21197915
220	0xb89525d7	-7.111922e-05
221	0x3e8e4c7d	0.2779273
222	0x3d5229da	0.051309444
223	0xb47cdd83	-2.3549914e-07
224	0xbe6e186a	-0.232515
225	0x3dc38dc6	0.095485255
226	0xbe33a397	-0.17542873
227	0xbce06d55	-0.027395884
228	0xbd3054ce	-0.043049626
229	0xb970d9cf	-0.00022969324
230	0x37764eb7	1.468107e-05
231	0x3e5dfc0d	0.21678181
232	0xbbfe3195	-0.0077573755
233	0x3e78fa97	0.24314342
234	0x3e0e16c9	0.1387588
235	0xbe15b44c	-0.14619559
236	0x3da5579f	0.08073353
237	0xbe319e14	-0.17345458
238	0xbd948594	-0.072520405
239	0x3d002dd2	0.031293698
240	0x3d2975fe	0.04137229
241	0x3e41e993	0.18936758
242	0xbd1ee350	-0.038791
243	0x35947ab3	1.106257e-06
244	0x3dd4fb9d	0.10399554
245	0xbe8a3d24	-0.26999772
246	0x3e35e1aa	0.17761865
247	0xbe5ee318	-0.21766317
248	0xb7ad5012	-2.0660493e-05
249	0xbb11d0f7	-0.0022249797
250	0xbddd9add	-0.108205535
251	0xb9cfdcfd	-0.00039646766
252	0x3e5edae1	0.21763183
253	0xbcfabc7e	-0.030607458
254	0xbe076aa2	-0.13224271
255	0xbd5db09b	-0.054123502

bias f4 [256]
0	0x3e5315aa	0.20613733
1	0x3ddc34c1	0.107522495
2	0x3d83886d	0.064225055
3	0xbca902ee	-0.02063128
4	0x3de0d77c	0.109786004
5	0x3dbc7238	0.09201473
6	0x3d3e3b47	0.04644325
7	0x373d1b3b	1.1271618e-05
8	0x39a2ad9b	0.00031028394
9	0xb4836b92	-2.447892e-07
10	0xbe38b0ca	-0.1803619
11	0x3c609623	0.01370767
12	0xbe3c3bc8	-0.1838218
13	0x3dbf8fe6	0.09353618
14	0xbe0832e6	-0.13300666
15	0xbd24ebca	-0.04026393
16	0xbdb7b31f	-0.089697115
17	0x3e50a8a6	0.20376834
18	0xbe309cdd	-0.17247339
19	0x3dd1ed2b	0.10250314
20	0x3dcb5859	0.0992896
21	0x3e31af3a	0.17352
22	0x3c95b499	0.018274592
23	0x3deb1a36	0.11479609
24	0x3e511ba0	0.20420694
25	0x3bcea8b3	0.0063067316
26	0x3d362d38	0.044476718
27	0xbe4ddf3f	-0.20104693
28	0xbcbc6026	-0.022995066
29	0x3917e7dd	0.00014486858
30	0xb9eed166	-0.0004555091
31	0xbd479e65	-0.04873504
32	0xbe8eb2f6	-0.2787091
33	0xbcaa33a5	-0.02077658
34	0x3d6f4990	0.058419764
35	0x3e6bd4cd	0.23030396
36	0xbe7bc48a	-0.24586692
37	0x3db9fb29	0.09081108
38	0xbe869b40	-0.2629032
39	0xbe88056d	-0.2656664
40	0xbe137c04	-0.14402777
41	0x39d0ad30	0.00039801886
42	0x3cd5ba37	0.02608977
43	0xbe45c9c4	-0.19315249
44	0x3e498881	0.19680978
45	0x3e7c4098	0.24634016
46	0xb8d73e1d	-0.000102635684
47	0x3e59fcff	0.21287917
48	0xbda854aa	-0.082192734
49	0xbd805dd8	-0.06267899
50	0x39e75a52	0.00044127047
51	0xb98c896a	-0.00026805262
52	0xbe2e2001	-0.17004396
53	0xbe54fa3b	-0.2079858
54	0x3d7ff622	0.06249059
55	0x3ceafe05	0.02868558
56	0x3e8c350b	0.2738422
57	0xbd88bb25	-0.0667632
58	0x3d4767ab	0.04868285
59	0xbd85d776	-0.065352365
60	0x3dc5a67f	0.09650897
61	0x38d77647	0.0001027403
62	0x3e3e8d92	0.18608692
63	0x3df2bdbe	0.11852597
64	0x3e60f10a	0.21966949
65	0x3dd44f01	0.10366631
66	0x3793e6f1	1.7631306e-05
67	0x3e6c18ff	0.2305641
68	0xbe051575	-0.12996466
69	0x3e8585fe	0.2607879
70	0x3e8c0042	0.27343947
71	0x3e87d2fc	0.26528156
72	0xbdb29851	-0.08720458
73	0xbddfed61	-0.10933948
74	0xb8af1bd9	-8.349837e-05
75	0x3d11a584	0.03555824
76	0x3dcb6a4a	0.099323824
77	0x3d8807e8	0.06642133
78	0x3e68326c	0.22675484
79	0xbc95ad01	-0.018270971
80	0xbd26be2a	-0.0407087
81	0x3d2febd5	0.042949516
82	0x3cd444f3	0.025911784
83	0xbe039648	-0.12850296
84	0x380d1bb2	3.3642813e-05
85	0xbe455005	-0.19268806
86	0xbcf71151	-0.030159624
87	0xbd7c727d	-0.061632622
88	0x3e71b834	0.23605424
89	0xbe7aae93	-0.24480657
90	0xbe063546	-0.1310626
91	0xbe8c46aa	-0.27397662
92	0x3c993628	0.018702582
93	0xbe493ff1	-0.19653298
94	0x3d20f40a	0.039295234
95	0xbe2d0276	-0.1689547
96	0xbe18d198	-0.14923704
97	0xbdd21dd9	-0.10259599
98	0x39bab9d1	0.0003561513
99	0x3e80e5e4	0.25175393
100	0x3e844a7e	0.25838083
101	0xb90e34e5	-0.0001356188
102	0xbe8c70fb	-0.27429947
103	0xbd29b274	-0.04142995
104	0xbd6cef3e	-0.057845347
105	0xbc197f7f	-0.009368776
106	0x3d6e4380	0.05816984
107	0x3dcc9430	0.09989202
108	0x3da1b5db	0.07896014
109	0x3ce4af13	0.027915513
110	0xbd86bbae	-0.06578766
111	0xb6f804af	-7.391521e-06
112	0xb9ef685d	-0.0004566339
113	0xbdd20dfe	-0.10256575
114	0xb9286828	-0.0001606053
115	0x39f4182d	0.0004655732
116	0xbe85d545	-0.26139274
117	0x3e26c275	0.16285117
118	0x38903711	6.876712e-05
119	0xbe6d1e11	-0.23156
120	0x3e515cc1	0.20445539
121	0xbde5ed35	-0.11226884
122	0x3d4899ff	0.048974987
123	0x3e8ec541	0.27884868
124	0x38511fb8	4.9859023e-05
125	0x3ce982b8	0.028504714
126	0x3d818f1a	0.063261226
127	0x3e44023b	0.19141476
128	0xbd0bf638	-0.03417036
129	0xbdf7fe3c	-0.12109038
130	0xb932dbf2	-0.00017057339
131	0x3e4dea8d	0.20109005
132	0x39480eae	0.00019078955
133	0x3e2d15b0	0.16902804
134	0x369c8d4c	4.6656114e-06
135	0x3d0bf562	0.034169562
136	0xb819d901	-3.6680143e-05
137	0x37ca4621	2.4112933e-05
138	0xbe872118	-0.26392436
139	0xbe70d3d8	-0.23518312
140	0x394f1d58	0.0001975199
141	0x3dc693c9	0.096961565
142	0x3e2473ab	0.16059749
143	0x38a376b7	7.794558e-05
144	0x3d9257cb	0.071456514
145	0x3d900c96	0.070336506
146	0xbe6ca8c2	-0.23111251
147	0xbe729ca7	-0.2369257
148	0xbe4b6279	-0.19861783
149	0x379e27c8	1.8853592e-05
150	0xbe15be0b	-0.14623277
151	0xbd1c79c3	-0.03820206
152	0xb9aafd0f	-0.0003261347
153	0x3d7947c2	0.06085945
154	0x3c5f8039	0.0136414105
155	0x3e82923d	0.25502196
156	0x3e7b5f72	0.24548128
157	0xbe17d765	-0.1482826
158	0x3665943d	3.4209945e-06
159	0x3adad82f	0.0016696508
160	0x3e705bc7	0.2347251
161	0xbd0fce92	-0.03510911
162	0xbd7d2c4a	-0.061809815
163	0xbe162a9a	-0.14664689
164	0x3e3ce119	0.18445243
165	0xbcdf1e03	-0.02723599
166	0xbd640281	-0.05566645
167	0x3e262db7	0.16228376
168	0x3e812454	0.2522303
169	0xb8a3caa6	-7.810192e-05
170	0xbe30dee6	-0.17272529
171	0x3e5a4a98	0.21317518
172	0xbd38c4ae	-0.045109443
173	0xbdae19eb	-0.08501037
174	0xbe302a1a	-0.1720356
175	0xbdbc7e9e	-0.09203838
176	0xbe4e564d	-0.20150109
177	0xbe01550a	-0.12630096
178	0xbe7ec856	-0.2488111
179	0xbbea5c7f	-0.0071521397
180	0x3d84d4ad	0.06485877
181	0xbe454404	-0.19264227
182	0x34e4df79	4.2630907e-07
183	0xbd5c3de0	-0.053769946
184	0x3dbe7b1b	0.09300824
185	0x3e6dbf7f	0.23217581
186	0x39cbcdc8	0.00038872496
187	0xbdcca038	-0.09991497
188	0xbe48bffe	-0.19604489
189	0xbe0522b1	-0.13001515
190	0x3cebefe9	0.028800922
191	0x3c563483	0.013074043
192	0x3de64271	0.112431414
193	0xb988de19	-0.00026105417
194	0x3dd4437d	0.10364435
195	0xbe772a99	-0.24137343
196	0x3cbdb458	0.023157284
197	0x3e8ac84c	0.2710594
198	0xbe8e62f1	-0.2780986
199	0xbdd81c82	-0.105523124
200	0x3e18aa52	0.14908722
201	0xba594300	-0.0008287877
202	0xbde24071	-0.110474475
203	0x3e0d7a57	0.138162
204	0xb7b5d9e4	-2.1678345e-05
205	0x384844d3	4.7747813e-05
206	0xbd0826b3	-0.03324003
207	0x3e431f5a	0.19054928
208	0x3df219ff	0.118213646
209	0x3b603a5c	0.0034214472
210	0x3a0c0ea9	0.00053427607
211	0x3dd6a1cf	0.10480081
212	0x3e12484d	0.14285393
213	0xbd8a74f5	-0.06760589
214	0x398fe853	0.0002744818
215	0x3d9ea2c2	0.07745887
216	0xbdbf1d38	-0.09331745
217	0x3e83f97c	0.2577628
218	0xbe296891	-0.16543795
219	0x3dae8b75	0.08522693
220	0xbe35e788	-0.17764103
221	0x3d1dcf62	0.038527854
222	0x3e2e7398	0.17036283
223	0xb9ec9283	-0.00045122587
224	0x3845d7e9	4.7169542e-05
225	0x3e1714b8	0.14753997
226	0xbe35cd68	-0.17754138
227	0xbe258a8f	-0.16166137
228	0xbe6880cc	-0.22705382
229	0xbe0f8326	-0.14014873
230	0x3828743a	4.0162566e-05
231	0xbda8d979	-0.082446046
232	0x3c3d41e4	0.011551354
233	0xb856ed8a	-5.12428e-05
234	0x3e60e83c	0.2196359
235	0xbd9ad202	-0.07559587
236	0xbcc880b0	-0.024475425
237	0x3e2094bd	0.15681739
238	0xbc9a98f8	-0.01887177
239	0x3e883abd	0.26607314
240	0xbd8174f1	-0.06321133
241	0xb77b5ab0	-1.4981881e-05
242	0xbc73693d	-0.014856634
243	0x3db22f4c	0.087004274
244	0x3d6fbb5e	0.058528297
245	0xbde1e033	-0.11029091
246	0x3e1faa4e	0.1559231
247	0x38a6c6d8	7.952534e-05
248	0xbc9aa582	-0.018877748
249	0x380c9715	3.3519307e-05
250	0x3e2d828b	0.1694433
251	0x3e8cb779	0.2748373
252	0x3dc08fe5	0.09402446
253	0x3b3ad5e5	0.0028508839
254	0x3e1d4fc0	0.15362453
255	0xbd90003b	-0.07031294

weight f4 [32, 256]
0	0xbbd663de	-0.006542667
1	0xbbc4b7ff	-0.0060033794
2	0x3a7f0ea6	0.0009729661
3	0xbbc62ac1	-0.006047577
4	0x3ba59258	0.005052846
5	0x3bcddeb2	0.006282651
6	0x3bc4603a	0.0059929164
7	0xbbc68f5d	-0.0060595707
8	0x3ba68d38	0.0050827526
9	0xbbb361ec	-0.0054743197
10	0x3b81bbf4	0.0039591733
11	0x3b72f814	0.0037074136
12	0x39217a60	0.00015399745
13	0xbbcf53d3	-0.0063271313
14	0x3bc75991	0.006083675
15	0x3bcdeb83	0.0062841787
16	0xbbd31ab7	-0.0064423936
17	0xbb86d1a5	-0.004114347
18	0x3ae6cca2	0.0017608593
19	0xbbdcb5a2	-0.0067355195
20	0xbbbf0913	-0.005829939
21	0x3b9f869c	0.0048683416
22	0x3bd0c0c0	0.006370634
23	0x3bbf0291	0.0058291634
24	0x3b20b7ef	0.0024523695
25	0xbbd2269d	-0.0064132945
26	0xbbcea32e	-0.0063060736
27	0xbbcf4ac3	-0.006326051
28	0xbbd0fae5	-0.006377565
29	0x3bb93d06	0.0056530265
30	0x3aaf0a11	0.001335444
31	0xbbd8d720	-0.006617442
32	0xbbe0b68f	-0.0068577
33	0xbbbbf17c	-0.0057355743
34	0xbbaa2bb3	-0.0051931976
35	0xbbdd694c	-0.006756937
36	0xbbac4839	-0.005257633
37	0x3bbd5b43	0.0057787015
38	0xbbd99842	-0.006640465
39	0x3b82f82f	0.003996871
40	0x3bbaedde	0.0057046255
41	0x3a723b16	0.0009240372
42	0x3ba3094c	0.0049754735
43	0x3b6f6f4e	0.0036534849
44	0xbb664e2c	-0.003514181
45	0x3b63eca8	0.003477851
46	0x3b9339da	0.0044929804
47	0x3bd36c35	0.0064521083
48	0xbbcf5267	-0.006326962
49	0x3bc25b0a	0.005931263
50	0xbbcd756c	-0.0062701013
51	0x3b97ea88	0.0046361126
52	0xbc29bc06	-0.01035977
53	0x3bc49929	0.0059997034
54	0xbbd36a39	-0.0064518717
55	0xbbcac12d	-0.006187579
56	0x3b94d72a	0.004542251
57	0xbbc010d0	-0.005861379
58	0xbbd5193c	-0.0065032523
59	0x3bcd2b5c	0.0062612724
60	0x3b88b977	0.0041724998
61	0x3b8eff79	0.004363951
62	0x3bb9f4ae	0.00567492
63	0x3ba37c79	0.0049892035
64	0x3bc64fc7	0.0060519907
65	0xbbaeefe5	-0.0053386563
66	0x3bc6ae74	0.006063277
67	0xbbc7642d	-0.00608494
68	0xbbdbb588	-0.00670499
69	0xbbbcafa0	-0.005758241
70	0xb9c7e2f9	-0.00038125346
71	0xbbd00b79	-0.006349024
72	0x3bb71ac6	0.0055879084
73	0x38ef5345	0.00011411918
74	0xbbb38cef	-0.005479447
75	0xbbd21813	-0.0064115613
76	0x3bd2959d	0.0064265267
77	0x3ba9ea98	0.0051854365
78	0x3a701a82	0.00091592234
79	0x3a866e5c	0.0010256278
80	0x3b9b42ef	0.0047382037
81	0xbc015df3	-0.007895934
82	0xbbdc29cb	-0.0067188493
83	0x3bc8c076	0.0061264588
84	0xbbed7678	-0.0072467886
85	0x3bccc96c	0.0062495973
86	0xbbbfe852	-0.005856552
87	0xba501318	-0.00079374155
88	0xbbb53061	-0.005529449
89	0x3b3d901b	0.0028925005
90	0xbbcc0858	-0.0062265806
91	0x3bd69960	0.0065490454
92	0xbbbfa6cf	-0.0058487426
93	0xbb812301	-0.0039409404
94	0xbbd2d97c	-0.0064346176
95	0xbbbe0a62	-0.0057995776
96	0xbbdc9bc5	-0.0067324364
97	0xbbd14438	-0.006386306
98	0x3bccf425	0.0062546902
99	0xbbc2518b	-0.005930131
100	0xbbf3da0a	-0.0074417638
101	0x3ba9f224	0.005186336
102	0xbbd13f49	-0.006385718
103	0x3a978cd9	0.0011562362
104	0x3b9a39b2	0.004706585
105	0xbbc6114d	-0.006044543
106	0xbbad5ce3	-0.005290614
107	0x3bc26576	0.0059325052
108	0xbbcf4e66	-0.0063264845
109	0xbc1d73c2	-0.009610118
110	0x3bca76bb	0.0061787046
111	0xbbd8d598	-0.0066172592
112	0x3b5529cf	0.003252614
113	0xbbd5b035	-0.0065212497
114	0x39a96b96	0.0003231435
115	0xbbd3d21b	-0.0064642555
116	0x3b9e2c63	0.0048270687
117	0xbbdb46a9	-0.006691773
118	0x3ba2f75c	0.004973335
119	0x3bc4cb8f	0.0060057114
120	0xbbc967ed	-0.006146422
121	0xbbd9f16b	-0.0066510937
122	0x3bc52212	0.0060160244
123	0xbbd7d78c	-0.0065869745
124	0xbb361637	-0.0027784237
125	0xbbd3b027	-0.006460208
126	0xbbd084c0	-0.0063634813
127	0x3b8d625a	0.004314703
128	0x3b22c6d9	0.002483776
129	0xbbcf7c73	-0.006331974
130	0xbbde60a6	-0.0067864237
131	0xbbd0d9db	-0.0063736266
132	0x3bcffb47	0.0063470933
133	0x3bca6ef4	0.0061777774
134	0x3bc2ea47	0.005948338
135	0x3bc11e3e	0.0058934977
136	0x3bc859af	0.0061142067
137	0x3b97b25b	0.004629416
138	0x3bc36db0	0.0059640035
139	0x3bc1ee6b	0.005918314
140	0x3bce0f22	0.006288425
141	0x3b96cc14	0.0046019647
142	0xbbd34e6f	-0.006448559
143	0x3b7c916c	0.0038538827
144	0x3b6b9f37	0.0035953054
145	0xbbd79232	-0.006578707
146	0xbbcbb3ed	-0.006216517
147	0xbbd2827f	-0.0064242478
148	0x3baa9eaa	0.0052069025
149	0xbbc723e5	-0.006077277
150	0x3bbd0b2d	0.0057691545
151	0xbbc43821	-0.0059881364
152	0x3bc1ec1a	0.005918038
153	0xbbc57358	-0.006025713
154	0xbbd0ea04	-0.006375553
155	0xbbcd6b7c	-0.0062689167
156	0xbbebed63	-0.0071999296
157	0xb9f16136	-0.0004603953
158	0x3b4ba927	0.0031076164
159	0x3bc56623	0.0060241385
160	0x3bd32d47	0.0064446065
161	0xbbcdf925	-0.006285804
162	0x3bbd6fd7	0.0057811546
163	0x3ba1afe2	0.004934297
164	0x3ba53d98	0.005042743
165	0x3b967406	0.004591468
166	0xbbc77090	-0.0060864165
167	0x3b624b47	0.0034529732
168	0xbb29916e	-0.0025874036
169	0x3bd10317	0.006378542
170	0xbbc73eb0	-0.006080471
171	0xbbc5fe68	-0.0060422905
172	0x3b542d64	0.0032375688
173	0xbbdfe2f5	-0.0068324753
174	0xb9cfd18b	-0.00039638238
175	0x3bcb4a62	0.0062039355
176	0x3b98a5a4	0.004658418
177	0x3bbf6c84	0.0058417935
178	0x3b6c0ff7	0.0036020258
179	0xbbc908cd	-0.0061350823
180	0x3b3ffa99	0.0029293655
181	0xbbd80501	-0.0065923934
182	0x3b35e074	0.0027752193
183	0xbb92c0aa	-0.0044785338
184	0x3bc79d7c	0.0060917716
185	0xbbd7f25b	-0.0065901703
186	0xbc2802c6	-0.0102545675
187	0xbbdc33b7	-0.006720032
188	0x3be07d76	0.0068508936
189	0x3bd74434	0.0065694097
190	0x3bde8186	0.0067903427
191	0xbbca2127	-0.006168503
192	0x3b9033a5	0.0044006878
193	0xbbd96a38	-0.0066349767
194	0xbbbc74fb	-0.00575125
195	0xbbc3602a	-0.0059623914
196	0x3b9c988f	0.0047789286
197	0xbbddc7d9	-0.0067682085
198	0x3b780674	0.0037845643
199	0xbbd401c2	-0.006469936
200	0x3bbe76e5	0.005812513
201	0xbbc3ef3b	-0.005979446
202	0xbbbdcb72	-0.005792075
203	0x3b97e335	0.0046352395
204	0x3bb3932a	0.00548019
205	0x3a014b1b	0.0004932151
206	0x3bc44f30	0.005990885
207	0xbbc4d871	-0.006007247
208	0x3a90f6cf	0.0011059883
209	0x3b929908	0.004473809
210	0xbbc139d0	-0.0058967844
211	0xbbbc92ab	-0.005754789
212	0xbbd42c89	-0.0064750356
213	0xbbc32b18	-0.005956065
214	0xbbc72ea8	-0.00607856
215	0x3bad1531	0.005282067
216	0x3bd15f41	0.006389529
217	0xbbf2f53c	-0.007414488
218	0x3baab136	0.0052091135
219	0xb8377d3c	-4.3747234e-05
220	0x3bc77057	0.00608639
221	0x3bb77556	0.0055987043
222	0xbbbde08d	-0.005794591
223	0x3b9973f4	0.004683012
224	0xbbd60291	-0.0065310677
225	0xbbcd2cc3	-0.0062614395
226	0xbbd1d927	-0.0064040604
227	0xbbe140e4	-0.0068741906
228	0x3b8c9846	0.0042906133
229	0x3839408a	4.4167544e-05
230	0xb876ce92	-5.8843354e-05
231	0x3bcc2814	0.0062303636
232	0xbbcdefbb	-0.0062846816
233	0xbbcca834	-0.0062456373
234	0xbbc6561c	-0.0060527455
235	0x3bbaa26f	0.005695633
236	0x3bcb252f	0.006199501
237	0x3bc7c491	0.0060964306
238	0xbc0ef70e	-0.008725895
239	0xbbcfd3fe	-0.00634241
240	0xbbcf7e66	-0.0063322065
241	0x3bc5d116	0.006036888
242	0xbbcf2136	-0.0063210977
243	0xbbce4dea	-0.006295909
244	0xbbeaa7b2	-0.007161104
245	0xbbd42893	-0.0064745634
246	0x3a462bd3	0.0007559631
247	0x3b9577cf	0.0045614014
248	0x3bb53c98	0.005530905
249	0x3b2c0c15	0.0026252319
250	0xbbe621f1	-0.007023089
251	0x3a3d8fac	0.00072311866
252	0x3b8882f3	0.004166001
253	0x3aba1e5d	0.0014199723
254	0xbbdb31a3	-0.006689267
255	0x3b2b243e	0.0026114131

bias f4 [32]
0	0xb9bc6af1	-0.00035937832
1	0x3819bb7f	3.6652662e-05
2	0x39963cc0	0.00028655492
3	0x38331ea5	4.2705466e-05
4	0xb8854202	-6.354229e-05
5	0x3911f3b6	0.00013919067
6	0x39ee0ad9	0.0004540298
7	0x392feb49	0.00016776951
8	0xb8a9e14d	-8.1005135e-05
9	0x3924ff12	0.0001573528
10	0xb9c6549e	-0.00037828548
11	0xb9ef1737	-0.0004560293
12	0x391f7030	0.00015205215
13	0x3787522a	1.6131515e-05
14	0xb8bce938	-9.007979e-05
15	0x38984633	7.2610004e-05
16	0xb9610f6d	-0.00021463419
17	0x37ef4b78	2.8526163e-05
18	0xb81d9d1d	-3.757804e-05
19	0x38f76204	0.00011796135
20	0xb877f860	-5.9120706e-05
21	0x36d48f76	6.3347934e-06
22	0xb8e8b9df	-0.00011097243
23	0xb93e8440	-0.00018169079
24	0x36c87a8e	5.9747317e-06
25	0x39de8e74	0.00042449275
26	0x38edbf2e	0.00011336651
27	0xb86c0cbe	-5.627865e-05
28	0xb695327a	-4.4464223e-06
29	0x38091bbe	3.2689182e-05
30	0xb94639ef	-0.00018904333
31	0x36fab9a6	7.472193e-06

weight f4 [20, 32]
0	0x3bec6cb1	0.0072151055
1	0x3c2523c6	0.01007933
2	0xbb8dfb2b	-0.00433292
3	0x3ae2c833	0.0017302096
4	0x3d7458c3	0.059654962
5	0xbb5cd918	-0.0033698734
6	0x3cc3aac1	0.023885133
7	0xbba103d8	-0.0049137883
8	0xbd80789c	-0.062730044
9	0xbdaab1c4	-0.08334687
10	0xbbb88806	-0.0056314496
11	0x3cf60452	0.030031357
12	0x3d33ff0c	0.043944404
13	0x3b9213fd	0.004457949
14	0xbbff97a8	-0.0078000613
15	0xbd1b688b	-0.037941497
16	0xbbc36733	-0.00596323
17	0xbc017cf4	-0.007903326
18	0xbd8dcf7a	-0.06924339
19	0xbda02497	-0.07819479
20	0xbd4f087c	-0.0505452
21	0x3b63c328	0.0034753773
22	0x3b88b9e5	0.004172551
23	0xbb5d8227	-0.00337995
24	0x3d06db00	0.0329237
25	0xbd30bb61	-0.04314745
26	0xbd0df7ae	-0.034660034
27	0x3a91317e	0.0011077372
28	0x3d0b5975	0.03402086
29	0xbbba2c1b	-0.0056815273
30	0xbd892173	-0.06695833
31	0x3d2738fd	0.040825833
32	0xbca09d3c	-0.019606225
33	0x3d52442a	0.051334538
34	0x38cc20a4	9.733558e-05
35	0x3a2b6692	0.00065384165
36	0x3d7c9c2f	0.061672386
37	0x3bd429c3	0.006474705
38	0xbdad5a4c	-0.084644884
39	0x3c200006	0.009765631
40	0x3dac26f1	0.08405865
41	0xbc17535c	-0.009236183
42	0x3d358dd0	0.044324696
43	0x3d786c11	0.060649935
44	0xbaa51133	-0.0012593627
45	0x3ab98967	0.0014155329
46	0xbbd3087c	-0.0064402204
47	0x3d916fde	0.07101415
48	0x3c2f64a2	0.010705145
49	0x3d2b00de	0.041748874
50	0xbd961594	-0.073283345
51	0xbc807497	-0.015680594
52	0xbd40ba9e	-0.047052972
53	0xbad090ed	-0.0015912332
54	0xbc4a6bf0	-0.012354836
55	0x3a07a6df	0.0005174707
56	0x3cc3974c	0.023875855
57	0xbb7a0040	-0.0038147122
58	0xba86ad30	-0.0010275003
59	0xbd469425	-0.048481125
60	0xba86a775	-0.0010273295
61	0xbb9f7796	-0.0048665507
62	0x3d3038c4	0.043022886
63	0x3b7e736b	0.0038826119
64	0xbbfba8e8	-0.0076800473
65	0x3c1ed94d	0.009695363
66	0x3d79ee91	0.06101853
67	0x39989a5a	0.000291067
68	0x3da08967	0.078387074
69	0xbcec3da1	-0.02883798
70	0xbb202552	-0.0024436307
71	0xbc161052	-0.0091591645
72	0x3d38cebe	0.04511904
73	0xbdaebbdd	-0.08531926
74	0x3c8c79bd	0.017147893
75	0xbd97e845	-0.07417349
76	0xbc01988d	-0.007909906
77	0xbbb98d75	-0.005662615
78	0xbbd68e31	-0.0065477123
79	0xbcaefaca	-0.02135982
80	0xbd751cdc	-0.059841976
81	0xbd9c7385	-0.07639221
82	0xbaee79ec	-0.0018194295
83	0x3d807ca2	0.06273772
84	0xbbb41888	-0.0054960884
85	0xbd258dba	-0.040418364
86	0xbb0c65fd	-0.0021423094
87	0xbd7b232c	-0.06131284
88	0x3a435197	0.00074508175
89	0x3d812a63	0.06306913
90	0xbdc58554	-0.09644571
91	0x3ca6ac1d	0.020345742
92	0x3d56abe2	0.052410014
93	0x3d3d6370	0.04623741
94	0xbcd72de2	-0.026266996
95	0x3b9e899f	0.004838183
96	0x3cfa431e	0.030549582
97	0xbd8ee863	-0.06977918
98	0x3d51e139	0.05124018
99	0x3ba9a755	0.0051774182
100	0xbda9bec4	-0.08288339
101	0xbafa60f4	-0.0019102381
102	0x3b267e49	0.0025404862
103	0xbc99462a	-0.018710215
104	0xbc092555	-0.008370717
105	0x3aaf1590	0.0013357867
106	0xbb4c1457	-0.0031140053
107	0x3c8e26a3	0.017352408
108	0xbdd2b32e	-0.10288082
109	0x3b80312a	0.003912111
110	0xbc01ab7f	-0.007914423
111	0x3d92fd18	0.0717718
112	0x3c70290f	0.014658227
113	0x3d13e9b1	0.036111537
114	0x3c8c7c5c	0.017149143
115	0x3beaaab7	0.007161464
116	0xbcbd8296	-0.023133557
117	0xbc10e158	-0.008842789
118	0x3cbb33f0	0.022851914
119	0xbb8c71a9	-0.0042860103
120	0x3da01b78	0.07817739
121	0xbd576ea4	-0.05259575
122	0x3d1e85f5	0.03870197
123	0x3d09cfbc	0.033645377
124	0x3d50fcfd	0.05102252
125	0x3d4b1302	0.049578674
126	0xbcec8bbe	-0.028875228
127	0x3cb406f9	0.021975981
128	0xbdb49920	-0.08818269
129	0xbcb93c92	-0.02261189
130	0x3b0cadfe	0.0021466012
131	0x3d813870	0.06309593
132	0xbc07a9fa	-0.008280272
133	0xbd5e4bfd	-0.054271687
134	0xbd93109c	-0.07180902
135	0xbb97b8f6	-0.0046302034
136	0xbb75d1ca	-0.0037509077
137	0xbbb952d6	-0.0056556268
138	0xbab419c3	-0.0013740588
139	0x3c917ec1	0.017760636
140	0xbbed5e3e	-0.0072439006
141	0xbb625ee3	-0.003454142
142	0x3ce3ddc0	0.0278157
143	0xbd65e8a4	-0.056130067
144	0xbc47f35e	-0.012204019
145	0x3c31b9ac	0.01084749
146	0xbc776b4e	-0.015101267
147	0xbbaf339f	-0.00534673
148	0x39cf08c5	0.0003948865
149	0x3cb43a9a	0.0220006
150	0x3db12ee7	0.08651524
151	0x3d82f992	0.06395258
152	0x3b2b6e03	0.0026158101
153	0xbd6bcc7e	-0.057568066
154	0xbbb1e9ad	-0.0054294677
155	0xbc507052	-0.012722092
156	0xba300c48	-0.0006715697
157	0xbc466794	-0.012109656
158	0x3cca4d6e	0.024695124
159	0xbda260d8	-0.07928628
160	0x3bbc8477	0.0057530957
161	0x3d204b92	0.03913457
162	0xbd7f835e	-0.06238114
163	0x3b12a22d	0.0022374496
164	0x3c621db9	0.013801032
165	0xbb66bdf6	-0.003520844
166	0xbc6bd7f7	-0.014394752
167	0x3c67b6c3	0.014142695
168	0xbd2462eb	-0.040133398
169	0x3db1c3c1	0.08679915
170	0x3d8b7d06	0.06810956
171	0xbbf70830	-0.007538818
172	0x3ac748fb	0.0015204245
173	0xbc8badfb	-0.017050734
174	0xbc7cacea	-0.015422085
175	0xbd4f0901	-0.050545696
176	0xbab31faa	-0.0013666053
177	0x3d5c2b8c	0.053752467
178	0xbab1eff3	-0.0013575539
179	0x3d380589	0.044927154
180	0x3d2f4dac	0.042798683
181	0x3da63bee	0.081168994
182	0x3b356774	0.002768007
183	0xbd4b8e21	-0.04969609
184	0xbd9fccb0	-0.07802713
185	0x3cf8b91e	0.030361708
186	0x3d569183	0.052384865
187	0x3dabbcff	0.083856575
188	0xbd6153c3	-0.055011522
189	0x3d89dcf2	0.06731595
190	0xbba42251	-0.0050089736
191	0xbb77777a	-0.0037760423
192	0x3d1e9d4a	0.03872422
193	0xbd6ce4ca	-0.057835378
194	0xbda165c2	-0.07880737
195	0x3d178f88	0.037002116
196	0xbda967f9	-0.08271784
197	0x3c8c89c5	0.017155537
198	0x3cb1f8c7	0.021725072
199	0x3d2d5c91	0.042324606
200	0xbb3137d7	-0.002704134
201	0x39af778a	0.00033467665
202	0x3b8e8a9d	0.00435002
203	0xbb671a31	-0.0035263414
204	0xbda25c45	-0.07927755
205	0xbb46c7a0	-0.0030331388
206	0xbd13f0e1	-0.036118392
207	0x3d3b2b0d	0.045695353
208	0xbc8cdd27	-0.017195297
209	0xbb0a38e9	-0.002109105
210	0xbd5df06c	-0.054184362
211	0x3d98752c	0.07444224
212	0x3cb655c8	0.0222577
213	0x3d8b74a8	0.0680936
214	0x3ce8c3cd	0.028413678
215	0xbd00f0d8	-0.031479686
216	0x3d99c917	0.07509058
217	0xba4a34d9	-0.00077135634
218	0x3d93c705	0.07215694
219	0xb815543d	-3.560282e-05
220	0x3cf1c849	0.029514449
221	0xbc84d1bf	-0.016213296
222	0x3b36b2b9	0.0027877523
223	0xbaa6ef51	-0.0012736117
224	0xbd664b1e	-0.05622398
225	0x3d43d2e8	0.047808558
226	0xbcb73328	-0.02236326
227	0xbd1b00cd	-0.03784256
228	0x3d5ab406	0.05339434
229	0xbd9e5393	-0.07730784
230	0xb72f20cc	-1.0438449e-05
231	0x3d66f9ca	0.05639056
232	0x3b525aa6	0.0032097488
233	0xbdab6679	-0.083691545
234	0xbd78d9d8	-0.060754627
235	0xbbeb352f	-0.007177971
236	0x3b32c62a	0.002727876
237	0x3d26f739	0.040763114
238	0x3d5ac86e	0.0534138
239	0xbd05d850	-0.032676995
240	0xbb0512f5	-0.0020305489
241	0xbd8b2557	-0.067942314
242	0x39d131be	0.00039900647
243	0x3d4f03e0	0.050540805
244	0xbaefb93c	-0.0018289457
245	0x3b27b677	0.0025590935
246	0x3ba064be	0.004894822
247	0xbd8cc799	-0.06874008
248	0x3db375f0	0.08762729
249	0x3aeb12fe	0.0017934737
250	0x3d9bd346	0.076086566
251	0xbd9247e4	-0.07142618
252	0xbc4ea26a	-0.012611965
253	0xbc302573	-0.010751116
254	0x3b0aee9e	0.0021199356
255	0xbb655a66	-0.0034996509

bias f4 [20]
0	0x3d7a517b	0.061112862
1	0xbac159f7	-0.0014751543
2	0x39429d03	0.00018559773
3	0x3bca33cc	0.0061707254
4	0x3d65dd75	0.0561194
5	0xbda5ff8a	-0.08105381
6	0xbc01d0c1	-0.007923306
7	0xbd39586a	-0.045250334
8	0xbd335b91	-0.043788496
9	0xbcc6201d	-0.024185235
10	0x3a03c1b3	0.0005026117
11	0x3d52a7e1	0.051429633
12	0x39147131	0.00014156547
13	0x39995476	0.00029245362
14	0x3922de49	0.00015532332
15	0xbda7a226	-0.08185224
16	0x3db090c3	0.08621361
17	0x3b8f34b5	0.004370297
18	0xbd83b435	-0.06430856
19	0xb996807e	-0.00028705964

weight f4 [256, 20]
0	0x3d88c4c0	0.06678152
1	0x3d52a68a	0.051428355
2	0x3de30ee3	0.11086824
3	0x3dda2fbe	0.10653637
4	0x3dbd32b8	0.092381895
5	0xbc10c03b	-0.008834894
6	0xba7d257d	-0.000965677
7	0x3bbb3602	0.0057132253
8	0xbdcbdef6	-0.09954636
9	0x3c049f71	0.008094654
10	0xbd522e7e	-0.05131387
11	0x3dffaf98	0.12484664
12	0x3d8788c5	0.066178836
13	0x3ddf4929	0.10902626
14	0x3dc9fbed	0.09862504
15	0x3de5fd08	0.112299025
16	0xbe02aebd	-0.1276197
17	0xbdcc8225	-0.099857606
18	0xbdcaa1ec	-0.098941654
19	0x3db5017f	0.08838176
20	0xbd1bcb4b	-0.038035672
21	0x3d81287e	0.063065514
22	0x3c98f430	0.018671125
23	0x3e028bc6	0.12748632
24	0xbcf843d5	-0.030305782
25	0x39ab8248	0.0003271273
26	0xbdbf7d00	-0.09350014
27	0xbdbb4507	-0.09144025
28	0xbdf1e5ce	-0.1181141
29	0x3d44b9cf	0.048028763
30	0x3a89a1b7	0.0010500465
31	0xbb335440	-0.002736345
32	0x3db728b3	0.0894331
33	0x3d1f4696	0.038885675
34	0x3aff9dbd	0.0019501966
35	0xbd1d4851	-0.038399044
36	0x3d4d5ae6	0.050135516
37	0x3df5495e	0.11976884
38	0xbde9acf1	-0.11409939
39	0xba7ee3e6	-0.00097232906
40	0xbda7c5c4	-0.08192018
41	0x399c1e15	0.00029777052
42	0xbad85956	-0.0016506116
43	0xbdf3a40d	-0.118965246
44	0xbd8be466	-0.06830673
45	0x3c42715b	0.011867846
46	0x3db9d9f1	0.09074772
47	0xbc7b83da	-0.01535126
48	0x3d1ed060	0.03877294
49	0xbdb0c46f	-0.08631217
50	0xbc6c4181	-0.014419914
51	0x3da25694	0.0792667
52	0x3a274c3c	0.0006381904
53	0x3c8f0b04	0.017461307
54	0xbd4a78c8	-0.049431592
55	0x3bb4895b	0.005509538
56	0xb9835323	-0.0002504821
57	0xba3f2c98	-0.0007292717
58	0x3c29a28c	0.010353696
59	0x3a6a7454	0.0008943726
60	0x3d8852bb	0.066564046
61	0xbb84ba90	-0.0040505603
62	0xbb31c88d	-0.0027127594
63	0x3d9ef80e	0.077621564
64	0xbb147493	-0.0022652491
65	0xbdc8fe70	-0.09814155
66	0xbd7c95ee	-0.06166642
67	0x3d5a94ac	0.05336444
68	0x3ce17449	0.02752127
69	0xbce5edc6	-0.02806748
70	0x3d959674	0.07304087
71	0x3ce795ca	0.028269667
72	0x3ca5bb92	0.020231042
73	0x3b567dff	0.0032728908
74	0x3cd4739a	0.02593403
75	0x3abc8f26	0.0014385923
76	0xbdce41bf	-0.10071134
77	0xb947ce47	-0.00019054963
78	0x3b851aec	0.004062047
79	0xbd04ccae	-0.03242176
80	0x3c77995c	0.015112247
81	0x3de7a408	0.11310583
82	0x3ca1f200	0.019768715
83	0x3d72cdc1	0.059278253
84	0x39744dec	0.00023298681
85	0x3af1c9c4	0.0018446972
86	0xb929b637	-0.00016184976
87	0x3dd82575	0.10554019
88	0xbda29c9e	-0.079400286
89	0x3cb34ce7	0.021887256
90	0x3c8c6c04	0.01714135
91	0x3dea6843	0.114456676
92	0xbb0032dd	-0.0019561567
93	0xbca595a8	-0.020212963
94	0x3e0000f0	0.12500358
95	0xbd8f8ad2	-0.070089
96	0x3b028509	0.001991572
97	0xbd5700e3	-0.05249108
98	0x3d96b58e	0.073588476
99	0x3d81fb7b	0.06346794
100	0xbd1680cb	-0.03674392
101	0xb9b55aa3	-0.0003459054
102	0xba53f0de	-0.0008084903
103	0xbdf1380f	-0.117782705
104	0x3debcce8	0.11513692
105	0x3c8f5ad1	0.01749936
106	0xbac01102	-0.0014653506
107	0x3dcb692c	0.09932169
108	0x3cfdbd18	0.030973956
109	0x3cbe70df	0.02324718
110	0x3c89fd2e	0.016844358
111	0xbc1c0628	-0.009522952
112	0xbdba67ed	-0.091018535
113	0x3c51dcac	0.01280896
114	0x3a7a8132	0.0009555995
115	0x3d02d71c	0.031943426
116	0xbd9618d2	-0.07328953
117	0x3afde5e4	0.0019370881
118	0x3da0a7e5	0.07844523
119	0x39570613	0.0002050626
120	0xbd8edaaa	-0.069753006
121	0x3b7130d0	0.0036802776
122	0x3e0459fa	0.12924948
123	0xbb1db1f1	-0.002406236
124	0xba3c8075	-0.00071907724
125	0x3d405ffb	0.046966534
126	0x3d6e6143	0.058198225
127	0x3c265c3b	0.010153825
128	0x38e9d713	0.000111503665
129	0x3d9fc878	0.07801908
130	0x3df157a1	0.11784292
131	0xbddd8e8c	-0.10818204
132	0x3d6a0c36	0.05714055
133	0x3da40a19	0.080097385
134	0x3d282ef1	0.04106039
135	0x3c68d473	0.014210808
136	0x3be0ad46	0.0068565933
137	0x3da4f66f	0.08054816
138	0xba866458	-0.0010253293
139	0x3de34468	0.11097032
140	0xbb8bdb64	-0.0042680968
141	0x3d13c20a	0.036073722
142	0x3db4d4a8	0.088296235
143	0xbba2ab3f	-0.004964262
144	0x3da3c2a1	0.07996107
145	0x3d680e71	0.056654397
146	0x3c3b7f23	0.011443886
147	0xbc2a5baf	-0.010397836
148	0xbda0826f	-0.07837378
149	0x3c56a3c8	0.013100572
150	0x3d43d8e5	0.04781427
151	0xbddfdf2c	-0.109312385
152	0xbb5ff1db	-0.0034171257
153	0x3b58c311	0.0033075253
154	0xbb043b1a	-0.002017683
155	0x3d4203a3	0.04736675
156	0x3dd03d9d	0.10168002
157	0xbc1c2755	-0.009530862
158	0x3c8d3a5b	0.01723974
159	0x3d9e23fe	0.07721709
160	0xbb3303d8	-0.0027315523
161	0x3d189e68	0.037260443
162	0x3e00c7ab	0.12576167
163	0xbb3ba54b	-0.0028632458
164	0xbdefbd7d	-0.11706064
165	0xbdda2ac9	-0.10652692
166	0x3dc14980	0.09437847
167	0xbd6eadec	-0.058271334
168	0x3deb1fa5	0.11480645
169	0xbb5c99b1	-0.0033660943
170	0xbdaca5b3	-0.08430042
171	0x3e011c3e	0.1260843
172	0x3da75982	0.08171369
173	0xb94f76bd	-0.00019785292
174	0xba01c3cd	-0.0004950136
175	0xbd284743	-0.041083585
176	0xbd0f45b6	-0.03497859
177	0x3acf71e6	0.0015826791
178	0x3a830385	0.0009995556
179	0xbd8190c7	-0.06326442
180	0x39093379	0.00013084513
181	0x3c5db796	0.01353254
182	0x3a3ab779	0.00071226765
183	0x3a61085b	0.0008584314
184	0xbd6e3418	-0.05815515
185	0xbcc79df6	-0.024367314
186	0x3aa7083f	0.0012743546
187	0x3d7a9bb7	0.061183657
188	0x3a033a06	0.00050058996
189	0xbda79570	-0.081828
190	0x3c19c971	0.009386406
191	0xbd5e2fe3	-0.054244887
192	0xbdeffd5f	-0.117182486
193	0x3d913dc3	0.07091858
194	0x3d425ba4	0.047450677
195	0x38a52a5e	7.8757046e-05
196	0x3d5bea18	0.053690046
197	0xbc5eeffb	-0.0136070205
198	0x3b9f98b9	0.004870501
199	0xbe023479	-0.12715329
200	0xbcfbc0ff	-0.030731676
201	0xbbbfd0af	-0.0058537344
202	0x3b8c7f5d	0.004287644
203	0x3cb98835	0.022647956
204	0x3b79ee98	0.0038136598
205	0xbd0e6736	-0.0347664
206	0x3daeb0f4	0.08529845
207	0x3d355a9f	0.044275876
208	0xbd2a255d	-0.04153954
209	0xbbddc2bf	-0.0067676003
210	0x3dedd3f6	0.11612694
211	0xbc2c7da4	-0.010528002
212	0xbe053360	-0.1300788
213	0x3d9ccdb8	0.07656425
214	0x3c75304f	0.014965131
215	0x3d12ebae	0.035869293
216	0x3bee3f22	0.0072707096
217	0x3b9a286d	0.004704526
218	0x3bba1f48	0.0056799985
219	0x3cb58fda	0.02216332
220	0xb9d0b5a3	-0.00039808181
221	0xbcc7d099	-0.02439146
222	0xbaf62f95	-0.0018782491
223	0x3b49ef67	0.003081286
224	0xbe026d21	-0.12736942
225	0xb9df118c	-0.00042546948
226	0x3cc2e712	0.023791824
227	0xbd467bcc	-0.048457906
228	0x3d7a97e6	0.061180018
229	0xb9fca532	-0.00048188266
230	0x3d256600	0.040380478
231	0x3c83fe03	0.016112333
232	0x3a56a485	0.00081879675
233	0x3cdd9607	0.027049078
234	0xbdc14af7	-0.094381265
235	0x3d964c35	0.07338754
236	0xb9a1d92c	-0.0003087012
237	0x3affd0ac	0.0019517145
238	0xbc93b8ab	-0.018032392
239	0xbd885df9	-0.06658549
240	0xbd519b8a	-0.051173724
241	0x3ce2c33b	0.027680984
242	0x3ae4c3b3	0.0017453342
243	0x3dd8a026	0.10577421
244	0x39be3c05	0.00036284342
245	0xbe044f58	-0.12920892
246	0xbd17c297	-0.03705081
247	0x3b4676af	0.0030283143
248	0xbd13c539	-0.036076758
249	0xbd163d6c	-0.03667967
250	0x3cd48374	0.025941588
251	0x3c9fe616	0.019518893
252	0xbb15bb9c	-0.002284742
253	0xbda7e28b	-0.081975065
254	0xbdbe9956	-0.0930659
255	0x3b036b51	0.002005298

bias f4 [256]
0	0xbde859be	-0.11345242
1	0x3dcc6b78	0.099814355
2	0x38fd327c	0.000120733836
3	0xbcbfc7aa	-0.023410637
4	0x38c27daa	9.2740476e-05
5	0xbd4fd519	-0.050740335
6	0x3c9244fc	0.01785516
7	0x3dfd3d5b	0.12365218
8	0x3d90526b	0.0704697
9	0xb9355685	-0.00017293736
10	0xbdfee725	-0.12446431
11	0xbd705505	-0.05867483
12	0xbd82c727	-0.063856415
13	0xbd8ca721	-0.06867815
14	0x3dcee955	0.10103098
15	0xbd23a025	-0.039947648
16	0x3ca6c897	0.02035932
17	0xbb20e0a6	-0.0024547963
18	0x370f8e59	8.556607e-06
19	0xbe03e704	-0.12881094
20	0x3bffcc34	0.0078063253
21	0x3d60f549	0.054921422
22	0xbdafba46	-0.08580451
23	0x39f21e19	0.0004618026
24	0xb91415d7	-0.00014122516
25	0x3d7316da	0.059347965
26	0x3afc0f85	0.0019230699
27	0xbcb15ac2	-0.021649722
28	0x3d99b3ea	0.07505019
29	0xb94cd137	-0.00019532895
30	0xbc926072	-0.017868254
31	0xbd34fc46	-0.0441859
32	0x3d057c85	0.032589454
33	0x3d7b5d28	0.061368138
34	0x3dd011e7	0.101596646
35	0x3cbc1fe6	0.02296443
36	0x3ac6e41c	0.0015174183
37	0xbde241d1	-0.1104771
38	0xb88f0f33	-6.8216024e-05
39	0x39ca8b0a	0.00038632035
40	0xb8018fc7	-3.08899e-05
41	0x3b6c49f0	0.0036054812
42	0x3957497f	0.00020531377
43	0x392fdca0	0.0001677149
44	0x3dacf561	0.0844524
45	0x398db0f2	0.0002702545
46	0x3d4cb6bd	0.04997896
47	0x3d73ff60	0.059569716
48	0xb93589fc	-0.00017312908
49	0x379ceb1b	1.8706129e-05
50	0xbdac5d66	-0.08416252
51	0x37ff66c2	3.044622e-05
52	0xbd468d5e	-0.048474662
53	0x3cb830bd	0.022484178
54	0xbc3726c1	-0.011178673
55	0x3d80c054	0.06286684
56	0xbd9f2875	-0.077713884
57	0xb9c813e0	-0.0003816178
58	0xb9e736ce	-0.00044100586
59	0xb94ca039	-0.00019514644
60	0xbda90bcd	-0.08254204
61	0xbd84d095	-0.06485096
62	0x3dd8ee6b	0.105923496
63	0x38f9e2fc	0.000119155244
64	0xbcef9478	-0.0292456
65	0x3c5d3b57	0.013502917
66	0x3d84edc6	0.06490664
67	0x3b72e0c9	0.0037060252
68	0xbb98e16f	-0.0046655457
69	0x3b41e165	0.0029583809
70	0xbdde0c80	-0.10842228
71	0x3d18e1bf	0.037324663
72	0xbd2aef8c	-0.041732356
73	0xbd9e5fda	-0.07733126
74	0xb8160087	-3.5763278e-05
75	0xbd52d2c4	-0.051470533
76	0xbca09251	-0.01960102
77	0xbce03c48	-0.027372494
78	0xb9cea760	-0.00039416086
79	0x39ea0c30	0.00044641038
80	0x3db7a9d2	0.089679375
81	0xbd3e3f9e	-0.04644739
82	0x3db30f91	0.087432034
83	0xb80bbe43	-3.3317378e-05
84	0xb86e8ba1	-5.687366e-05
85	0x3dcbdeff	0.099546425
86	0x3d132538	0.035924166
87	0xbd956f2a	-0.072965935
88	0x3d0243cd	0.03180294
89	0x3d7ee26e	0.06222766
90	0xb99d2ed7	-0.00029980272
91	0x3d51b5c0	0.05119872
92	0x3bf460da	0.0074578347
93	0x3d9ce55c	0.07660934
94	0xbd87a520	-0.06623292
95	0xbded9b71	-0.11601914
96	0x392b30ac	0.00016325962
97	0xb7f74d97	-2.9480825e-05
98	0xbdd96fd3	-0.10617032
99	0xbdb7d007	-0.08975225
100	0x3d94e3ca	0.0727001
101	0xbdad249a	-0.08454247
102	0x3d213ba8	0.039363533
103	0x3d8e5df2	0.069515124
104	0xbb10afb8	-0.0022077393
105	0xbcd307b4	-0.02576051
106	0xbb83d376	-0.004023011
107	0x3dabf7c9	0.08396871
108	0x3d3f1897	0.04665431
109	0xbdd6c332	-0.10486449
110	0xbdc25f32	-0.09490813
111	0x3ca7eb37	0.020497901
112	0xbdab1883	-0.083542846
113	0xb9fcdaa2	-0.0004822808
114	0x39d1d7d6	0.00040024397
115	0x3dc93551	0.098246224
116	0xbda027f7	-0.07820123
117	0xb93779ef	-0.00017497664
118	0x3dafe4c4	0.085885555
119	0x3d8f27b9	0.06989998
120	0xbe00d6c3	-0.12581925
121	0xbdaa5e9d	-0.08318827
122	0x3cf3776f	0.029720036
123	0xbc60ee6b	-0.013728718
124	0x3d91d41c	0.07120535
125	0x3b1b1a17	0.0023666674
126	0x3d95ca7f	0.07314014
127	0xbcb0137d	-0.021493668
128	0x39467e82	0.0001892988
129	0xbd99c507	-0.07508283
130	0xbdd0046f	-0.10157096
131	0xbbe0c2ab	-0.0068591437
132	0x3dee14bb	0.11625048
133	0x3d9c4a3b	0.07631346
134	0x3d93867a	0.07203384
135	0x3da55306	0.08072476
136	0xbdf44401	-0.11927033
137	0x3d8bbb93	0.06822886
138	0x3db168b4	0.08662549
139	0xb9bbb196	-0.0003579973
140	0xbdc5815d	-0.09643815
141	0xbab31b41	-0.0013664739
142	0x3db31488	0.087441504
143	0xbd00841a	-0.031375982
144	0xbcb13d2c	-0.021635614
145	0xbd3b60ef	-0.04574674
146	0xbcfa8651	-0.030581625
147	0xbab1a10d	-0.0013552025
148	0xb8c50dbd	-9.396251e-05
149	0x3d325b40	0.043544054
150	0xb893fb4d	-7.056315e-05
151	0xbdd0ccf3	-0.10195341
152	0x3da37937	0.07982104
153	0x38f68dd6	0.00011756613
154	0xbc337b20	-0.010954648
155	0xbdaa6de5	-0.08321742
156	0x3883380d	6.257007e-05
157	0x3bcd1235	0.006258274
158	0xbdc3f675	-0.09568492
159	0xbdad8172	-0.08471955
160	0x3d1cfa23	0.038324486
161	0x3bca145f	0.006166979
162	0x3990ef04	0.000276439
163	0xb8ae4578	-8.309906e-05
164	0xbc4ddd15	-0.012564917
165	0xb923ca9b	-0.00015620368
166	0x38e08fe7	0.00010707956
167	0x3a47ec7b	0.0007626486
168	0x3b2b9ce7	0.002618605
169	0x3ae14a1f	0.0017188228
170	0x3b13cf8f	0.0022554134
171	0xbc7d743b	-0.015469606
172	0x3e026d0c	0.1273691
173	0x3c8975b7	0.016779764
174	0x39d46d2e	0.00040517136
175	0xb8990229	-7.296011e-05
176	0xbdf70e4f	-0.12063276
177	0xbc1f9289	-0.009739527
178	0xbbb865cd	-0.00562737
179	0x3caa51c5	0.020790944
180	0x3e068f06	0.13140497
181	0xbb9971d6	-0.0046827598
182	0x3dcf2306	0.10114102
183	0xb9337436	-0.00017114062
184	0xbd2c1455	-0.042011578
185	0xbd1deba6	-0.03855481
186	0xb954da7d	-0.00020299289
187	0x39116aeb	0.00013868108
188	0xbb3269c1	-0.0027223679
189	0x3cf942ed	0.03042742
190	0x3dfe3dc4	0.124141246
191	0x3b2d9b3a	0.0026490227
192	0x3d981a29	0.07426865
193	0xb8c7d90c	-9.5294876e-05
194	0xbc227be4	-0.009917233
195	0x3da52dd0	0.08065379
196	0x3df2a687	0.11848169
197	0xbd4b65a5	-0.049657483
198	0xbce649a2	-0.028111283
199	0x3dc02236	0.09381525
200	0x3ca4e4ba	0.020128597
201	0x3dead06a	0.11465533
202	0x3d78ef97	0.060775366
203	0x3df78451	0.12085784
204	0xb7c62f86	-2.362557e-05
205	0x3777ab31	1.4762206e-05
206	0xbd8e3cd0	-0.06945193
207	0x36c5de32	5.8969244e-06
208	0x3d57f257	0.052721348
209	0x38ffc315	0.000121956844
210	0x38a783c2	7.987722e-05
211	0xbd5402c5	-0.051760454
212	0x3dbc2586	0.091868445
213	0xbde5c0b2	-0.11218394
214	0xb944b954	-0.00018761057
215	0x3ddfb1a3	0.109225534
216	0xba5a07bd	-0.0008317193
217	0xbd087698	-0.033316225
218	0x36f814a0	7.393377e-06
219	0xbcfff887	-0.031246437
220	0xbd239651	-0.039938275
221	0x3da9e64f	0.08295881
222	0x3bda8adc	0.0066693854
223	0x3ccb11b6	0.024788719
224	0xbdd4f321	-0.10397936
225	0x3bbbb199	0.0057279584
226	0xbc92d0d3	-0.01792184
227	0xbd423aa9	-0.047419224
228	0xbcfe9150	-0.03107515
229	0x3db2a415	0.087227024
230	0xbd92a79a	-0.07160874
231	0xbcdb93dd	-0.026803905
232	0xbdd6ab77	-0.10481923
233	0x3d849bc5	0.06475023
234	0x3dc4e0aa	0.09613164
235	0x3bbe8a55	0.0058148303
236	0x3dc17340	0.0944581
237	0xb90a529e	-0.00013191483
238	0x3938a5b5	0.00017609338
239	0x3def8794	0.11695781
240	0x3dcd3589	0.10019977
241	0x3dc37540	0.09543848
242	0x3db2ff11	0.08740056
243	0x3db7af00	0.089689255
244	0x3d2177f7	0.039421048
245	0xbc2bfa5b	-0.010496701
246	0xbd02ad31	-0.03190345
247	0xb8d4ee6d	-0.00010153358
248	0xbc38ab06	-0.011271244
249	0xbd81327c	-0.06308457
250	0x3caa5531	0.020792576
251	0x3dfd5705	0.12370113
252	0xbdda1720	-0.10648942
253	0xbda8b757	-0.08238094
254	0x3d44f7c1	0.04808784
255	0xbdf35fd0	-0.11883509
